inventory/ark_material.onnx (onnx, 748353 bytes, 8 tensors)

35 f4 [8, 3, 5, 5]
0	0x3da22905	0.0791798
1	0xbe9e5e7e	-0.30931467
2	0x3e488e75	0.19585593
3	0x3e3ccf02	0.18438342
4	0x3d4d8288	0.050173312
5	0xbe85ea29	-0.26155213
6	0x3eefc3e0	0.46829128
7	0x3d8333d3	0.06406369
8	0xbe01c0b4	-0.12671167
9	0x3ea3461c	0.31889427
10	0x3e9bdc85	0.3044168
11	0xbc9422cd	-0.018083
12	0xbe73acbe	-0.23796365
13	0xbe2c0ea1	-0.16802455
14	0x3e0f25bc	0.13979238
15	0x3e2f2c00	0.17106628
16	0xbe11a41e	-0.14222762
17	0x3cbfc09e	0.023407277
18	0xbec22780	-0.3792076
19	0x3ed64181	0.4184685
20	0x3e4e5f0c	0.20153445
21	0xbf00a561	-0.5025235
22	0xbdf828f7	-0.121171884
23	0x3e0ba7f5	0.1363829
24	0x3e877790	0.26458406
25	0xbe6aa0b7	-0.2291287
26	0x3d9a6150	0.07538092
27	0x3dee4874	0.11634913
28	0xbebd8c0b	-0.37020907
29	0x3e1ab9b5	0.15109904
30	0x3efeed15	0.49790254
31	0x3ec0a7cf	0.37628028
32	0x3eef8f23	0.46788892
33	0xbeaa91ab	-0.3331426
34	0xbe867a73	-0.26265296
35	0x3eaf194e	0.34198993
36	0x3e9ea0e8	0.30982137
37	0x3e9d98aa	0.30780536
38	0xbdf97ccf	-0.121820085
39	0xbd2ba746	-0.04190757
40	0x3da857de	0.08219884
41	0xbf0a1599	-0.53939205
42	0xbf2832e8	-0.65702677
43	0x3ead74ee	0.33878273
44	0x3e399e9d	0.18126912
45	0xbec15734	-0.37761843
46	0xbf1d4183	-0.6142809
47	0xbdd48db7	-0.103785925
48	0x3e8f1564	0.27946007
49	0xbec6ecdc	-0.38852584
50	0x3d03f7b3	0.032218646
51	0x3f001bc9	0.50042397
52	0xbd2f67e9	-0.042823706
53	0x3ee0b571	0.4388843
54	0x3ea9b8a3	0.3314868
55	0x3e094bb0	0.13407779
56	0x3f3523cc	0.70757747
57	0x3f268db3	0.65059966
58	0x3f0af770	0.5428381
59	0x3ddf1af5	0.108938135
60	0x3f0589bf	0.5216331
61	0xbcd408b9	-0.025883066
62	0xbddbdad6	-0.10735099
63	0xbe36aa36	-0.17838368
64	0xbecd9804	-0.4015504
65	0xbe9fedb7	-0.3123605
66	0x3e84cc63	0.25937185
67	0x3e58c339	0.21168222
68	0xbc29fd70	-0.010375366
69	0xbeed33d4	-0.46328604
70	0xbe79b396	-0.24384913
71	0xbf0a3bb8	-0.53997374
72	0xbf136c3f	-0.57587045
73	0xbf140cb4	-0.57831883
74	0x3e74effd	0.23919673
75	0xbe8e46f2	-0.27788502
76	0xbee598c5	-0.44843116
77	0xbe54213d	-0.20715804
78	0x3b7971f1	0.00380623
79	0xbedc6d82	-0.43052298
80	0x3e873483	0.2640725
81	0xbebd0231	-0.36915734
82	0x3e9e6bfc	0.3094176
83	0x3ea1f2df	0.31630608
84	0x3d98e4d0	0.074655175
85	0x3d275cce	0.04085999
86	0xbed5782d	-0.4169325
87	0x3edb7f3f	0.4287052
88	0xbecd0970	-0.40046263
89	0xbc91fea8	-0.017821625
90	0xbebe102a	-0.37121707
91	0xbe499c1f	-0.19688462
92	0xbc9e38f4	-0.019314267
93	0x3ed672f0	0.41884565
94	0x3f132556	0.57478845
95	0xbe37f692	-0.17965153
96	0xbdfd07d5	-0.123550095
97	0x3ec33a43	0.38130388
98	0xbde3a73d	-0.111158825
99	0x3e221fc7	0.15832435
100	0x39919c5b	0.0002777305
101	0xbf0d7fcf	-0.55273145
102	0xbe86f504	-0.26358807
103	0x3ec957e7	0.39324877
104	0xbed176ff	-0.409111
105	0xbe984b67	-0.29745027
106	0x3e563267	0.20917664
107	0x3df70189	0.1206084
108	0x3d01ad4a	0.031659402
109	0xbe838cf4	-0.25693476
110	0xbea732d4	-0.32655966
111	0x3e4110db	0.18854086
112	0xbefaec82	-0.49008566
113	0xbedfa2e7	-0.43678972
114	0x3ee1fc7d	0.44137946
115	0xbdba5a44	-0.09099248
116	0xbcf617bd	-0.030040616
117	0x3cbd6eee	0.023124184
118	0x3c4e056b	0.012574534
119	0x3e6cfcef	0.23143362
120	0x3e819a63	0.253131
121	0xbe782753	-0.24233751
122	0x3e98e5b5	0.29862753
123	0xbdbe1444	-0.09281209
124	0xbea7740e	-0.3270573
125	0xbf0d3f85	-0.5517505
126	0xbe055905	-0.1302224
127	0xbecbff06	-0.39843005
128	0xbe22ccdb	-0.15898459
129	0xbe607ba1	-0.2192216
130	0xbcdc8e9f	-0.026923476
131	0xbf01f335	-0.5076173
132	0x3daf77a1	0.08567739
133	0xbec5d076	-0.38635606
134	0xbece4f11	-0.40294698
135	0x3e6a3410	0.22871423
136	0x3e8ba4cb	0.27274165
137	0x3daa4811	0.08314527
138	0x3ecf6ce8	0.40512776
139	0x3e178430	0.1479652
140	0xbed2a9de	-0.41145223
141	0xbe1e0bdc	-0.15434211
142	0x3ed86572	0.42264897
143	0x3dbaae72	0.09115304
144	0x3eb2aa5f	0.34895608
145	0xbe9316c0	-0.28728294
146	0xbd5d6857	-0.054054584
147	0x3ed308d8	0.41217685
148	0x3f036c43	0.5133707
149	0x3ecfdb15	0.40596834
150	0x3eaf7443	0.34268388
151	0x3ef6210b	0.48072085
152	0x3ea09812	0.3136602
153	0xbe1bcac2	-0.15214065
154	0xbf2d757e	-0.67757404
155	0x3f0c9b22	0.54924214
156	0xbed994c4	-0.42496312
157	0xbe09e02a	-0.13464418
158	0xbf06d311	-0.5266581
159	0x3e0f011b	0.13965265
160	0x3e554244	0.2082606
161	0x3ce950af	0.028480856
162	0xbeaaaeff	-0.33336636
163	0xbecf6bc3	-0.40511903
164	0xbea6df53	-0.32592258
165	0x3e697d05	0.22801597
166	0xbef9f538	-0.488199
167	0x3b6caadc	0.0036112582
168	0xbf18baad	-0.59659845
169	0x3e62fd8c	0.22167033
170	0xbe9960ef	-0.29956767
171	0x3e337392	0.17524555
172	0xbe694805	-0.2278138
173	0xbe4d0880	-0.20022774
174	0x3dead7a3	0.11466911
175	0x3e4783ee	0.19483921
176	0x3ea27a84	0.31734097
177	0xbeab5c1f	-0.3346872
178	0x3e182df0	0.14861274
179	0xbeeed5c1	-0.46647456
180	0x3db73d89	0.08947284
181	0x3ea759cf	0.32685706
182	0x3cc7a0b8	0.024368629
183	0xbdf4033b	-0.11914679
184	0xbdbaa689	-0.09113795
185	0xbe1f343c	-0.1554727
186	0x3f1ae7fd	0.60510236
187	0xbe2b4f6a	-0.16729513
188	0x3da2b5a5	0.07944802
189	0xbe7c18a2	-0.24618772
190	0xbe103015	-0.14080842
191	0x3ea24ba2	0.31698328
192	0x3e9abd20	0.30222416
193	0xbe903cbe	-0.28171343
194	0xbeaac0d7	-0.3335025
195	0x3deb1866	0.11479263
196	0xbf1edc20	-0.62054634
197	0xbeac1fe8	-0.33618093
198	0xbed8c1b4	-0.42335284
199	0x3e430a23	0.19046836
200	0x3d35b265	0.044359583
201	0x3ee53ea3	0.4477435
202	0xbd5a50ac	-0.05329959
203	0xbe8fa5a0	-0.2805605
204	0xbf3d6ac0	-0.7399101
205	0xbd0e125e	-0.034685485
206	0xbe3a92d5	-0.18220074
207	0xbe22d695	-0.15902169
208	0x3e8f617b	0.2800406
209	0xbe8b26a3	-0.27177915
210	0x3f1f6a9b	0.6227204
211	0x3eea095b	0.45710263
212	0x3c9c1ed7	0.019057674
213	0x3eeab075	0.4583775
214	0xbebe3115	-0.37146822
215	0x3d9be6f4	0.0761241
216	0x3dcd7db7	0.10033744
217	0x3e196a97	0.14982067
218	0x3f026479	0.5093456
219	0x3f15faff	0.58586115
220	0xbe94a69d	-0.29033366
221	0x3e8d4fb0	0.2759986
222	0xbe4c30c5	-0.19940479
223	0x3ef07cde	0.46970266
224	0x3f1d6c16	0.6149305
225	0xbe0da1dc	-0.13831276
226	0xbe9fc23c	-0.31202877
227	0xbf0b7319	-0.544725
228	0x3d7b300f	0.06132513
229	0xbe9a0b1b	-0.30086598
230	0x3e57c101	0.21069719
231	0x3ebf3dcf	0.37351844
232	0xbf01a99f	-0.50649446
233	0x3d8bfe31	0.068355925
234	0xbe895d1a	-0.26828843
235	0x3ecbfdd1	0.39842084
236	0x3f069a2e	0.5257901
237	0x3ed6a293	0.4192091
238	0xbe1b9bcf	-0.15196155
239	0xbcf3d7ab	-0.029765924
240	0x3f1e661f	0.61874574
241	0x3f24f833	0.6444122
242	0x3edecf92	0.4351774
243	0x3ec729c4	0.38899052
244	0x3ddc132e	0.10745846
245	0x3e0c2a81	0.13688089
246	0x3e6d9f08	0.23205197
247	0x3f17732b	0.5916011
248	0xbe0f2c9b	-0.1398186
249	0x3e9eaf6f	0.3099322
250	0xbe98d991	-0.2985349
251	0x3e388910	0.18021035
252	0x3e73c721	0.2380643
253	0xbe5c17c3	-0.2149344
254	0xbf1026bf	-0.5630912
255	0x3eb6963c	0.35661495

36 f4 [8]
0	0xbecd3f84	-0.4008752
1	0x3f4cab2b	0.7994868
2	0x3e3bfbef	0.18357824
3	0xbe12a18c	-0.14319438
4	0x3e5786db	0.21047537
5	0xbf96e353	-1.1788124
6	0xbe6b99ea	-0.23007932
7	0xbfd3bccf	-1.6541995

38 f4 [16, 8, 3, 3]
0	0x3efd3305	0.49452987
1	0xbea41892	-0.32049996
2	0xbf85910a	-1.0434887
3	0xbd43f345	-0.04783942
4	0xbf3742f9	-0.7158657
5	0xbfe97356	-1.8238323
6	0xbead27ec	-0.3381952
7	0xbca5ec5f	-0.020254312
8	0xbf232c6d	-0.63739663
9	0xbeb16f22	-0.346551
10	0xbf29af31	-0.66282946
11	0x3eacb99e	0.33735365
12	0xbe8bd50d	-0.27310982
13	0xbf716cea	-0.94306815
14	0xbf9abbdb	-1.2088579
15	0xbed5ab26	-0.41732138
16	0xbf61b3cd	-0.8816498
17	0xbdf1605d	-0.11785958
18	0x3eb434fe	0.3519668
19	0x3fb64175	1.4238726
20	0x3f85ad7f	1.0443572
21	0xbf1680df	-0.5879039
22	0xbf47c88a	-0.78040373
23	0xbe1409d6	-0.14456877
24	0x3e315f22	0.17321447
25	0xbfa0fdd2	-1.257746
26	0xbdd92525	-0.10602788
27	0x3f1a9663	0.6038572
28	0x3f129492	0.5725795
29	0x3e6a541f	0.22883652
30	0x3e0fa1f6	0.14026627
31	0xbeaa06e0	-0.3320837
32	0x3e651336	0.2237061
33	0xc001ea71	-2.0299342
34	0xbeb11e37	-0.34593365
35	0x3fa7c073	1.3105606
36	0xbec9cfe4	-0.3941642
37	0xbfa5d3f7	-1.2955312
38	0xbe39913a	-0.18121806
39	0x3f570d93	0.8400509
40	0x3fa9c1fc	1.3262324
41	0xbe6758ac	-0.2259242
42	0x3f1bb1da	0.60818255
43	0x3f99202e	1.1962945
44	0xbf9311e5	-1.1489836
45	0xbdd30164	-0.103029996
46	0x3f9871b2	1.1909697
47	0xbf374aff	-0.7159881
48	0xbf8232fe	-1.0171812
49	0xbf58a8a2	-0.84632313
50	0xbfb56de0	-1.4174156
51	0x3e212d8d	0.15740032
52	0xbf06d3de	-0.52667034
53	0x3c0abb3e	0.008467494
54	0xbf9f9fc6	-1.2470634
55	0x3f16ce01	0.58908087
56	0xbf86ad51	-1.0521642
57	0x3ecaa20d	0.3957676
58	0xbf1ed94f	-0.62050337
59	0xbf6f71f0	-0.9353323
60	0x3dbcc548	0.09217316
61	0xbf0b2202	-0.54348767
62	0x3e281d79	0.16417493
63	0xbd51b835	-0.051201064
64	0x3d98b011	0.07455457
65	0x3e126e0b	0.1429979
66	0x3da1d388	0.079016745
67	0x3f41a3b2	0.75640404
68	0x3fd84cdd	1.6898457
69	0xbed7da53	-0.42158756
70	0x3ea56058	0.32300067
71	0x3e425b2a	0.18980089
72	0x3eb70c5e	0.35751623
73	0xbee89eee	-0.45433754
74	0xbd830acf	-0.06398546
75	0x3f238a44	0.6388285
76	0x3de7cc19	0.113182254
77	0xbf9e7d73	-1.2382034
78	0x3f90d534	1.1315064
79	0xbf3965f1	-0.72421175
80	0x3ebc87d5	0.36822382
81	0xbc7e8948	-0.01553566
82	0xbe9a8e4e	-0.30186695
83	0xbd6304e4	-0.055424586
84	0xbf28b2f9	-0.6589809
85	0xbf0f0e0f	-0.55880827
86	0xbf858198	-1.0430174
87	0xbf630376	-0.88677156
88	0xbf85633d	-1.042091
89	0x3eab9f8e	0.33520168
90	0xbf447eda	-0.7675606
91	0x3e91dfa0	0.28490925
92	0xbf197ffd	-0.5996092
93	0x3edeec74	0.43539774
94	0xc0088880	-2.1333313
95	0xbf8ff62a	-1.1246998
96	0x3f30a244	0.689976
97	0x3fb77ab9	1.4334327
98	0x3f569222	0.8381673
99	0xbeda4669	-0.42631844
100	0x3d8301da	0.063968375
101	0xbf04c52e	-0.5186337
102	0xbfa5139e	-1.2896612
103	0x3f1d82c1	0.6152764
104	0xbf8dc3dc	-1.1075397
105	0x3f80124c	1.0005584
106	0x3d0024a6	0.03128495
107	0xbb555db3	-0.003255707
108	0xbf6bc1bf	-0.9209251
109	0xbf25a11c	-0.6469896
110	0xbf86dc78	-1.0536032
111	0xbf481c5f	-0.7816829
112	0xbf57cc3c	-0.8429601
113	0xbf2a1021	-0.6643086
114	0xbe36cbf1	-0.17851235
115	0x3e2135d5	0.15743192
116	0x3f4c2cb5	0.7975572
117	0xbf643b6c	-0.8915317
118	0x3e6fee97	0.23430859
119	0xbee3ad68	-0.44468236
120	0x3fa16996	1.2610347
121	0x3dbe2649	0.09284646
122	0xbf59b74e	-0.85045326
123	0xbf00ed8c	-0.5036247
124	0xbeb9e8f0	-0.3631053
125	0xbe363d51	-0.17796828
126	0x3e299470	0.1656053
127	0x3f309976	0.6898416
128	0x3f12ef53	0.5739643
129	0x3f1b7873	0.60730666
130	0xbecff4c2	-0.40616423
131	0xbf92040b	-1.1407484
132	0xbe937348	-0.2879889
133	0x3f6e3947	0.9305615
134	0x3f44a301	0.76811224
135	0x3ea43ebb	0.3207911
136	0xbe4d6845	-0.20059307
137	0xbe9d845f	-0.30765054
138	0xbf7bcbd7	-0.9835791
139	0xbfb1b300	-1.3882751
140	0x3f6d023e	0.92581546
141	0xbecab9e4	-0.39594948
142	0x3de2ccf4	0.11074248
143	0x3f00f366	0.50371397
144	0xbf90ffbc	-1.1328044
145	0x3f90ddeb	1.1317724
146	0x3eb290d6	0.34876126
147	0x3e1a9f5a	0.1509985
148	0x3f4f33cb	0.80938405
149	0xbdacf61b	-0.084453784
150	0x3f06c001	0.52636725
151	0x3f2602d8	0.6484809
152	0x3dc8e75a	0.09809752
153	0x3f0b2824	0.54358125
154	0xbfc3729a	-1.5269349
155	0xbe01b2e0	-0.12665892
156	0x3f63e7f2	0.89025795
157	0xbe876195	-0.26441637
158	0xbfb82ce8	-1.4388704
159	0xbcdb0ed4	-0.026740469
160	0x3e70fddc	0.2353434
161	0xbe969f41	-0.29418376
162	0x3f4ff3ec	0.8123157
163	0xbff6f9ae	-1.9294946
164	0x3dddcac5	0.10829691
165	0x3f42fa30	0.76163006
166	0xbf34f605	-0.70687896
167	0xbf18120a	-0.59402525
168	0x3d4646e6	0.048407458
169	0x3f43ab18	0.76432943
170	0xbf39ce46	-0.72580373
171	0xbe2fe4e3	-0.17177157
172	0xbfb77a22	-1.4334147
173	0x3f8c4349	1.0958034
174	0x3ce02259	0.027360128
175	0xbfc6851c	-1.5509372
176	0xbf04eebb	-0.51926774
177	0x3e945c7d	0.28976813
178	0x3f4b70f3	0.7946922
179	0x3f67d890	0.90564823
180	0xbf7ae931	-0.9801207
181	0x3fcd564d	1.6041962
182	0xbf1555a7	-0.5833382
183	0xbf3106a4	-0.6915076
184	0xbe381e08	-0.17980206
185	0xbf938bcc	-1.1527038
186	0xbf1d588f	-0.61463255
187	0xbfb5ab7b	-1.4192957
188	0xbedf7474	-0.43643534
189	0x3db29721	0.08720232
190	0xbeed7e6f	-0.46385524
191	0x3f2001c6	0.62502706
192	0xbee3b6ee	-0.44475502
193	0x3f09e6f3	0.53868026
194	0xbed3a2d6	-0.4133517
195	0xbf068a2a	-0.5255457
196	0x3f9e95ee	1.2389505
197	0x3e80fc1c	0.25192344
198	0x3f130b95	0.5743955
199	0xbe2ef23c	-0.17084593
200	0x3f36eb62	0.71452916
201	0xbe8e4fb4	-0.27795184
202	0xbe8ac61c	-0.2710427
203	0x3ed56ede	0.41686147
204	0xbf184f89	-0.5949636
205	0x3e898f50	0.2686715
206	0x3f2a132c	0.66435504
207	0xbf07f094	-0.5310147
208	0xbee8bdd9	-0.45457342
209	0xbf66e203	-0.90188617
210	0xbf20cfd4	-0.6281712
211	0x3f87c1f9	1.0606071
212	0xbe875165	-0.26429287
213	0xbf85c47f	-1.0450591
214	0x3feeb64f	1.8649386
215	0xbf65c823	-0.8975851
216	0x3f320e33	0.69552916
217	0x3dfca828	0.12336761
218	0x3f63da23	0.89004725
219	0xbeebe108	-0.46070123
220	0x3f6bdfd0	0.92138386
221	0xbef9c4f1	-0.48783067
222	0xbec17930	-0.3778777
223	0xbfcb3c36	-1.587775
224	0x3e927f36	0.2861268
225	0xbe62aa17	-0.22135197
226	0x3ef9864f	0.48735282
227	0x3e4953b1	0.19660832
228	0x3ed5d518	0.4176414
229	0x3f3f265f	0.74667925
230	0x3fc8ac2b	1.5677541
231	0xbf09ecff	-0.5387725
232	0x3d6df2ce	0.058092885
233	0x3ecf0943	0.40436754
234	0xbe1b4e95	-0.15166695
235	0xbf28042d	-0.6563137
236	0x3f0c4ff9	0.5480953
237	0x3fe3017f	1.7734832
238	0xbec31e58	-0.38109088
239	0x3f01bff7	0.5068354
240	0xbe6c155b	-0.23055021
241	0xbfbdae26	-1.4818771
242	0xbf332222	-0.6997396
243	0xbf93a165	-1.1533629
244	0x3eef8125	0.46778217
245	0x3dc15339	0.094397016
246	0x3f720ff4	0.9455559
247	0x3fa9f1e6	1.3276947
248	0xbf150917	-0.58216995
249	0x3f6eef11	0.93333536
250	0xbfb88ae4	-1.4417386
251	0xbf109709	-0.5648046
252	0x3f08fcdd	0.5351084
253	0xbfb8cec2	-1.4438097
254	0xbd27ad0f	-0.040936526
255	0xbf0d7258	-0.552526

39 f4 [16]
0	0x40745780	3.8178406
1	0x4054e00a	3.3261743
2	0x3fa2f501	1.2731019
3	0x3e33ab84	0.17545897
4	0xc02350f7	-2.5518167
5	0xc0203811	-2.503422
6	0x3ea62dd4	0.3245684
7	0x402048c1	2.5044405
8	0x3fafa5a3	1.3722423
9	0x3fec7255	1.8472391
10	0x3f5f4764	0.8721831
11	0x407d3f52	3.9569898
12	0x3fbdf8b2	1.4841521
13	0xbf6a5e04	-0.91549706
14	0x3e6a162e	0.22860023
15	0xbee9ca84	-0.4566232

fc.0.bias f4 [538]
0	0x3e08f8c8	0.13376153
1	0x3d31491f	0.043282624
2	0x3d8a7e10	0.06762326
3	0xbd14b654	-0.036306694
4	0xbd0cfc52	-0.03442032
5	0x3d836e2b	0.06417497
6	0x3d37f248	0.04490879
7	0xbcc8f7ab	-0.02453216
8	0xbce6e5f4	-0.028185822
9	0x3e0b0f45	0.13580044
10	0xbd6bd5fc	-0.05757712
11	0x3dc13f2a	0.09435876
12	0x3d3c8eae	0.046034507
13	0x3d90e50a	0.07074936
14	0x3e0f4368	0.13990557
15	0x3d89730f	0.06711399
16	0x3d301f8c	0.042998835
17	0x3d8b9622	0.06815745
18	0xbbab5e76	-0.0052297665
19	0xbd84fcc2	-0.06493522
20	0x3c5a9c64	0.0133429505
21	0xbc7f4993	-0.015581506
22	0x3e0be089	0.13659872
23	0x3d611a5a	0.05495677
24	0x3e3831c1	0.1798773
25	0x3d923bb5	0.071402945
26	0x3d85efc6	0.06539874
27	0x3d6d600b	0.05795292
28	0x3de129ff	0.10994338
29	0x3d8152e2	0.06314637
30	0xbc9a2950	-0.018818527
31	0x3e01b4ed	0.12666674
32	0xbd0bda38	-0.034143656
33	0x3d717234	0.058946803
34	0x3da2d153	0.07950082
35	0xbca8621a	-0.020554591
36	0xbccfc533	-0.025362587
37	0x3df79ccd	0.12090454
38	0x3d241161	0.040055636
39	0xbc5792fb	-0.0131576015
40	0x3db67032	0.08908118
41	0x3d2e0d52	0.042493172
42	0x3ca5be31	0.020232292
43	0x3e0c81fb	0.13721459
44	0x3dfd0a3b	0.12355467
45	0x3cc32c47	0.023824824
46	0x3d30d1cc	0.043168828
47	0x3d15163e	0.036398165
48	0x3e1d41ef	0.15357183
49	0xbc55e672	-0.013055431
50	0x3c33e7ce	0.0109805595
51	0x3c86d56d	0.016459191
52	0x3d29bc77	0.0414395
53	0x3d8b91c3	0.06814911
54	0x3df5d5ab	0.120036446
55	0xbd85851c	-0.06519529
56	0x3d69bfeb	0.057067793
57	0x3b86c352	0.0041126395
58	0x3d2e58f4	0.0425653
59	0x3d4db313	0.050219607
60	0x3cc4444d	0.02395835
61	0x3d7c72ef	0.061633047
62	0xbd2ef776	-0.042716466
63	0xbc5fccc5	-0.013659661
64	0x3dea7f11	0.11450017
65	0x3d245763	0.0401224
66	0x3e0074f3	0.12544613
67	0x3d8a3d80	0.067500114
68	0xbd6411ce	-0.055681042
69	0x3d6cc7a1	0.05780757
70	0x3cabd5f7	0.02097605
71	0x3e14e52f	0.14540552
72	0xbae08a59	-0.0017131075
73	0xbb8cae9b	-0.0042932755
74	0x3ce8bc86	0.028410207
75	0x3d9023ff	0.07038116
76	0xbd2dae1c	-0.04240237
77	0x3dd7aadb	0.10530635
78	0x3d5449f2	0.051828332
79	0x3dad54e5	0.08463458
80	0xbcadb081	-0.021202328
81	0xbd4c2aa2	-0.049845345
82	0x3d59a20f	0.053133067
83	0x3cf883f5	0.03033636
84	0x3ddc8661	0.10767818
85	0x3bfaf3c4	0.0076584537
86	0x3dee9d09	0.11651046
87	0x3dca52d9	0.09879083
88	0xbcc93170	-0.024559706
89	0x3e0ac3c4	0.13551241
90	0x3e0809b2	0.13284948
91	0xbd4ec255	-0.0504783
92	0x3dc9d510	0.098550916
93	0xbc8b81d7	-0.017029686
94	0xbd6a880a	-0.057258643
95	0xbba23bc1	-0.004950971
96	0x3db5e9f0	0.08882511
97	0x3d8a11fe	0.06741713
98	0xbd1282de	-0.035769336
99	0x3d313dd1	0.043271843
100	0x3da43896	0.080186054
101	0x3d1f99ab	0.03896491
102	0xbb9a114b	-0.0047017685
103	0xbcf38d7b	-0.02973055
104	0x3d005b93	0.031337332
105	0xbd99a302	-0.075017944
106	0x3ddf5422	0.10904719
107	0xbd2df64c	-0.042471215
108	0x3e19f578	0.15035045
109	0x3d21e7bc	0.03952764
110	0x3d80396d	0.06260953
111	0xbcb84673	-0.02249453
112	0xbd7b1d97	-0.061307516
113	0xbcf51276	-0.02991603
114	0x3c48f35b	0.012265052
115	0xbc9cafee	-0.019126859
116	0xbc45125d	-0.012028304
117	0x3d861796	0.065474674
118	0x3d0f3892	0.03496606
119	0x3cc84717	0.02444796
120	0xbd1ce0b4	-0.03830023
121	0x3e0ae193	0.13562612
122	0x3dab09ba	0.083514646
123	0x3dd8ed50	0.10592139
124	0xbb9c1046	-0.004762682
125	0xbd94653c	-0.072458714
126	0x3d67a063	0.05654944
127	0x3da33a0f	0.07970058
128	0x3ce6c5dd	0.02817052
129	0x3dc8ef25	0.09811238
130	0x3d04f88e	0.032463603
131	0xbd87e24b	-0.06634959
132	0xbd387519	-0.045033548
133	0x3d7cc0f8	0.061707467
134	0x3d78f5ed	0.060781408
135	0xbd30984e	-0.043114
136	0x3e002766	0.1251503
137	0x3db583ea	0.08863051
138	0x3d7bee0e	0.061506324
139	0x3da61c67	0.08110886
140	0xbd42ef15	-0.047591288
141	0x3e19d7b0	0.15023685
142	0x3d04fb80	0.03246641
143	0x3e0b88af	0.1362636
144	0x3cdf1111	0.027229818
145	0xbd6882fa	-0.056765534
146	0x3d9825cd	0.07429085
147	0x3dc4246a	0.09577258
148	0xbd6827f8	-0.056678742
149	0x3d73cda4	0.059522286
150	0xbc12aa04	-0.008951668
151	0x3cb12bf3	0.021627402
152	0x3dfb3102	0.12265207
153	0x3d7d9e39	0.06191847
154	0x3ba2cd69	0.0049683345
155	0xbd573255	-0.052538235
156	0x3db9fbfc	0.09081265
157	0x3d32e566	0.043675803
158	0xbc762c9c	-0.015025284
159	0x3e19342b	0.14961307
160	0x3d9cccba	0.07656236
161	0xbc5ff831	-0.013670013
162	0x3c140396	0.009034058
163	0x3c9f661a	0.019457866
164	0xbcf7c52d	-0.030245388
165	0x3d335a7c	0.043787464
166	0x3dfb1337	0.12259524
167	0x3c9163e3	0.017747825
168	0x3d717bf0	0.058956087
169	0x3d7b97d9	0.06142411
170	0xbc1151b7	-0.00886958
171	0x3d931789	0.07182223
172	0x3e01e209	0.12683882
173	0xbd15eea2	-0.03660453
174	0x3d12ed9c	0.035871133
175	0xbbc15313	-0.005899796
176	0x3a830b29	0.0009997833
177	0xbc89a977	-0.01680444
178	0x3d992906	0.07478528
179	0x3c928dc8	0.017889872
180	0x3dd77a3c	0.10521361
181	0x3c76ff67	0.015075541
182	0x3de91e20	0.11382699
183	0x3df69869	0.12040789
184	0x3e05f4a5	0.13081606
185	0xbd6614e2	-0.05617226
186	0xbd6703ba	-0.05640004
187	0x3d9f251a	0.077707484
188	0x3d8c01d0	0.06836283
189	0x3d6bb66c	0.057547018
190	0x3db45b73	0.08806505
191	0x3d88d892	0.066819325
192	0x3d9e6107	0.0773335
193	0x3c03e0da	0.008049214
194	0x3dd5bde5	0.1043661
195	0xbc47c0b2	-0.012191938
196	0x3df3d485	0.11905769
197	0xbc80d993	-0.015728747
198	0x3d89c8e9	0.06727774
199	0x3d6e00c3	0.058106195
200	0xbd6bd15d	-0.05757271
201	0x3c8aad65	0.016928384
202	0x3e005570	0.12532592
203	0x3c266682	0.010156276
204	0x3da5c13f	0.080934994
205	0x3deb57c1	0.11491347
206	0xbc337bf4	-0.010954846
207	0x3d54fffe	0.052001946
208	0xbce86f60	-0.02837342
209	0xbbc309a0	-0.005952075
210	0x3d6b9848	0.057518274
211	0x3cb4a26d	0.022050107
212	0xbd8af79c	-0.06785509
213	0x3d4503ed	0.048099447
214	0x3bdbe2bc	0.0067103785
215	0x3dd15183	0.10220625
216	0x3d10a139	0.035310004
217	0xbcd5fd41	-0.026121737
218	0x3d85a25e	0.0652511
219	0x3d110ff1	0.035415594
220	0x3d45eff8	0.048324555
221	0x3c89a79d	0.016803557
222	0x3d6ae700	0.057349205
223	0xbca5b512	-0.020227943
224	0x3d7a5eb6	0.06112548
225	0xbc75ab63	-0.014994475
226	0x3dd190b8	0.10232681
227	0x3c527db5	0.012847354
228	0x3e0907f7	0.13381945
229	0x3a81207c	0.00098516
230	0x3dd07fd2	0.1018063
231	0xbd93e27c	-0.07220933
232	0x3b34b4e0	0.002757363
233	0xbd0005b8	-0.031255454
234	0x3dcdb608	0.10044485
235	0xbd5ea0ff	-0.054352757
236	0xbaa7dde3	-0.0012807216
237	0x3dd39c18	0.10332507
238	0x3d8b19d6	0.06792037
239	0x3db0dc54	0.08635774
240	0x3d742e28	0.05961433
241	0xbd1e54bb	-0.038655024
242	0x3dc11367	0.09427529
243	0x3e0145a2	0.12624219
244	0xbd286920	-0.04111588
245	0x3d6fb6c1	0.058523897
246	0x3e15b2da	0.14619008
247	0x3ddbfd00	0.10741615
248	0x3d92ee30	0.07174337
249	0xbd1d325f	-0.038378116
250	0xbcd6e023	-0.026229924
251	0xbd1c3823	-0.038139474
252	0xbd8587e1	-0.065200575
253	0x3e14316d	0.1447198
254	0xbd9eba2f	-0.077503555
255	0xbd9e2d98	-0.0772354

fc.0.weight f4 [538, 64]
0	0xbd7c279d	-0.061561216
1	0xbd814fd5	-0.06314055
2	0xbc97b207	-0.018517507
3	0xbad396fa	-0.0016143017
4	0xbdb3d1f2	-0.08780278
5	0x3e3a556a	0.18196645
6	0x3cfbaa8e	0.030720975
7	0x3b875e24	0.0041310955
8	0x3dbb1972	0.09135713
9	0x3e34754f	0.17622875
10	0x3db666c8	0.08906323
11	0xbb32cb80	-0.002728194
12	0x3b03005c	0.0019989228
13	0x3d64cf99	0.055862043
14	0x3e371698	0.17879713
15	0x3d8a0218	0.067386806
16	0xbd1ab12d	-0.037766624
17	0xbd11f360	-0.03563249
18	0xbd5773ff	-0.052600857
19	0x3dfc0c29	0.12307007
20	0xbd1f26ef	-0.03885549
21	0x3d160a61	0.03663099
22	0x3d93a6b5	0.07209531
23	0x3e7abe40	0.24486637
24	0x3e568ac2	0.2095137
25	0x3e369405	0.17829902
26	0xbd1b3f99	-0.03790245
27	0xbdfae138	-0.12249988
28	0x3cd00486	0.025392782
29	0xbdadbf51	-0.08483756
30	0x3d6063c8	0.05478266
31	0xbda98e9f	-0.08279156
32	0x3d111bf4	0.03542705
33	0x3de3ad31	0.11117018
34	0x3d6647df	0.056220885
35	0x3e120567	0.14259873
36	0x3d8ccb39	0.06874699
37	0x3baa34b5	0.0051942714
38	0x3dcd6869	0.1002968
39	0xbd3a69e1	-0.04551113
40	0xbd62df61	-0.055388812
41	0xbe0ce78d	-0.13760205
42	0x3c540280	0.012940049
43	0x3e004131	0.12524869
44	0x3d358c54	0.04432328
45	0xbdbbde9e	-0.0917332
46	0xbe31c5af	-0.17360567
47	0xbe074b5e	-0.13212344
48	0x3de245a3	0.110484384
49	0x3d4336c9	0.04765967
50	0xbdb99529	-0.09061653
51	0x3e283e4a	0.16430011
52	0x3de55737	0.111982755
53	0x3d134154	0.035950974
54	0xbdab2526	-0.08356695
55	0xbcd9d78a	-0.026592035
56	0xbd8a4272	-0.06750955
57	0xbd74b95e	-0.059747092
58	0x3c28d182	0.010303857
59	0xbda2820e	-0.07934962
60	0xbd7bc0bd	-0.061463106
61	0x3c8e6a6e	0.017384734
62	0x3c9b5a9d	0.018964106
63	0x3e551a4b	0.20810811
64	0x3e4f8e27	0.2026907
65	0x3e25c5e2	0.16188768
66	0xbd678327	-0.05652156
67	0xbcc4a5f4	-0.024004914
68	0x3e6615bc	0.22469229
69	0x3e01f9a2	0.12692884
70	0x3da0b99c	0.07847902
71	0xbc8be74d	-0.017078066
72	0xbe4770ee	-0.19476673
73	0x3d7d516c	0.061845228
74	0x3d6f9448	0.05849102
75	0x3e5b86a9	0.21438088
76	0x3e09e664	0.13466793
77	0xbdd03a1c	-0.101673335
78	0xbe2a5719	-0.16634788
79	0xbc4707ca	-0.012147853
80	0xbce2d806	-0.027690899
81	0xbca27f80	-0.019836187
82	0xbdbee8ed	-0.09321771
83	0x3d2d6208	0.042329818
84	0xbdec4a8a	-0.11537655
85	0x3d84fc7c	0.0649347
86	0xbda33707	-0.0796948
87	0x3e09f908	0.13473904
88	0xbe25b82f	-0.16183542
89	0x3db82bb6	0.08992712
90	0x3b289c88	0.0025728066
91	0xbc9d828b	-0.019227287
92	0x3e182545	0.14857967
93	0x3de298fb	0.11064335
94	0x3cbee5c3	0.023302918
95	0x3d9c72a8	0.076390564
96	0x3dc2a62e	0.095043525
97	0xbd94ad34	-0.072595984
98	0x3c3e65d2	0.011620956
99	0x3ddeb13a	0.10873647
100	0x3d90997e	0.07060526
101	0x3d1f41f9	0.038881276
102	0xbd082102	-0.033234604
103	0xbdcbd8b9	-0.09953446
104	0x3d18b80e	0.037284903
105	0x3cc09b21	0.023511471
106	0x3d611727	0.05495372
107	0x3cd25208	0.025673881
108	0x3e0683a8	0.1313616
109	0x3cd678e3	0.02618069
110	0xbd4e355e	-0.050343864
111	0x3d51daef	0.051234182
112	0x3dd79342	0.10526134
113	0x3e326a40	0.17423344
114	0xbd0afbb9	-0.033931468
115	0xbdb15569	-0.08658869
116	0xbe00a92e	-0.12564537
117	0x3d9f8bdf	0.0779035
118	0xbd95dc5a	-0.07317419
119	0x3e148f0a	0.1450769
120	0xbd34f9dc	-0.044183597
121	0xbd214c79	-0.03937957
122	0x3c8caa8e	0.01717117
123	0x3d562680	0.05228281
124	0xbcf46dcb	-0.02983751
125	0xbc1dc33f	-0.00962907
126	0x3d29fae8	0.04149905
127	0xbe02fd5a	-0.12791958
128	0xbc248dbf	-0.0100435605
129	0x3e03e3f9	0.12879933
130	0x3e165b37	0.14683233
131	0xbd00290c	-0.031289145
132	0xbdb4c3ba	-0.088263944
133	0x3e2665ea	0.16249815
134	0x3d19e08a	0.037567653
135	0xbda5fb13	-0.08104529
136	0xbd67cae4	-0.056589976
137	0x3cf6ec8f	0.030142097
138	0xbd2aa77a	-0.041663624
139	0x3c91141c	0.017709784
140	0xbd9b1860	-0.075730085
141	0xbd6ab41b	-0.05730067
142	0x3dc85941	0.09782649
143	0x3b2babcb	0.0026194926
144	0x3ba82da5	0.0051323944
145	0x3cc3753c	0.023859613
146	0xbcfe872c	-0.031070314
147	0xbbfa10aa	-0.007631381
148	0x3e0e682d	0.13906927
149	0x3dc90a57	0.09816425
150	0x3e35f58e	0.17769453
151	0x3e12a190	0.14319444
152	0x3e0d42d3	0.13795023
153	0xbd042a4e	-0.032266907
154	0x3d9783fb	0.0739822
155	0x3deabbf9	0.11461634
156	0x3e017a1c	0.12644237
157	0x3e0310eb	0.12799422
158	0x3e1feaf3	0.1561697
159	0x3db969b5	0.09053365
160	0xbd919d7c	-0.07110116
161	0x3e0b2577	0.1358851
162	0x3c801914	0.015636958
163	0xbd88a330	-0.066717505
164	0xbcf9294d	-0.030415202
165	0xbdc725b4	-0.09723988
166	0xbc933c9e	-0.01797324
167	0xbe12a6f5	-0.14321502
168	0x3c249afb	0.010046716
169	0x3d210d6e	0.03931945
170	0xbe0c1689	-0.13680471
171	0xbe1a61cf	-0.15076374
172	0xbd980dbe	-0.07424496
173	0x3e34a828	0.17642272
174	0x3d9223c7	0.0713573
175	0x3d2db1ee	0.042406015
176	0x3dc032c2	0.09384681
177	0xbd8d7224	-0.06906536
178	0x3e288703	0.16457753
179	0x3c34ab6b	0.011027197
180	0xbcb61088	-0.02222468
181	0x3b40577a	0.0029349015
182	0xbd94e524	-0.072702676
183	0x3dc4584a	0.09587152
184	0xbbf62f88	-0.0075129904
185	0xbd7af72f	-0.06127089
186	0x3da2b197	0.07944029
187	0x3dbfe15a	0.09369154
188	0xbdb98dd7	-0.09060257
189	0x3d262157	0.04055914
190	0x3c41351e	0.011792449
191	0xbe2d332b	-0.1691405
192	0x3d2b64f4	0.041844323
193	0x3d6e46fa	0.058173157
194	0x3e2c8070	0.1684587
195	0xbd1b8cd7	-0.037976112
196	0xbda7dbdb	-0.08196231
197	0xbc483715	-0.012220164
198	0x3e1926c4	0.14956194
199	0x3dc1656a	0.09443171
200	0xbdf23a43	-0.11827519
201	0x3dbc9658	0.09208363
202	0xbd215298	-0.03938541
203	0x3de9a0a4	0.11407593
204	0x3e6b333b	0.22968762
205	0x3e45871d	0.19289823
206	0x3d638316	0.055544935
207	0xbdd1d1f8	-0.102451265
208	0xbd899c9c	-0.06719324
209	0xbd52874d	-0.051398564
210	0xbd226c90	-0.039654315
211	0x3d1f6494	0.03891428
212	0x3dfb63c1	0.12274886
213	0x3d21ea3e	0.03953003
214	0xbcd313b4	-0.025766231
215	0x3e4fb8c1	0.20285322
216	0x3e244fa9	0.16046013
217	0x3df2f565	0.118632115
218	0xbc196b8c	-0.00936402
219	0x3dce709f	0.100800745
220	0x3d5110aa	0.051041283
221	0xbcc23a35	-0.023709396
222	0x3dbd9179	0.09256262
223	0xbd8987b5	-0.06715337
224	0x3dcf468f	0.1012088
225	0x3dc20239	0.0947308
226	0xbc0059e1	-0.007833929
227	0xbd5b0ad5	-0.053477127
228	0x3d25bbf2	0.04046244
229	0xbc5a1af8	-0.013312094
230	0xbd2c1d15	-0.042019922
231	0xbd25dc7d	-0.040493477
232	0x3d4217b9	0.047385905
233	0xbc8680e7	-0.016418887
234	0xbca0328f	-0.019555358
235	0x3cce5915	0.025188962
236	0x3d246160	0.040131927
237	0x3ce5aadb	0.028035572
238	0xbe0f33fd	-0.13984676
239	0xbe355851	-0.17709471
240	0x3db8339b	0.08994218
241	0xbd107d5c	-0.035275802
242	0x3d9b388e	0.07579146
243	0xbcea337f	-0.028589008
244	0xbdbb1a44	-0.09135869
245	0x3d9b711f	0.075899355
246	0x3cf97066	0.030449104
247	0xbdfab3d1	-0.122413285
248	0xbe0c5839	-0.1370553
249	0xbe06dd91	-0.13170458
250	0xbd7c12d6	-0.0615414
251	0x3d79e688	0.061010867
252	0x3de576cc	0.11204299
253	0x3c3a196b	0.011358599
254	0x3dae7477	0.08518308
255	0x3d93baec	0.07213387

fc.3.bias f4 [269]
0	0xbb3c5dee	-0.002874251
1	0xbc809234	-0.015694715
2	0xbbce41d1	-0.006294467
3	0xbd84a348	-0.06476456
4	0x3c6d8716	0.014497539
5	0xbcb340aa	-0.02188142
6	0xbd07274e	-0.03299647
7	0xbbfa8cee	-0.0076461947
8	0xbc4025b9	-0.011727744
9	0xbcfc5722	-0.030803267
10	0xbd057ec6	-0.032591604
11	0xbc24b913	-0.010053891
12	0xbc662b11	-0.014048354
13	0xbb8725ba	-0.0041243704
14	0x3b2a2d75	0.0025967036
15	0xbcc48a59	-0.02399175
16	0x37b23e37	2.1248225e-05
17	0xbb271864	-0.0025496716
18	0xbd50850d	-0.050908137
19	0xbc89ef6c	-0.016837798
20	0xbcaca922	-0.021076743
21	0x3d424b80	0.047435284
22	0x3cded643	0.027201777
23	0x3d9fe632	0.07807578
24	0x3b72d155	0.003705104
25	0xbb8e4f54	-0.0043429527
26	0xbd234bcc	-0.039867207
27	0x3b7c1d11	0.0038469473
28	0xbcb27481	-0.021784069
29	0x3ce99403	0.02851296
30	0xbc470364	-0.0121468045
31	0x3b8df889	0.004332606
32	0xbc1733f8	-0.009228699
33	0x3d30d2b4	0.043169692
34	0x3cc8b135	0.024498561
35	0x3c762392	0.015023129
36	0xbb96f6d9	-0.0046070633
37	0xbbc104e9	-0.005890478
38	0x3d65b4f9	0.056080792
39	0x3d57170f	0.052512225
40	0xbd4836e8	-0.048880488
41	0xbd2cce0a	-0.04218868
42	0xbc59a5ca	-0.013284156
43	0xbd45f3cd	-0.04832821
44	0x3d8c3df8	0.06847757
45	0x3d0b5d22	0.034024365
46	0x3b9a66cf	0.004711963
47	0xbc392cfc	-0.011302229
48	0x3c1dd9df	0.009634464
49	0xbcf36868	-0.02971287
50	0x3d129955	0.03579076
51	0xbce0ee6c	-0.027457438
52	0xbc2097a4	-0.009801779
53	0xbd0e11c1	-0.0346849
54	0xbca4efca	-0.020133872
55	0x3d04e86b	0.032448214
56	0x3ce13acd	0.027493859
57	0x3b5c1e3f	0.0033587364
58	0xbc885c5b	-0.016645601
59	0x3d29146c	0.04127924
60	0xbb1427ca	-0.0022606724
61	0xbd3dcd76	-0.04633852
62	0xbd1082d1	-0.035281006
63	0x3caef7a0	0.021358311
64	0x3bb2be00	0.0054547787
65	0x3ab39108	0.0013699839
66	0x3d24545e	0.04011952
67	0x3b9108d8	0.004426103
68	0xbc84d073	-0.016212678
69	0xbd8be67f	-0.06831073
70	0x3bbff142	0.0058576176
71	0xba8601f6	-0.0010223973
72	0xbd3b2d8a	-0.045697726
73	0xbc836a00	-0.016041756
74	0xbc21caa4	-0.009874973
75	0xbd6cb3f2	-0.057788797
76	0x3cb751aa	0.022377808
77	0x3c06b719	0.008222365
78	0xbc19ca56	-0.00938662
79	0xbc8a92b9	-0.016915666
80	0xbd511736	-0.051047526
81	0xbd9bc19d	-0.07605288
82	0x3cc9b137	0.024620635
83	0x3cf4db70	0.029889792
84	0xbd02d4af	-0.031941112
85	0x3ce446c1	0.02786577
86	0x3cb4ef96	0.0220869
87	0x3d1fe226	0.03903403
88	0xbd4b3339	-0.049609397
89	0xbcb24828	-0.021762922
90	0xbd7eb2d5	-0.062182266
91	0x3d0069d2	0.031350918
92	0x3b739c02	0.0037171845
93	0xbd48e57c	-0.04904698
94	0x3ce39827	0.027782513
95	0xbb6a7c49	-0.0035779646
96	0xbca2496e	-0.019810405
97	0x3bf2b7c1	0.007407159
98	0xbcbaece4	-0.022818036
99	0xbca7462a	-0.020419199
100	0x3c6efc97	0.014586589
101	0xbca4ef8c	-0.020133756
102	0xbca84213	-0.02053932
103	0xbcccb6f7	-0.024989588
104	0x3bd25b94	0.0064196084
105	0xbd51455a	-0.05109153
106	0xbc130575	-0.008973469
107	0x3d0634f9	0.032765362
108	0x3d497bb8	0.049190253
109	0x3bc4c1d5	0.006004552
110	0xbb3041c6	-0.0026894673
111	0xbc35845a	-0.011078918
112	0x3c70bc75	0.014693369
113	0x3c709ff6	0.014686575
114	0x3c5aacb7	0.0133468425
115	0x3c5a805b	0.013336266
116	0x3b6936f9	0.0035585745
117	0x3d066578	0.032811612
118	0xbb9debd9	-0.004819375
119	0xbd000329	-0.031253014
120	0x3c87d230	0.016579717
121	0xbcebe5ac	-0.02879604
122	0xbd33c3d1	-0.043887917
123	0xbbfef482	-0.0077806124
124	0x3d49bc66	0.049251936
125	0xbcaaf647	-0.020869387
126	0xbbe70fdc	-0.007051451
127	0xbcffd56d	-0.031229699
128	0x3c90c09f	0.017669974
129	0xbc7043e6	-0.014664626
130	0xbce66f1d	-0.028129155
131	0x3ce105b3	0.027468538
132	0xbd1fb652	-0.038992234
133	0x3c0e7d94	0.008696932
134	0xbd19138a	-0.03737215
135	0x3c02c840	0.007982314
136	0xbc407e62	-0.011748882
137	0xbd01a878	-0.031654805
138	0xba595c1a	-0.0008291617
139	0x3c266fc3	0.010158482
140	0x3d164789	0.036689315
141	0x3d095e50	0.03353721
142	0x3c913441	0.017725112
143	0x3b92209d	0.004459454
144	0xbd21590f	-0.039391574
145	0xbc9ec2ca	-0.019379992
146	0xbd5bb0aa	-0.053635277
147	0xbce55265	-0.02799339
148	0xbcf2e0d6	-0.029648226
149	0x3ce814fd	0.02833032
150	0x3d604a95	0.054758627
151	0xbd071b8f	-0.032985266
152	0x3c9701cb	0.018433472
153	0xbc429025	-0.011875187
154	0xbb4689f0	-0.003029462
155	0x3caa7416	0.020807307
156	0xbd3e942f	-0.046528038
157	0x3c2812b6	0.010258367
158	0xbac9323e	-0.0015350056
159	0x3d307d25	0.043088097
160	0x3c716771	0.014734135
161	0x3d27c95a	0.04096351
162	0x3d1e14c1	0.03859401
163	0xbc81cbe4	-0.015844293
164	0x3c3cf430	0.011532828
165	0x3c6ac745	0.014329736
166	0xbc061bc3	-0.00818533
167	0xbd67bcd1	-0.056576554
168	0xbc82710b	-0.015923044
169	0x3bf12ba9	0.007359941
170	0xbd4aefff	-0.049545284
171	0xbd16f108	-0.03685096
172	0xba6d1550	-0.00090440083
173	0x3ce66e85	0.028128872
174	0x3c82de06	0.01597501
175	0xbc4445ae	-0.011979504
176	0xbc5dcdd7	-0.013537846
177	0xbd93df9e	-0.07220386
178	0xbc965943	-0.01835311
179	0xbc84573a	-0.016154874
180	0xbd4e7b61	-0.050410632
181	0xbced70b3	-0.028984403
182	0xbc2d4e4d	-0.01057775
183	0x3cc3a547	0.023882521
184	0xbd59c8e3	-0.053170096
185	0xbcee368d	-0.029078746
186	0xbcccc018	-0.024993941
187	0x3cb9edbd	0.02269637
188	0x3cb1a515	0.021685163
189	0xbc51847e	-0.012787936
190	0x3cd33fb6	0.025787216
191	0xbcbe1486	-0.023203146
192	0x3c1d35b0	0.00959532
193	0xbc06d920	-0.008230478
194	0xbc090ff2	-0.008365618
195	0x3c856b1a	0.016286422
196	0x3cc30cc9	0.023809807
197	0xbc48578e	-0.012227906
198	0x3cd52f62	0.02602357
199	0xbad4fb2e	-0.0016249174
200	0x3d46b644	0.048513666
201	0xbc28c2ae	-0.0103003215
202	0xbcbdaeae	-0.023154583
203	0xbd06696e	-0.03281539
204	0xbda36b78	-0.079794824
205	0x3a671300	0.0008814782
206	0x3d083618	0.033254713
207	0x3cd10a41	0.025517585
208	0x3d3739cd	0.044732857
209	0xbbe6f6ca	-0.0070484625
210	0x3bdc910d	0.0067311586
211	0x3d21d3be	0.039508574
212	0x3cbc0bb2	0.022954796
213	0xbcb869f0	-0.022511452
214	0x3b6ce917	0.0036149675
215	0xbd334f8b	-0.04377703
216	0xbd03714e	-0.032090478
217	0x3c1b3e0a	0.0094752405
218	0x3cc761ea	0.024338681
219	0xbdb80bcd	-0.08986626
220	0x3c84496e	0.016148295
221	0x3c86896f	0.016422955
222	0xbcd7b32b	-0.026330551
223	0xbd6398fb	-0.055565815
224	0xbc082a5b	-0.00831088
225	0xbc37664b	-0.011193822
226	0xbca5fd77	-0.020262463
227	0xbd0f9436	-0.035053454
228	0x3c3a5c8e	0.011374606
229	0xbc183002	-0.00928879
230	0xbc455d9e	-0.012046246
231	0x3c49b213	0.012310523
232	0xbbe2d3bc	-0.0069222134
233	0xbc00a999	-0.007852935
234	0x3cee670b	0.02910187
235	0x3c9f3b90	0.019437581
236	0x3d2269aa	0.03965155
237	0x3a3e08c5	0.00072492316
238	0xbd34577c	-0.044028744
239	0x3a21075f	0.0006142761
240	0x3be0fe6a	0.006866266
241	0xbc66c45d	-0.014084903
242	0xbd14ce48	-0.036329538
243	0xbcb07787	-0.02154137
244	0xbc75c4e2	-0.015000554
245	0xbd4c13ac	-0.049823448
246	0xbd19e707	-0.03757384
247	0xbc695ebb	-0.014243777
248	0xbc4b1c7f	-0.012396931
249	0xbce10b49	-0.027471201
250	0xbc527d1f	-0.012847214
251	0xbcfe5c72	-0.03104994
252	0xbcee859a	-0.02911644
253	0x3a95c031	0.0011425075
254	0xb9f361b6	-0.00046421372
255	0xbd20a2ea	-0.039217867

fc.3.weight f4 [269, 538]
0	0xbd2d2e8d	-0.042280722
1	0xbd6b9c73	-0.05752225
2	0x3d256761	0.040381793
3	0xbd94ba2a	-0.072620705
4	0xbda8a13f	-0.0823388
5	0x3d4efc73	0.050533723
6	0x3d7053ca	0.058673657
7	0x39b0c357	0.00033714875
8	0xbd2e670d	-0.042578746
9	0xbda732b7	-0.0816397
10	0xbccc6928	-0.024952486
11	0xbd2a7b95	-0.041621763
12	0xbdd752fc	-0.10513875
13	0x3cf5d145	0.030007014
14	0xbd0172e4	-0.03160371
15	0x3d6554bd	0.055989016
16	0xbd8285aa	-0.06373151
17	0x3d5ac9ff	0.053415295
18	0xbcfd5de3	-0.030928558
19	0xbd9630c4	-0.0733352
20	0x3d57c624	0.052679196
21	0x3d5ba164	0.05362071
22	0x3c25c0c9	0.010116764
23	0xbd9488ea	-0.07252677
24	0xbd82f900	-0.06395149
25	0xbd7be680	-0.06149912
26	0xbd6c4e4a	-0.05769185
27	0xbcd6ed5e	-0.026236232
28	0x3b22aef7	0.0024823525
29	0x3d7f812b	0.062379044
30	0xbc5e63b2	-0.013573574
31	0xbca225d8	-0.019793436
32	0xbd887987	-0.066638045
33	0xbd0815d9	-0.03322396
34	0xbd2a4c10	-0.041576445
35	0x3d833f5e	0.06408571
36	0x3d500b24	0.050791875
37	0xbc962efd	-0.018332953
38	0xbc9d7930	-0.019222826
39	0xbd8dfe23	-0.06933238
40	0x3d27ad43	0.04093672
41	0x3d212836	0.03934499
42	0x3cd41c3a	0.025892366
43	0x3ca284c9	0.019838708
44	0xbdc92d95	-0.09823147
45	0xbb73804f	-0.0037155335
46	0xbd853620	-0.06504464
47	0x3d5dbba6	0.054134034
48	0x3d7aa3b6	0.061191283
49	0xbd6938aa	-0.056938805
50	0xbc8f4786	-0.01749016
51	0x3d918cdf	0.07106947
52	0xbd80c437	-0.06287425
53	0xbb332354	-0.002733429
54	0xbd86354a	-0.06553133
55	0x3c8bd326	0.017068457
56	0xbd2c5fe2	-0.04208363
57	0xbdbc4866	-0.091934964
58	0x3dbcc1cb	0.092166506
59	0xbd02912e	-0.031876735
60	0x3c8fa85f	0.01753634
61	0xbc883dda	-0.016631056
62	0xbcf0857e	-0.029360529
63	0x3d11fb5c	0.035640106
64	0xbd65c03c	-0.056091532
65	0x3d9db186	0.076998755
66	0xbcf92bdb	-0.03041642
67	0xbd4b82ab	-0.04968516
68	0x3d3d15e3	0.04616345
69	0xbc476c36	-0.012171796
70	0x3d81d731	0.06339873
71	0xbd79b88a	-0.060967006
72	0x3d0f978b	0.035056632
73	0x3ca07a37	0.019589527
74	0xbda38173	-0.07983675
75	0x3cfee9ca	0.031117339
76	0xbd61275f	-0.054969188
77	0x3d963a4f	0.0733534
78	0x3c7a9f67	0.015296794
79	0x3d235719	0.039877985
80	0x3cb1ef5b	0.021720579
81	0xbd53f93e	-0.051751368
82	0xbcf91d6c	-0.030409537
83	0xbd1ee94e	-0.038796715
84	0x3d46d5e5	0.04854383
85	0x3d66e840	0.056373835
86	0xbd88005a	-0.06640692
87	0x3c72032c	0.014771264
88	0xbcc4ac6f	-0.024008004
89	0x3d2dd59d	0.042440046
90	0xbd60551d	-0.05476867
91	0xbdc68124	-0.096926
92	0x3d6675ab	0.05626456
93	0xbbf4421a	-0.007454169
94	0xbccf9b2c	-0.025342546
95	0x3cc01451	0.023447188
96	0x3d46a7cc	0.048499867
97	0x3cc15f56	0.02360503
98	0xbd2959ec	-0.04134552
99	0x3d9f2646	0.07770972
100	0xbc68e8fc	-0.014215704
101	0x3d019a9f	0.0316416
102	0xbd23aad3	-0.039957833
103	0x3cd182cb	0.025575062
104	0x3cc7e892	0.02440289
105	0x3c54d44d	0.01299007
106	0x3b12e6bf	0.0022415367
107	0xbd6d2dd9	-0.05790505
108	0xbd5813cf	-0.052753266
109	0x3d12b3a5	0.035815854
110	0x3c022e06	0.007945543
111	0xbca7669a	-0.020434666
112	0xbd8bafdb	-0.06820651
113	0x3cb810c7	0.022468938
114	0xbc421020	-0.011844665
115	0xbd78702c	-0.06065385
116	0xbbc4d352	-0.0060066367
117	0xbd9499dc	-0.07255909
118	0x3d423550	0.047414124
119	0xbcadb6f1	-0.021205397
120	0x3d2a0add	0.041514266
121	0xbd402437	-0.046909537
122	0x3c55e622	0.013055356
123	0xbdc46b94	-0.095908314
124	0x3d01f50c	0.031727836
125	0xbd4e6a85	-0.050394554
126	0xbd4fedc0	-0.050763845
127	0xbbff2917	-0.0077868807
128	0x3cd6fc92	0.026243482
129	0x3d9df322	0.077123895
130	0x3c425733	0.01186161
131	0xbc884af9	-0.016637312
132	0x3b3b8e91	0.0028618912
133	0x3d29500d	0.041336108
134	0x3d1c3a1d	0.03814136
135	0xbcefeb98	-0.029287145
136	0xbd35876f	-0.044318613
137	0xbd538ee1	-0.05164993
138	0xbcf50770	-0.029910773
139	0x3caf66be	0.021411296
140	0xbc75f817	-0.0150127625
141	0xbcc4cef4	-0.024024464
142	0x3cd8ef0c	0.026481174
143	0xbcb6ece3	-0.022329753
144	0xbda8a8dc	-0.08235332
145	0x3d15fae7	0.036616232
146	0xbd3954b0	-0.04524678
147	0xbc1cd0b7	-0.009571246
148	0x3d2126a8	0.039343506
149	0xbc120326	-0.008911883
150	0xbcd80f70	-0.026374549
151	0x3d69e57f	0.05710363
152	0xbcc7b170	-0.024376601
153	0xbd703c88	-0.058651477
154	0x3ce34729	0.027743893
155	0xbd21591a	-0.039391614
156	0x3d824578	0.06360906
157	0xbd835a06	-0.06413655
158	0xbca84142	-0.02053893
159	0x3dc61588	0.096720755
160	0xbd7c84af	-0.061649974
161	0x3ca80be4	0.020513482
162	0x3b9e94be	0.004839509
163	0x3d3ae971	0.045632783
164	0xbd8aac8f	-0.06771194
165	0x3d13f418	0.036121458
166	0x3d8d00a1	0.068848856
167	0xbc80d740	-0.01572764
168	0x3d813dee	0.0631064
169	0x3c8f3d78	0.017485365
170	0x3d1773c0	0.036975622
171	0xbd59a5e6	-0.05313673
172	0x3cbe4534	0.023226358
173	0x3cd550a9	0.026039438
174	0xbc019436	-0.007908871
175	0xbd3050a7	-0.043045666
176	0xbd156750	-0.03647548
177	0x3d7f6e6f	0.062361177
178	0xbd815c37	-0.06316417
179	0x3d4755dc	0.048665866
180	0xbc1ced00	-0.00957799
181	0x3d40685e	0.046974532
182	0x3d2e3158	0.042527527
183	0x3ccbabbb	0.02486216
184	0xbcd1ee27	-0.025626255
185	0x3d027720	0.031851888
186	0x3d6394db	0.05556188
187	0x3d82d406	0.063880965
188	0x3c979275	0.018502453
189	0x3d6ffbbc	0.058589682
190	0x3d934328	0.071905434
191	0x3bc2723d	0.0059340284
192	0x3cccd92a	0.025005896
193	0x3c921904	0.017834194
194	0xbd980d47	-0.074244075
195	0x3d6778c1	0.056511644
196	0xbc361dcc	-0.011115503
197	0x3ce28565	0.027651498
198	0x3ca7ef98	0.02049999
199	0xbd1ab897	-0.037773695
200	0xbcf4c157	-0.029877348
201	0xbd144762	-0.03620089
202	0x3cccc3d6	0.024995726
203	0xbd5e67e4	-0.054298297
204	0xbd5302f8	-0.051516503
205	0x3cf4c6c1	0.02987993
206	0x3d6b8d39	0.057507727
207	0xbd50313b	-0.0508282
208	0x3d1fc559	0.039006565
209	0xbcb8ef88	-0.022575155
210	0xbd6a59df	-0.057214614
211	0x3d0701aa	0.03296057
212	0x3c92f927	0.01794107
213	0x3d4fc0bc	0.050720915
214	0xbcb55c38	-0.0221387
215	0x3c5f05f3	0.013612258
216	0x3c9d86bb	0.019229284
217	0xbcabf805	-0.020992288
218	0x3d567bde	0.052364223
219	0xbcfabc90	-0.030607492
220	0xbd9a002b	-0.07519563
221	0xbd2125a8	-0.039342552
222	0x3b81d01e	0.003961577
223	0xbd836eda	-0.06417628
224	0xbbbcc900	-0.0057612658
225	0xbd8362cb	-0.06415328
226	0x3bf31c6d	0.00741916
227	0x3db87d08	0.09008223
228	0xbc245405	-0.010029797
229	0xbd296057	-0.041351642
230	0xbd3d114f	-0.046159085
231	0x3d22b390	0.039722025
232	0x3d6b83f7	0.0574989
233	0xbca4ceb2	-0.020118091
234	0x3c901738	0.017589197
235	0x3de0a34f	0.10968649
236	0xbd015694	-0.031576708
237	0xbb30d670	-0.0026983283
238	0xbd6f1c6e	-0.058376722
239	0xbdb1329a	-0.086522296
240	0xbd36b5a6	-0.044606827
241	0x3d9ce179	0.07660193
242	0xbd8600ce	-0.06543122
243	0xbdd0fbd1	-0.1020428
244	0x3c06f09d	0.008236078
245	0x3d268d56	0.040662132
246	0xbcee73cb	-0.029107949
247	0x3d154ba4	0.03644909
248	0xbbf19ed8	-0.007373672
249	0xbc034cf8	-0.008013956
250	0x3d8658c5	0.065599
251	0xbb8c4c1c	-0.004281534
252	0xbd2548b9	-0.040352557
253	0xbdb5a49f	-0.088692896
254	0x3d766aad	0.060160328
255	0xbd45d3c8	-0.048297673
