inventory/ark_material.onnx (onnx, 539053 bytes, 8 tensors)

35 f4 [8, 3, 5, 5]
-0.19854036 -0.110125594 0.28839308 0.24901357 -0.16736344 0.14379425 -0.2049957 0.18926643
0.13959442 -0.006500348 0.24926096 -0.05655749 0.097430155 0.032304015 -0.12343523 -0.028781446
0.08739446 -0.091387145 -0.10426145 0.29861495 0.265234 0.27596766 0.1236607 -0.20692375
0.04788087 0.046327032 0.050383937 -0.050396424 0.044517495 0.21892624 -0.2925718 0.02745789
-0.2817206 -0.3305728 -0.33409584 0.22338368 0.28449604 0.33527243 -0.046174828 -0.037126344
-0.20892239 0.121031 -0.039249837 0.054957 -0.34597802 0.49173447 -0.03931487 0.19787943
0.24422318 0.21107793 -0.0866177 0.16513176 0.03143456 0.32385352 -0.06806563 0.18711801
-0.22653286 0.068297796 -0.07418247 0.18660836 -0.1622626 0.16127855 0.08554118 -0.05838691
0.19494264 0.21154189 0.109807655 0.23351546 0.0563121 0.016966539 0.5393096 -0.024769343
0.34206143 -0.1262506 0.1534327 0.022705914 -0.01923626 0.2901294 0.5560971 -0.15190813
-0.24947354 0.2453877 0.40855813 -0.24103923 0.24805702 -0.18025814 0.014556159 -0.18453479
-0.068814635 0.49704987 -0.34402928 -0.39207783 -0.6288825 -0.24671035 0.13770734 -0.08418914
-0.4106284 -0.5634629 -0.44102752 -0.43653956 0.2810433 0.085431546 0.043337278 -0.02836224
0.11434718 0.22469337 -0.2325337 -0.23541051 0.36119595 0.28576687 -0.056454573 -0.21248731
0.23351008 -0.14324573 0.086309336 -0.19463514 -0.36856073 -0.24728307 0.028709076 0.26189825
0.077665254 0.08639064 0.27322 -0.040804878 0.09575681 -0.032900564 0.14313778 0.4620264
0.35115355 0.22032903 0.15788037 -0.15787733 -0.14787035 0.13245773 0.32252684 -0.13828099
0.105563015 -0.20221205 -0.19408697 0.04281508 0.07002458 0.014094225 0.21787983 0.15758127
-0.30743214 -0.081205264 0.2975664 -0.48141187 -0.46599478 -0.2624664 0.08468804 -0.15949787
0.115017824 0.06990173 0.076377206 0.07581505 0.18715937 0.17433324 0.5978302 0.20551658
0.49194998 0.2694325 0.49928296 0.105747245 -0.16962379 0.27552396 0.13971297 0.047690645
-0.10400858 0.023829866 -0.11355956 0.35611013 -0.25232697 -0.22758043 0.4838951 0.40715075
0.28543845 0.41497913 0.3877004 0.4275553 -0.0067108762 0.17586046 0.52286446 0.014379793
0.41690004 -0.29131395 -0.19166334 -0.39471275 -0.4738205 0.16467424 -0.5023144 -0.30499136
-0.24403866 -0.12148373 -0.45567372 0.37086886 -0.49171102 -0.59402126 -0.16740777 -0.43187907
0.19569972 -0.089838386 0.28961846 0.008920399 0.16181509 -0.28516257 -0.112311035 0.027503753
0.015655829 -0.31861138 0.040013604 0.35337034 0.20055154 0.35576794 0.13858342 -0.24982375
0.074916326 -0.040428348 -0.08907753 -0.033866826 -0.46292317 -0.2685087 -0.25498337 0.197405
-0.5090046 -0.45460406 -0.35395405 -0.032454837 0.23083538 0.31467488 -0.48434362 -0.039254386
-0.5119535 -0.24627163 0.30423337 -0.24140869 -0.38639122 0.30584762 -0.32140356 -0.15833052
-0.21481884 -0.3796674 0.14444958 0.35837442 -0.23489211 -0.36855593 0.145586 -0.2383093
0.29473028 -0.2811966 0.37486693 0.19538939 0.09560889 0.36000425 -0.30123085 -0.0040796148
00000000: 2a4e 4bbe 8789 e1bd 42a8 933e 6afd 7e3e
00000010: 5261 2bbe cd3e 133e 65ea 51be 0fcf 413e
00000020: d7f1 0e3e df00 d5bb 443e 7f3e d4a8 67bd
00000030: 7689 c73d 3751 043d 9ccb fcbd 11c7 ebbc
00000040: defb b23d 2f29 bbbd 0787 d5bd 0fe4 983e
00000050: c0cc 873e a24b 8d3e d241 fd3d d2e3 53be
00000060: bb1e 443d 6ac1 3d3d 635f 4e3d 7b6c 4ebd
00000070: fa57 363d 332e 603e f9cb 95be 5eef e03c
00000080: af3d 90be d740 a9be 9c0e abbe b1be 643e
00000090: 77a9 913e d4a8 ab3e d121 3dbd cb11 18bd
000000a0: c0ef 55be 1adf f73d 70c4 20bd 971a 613d
000000b0: 0824 b1be 9fc4 fb3e a108 21bd e8a0 4a3e
000000c0: a415 7a3e d024 583e 9f64 b1bd 4d18 293e
000000d0: 86c1 003d 21d0 a53e fe65 8bbd dd9b 3f3e
000000e0: 3bf8 67be b7df 8b3d fbec 97bd 4316 3f3e
000000f0: 2b28 26be 3426 253e 3730 af3d 1d27 6fbd
00000100: 0b9f 473e 709e 583e d6e2 e03d ad1e 6f3e
00000110: 84a7 663d 69fd 8a3c 3210 0a3f 14e9 cabc
00000120: ad22 af3e d647 01be 761d 1d3e c101 ba3c
00000130: 5c95 9dbc d78b 943e 615c 0e3f ce8d 1bbe
00000140: fe75 7fbe ea46 7b3e 882e d13e fdd2 76be
00000150: a902 7e3e 9795 38be f57c 6e3c b0f6 3cbe
00000160: b0ee 8cbd 527d fe3e 9b24 b0be 6dbe c8be
00000170: 72fe 20bf a3a1 7cbe 2703 0d3e 5b6b acbd
00000180: e33d d2be 1b3f 10bf 5cce e1be 1d82 dfbe
00000190: e8e4 8f3e bcf6 ae3d 6e82 313d ee57 e8bc
000001a0: db2e ea3d 0516 663e 501d 6ebe 740f 71be
000001b0: adee b83e 0950 923e e93c 67bd 4696 59be
000001c0: 441d 6f3e 02af 12be f3c2 b03d 6f4e 47be
000001d0: feb3 bcbe c637 7dbe 4c2f eb3c 8717 863e
000001e0: f60e 9f3d 93ed b03d 7ee3 8b3e 0423 27bd
000001f0: 251c c43d bec2 06bd b692 123e b98e ec3e
00000200: 66ca b33e ef9d 613e 64ab 213e 98aa 21be
00000210: 536b 17be 00a3 073e 3d22 a53e 8899 0dbe
00000220: 6c31 d83d ad10 4fbe bcbe 46be de5e 2f3d
00000230: 0c69 8f3d 77eb 663c e41b 5f3e fc5c 213e
00000240: bf67 9dbe f24e a6bd a05a 983e 9e7b f6be
00000250: de96 eebe ff61 86be ec70 ad3d 6953 23be
00000260: 778e eb3d a328 8f3d a76b 9c3d ec44 9b3d
00000270: b5a6 3f3e 6a84 323e 660b 193f f072 523e
00000280: dee0 fb3e 0ef3 893e 04a2 ff3e 0392 d83d
00000290: dcb1 2dbe 7a11 8d3e eb10 0f3e 4457 433d
000002a0: 7302 d5bd da36 c33c ea91 e8bd 1154 b63e
000002b0: 0031 81be d80a 69be 19c1 f73e 1076 d03e
000002c0: fd24 923e 2578 d43e ab80 c63e 87e8 da3e
000002d0: e9e6 dbbb c414 343e 72da 053f 3999 6b3c
000002e0: ec73 d53e 1a27 95be 6543 44be ca17 cabe
000002f0: 9a98 f2be 5da0 283e ad97 00bf d427 9cbe
00000300: 45e5 79be 76cc f8bd 114e e9be 86e2 bd3e
00000310: 8cc1 fbbe c711 18bf f16c 2bbe 411f ddbe
00000320: 8265 483e 30fd b7bd df48 943e dd26 123c
00000330: dbb2 253e d400 92be 5403 e6bd 8d4f e13c
00000340: a740 803c 0821 a3be 4ee5 233d f5ec b43e
00000350: 625d 4d3e 3727 b63e d0e8 0d3e ccd1 7fbe
00000360: bb6d 993d 3298 25bd 486e b6bd f1b7 0abd
00000370: 4404 edbe f979 89be 2e8d 82be 8924 4a3e
00000380: 204e 02bf ddc1 e8be 7739 b5be 5def 04bd
00000390: 1c60 6c3e 111d a13e e3fb f7be 35c9 20bd
000003a0: 620f 03bf a12e 7cbe 7ac4 9b3e d733 77be
000003b0: 12d5 c5be 0f98 9c3e 028f a4be 6521 22be
000003c0: 78f9 5bbe c463 c2be 97ea 133e da7c b73e
000003d0: 8f87 70be 5db3 bcbe 7f14 153e 5a07 74be
000003e0: e3e6 963e 00f9 8fbe 8fee bf3e 2814 483e
000003f0: 98ce c33d 7a52 b83e ee3a 9abe 4aae 85bb

36 f4 [8]
-1.9116142 0.5711312 -0.5615927 0.7750495 1.5465329 -0.08957402 1.4704568 1.8724192
00000000: c6af f4bf a835 123f 8ac4 0fbf a569 463f
00000010: caf4 c53f 9572 b7bd ee37 bc3f 6fab ef3f

38 f4 [16, 8, 3, 3]
-0.39348757 -0.5096906 0.047740422 -0.3565815 -0.5504733 -0.7117838 0.23389114 0.2829807
0.9101734 0.76222837 -0.5876444 0.6564841 0.4090001 -0.51680714 0.5613908 -0.81932795
-0.4725203 0.17586501 0.18062535 0.20880128 0.12938881 0.5573475 0.98712575 0.12905307
0.32030338 -0.19184177 0.5878665 -0.79251975 -0.51802194 -0.313704 0.5704025 0.54761547
1.009733 -0.710718 0.95875645 0.81861365 -0.0076548695 0.40207136 -0.57943517 0.19889635
-0.6593724 -0.02667108 -0.023952104 -0.83256024 -0.4723304 -0.08135776 0.68276924 0.05891935
-0.007981106 0.48146942 -1.0223137 -0.5720194 0.8641298 1.1789997 -0.45880076 -0.9020555
0.9646825 0.90973413 -0.9552354 0.080835834 0.5250372 0.65660065 0.18010116 0.21815002
0.47891757 0.73242116 -0.2919986 0.542947 0.95190805 -0.03523536 0.028926088 0.108879395
0.9530179 0.5046538 -0.48173258 -0.48127645 1.4094932 -0.0037584815 1.2392238 1.3852987
0.48410136 0.87823325 -0.14990263 -0.88133234 -0.69158655 1.454142 0.19963916 -0.5840906
0.45983204 0.84203655 -0.17804484 0.027738867 0.4679837 -0.8562249 -0.45336342 -0.6422603
0.34031063 -1.1390414 0.5077806 0.59461856 0.47445005 0.41135842 -1.0990677 0.6658661
-0.55366826 -0.7102753 0.7776559 -0.14360817 -0.3914809 0.5068806 -1.303827 0.32508725
-0.9334684 0.85772 1.330569 0.101417065 0.94004875 0.40948173 -0.32757646 -0.7196604
-0.7858722 -0.65325147 0.11369088 0.5755385 1.0966959 -0.119989395 0.79217565 0.8642112
-0.3369058 0.48438376 -1.2868327 -1.0818566 0.59119725 -0.9781873 0.65921414 -0.35672
-0.76444477 -0.20471385 0.11360316 0.253601 0.84334415 -0.33662736 0.045335494 0.37093186
0.09382466 0.7458369 -0.38503787 -0.07004047 0.38728815 0.11874269 0.92134756 -0.24051169
-0.48640192 0.37063655 -0.26119182 0.23417449 -0.7766903 0.11706544 -0.7520806 -0.20086952
-0.6959297 0.06393064 0.18127342 0.19146027 0.26121804 -0.73348457 -0.86422175 -0.68273956
-0.57502687 -0.43919834 -1.3675501 -0.58023036 0.4318992 1.3953654 0.18138106 0.498791
0.5871787 -0.09949661 0.7650557 -0.23317729 -0.5335238 1.140764 -1.657376 -0.13409714
0.3802581 0.34037322 0.81914216 0.40313163 -0.55700463 -0.051431485 0.17480409 -0.34199437
0.6536347 -0.9922661 -0.92553073 1.4377512 0.557989 -0.33845687 0.5626061 -0.28943416
0.18505374 -0.45416883 -0.19907662 -0.17659341 -0.49560502 -0.5582986 -0.8457866 0.32851008
0.33590785 -0.9546184 0.2064151 0.54062057 -0.446336 0.7296703 0.8758457 0.5126337
-0.37649536 0.26437518 0.24383159 0.45033655 -0.034793697 -1.1179217 0.17647639 -0.08170974
1.2598593 0.05095133 -0.6405035 -0.57053196 1.1773028 0.21288857 0.7691089 -0.6186082
-0.8666497 0.1069287 0.03857478 -0.28614363 0.49716967 0.7103294 -0.39700565 -1.2862542
-1.4432411 0.47339898 0.84709907 0.07741456 -0.27040005 -0.42145142 -2.0261192 -0.091316625
-0.16204804 -0.5121025 -0.20822957 1.2469242 1.0767252 -0.31653112 -0.2655866 1.0053278
00000000: 3477 c9be 157b 02bf 768b 433d da91 b6be
00000010: d1eb 0cbf 7737 36bf 2981 6f3e d9e2 903e
00000020: 2001 693f 6621 433f dd6f 16bf 580f 283f
00000030: 7668 d13e 794d 04bf 4fb7 0f3f 7abf 51bf
00000040: 2eee f1be f515 343e daf5 383e 01d0 553e
00000050: 807e 043e 53ae 0e3f 46b4 7c3f 7d26 043e
00000060: cefe a33e 2b72 44be 6b7e 163f 93e2 4abf
00000070: 169d 04bf d09d a0be e605 123f 8730 0c3f
00000080: ee3e 813f 9df1 35bf 1071 753f aa90 513f
00000090: b3d5 fabb 4cdc cd3e dd55 14bf 7cab 4b3e
000000a0: a1cc 28bf 4f7d dabc 3437 c4bc ab22 55bf
000000b0: 4ad5 f1be e69e a6bd f7c9 2e3f 6b55 713d
000000c0: 2fc3 02bc 2983 f63e 2ddb 82bf dd6f 12bf
000000d0: 9c37 5d3f 76e9 963f efe7 eabe 1ced 66bf
000000e0: 6ff5 763f 56e4 683f 4f8a 74bf 428d a53d
000000f0: d768 063f fb16 283f 706c 383e b862 5f3e
00000100: af34 f53e f47f 3b3f d780 95be 93fe 0a3f
00000110: 3fb0 733f f452 10bd 67f6 ec3c 29fc de3d
00000120: fbf8 733f fe30 013f a7a5 f6be de69 f6be
00000130: 466a b43f db50 76bb e39e 9e3f 7851 b13f
00000140: 22dc f73e e5d3 603f 1380 19be ff9e 61bf
00000150: d10b 31bf 5321 ba3f 356e 4c3e f686 15bf
00000160: 1b6f eb3e b58f 573f 6351 36be 9f3c e33c
00000170: 8f9b ef3e 8e31 5bbf 401f e8be 2c6b 24bf
00000180: 323d ae3e 1ccc 91bf e9fd 013f ec38 183f
00000190: 1eeb f23e 929d d23e 40ae 8cbf 3376 2a3f
000001a0: 34bd 0dbf 9ad4 35bf 7514 473f 050e 13be
000001b0: 2f70 c8be edc2 013f cee3 a6bf d671 a63e
000001c0: c9f7 6ebf 8a93 5b3f 1650 aa3f c0b3 cf3d
000001d0: 09a7 703f 97a7 d13e 1ab8 a7be aa3b 38bf
000001e0: ec2e 49bf 7d3b 27bf c4d6 e83d 7e56 133f
000001f0: 8860 8c3f 00bd f5bd 06cc 4a3f f23c 5d3f
00000200: eb7e acbe 2601 f83e efb6 a4bf 477a 8abf
00000210: b458 173f 7c6a 7abf 42c2 283f 01a4 b6be
00000220: a7b2 43bf 82a0 51be c6a8 e83d fed7 813e
00000230: 67e5 573f 6c5a acbe b6b1 393d c8ea bd3e
00000240: 2527 c03d 2bef 3e3f af23 c5be 6171 8fbd
00000250: a24a c63e 5e2f f33d 6fdd 6b3f b248 76be
00000260: ac09 f9be 13c4 bd3e efba 85be 70cb 6f3e
00000270: 2dd5 46bf 01c0 ef3d 5b88 40bf bdb0 4dbe
00000280: 7328 32bf 11ee 823d bd9f 393e 290e 443e
00000290: 5fbe 853e a5c5 3bbf a33d 5dbf 05c8 2ebf
000002a0: f634 13bf 9bde e0be e20b afbf fa89 14bf
000002b0: e421 dd3e 559b b23f f5bb 393e 8961 ff3e
000002c0: 5851 163f e1c4 cbbd b1da 433f 07c6 6ebe
000002d0: 0495 08bf 8e04 923f e624 d4bf c350 09be
000002e0: 31b1 c23e 6645 ae3e 4db3 513f 4567 ce3e
000002f0: db97 0ebf d2a9 52bd d8ff 323e e319 afbe
00000300: 9b54 273f 2705 7ebf 95ef 6cbf 3b08 b83f
00000310: 5ed8 0e3f 384a adbe f406 103f b730 94be
00000320: ba7e 3d3e d188 e8be beda 4bbe e7d4 34be
00000330: f1bf fdbe a8ec 0ebf 7885 58bf 7932 a83e
00000340: 1dfc ab3e df61 74bf 7b5e 533e 1c66 0a3f
00000350: 2786 e4be accb 3a3f 6c37 603f f63b 033f
00000360: 00c4 c0be 2f5c 873e fdae 793e 8392 e63e
00000370: d683 0ebd 0f18 8fbf 3ab6 343e 7057 a7bd
00000380: 1243 a13f 58b2 503d 0af8 23bf 620e 12bf
00000390: dcb1 963f 76ff 593e 52e4 443f 1b5d 1ebf
000003a0: c1dc 5dbf 6ffd da3d 9700 1e3d 6b81 92be
000003b0: 068d fe3e 26d8 353f 5344 cbbe faa3 a4bf
000003c0: 20bc b8bf 5a61 f23e 7cdb 583f 868b 9e3d
000003d0: e071 8abe 7bc8 d7be f0ab 01c0 3604 bbbd
000003e0: ecef 25be 2619 03bf 223a 55be 369b 9f3f
000003f0: 22d2 893f 5e10 a2be f8fa 87be 95ae 803f

39 f4 [16]
-1.8595161 -1.842526 1.132236 0.99514395 3.5995607 -0.109659955 1.3425347 0.3786437
3.5967662 1.2313154 -0.24953349 3.6060119 2.9263787 -0.1918106 -2.034906 -1.605926
00000000: a004 eebf e4d7 ebbf 1ced 903f c1c1 7e3f
00000010: 345f 6640 6695 e0bd 2dd8 ab3f 96dd c13e
00000020: 6b31 6640 be9b 9d3f b585 7fbe e6c8 6640
00000030: ca49 3b40 ff69 44be e63b 02c0 fc8e cdbf

fc.0.bias f4 [446]
-0.012662311 0.056244265 0.07899925 0.11726044 0.0498156 0.0012516971 0.0011431491 0.081675075
-0.064983204 0.14006878 0.08333962 0.081058174 -0.026684491 0.033291854 0.020161914 -0.025221929
0.07062543 0.050187305 0.047310792 0.036095064 0.014126606 0.07227306 0.033320956 -0.0032362777
-0.022927372 0.083187655 0.11371605 0.016524626 0.13470413 0.12505944 0.026130872 0.10743524
-0.013786978 0.04760223 0.10838433 0.037198916 -0.018896038 -0.031481095 -0.0059753484 -0.025930416
0.038789477 0.092526376 0.02868001 0.083769 -0.022586478 0.07802277 0.021093026 0.06419926
0.039539743 0.045712005 0.05625855 0.10802719 0.056726646 0.10922088 -0.05437734 0.050107308
0.020994643 0.0046917303 0.07167408 0.03540302 0.14291613 0.08698865 0.017133536 0.055697054
0.057102606 -0.019428678 0.043246802 -0.08676281 -0.08153601 0.056727305 0.030271431 0.01263973
-0.016269486 0.040634092 0.10176025 0.04453504 -0.02876614 0.03236475 -0.0005019915 0.0944211
-0.0022364308 0.0040062806 0.011975982 0.01050427 0.066855565 0.1274592 -0.025455667 0.116896905
-0.07095211 0.092528276 0.019571608 -0.028170722 0.080059655 0.12178985 0.06105699 0.07086134
0.06371489 0.08879229 -0.018349074 0.11163237 -0.010418501 0.10635896 -0.06828626 0.04991459
0.115629904 0.01476051 0.027362557 0.09387206 -0.043074153 -0.0068154912 -0.0017041666 -0.026597343
-0.062152904 0.021433406 -0.032398183 -0.026059806 0.014348892 0.061241288 0.0296105 -0.014972759
0.09590331 -0.06369061 0.049608156 -0.04713841 -0.060083605 -0.091750816 0.02753676 0.028917573
0.057363335 0.10569553 0.10988633 0.03967026 -0.003392747 0.043829903 0.12986243 -0.022737201
0.058929082 0.05524751 -0.027763674 0.060964193 0.063747615 0.099954836 0.028145455 0.08480674
0.082347445 0.027432803 0.12476598 0.06535263 0.14792037 0.11182937 0.111052446 0.08312906
0.06855652 0.012843202 0.12605636 0.07804293 0.027264923 0.025299478 0.018395357 -0.068746425
-0.038815774 0.014684852 0.09974597 0.062081676 0.06721714 0.10739046 0.009145247 -0.0072141294
0.061982095 0.13095698 0.08595989 0.016543036 0.051276248 0.009123484 -0.11383142 0.064896606
0.052315604 0.09416469 -0.0599733 0.02278363 0.10374101 -0.01928564 0.07346119 0.038740754
0.017556192 -0.033101007 0.035144556 0.07464521 0.105845 0.092719 0.06525146 0.08331931
0.058691613 0.1214125 0.04638415 -0.03576623 0.074199274 -0.0049861856 0.039644405 0.12402674
0.06512936 0.13899204 0.037347578 0.05197291 0.08565272 0.057472978 0.10703084 0.10324427
0.009176476 -0.021447623 0.14565079 0.06620911 -0.039173413 0.062999785 0.13017318 0.122609876
0.015097141 0.013443271 0.12163579 0.014820247 -0.07021645 0.07881641 0.090182506 0.0133853555
0.09458675 0.013750665 0.03520019 0.13044466 0.05767004 0.10539839 0.017006438 0.064193405
-0.045275196 0.07907715 0.13984074 -0.031217076 0.048616473 -0.06335062 -0.01187177 0.0496176
0.014524966 0.10875252 0.14381891 0.048799947 0.0890979 -0.055591915 0.052840963 0.006951465
-0.017889174 -0.020574894 -0.0026967002 0.007066786 0.104890674 0.022212239 -0.021429924 0.10653873
00000000: 9575 4fbc 6360 663d 5cca a13d 3e26 f03d
00000010: 710b 4c3d fc0f a43a b8d5 953a 4345 a73d
00000020: ea15 85bd 316e 0f3e f6ad aa3d d401 a63d
00000030: 6f99 dabc 0a5d 083d 992a a53c 389e cebc
00000040: 11a4 903d 3491 4d3d f6c8 413d 6bd8 133d
00000050: 4873 673c e603 943d 8e7b 083d bb17 54bb
00000060: 2fd2 bbbc 4a5e aa3d f6e3 e83d a75e 873c
00000070: e1ef 093e 950f 003e 6910 d63c 0207 dc3d
00000080: c7e2 61bc 8efa 423d 9bf8 dd3d e45d 183d
00000090: ddcb 9abc 52f2 00bd dbcc c3bb 066c d4bc
000000a0: b7e1 1e3d 787e bd3d 57f2 ea3c 158f ab3d
000000b0: 4707 b9bc 67ca 9f3d 48cb ac3c e77a 833d
000000c0: 6df4 213d 833c 3b3d 5e6f 663d 5c3d dd3d
000000d0: 335a 683d 32af df3d c6ba 5ebd 523d 4d3d
000000e0: f5fc ab3c 16bd 993b dcc9 923d c202 113d
000000f0: 9b58 123e 1b27 b23d a15b 8c3c 9822 643d
00000100: 6ce4 693d e428 9fbc 8f23 313d b3b0 b1bd
00000110: 5afc a6bd e45a 683d cbfb f73c df16 4f3c
00000120: 9647 85bc ef6f 263d ae67 d03d 606a 363d
00000130: f8a6 ebbc e690 043d 1498 03ba da5f c13d
00000140: 1591 12bb 1e47 833b e936 443c 1a1a 2c3c
00000150: 92eb 883d aa84 023e 6788 d0bc a567 ef3d
00000160: 574f 91bd 777f bd3d a354 a03c 49c6 e6bc
00000170: 51f6 a33d f56c f93d e516 7a3d c01f 913d
00000180: f47c 823d bbd8 b53d cc50 96bc 839f e43d
00000190: 5cb2 2abc bad2 d93d abd9 8bbd 3e73 4c3d
000001a0: 5fcf ec3d 11d6 713c 7127 e03c ff3f c03d
000001b0: 866e 30bd 7c54 dfbb 585e dfba ace2 d9bc
000001c0: 0b94 7ebd 1c95 af3c f5b3 04bd 607b d5bc
000001d0: 9d17 6b3c 25d8 7a3d b891 f23c 4e50 75bc
000001e0: f468 c43d 3970 82bd ec31 4b3d 3514 41bd
000001f0: 3a1a 76bd dae7 bbbd c594 e13c 8ce4 ec3c
00000200: d1f5 6a3d e676 d83d 160c e13d 487d 223d
00000210: d958 5ebb fc86 333d a8fa 043e 5e43 babc
00000220: 9f5f 713d 374b 623d a570 e3bc 97b5 793d
00000230: 1c8e 823d 1fb5 cc3d 4c91 e63c 28af ad3d
00000240: c7a5 a83d c2ba e03c 4e85 ff3d 9ad7 853d
00000250: 7078 173e cc06 e53d 776f e33d 923f aa3d
00000260: 5c67 8c3d 4b6c 523c eb14 013e f9d4 9f3d
00000270: b05a df3c da40 cf3c dcb1 963c edca 8cbd
00000280: 4afd 1ebd bc98 703c 9d47 cc3d 5b49 7e3d
00000290: 24a9 893d 88ef db3d f2d5 153c 8164 ecbb
000002a0: f0e0 7d3d 9619 063e bd0b b03d 4385 873c
000002b0: 0b07 523d aa7a 153c 7320 e9bd 83e8 843d
000002c0: e348 563d 6bd9 c03d 90a6 75bd bca4 ba3c
000002d0: 2b76 d43d ebfc 9dbc d272 963d a0ae 1e3d
000002e0: 01d2 8f3c ec94 07bd bdf3 0f3d 96df 983d
000002f0: 43c5 d83d 76e3 bd3d 8fa2 853d 50a3 aa3d
00000300: 9e66 703d 1ea7 f83d 4efd 3d3d 9c7f 12bd
00000310: caf5 973d 2863 a3bb 2c62 223d bb01 fe3d
00000320: 8b62 853d ee53 0e3e c6f9 183d 8ce1 543d
00000330: b16a af3d c968 6b3d fc32 db3d bb71 d33d
00000340: ee58 163c edb2 afbc 7b25 153e a498 873d
00000350: 4d74 20bd 0806 813d 1e4c 053e e31a fb3d
00000360: 005a 773c 2a41 5c3c 2f1c f93d 9fd0 723c
00000370: a4cd 8fbd 7f6a a13d 9bb1 b83d 404e 5b3c
00000380: b3b6 c13d 784a 613c 132e 103d 4993 053e
00000390: 6b37 6c3d 1cdb d73d 1651 8b3c d577 833d
000003a0: 7c72 39bd 33f3 a13d 6932 0f3e f4ba ffbc
000003b0: 1122 473d f8bd 81bd d081 42bc d33b 4b3d
000003c0: 1ffa 6d3c a4b9 de3d 4445 133e 74e2 473d
000003d0: f678 b63d 59b4 63bd c46f 583d 1dc9 e33b
000003e0: 518c 92bc ae8c a8bc 1fbb 30bb 7f90 e73b
000003f0: ecd0 d63d 71f6 b53c cf8d afbc fa30 da3d

fc.0.weight f4 [446, 64]
0.093616314 -0.120073795 0.022917816 -0.087764874 0.14813739 -0.054068673 -0.054279923 0.14049834
-0.032483425 -0.13726088 0.041908905 0.04371618 -0.017706469 -0.13289356 0.08878085 0.11314073
-0.06966329 0.10846079 0.037409093 0.13326842 0.102736264 0.012683928 0.05331932 -0.05829772
0.0010124603 0.10359593 0.069306165 -0.1022924 -0.041442808 -0.013127699 0.00216691 0.025290826
0.054928444 0.09636235 -0.19528861 -0.10180671 0.048789468 0.13030727 -0.037641633 -0.06482206
0.1195822 -0.15982518 0.079554744 0.13288254 0.061192103 0.059269324 -0.09349308 0.00781644
-0.0077333394 -0.040010788 -0.1270636 0.062577136 0.14606757 0.07160729 -0.14531419 0.071396336
0.031114724 0.05707153 -0.033751935 0.15634666 0.10472678 0.028867915 0.07095665 0.051439803
0.06439289 0.14322153 0.08176908 0.126178 0.017210782 0.12641892 -0.039060142 0.015409796
-0.014821733 0.07906893 -0.019498372 0.13442552 0.006491152 0.09327866 -0.03997232 -0.03375799
-0.035141073 -0.017412042 0.10137815 0.06983371 -0.09761737 -0.07665897 0.033441145 -0.07389229
0.0074519794 0.14263716 -0.07161619 0.14823453 0.07459502 -0.026736168 -0.103622206 -0.020598462
-0.04021845 0.024297755 0.15841424 0.08239252 0.07827078 -0.09094793 0.086627625 -0.008021621
-0.060580436 0.076051906 0.06411256 0.10211644 -0.050825793 -0.052052803 0.014277146 0.039859958
0.048236564 -0.053084396 0.11429217 0.20540418 -0.071006626 -0.046549473 0.020114431 -0.10859542
-0.0023532773 0.08770242 -0.025913365 0.015010011 0.073647015 -0.004142977 -0.110930055 -0.14269562
0.13431384 -0.042228736 0.16429219 0.0939604 0.03220197 0.09125444 -0.0010245157 0.14360519
0.018177932 0.11645099 -0.07977208 -0.111615725 0.07025135 -0.023274759 0.058029663 -0.027570609
0.109981425 -0.06335545 0.12336604 0.07175118 -0.08515069 0.055808417 -0.13874893 -0.15169999
0.024590993 0.020940933 -0.21168746 0.07430356 -0.10779461 -0.03913076 0.06456431 -0.04220527
0.12236273 0.07799057 0.19741632 0.09360077 -0.12641735 -0.0075116525 0.013571308 0.11484037
0.007697212 0.041779805 0.02148922 0.058130305 0.11696221 0.056520894 0.11958836 0.013471898
0.017325765 -0.008991707 -0.23985113 -0.04072805 -0.094958134 0.021081913 -0.0062535033 -0.032120645
0.0390162 0.04554486 0.11987224 0.10216303 -0.046815515 0.032859165 0.02320137 -0.010939197
0.1395899 0.100417696 0.08198426 -0.11473704 0.14938833 0.039229758 0.10973856 0.057267826
0.05000528 -0.06666622 0.03876892 0.04226582 0.024576655 0.033673663 0.016665844 -0.050929274
-0.03510571 0.038038064 -0.06766202 0.1121921 -0.015373558 -0.0048827394 -0.10596284 -0.03474333
3.5494682e-05 -0.02035784 -0.12932897 -0.12703523 -0.010994569 0.072352774 -0.009654264 -0.07972747
0.10033475 -0.09526839 -0.047497194 -0.06736786 -0.079727136 0.037939187 0.023472622 0.097217835
0.17435035 0.080197856 0.11602137 0.014586578 0.06864911 -0.013011827 -0.058488533 -0.019698218
-0.07154996 -0.037110686 0.08815298 -0.05784917 0.07583411 0.009415538 0.062675096 0.13526855
0.045132555 0.14981419 0.049126115 0.05398847 -0.017420739 0.04571842 0.088681035 -0.037105076
00000000: e9b9 bf3d 40e9 f5bd 25be bb3c 12be b3bd
00000010: 54b1 173e 1d77 5dbd a054 5ebd ccde 0f3e
00000020: 570d 05bd 1e8e 0cbe aca8 2b3d bd0f 333d
00000030: 280d 91bc 4015 08be bcd2 b53d 54b6 e73d
00000040: a1ab 8ebd b120 de3d 473a 193d 8477 083e
00000050: 6467 d23d 40d0 4f3c 5c65 5a3d 97c9 6ebd
00000060: 88b4 843a 1a2a d43d 64f0 8d3d ae7e d1bd
00000070: efbf 29bd 8f15 57bc b802 0e3b b52e cf3c
00000080: a6fc 603d a059 c53d bdf9 47be 0980 d0bd
00000090: 77d7 473d 456f 053e 1d2e 1abd 6ec1 84bd
000000a0: 83e7 f43d 36a9 23be 99ed a23d 5c12 083e
000000b0: 92a4 7a3d 64c4 723d 4d79 bfbd 8710 003c
000000c0: f467 fdbb 5ae2 23bd f61c 02be 7128 803d
000000d0: bd92 153e d8a6 923d 3ecd 14be 3e38 923d
000000e0: 4ee4 fe3c d6c3 693d 783f 0abd 5719 203e
000000f0: fe7a d63d 687c ec3c b851 913d 8bb2 523d
00000100: 6be0 833d aaa8 123e 8c76 a73d ce34 013e
00000110: a0fd 8c3c f673 013e 87fd 1fbd 5e79 7c3c
00000120: dbd6 72bc e4ee a13d 0dbb 9fbc d8a6 093e
00000130: bbb3 d43b e208 bf3d 04ba 23bd d145 0abd
00000140: 16f0 0fbd b3a3 8ebc 599f cf3d fa04 8f3d
00000150: 9eeb c7bd 61ff 9cbd 95f9 083d d754 97bd
00000160: bc2f f43b 7a0f 123e 82ab 92bd cbca 173e
00000170: 46c5 983d cf05 dbbc e137 d4bd 1bbe a8bc
00000180: 1abc 24bd 160c c73c 5837 223e 69bd a83d
00000190: 6e4c a03d e942 babd d369 b13d 1e6d 03bc
000001a0: 3123 78bd 1ac1 9b3d 724d 833d 6d22 d13d
000001b0: b52e 50bd 5235 55bd b1ea 693c 3244 233d
000001c0: b493 453d 066f 59bd 0312 ea3d 7955 523e
000001d0: ec6b 91bd a9aa 3ebd 05c7 a43c 4767 debd
000001e0: 7139 1abb 549d b33d 4448 d4bc 8dec 753c
000001f0: 3fd4 963d cfc1 87bb 4c2f e3bd cd1e 12be
00000200: 9189 093e 0af8 2cbd 363c 283e 4f6e c03d
00000210: 37e6 033d 9ce3 ba3d 0b49 86ba 3d0d 133e
00000220: e3e9 943c db7d ee3d 8b5f a3bd c996 e4bd
00000230: f1df 8f3d b5aa bebc 83b0 6d3d c2db e1bc
00000240: f13d e13d 81c0 81bd 56a7 fc3d 48f2 923d
00000250: 7c63 aebd 5e97 643d 3314 0ebe 3e57 1bbe
00000260: 0d73 c93c 528c ab3c 99c4 58be 772c 983d
00000270: 6cc3 dcbd 9347 20bd 4b3a 843d 6fdf 2cbd
00000280: 5099 fa3d 85b9 9f3d 8127 4a3e c3b1 bf3d
00000290: 8d73 01be 4f24 f6bb 315a 5e3c 6e31 eb3d
000002a0: e538 fc3b 4d21 2b3d 290a b03c 0b1a 6e3d
000002b0: e289 ef3d 7482 673d beea f43d 3cb9 5c3c
000002c0: c3ee 8d3c f451 13bc 899b 75be 75d2 26bd
000002d0: 6979 c2bd fab3 ac3c 30ea ccbb f090 03bd
000002e0: 73cf 1f3d 3f8d 3a3d 947f f53d da3a d13d
000002f0: a0c1 3fbd 5597 063d cd10 be3c 513a 33bc
00000300: a8f0 0e3e cba7 cd3d 5de7 a73d 41fb eabd
00000310: 41f9 183e 62af 203d 9cbe e03d ab91 6a3d
00000320: 56d2 4c3d 4d88 88bd 29cc 1e3d ed1e 2d3d
00000330: fb54 c93c 65ed 093d cf86 883c 379b 50bd
00000340: 01cb 0fbd cdcd 1b3d 6392 8abd f9c4 e53d
00000350: 60e1 7bbc 63ff 9fbb 0c03 d9bd 064f 0ebd
00000360: 20e0 1438 7cc5 a6bc d06e 04be 8615 02be
00000370: 9122 34bc b12d 943d eb2c 1ebc 2848 a3bd
00000380: 4e7c cd3d 131c c3bd 6b8c 42bd 29f8 89bd
00000390: fb47 a3bd 1f66 1b3d a849 c03c 251a c73d
000003a0: e688 323e c63e a43d 9d9c ed3d 8bfc 6e3c
000003b0: e897 8c3d 8f2f 55bc ac91 6fbd 285e a1bc
000003c0: c988 92bd 6001 18bd 8d89 b43d 40f3 6cbd
000003d0: ea4e 9b3d a143 1a3c cd5b 803d d783 0a3e
000003e0: eadc 383d e468 193e 7738 493d 0423 5d3d
000003f0: f0b5 8ebc 3d43 3b3d 679e b53d 7efb 17bd

fc.3.bias f4 [223]
-0.009993566 -0.024095312 -0.028549328 -0.023667086 0.014623492 -0.022252688 -0.019612653 -0.012444467
-0.01583678 -0.01584834 -0.071659215 -0.018247947 -0.008815778 -0.017970268 -0.028432885 -0.009774345
0.018504322 -0.026794808 -0.046651028 -0.0055754273 0.002895856 -0.010791907 0.041324228 0.03917418
0.007724482 0.062172163 0.014924073 -0.0007235694 -0.055051558 0.01168218 -0.036983393 -0.009257579
-0.009771325 0.0017713736 -0.01312312 -0.020701226 -0.050941296 0.0069666845 -0.034495536 0.024839165
-0.015404196 -0.046215985 -0.0681513 -0.031715762 0.020494342 0.020368088 0.031819865 -0.038809907
-0.030632254 0.0039477586 0.008379729 -0.010360084 -0.035151426 -0.031603053 -0.017830199 0.00046467604
-0.0014561485 -0.022670012 -0.025949812 -0.00600281 -0.02780627 -0.011621018 0.02610225 -0.04783048
-0.05926598 0.012467349 -0.030919971 -0.050155453 -0.004186608 -0.046150155 -0.027914913 -0.029969048
-0.0068508415 -0.056789983 -0.026481176 -0.020546762 -0.06753501 -0.031977024 0.012851123 -0.0023002645
0.0147561105 0.0014563268 -0.018872181 0.044463914 -0.049102087 -0.01701554 0.026222304 0.062330306
0.029345913 -0.015870808 0.023423363 -0.036126807 -0.020252392 -0.030034121 -0.030566948 -0.015062569
0.013322318 -0.059495654 0.023968738 -0.015835162 -0.0041503063 -0.0075560044 -0.04536081 0.012890521
0.006963684 0.011871268 0.007896515 0.025727032 -0.029293923 0.002964485 0.020865768 0.0014421261
0.022452617 -0.018419309 0.0036185333 0.004209811 -0.014551112 -0.050063003 -0.033004586 -0.004492692
-0.002434448 -0.03357154 -0.025179524 -0.021797149 0.040556077 0.037939172 -0.0037210276 -0.031209446
0.011876352 0.0180289 -0.028209604 -0.0068271174 0.025214687 -0.00043835133 -0.000942671 -0.035383042
-0.010097614 -0.06387724 0.0028025408 0.009360331 0.028824272 -0.013981914 -0.008890095 -0.023122322
0.0020617389 -0.011244826 -0.04218736 -0.0021309895 0.04755547 -0.0018632468 -0.014094043 -0.05001737
-0.019403767 -0.0077860337 -0.017741527 0.016147079 0.010496097 -0.02135556 0.012877513 0.046619333
0.004591529 -0.0202372 -0.020436943 0.0064833355 0.015276795 -0.029056145 0.0037359272 0.0015547624
0.011095434 -0.010580888 -0.015250734 -0.022235231 0.008008756 -0.016803397 -0.0006459853 0.034869853
0.0045978334 0.016791346 -0.036195364 0.011760641 -0.005059634 0.024522409 -0.04513685 0.016828664
0.057591677 0.04061686 0.025671275 -0.0155327935 -0.02653572 0.037415907 0.018643739 0.007529918
0.040692493 0.047297243 0.012509528 0.032648865 0.008283867 -0.052106123 0.0059654624 0.0102454955
0.04497178 -0.007461223 0.040022746 0.015868042 0.0013849773 0.0019448595 0.0144326575 -0.020737074
0.012757187 0.007048762 -0.00118086 0.04169677 -0.008729809 -0.067466825 -0.01401601 0.012958377
-0.04473914 -0.04075853 0.008951702 -0.030416066 -0.05150192 -0.03879339 -0.0047812015
00000000: 0ebc 23bc 8863 c5bc 48e0 e9bc 7ae1 c1bc
00000010: 5f97 6f3c 454b b6bc b7aa a0bc e1e3 4bbc
00000020: 23bc 81bc 61d4 81bc 11c2 92bd b87c 95bc
00000030: 0e70 10bc 6236 93bc 15ec e8bc 9324 20bc
00000040: 6096 973c c980 dbbc 2615 3fbd 13b2 b6bb
00000050: 67c8 3d3b 8ad0 30bc 9843 293d 1b75 203d
00000060: a71d fd3b 3da8 7e3d 1984 743c ecad 3dba
00000070: be7d 61bd 9d66 3f3c e67b 17bd 1aad 17bc
00000080: e817 20bc 6f2d e83a 5b02 57bc 9e95 a9bc
00000090: d2a7 50bd c948 e43b 314b 0dbd 817b cb3c
000000a0: e261 7cbc f94c 3dbd e992 8bbd 63e8 01bd
000000b0: c0e3 a73c fada a63c 8c55 023d 23f7 1ebd
000000c0: 7ef0 fabc 335c 813b 224b 093c 57bd 29bc
000000d0: f1fa 0fbd 3472 01bd a310 92bc c39f f339
000000e0: 3cdc beba 76b6 b9bc b394 d4bc 38b3 c4bb
000000f0: fac9 e3bc 1566 3ebc 63d4 d53c e5e9 43bd
00000100: e2c0 72bd da43 4c3c e14b fdbc ce6f 4dbd
00000110: d02f 89bb f207 3dbd d1ad e4bc a681 f5bc
00000120: 067d e0bb 9d9c 68bd 0def d8bc af51 a8bc
00000130: cc4f 8abd 57fa 02bd 848d 523c 09c0 16bb
00000140: 9dc3 713c 38e2 be3a d599 9abc cb1f 363d
00000150: 451f 49bd 2c64 8bbc 28d0 d63c 104e 7f3d
00000160: d766 f03c 7f03 82bc 5ae2 bf3c b4f9 13bd
00000170: 58e8 a5bc 1e0a f6bc 8967 fabc fec8 76bc
00000180: da45 5a3c b7b1 73bd 165a c43c beb8 81bc
00000190: 4bff 87bb 5c98 f7bb 42cc 39bd c432 533c
000001a0: 9e2f e43b b57f 423c 6260 013c 7fc1 d23c
000001b0: cff9 efbc ce47 423b b0ee aa3c b905 bd3a
000001c0: 8dee b73c 17e4 96bc ea24 6d3b 74f2 893b
000001d0: ca67 6ebc dd0e 4dbd d12f 07bd 6f37 93bb
000001e0: 438b 1fbb 5082 09bd 4a45 cebc ef8f b2bc
000001f0: 211e 263d 1b66 1b3d 7cdc 73bb f4aa ffbc
00000200: 0895 423c 58b1 933c d417 e7bc 03b6 dfbb
00000210: 088f ce3c 85d2 e5b9 941d 77ba cfed 10bd
00000220: 7670 25bc 12d2 82bd d5aa 373b 135c 193c
00000230: e120 ec3c 6614 65bc c3a7 11bc 066b bdbc
00000240: 3d1e 073b 383c 38bc a7cc 2cbd 12a8 0bbb
00000250: 86c9 423d 3038 f4ba b3ea 66bc 04df 4cbd
00000260: a6f4 9ebc fc21 ffbb ae56 91bc e146 843c
00000270: d2f7 2b3c dbf1 aebc 34fc 523c eaf3 3e3d
00000280: 8974 963b 7cc8 a5bc 606b a7bc 2972 d43b
00000290: 864b 7a3c 2707 eebc 75d6 743b 2bc9 cb3a
000002a0: a0c9 353c 765b 2dbc 37de 79bc a926 b6bc
000002b0: 2837 033c 47a7 89bc 5757 29ba b1d3 0e3d
000002c0: 6ca9 963b 018e 893c 9741 14bd b4af 403c
000002d0: 49cb a5bb 38e3 c83c 6be1 38bd 44dc 893c
000002e0: 40e5 6b3d dd5d 263d 914c d23c 427d 7ebc
000002f0: 7061 d9bc 6c41 193d c1ba 983c 88bd f63b
00000300: 2cad 263d c1ba 413d c3f4 4c3c d1ba 053d
00000310: 0eb9 073c 3b6d 55bd ed79 c33b b9dc 273c
00000320: 5434 383d 467d f4bb e4ee 233d b2fd 813c
00000330: 2088 b53a a8ea fe3a f476 6c3c cce0 a9bc
00000340: 8503 513c 4df9 e63b 16c7 9aba 3bca 2a3d
00000350: 7907 0fbc 0c2c 8abd 68a3 65bc 5f4f 543c
00000360: 6340 37bd 6bf2 26bd 29aa 123c 1d2b f9bc
00000370: adf3 52bd d1e5 1ebd a0ab 9cbb

fc.3.weight f4 [223, 446]
-0.0655703 -0.018703472 0.06325468 -0.0535716 -0.0045805685 -0.03864976 -0.03982822 0.02833724
0.030944586 0.013749319 0.049212735 -0.010041328 -0.009842066 -0.0068626376 0.028605541 0.03235052
-0.03582051 -0.050498866 -0.043653753 -0.034951203 0.015266414 0.043443266 -0.0086138 0.002947415
0.07525495 -0.007472313 -0.077183485 0.013898688 -0.03447768 -0.020608582 0.004448019 0.049527973
-0.002372035 0.01896925 -0.06690628 0.012386616 0.07020632 -0.056147814 -0.04662618 0.05208168
-0.032715738 -0.043815337 0.019212991 0.010566071 0.02212075 -0.09794287 -0.08644861 -0.03798687
-0.100971855 -0.03967961 0.07291378 -0.060839016 0.06299462 -0.08195819 0.045367442 0.05173761
-0.034263268 0.02630841 -0.034419075 -0.010107915 0.005191788 0.011625975 -0.07844031 0.055813707
-0.042866893 0.060823478 0.00885293 -0.012240481 -0.096574776 0.050476875 -0.05291488 0.038155768
-0.0682316 -0.034036312 0.040812906 0.0077997535 0.02520615 -0.06345323 -0.06954801 0.0025884127
-0.035243955 0.009104349 -0.022272326 0.012924886 -0.07798227 0.055607505 -0.042081296 -0.05227591
-0.053226948 0.075147614 0.09646851 0.078589275 0.036264356 -0.024255099 0.07513714 0.02939946
-0.091260254 -0.06719259 -0.010772681 -0.008828373 0.088664524 -0.09931562 -0.010337865 0.07716241
-0.017992185 -0.06402275 0.1101083 -0.0280235 -0.06904477 -0.008756868 -0.053681076 0.04495735
-0.09698828 -0.07341378 -0.06974679 0.10681258 0.046099264 -0.055329505 0.0814261 -0.012193787
0.045240004 0.061949667 -0.0069303503 0.030744484 0.07164072 -0.051900152 -0.055974074 0.011055917
0.04134936 -0.09018512 -0.10693036 -0.051108822 0.07507391 -0.06898878 -0.024651946 0.047382563
-0.04339196 0.017170085 -0.046593107 0.06063357 0.031238029 0.055882838 0.0067790207 -0.060986206
-0.08185459 0.028772565 -0.030648638 -0.059612915 -0.075362585 0.073844366 -0.06628788 -0.0559734
-0.048921335 0.08355646 0.08739918 -0.015060115 -0.045350876 -0.0774437 0.0021827787 0.067168936
-0.050958283 -0.04046341 0.0716028 -0.01819208 0.017885605 -0.05009192 -0.068422385 0.034795605
-0.080773324 -0.03287004 0.017053252 0.0035293358 -0.035809312 0.018685626 -0.050539035 -0.0655643
-0.04425268 0.07518709 -0.050018873 -0.046665955 0.017143331 -0.043619044 0.00010813991 -0.053119384
0.03555091 0.02317302 0.0011053144 0.03306735 -0.06078298 -0.1018686 0.03219243 -0.023802418
-0.03698049 0.048192117 0.04328396 -0.05466636 -0.055616107 0.019068658 -0.010221969 0.031869445
-0.054069683 -0.0085148215 0.083247475 -0.040930193 -0.06721464 0.069377616 0.034095235 0.007688451
-0.020919653 -0.04801318 0.015710168 -0.033134006 -0.075847566 0.03798003 -0.0012540137 0.007167429
0.07446557 0.06972136 -0.022368966 0.048021592 0.0310176 0.04691632 0.07310184 -0.040877506
-0.02573119 0.042434856 -0.066486016 -0.044525634 -0.05604637 0.030261802 -0.06055029 -0.051690716
-0.018954245 0.05230549 0.034230374 0.042313013 0.07660707 -0.039906066 -0.03620053 0.04656571
-0.037702378 -0.015278628 -0.075658016 0.051568247 -0.059355676 -0.030913737 0.013332422 0.092098154
-0.030994099 0.02922866 0.005243097 -0.026133003 -0.039862532 -0.05338819 -0.041357044 -0.00905218
00000000: b949 86bd 0638 99bc ab8b 813d e56d 5bbd
00000010: 9818 96bb 364f 1ebd ea22 23bd 8023 e83c
00000020: 807f fd3c d344 613c 4b93 493d 6284 24bc
00000030: 9e40 21bc fadf e0bb 2b56 ea3c fb81 043d
00000040: 87b8 12bd e6d7 4ebd 47ce 32bd fe28 0fbd
00000050: fb1f 7a3c 91f1 313d e520 0dbc 6b29 413b
00000060: 441f 9a3d 4eda f4bb 6012 9ebd 53b7 633c
00000070: 7838 0dbd 54d3 a8bc b0c0 913b d8dd 4a3d
00000080: 2574 1bbb 6765 9b3c 2906 89bd 3cf1 4a3c
00000090: 55c8 8f3d 40fb 65bd 18fb 3ebd 9a53 553d
000000a0: f000 06bd b677 33bd 9064 9d3c 501d 2d3c
000000b0: 9336 b53c 4596 c8bd f80b b1bd 1f98 1bbd
000000c0: 55ca cebd 1687 22bd d253 953d 5532 79bd
000000d0: 5303 813d b2d9 a7bd 36d3 393d d1ea 533d
000000e0: a457 0cbd bc84 d73c 04fb 0cbd ab9b 25bc
000000f0: e01f aa3b e07a 3e3c 50a5 a0bd ea9c 643d
00000100: 3295 2fbd 0a22 793d e10b 113c 4c8c 48bc
00000110: ffc8 c5bd d7c0 4e3d 46bd 58bd 3949 1c3d
00000120: 02bd 8bbd a969 0bbd 6f2b 273d 1395 ff3b
00000130: 217d ce3c c4f3 81bd 306f 8ebd 5ca2 293b
00000140: f75b 10bd 682a 153c 7474 b6bc e7c2 533c
00000150: 2bb5 9fbd b2c4 633d 705d 2cbd 441f 56bd
00000160: 8004 5abd fee6 993d 4891 c53d 6af3 a03d
00000170: ef89 143d a1b2 c6bc 80e1 993d 23d7 f03c
00000180: a8e6 babd 459c 89bd e67f 30bc e1a4 10bc
00000190: bf95 b53d fd65 cbbd 2660 29bc 5307 9e3d
000001a0: 5964 93bc 5c1e 83bd 7680 e13d 8a91 e5bc
000001b0: 5867 8dbd f778 0fbc b0e0 5bbd 3325 383d
000001c0: cba1 c6bd f759 96bd 68d7 8ebd 8ec0 da3d
000001d0: 95d2 3c3d 31a1 62bd bac2 a63d 73c8 47bc
000001e0: 954d 393d efbe 7d3d fe17 e3bb dbdb fb3c
000001f0: 5fb8 923d 4195 54bd 1245 65bd e023 353c
00000200: f25d 293d fab2 b8bd 4efe dabd 7c57 51bd
00000210: 5ac0 993d fd49 8dbd e1f2 c9bc 3814 423d
00000220: c5bb 31bd 47a8 8c3c 6ad8 3ebd e85a 783d
00000230: e5e6 ff3c 67e5 643d 8c22 de3b accc 79bd
00000240: 61a3 a7bd 71b4 eb3c da12 fbbc ac2c 74bd
00000250: b357 9abd b73b 973d f1c1 87bd 5d44 65bd
00000260: bd61 48bd a61f ab3d 57fe b23d b3be 76bc
00000270: d7c1 39bd cd9a 9ebd f30c 0f3b de8f 893d
00000280: a2b9 50bd f6bc 25bd 7da4 923d 8f07 95bc
00000290: d584 923c 2f2d 4dbd 0921 8cbd d685 0e3d
000002a0: 7c6c a5bd bca2 06bd 43b3 8b3c 6e4c 673b
000002b0: c9ac 12bd 9912 993c 0502 4fbd 9346 86bd
000002c0: 4c42 35bd b0fb 993d 97e0 4cbd cd24 3fbd
000002d0: 2c70 8c3c e2a9 32bd 2cc9 e238 b693 59bd
000002e0: d59d 113d 58d5 bd3c 32e0 903a a171 073d
000002f0: 93f7 78bd 7ca0 d0bd 36dc 033d 4afd c2bc
00000300: db78 17bd 1965 453d 864a 313d d5e9 5fbd
00000310: b7cd 63bd e035 9c3c 0c7a 27bc 8989 023d
00000320: 2c78 5dbd c081 0bbc a77d aa3d 6ba6 27bd
00000330: d4a7 89bd da15 8e3d 72a7 0b3d 67ef fb3b
00000340: b15f abbc 78a9 44bd 9cb2 803c 86b7 07bd
00000350: f855 9bbd f390 1b3d b85d a4ba c1dc ea3b
00000360: 6881 983d 13ca 8e3d 1f3f b7bc 4ab2 443d
00000370: 9f18 fe3c 542b 403d 6bb6 953d 2c6f 27bd
00000380: 37ca d2bc 2cd0 2d3d d229 88bd 8360 36bd
00000390: e190 65bd 99e7 f73c 9503 78bd a5b9 53bd
000003a0: ef45 9bbc 483e 563d 2635 0c3d 6950 2d3d
000003b0: 2be4 9c3d 8b74 23bd 0247 14bd b0bb 3e3d
000003c0: cf6d 1abd 3653 7abc 97f2 9abd 3a39 533d
000003d0: f01e 73bd ce3e fdbc 3b70 5a3c f59d bc3d
000003e0: 56e7 fdbc f170 ef3c 49ce ab3b e114 d6bc
000003f0: e546 23bd 93ad 5abd 0166 29bd 984f 14bc
