inventory/ark_material.onnx (onnx, 783264 bytes, 8 tensors)

35 f4 [8, 3, 5, 5]
000000 81 56 75 be cf 91 dc be ad 3e b9 bd 81 69 d3 3e
       -0.2395878 -0.43079993 -0.090451576 0.4129143
000010 15 f2 c0 3e 29 cc 78 3e 9a 6a 57 be e6 b6 05 bf
       0.37684694 0.24296631 -0.21036759 -0.52232206
000020 8c 98 33 bf 27 8a 99 be 8b 86 24 3e 8b 43 85 3e
       -0.70154643 -0.29988214 0.16066949 0.26028094
000030 fa 8b 17 3e 97 ab b9 3e 7d 57 17 be 8a 6d c3 be
       0.1479949 0.36263725 -0.14779468 -0.3816951
000040 c2 b8 10 be 59 f8 02 3f 6c e2 be 3d 0d 7f 0f bf
       -0.1413298 0.511602 0.0932053 -0.5605324
000050 59 9f aa be ad e1 14 3f ec 71 f1 3e fd bf de 3e
       -0.33324698 0.58156854 0.47157228 0.4350585
000060 6e 5a 1f 3f 4d a7 1f 3f bc 20 40 be 28 3d 9f 3e
       0.6224736 0.62364656 -0.18762487 0.31101346
000070 d7 9c e0 3e ba e9 1a 3f 0a 84 1a bf 46 ae 0e be
       0.4386966 0.6051289 -0.60357726 -0.13933668
000080 4d fa e2 3c 06 07 0b bd d9 f9 93 3e 07 3f 1e bf
       0.027707243 -0.033942245 0.28901556 -0.6181492
000090 89 6d 1d 3e 8a 39 18 3f 02 91 6e bd 57 dd c6 3e
       0.15373816 0.594628 -0.05824376 0.38840744
0000a0 4f 6a 08 be 36 23 c7 3c fa 9a 62 be bc a8 79 be
       -0.13321804 0.024308782 -0.22129431 -0.24380773
0000b0 23 86 82 3e cd 9a dd 3e b6 ac 5b 3e c3 84 86 be
       0.25492963 0.43282166 0.21452603 -0.26273164
0000c0 a0 da 8c 3e 93 b3 b4 be 44 74 fa be 52 6d 1b bf
       0.27510548 -0.35293254 -0.4891683 -0.60713685
0000d0 aa fc 2f bf e7 4c 84 bb 9f dd 83 be 9a f6 d8 3d
       -0.6874491 -0.004037488 -0.2575502 0.105939105
0000e0 34 26 03 bf 04 6e 1a 3e 5d 7a cc 3d 7b 13 71 be
       -0.5123017 0.1508103 0.099842764 -0.23542587
0000f0 58 b7 0a be 13 0b 04 bf bb e5 1e be c9 0b 07 3f
       -0.13546503 -0.515794 -0.15517323 0.5275236
000100 3e a7 78 3e 0f 75 06 3e 22 30 fb 3e 34 77 e9 3e
       0.24282548 0.13130592 0.4906016 0.45598757
000110 87 1a e7 bd 13 13 2a 3f 1e 59 1c bf 3a 96 48 3e
       -0.112843566 0.66435355 -0.6107348 0.19588557
000120 a0 c7 f9 3d e3 81 af 3e eb a9 65 bc 1c 38 e9 bd
       0.121962786 0.34278783 -0.014017562 -0.11387655
000130 82 33 ac be 31 0d 65 bd 4a 4a 81 bd a3 60 69 3e
       -0.33633047 -0.055920783 -0.06312998 0.2279077
000140 ce ed 48 3e c0 3f c8 be 17 ff e8 3b 2a 07 21 3c
       0.19621965 -0.39111137 0.007110487 0.009828368
000150 1f fb 7b 3e 62 d7 85 be 17 f7 92 3d 62 68 f6 bd
       0.24607514 -0.26140887 0.07176035 -0.12031628
000160 04 66 d9 3d 3b a3 ac be a4 a2 47 3e bf 3c 88 3e
       0.10615161 -0.33718285 0.19495636 0.26608846
000170 bc 4e 07 3e d1 17 7f be bb 6b b2 be 3a 33 26 3e
       0.13213629 -0.24911429 -0.34847817 0.16230479
000180 a2 64 28 3f 3d 72 f2 3e b9 d7 93 3d c6 7b 1b be
       0.65778553 0.47352782 0.0721888 -0.15183935
000190 1b 35 8e be 5a 87 68 be bc 47 80 be 9b be dc 3e
       -0.2777489 -0.22707883 -0.2505473 0.4311417
0001a0 11 b6 88 3e 26 97 58 bd 52 7e 28 bd 12 de 03 3e
       0.26701406 -0.05287852 -0.041136093 0.12877682
0001b0 38 0a ab be 25 5a 36 be ae d8 f8 bc c9 3a da be
       -0.33406234 -0.17807825 -0.030376758 -0.42622975
0001c0 61 c6 1e bf 99 7a ee be a5 36 ae 3d 64 40 07 3e
       -0.6202145 -0.4657791 0.08506516 0.13208157
0001d0 bf 8b 9a be 8b 7e 83 be f1 79 97 be b4 07 03 be
       -0.30184743 -0.25682482 -0.2958522 -0.12795907
0001e0 9d 14 42 be a9 6b 9a be 70 f4 9c be d2 4a 8d be
       -0.18953176 -0.30160263 -0.3065524 -0.27596146
0001f0 b2 f3 62 be 35 5e d5 3c 30 c1 20 3c c4 bf 91 3e
       -0.22163275 0.026045898 0.0098116845 0.28466618
000200 f4 3d 54 3e 88 d7 ab 3e 16 90 a4 3e c8 e9 a4 bd
       0.20726758 0.33562875 0.3214118 -0.08052403
000210 db 18 45 be 81 21 d8 be 15 c5 ab 3e 1a 56 2d bd
       -0.19247763 -0.4221306 0.335488 -0.04231844
000220 98 fa 36 3d ee e8 85 be 04 34 72 3e 42 62 35 be
       0.04467258 -0.26154274 0.23652655 -0.17713264
000230 d6 61 64 3e 5f 36 6b 3e 2b 3c 55 be b4 5b 1c bd
       0.22302946 0.2296996 -0.20823734 -0.038173392
000240 24 ea ba 3e d9 6a 45 3d 30 d7 5a 3e f1 7e 88 bd
       0.3650676 0.0481976 0.2137115 -0.06664837
000250 45 fe 06 be 24 e9 e3 be 1d be da 3e d3 e2 d9 3e
       -0.13182934 -0.4451381 0.4272317 0.42555866
000260 81 b4 0b be 22 d2 0f bf 0f cd f1 be fb 38 45 3f
       -0.13643076 -0.5618001 -0.4722676 0.7704007
000270 24 a2 a2 be dd 94 09 3f 27 fa 4b 3f ef fd a4 be
       -0.31764328 0.5374277 0.7967858 -0.32224986
000280 af d2 96 3e 14 c0 99 3e 86 86 11 3f a9 b2 5c be
       0.29457614 0.30029356 0.5684589 -0.21552528
000290 d9 0d 3b 3e 69 0c 1c bf 3a da 74 be 0a d1 7e 3d
       0.18267001 -0.60956436 -0.23911372 0.062211074
0002a0 32 00 3c 3e 06 9d ae 3e a0 c4 95 be 89 09 54 be
       0.1835945 0.34104174 -0.29251575 -0.20706762
0002b0 29 ab 5c bf cd fd a4 bc 89 09 90 bc 7d 49 fb be
       -0.8619867 -0.020140553 -0.017582672 -0.49079505
0002c0 a7 70 cc be 01 9e bb be 5c 55 74 bf fb 87 0b be
       -0.39929697 -0.36643985 -0.9544275 -0.13626091
0002d0 b6 74 9f 3f 3a ab e0 be 8e 0c 87 3f 6a 01 2d bf
       1.2457492 -0.43880635 1.0550706 -0.6758028
0002e0 e2 e2 9f bd f3 83 1e bf 6a 6d af be 54 4f d9 3e
       -0.07806946 -0.6192009 -0.34263164 0.42443335
0002f0 38 bf 8f 3f 25 50 3e 3f df 92 8d 3d 53 24 71 3f
       1.123023 0.7434104 0.06912779 0.9419605
000300 d5 3b bb be c1 42 8c 3e bd ae 0f 3f 84 b8 20 bf
       -0.36569086 0.2739468 0.56126004 -0.6278155
000310 66 8f 22 3e 18 53 3f bf d8 a5 52 bf f2 03 06 be
       0.15875015 -0.74736166 -0.8228431 -0.13087443
000320 db 4c 10 3f cb 82 53 bf 31 e6 b1 3e 28 72 81 3e
       0.5636727 -0.8262145 0.34745935 0.25282407
000330 cf ca 50 bf e2 0b 0d 3e 59 ac 86 3f 58 12 c4 bd
       -0.8155946 0.13774064 1.0521346 -0.09573811
000340 77 d7 3f be 4c f9 98 3e 2a fb 01 be 38 05 69 3f
       -0.18734537 0.29877698 -0.12693468 0.9102359
000350 28 ef 09 be ec c1 36 3f 46 1c 0e bf 91 61 bf be
       -0.13470137 0.7138965 -0.5551189 -0.37379125
000360 56 ed 54 bf eb ef 7b 3d 2a 4d b2 3e e4 3b c1 3e
       -0.83174646 0.0615081 0.34824497 0.37741005
000370 53 ae dd be f8 5a 54 bd d4 61 ba be 92 e4 29 be
       -0.4329706 -0.051844567 -0.36402762 -0.16591099
000380 72 f5 e2 3d 6f 19 9f 3e d1 f7 61 3d 61 26 9a 3d
       0.11081971 0.31074092 0.055167977 0.075268514
000390 8f de e4 be a8 7b bf 3e a0 ae fd bd da ef 53 be
       -0.4470105 0.3739903 -0.12386823 -0.20696965
0003a0 8a df b2 3e 1a 5f 39 3e 91 63 bf be 99 78 7f be
       0.34936172 0.18102685 -0.3738065 -0.24948348
0003b0 7a 32 f3 3d b5 e1 3e be 6b 74 1d 3e 94 5a e3 3e
       0.11874862 -0.18640788 0.15376441 0.44405043
0003c0 47 76 1e bf f9 15 58 be fc a1 58 3e e7 84 86 3e
       -0.61899227 -0.21102132 0.21155542 0.2627327
0003d0 ad 99 30 3e a2 44 c0 3d 8d 2b 1e be fb bc dd bd
       0.17246123 0.09388091 -0.15446301 -0.10827061
0003e0 b0 e1 1d 3e 86 4f 28 3f c3 57 d9 3e 97 2f d7 3e
       0.15418124 0.65746343 0.4244977 0.42028496
0003f0 ed 81 2c 3e ad 18 46 bd dc d4 f5 be 0a 4d a7 3e
       0.16846438 -0.048363376 -0.4801396 0.32675964

36 f4 [8]
000000 c4 c6 3a bf 30 94 b2 3f cd 50 dc bd c8 4d 82 bf
       -0.7295954 1.3951473 -0.10757599 -1.0179987
000010 3e ea 5b bf 48 24 3e 3f 39 9a c9 bf ac 51 89 3d
       -0.859043 0.7427411 -1.575019 0.06705031

38 f4 [16, 8, 3, 3]
000000 b1 74 bf 3e b9 33 59 3f 80 f3 34 bf 0b de bd 3e
       0.37393716 0.8484455 -0.7068405 0.37083468
000010 7c d9 09 bf d9 ae 5b c0 94 a3 0f 3f 79 26 00 40
       -0.5384748 -3.4325469 0.56108975 2.0023482
000020 c4 29 b2 be e2 e7 f3 be 9a c4 18 3c 10 6b 1e 3f
       -0.3479749 -0.4763785 0.009324217 0.61882114
000030 1b 5b 5f bf 1b 1b a2 3f d7 09 7c bf 86 8e dd be
       -0.8724839 1.2664522 -0.98452514 -0.432728
000040 db 3e c6 3f 25 70 d2 bf ed 56 c2 bc e5 17 55 be
       1.5487932 -1.6440474 -0.02372309 -0.20809896
000050 33 5f b3 3d bc 39 00 bf 25 5d a2 3d 82 79 3c c0
       0.08758392 -0.50088096 0.07927922 -2.9449162
000060 40 02 be be 33 c0 9c 3c 4e 6a e3 be 78 03 d4 3f
       -0.37111092 0.019134616 -0.44417042 1.6563559
000070 e5 03 b1 3e 52 26 36 40 1b 6b 9d 3f 9f d0 89 3e
       0.34573284 2.846089 1.2298311 0.26916978
000080 ea 94 df be 10 c9 2d be 3b cb 39 be ef ae 0d c0
       -0.436683 -0.1697123 -0.18143933 -2.213802
000090 25 88 3a bf f2 69 b8 be d7 2c ae bf 7b 6a ff 3e
       -0.7286399 -0.3601833 -1.3607434 0.49885926
0000a0 40 c9 dc be e0 73 95 be 29 e6 07 3f c6 45 8a 3f
       -0.43122292 -0.29189968 0.5308557 1.0802543
0000b0 60 f8 ce 3f 0b 60 78 3f b7 a2 3f bf 53 e6 b5 bf
       1.6169548 0.9702155 -0.7485766 -1.4210914
0000c0 cd 7b 90 3f a3 33 ee 3f c6 cc 8e 3e c2 b2 12 c0
       1.1287781 1.8609508 0.27890605 -2.2921605
0000d0 5b f7 ee be 78 c4 77 3e 99 8b ef bf 1d 07 9e be
       -0.46673092 0.2419604 -1.8714477 -0.30864802
0000e0 f9 c9 17 bf 4a 06 87 be cc 42 ab 3e 01 a0 62 3f
       -0.5929256 -0.26371986 0.334494 0.88525397
0000f0 68 f6 a5 bf e2 5e b2 3d 71 e5 5f bf 56 42 62 3f
       -1.2965822 0.08709504 -0.87459475 0.8838247
000100 ec 38 92 bd c7 4f f0 3e af 4e ca 3f 98 29 43 3f
       -0.07139763 0.46935865 1.5805262 0.7623534
000110 bb 24 9a bf 39 44 26 bf ed 52 b4 bf 8c aa 89 bf
       -1.2042459 -0.6494785 -1.4087807 -1.0755172
000120 88 19 21 bf 14 9e 2f 3f 02 81 ab 3d 3a b4 2f 3d
       -0.6292958 0.68600583 0.08374216 0.042896487
000130 31 16 74 3e 60 b8 7e be 7c bd 89 be 65 7f 80 bf
       0.2383659 -0.24875021 -0.26902378 -1.0038878
000140 cb a5 a5 bf 09 9a 54 bf dc b8 91 3f 50 3e 50 3e
       -1.2941221 -0.8304754 1.138454 0.2033627
000150 40 28 84 be 92 52 f4 bf 6c a1 f5 3e a3 10 cb 3e
       -0.25811958 -1.9087698 0.47974718 0.3966113
000160 65 72 c6 bf ea f1 d1 3e 10 dc e9 be e4 8d 62 bf
       -1.550366 0.41004878 -0.45675707 -0.8849776
000170 d7 f8 13 be 23 7f 37 3f ef ef 82 be 07 84 f7 3c
       -0.14450394 0.7167837 -0.2557368 0.030214323
000180 c8 93 c9 3e 41 d3 1f bf 26 3b c6 3e dc 49 48 bf
       0.3937056 -0.6243172 0.38717002 -0.782377
000190 dc 8e 1a 3f 0f 81 c0 3d 98 56 2a bf 14 72 8b bf
       0.60374236 0.09399616 -0.6653838 -1.0894189
0001a0 f9 fb 4a bf 94 35 4e bf a9 95 ed 3e 63 61 ae 3b
       -0.7929073 -0.80550504 0.46403244 0.005321668
0001b0 42 c7 1e 3e 4b e4 65 3f 9b c9 8d 3e 54 7e 37 3e
       0.15505698 0.8980147 0.27692875 0.17919284
0001c0 52 0f e9 3f 42 eb f3 be 44 f1 83 bf 6e a7 01 40
       1.82078 -0.47640425 -1.0308003 2.025844
0001d0 a4 92 e5 be 13 2a 62 3f df 77 23 bf da da d9 3b
       -0.4483844 0.8834545 -0.63854784 0.0066484036
0001e0 72 30 b9 bd 74 26 50 bf 28 97 83 bf e7 e0 4e 3f
       -0.09042443 -0.81308675 -1.0280504 0.80811924
0001f0 2a 3b d5 3e be 9c a1 3f d7 be e6 3d 1a ce ab be
       0.416467 1.2625959 0.112668686 -0.3355568
000200 32 5e 58 be 19 ce 9d 3f 47 33 38 bf b8 bc 5d be
       -0.21129683 1.2328521 -0.71953243 -0.21654022
000210 82 f6 cd 3e c9 c1 42 bf 68 1a b9 3f b2 0d 91 3e
       0.40227133 -0.7607694 1.4461184 0.2833076
000220 1c bd 28 c0 d8 ef c8 3e 57 f0 d4 bf d7 45 cc 3e
       -2.6365423 0.39245486 -1.6635846 0.39897034
000230 71 39 47 3f e8 fc 4f bd c1 3c dc 3f 4f 55 ca be
       0.77822024 -0.0507783 1.7206041 -0.3951821
000240 36 c2 0f 3f b9 82 0f 3f a9 70 9b bf 4b 3c 97 3f
       0.5615572 0.5605884 -1.2143756 1.1815275
000250 60 a8 9e bf 79 e1 13 3e 5e 9b c4 3f 2d 51 dc bf
       -1.2395134 0.1444148 1.5359914 -1.7212273
000260 2a c2 19 3f d5 5c 19 bf a0 92 44 3f 50 0c 32 bf
       0.60061896 -0.59907275 0.7678623 -0.6955004
000270 6d 0f 83 3c 09 4f 30 3f cc 0a c6 3d 87 21 15 bf
       0.015998567 0.688706 0.09670028 -0.58254284
000280 27 b2 e7 3e 01 a1 83 bf 34 ba 14 bf e3 d8 18 40
       0.45253107 -1.028351 -0.58096623 2.3882377
000290 f1 2c ba 3e 12 2e d6 3e fc 74 6c be d2 28 05 bf
       0.36362413 0.41832024 -0.23091501 -0.5201541
0002a0 02 f3 0f 3f 03 4d fd be 9e 3c 3a 3e 6a 19 c5 3e
       0.56230175 -0.49472818 0.18187186 0.38495952
0002b0 7c 54 44 bf ed 76 1c bf 83 fa f8 3c 9f 5b 62 3e
       -0.7669141 -0.61118966 0.03039289 0.22105263
0002c0 44 5c 89 3f 59 4d 8d bf b3 17 0a bd d2 26 2a bf
       1.0731282 -1.103923 -0.033714008 -0.66465485
0002d0 35 9d 28 bf fd 8e 88 3f 1a 9b 85 bf 38 a7 9d be
       -0.6586488 1.0668637 -1.0437958 -0.3079164
0002e0 f3 47 39 3f 16 c0 53 3f 7b 9c 2b 3f 68 7f 8d bd
       0.7237541 0.82714975 0.67035645 -0.069090664
0002f0 c1 44 3f 3f 6a 42 97 3f 83 c7 59 bf 66 3f 96 bc
       0.74714285 1.1817143 -0.85070056 -0.018340778
000300 00 25 d8 3e b4 71 87 3f 4d 37 21 bf 0f 7d 9a 3e
       0.4221573 1.0581574 -0.6297501 0.30173537
000310 bc 3a 99 bf c1 ed 87 bf 7c 5d 99 be 0b 01 18 bf
       -1.1971049 -1.0619432 -0.29954135 -0.5937659
000320 cc 09 32 3f 4a d5 09 c0 6c 1b 2e 3f a3 02 0d 40
       0.695462 -2.1536431 0.6801059 2.203286
000330 60 b2 2d bf 95 95 b9 3e 93 04 4d bf df e3 b2 3d
       -0.67850304 0.36246935 -0.80085105 0.08734869
000340 f5 90 c7 bf 4d dc 42 3e 98 74 c1 be 4f 0e 35 3f
       -1.5591112 0.1902935 -0.37784266 0.7072496
000350 84 9d f8 3d c9 06 10 bf 71 e4 90 3d d9 c9 99 bf
       0.12139419 -0.56260353 0.07074822 -1.2014724
000360 7b 95 12 bd c3 dd 0d 3f 49 ee 59 3e 9e 4d 6c 3e
       -0.035787087 0.55416507 0.21282305 0.23076484
000370 2f 06 e8 3e dc 8f c9 be 24 17 ef be bb 27 24 3f
       0.45317218 -0.39367568 -0.46697342 0.64123124
000380 7b d4 7b bf c3 6e 5f bf af fb 25 bc 93 ff 2e bf
       -0.98371094 -0.87278384 -0.010130807 -0.68358725
000390 a3 f7 00 3f b7 91 ab 3f 26 80 58 bf 19 ca 16 3f
       0.50377864 1.3403844 -0.8457054 0.58902127
0003a0 d0 c3 70 bd 16 12 ac bd 59 1e 22 bf f2 29 aa be
       -0.05878049 -0.08401887 -0.63327557 -0.33235127
0003b0 88 03 30 3f 23 4a b7 bd 25 5b 05 bf 47 0e 74 bf
       0.6875539 -0.08949687 -0.520922 -0.95334285
0003c0 79 32 c1 3f 1a eb 84 bf 10 04 c0 bd 89 e6 91 3f
       1.5093528 -1.0384247 -0.09375775 1.1398479
0003d0 34 ff 6c 3f 28 04 28 3f 08 fc 9b be bc 17 4c 40
       0.9257691 0.6563134 -0.30465722 3.1889486
0003e0 48 a8 90 be c8 b2 b1 bf 51 52 80 40 69 60 bc be
       -0.28253388 -1.3882685 4.0100484 -0.36792305
0003f0 a1 00 c7 3e 0c e3 1d 3f 0a 5a 17 bf a2 f5 0a c0
       0.38867667 0.6167457 -0.59121764 -2.1712422

39 f4 [16]
000000 28 25 15 40 44 94 c8 3f b1 c1 37 3f 50 ef 4d be
       2.3303928 1.5670247 0.71779925 -0.20110822
000010 45 c5 c3 3e 16 de f4 be 66 ef 00 40 cb 7c ac 40
       0.38236442 -0.47825688 2.0146117 5.3902335
000020 21 5f 02 40 c7 c0 d2 3f 7c a6 87 3f 73 33 09 c0
       2.0370562 1.6465081 1.0597682 -2.1437652
000030 f0 1d fd bf 14 b9 eb 3f 0f 90 0f c0 aa 52 df 3f
       -1.9774761 1.8415856 -2.2431676 1.7447102

fc.0.bias f4 [552]
000000 96 aa 9e 3c 1c 88 ae bb 08 b1 8d 3c 17 d0 7a bd
       0.019368451 -0.005326284 0.01729633 -0.061233606
000010 19 4b 1c 3d 5b 97 c6 3d 9b 9c a2 3d 25 f1 ae 3d
       0.038157556 0.096968375 0.079400264 0.085420884
000020 fb bb fa bc ca ba de 3c 14 7f 0b 3a bb 81 6a bd
       -0.030607214 0.027188677 0.00053213653 -0.057252627
000030 7c 41 24 3d ce 95 5c bc 4f 48 5c bb 2f fd 1f 3d
       0.040101513 -0.013463451 -0.0033612435 0.039059814
000040 4f 52 88 3c ca a6 a8 3d 93 8d 22 3d 72 37 7b 3d
       0.01664081 0.082349375 0.039685797 0.061332174
000050 5f 12 79 bb 8b 20 ed 3c f9 22 f8 3b 7c 3d 39 3c
       -0.0038005335 0.028946182 0.0075725284 0.011306163
000060 4b c9 1e bc e0 07 79 bc ce 9a c0 3c 1b f9 c7 3d
       -0.009691547 -0.015199631 0.023511317 0.0976431
000070 4b bb cb bb dc 39 bf 3d 7e eb 20 3d b8 e6 6f 3b
       -0.0062173954 0.09337208 0.039287083 0.0036606025
000080 93 e8 43 3d 57 70 8c 3c d5 5b b9 3c 92 9e 10 3d
       0.047829222 0.017143412 0.022626797 0.035307474
000090 84 5a 00 bb 82 79 19 3d 7b 8b ce 3d c7 5a b8 3d
       -0.0019585202 0.037469395 0.100851975 0.090016894
0000a0 ac 00 20 bd 68 91 d8 3d 5b 3e 6a 3d 1f e1 90 bc
       -0.03906314 0.10574609 0.057188373 -0.017685471
0000b0 d4 66 31 bd 15 1b 38 3c b7 de 14 3c b4 dc 71 3d
       -0.043310955 0.011236926 0.0090863025 0.05904837
0000c0 9d b5 7b bd 8c 4c 2a 3d f0 7a 9f 3d a3 7d 89 3d
       -0.061452497 0.041576907 0.0778712 0.067134164
0000d0 11 30 02 3d ab 3b e3 3b 08 a0 e7 3b c5 be 12 3c
       0.03178412 0.006934603 0.0070686378 0.008956616
0000e0 f0 41 da 3c 0c 4e 30 ba 02 41 42 3c 38 2a b1 3c
       0.02664277 -0.0006725497 0.011856319 0.021626577
0000f0 df fd 83 3d 1a f1 8f 3d f4 26 dd 3d f8 2f 00 3d
       0.064449064 0.07028408 0.10798445 0.031295747
000100 f7 b5 84 3d 20 be 75 bc 8a 5f 70 bd 7e 67 d9 3b
       0.064800195 -0.014998943 -0.058684863 0.0066346517
000110 a9 36 f1 bc 3f 77 4e 3d 06 a4 ab bc 99 13 8b 3d
       -0.02944501 0.05040669 -0.020952236 0.06790847
000120 a6 1c b8 3c d7 25 1a 3d a4 1b 0b 3d e3 20 b1 3c
       0.022474598 0.037633743 0.033961907 0.021622127
000130 d5 90 43 3d ae 6c af 3c 3a c5 8b 3d e8 9e 2d 3d
       0.047745544 0.021414127 0.06824727 0.042387873
000140 1b 5f c4 3d 77 07 8b bd 3a f7 52 3c 55 7f c2 ba
       0.095884524 -0.06788533 0.012876326 -0.0014838973
000150 2e f4 08 3d e3 6b 6a 3d 75 e7 84 3d f5 03 7a 3d
       0.033435993 0.057231795 0.064894594 0.06103893
000160 c4 0b e3 3c 48 a8 6c 3d bd 13 2b 3d e4 90 69 bc
       0.027715571 0.057777673 0.04176687 -0.014255736
000170 e0 98 da bb c5 3d 31 3d ae 94 b4 bc a6 cd 8b 3d
       -0.006671056 0.0432718 -0.022043552 0.06826334
000180 9a ec 22 3d 8d e1 db bc 16 d3 8d 3d 83 50 5b 3d
       0.039776422 -0.02684095 0.06925027 0.05354358
000190 95 9e 45 bd a3 c5 0e 3d 97 a4 9d 3d e1 93 33 3d
       -0.04824694 0.03485645 0.07697409 0.0438422
0001a0 04 3a 48 3d 35 8d 92 3d 41 69 4d 3d 28 2d 27 3d
       0.048883453 0.07155839 0.050149206 0.04081455
0001b0 80 55 01 3d bf 9d d4 3b 3a ce 92 3c d1 d8 19 3d
       0.03157568 0.0064885314 0.017920602 0.037560288
0001c0 b4 28 5c 3c 42 36 f1 3c 04 ca 8c 3d af f5 45 3c
       0.013437439 0.029444817 0.06874469 0.012082501
0001d0 ff 99 82 bc 55 cd 06 bd f0 a0 a3 3d 2e 4b 7e 3c
       -0.015942572 -0.032910664 0.07989681 0.015520854
0001e0 a2 06 b0 3d ac 89 05 3d e7 41 f3 bb 3c 4c 88 bc
       0.08595015 0.032601997 -0.0074236277 -0.016637914
0001f0 81 2a 02 3d 9c d9 d6 3c e0 8a 90 3d 29 57 bf 3c
       0.031778816 0.026226811 0.07057738 0.02335699
000200 f5 52 b1 3d b0 1c 3a 3d 05 36 b6 3d cf dd 0d 3d
       0.08658401 0.045437515 0.08897022 0.03463536
000210 df 8d b1 3d f7 b4 eb 3c 42 9e 28 3d ff 24 1d 3d
       0.08669638 0.028772814 0.04116655 0.03836536
000220 e6 ad 84 3c da 34 55 3d cd 3d 1a 3d 16 ab a9 3c
       0.016196202 0.052052356 0.037656594 0.020711463
000230 0f f1 1c 3d 13 2f 5b 3d 6c c8 8e 3d 24 0b 06 3d
       0.03831583 0.05351169 0.06971821 0.03272547
000240 12 11 a8 3c 37 35 b3 3c 95 e9 80 3d 8c 3a 7f 3d
       0.020515952 0.02187596 0.06294552 0.062311694
000250 f3 11 a9 3c e7 4d 47 3c 80 c2 5e 3c d6 f8 be 3c
       0.020638442 0.012164569 0.013596177 0.023312014
000260 36 73 ae 3c e9 81 31 3d d6 11 8e bc 85 74 5b 3c
       0.021295171 0.043336783 -0.01734249 0.01339448
000270 2f 0f 06 3d 20 a8 c7 3c 9e f7 f5 bb fb e9 12 3c
       0.032729324 0.02437216 -0.007506325 0.008966918
000280 bb b2 81 bc ef b6 98 bb 36 14 7b 3c 75 06 b9 3c
       -0.015832296 -0.0046604793 0.015324643 0.022586087
000290 96 11 61 3d 9a 88 e1 3c 20 4e 77 3d 16 ba 9b 3c
       0.054948412 0.027530957 0.06037724 0.019009631
0002a0 87 11 98 3d ae b3 ed 3c 17 92 5b 3b b0 42 82 3d
       0.07425218 0.029016342 0.0033503824 0.06360376
0002b0 1d 8b 7d 3c 20 cc 64 3d 10 00 d9 3b 57 aa 5d 3d
       0.015475062 0.05585873 0.006622322 0.054117527
0002c0 1e 62 67 3d 5f 01 c8 bb 4f b7 3b 3c 1f 17 73 3d
       0.056490056 -0.006103679 0.011457278 0.059348222
0002d0 17 25 5d 3d 09 0e 26 bd 01 e5 6c 3b 7f b0 c5 3c
       0.05399045 -0.04054073 0.003614724 0.024132011
0002e0 0b 38 c1 bb 4b 81 10 bc 2f 49 b5 3d b9 7e 70 3c
       -0.0058965734 -0.008819888 0.08851849 0.014678651
0002f0 c4 67 12 bd a3 78 d0 3d 32 e6 1d 3d 73 fc b6 3b
       -0.03574349 0.1017926 0.03854961 0.0055842935
000300 79 88 5c 3d f7 f4 96 3d e3 a9 96 3c 9e da 1a 3d
       0.053841088 0.07370942 0.018391555 0.037806146
000310 b4 f8 b0 3b 14 5f 43 3d 46 0f b4 3c 8c 2b 85 3c
       0.0054007415 0.047698095 0.02197994 0.016256116
000320 a8 41 8f 3c 5f 49 a8 3c cf c0 f8 3b 8a 1c 59 3d
       0.017487362 0.020542799 0.007591344 0.053005733
000330 e9 28 7f 3b 05 84 90 3c ae 61 02 3d 50 83 e5 3c
       0.0038934296 0.017641077 0.031831436 0.028016716
000340 4c a5 35 3d 39 d4 e7 3c 3f e3 12 3b 73 be 26 3d
       0.044347093 0.028299438 0.0022413281 0.04070897
000350 b9 96 f7 3c d0 98 0c bc c4 df ed 3c c1 9a 8a 3d
       0.030223237 -0.008581355 0.029037364 0.06767798
000360 c1 12 15 3d ab 93 1b 3d df 22 13 3d 95 27 47 3d
       0.03639484 0.037982624 0.035921928 0.048621733
000370 52 e7 ff 3c f7 a8 97 3d ed 98 98 3d 78 37 b4 3b
       0.031238232 0.07405274 0.07451043 0.0054997765
000380 ae 4c 8d 3d 6b c7 89 3c 54 75 65 3d 21 56 e6 3c
       0.06899391 0.016818723 0.056020096 0.028117241
000390 b1 a9 f7 3c 9f cc e1 3b 67 2b 1e 3d 9a 4a f9 3c
       0.030232282 0.006890848 0.03861561 0.03043108
0003a0 f6 2d 86 3d 32 b7 94 3c 7d 01 32 3d ca 77 18 3d
       0.06551735 0.01815376 0.04345845 0.037223615
0003b0 ed 24 7c 3d e1 51 b6 3c 67 cc 5c 3d ba 6d 38 3d
       0.061558653 0.02225584 0.05390587 0.04502652
0003c0 be c4 8b 3c 85 76 1c b9 a1 95 88 3c 69 52 5a 3d
       0.017061587 -0.00014921471 0.016672911 0.05330125
0003d0 a6 1d 28 bc 89 8e 26 3d c3 71 1d 3c f4 97 0e 3c
       -0.010260975 0.040663276 0.009609642 0.008703221
0003e0 1d 9d 8a 3d 13 0d 81 3b b3 60 46 bc 08 b7 32 3d
       0.06768248 0.003938326 -0.012108016 0.043631583
0003f0 9a af 41 3d 51 19 06 3d 1f 11 6d 3c f7 45 dc 3c
       0.047286607 0.032738987 0.014469414 0.02688883

fc.0.weight f4 [552, 64]
000000 a6 d7 1e 3e 73 a8 2c 3e 40 59 8e bd 63 7c 60 3c
       0.15511951 0.16861133 -0.06950617 0.013701531
000010 9a 74 64 3d d6 37 84 bd 3b a9 da bd d0 f5 11 3e
       0.055775262 -0.06455962 -0.106768094 0.14253926
000020 43 de 03 bd 1b 10 0b be 7f 1a 2b 3d 12 cb 85 3c
       -0.032194387 -0.13580362 0.041773316 0.016332183
000030 b3 58 cc 3c ba b1 f4 bd c6 23 12 3d 68 6c 27 3e
       0.024944639 -0.11947961 0.035678647 0.16349947
000040 55 75 03 bd 92 4d 55 3d 3a c1 b4 3c 7c 3b c0 3d
       -0.03209432 0.05207593 0.022064794 0.09386346
000050 ae b1 b7 bc 9c d6 c8 bc 43 bb d4 bc f7 12 75 3c
       -0.022423591 -0.024516396 -0.0259682 0.014958135
000060 8c c1 2b 3e 02 ae cf 3d 6a a9 d2 3c 52 0a 4d 3d
       0.16773051 0.10140611 0.025715549 0.05005867
000070 be 4f 8d 3d 5d c6 d2 3c 00 fe a2 bd 7b 5d e4 3c
       0.06899975 0.025729353 -0.07958603 0.027876606
000080 1d ee 07 3c 48 16 a3 bd 1f 93 cf 3d 8a a9 76 3d
       0.008296517 -0.07963234 0.10135483 0.06022028
000090 c7 8f dc 3c d1 07 56 3e 20 8f 90 bd ee 8c b4 bd
       0.026924027 0.20901419 -0.07058549 -0.08815943
0000a0 7e 4e 74 bd c8 5a 2f bd 57 d0 21 3d 99 6f a6 bc
       -0.05964517 -0.042811185 0.03950533 -0.020316886
0000b0 42 a0 bb ba 65 d5 4d 3d 93 f1 46 3c 07 96 85 3d
       -0.0014314728 0.050252337 0.012142557 0.06522756
0000c0 03 22 2b bd f0 f4 80 3b 8c 8e c8 3d d1 5d 64 3d
       -0.041780483 0.003935449 0.09792814 0.055753533
0000d0 9a 02 0d bd a1 94 33 3c a5 6e 64 3d 9f d3 e0 bd
       -0.03442631 0.010960729 0.05576958 -0.109778635
0000e0 fb 15 f7 3b ea 4b af bc c4 9a 63 3d 76 ad a8 3d
       0.007540462 -0.021398503 0.055567518 0.0823621
0000f0 7e ef b2 3d 9c 00 8a bd 98 52 2a 3d 49 75 08 3d
       0.08737086 -0.067383975 0.041582674 0.033314977
000100 b2 47 1c 3d f0 05 2a 3e f0 9a 72 3c e5 53 09 be
       0.03815431 0.16603827 0.014807448 -0.1341091
000110 4f 1b 1c 3e f0 fe c2 bc c2 d0 7b 3d b6 f3 1d 3e
       0.15244792 -0.023803204 0.061478384 0.15425
000120 e0 5b 8f 3d e9 d6 71 bd 69 48 b7 3d c8 72 4c 3c
       0.06999946 -0.059042845 0.08949358 0.012478538
000130 e1 a5 06 3d ec 46 c0 bd f4 58 0a bd b1 95 8d 3c
       0.03287304 -0.09388527 -0.03377624 0.017283292
000140 4f 77 9b bc 88 42 a9 bd 86 63 70 3c 99 40 66 bd
       -0.01897779 -0.08264643 0.014672166 -0.05621395
000150 ea d1 ca 3c 1f dc 1a 3d 96 c7 01 be 60 6b 7e 3d
       0.024758298 0.03780758 -0.12673792 0.06211412
000160 98 ba 57 3b 43 75 c8 3d 58 e3 61 3d 8e 15 48 3e
       0.0032917615 0.09787991 0.055148453 0.19539472
000170 86 1d 88 bd d6 1e b0 3c 4b ca 72 bd 81 16 30 bd
       -0.06646256 0.021499079 -0.059274953 -0.04299021
000180 b3 35 be 3c 93 5a 64 bd 54 ce 2e bd b2 43 b0 3d
       0.023218965 -0.05575044 -0.04267724 0.08606662
000190 2d cc 5a bd 64 b4 f2 3d 30 51 e5 3d 93 dd 6f 3d
       -0.053417373 0.11850813 0.11197126 0.05856092
0001a0 11 e3 c8 3d 5f f1 02 bc e5 52 00 bd 1e a6 d1 bd
       0.098089345 -0.007992118 -0.031329054 -0.102367625
0001b0 b3 6a fa 3d 21 69 cb 3d 00 85 a0 bc 80 d1 ad bd
       0.122273825 0.09932161 -0.01959467 -0.084872246
0001c0 75 da fe 3d 2c be 7b bc ce 1d 4d bd 52 61 a5 bc
       0.12444011 -0.015365165 -0.050077252 -0.020188008
0001d0 51 98 07 bd 5f e0 a6 3c 07 18 50 3d af 25 d5 bc
       -0.033104245 0.02037066 0.050804164 -0.026018946
0001e0 2f 0e 6c 3c 7c c5 8a bd e8 16 3d bc e1 46 10 3e
       0.0144076785 -0.067759484 -0.011541106 0.14089538
0001f0 61 26 c7 3b 15 8a 82 bc a1 11 6a 3d 9b ec e3 3c
       0.006077573 -0.015934983 0.05714572 0.027822783
000200 f8 88 02 be 58 63 9b bd 70 74 65 3d 43 f6 09 3e
       -0.12747562 -0.07587308 0.056019247 0.13472848
000210 35 f6 e1 3d 64 93 59 3d 97 09 de bc c0 59 93 3d
       0.110332884 0.05311908 -0.027104182 0.07194853
000220 4b d8 3c 3d 26 2a 94 3d 3d 48 06 be de 3b ad 3c
       0.04610471 0.07234602 -0.13113494 0.021146711
000230 3b d3 19 3e 72 8c a0 3d 02 3c b0 bc fa 80 fb 3c
       0.15021984 0.07839288 -0.021512989 0.03070115
000240 a4 c0 ed 3b c7 fc 42 bd ba e8 ce bd 28 70 aa 3c
       0.0072556306 -0.04760435 -0.10102983 0.020805433
000250 77 03 18 bd 9e 73 ea bd 79 69 59 3d 19 79 91 3d
       -0.03711268 -0.114478335 0.053079102 0.07103176
000260 5d a1 09 3e 0e ac 57 bd e5 43 b2 3d 6d 6f d6 3d
       0.13440461 -0.05265432 0.08704356 0.104704715
000270 2a a3 04 3c c2 26 44 bd cb e9 d2 3c aa 3e 30 3d
       0.008095542 -0.047888525 0.025746247 0.04302851
000280 d0 20 41 bd 96 4f aa 3d db 4e b1 3d 99 e7 e4 bd
       -0.047150433 0.08315961 0.086576186 -0.11176986
000290 bf 0f 00 be b5 b9 3f bd f3 7f 5f 3b 17 ec 93 bd
       -0.12506007 -0.046807963 0.0034103363 -0.07222765
0002a0 e3 cb a0 bd 24 00 83 bd 87 52 57 3d 63 81 a5 bc
       -0.07851388 -0.06396511 0.05256894 -0.020203298
0002b0 9f e2 4b bd 01 1c ce 3d 84 d7 f8 3c 9c 8c e2 3c
       -0.04977667 0.10063935 0.030376203 0.027654938
0002c0 90 54 bd bc bd 7f d2 bd c5 81 29 3d a1 f9 cb 3c
       -0.023111612 -0.102782704 0.041383523 0.024899306
0002d0 17 64 91 bd 23 d7 cf bd b2 9a d7 bb 15 1f 49 bd
       -0.07099169 -0.10148456 -0.0065797204 -0.049101908
0002e0 b3 36 15 3d 34 13 b9 3d f5 9c d1 3d a2 71 cd bd
       0.03642912 0.09036866 0.10235015 -0.10031439
0002f0 f0 e3 d0 3d 36 19 85 3b ad 54 b1 3d 79 f4 25 3e
       0.10199726 0.0040618433 0.08658729 0.1620654
000300 bf a7 aa 3c 65 ee a6 bb b4 03 7f bc 9d 8d 84 bc
       0.02083194 -0.005094337 -0.015564848 -0.016180808
000310 ef 6d 44 bc d9 5f 13 bd 34 9d e0 3d 04 41 b2 bd
       -0.011989101 -0.03598008 0.10967484 -0.08703807
000320 c4 f1 2b bd 7a f3 4c bc 65 ea f2 3c fc 31 10 bd
       -0.041978613 -0.012509221 0.029652784 -0.03520392
000330 ea 50 36 bd 55 05 a2 bd ce 87 f9 3c 62 4c 75 bd
       -0.04451076 -0.07911173 0.030460265 -0.059887297
000340 ae 72 d5 bb 7c 98 a7 3c d4 68 8e bc 42 be 3d 3d
       -0.006513915 0.020458452 -0.01738397 0.046324022
000350 bf dd 9d 3b 37 f5 e8 3c 5d 65 af bc 07 3c 03 3e
       0.004817694 0.02843724 -0.021410638 0.12815867
000360 1d b2 16 3c 19 f0 c6 3d 53 aa b8 bd 67 8d 18 bd
       0.009197739 0.09713764 -0.09016862 -0.037244227
000370 01 e2 46 bc 12 4c d0 3c 72 73 11 bc 1f 0b 92 3d
       -0.0121388445 0.025426898 -0.008877622 0.071310274
000380 45 39 27 bd 08 fb 5a 3c 3c e2 17 3d 99 06 ba 3d
       -0.0408261 0.013365515 0.03708099 0.0908329
000390 ea 56 2c 3c c7 57 80 bc fe 7c c2 3d 7f ed 90 3d
       0.010518769 -0.015666855 0.094964966 0.07076549
0003a0 05 f3 e1 bc 2e 5f 96 bd 6c 70 9c 3d b6 b9 99 bd
       -0.027581701 -0.07342373 0.0763863 -0.07506125
0003b0 2f 78 32 bc 04 f1 53 bc 79 01 12 3d 1c f5 81 3d
       -0.010892912 -0.012935881 0.035645936 0.06345579
0003c0 11 d6 4e 3d d8 91 24 3d 3c 6d 25 3c 5b 74 6f 3d
       0.05049712 0.04017815 0.010096844 0.058460575
0003d0 40 51 86 3d d0 34 d2 bc c4 35 a1 bb 3b 86 2b 3d
       0.06558466 -0.025659949 -0.0049197394 0.04187606
0003e0 29 a1 da bc 73 af ba bc e1 b4 1b 3d 30 68 b5 3d
       -0.026688175 -0.022788739 0.038014296 0.08857763
0003f0 ce b5 d9 bc ce 09 c8 3d fb ae bd bb 2d 97 75 3c
       -0.026575949 0.09767495 -0.0057886816 0.014989656

fc.3.bias f4 [276]
000000 5d 63 8a ba 3c 9d 2e bc a7 dd a3 bc f8 6d e5 bb
       -0.0010558177 -0.010657605 -0.020003153 -0.0070016347
000010 ce 23 29 3c d6 7d 8b bc 0b 6e ef ba d0 4d 68 bb
       0.010323478 -0.017027777 -0.0018267048 -0.003544677
000020 78 47 b3 ba 92 bf 83 bc 64 ef ce bc 39 80 18 bc
       -0.0013677916 -0.016082559 -0.025260635 -0.009307914
000030 8a cc a2 3b 32 4d 09 bc 62 bf 35 3a ab b8 e2 bb
       0.0049682306 -0.008380221 0.00069331203 -0.006918987
000040 5a 14 d5 bb d1 9e e2 bb c2 82 13 bc d9 3c 37 bc
       -0.0065026702 -0.006915905 -0.009003343 -0.011183941
000050 d0 e5 17 3b a3 d2 17 3b 4b 5b f0 3b eb e3 fd 3b
       0.002317775 0.002316632 0.0073351017 0.007748117
000060 89 af 11 3c b8 67 6f 3c 09 94 2e bc e8 f4 02 3c
       0.0088919485 0.014612131 -0.0106554115 0.0079929605
000070 f3 7f 3b bc 7e 84 04 3c 4a a8 d0 3c 00 02 86 3b
       -0.01144408 0.008088229 0.025470871 0.004089594
000080 37 ab ac 3c 88 2d 10 3a 26 0a 17 3c e5 93 d4 3b
       0.021077735 0.0005499949 0.009218728 0.006487357
000090 8e ed 34 bc 89 b4 91 3c 24 bd 24 bb 3c aa fa 39
       -0.011042966 0.017786281 -0.002513715 0.0004781055
0000a0 b1 03 c6 bc 4b d3 c8 bc bd e4 b6 bb 8c 36 f6 bc
       -0.024171682 -0.024514815 -0.005581467 -0.030055307
0000b0 c5 3a 20 3c b0 72 89 3b 97 67 26 bc 51 d7 f1 3a
       0.009779637 0.00419458 -0.010156534 0.001845101
0000c0 01 f5 19 3c 3f 36 08 3c df 86 35 3c 88 2c 7a bb
       0.009396792 0.0083137145 0.011079519 -0.0038173515
0000d0 26 67 22 3d 56 8d ae bb 28 71 50 b9 4e e7 d6 3c
       0.03964915 -0.005326907 -0.0001987858 0.026233342
0000e0 f0 96 1a bb 82 f5 22 3c f9 2c 9c b9 cd 18 5d 3c
       -0.00235885 0.009946229 -0.00029788146 0.0134946825
0000f0 f2 29 bd 3b 5e cb a3 bb 6d 36 12 bc 00 1b 01 3c
       0.0057728225 -0.0049986085 -0.008924109 0.007879972
000100 60 dc 0b bb 15 b2 95 3c 83 f7 c0 3c e3 8d 76 bb
       -0.002134107 0.018273393 0.023555523 -0.0037621192
000110 2e ae 30 bc ec 42 0d bc 6a c7 80 3b 48 bb 5b 3b
       -0.010783715 -0.008621912 0.003930022 0.0033528376
000120 57 1b 16 3c 92 8d e2 3b b6 bb 6e 3a 1a 95 47 3c
       0.009161792 0.006913849 0.00091069506 0.012181545
000130 d5 13 1d 3c a2 1d 1c bc 3a d4 15 3c 80 67 ff 38
       0.009587248 -0.009528549 0.009144837 0.00012178626
000140 41 23 8e bc 26 a4 30 bc a4 f0 8b bc 18 7c 42 bc
       -0.017350795 -0.010781324 -0.01708252 -0.011870407
000150 cc 76 8a 3c 91 e0 e9 3c 82 63 93 3c 53 c8 97 3c
       0.01690235 0.028549464 0.017991785 0.01852814
000160 72 af 8d bc 75 fa 5a bc 43 07 4b bc 3e 0e 28 3c
       -0.017295573 -0.013365378 -0.012391868 0.010257302
000170 d2 64 82 bc 0c 3c fe bb 15 d0 d8 3a cf 26 5e bc
       -0.015917215 -0.007758623 0.0016541505 -0.013559057
000180 81 b6 ca bb d7 1a 16 bb 4e f0 6f bc f0 94 30 bc
       -0.006186307 -0.0022904181 -0.014644695 -0.010777697
000190 8f 7b 13 3d ff 68 98 bb f0 07 67 bc eb 73 21 bc
       0.036006507 -0.0046511884 -0.014101014 -0.009854297
0001a0 99 48 23 bc e1 50 f7 bc 84 ad 35 3c f0 cd 97 3b
       -0.009966039 -0.030189933 0.011088733 0.004632704
0001b0 8d 5b bb 3c b6 a4 9d 3c e1 7b 4a 3b 4d da 35 bc
       0.022870803 0.01924358 0.0030896591 -0.01109941
0001c0 93 d1 01 3a b7 c9 50 3b 4c ca 12 bc ad 03 97 bc
       0.00049521885 0.0031858513 -0.008959364 -0.01843437
0001d0 75 e4 8f 3a 31 74 17 3c 14 c1 54 bb 74 ae 9e bb
       0.001097812 0.009244011 -0.0032463716 -0.004842574
0001e0 1d e9 58 bb 51 99 2d bc 4d bb 80 bc 1c 5b 01 3b
       -0.003309793 -0.0105956355 -0.015714312 0.0019738143
0001f0 4b 82 a7 3c df 83 14 bc 21 b9 22 3c c8 09 b4 3b
       0.02044787 -0.009064644 0.0099318335 0.00549433
000200 c7 6c a4 bc d1 5c 0b bc 4d 43 3d bc 84 d5 69 bc
       -0.0200714 -0.008506016 -0.01155169 -0.0142720975
000210 6b 26 82 bb 33 5e 0e 3c a9 91 89 bb a2 72 c9 3b
       -0.003971865 0.008689451 -0.0041982722 0.0061476985
000220 3d b3 ba bb 7b 47 57 bc ee 3d 8d 3c 2d 6f 7e 3c
       -0.0056976364 -0.013139601 0.017241444 0.015529436
000230 a0 08 d4 3c bb 8c fa bb 39 a7 2e bc 4c bf 26 3a
       0.025883019 -0.007646171 -0.010659986 0.0006360903
000240 e0 e4 8a b9 9d 7d ad bc 4e d1 10 bc 18 23 7e 3c
       -0.00026491936 -0.021178061 -0.008838965 0.015511297
000250 15 89 89 bc 05 94 bb 3c 2f 5c 12 bb ae 68 ac bc
       -0.016788999 0.02289773 -0.0022332778 -0.021046009
000260 56 8b aa 3c 08 e5 5a bc 06 16 44 3b fb 39 2a bc
       0.020818394 -0.013360269 0.0029920354 -0.0103898
000270 46 b6 01 3c b8 7a c2 ba f0 0b de bb 4c de ab 3a
       0.0079169925 -0.0014837598 -0.0067763254 0.0013112514
000280 90 5b 96 3a dc 72 24 3c de 8a 89 3b 63 c9 16 3c
       0.001147138 0.01003715 0.0041974625 0.009203288
000290 bf e2 f8 3c f7 c0 4b bd 3d 97 0a 3c 68 0f 65 3c
       0.030381558 -0.049744572 0.00845891 0.013980724
0002a0 42 1d f6 3b 0a 49 1a bc 2e b1 52 3b 31 dd c1 3b
       0.007510812 -0.009416828 0.0032149064 0.0059162606
0002b0 c9 39 f4 bb cd e5 f6 3b 28 0a 34 bb 56 cd dd ba
       -0.0074531776 0.0075347186 -0.0027471874 -0.0016922157
0002c0 ec b4 5c bc 21 7f 20 bb 4d 4d 3c 3b d1 5f 42 3c
       -0.0134708695 -0.0024489837 0.0028732598 0.011863665
0002d0 fd 7a ce bb 9e 33 47 b9 8b 67 87 bc 86 2d 2c 3c
       -0.0063012824 -0.00018997348 -0.016528865 0.0105089005
0002e0 4c e3 91 bc d4 32 9e bb de 58 e4 bc 08 6e 53 bb
       -0.017808579 -0.0048278365 -0.027874406 -0.0032261629
0002f0 2c 81 12 3d 12 70 81 bc ac 03 02 3c f3 13 44 bc
       0.03576772 -0.01580051 0.007935446 -0.011967647
000300 12 d0 58 ba f7 e6 36 3b 4b a8 1a bc 92 9b 99 3c
       -0.0008270751 0.0027908662 -0.009439538 0.01875094
000310 fa 9a 19 3c 03 e6 84 3b ac 64 54 ba f0 9c 4b 3a
       0.009375328 0.00405574 -0.00081021595 0.0007767221
000320 72 9a bd 3a ee dd 7c bb bb 61 d5 bb af 7b 02 3c
       0.0014465584 -0.003858443 -0.0065118945 0.007964059
000330 07 35 09 3c 67 50 59 3c 92 01 2c 3b 32 ab 2f bb
       0.008374459 0.013263798 0.0026246053 -0.0026804921
000340 02 f2 10 bb b1 84 c2 bc c8 ce 2d bc f0 91 66 bc
       -0.0022116904 -0.023744913 -0.0106083825 -0.01407288
000350 5f a7 34 bb d5 8c 99 3c 74 94 2c 3c 4e 19 18 ba
       -0.0027565581 0.018743912 0.010533441 -0.00058021105
000360 81 1b 01 3d ed f9 89 ba 19 8c e2 3a 24 bd 9e bc
       0.03152037 -0.0010526754 0.0017284184 -0.019377299
000370 16 a7 a8 bc d7 23 c4 bb 40 27 64 bc ea b8 a9 3b
       -0.020587485 -0.0059857178 -0.013925374 0.005179514
000380 6e 63 42 bc b6 4a e5 bb a5 9b 8f 3c 73 45 eb bb
       -0.011864526 -0.0069974316 0.017530272 -0.00717991
000390 7e c8 bd 3b 1c 61 aa bb f0 24 12 3d f4 2e a5 bc
       0.005791723 -0.0051995646 0.035679758 -0.02016399
0003a0 40 f1 02 ba 4b 78 8e 3c 00 db 36 bb 6f 45 1a 3d
       -0.00049950555 0.017391345 -0.002790153 0.037663873
0003b0 a4 91 21 3c aa 55 51 bc a5 8f 03 bc 86 7c 50 3b
       0.009861384 -0.012776772 -0.008029853 0.0031812503
0003c0 f5 52 d9 ba ea 21 58 3c 31 d9 34 3d dc 5d e7 bb
       -0.0016580509 0.0131916795 0.044152442 -0.0070607495
0003d0 32 00 ad bc d6 59 13 3c 0b 5d 84 bc 47 a5 b4 bb
       -0.021118257 0.0089935865 -0.016157648 -0.0055128667
0003e0 65 ce 12 3c 64 00 fb bb 68 0d ed bb 0f cf b6 3c
       0.008960341 -0.0076599587 -0.007234264 0.02231553
0003f0 25 4a 87 bc 4b 50 4c bc 93 04 a3 bc 47 03 a7 bc
       -0.016514847 -0.012470315 -0.019899642 -0.020387305

fc.3.weight f4 [276, 552]
000000 a8 6d 9e bc 85 68 68 bd fa ba f0 bc 1a 95 31 3c
       -0.019339398 -0.056740303 -0.029386032 0.010838771
000010 db 75 2c 3d 37 fc 2a bd bc 7c d5 bc 8e ad 9d 3c
       0.042104583 -0.041744437 -0.026060455 0.019247796
000020 2d 32 69 3c 60 4a e1 3c ce a9 e4 3b 68 15 33 3c
       0.014233154 0.027501285 0.00697825 0.010930397
000030 15 bd 1f 3d ac 20 7c bc f4 b1 0d bd 8d 97 85 bc
       0.038998682 -0.015388649 -0.034593537 -0.016307617
000040 60 a3 2b 3c 22 bf a8 bb 75 af 06 bd 35 4c 46 bc
       0.010475963 -0.005149738 -0.032882173 -0.01210313
000050 11 36 87 bc 79 47 06 bd 80 fb 16 bd 8d f8 84 bc
       -0.016505273 -0.032783005 -0.036860943 -0.0162318
000060 d5 ac a1 3c 52 f0 30 3d 38 11 04 3c 0b 64 e3 bc
       0.019735733 0.043197937 0.008060746 -0.027757665
000070 90 2b b0 3c 6c 37 19 bd 6d a8 ba 3c 44 61 91 3d
       0.021505147 -0.03740637 0.02278539 0.0709863
000080 1f 46 b2 bc e1 ef 18 3d b1 07 81 bc 0f fb 92 3c
       -0.021761952 0.03733814 -0.015750738 0.01794198
000090 35 fb 94 3c e8 83 e4 3c f7 24 f8 3c f9 61 05 3d
       0.018186191 0.027894929 0.030291064 0.032564137
0000a0 ac b9 b7 3c ac 40 ce 3b 61 25 6b 3b 2e 89 3c 3d
       0.022427402 0.0062943306 0.0035880434 0.046029262
0000b0 7d 62 19 bd 63 3b aa bc f7 6c a7 bc 39 73 7a ba
       -0.03744744 -0.02078027 -0.0204377 -0.00095539127
0000c0 2c e4 f3 bc b8 87 34 3c af 28 0c bd eb a2 10 3d
       -0.029771887 0.011018686 -0.034218486 0.03531162
0000d0 36 23 50 bb 21 ae bf bc bd 64 0d 3d d5 f1 fd bc
       -0.0031759269 -0.02339846 0.0345199 -0.030999104
0000e0 86 bb 74 bc 2d d2 9b bc bf 7e 8d ba cf 53 c9 bc
       -0.014937287 -0.019021118 -0.001079522 -0.024576096
0000f0 a1 fe f0 3c 8e 28 1b 38 75 ec b5 3c f2 95 25 bd
       0.029418292 3.699265e-05 0.022207478 -0.040426202
000100 fe d7 a2 3c 9c 65 94 3c 53 8b 04 3d 7a 60 7d 3b
       0.019878384 0.018114857 0.032359432 0.003866224
000110 bf 47 97 3d e2 c5 e7 bc 7c eb b9 3c b8 a5 bc bc
       0.07386731 -0.0282926 0.022695296 -0.02302824
000120 89 08 c0 3c c8 bb d0 bc 69 07 83 bc b0 3b b7 bc
       0.02344157 -0.025480166 -0.015994744 -0.022367328
000130 ab 67 3a 3c a1 0e 2f bd e5 a1 44 bd 6c 43 61 3d
       0.011377255 -0.04273856 -0.048005957 0.05499594
000140 11 62 4e 3c c5 0c b0 bb fc 3a 52 3d 63 af 0e 3d
       0.012596623 -0.005372616 0.051325783 0.03483523
000150 52 c4 e5 bc 20 e1 b0 39 65 b8 92 3c 14 4d 2b 3d
       -0.028047714 0.00033737067 0.017910192 0.041821554
000160 35 42 03 bd 21 19 ae bc 2c 6a 1f bd ec cf 6b 3c
       -0.03204556 -0.021252217 -0.038919613 0.014392834
000170 11 d4 6f 3c 10 e0 c0 3d 7c c9 03 bd 92 49 1c 3c
       0.014637963 0.094177365 -0.032174572 0.009539025
000180 c3 0a 53 bd 06 12 d0 bc 48 10 60 3d fa 0d 02 bd
       -0.051523935 -0.02539922 0.054703027 -0.03175161
000190 be 5b 0c 3d 26 69 25 3d 45 79 93 bc be ea e8 3c
       0.03426718 0.04038348 -0.018002162 0.028432246
0001a0 bf 4e 25 3d 76 57 0e 3d 6f d2 1d 3a 34 4b 8d 3d
       0.0403583 0.034751378 0.0006020432 0.068991095
0001b0 44 50 49 bc a6 71 cb 3c cd 7f 13 3a e7 9f 4b 3d
       -0.012287203 0.024834465 0.0005626649 0.04971304
0001c0 36 65 8f bb 2a 5b ff bc 33 96 76 3d fd 78 8c 3d
       -0.004376079 -0.0311714 0.060201835 0.06859014
0001d0 d2 05 61 3b de 60 e2 3b 7c ab 0b 3c 3b e6 44 3d
       0.0034335745 0.00690852 0.008524772 0.048071127
0001e0 be ad 3a 3d a1 43 5f 39 63 5d 38 3d 7b 3b b1 bc
       0.04557585 0.00021292131 0.045010936 -0.021634808
0001f0 c8 a6 7f 3d b4 9f 3e 3d 18 2d 05 3c 93 2d e5 bc
       0.062414914 0.046539024 0.008128427 -0.027975833
000200 d8 d1 8d bc a8 32 6a 3d 3a 02 81 3c c8 da 0d 3c
       -0.017311975 0.057177216 0.015748132 0.008658119
000210 d3 22 17 bd 0e 4a 8f bc 8c 3d 22 3d e0 1b 54 3d
       -0.036898445 -0.017491367 0.039609477 0.051784396
000220 b5 20 19 bd 27 93 3c bc 04 a9 17 37 52 1c 69 bd
       -0.037384707 -0.011509693 9.039653e-06 -0.056911774
000230 8a 3c 2c 3c aa 76 9f 3c 50 09 ca 3c 7b 90 8e 3c
       0.0105124805 0.019465763 0.024662644 0.017402878
000240 51 d3 d4 bc e7 5b 08 bd cd 13 56 bc 37 d8 53 bd
       -0.02597967 -0.03329077 -0.013066244 -0.05171987
000250 9c 90 97 38 8b 28 8a bb 75 4b b4 bc fa 4a 19 bd
       7.227177e-05 -0.004216259 -0.022008637 -0.03742502
000260 a0 02 06 bd ea 92 f2 bb 76 2b f1 bc 7f 59 8d bd
       -0.032717347 -0.0074027674 -0.02943967 -0.06901836
000270 ee a7 cf 3c 29 78 6f 3c 93 f1 bf 3b 95 51 38 bc
       0.02534863 0.014616051 0.0058576553 -0.011249919
000280 9c db d6 bc 0d 82 6a 3b b8 91 38 bd 84 64 dc bc
       -0.026227765 0.0035783083 -0.045060843 -0.026903398
000290 cc 98 df 3c 67 8d 18 bd 4f bc 3b 3d fd 14 ef bc
       0.027294539 -0.037244227 0.045833882 -0.029184813
0002a0 a9 c4 3e 3d 0c 75 52 3c 44 d1 81 bc 19 71 0d 3c
       0.04657427 0.012845289 -0.015846856 0.008632922
0002b0 99 5c 23 3d 89 2e db bc 6d 07 77 bd 28 c7 50 ba
       0.03988323 -0.026755588 -0.060309816 -0.0007964247
0002c0 96 9b 97 3c 1e 99 45 bc 68 64 2b 3c 96 47 01 bd
       0.018506806 -0.012060432 0.01046095 -0.03156241
0002d0 3d 47 f2 bc 3f 4f fb bc f1 ed 09 bd c3 c0 36 3c
       -0.029574985 -0.030677436 -0.033674184 0.011154356
0002e0 0d 2d 81 bb ac 54 a1 3c 01 e3 84 bb 51 02 76 3c
       -0.003942138 0.019693695 -0.0040553813 0.015015201
0002f0 c3 9c ec 3c a3 7a b2 bc 81 c4 6e 3c 52 98 c5 3a
       0.028883344 -0.021786993 0.014573217 0.0015075302
000300 a9 4a c7 3c fb e5 ea bc c8 7e 18 3c 46 c6 d7 3c
       0.024327593 -0.028674116 0.009307571 0.026339661
000310 c2 16 1e bd 96 03 ba bc 63 6d 41 3d 11 23 6a bc
       -0.038595922 -0.022706788 0.04722346 -0.014290587
000320 3e 3e 89 39 c9 eb 3e bc dc 3b 04 3d b8 0a ef bc
       0.0002617705 -0.011652895 0.03228365 -0.029179916
000330 b4 de 6c 3c a9 26 36 bd 43 fa ae bc e4 5d 89 bc
       0.014457393 -0.044470463 -0.021359568 -0.016768403
000340 ca fa 0c bd e5 be 14 bc d1 8a a7 bc 2f 95 a6 bc
       -0.03441886 -0.009078716 -0.020451935 -0.020334808
000350 26 26 23 bd 2e 70 18 bd 80 07 1f bd da 1b 9c bb
       -0.039831303 -0.037216358 -0.038825512 -0.0047640624
000360 be d1 d4 ba 17 e8 f1 3c e1 16 88 3b 0c 98 83 3c
       -0.0016236824 0.029529614 0.004153118 0.016063713
000370 7b a0 33 bd df cd e5 bc 44 07 bf 3c 8e 82 c4 bc
       -0.043854218 -0.028052269 0.023318894 -0.023988035
000380 cb 66 b6 3c 91 7a 87 3c e3 b2 3f 3d 21 ac 0c bc
       0.022265812 0.016537936 0.04680146 -0.008585961
000390 38 e2 8c bb 10 75 31 bc 82 8e 9f 3b e2 ea 92 bc
       -0.0042994283 -0.0108311325 0.004869283 -0.017934266
0003a0 fd f0 0a bd d6 45 9b bc 8c eb 2a bc dc f2 03 bd
       -0.03392123 -0.018954199 -0.010432135 -0.03221403
0003b0 3b d5 c2 bc 2b 11 46 bc c5 a8 6e 3c 14 f7 fa 3c
       -0.023783317 -0.012089054 0.014566605 0.030635394
0003c0 ec 54 c8 bc 1d 67 aa 3c f0 47 3c 3d 68 8d 69 bc
       -0.024454556 0.020801121 0.045967042 -0.014254905
0003d0 5a ad ce bc 62 a2 57 3d 8b c6 27 3d d3 0d 91 bc
       -0.025229145 0.052645095 0.04096083 -0.017706787
0003e0 e6 ac d8 bc e5 ba ff 3c 22 dd af bc 5c da 98 3a
       -0.026449632 0.031217048 -0.021467749 0.0011661756
0003f0 e2 8d e9 bc f1 52 d9 3c e4 48 a0 bc 14 87 dd 3b
       -0.028510038 0.026528807 -0.019566007 0.0067604873
