inventory/ark_material.onnx (onnx, 616867 bytes, 8 tensors)

35 f4 [8, 3, 5, 5]
000000 84 62 9b 3d 31 12 28 3e ce 57 f4 3d 2e 93 2a 3d
       0.0758715 0.1641319 0.1193081 0.041644268
000010 87 80 ba be ae 4e c1 bd df 54 5a 3e f6 3d 09 3d
       -0.36426184 -0.09438835 0.21321438 0.033506356
000020 b0 65 13 be 39 75 3c be cb 39 07 be c0 f8 32 3e
       -0.1439426 -0.18404092 -0.1320564 0.17477703
000030 91 61 78 bd 75 19 e1 bd b3 24 da be 0d 75 93 be
       -0.06063992 -0.10991184 -0.42606124 -0.2880024
000040 14 52 06 bc 38 61 ad 3c c0 45 e4 be 4d be 7d be
       -0.00819828 0.021164522 -0.44584465 -0.24779625
000050 f2 fa 96 be e1 e4 6d be af d3 0d 3e ad 39 b3 3d
       -0.2948833 -0.23231842 0.13850282 0.08751235
000060 1f 18 81 be f8 05 38 3e 25 9e e9 3d 5a 76 52 be
       -0.25213715 0.17971027 0.11407117 -0.2055296
000070 57 42 29 3e 5d 99 4c be a9 62 30 bd 3c 58 c0 3e
       0.16529213 -0.19980378 -0.04306284 0.37567317
000080 72 d3 e6 bd 03 a0 06 3c 73 f9 48 be e2 98 ee bd
       -0.11270799 0.008216861 -0.19626407 -0.11650254
000090 a6 d6 af 3d 63 47 54 be 30 91 01 3e 92 5d a6 be
       0.08585863 -0.20730357 0.12653041 -0.32493263
0000a0 0b 74 e3 3d f3 ec ee bc b1 d7 c1 be ab 4e 36 3e
       0.11106118 -0.02916572 -0.37859872 0.17803447
0000b0 31 1a ee 3c 20 e9 55 be 0b a3 b9 bd 64 ce 48 be
       0.029065223 -0.20889711 -0.09064301 -0.19609982
0000c0 95 9e 2d 3e e7 c6 01 bd 4c f7 c5 3d 04 e5 e8 bd
       0.16955025 -0.03168383 0.09666309 -0.11371806
0000d0 ff a8 08 3e 51 b1 4e be 97 0a 8e be 19 34 f6 bd
       0.13345717 -0.20184828 -0.27742454 -0.120216556
0000e0 88 dc 6d 3e 49 8e 24 be 22 a4 29 bd 3d dd 03 be
       0.23228657 -0.16069902 -0.041416295 -0.12877364
0000f0 52 8b 81 bd 88 f0 0a 3e c7 bb 0f be e9 f7 03 be
       -0.06325401 0.13568318 -0.14036475 -0.12887539
000100 35 0d 93 be 20 ae 4d be b9 94 10 3e a4 60 66 be
       -0.28721014 -0.20085955 0.14119233 -0.22497803
000110 9b 05 08 3e 7f d0 11 3e 53 85 72 be e7 d7 6f bc
       0.13283388 0.14239691 -0.23683672 -0.0146388775
000120 ba 96 da bd ff c9 32 3d d7 89 43 bd c3 20 b1 3e
       -0.1067328 0.04364967 -0.047738876 0.34595308
000130 c9 ac eb be b4 7f be 3e 49 0d 90 be ca c2 b5 3c
       -0.46030262 0.37206805 -0.28135136 0.02218761
000140 32 fd 15 bf 1f dd 32 be 4e b1 aa bc 6e e4 df 3c
       -0.5858947 -0.17467164 -0.020836499 0.027330603
000150 c7 85 38 be 9e 57 cc 3e 2c 21 95 3e 9e f1 84 3d
       -0.18019782 0.39910597 0.2912687 0.06491397
000160 ce 5f 2c be e4 4b 59 be 8e 68 24 bc 3a e4 00 bf
       -0.16833422 -0.21220356 -0.010034693 -0.50348246
000170 29 6b de be c0 10 8d bd db db 4f be 14 4d 92 be
       -0.43441132 -0.068879604 -0.20298712 -0.2857443
000180 f4 7b 5e 3e 04 8e 01 bf ee e6 33 bf 16 cd c6 3e
       0.21726972 -0.50607324 -0.70274246 0.38828343
000190 5e bf 14 3d 92 06 c1 3d a9 38 5c 3f 78 ba 54 3e
       0.036315314 0.09425081 0.86023957 0.20774257
0001a0 e9 e3 3b 3f 7b 1b c2 3e c6 f5 35 3e 24 3d 5a be
       0.7339464 0.3791159 0.17769536 -0.21312386
0001b0 c9 39 fc 3e 11 61 c2 3e af 66 64 3e d2 b0 55 3d
       0.49262837 0.3796468 0.22304796 0.052170582
0001c0 0a 6d e2 be e6 3e ba 3e 21 49 f8 be cc 9c 9b be
       -0.44223815 0.36376113 -0.48493293 -0.30393064
0001d0 23 db d9 3e d6 0b 67 be 0a 9e 80 be 4f ff 4c 3e
       0.4255 -0.22563109 -0.25120574 0.20019267
0001e0 36 16 a3 be b7 36 f2 be ad 1e 82 be b3 af d1 3e
       -0.31852883 -0.4730737 -0.2541403 0.4095436
0001f0 5c c5 ef be 96 5f c7 3e c8 c0 0e 3e 8a 3c 19 3f
       -0.4683026 0.38940114 0.13940728 0.59858
000200 fe d2 2d 3e d4 92 75 3e b7 ca d3 be 02 b0 ca 3e
       0.16975018 0.23981792 -0.41365597 0.39587408
000210 51 62 9a 3e a7 bf d5 bd ce ef 36 bb f3 e3 a3 3d
       0.30153134 -0.104369454 -0.002791393 0.08002462
000220 a2 1d 06 3e 70 4f ce 3d 6d bc e8 3e e1 84 ef be
       0.13097242 0.10073745 0.45456257 -0.46781066
000230 df 1a b8 be e4 72 42 3e a5 87 28 bf 6b 1e 2f bf
       -0.35958 0.1898914 -0.6583198 -0.6840579
000240 a2 42 b2 3d 76 c1 62 bd 64 90 48 bd 1d bb 81 3e
       0.087041155 -0.05536028 -0.048965827 0.2533807
000250 19 1d e2 3e 55 cf bf be 0d ae ab bd a7 2d 17 3e
       0.44162825 -0.3746287 -0.08382807 0.14763509
000260 44 fa bb 3e 10 e7 94 be a1 93 b2 be ba d2 87 be
       0.36714375 -0.29082537 -0.34878257 -0.2652796
000270 43 f2 83 3d 61 9e a0 3e 31 b7 d1 3d 6d ed 1b 3e
       0.06442692 0.31370834 0.10240019 0.1522729
000280 98 d5 b4 be 84 3e a8 be ba fc 9b be fb 23 c0 3e
       -0.3531921 -0.32860196 -0.30466253 0.3752745
000290 36 e2 9d 3e 60 84 28 3e e9 2d 76 be be 33 0c bd
       0.30836648 0.16456747 -0.24040951 -0.034229033
0002a0 b4 53 6a 3e 59 4a df bd c4 07 a1 3d 40 6d fe be
       0.22883493 -0.109028526 0.07862809 -0.49692726
0002b0 39 15 c6 be 8e b7 98 be f2 5e 46 3e d1 99 2e 3e
       -0.38688067 -0.2982754 0.19372156 0.17050864
0002c0 48 11 1a 3f 3c 5b 38 3e a9 a7 80 3e 01 45 2b be
       0.6018262 0.18003553 0.25127915 -0.16725542
0002d0 90 22 6f be a5 6c fd 3d 2e de a1 3d 1a 5b 00 3e
       -0.23353028 0.12374238 0.079037055 0.12534752
0002e0 51 5d 4f 3e 9d a5 68 be b4 8f 21 3e 9e 2b 19 3e
       0.20250441 -0.22719426 0.15777475 0.14958045
0002f0 b2 2d c2 3e e0 b5 70 3e a9 54 21 be 39 3d 38 be
       0.37925488 0.2350688 -0.15754952 -0.17992105
000300 1d 2e da bc fd e6 fd 3d d6 26 72 3d 27 dc 59 3e
       -0.026633317 0.12397573 0.059119068 0.21275388
000310 87 06 8a 3e a8 83 5a 3e 29 9b 19 3c 0d a7 1e 3e
       0.26958105 0.21339285 0.009375372 0.15493412
000320 e5 0b e8 bd b7 f9 f3 3e a8 44 25 3e 94 41 ee 3e
       -0.11330394 0.47651455 0.16139472 0.46534407
000330 b5 d5 10 be a8 38 92 3c 11 56 1b be 95 d5 7c 3e
       -0.14144023 0.017849281 -0.1516955 0.2469085
000340 dd f1 11 3f de 87 8c bd ea f1 d5 be f3 77 15 3e
       0.5700968 -0.06861852 -0.41786128 0.14596538
000350 ea e9 40 3e 3d 8f 04 be 92 4c f6 3d 44 df a6 be
       0.18839231 -0.12945266 0.120263234 -0.32592213
000360 fc d0 4a bd 93 53 7f bd e0 41 4c bd a4 87 30 3e
       -0.04951571 -0.062335562 -0.04986751 0.17239243
000370 a7 2b de be 24 39 dc bd e3 62 9f be 30 4b 8b bd
       -0.4339268 -0.10753086 -0.31130132 -0.0680145
000380 7e e8 36 3e 08 ec 4d 3e 0d 0c 15 bf fa 20 e8 3e
       0.17862126 0.2010957 -0.58221513 0.4533766
000390 e3 38 ca be b9 b0 4d 3f 96 0a a2 3e 40 44 e5 3e
       -0.39496526 0.8034778 0.316487 0.44778633
0003a0 7e 70 ba be 11 13 28 be fd bd 3e be 94 1a 32 be
       -0.3641395 -0.16413523 -0.18627162 -0.17392951
0003b0 98 7d 9d be 2d e7 a5 be a0 2d 21 be 25 fa 1e bf
       -0.30759883 -0.32402936 -0.15740061 -0.6210044
0003c0 8d c8 0b 3d c6 d2 24 be a6 0c 25 3f 0d 4c a1 3e
       0.034126807 -0.16096029 0.64472425 0.31503335
0003d0 2b 93 b1 bd 54 3b 84 be d7 f4 3f 3e 10 9f 00 3f
       -0.08670648 -0.25826514 0.18745743 0.5024271
0003e0 8f fd 50 3f 37 b1 08 3f 81 10 0c be 8f bd 3c 3d
       0.816369 0.5339541 -0.1367817 0.046079215
0003f0 79 e7 de bd 89 51 cd be 1e fa 2c be be 1b d0 3e
       -0.10883994 -0.4010127 -0.16892287 0.40646166

36 f4 [8]
000000 ff 41 02 40 97 e9 ad 3d 09 29 6f bf a6 0f 81 bd
       2.035278 0.08491819 -0.9342199 -0.06301813
000010 d0 c1 99 bf 08 e7 ba 3f 92 7c 50 be ad fc 6c bf
       -1.2012272 1.4601755 -0.2036002 -0.9257305

38 f4 [16, 8, 3, 3]
000000 07 7c 52 be b9 db b7 bc e5 4c 12 3e da 19 92 bf
       -0.20555125 -0.02244364 0.14287145 -1.1414139
000010 b7 cd 0a be 29 f2 fc 3e eb c2 d0 3e 6e 72 8c 3f
       -0.13555036 0.49403504 0.4077371 1.0972421
000020 37 06 82 be 30 fc df be 3e 2c a7 3f 49 d2 75 bf
       -0.25395367 -0.4374709 1.3060377 -0.96023995
000030 8c bf 0a bf 98 e9 b3 bd 76 d8 b1 bf f4 88 d8 be
       -0.5419853 -0.08784789 -1.3894184 -0.42291987
000040 59 ac ac 3c 23 b3 06 bf 69 89 72 be d4 a9 d2 3e
       0.021078276 -0.5261709 -0.2368523 0.41145194
000050 c6 25 28 bf 99 db 7c be 6e 80 8b 3e 51 29 0b bf
       -0.6568264 -0.24693145 0.27246422 -0.5435992
000060 85 f1 b0 3e 34 cf 43 3f f8 6e 97 3f 2f df ab 3f
       0.34559265 0.7648804 1.183074 1.3427485
000070 67 49 b8 3e 84 39 fa be 28 8d f1 be c1 81 ad bd
       0.35993502 -0.48872006 -0.47178006 -0.08472014
000080 1e 6c 88 bf 9f 85 6d 3f 47 aa 23 3e 8d 3b 35 bf
       -1.0657995 0.92782015 0.15982924 -0.7079399
000090 8c dd f1 be 90 be 8c bf df 2a 37 3e 9e b3 07 bf
       -0.4723934 -1.0995655 0.17887448 -0.5300845
0000a0 f2 c8 92 3e f5 cc 05 3f c6 62 f6 bd 56 10 8c 3e
       0.28668934 0.52265865 -0.12030558 0.27356213
0000b0 1e 60 80 bd fd 6c 0e bf ba 01 31 3f 99 3d 7b be
       -0.06268333 -0.5563505 0.6914326 -0.24535216
0000c0 00 98 95 bc 20 8a d3 be b1 d3 97 be b5 88 5c 3f
       -0.018260956 -0.4131632 -0.29653695 0.861461
0000d0 6f 3d 84 bf 37 08 9e 3f 18 b8 eb 3e c2 e3 97 bf
       -1.0331248 1.2346257 0.4603889 -1.1866381
0000e0 97 30 7a 3f 9f a3 39 3d 13 b8 52 3f 81 2c fe 3f
       0.9773039 0.045322057 0.82312125 1.9857332
0000f0 3c 2c 4c 3f e5 66 c1 3d 82 27 ac 3f 7d 30 10 3f
       0.79754996 0.09443454 1.3449557 0.5632399
000100 eb c8 b7 bd 32 d7 4f 3f 75 1a d6 3e 21 a6 87 bf
       -0.08973869 0.81187737 0.4181706 -1.0597574
000110 ec 70 c1 3f 4c 23 0f 3c b2 13 52 be 92 f0 ac 3e
       1.5112586 0.008736443 -0.20515326 0.3377729
000120 e6 ee 9d be a8 f0 1e 3f 17 07 b7 3e e3 d6 7f be
       -0.30846328 0.6208596 0.35747597 -0.24984317
000130 3d 78 dd 3f 23 bc 2e bd a9 82 96 3e 25 2d 4b 3f
       1.7302319 -0.04265989 0.2939656 0.7936576
000140 01 d9 9a bf bb 41 1e bf 22 d9 7f 3f 69 f4 59 3e
       -1.2097474 -0.61819047 0.99940693 0.21284641
000150 55 77 48 3f be 8d d5 be 71 68 0e 3e d3 e3 45 bd
       0.78307086 -0.41709703 0.13907029 -0.048312973
000160 e5 c8 4c bf 87 93 37 3f 56 51 21 3f 0f 19 01 3f
       -0.7999404 0.71709484 0.63014734 0.5042886
000170 f9 2a 79 bf 26 cf 13 3f f4 87 33 3f ca 03 8c be
       -0.97331196 0.5773796 0.70129323 -0.2734664
000180 88 d9 2d 3f 35 7a 3a bf 90 ab a7 bf f4 59 37 bd
       0.6791005 -0.72842723 -1.3099232 -0.04476352
000190 83 f1 06 3f e1 68 1d 3f 67 78 05 bf d1 ea 9f 3e
       0.5271227 0.6148816 -0.52136844 0.31233838
0001a0 77 94 b8 3e 8b 18 c8 3c ca 5b 73 bf 5d 02 5b bf
       0.3605077 0.024425765 -0.95061934 -0.8555048
0001b0 93 c1 b0 3f 72 33 22 3f 84 bd 9a bf db dc ae 3f
       1.3809074 0.6335975 -1.2089086 1.366115
0001c0 55 bc 24 3f a9 bd 37 bf 02 26 f1 be f3 56 83 3e
       0.6434987 -0.71773773 -0.4709931 0.25652274
0001d0 80 ca d2 bc 51 75 a4 3d 20 d9 2e bf 75 70 d4 bf
       -0.025731325 0.08030189 -0.68300056 -1.6596819
0001e0 3f d0 ad bd de 72 a8 3f c5 4e cc bf 05 bf 97 3f
       -0.084869854 1.3160055 -1.5961539 1.185517
0001f0 ed 3b d2 3f b5 f4 3c 3f ce e9 ec bf ed 29 69 bf
       1.6424538 0.73810893 -1.8508852 -0.910796
000200 83 87 ea 3e e2 d3 0a bf 89 13 44 3f b6 d4 9c 3f
       0.45806512 -0.5422956 0.7659231 1.2252414
000210 a1 16 38 3f 16 ff 7d 3f c5 9c ec be 41 d7 47 bf
       0.7190953 0.99217355 -0.46213356 -0.78062826
000220 30 47 84 3f e3 3a b6 3e d7 c9 3b bf 22 88 92 3f
       1.0334225 0.35591802 -0.7335486 1.1447794
000230 89 ba 0d bb b4 5a 9b 3e 7a 1a ab 3e 02 ae 42 bf
       -0.0021626076 0.30342638 0.33418638 -0.76046765
000240 d5 2e 19 bf 6d 71 ce be 62 2b 27 be 38 dd 08 3f
       -0.59837085 -0.40320912 -0.16325143 0.53462553
000250 6a 78 16 bf b5 6a 15 bf 2a 2d b2 bd ac cd db 3c
       -0.5877749 -0.58365947 -0.087000206 0.02683147
000260 aa e5 b0 be 3f 6c 84 3e 82 e5 0f 3f 17 ae 64 3f
       -0.3455022 0.25863835 0.56209576 0.8932814
000270 4b ae 38 3c 8d 13 36 bf 8f fc c2 bf f7 7a 3c bf
       0.011272023 -0.7112358 -1.5233325 -0.7362513
000280 31 79 39 3f 6e 69 9b be f1 8c 48 be ac 55 70 bf
       0.7245055 -0.30353874 -0.19585015 -0.93880725
000290 f7 65 84 3f b7 85 e2 3e fd 1c 22 3f e3 54 ac be
       1.0343617 0.4424264 0.6332548 -0.33658513
0002a0 f5 36 f5 3e c4 ae 98 3f 12 eb 54 be bb 4d 28 3e
       0.4789349 1.1928334 -0.20792797 0.16435902
0002b0 1a 87 84 3f d4 ec 9a 3f 82 2a 3a 3e 85 cc 88 be
       1.035373 1.2103524 0.18180278 -0.26718536
0002c0 20 a5 56 bf 2a 7b 61 3e 68 f3 33 3f 63 6a ad 3f
       -0.8384571 0.2201964 0.70293283 1.3548092
0002d0 a0 0a ac be 06 e6 a2 bf b9 73 93 3f 44 53 a3 3f
       -0.33601856 -1.2726448 1.1519691 1.2759786
0002e0 71 01 90 3e 1b 4a e9 3d 86 08 ed bf 27 31 32 bf
       0.281261 0.113910876 -1.8518226 -0.6960625
0002f0 18 4c f2 be d5 a8 4f be 2f da 52 3f 27 17 27 3f
       -0.4732368 -0.20279248 0.8236417 0.652697
000300 53 2a 1f bd bc 1e 0c bf 37 64 e5 bf ed 1d 63 3e
       -0.038858723 -0.54734397 -1.7921208 0.22179385
000310 61 73 88 bd 99 d6 7b 3f 1e 48 76 3e 21 6e 0e bf
       -0.06662632 0.98374325 0.24050948 -0.55636793
000320 8e 24 bc be 4d 40 a5 bf a8 d0 9e bf 3b 79 f3 bf
       -0.3674664 -1.2910248 -1.2407427 -1.9021372
000330 0c 9e be 3e dd db 12 40 3f 8a 33 3f b9 ce 46 bd
       0.37229955 2.2946694 0.7013282 -0.04853699
000340 2b 6d 87 bd 45 5c 03 bf a5 74 18 3e 0d a7 24 bf
       -0.06612619 -0.5131267 0.14888246 -0.643174
000350 95 f9 4a bf 3e 42 d3 be 77 b2 89 bd d8 6c a6 be
       -0.7928708 -0.41261476 -0.067234926 -0.32504916
000360 ab 2b ee be 4b 5a a4 be df 7b 07 3f 49 e3 f3 be
       -0.4651769 -0.32100138 0.5292339 -0.47634342
000370 16 99 de bf 98 41 10 bf ba 56 9f 3f ba ef 3a bf
       -1.7390468 -0.5635009 1.2448342 -0.73022044
000380 0d bf 27 3c 6c 05 87 bf 9e c8 dc bd 58 20 07 3e
       0.010238421 -1.054853 -0.10780452 0.13195932
000390 d4 7c 7d bf 21 d0 02 40 5d f4 43 bd 60 1d 15 3f
       -0.990186 2.0439532 -0.047840465 0.5824795
0003a0 bf 41 ba 3f 71 46 e6 bf c1 25 34 3f 61 7b 86 3e
       1.4551314 -1.7990247 0.7037011 0.26266006
0003b0 92 c0 74 bf 86 cb f4 3e c5 0f 19 c0 2b 7e 63 3f
       -0.9560634 0.47811526 -2.3915875 0.8886439
0003c0 52 61 d7 3f 14 2b 75 3f 06 52 93 3f b8 92 36 3f
       1.6826575 0.95768857 1.1509407 0.71317625
0003d0 61 d1 d8 3f ba 52 10 3f 06 4b 71 bf 67 cc 63 3f
       1.6938897 0.5637623 -0.942551 0.8898377
0003e0 0e 0f 2c bf eb 93 86 3c d9 db e8 be 7e 40 b3 bf
       -0.6721047 0.016427955 -0.4548023 -1.4004056
0003f0 99 d7 bb bc 45 c9 81 3d 60 64 6a bf 92 fa 32 bf
       -0.022929953 0.06337217 -0.9155941 -0.6991359

39 f4 [16]
000000 a7 63 b2 bf 32 a2 13 c0 15 7e cf 3f cc e9 f2 3f
       -1.3936661 -2.3067746 1.6210352 1.8977599
000010 eb 64 fa 3f ae d4 b8 bf 2c 39 bb 3e 26 08 92 40
       1.9562048 -1.4439905 0.36567056 4.5634947
000020 07 28 df bf ce ee 5d be 7f ef 70 40 1f 35 c9 bf
       -1.743409 -0.21673128 3.7646177 -1.5719336
000030 37 55 92 3f b5 33 28 40 47 14 ac 3f a8 19 d1 3c
       1.1432256 2.628156 1.3443688 0.02552493

fc.0.bias f4 [482]
000000 97 45 f8 bc 05 36 c7 3d 88 b3 e2 3d 7b d3 93 3d
       -0.03030662 0.097271 0.11069399 0.07218071
000010 ea 53 df 3d 5c d7 6d bc 20 16 88 3d 45 c7 00 3e
       0.10904677 -0.014516678 0.06644845 0.12576015
000020 1b a0 df 3d a4 18 1c 3b 08 10 7e 3d 65 56 7a bd
       0.109192096 0.0023818398 0.062027007 -0.06111755
000030 f2 08 0b bd 44 72 a0 3d 11 6b bd 3d 1f 0f 8e bd
       -0.033944078 0.078342944 0.09248937 -0.06936478
000040 0f 43 77 bc ec f6 92 3d bb 2c fa 3d 11 91 16 bd
       -0.015091672 0.07176003 0.12215563 -0.03675944
000050 ce 9e 89 bd f7 b4 cc bb a0 d5 fe bc 82 ac 2e bb
       -0.06719743 -0.0062471586 -0.031107724 -0.0026653116
000060 be 0d e0 3d 66 0f de bc 34 0a c6 bc 41 a7 1e 3d
       0.10940121 -0.027106952 -0.024174787 0.038733725
000070 87 8f 81 3c cd 1f bf 3d d3 b3 94 3d 86 b0 c3 3c
       0.01581551 0.093322374 0.07260861 0.023887884
000080 e6 3a 05 3e 42 9e 8a 3c 1c 96 92 3d d2 68 21 3d
       0.13010749 0.016921166 0.07157537 0.039406605
000090 ce c2 39 bd 4b b3 8a bc d0 c4 ff 3d 42 78 0f bc
       -0.045351796 -0.016931197 0.12488711 -0.008756699
0000a0 87 98 26 bd fc 77 ae bd 8c 84 76 bd a0 46 e4 3d
       -0.040672805 -0.08518979 -0.060185 0.11146283
0000b0 91 6a 5d 3d 80 54 32 bd 5e 13 ce 3d c7 0c cb 3a
       0.054056708 -0.043537617 0.10062288 0.0015491479
0000c0 8d a5 d5 3d 68 70 74 3b ab 99 98 3d 6b 60 cf 3d
       0.10431967 0.0037298445 0.07451185 0.10125812
0000d0 a2 33 c6 3d f7 c8 e9 3d 1b d8 a7 3c 37 46 96 bb
       0.09677817 0.11415284 0.02048879 -0.004586007
0000e0 90 5e 13 bd b3 5f 5f bd 82 d5 28 3c cd 11 e1 3d
       -0.035978854 -0.054534625 0.0103048105 0.10989723
0000f0 ad dc bb bd de 27 95 bd 22 b8 aa 3d fe 0f 2f 3d
       -0.0917295 -0.07282995 0.08335902 0.04273986
000100 4d b8 93 3d 69 12 c5 3d 14 69 f9 3d e3 06 11 3c
       0.07212887 0.09622652 0.12178245 0.00885174
000110 f8 35 85 3d 1b 0a 85 bc f1 3f 0f 3d dd b8 82 bb
       0.06504434 -0.01624017 0.03497309 -0.0039893226
000120 c9 34 10 bd a6 a3 a1 3c 2d 47 a5 3d d8 68 98 3d
       -0.03520659 0.019731354 0.08070216 0.07441872
000130 fa fc f1 bc 22 0a 3e 3d 2e c9 92 3d 33 5b 04 3e
       -0.029539574 0.046396382 0.07167278 0.12925415
000140 cc 0c 3b 3c a2 3a 1e 3e ad 1b 44 3d 36 7d 6b bc
       0.011416625 0.15452054 0.047877956 -0.014373114
000150 bd 97 00 3e 55 07 31 3d 4e 18 89 3d 8c f4 b9 bd
       0.12557884 0.043219883 0.06694089 -0.09079847
000160 59 32 d7 39 c1 b5 ba 3d 16 f4 14 3d 98 e6 21 bd
       0.00041045508 0.09116698 0.03636559 -0.039526552
000170 5f 14 e1 3d 11 37 35 3c 94 90 11 3e 50 90 ff 3d
       0.109902136 0.011060492 0.14215308 0.12478697
000180 2d 11 b1 3d 4f 9c 91 bc 96 f0 bc 3d e4 8d 72 3d
       0.08645854 -0.017774729 0.092255756 0.05921735
000190 39 9a 76 3d a4 34 16 3c 7f 83 d8 3c 78 0b b7 3d
       0.060205672 0.009167824 0.02642989 0.08937734
0001a0 d1 c6 07 3d 5d 8a 9d 3c c3 a9 9e 3d 1d 0b 28 3e
       0.03314859 0.019231016 0.07747223 0.1641049
0001b0 0c d9 95 bc 88 a5 15 3e d4 3b 45 bd 1f 2b 7d 3d
       -0.018291973 0.14613926 -0.04815276 0.0618087
0001c0 75 15 25 3d 90 aa c1 3d e9 f2 fa 3d 0f 7c a9 3c
       0.040303666 0.0945636 0.12253363 0.020689039
0001d0 62 fc 58 3d d1 54 56 3d 3d f2 b7 bc 7f 4f bb 3c
       0.052975066 0.05232698 -0.022454375 0.022865055
0001e0 a0 c9 0e 3e 4e 48 56 bd d0 f0 11 bd 8e ae 52 bc
       0.13944101 -0.05231505 -0.035630047 -0.012859
0001f0 2a 4b 8d 3c be 3b 6f 3d bf a5 8c 3d 70 00 73 bd
       0.017247755 0.058406584 0.06867551 -0.05932659
000200 e0 e8 b4 3d 88 fc f7 3d a7 09 ac 3c 3b 60 84 3d
       0.0883348 0.121087134 0.021000696 0.06463667
000210 83 d9 78 bd 38 88 97 3d 14 b1 08 3d 09 03 7a bd
       -0.06075431 0.073990285 0.033372 -0.06103805
000220 b4 a0 9a 3c a5 ee 6a 3d 42 5a b0 3d 82 eb 2a bc
       0.018875457 0.057356495 0.08610965 -0.010432126
000230 ad 3e 05 bd 9f 51 20 3d a0 e0 ae 3c e5 24 15 bd
       -0.032530475 0.03914034 0.021347344 -0.03641214
000240 cc 7b fe 3c c9 71 bf 3d 0f 7f 9a 3d 98 70 24 3b
       0.03106489 0.09347875 0.07543766 0.0025091525
000250 9d 92 2e 3c 98 6a 90 bc b5 45 22 3e 4e a4 8a bd
       0.0106550725 -0.017628953 0.15846904 -0.0676962
000260 e4 69 91 3d c3 ed 2d bd b3 8a 29 3d 44 de 7d 3d
       0.07100275 -0.042463075 0.04139204 0.061979547
000270 87 1f b0 3d 42 e6 5c 3c dc ce fd bb f9 b3 08 3d
       0.08599763 0.013482632 -0.007745607 0.03337476
000280 25 af 40 bd cc 29 7c 3d 64 0f fb 3d 5e c0 a4 3d
       -0.04704203 0.061563298 0.12258795 0.08044504
000290 42 e8 fe 3c c4 13 7e bc a8 ae 71 bb 6e f7 95 3d
       0.031116609 -0.015507642 -0.0036877785 0.07322584
0002a0 66 b2 10 3d 4c 95 25 bd 4f 2b 88 3c cc 5c c8 3d
       0.035326384 -0.040425584 0.016622214 0.097833246
0002b0 9c fd c3 bc 00 11 97 3d e3 ba 41 3d 6e 6f 2a bd
       -0.023924641 0.07376289 0.04729737 -0.041610174
0002c0 4a b9 e7 3d 92 65 ed 3c ef ef 4d bd 80 ed 0c bd
       0.11314638 0.028979097 -0.050277647 -0.034406185
0002d0 c4 b4 35 bc 5a 09 6e 3d 77 9c 24 3d 33 8e 05 3e
       -0.011090461 0.058114387 0.04018828 0.13042526
0002e0 79 97 f6 3d 7f fa a5 bd e4 26 96 3d a0 86 01 3d
       0.1204061 -0.08104419 0.073316365 0.03162253
0002f0 b5 8c 9f bc fc 3f a5 bc ae 68 fe bc f0 f3 8e bc
       -0.019476274 -0.020172112 -0.031055775 -0.017450303
000300 b3 7d 01 3e 06 1b 3e 3c fd 47 71 bd 62 24 cd 3d
       0.12645607 0.011603123 -0.058906544 0.10016705
000310 25 7a 14 bd a4 f3 16 bc 5e 4a 5e 3d 30 71 d4 3d
       -0.0362493 -0.009213362 0.05427014 0.10373151
000320 7d d1 1c bd 01 65 3c bd 32 a3 77 3d df 86 8e bd
       -0.03828572 -0.045994762 0.06045837 -0.06959318
000330 a2 d2 28 3d 50 02 c8 3c 17 bc 64 bd 34 e1 af 3d
       0.0412165 0.024415165 -0.05584344 0.08587876
000340 25 97 39 3d 08 75 1b 3d 8d aa d4 3d 56 ec ff 3c
       0.04531016 0.037953407 0.103840925 0.031240623
000350 40 bf 8a 3c c7 bb 35 bc f5 2e 6a 3d 57 a9 6e 3d
       0.016936898 -0.011092133 0.057173688 0.058266964
000360 d9 95 0a 3e e4 0b 3a 3d 64 cb 93 3d d1 a6 b4 3c
       0.13533725 0.045421496 0.07216528 0.0220522
000370 c1 46 42 3d 3e 11 9e b9 f8 4e f5 bb 0f 8c e5 ba
       0.047430757 -0.00030148955 -0.0074862204 -0.0017513054
000380 19 1d a5 3d 52 b0 38 bc 30 75 ad 3d 09 bb 28 bd
       0.080621906 -0.011272507 0.08469617 -0.041193996
000390 56 bc 7d 3d 1a 21 aa 3d 2b 7e cb bc f8 61 06 3e
       0.06194719 0.08307095 -0.024840435 0.1312331
0003a0 f0 c6 83 3d 3f 80 05 3d 89 d9 8a bc fe f1 90 3d
       0.06434429 0.032593008 -0.016949432 0.07077406
0003b0 51 84 14 bd 06 20 12 bc d2 c8 76 bd db a6 8d 3c
       -0.036259 -0.008918768 -0.06025011 0.017291477
0003c0 db 58 24 bc 58 55 52 3d db 27 04 3e d6 a6 f9 3d
       -0.01003095 0.05135092 0.12905829 0.121900246
0003d0 ec 22 13 bd 3e 92 19 3d eb 4a 35 bd 67 b9 8b 3d
       -0.035921976 0.037492983 -0.0442609 0.06822472
0003e0 cd f0 47 3b 0b 53 97 3d 39 b0 8e 3d e8 ab 06 3e
       0.0030508519 0.07388886 0.069672056 0.13151515
0003f0 90 90 e4 bc d0 f2 09 3e bf 71 4a bd 18 89 c1 3c
       -0.027900964 0.13471532 -0.049424883 0.023624942

fc.0.weight f4 [482, 64]
000000 a3 fe c9 bc b7 fe 20 3c 6c 75 0b 3e 2f 55 1e 3d
       -0.024657553 0.009826354 0.13619012 0.038655456
000010 aa 89 bb bd 9f 53 39 be 0f ee 78 3e d7 b4 02 3e
       -0.09157117 -0.18098305 0.24309562 0.12764297
000020 12 9a ae 3d e1 d3 4b 3e 66 10 62 bc 46 28 22 bc
       0.0852548 0.19905044 -0.013797855 -0.009897297
000030 c1 9e bf bb 88 b9 1b 3e 81 2c 51 3e b0 cf 0e 3d
       -0.0058477824 0.15207493 0.20427133 0.034866035
000040 76 71 5b 3e e1 f2 b5 3c 6d 6d e0 bd ca 47 20 3e
       0.2143 0.02221054 -0.10958371 0.15652385
000050 86 62 3a 3e 3d 81 25 3d 71 6f 92 3d 2e 1f 37 3d
       0.18201646 0.040406454 0.07150162 0.04470747
000060 18 2c 7f bc 3a c2 c4 3d cb 30 bb 3d 83 89 68 3d
       -0.015574478 0.09607358 0.09140166 0.056771766
000070 d0 41 10 be 15 22 06 3e 15 54 bc 3c 2c 5c b6 bd
       -0.14087605 0.13098939 0.022989312 -0.08904299
000080 7b 7a f2 bd 5e 77 b2 3d ca 5a e4 bc fb 0e a0 bc
       -0.118397675 0.08714174 -0.027875323 -0.019538393
000090 64 07 92 3c 11 c1 f3 bd 45 b9 dc 3d 89 74 4b 3d
       0.01782579 -0.11902059 0.10777525 0.049671683
0000a0 45 93 c0 3c dd 97 8f bd 3e 48 9b bc 70 f5 63 3e
       0.023507724 -0.070113875 -0.018955346 0.22261596
0000b0 29 c2 cb bd 68 db 00 3e b9 8b c6 3d b9 70 54 3d
       -0.099491425 0.12583697 0.09694619 0.051865313
0000c0 54 b6 10 3d 4d 39 11 be 30 0f 88 3d 23 7c e5 3b
       0.03533013 -0.14182015 0.06643522 0.0070033236
0000d0 44 b6 51 3d 66 9f 11 be e0 b4 49 bc b5 12 92 bc
       0.051199213 -0.14220962 -0.01231119 -0.017831186
0000e0 80 8c 3d bd 61 5b cd 3d 0c 5a af bd bf c3 96 bc
       -0.04627657 0.10027195 -0.08562097 -0.018403886
0000f0 5c e2 01 bc 33 e1 45 be ea 8f 11 bc 90 f7 b7 bb
       -0.007927503 -0.19324188 -0.008884409 -0.0056142285
000100 fe be c4 bc e9 f7 d1 bd 1e 90 cd 3c cd 05 27 bd
       -0.024016853 -0.10252363 0.025093134 -0.040777016
000110 9a 91 b7 3d 02 7d 1a be fe 3b ca bd 2b c6 c9 3d
       0.08963318 -0.15086749 -0.09874724 0.09852251
000120 0a b1 1f be b7 d9 fa 3b 68 42 4d 3e f7 37 9d 3d
       -0.15594879 0.007655348 0.20044863 0.0767669
000130 81 bb b9 3c 2c 32 e7 3d 26 c9 a8 3b cc fd 6e 3d
       0.022672417 0.112888664 0.005150932 0.05834751
000140 eb 62 a4 3d e0 2e 8c 3d 29 24 d4 3d 05 b7 1a 3e
       0.080266796 0.06844878 0.103584595 0.15108879
000150 5d 70 83 bd 75 90 7b bd 22 a9 a6 bd 89 e5 25 be
       -0.06417916 -0.06141706 -0.08137728 -0.16200842
000160 2e a6 63 bd 5a 85 11 3d 94 4f 14 3e 88 a4 23 3c
       -0.055578403 0.035527565 0.14483482 0.009987958
000170 7b af 0d 3e 63 53 ed 3d 10 19 49 3c a7 f6 d6 bc
       0.13836472 0.115881704 0.012274042 -0.02624066
000180 ec d0 37 be f1 e2 75 bd 79 80 2f 3d 2d 9e 85 bd
       -0.17950791 -0.06003088 0.04284713 -0.0652431
000190 5c e0 3b 3d 52 c8 3f 3e 24 01 64 bd 68 66 9a 3d
       0.045868263 0.1872876 -0.05566515 0.07539064
0001a0 37 ef f6 bb da 67 83 bc d5 b4 00 be 9a 2a a8 3d
       -0.007535841 -0.016040731 -0.12568982 0.082112506
0001b0 a9 30 16 bc a1 88 bd 3d 73 75 d0 3b 81 e7 cb 3d
       -0.009166875 0.092545755 0.0063616573 0.09956265
0001c0 84 30 34 bc bc 7d 47 bd fc 1c 73 3d 06 fb 6d 3d
       -0.010997895 -0.048703894 0.059353814 0.058100723
0001d0 46 a3 00 bc 05 f0 c3 bc bb db 14 be 64 bd 6e bb
       -0.007851427 -0.023918161 -0.14536946 -0.0036428804
0001e0 90 b1 35 3c 75 a3 bb bc 6e 6b 44 3e 1c 88 e7 3c
       0.0110896975 -0.02290509 0.19181606 0.028263144
0001f0 2f 04 65 bb 4a e5 64 3c 30 50 93 bd f9 2a 81 bb
       -0.003494512 0.013970682 -0.07193029 -0.0039418903
000200 98 48 96 3d 73 b0 ce 3d 6a 36 f8 3d 7b 9a 2e bd
       0.07338065 0.10092249 0.12119754 -0.042627793
000210 bf 4e f7 bd dc 7d dc bc 89 91 eb 3b e5 16 c2 3c
       -0.120755665 -0.026915483 0.00718898 0.023692558
000220 48 a0 f0 3d 5a d3 17 bd bc cf 93 bc 03 9f 16 bd
       0.11749321 -0.037066795 -0.018043391 -0.03677274
000230 b0 81 94 bd 7c 97 09 3d 2b ea bb 3d 8c c8 98 3d
       -0.072512984 0.033591732 0.09175523 0.07460126
000240 36 eb b4 3d e2 11 f6 3d a3 18 a6 3d 59 fc e4 bd
       0.088339254 0.120151296 0.08110168 -0.11180944
000250 66 91 19 3d 63 bb e4 bb 23 ca 00 3e f6 15 2d 3d
       0.03749218 -0.006980346 0.12577109 0.04225727
000260 07 b1 58 bd 56 dc a0 3d 91 44 95 bd b0 02 31 3e
       -0.0529032 0.07854526 -0.07288469 0.17286181
000270 dd 76 c0 3d 6c b0 d6 3d dc d0 81 3d 55 f0 ba bd
       0.09397671 0.104828686 0.06338665 -0.09127871
000280 46 56 ef 3d 22 cc 5e 3c ba eb 1d bd 7b 79 3d 3d
       0.11686377 0.013598474 -0.038554884 0.04625843
000290 cd e6 dd 3c 1f ad 24 3e c6 bd 9b 3d 74 bb 03 3e
       0.027087593 0.16081665 0.07604556 0.12864476
0002a0 5c 98 c6 3d da 3e 7c bd 71 96 00 3e 85 d2 99 bd
       0.09697029 -0.061583377 0.12557389 -0.075108565
0002b0 45 59 5b bd e8 8c 89 bd 29 a1 d9 bd dc 64 f2 bd
       -0.05355193 -0.06716329 -0.10626442 -0.11835644
0002c0 90 53 84 bd 76 e5 17 3e 0f f9 e7 3d ca 8e ab 3d
       -0.06461251 0.14833626 0.11326801 0.08376844
0002d0 09 06 3e 3c ca 6b e2 bd 8a 8a d8 3c 40 f2 fd bd
       0.011598119 -0.110557154 0.026433248 -0.12399721
0002e0 9f 83 56 bc 3d 96 0a 3e 72 7f 92 bd 0d 9f ce 3c
       -0.013092904 0.13533874 -0.071532145 0.025222326
0002f0 ca 4a 77 bd 11 2d 99 bd 90 26 02 3e 4f 43 a9 bd
       -0.06037406 -0.07479299 0.12710023 -0.08264791
000300 49 d1 1f bd 91 3e 3f 3c 7a 62 3a 3d 10 64 bb bd
       -0.03901795 0.011672632 0.04550407 -0.09149945
000310 a3 c7 a6 bd a6 82 a5 3d 3c 6b 49 be aa 66 a7 3a
       -0.081435464 0.0808156 -0.19669813 0.0012771685
000320 47 3f 1c 3e 9b fa 03 3d 12 d2 2d 3e 55 93 80 bd
       0.15258513 0.032221418 0.16974667 -0.06278101
000330 31 43 80 bd 01 ba bf 3d c7 88 0e 3e 7a d2 18 be
       -0.06262816 0.09361649 0.13919364 -0.1492404
000340 3b 4a 7f 3b ba 37 ee bd 47 3e 8a 3d e4 b3 2a 3e
       0.0038954157 -0.11631723 0.0675016 0.16670185
000350 e2 b2 ac 3c a6 69 a9 bd b0 03 9b 3c 26 07 08 be
       0.021081392 -0.08272104 0.018922657 -0.13283977
000360 35 63 af 3d cf c5 13 3e 31 16 97 bd 33 c9 ba bd
       0.08563844 0.14430927 -0.073772795 -0.09120407
000370 dc 43 85 3a c4 47 e4 3d 16 c8 2c bc 88 52 3b 3d
       0.0010167318 0.11146501 -0.010545751 0.045733005
000380 f8 ea 9e bc cd 5f 47 bd 91 b7 e6 3d 9c a7 83 3d
       -0.019399151 -0.048675347 0.11265481 0.06428453
000390 9b 44 cc bc 05 59 0e be 03 be 0d bc b2 c1 68 3e
       -0.024935057 -0.13901146 -0.008651259 0.22730139
0003a0 30 83 22 3d 87 41 4c bd 73 73 01 3e d7 59 7a bd
       0.03967589 -0.04986718 0.12641697 -0.061120834
0003b0 4a 74 60 3d 22 c7 9c 3d 43 0d 0d 3d 55 a2 d7 bd
       0.054798402 0.07655169 0.034436475 -0.10529009
0003c0 c0 3d 85 bd c4 c1 03 3e 49 3a 03 bb 71 1d 75 bc
       -0.065059185 0.12866884 -0.0020023754 -0.014960633
0003d0 a0 31 5a bd 01 8d 19 3e ea 82 fd 3d 03 19 33 3e
       -0.053269982 0.14995195 0.123784855 0.1749001
0003e0 ee 6c 3c 3c f3 b2 92 3d 4d eb 1a be 0b 93 9f 3d
       0.01150058 0.07163038 -0.15128823 0.07791718
0003f0 16 0e ac bc 57 47 59 3c 2f 9d 11 bd 39 2c 9a 3d
       -0.02100281 0.013261638 -0.035550293 0.07527966

fc.3.bias f4 [241]
000000 99 44 3c bc 0d a7 aa bc 1a 6d 33 bd 9f 34 a9 bc
       -0.011490964 -0.02083161 -0.04380522 -0.020654975
000010 26 34 5c 3d 4d c3 a4 3b 9d 29 a2 bb 64 63 90 bc
       0.05376067 0.0050281645 -0.0049488083 -0.017625518
000020 08 ce f6 ba b9 f1 e5 ba 1a bb e8 bc 84 a0 81 bd
       -0.0018829713 -0.0017543352 -0.02840953 -0.06329444
000030 2a cc 81 bc 2a 66 78 3c 92 60 eb bc 56 50 eb bb
       -0.015844423 0.015161077 -0.028732572 -0.0071812076
000040 5f 7e 44 3c 7f 4f a5 bc 03 cc 22 bc 8d c3 3e 3c
       0.01199302 -0.020179508 -0.0099363355 0.011643303
000050 6d 90 f3 3b 4e 0b 51 bd ee 24 b0 39 9d e8 08 3c
       0.0074329884 -0.05103617 0.0003359685 0.008356241
000060 4d 66 8a 3c ba 7f 93 bc ed 6d b9 bc 52 53 02 bc
       0.016894484 -0.01800524 -0.022635425 -0.007954435
000070 40 27 27 bc c3 ce ea 3c b6 3c a7 3c e1 bc 77 3c
       -0.010202229 0.028663045 0.020414691 0.015120716
000080 7d d3 9e 3c 03 76 b8 3c 6c 81 a9 bb 1a 34 66 bc
       0.019387955 0.02251721 -0.005172899 -0.014050508
000090 76 5c 28 bc fb f9 6c bb 41 16 98 bc f5 15 75 3c
       -0.010275951 -0.0036159742 -0.018565299 0.014958848
0000a0 2c ea be bb e7 33 d3 bc a2 9c 6d bd a7 3e 76 bd
       -0.0058262553 -0.025781585 -0.058010705 -0.060118344
0000b0 73 2b 28 3d 8a 05 de 3c dc 2f 18 bb a6 d0 f6 bc
       0.04105706 0.02710225 -0.0023221886 -0.030128788
0000c0 5c b0 c1 bc 2b ae 71 bc 23 1b 84 bc 6e 16 f3 3c
       -0.023643665 -0.014750998 -0.016126221 0.029673781
0000d0 cb 28 60 3a a8 fb c2 bc 16 af 1c bc c1 74 d4 3c
       0.00085510005 -0.02380164 -0.009563228 0.025934579
0000e0 86 2b 0a 3c db 13 3e bc 9f a0 1d bc 36 63 db ba
       0.008433228 -0.011601414 -0.009620815 -0.0016737941
0000f0 34 63 7e bc e3 74 22 bd 6e 54 2f bc 4c 6c 33 3d
       -0.015526582 -0.039662253 -0.010701282 0.04380445
000100 72 e2 e5 bc 95 34 aa bc 3e 5e 0f 3c 73 4a 9c bb
       -0.02806208 -0.020777026 0.008750496 -0.004769617
000110 86 7f 21 bb 5b 8b 7a bb 56 ab 73 ba 2c fc 16 bd
       -0.002464266 -0.0038230035 -0.00092952454 -0.036861584
000120 25 5d 8a 3b 5e 27 3b 3a a0 1a 83 bd 74 a2 49 bd
       0.0042225295 0.000713935 -0.06401563 -0.049227193
000130 6b 07 18 bc f0 d5 fb bc 48 01 3f bd 67 bb 30 bd
       -0.009279112 -0.030741662 -0.04663208 -0.04314747
000140 c2 df 0e bd 8d 4a 81 bd 76 93 67 3d 80 15 94 3c
       -0.03488136 -0.063130476 0.056537114 0.018076658
000150 b1 07 d6 3c 6b fc d2 bb 93 4a 9d bc 69 7a 03 bd
       0.026126714 -0.006438782 -0.019200599 -0.03209916
000160 2b 9d d6 bc c8 27 f1 bc 11 0e 08 bc 54 10 65 bc
       -0.02619799 -0.029437914 -0.008304135 -0.013980944
000170 c6 d1 8f 3b 37 2d 0c bd 7c ed 22 3d 03 74 b8 bc
       0.0043890206 -0.034222808 0.039777264 -0.022516256
000180 df 27 44 bc c8 ed 96 bc 64 4c 22 bd ae b0 69 3c
       -0.011972397 -0.01842393 -0.039623633 0.014263315
000190 84 87 8f 3c 28 8f 28 bd c3 49 c4 bc 99 b4 2a bd
       0.017520674 -0.04115215 -0.023960954 -0.041676138
0001a0 81 f3 aa bc f3 3a f0 bc 78 5e b4 3b c3 60 51 3c
       -0.020868065 -0.029324984 0.0055044256 0.012779417
0001b0 6c ec 61 3c a6 89 1d bd 62 ec 91 bc 87 de af 38
       0.0137892775 -0.03846135 -0.017812911 8.386099e-05
0001c0 22 8d cd bc a7 c3 d6 ba ef c7 61 bc d4 fb 01 3b
       -0.025091711 -0.0016385213 -0.013780578 0.001983394
0001d0 2d 4a 78 bb 33 ea 35 3b 63 92 01 3c 55 11 ba 3c
       -0.003788601 0.0027758002 0.0079084365 0.022713343
0001e0 21 bb 7b bd bc b2 2b bd b4 d8 6e bc 77 16 15 bd
       -0.061457757 -0.0419185 -0.014578033 -0.036398377
0001f0 c5 b9 3e ba 0b 06 a2 bc a9 e4 ad 3a 89 87 c0 3c
       -0.00072756066 -0.019778272 0.0013266999 0.023502128
000200 9f 30 9f bc 73 fd 2c 3c ff 6b 2e bd f7 13 f3 bc
       -0.019432364 0.010558474 -0.04258346 -0.029672606
000210 91 7d 07 bd 5a b2 d4 3c 1e b4 04 3b 57 54 c2 bb
       -0.033078734 0.02596395 0.002024896 -0.0059304642
000220 a2 e7 3f bc ce 24 89 3c f0 44 fb 3c 92 52 a5 bc
       -0.01171294 0.016741183 0.03067252 -0.020180974
000230 b9 bb 2d 3c 42 11 a1 bc 52 9a 6d ba ee a7 1f bd
       0.010603839 -0.01966155 -0.0009063828 -0.03897851
000240 64 08 bc ba ce 65 06 3c aa 83 a3 bb 41 fd 26 bc
       -0.0014345762 0.008202983 -0.004990061 -0.010192216
000250 95 42 c2 3c af a6 01 bd 38 b7 26 3d 14 05 4c bb
       0.02371339 -0.031653102 0.040702075 -0.0031130956
000260 11 2a 3b bc 00 5f 42 3c b9 f2 66 bc bb d4 e4 3c
       -0.011423604 0.01186347 -0.0140959555 0.027933469
000270 f3 67 21 bc 44 73 e4 ba 7f c6 fa 3c 05 87 22 bc
       -0.009851444 -0.0017429371 0.030612228 -0.0099198865
000280 eb 42 96 bb b4 82 2b bb 84 8f e7 bc 97 a3 02 bd
       -0.004585614 -0.0026170434 -0.028266676 -0.031894293
000290 ee 87 3a bc 41 ce b9 bc 9f 67 c3 ba ce 49 ca bb
       -0.011384947 -0.022681357 -0.0014908201 -0.006173349
0002a0 33 c8 03 bd 42 09 75 3c 03 8a 86 3b ad 96 91 bc
       -0.032173347 0.0149558205 0.0041058077 -0.017772043
0002b0 7b 41 1b bc 09 19 e4 3c 81 ea 18 3c 41 79 2b 3d
       -0.009476061 0.027843969 0.009333254 0.041863684
0002c0 6e 9a b6 39 48 b8 32 3c 62 92 a9 3a 90 38 ee bc
       0.00034828804 0.010908194 0.0012937302 -0.029079705
0002d0 06 d5 11 bd 5a 92 15 bc 14 d0 ef ba a2 c0 63 3b
       -0.035603546 -0.009129131 -0.0018296265 0.003475227
0002e0 44 7f 3b b9 3a 64 6a 3c ed df 7a 3d 97 28 bf bc
       -0.0001788112 0.014306122 0.06124871 -0.023334784
0002f0 ec 6a bc bc 1d 3c 97 b9 c9 57 cb bb 30 40 98 bc
       -0.023000203 -0.00028845752 -0.006205533 -0.018585294
000300 40 cc 0f 3d f3 08 29 bd 7a 10 2d bc 5b ff 0d ba
       0.035106897 -0.0412683 -0.01056301 -0.0005416774
000310 2c aa aa bb 45 9c 1a bc c2 f8 40 3c bf ed 1c 3d
       -0.0052082743 -0.009436672 0.0117780585 0.03831267
000320 39 ac 44 3c c7 6e 29 bc d9 e1 68 bc b0 31 6a bd
       0.012003952 -0.010341353 -0.0142140025 -0.057176292
000330 bf b0 4d 3d 52 75 ee 3c 7b ad a2 bc f1 f3 cf 3b
       0.050217386 0.029108677 -0.019858113 0.0063462188
000340 b0 2e de 3c 9f 7e 8b 3c ba 8e 1a 3c 3a 1a a6 3c
       0.027121872 0.017028151 0.009433443 0.020276178
000350 e0 a1 71 bc e1 75 d8 bb 39 10 40 3c a9 90 71 bc
       -0.014748067 -0.006605849 0.011722618 -0.014743962
000360 8a 53 00 bd 85 d1 d6 3c fa f8 b9 bb 14 3d b6 bc
       -0.03132967 0.026222954 -0.0056754323 -0.022245921
000370 3a 5c 2b 3d bc f4 9a 3b 6c 3a 11 bd ae 57 57 39
       0.041836 0.0047288816 -0.035456106 0.00020536661
000380 33 d8 38 bd 10 06 31 3c d4 61 9a 3b 08 77 2a bd
       -0.04512806 0.010804668 0.004711369 -0.041617423
000390 d0 c1 7f bd dd d2 57 3c 8b cf 4b bc f7 5b 24 bb
       -0.062440693 0.013172832 -0.012439619 -0.002507923
0003a0 7e 50 45 bd 0c 90 3d bd 67 53 25 bd 56 6a 07 bd
       -0.048172466 -0.046279952 -0.04036274 -0.033060394
0003b0 2a b4 16 bd d3 73 2f 3d 31 89 8b bd c5 6c cd bc
       -0.03679291 0.042835068 -0.068132766 -0.02507628
0003c0 e7 ce e0 3a
       0.0017151505

fc.3.weight f4 [241, 482]
000000 70 19 08 3c f8 10 3f 3d 52 b4 9b bd 0b 10 7f b9
       0.008306846 0.046647042 -0.07602753 -0.00024324672
000010 43 5f 10 bc e7 2c ae 3d f1 8a fe 3c 4c ad 16 bc
       -0.008811775 0.08504658 0.031072112 -0.009196591
000020 c1 eb bd bc 2b 7a 16 bd 7d 7d 3a bc 4d ec 97 3d
       -0.023183705 -0.036737602 -0.011382458 0.07418118
000030 a2 c5 52 bd 6d d7 db bc 68 3d 87 3c e8 a1 ce bc
       -0.05145801 -0.026836121 0.016508773 -0.025223687
000040 19 23 03 bd 96 0b bb bc fe 63 8d bd 4a 9a 99 bc
       -0.032015894 -0.022832673 -0.069038376 -0.018750329
000050 0b 19 8f bc 86 6b 40 bd 1f 35 a5 bd 5f 1f a4 3b
       -0.017467996 -0.046977542 -0.08066773 0.0050086225
000060 25 02 49 3d e2 39 03 3c a7 f9 53 bd 25 14 27 bd
       0.04907431 0.008009406 -0.05175176 -0.040790696
000070 c0 c5 8d 3d 81 27 a0 3d c9 48 26 3d be 85 65 bd
       0.069224834 0.07820035 0.040596757 -0.05603575
000080 67 de f6 bc b6 6f 8a bd 56 45 01 3d 5b 7c f0 3c
       -0.030135347 -0.067595884 0.031560265 0.029356172
000090 7e 5f 86 3d e6 8b 30 bd 95 e7 5f bd e3 b5 38 bd
       0.065611824 -0.043102168 -0.054664213 -0.045095336
0000a0 27 0f 03 3d b1 50 84 bd 1b 2d 4c 3c 77 2c d9 3c
       0.031996872 -0.06460703 0.012461926 0.02651046
0000b0 39 46 18 3d 12 86 41 bc 19 9f 82 bd 2c 2c 0f 3d
       0.037176345 -0.01181175 -0.06378002 0.034954235
0000c0 e6 39 7a bc 8c ca 75 bd 2b a3 6d bb ca ce e1 3c
       -0.015272593 -0.060007617 -0.0036260586 0.027564425
0000d0 9c db 1e bd ed 5d 11 bd 98 10 77 3d a5 68 6b 3d
       -0.038783655 -0.035489965 0.06031856 0.057472844
0000e0 d7 c9 84 3d a8 01 7a 3d cf bd c4 bd ae 03 ce bc
       0.064838104 0.061036736 -0.096065156 -0.025148239
0000f0 6e 8a 1c bc 63 96 e6 bd 4a 99 03 3d 6b 8f 9b bc
       -0.009554489 -0.11259153 0.03212861 -0.018989285
000100 2a f3 fd bc 40 b7 cb bd 58 52 6c bd b8 4a 10 bc
       -0.030999739 -0.099470615 -0.057695717 -0.008806877
000110 9b 06 a9 bc 3a 9a 88 3c 00 a0 a9 bc a9 81 6d 3c
       -0.020633033 0.016675103 -0.020706177 0.014496245
000120 8b 16 c1 3d 73 7b db 3c 10 48 b6 bd af b7 0f bd
       0.09428128 0.026792264 -0.089004636 -0.035087284
000130 d0 c7 99 3c 60 10 98 3d 84 13 ac bc bb 49 38 bd
       0.018772036 0.07424998 -0.0210054 -0.04499219
000140 ec f5 40 3c 73 c2 1a 3b 09 a5 5a bb bf 2d 3c bd
       0.011777382 0.0023614436 -0.0033362529 -0.045942064
000150 df cc d2 3d 0d 00 f4 bc d1 4e c4 3d 23 cf 7b 3d
       0.10292982 -0.02978518 0.095853455 0.061476838
000160 1a 70 95 3b 84 2c 23 bc 4a 81 35 3d 69 c3 30 3c
       0.0045604827 -0.009959344 0.044312753 0.010788777
000170 16 81 6e bd 8e a3 c1 bd 97 0d 19 3a 1a ee 18 bc
       -0.058228575 -0.09455024 0.0005838512 -0.009334112
000180 62 e5 ce 3c 0d e7 a9 3d 48 35 cb 3d ac 01 f6 3c
       0.025255863 0.082960226 0.09922272 0.030030094
000190 fe 95 f0 3c 00 93 0a 3d a7 77 18 bd 0e 13 64 3d
       0.029368397 0.033831596 -0.037223484 0.055682234
0001a0 07 65 07 3c 69 39 c5 bc 69 95 0d bd 87 3f 44 bc
       0.008263833 -0.024075227 -0.034566317 -0.011978037
0001b0 10 ea 06 3d f5 84 bd 3d bc 08 fd bb 74 8b 5c bd
       0.032938063 0.09253875 -0.0077219885 -0.05384393
0001c0 a9 62 71 bc fd 44 b3 3d 8a eb ac bc 1f c8 6c bd
       -0.014732995 0.08753393 -0.021108408 -0.057808038
0001d0 3e a7 35 bd 61 e7 1e bd be 10 36 bd b6 03 1c bd
       -0.044348948 -0.03879488 -0.04444956 -0.038089477
0001e0 dc cd 9f bc a3 ec 54 3c 9e d6 a5 bc 01 7d 5d bb
       -0.019507341 0.012995872 -0.020243939 -0.0033796432
0001f0 90 68 79 bd 53 e7 24 bd 03 99 b3 bc 6f 7f a8 bd
       -0.060890734 -0.04025967 -0.021923548 -0.08227431
000200 9e 70 d0 bc 95 35 81 3d 92 03 29 bd cd 95 f2 bc
       -0.025444325 0.06309048 -0.04126317 -0.029612446
000210 f5 dc c4 bd 73 7a a7 bd e7 9b 3e bc 95 ed 11 3d
       -0.09612457 -0.08177652 -0.01163385 0.035626967
000220 96 16 6a bb 82 6d 5b 3d 1c 47 4c 3d 56 6c 81 3d
       -0.0035719029 0.05357123 0.049872503 0.063194916
000230 1f f1 a1 bd b6 e8 75 3d e4 fb 26 bd db 36 59 bd
       -0.07907318 0.060036384 -0.040767565 -0.05303083
000240 f9 25 56 3c 3e 33 84 3d db 0d 21 bd 85 32 76 3d
       0.013070577 0.06455086 -0.039319854 0.060106773
000250 18 a0 29 bd a1 fa ad 3c c0 1d bd bc 13 36 88 bd
       -0.041412443 0.021237673 -0.023085475 -0.06650939
000260 e4 c6 9a bd e4 3f 5f 3c 44 81 7c bd 33 c0 91 3d
       -0.075574666 0.013626073 -0.061646715 0.07116737
000270 ec c1 30 bc 43 51 ca 3b 16 6e 15 bd 00 92 89 bd
       -0.010788422 0.006174238 -0.03648194 -0.067173004
000280 8d b1 0a bd 21 1c 95 bd 45 3c 7e 3d a3 8b 0e bd
       -0.033860732 -0.07280756 0.062069196 -0.034801137
000290 ca 48 4c 3d e4 f2 f1 bc c9 f2 4e 3d d5 98 0e 3d
       0.049874105 -0.029534765 0.050524507 0.03481372
0002a0 29 9f 21 bd 6b 52 83 bd b6 53 69 3d 46 13 19 bd
       -0.039458428 -0.06412204 0.0569646 -0.037371896
0002b0 46 f4 05 bd 1e 9b 8e bd 07 6d 7b 3d b9 50 b2 bd
       -0.03270366 -0.0696318 0.061383273 -0.08706803
0002c0 5f 0d 0e bd 5e 08 67 bd 8a 86 a5 bd fd 13 a0 3b
       -0.03468072 -0.056404464 -0.08082302 0.0048851953
0002d0 7f 7e be ba 10 42 59 bd 22 10 a2 bd f2 1f b3 3b
       -0.0014533548 -0.053041518 -0.07913233 0.0054664547
0002e0 ca 25 0e bd 29 61 5a 3d ce 6e d3 bc ee 2b 6d 3d
       -0.034704007 0.053315315 -0.025809672 0.057903223
0002f0 56 ad 8c 3b 1b ce 74 3d 84 d1 de bb 2b 09 1c 3d
       0.004293124 0.05976687 -0.0067998786 0.03809468
000300 07 67 95 bc ce 08 62 bd d7 ba 6d bc dd b6 e9 ba
       -0.018237604 -0.055184178 -0.014509878 -0.0017830987
000310 d0 49 d1 bc d0 54 80 bd bd 34 ad 3c 52 2f 9a bd
       -0.025547892 -0.06266177 0.021143312 -0.07528557
000320 43 95 5d bb 84 40 55 3d f7 4b 8e 3b 8f 54 9b bd
       -0.003381089 0.05206348 0.004342552 -0.07584488
000330 45 ba 5c bc e0 d3 7e bd ab 18 77 3d b9 84 3f 3b
       -0.0134721445 -0.06221378 0.06032626 0.0029223396
000340 b1 b8 0c bd ad 2b dc 3b 4a 8a a1 bc 27 85 3b 3d
       -0.034355823 0.0067190737 -0.019719262 0.04578128
000350 8f ad 57 3d ad d4 00 3c 3c ba c5 3c 96 d3 53 bd
       0.052655753 0.007863206 0.024136655 -0.051715456
000360 2d 94 3e 3d 76 4b 33 bd 02 1d 94 3d 1e 35 1e 3c
       0.04652803 -0.043773137 0.07232095 0.009656219
000370 fa 7d 42 3d fe 69 ab bb 49 16 d8 bc d0 2f 93 bc
       0.04748342 -0.005231141 -0.026377814 -0.017967135
000380 44 52 6f bd da ca 9e bc db c2 9c bc 34 87 06 bd
       -0.058428064 -0.019383837 -0.019135883 -0.032843783
000390 a7 f4 66 3d 34 f5 bc bc ba 4f e4 3b 4a 7e 50 bd
       0.056385662 -0.02306614 0.006967512 -0.05090169
0003a0 11 d1 b5 3d 48 41 14 be be 88 bd bc f3 1f 87 bd
       0.08877767 -0.14478028 -0.023136493 -0.06597891
0003b0 e0 3d 93 3d 96 c4 81 bc 36 42 34 3c 33 c1 5b bc
       0.07189536 -0.01584081 0.011002114 -0.0134127615
0003c0 14 6f 88 bc c0 dd 11 bd cd f4 39 3d 3a 26 95 3c
       -0.016654529 -0.035611868 0.045399476 0.018206704
0003d0 74 4d 33 bd dc fe 36 3d 7f e0 73 bc 6b 34 c1 3d
       -0.043775037 0.044676647 -0.014885067 0.09433826
0003e0 c9 10 e1 3c c6 d3 a0 bc 55 25 4c 3c 45 cc 35 3d
       0.027473824 -0.019632231 0.0124600725 0.04438426
0003f0 6b f0 17 3d 4d 2c 58 3d c2 05 79 bd 86 29 a1 3d
       0.037094515 0.052776624 -0.060796507 0.07869248
