inventory/ark_material.onnx (onnx, 555942 bytes, 8 tensors)

35 f4 [8, 3, 5, 5]
00000000: e057 6a3d 752f 1cbd 235d 63be 67bc 39be
00000010: dc2f 9abe d198 1abe 9ed3 6d3d 3431 adbd
00000020: 57a0 9cbd 1c59 bbbe 9ccc 8bbe 373d 6e3e
00000030: f723 9bbd 5ec4 3dbd 5346 ec3d c5b8 e3bd
00000040: 577d c0bd 84de 483e d1a9 cebc e504 afbd
00000050: 0901 0ebe 087d 5dbe a54f 163c 29fe bc3d
00000060: ffd1 273e 557f a63d 342b bf3d aaef 91be
00000070: 30c5 a7be 2ac5 a33d cc7d 6fbd 4367 9e3d
00000080: 9a98 98be 5083 52bd ebc4 2dbc 1ad9 21be
00000090: 3778 e6bd a573 19bc 7bfa 213d 6e62 a0be
000000a0: add0 2ebd 31a2 273e c1a4 86be 438b a0bd
000000b0: ec90 debd 2fc3 2fbe 691e 233e b571 31bc
000000c0: 3cf9 823e 84bb e13d 4a2e 6ebe f336 86bc
000000d0: 5bd4 30bc dd36 a53d c4e6 3ebe 0b4f 60be
000000e0: 7149 4cbe 52ec 1d3e d29e 8d3e eb5c 1ebe
000000f0: 2d9c 98be f139 463e 5513 033e dea2 3abe
00000100: ac8c e1bc 7d6a fdbc b34d 16be 22a7 ba3d
00000110: e98d 84be dfd0 003e 6b46 25be 6783 65bd
00000120: af83 313c 7626 71be 835e 1bbe c078 cd3e
00000130: f1ca 463e db97 2a3e dca5 4abc 3fa3 bcbe
00000140: a90d f73d 0c51 46be 651b 063f d10b 8abe
00000150: cf91 d5be caca 363e bb9b 1ebc 4611 eb3d
00000160: eedb ef3e 39c8 a63d 12f6 56be a471 d93d
00000170: 6911 543d f366 1ebe e705 f73e a3ce 4d3e
00000180: 4711 1c3f 35d4 1b3f 0d52 71bd bd3b ee3e
00000190: 1522 a0be e08f d9bd 39ef 623e 23e0 0abf
000001a0: 48c9 22bf af99 51be a3ed c6be 145a 74bd
000001b0: 6fb7 3a3e 299b 75be acf5 dc3d ef26 a23e
000001c0: 2497 1fbe 53c0 c7be 0388 d9be 9a70 f03e
000001d0: a5ed 663e 5347 cd3e fca9 48be 065c 603d
000001e0: 7946 773e 5edb 4d3e 7e87 a2be bc1d 2dbf
000001f0: 9b69 65bd 742b eb3d eff6 973e 2443 a9bc
00000200: 3ac7 adbc a994 07bf 47b6 cc3e caae 04be
00000210: dfb2 263e 8b28 513e 5ead a7be c8e8 adbe
00000220: 4f3b a53e fe90 b0be a1be a0be 4b67 493e
00000230: d2ec 0dbc 8e31 3d3e f56a babe 3a21 923c
00000240: 0065 43be 076d e63e a58f e5bd ba27 3ebe
00000250: ed52 00bf d4d0 dcbe dde2 3a3e 6bc3 763e
00000260: a466 223d 2704 7fbe c265 f83d b6fc ebbe
00000270: 0f88 383d 5395 043e d04b e23c 8941 833e
00000280: 19e2 6ebe 124d 48be 7666 9c3e 5144 ac3e
00000290: d1d1 983e 27cd d7bd 75a7 cbbe 7903 84be
000002a0: 2c6c 01bc d3ab 013e de32 1d3e 5194 c63e
000002b0: 6422 083e 37ba ee3e 18a1 0cbd 96a0 953e
000002c0: 8fa4 c73d ed9e e53e f73e 163d d35c 833e
000002d0: ff6b 11be c6de 81be c89f 583e cdfe 9e3d
000002e0: 7fe3 2ebe c7ba 8bbe 21b6 113e e4dd 263f
000002f0: 1755 973e 2093 223e dbcd a2bd 64e7 183e
00000300: 39af f33e b42b 543e ac4e 873d 75a5 59bd
00000310: dbe3 ac3d 36e1 523e 220a f73e f614 81be
00000320: 1373 57be 8eee fdbd 5c06 b3be 1077 71be
00000330: 2d1f 213d 219a 343e 3fed afbe 23cb fabd
00000340: 8c7a 4b3d a9e7 48be b740 7ebd 017a 7e3e
00000350: 17be a0be b73d bd3e 5a4a 9abe 65c2 debc
00000360: 23e0 f4bd 66cf d33d e845 9e3e e18d d3be
00000370: 4071 4fbd fa9b d53e 8f70 043f 4807 86be
00000380: 8123 77be 1b2b 12bd 4f6c 813e f034 173e
00000390: e31f 6f3b 7277 d2be bf39 903d 6c3f 0a3e
000003a0: 6f9f d23e 6275 8f3e a535 b3be ba2b a0be
000003b0: c7f9 01be 7d3b c43d 015d 49be fe37 223e
000003c0: 7080 55be 44e6 d23d d671 413e 75e0 4a3e
000003d0: 2892 f539 2cfd b8bd a653 c8bd b488 38be
000003e0: d8fe cbbd eebf d03e 2e6c bc3e 2ff7 503e
000003f0: ff51 133e cfdb 133d 2d83 073e 72a5 afbe
0.05721271 -0.038131196 -0.22203498 -0.18138276 -0.3011464 -0.15097357 0.058063142 -0.084566504
-0.0764777 -0.36591423 -0.27304542 0.23265539 -0.07575219 -0.04632985 0.11536851 -0.11119226
-0.09398907 0.19616133 -0.02522746 -0.085458554 -0.13867582 -0.21629727 0.009174262 0.09228165
0.16388701 0.081297554 0.09334412 -0.28503162 -0.3276763 0.079965904 -0.05846958 0.07734539
-0.29803926 -0.05139476 -0.010606031 -0.15805474 -0.11253398 -0.009365951 0.039545517 -0.31325096
-0.042679477 0.16370465 -0.26297572 -0.07839062 -0.108674854 -0.171643 0.1592957 -0.0108303325
0.25580776 0.11022094 -0.23259845 -0.016383624 -0.010792817 0.08067105 -0.18642718 -0.21905152
-0.1994989 0.1542218 0.27660233 -0.15465133 -0.29806653 0.1935804 0.12800343 -0.18226191
-0.027532898 -0.030934567 -0.14678077 0.09113909 -0.2588952 0.12579678 -0.16140144 -0.05603352
0.0108346185 -0.23549828 -0.15172772 0.40131187 0.19413354 0.16659491 -0.0123686455 -0.36843297
0.12063152 -0.19366854 0.5238555 -0.2696214 -0.41712806 0.17850795 -0.009680684 0.11477904
0.4684748 0.08143658 -0.20992306 0.10617378 0.051774416 -0.1546896 0.4824669 0.20098357
0.60963863 0.6087068 -0.05891614 0.46529952 -0.31276003 -0.10623145 0.22161569 -0.54248255
-0.6358838 -0.20468782 -0.38853177 -0.059656218 0.18234037 -0.2398497 0.10789046 0.3167033
-0.15585 -0.3901392 -0.4248658 0.46960908 0.22551592 0.4009348 -0.19596094 0.05477526
0.24147977 0.20103213 -0.31743997 -0.67623496 -0.056008916 0.114828974 0.29680583 -0.020661898
-0.021213163 -0.5296121 0.39982817 -0.12957302 0.16279171 0.20425622 -0.32749456 -0.3396666
0.3227181 -0.3448562 -0.31395438 0.1966831 -0.008662419 0.18475935 -0.36409727 0.01783811
-0.19081497 0.45005056 -0.11209039 -0.18569842 -0.50126535 -0.43128073 0.18250604 0.24097984
0.039648667 -0.24903928 0.12128784 -0.4609124 0.04505163 0.12947588 0.02762404 0.25635937
-0.23328437 -0.1956065 0.30546921 0.3364587 0.29847577 -0.105371766 -0.39776197 -0.257839
-0.007899325 0.12663202 0.15351436 0.3878503 0.13294369 0.46626446 -0.03433332 0.2922408
0.09748184 0.44847813 0.03668114 0.25656757 -0.14201353 -0.25365275 0.21154702 0.07763443
-0.1707897 -0.27290937 0.14229633 0.6518233 0.29557106 0.15876436 -0.0794942 0.14932019
0.47594622 0.20719796 0.06606802 -0.053136308 0.084418975 0.20593724 0.48249918 -0.25211304
-0.21039991 -0.12399016 -0.3496579 -0.23580575 0.039336372 0.1763692 -0.34360692 -0.122457765
0.049677417 -0.19619621 -0.062073436 0.24851228 -0.31395027 0.36961147 -0.3013485 -0.027192304
-0.11956813 0.103422925 0.3091271 -0.41319183 -0.050645113 0.41720563 0.5173425 -0.2617743
-0.24134637 -0.03568564 0.25277945 0.14766288 0.0036487512 -0.41106755 0.07042264 0.13500756
0.41137263 0.28019243 -0.35001865 -0.3128336 -0.12692939 0.09581659 -0.19664384 0.15841672
-0.20849776 0.10297826 0.18891081 0.19812186 0.00046838936 -0.09032664 -0.0978158 -0.18020898
-0.09960717 0.4077143 0.36801285 0.20406793 0.14386748 0.036098298 0.13233633 -0.34305912

36 f4 [8]
00000000: e3e9 f63f 3e74 f13e 5ee8 bfbf 0adc dfbf
00000010: 418d 06be 039a 253f 02ff 8d3f d56d a63f
1.9290127 0.47158998 -1.4992788 -1.7489026 -0.13139822 0.6468813 1.1093447 1.3002268

38 f4 [16, 8, 3, 3]
00000000: 8d53 32be cd17 9abf cec1 c3bf cabd c13f
00000010: 2b74 90be 85ac d0bf 2908 1e3e 5dff 2f3e
00000020: 9d65 1ebe e2fc 8abf 8d14 573f ee0a 2b3e
00000030: c86d 983f f926 c6be aa24 d7be 51ee 4fbc
00000040: a149 a2bf d4bb 813f 0b17 9fbf b35a b93f
00000050: 6796 753e c404 49be c4ec 0040 ef5f 4b3f
00000060: 1665 e9be e009 e5bf 8cba fcbe 7d41 0f3f
00000070: 5bb2 6fbf 9ffa 97be f34f 723f cec2 acbf
00000080: 2d36 15bf 272e 1d3f 22a1 353f 9ddd 6ebf
00000090: 9dda d53e cf15 a5bf 8573 1d3e 69a4 a7bf
000000a0: 53bd 1bbe 2450 40be ea8e 913e 596b 1940
000000b0: c386 1b3f 3175 e53f a754 1ec0 c62e a33f
000000c0: f608 eebf be32 b6be 919d aa3f 52d1 553f
000000d0: 808e 583f 8e02 213e c2dc 92be 1754 973f
000000e0: 9084 a93e 4ed7 903e acf5 5abf a9f8 803f
000000f0: c13e e93e cd05 8bbf b9af 803f e97c 45bd
00000100: 2057 0040 de49 3ebf 81fa 84bf 6752 763f
00000110: 79ea 063f 7df2 63bf 9473 3d3f 2735 0dc0
00000120: c003 5a3f c325 0d3f 183d 35bf 6d9c b63d
00000130: d86f 433f d0e1 6c3f 0884 19bf 9873 203e
00000140: 672e 3c3f 10a3 75be a965 033f 7ae7 eb3e
00000150: dd39 b83e 29e5 a23f 25e8 0a3f e9c3 94bd
00000160: 626a 50bf 737a 67bf fef5 5dbd 4d5c 93bf
00000170: 92c6 b33f b18c 87bf 04de 283f b5fa 0c3f
00000180: 85f7 253e cfcf 9cbd 25d6 84bf 1a10 b13e
00000190: 3d08 86bd 438c ffbe 02da d33e 679a 423e
000001a0: 3831 0e3e 2996 c8be 604a 3b3e 3c5c e4bd
000001b0: 36e0 adbe 3bfa 8b3f 74c1 0abe 0227 bc3d
000001c0: c602 06be a42f 00bf 36ba a5be b093 16c0
000001d0: d9b5 5ebf 017f 7fbf e3e6 f8be bd2e 7cbe
000001e0: 8c28 b63f e0c3 74be fcf3 a8be 402b 6bbf
000001f0: 3db0 36bf 83d8 cb3e 8a4e 313f 1d91 9cbf
00000200: 612d 2e3e 225e 813f 5796 363e 39da d8bf
00000210: 5c02 e43e 8fa7 49be fd56 f1bf a840 04be
00000220: 0f95 cabe 1cc7 a53f 8cf1 91bd 526d b9bf
00000230: 17d3 66bf 9c0d 59bd 75f9 bf3f 18f5 a93e
00000240: 57e0 413f 4c93 633c f1eb 35be 64d9 0d3f
00000250: 67b6 a13f 6c6a b33d 8b20 7d3e b653 a43e
00000260: 1db4 723e 6bb8 29bf 462d c63f dd07 96be
00000270: 3619 123f fff0 213e dfe9 4dbf b873 973e
00000280: e20e 5a3f 30b5 3ebe d4ca 6dbe d058 e63e
00000290: 000f 8fbf 1e85 34be 380a 663f 241d 5f3e
000002a0: 6ad3 92be d5ec 9ebd 6bad 4b3e 67ff 88bf
000002b0: d5c1 4c3f 58a6 833e 9f0b acbe f660 0e40
000002c0: c6a0 433f 6c4f d8be c393 2f3f 91ab 94bb
000002d0: 30de 013f 8631 6e3f f001 b23e 6f5b 083f
000002e0: 4c31 cf3f e128 66be 3c94 8a3d fc68 d8bf
000002f0: a6d0 18bf a4fd c2bd a73e 473f 1137 bfbe
00000300: 2f93 c2be 70c4 773f 49aa 81bf 692b 92bf
00000310: f07b 17bf 018a 87be 159f adbe 4c91 09bf
00000320: ae6a 35bf a9c8 39bf 50bb 3bbf 0a59 e13e
00000330: e7f7 aebd fa56 1c3e f940 813f 9b37 6d3f
00000340: 62b7 3fbf febf ecbe fcb6 903e 573d 963f
00000350: 8ef4 95bd 9f8d 933e 6c63 ff3d 8dfa 22bf
00000360: 574e e93c 1a53 eb3e 0450 01bf 8962 6fbe
00000370: 3563 acbd 8df0 52bd 1bc5 9c3f 3af0 2cbf
00000380: 8dc2 0abf f228 3cbd d53e 0cbd bcec 6a3f
00000390: 8cfb 123e db9e 183d 8168 15be 7e70 e5be
000003a0: 520a c33e 908f 31bf 43d9 1fbf dd93 91bd
000003b0: a1cf fbbe 49c1 223f cdaf 39bf a0ab d23e
000003c0: 68b4 5dbe ca79 cabe 585a 083e 3217 9b3e
000003d0: bd23 123e 5c6e 5bbe 7dae 3b3f 54df 8fbf
000003e0: 27cd 13be 03d1 06be 9663 05be 892a 2dbe
000003f0: 9327 53bf bb81 a8bf c7a6 a4be 62d4 f9be
-0.17414685 -1.2038513 -1.529352 1.5136044 -0.2821363 -1.6302649 0.154328 0.17187257
-0.1546845 -1.0858424 0.84015733 0.16703388 1.1908503 -0.3870161 -0.4202016 -0.012691096
-1.267872 1.0135446 -1.2428907 1.4480804 0.23983155 -0.19630724 2.014451 0.7944326
-0.45584935 -1.7893639 -0.49361074 0.559593 -0.93631524 -0.29683396 0.9465324 -1.349695
-0.5828579 0.6139855 0.70948994 -0.93306905 0.4176835 -1.289728 0.15376098 -1.3097049
-0.1520894 -0.18780571 0.28429347 2.397177 0.60752505 1.7926389 -2.4739168 1.2748649
-1.8596485 -0.35585588 1.3329335 0.8352252 0.8459244 0.15723631 -0.2868405 1.1822537
0.3310895 0.28289264 -0.85531116 1.0075885 0.4555569 -1.0861145 1.0053626 -0.048214827
2.0053177 -0.7433146 -1.0388948 0.96219486 0.52701527 -0.8904188 0.74004483 -2.2063692
0.8516197 0.55135745 -0.70796347 0.089165546 0.76342535 0.9253206 -0.5996709 0.15669096
0.73508304 -0.23987985 0.51326996 0.4607504 0.35981646 1.2726184 0.54260474 -0.072639294
-0.8141233 -0.9042122 -0.054189675 -1.1512543 1.4044974 -1.0589811 0.6596377 0.5507005
0.16207702 -0.07656824 -1.0377852 0.34582597 -0.0654454 -0.499117 0.41377264 0.19004212
0.13885963 -0.39177063 0.1829009 -0.11150405 -0.33960122 1.0935739 -0.13550359 0.09187128
-0.13086995 -0.50072694 -0.3236863 -2.3527641 -0.8699623 -0.9980317 -0.48613653 -0.24627204
1.4231124 -0.23902845 -0.32998645 -0.9186287 -0.7136267 0.39813623 0.69260466 -1.2231785
0.17009498 1.0106852 0.17830788 -1.6941596 0.4453305 -0.19692825 -1.8854672 -0.1291529
-0.39566848 1.2951388 -0.071261495 -1.4486487 -0.9016585 -0.052991495 1.4998003 0.33194804
0.7573294 0.013890099 -0.17765786 0.55409837 1.263379 0.08760533 0.24719445 0.32095116
0.2370152 -0.66297024 1.5482566 -0.29302874 0.5706972 0.15814589 -0.80434984 0.29580474
0.8517896 -0.18623805 -0.23221904 0.44989634 -1.1176453 -0.17628905 0.8985934 0.2178846
-0.2867692 -0.07760016 0.19890372 -1.0702943 0.79983264 0.25712848 -0.33602616 2.224668
0.76417196 -0.42248094 0.6858484 -0.004537054 0.50729656 0.93044317 0.34767103 0.53264517
1.6186919 -0.22476532 0.06766555 -1.6907039 -0.5969337 -0.09521034 0.77829975 -0.373467
-0.38002917 0.96784115 -1.0130092 -1.1419498 -0.5917349 -0.26472476 -0.33910432 -0.5373733
-0.70865905 -0.7257181 -0.7333269 0.44013244 -0.08543377 0.15267554 1.0097953 0.9266297
-0.74889195 -0.46240228 0.28264606 1.173747 -0.07322036 0.28818986 0.12470135 -0.6366356
0.028479738 0.4596184 -0.5051272 -0.23377432 -0.0841736 -0.05149894 1.2247652 -0.67554057
-0.5420311 -0.045937486 -0.03423961 0.9176748 0.1435377 0.03726087 -0.14590646 -0.44812387
0.3809381 -0.69359684 -0.6244089 -0.07108281 -0.49181846 0.6357618 -0.72533876 0.41146564
-0.21650851 -0.39546043 0.13315713 0.30291134 0.14271446 -0.21428818 0.73313123 -1.1240029
-0.14433728 -0.13165669 -0.1302627 -0.16910757 -0.8248226 -1.3164591 -0.3215849 -0.48794848

39 f4 [16]
00000000: 223b e83e fb74 c63f 5ab7 11c0 db91 1540
00000010: 51fb 07be 2d55 853f 15f3 03c0 956c 3540
00000020: f420 6f40 00da ec3f 8799 2e40 b5be 29c0
00000030: f266 7ebe 69f1 66be 45bf 5d3f e143 3dbf
0.45357615 1.550445 -2.276816 2.3370273 -0.13279463 1.0416619 -2.0617115 2.8347523
3.7363863 1.8504028 2.7281206 -2.6522648 -0.24843958 -0.22553028 0.8661998 -0.739317

fc.0.bias f4 [454]
00000000: 3f1d 86bd d534 3abd 248f 3e3d a0e9 f23d
00000010: 1f75 c83d 5948 f83a 9560 90bd bbbd 00bd
00000020: 0a9c e23d f556 fbbc 22f4 e83d 46b5 023c
00000030: 1401 343d 19af 72bd b019 ab3b 78fa 11bd
00000040: 9852 d7bc 65db 813c 5fd3 2e3d 1a4f a4bc
00000050: e7c1 f83d 016b ff3d 8225 b93d aa1b 8e3d
00000060: b149 373c c560 e53d 7e2e c33d 531f c43c
00000070: c01c 1e3c 45ce 873d c272 393c 2ccd b03d
00000080: 9fc8 38bc ecef 573d 399a ebbc 6a35 d13b
00000090: eb69 233e 15f5 733d c9c2 553d e75c bf3d
000000a0: 865e 8a3b f031 8c3c 67e7 b23d e38e f83d
000000b0: ef1b 8c3d 7860 ecbb e7cd 383c 6c5b 0dbc
000000c0: e4dc 183e f9d0 003e d761 923d 5a0b 723d
000000d0: 2fb3 9bbd aef9 6e3d c2d4 953d 0c0b 5e3d
000000e0: ce3d 3fbd 965a 78bc b6c5 193e f6f0 9d3d
000000f0: 17c1 043d 77a6 13bd b8cf 3e3d 52cc 74bc
00000100: 600d 6a3d b22b 893d 711f 17bb d625 543d
00000110: a801 813c ceb6 933d 466a 47bd 39c6 3c3d
00000120: a8c7 cb3a 6f05 953d b795 7e3d 96c2 ab3d
00000130: bb9a 703d d84d 873a 97b8 09bd 3bfb 1ebd
00000140: 59ce 98bd 1589 013e 166e d0bb b5b4 b43b
00000150: 85ef 7b3d 0f76 a83d a501 023e 1bd1 993d
00000160: 4582 223c 28b4 a03d c896 2ebc f5f1 a43d
00000170: 13ef 9c3c 8417 983c f7b3 c8bc f555 4a3d
00000180: 95fd 893b 2ff0 163d eeef 0d3d 85ce b13c
00000190: bafb 32bd a18f 0dbb 91c9 3bbd d285 263d
000001a0: 12d3 fe3d 89e0 b43d 7f92 13bd ad52 8e3d
000001b0: d943 3abc 7f46 133e df37 acbd 50eb abbc
000001c0: 84f2 c7bc e26d d33c 23d0 833c 8414 a43d
000001d0: b90d 8dbd 24dc a4bd 5928 bd3d aa29 603c
000001e0: f250 8abd 032c e63d 8871 ef3b bc41 df3c
000001f0: d9e6 213d fe4b fb3d 7dea 19bd 658c 7cbd
00000200: 8686 c3bc f7e1 abbb 5318 a33d 9550 fd3c
00000210: 592c b73d e42d d3bc a88c c03d 4246 81bd
00000220: a534 403d ecf4 2938 dd8f c53d f3cb 69bd
00000230: 6f40 f9bc 12e1 53bd cc16 0dbd eece ab3d
00000240: 7b13 e33d 815b b43d 4715 8e3c 510c b83d
00000250: 8929 81bd 6289 f73d 9c96 5cbd 4f9c cc3c
00000260: 5e94 5f3b f7d1 6cbb ed58 f63d d5eb 553d
00000270: 2424 46bd 48ee d83d 34fb 9cbd f264 073d
00000280: 4feb 8a3d 4552 ab3d 1c52 da3d faa6 2d3e
00000290: 4418 d93d d52f 41bb 9325 d13d 0f32 963a
000002a0: 8b97 283d 7170 b1bc 3cee bb3d 9b11 eebc
000002b0: 66bc 2fbd fe67 c33d 4fd4 293d bb27 d43d
000002c0: 3d6e 7abc fe04 95bc 0246 d93d 264c e83d
000002d0: 720f ef3d 9993 f63d be85 953d 1627 0e3e
000002e0: f05c 8d3a dfe0 013e 6f56 60bd b027 103e
000002f0: 821e 8e3d 8956 6fbb 059f be3c e371 b03d
00000300: 7d3e 823b 45a7 acbc f689 9cbb 542a ba3d
00000310: 37f3 7abc e5e4 f8bc 1617 8ebc adc7 633c
00000320: 59bf cd37 fe00 053e ed7d 1a3c ed8a bc3c
00000330: ab38 af3d 18fc c53d dc24 3cbc da0e f43d
00000340: 89e0 c53d 35a5 1f3c a7c5 073d 69a8 e13b
00000350: af29 2f3d 545e babd c24b c8bc c49c 4a3d
00000360: fbb2 c23d 1da0 9e3d 44c9 8c3d 248a 983c
00000370: 8b5f 6c3d c3be 473c 4bb9 c33d 96cb f0bc
00000380: 0130 173d 2209 8f3d c2db 9e3d 5090 533d
00000390: 179f d83d 5159 093e 6836 a2bc 4e23 a43c
000003a0: 41d4 9d3d 006a a53d 7670 933d 9785 b83d
000003b0: 0181 153d db68 483d 608d d93d 7585 c63d
000003c0: f5d8 f13d 5259 ee3d 7cbe 07bc f30e 88bd
000003d0: 867a 103d 4db2 57bd f69c 8e3d 52f3 debc
000003e0: 186a 643d 4659 da3d 4a42 a23d e5d5 e2bb
000003f0: 1544 42bd 4cb5 473d 4945 173d da1a db3d
-0.06548547 -0.04546054 0.04652323 0.11860967 0.09787964 0.001894246 -0.070496716 -0.03143094
0.11064918 -0.030681113 0.1137469 0.007977789 0.04394634 -0.059249017 0.005221568 -0.035639256
-0.026284501 0.015851686 0.042682048 -0.02005725 0.12146359 0.12471581 0.09040357 0.0693887
0.011187003 0.11200098 0.09530352 0.023940718 0.009650409 0.0663114 0.011318864 0.086328834
-0.011278301 0.05271904 -0.028760063 0.0063845413 0.15958373 0.0595599 0.052187715 0.093438916
0.004222694 0.017113656 0.08735543 0.121366285 0.068412654 -0.0072136484 0.01127956 -0.008627754
0.14928013 0.12579717 0.07147568 0.059092857 -0.07602536 0.05834358 0.07315971 0.054209754
-0.0466898 -0.015158316 0.15016827 0.07711975 0.032410707 -0.036047425 0.046584815 -0.014941292
0.05714166 0.06697787 -0.0023059512 0.051793896 0.01574786 0.072126016 -0.048685335 0.046087477
0.0015547173 0.07276427 0.062154498 0.08386724 0.058741312 0.0010322882 -0.033623304 -0.03881381
-0.07461233 0.12649949 -0.0063607795 0.005514706 0.06150772 0.08225643 0.1269594 0.07510587
0.009918754 0.07846862 -0.010656066 0.08053962 0.019156968 0.0185659 -0.024499876 0.04939838
0.0042111375 0.03685015 0.034652643 0.021704921 -0.043697096 -0.0021600502 -0.045846526 0.040654965
0.12442602 0.08831889 -0.03602838 0.06949363 -0.011368715 0.14382361 -0.08409094 -0.02098623
-0.024407633 0.025809232 0.016090458 0.080117255 -0.06887383 -0.08049801 0.09236211 0.0136818085
-0.0675372 0.11238863 0.007307235 0.027253024 0.039526794 0.12270354 -0.03757714 -0.06165733
-0.023867857 -0.005245443 0.07963624 0.030922214 0.089440055 -0.025778718 0.09401828 -0.06312229
0.046925206 4.052084e-05 0.0964658 -0.057079267 -0.030426232 -0.051728316 -0.03444557 0.08389078
0.110877 0.088065155 0.01734413 0.08986724 -0.0630675 0.120867506 -0.05385457 0.024976877
0.0034115533 -0.003613589 0.1202868 0.05222686 -0.04837431 0.105923235 -0.07665101 0.033055253
0.06783163 0.08365301 0.10660192 0.16958228 0.106003314 -0.0029477973 0.10212245 0.001145901
0.041160148 -0.021660062 0.09176299 -0.02906113 -0.04290428 0.09541319 0.04146224 0.103591405
-0.015285072 -0.018190857 0.10609056 0.11342649 0.11672868 0.12039871 0.073009 0.13882098
0.0010785144 0.12683438 -0.05476993 0.1407764 0.06939413 -0.0036520085 0.023269186 0.08615472
0.0039747343 -0.021075854 -0.0047771884 0.09090105 -0.015316776 -0.030382583 -0.017344993 0.013902587
2.4527008e-05 0.1298866 0.009429437 0.023015464 0.085557304 0.09667224 -0.011483397 0.11916895
0.09661967 0.009743978 0.03314748 0.006886531 0.042764362 -0.09100023 -0.024450187 0.04946591
0.09506794 0.07745383 0.06874326 0.018620558 0.057708304 0.012191477 0.09556826 -0.029393952
0.036911014 0.06984164 0.07756759 0.0516513 0.10577219 0.13412978 -0.019801334 0.020036366
0.077065 0.080768585 0.071991846 0.09009855 0.03649998 0.048928123 0.10622668 0.09693424
0.118089594 0.1163813 -0.008285161 -0.06643476 0.035273097 -0.052660275 0.06963532 -0.027215634
0.05576524 0.10661559 0.079228 -0.006922471 -0.04742821 0.048756883 0.03693131 0.10698481

fc.0.weight f4 [454, 64]
00000000: 364b a1bb e622 83bd 7d70 44bc ee90 533d
00000010: f2d0 dd3d a5b0 b53c 5501 aabd 8afb 62bd
00000020: f4f7 44bb 0cf9 48bd 0cfd b33d 9834 b2bd
00000030: 60f9 073c 60a0 7bbc 79a8 e13d 2575 023e
00000040: ca79 6d3d 3efb eb3d 8d68 d73c b5c8 c3bc
00000050: d0bf 47bb 7292 713c b8e2 12bc 50d5 12bd
00000060: c52f f4bc 71d8 c93d 6f2d b5bd 259f 2c3d
00000070: ef1c 7dbd cb7a 08bd 03a3 f0bd 838e 0ebd
00000080: 8dbe 703d 8114 b4bc 143b b1bd a72b 873c
00000090: b0a8 913d abf3 cb3d 7da7 5f3d a2a6 1a3e
000000a0: 5b8e ea3d 277f 1e3e 952f 0d3e 7921 a63d
000000b0: 580b 5ebc 7e36 82bd 1676 e33b 82fe 8c3c
000000c0: bd92 883d 95a8 f9bc 2a33 103e 6f6a e5bd
000000d0: 552a 263b 5534 cfbd 184a 093d 4efc a4bd
000000e0: 1762 acbc ef23 11bd 4561 733d 523b f23c
000000f0: 68af 023e 50a1 0a3e 1e74 8a3c 2b52 df3d
00000100: 66dc 293e 881e f2bc 3b83 8bbc b564 113c
00000110: bce9 66bd 7b51 403e fede dbbc e8e0 2dbd
00000120: b300 993d 2de3 02bd 70f5 2d3d 4ff9 eebd
00000130: 5ecb 2abd 2821 8ebd d06c 513d 3051 d33d
00000140: be7a 363d 4b3f 163e 0cc7 943d 257c 193e
00000150: e360 4c3d e8db 0e3d c181 86bb 0f23 4abd
00000160: 462c 063e 6045 713d ef09 db3c a109 efbd
00000170: 1fff e33d e6e5 08be 2ce8 353e ca99 a3ba
00000180: be97 dcbc f3fd 96bd 02ec 2dbd d24f 15be
00000190: 5e83 c0bc 0a87 343e a684 293e 3014 ff3c
000001a0: 397a a33d 8aae 1a3e 2d00 87bd ff39 90bc
000001b0: 45c8 543c e367 4fbd e6e3 f03c 1010 e5bc
000001c0: ab6a f53c 6068 b23c 5a35 e43d 60d9 543e
000001d0: 546b 68bd 20ea 5cbd 561d 3fbd 494f b3bd
000001e0: c544 593e 36d2 42bd cbc4 04be 25fa 08be
000001f0: e16c 993d 2eca ce3c 3f3f 113e b8a0 473d
00000200: e0fe 61bd 9149 c03d 95ee 0d3e d04b ff3c
00000210: 672d d93b e8e8 083e 91e5 0a3e b2fa 6c3d
00000220: 33a6 8abd f557 6ebc 6df3 3d3c 4b6c 87bd
00000230: 4853 873d 12f2 283c 123c 7bbd 0349 56bd
00000240: c5ae 25bd d1a0 823c cafe acbd 2d90 8fbd
00000250: e40e 4c3d 5785 073e 64ee bebd c344 393d
00000260: c807 d7bd 5b60 9dbd c82f 8ebd c180 4fbd
00000270: a316 67bc 2435 873d 979c 50bc 1150 1e3d
00000280: 2890 e1bd ba81 163d 1e8d 853c 939a ec3d
00000290: 5a4e 6d3d 8e35 623d 80c0 563b b2c0 34bd
000002a0: 0db6 23bd 91d3 163d 670e a93d b0f4 513e
000002b0: eecc c9bd 9e1a 51bd 477a 94bc ba7e 0bbe
000002c0: 7615 383b 04b9 95bc c08f 063e 1b38 02bd
000002d0: a309 9cbd baf4 adbd 10d9 7a3e 91f3 a3bc
000002e0: 4fab d1bd da2a a33d 7f75 1f3e 3ca1 6c3b
000002f0: 0f93 1ebd 4cce d73d b952 03be a235 ebbd
00000300: c89d 8e3a 3906 433e 9323 54bb 7ad3 853d
00000310: 07db 803c 9271 79bd 7892 09be e6b6 ac3b
00000320: 2625 6f3d b05e f93b 1efc 8cbd 7772 303d
00000330: 6c81 93bd b43d f7bd a304 9f3d b7a3 f6bd
00000340: baaf dd3d e751 7abd 3880 f2bc 88f4 83bd
00000350: fa1a 233d 241d 4d3d baa5 813d aea6 7fbd
00000360: 8bf6 623d 4e5d da3d b35f 8bbd 3c82 fd3d
00000370: f8f5 d23d 7cb6 df3c 05a2 293d 869b d63a
00000380: 16f6 60b8 93a1 743d 73c1 e53d 1b4c a5bd
00000390: 00f9 cf3d 8272 b53b b356 933c b6f3 06be
000003a0: 0271 30bc 7117 a8bc cb6c 92bd 6c9c dfbd
000003b0: 02b2 debb 0d89 343e ab3a a83c e254 fd3d
000003c0: 665b 52bc 8fd8 d0bc 3b8c b83c 2f30 a93d
000003d0: f3b6 9ebc d012 dfbc 4894 0f3e 7e15 033e
000003e0: ebc3 913d 3086 f03c fd75 26be 1339 94bc
000003f0: c4ff d53d 2892 3f3d 35cd 463d 8a40 ba3d
-0.004922296 -0.06403141 -0.01198971 0.051651888 0.10830869 0.022178957 -0.08301035 -0.055415668
-0.0030055018 -0.049065635 0.08788499 -0.08701438 0.008299202 -0.015358061 0.11018462 0.1274
0.057977475 0.1152253 0.02629497 -0.023899416 -0.003047932 0.014744388 -0.008965187 -0.035847962
-0.029807935 0.09855736 -0.088465564 0.04214396 -0.06179517 -0.03332023 -0.11749842 -0.03480388
0.058775473 -0.021982433 -0.086538464 0.016500307 0.07112253 0.09958585 0.05460309 0.15102628
0.114529334 0.15478192 0.13787682 0.08111853 -0.013552509 -0.0635805 0.006941567 0.017211203
0.06668613 -0.030475894 0.14082018 -0.11201941 0.0025354822 -0.101174034 0.033517927 -0.08055936
-0.021042867 -0.03543466 0.059418935 0.029569302 0.12762225 0.13538098 0.016901072 0.10904344
0.16587982 -0.029555574 -0.017030349 0.008874108 -0.05637525 0.18781082 -0.02683973 -0.042450815
0.074708365 -0.031954933 0.042470396 -0.116686456 -0.041697852 -0.06939918 0.051129162 0.1031822
0.04455065 0.14672582 0.07264528 0.14988764 0.049897086 0.034877688 -0.0041048233 -0.04934984
0.13102826 0.05890405 0.026738135 -0.116717584 0.11132645 -0.1336895 0.17764348 -0.0012481746
-0.026927825 -0.07372656 -0.042461403 -0.1458123 -0.02350014 0.17629638 0.16554508 0.031137556
0.079822965 0.15105644 -0.065918304 -0.01760578 0.012987201 -0.050636183 0.029405545 -0.02796176
0.02995809 0.021778286 0.111429885 0.20786047 -0.05674298 -0.053934216 -0.046658836 -0.08755357
0.2121764 -0.047563754 -0.12965696 -0.13376673 0.0749147 0.025242891 0.14184283 0.048737258
-0.05517471 0.09389032 0.13860543 0.03116408 0.006627727 0.13370097 0.13564135 0.05785627
-0.06769981 -0.014547338 0.011593682 -0.06612452 0.066076815 0.01031162 -0.061336584 -0.052315723
-0.040449876 0.015945824 -0.08447035 -0.07009921 0.04981889 0.13234459 -0.09322813 0.045231592
-0.10499531 -0.07684394 -0.06942707 -0.0506599 -0.014104518 0.06601933 -0.012732646 0.038650576
-0.11013824 0.03674481 0.016302641 0.1155292 0.05793605 0.055226855 0.0032768548 -0.04412908
-0.03996854 0.03682286 0.082547 0.20503497 -0.0985354 -0.051050775 -0.018124713 -0.13622561
0.0028088964 -0.018276699 0.13140774 -0.031791788 -0.076190256 -0.084939435 0.24496865 -0.020013602
-0.10237753 0.07967158 0.15572165 0.0036106845 -0.038714465 0.10537395 -0.12824525 -0.11484839
0.0010880763 0.19045343 -0.0032369837 0.065344766 0.01572944 -0.060899325 -0.1343478 0.0052708266
0.058385037 0.0076101646 -0.06884025 0.043077912 -0.0720242 -0.12072316 0.07764556 -0.12042945
0.10824533 -0.061113264 -0.029602155 -0.06443125 0.03982065 0.05007662 0.06330438 -0.062414818
0.055410903 0.10662328 -0.068053626 0.12378356 0.10300821 0.027308695 0.04141428 0.0016373254
-5.3634947e-05 0.0597244 0.11218538 -0.080711566 0.10154915 0.005537332 0.017985677 -0.13178906
-0.010769131 -0.02051899 -0.07149657 -0.10918507 -0.0067961225 0.17630406 0.020535788 0.12369706
-0.012839174 -0.025493888 0.022527805 0.082611434 -0.019374346 -0.02723065 0.14021409 0.12801167
0.071174465 0.02936086 -0.16255946 -0.018093621 0.10449174 0.046770245 0.048535544 0.09094341

fc.3.bias f4 [227]
00000000: 6c62 abbc 3235 96bc dc5d 09bd 4c53 b7bc
00000010: 64eb 413b c681 bbbc b14d 063d 2f5a d23b
00000020: b521 da3b 4236 80bc 2c8f 44bd 102c 53bd
00000030: 9091 33bc ec2e c3bb be9d afbc a5b3 d4bc
00000040: e9d3 ce3b 3745 b1bc 2baf 2c3c 1f23 1cbd
00000050: dbff 22bd 66f6 99bc 3989 2e3c ac28 4d3d
00000060: 7cdd 47bc 6283 803c c504 a63c 0422 b5bc
00000070: b90e 11bd 211f 493b 18d3 323c 92da db3a
00000080: 3634 bdbb 5407 01bb 6b4e 1f3c 01e7 553c
00000090: cff4 2ebd 5cba 6a3c 9418 4db9 4b4a c6bb
000000a0: 08b1 57bd e534 ccbc 709f d6bc 999d 05bd
000000b0: 2fe6 fb3b f24c c93c 6aae 273c 77a2 78bb
000000c0: ed19 06bc a89e 9ebb a75f 5abc ffed f43b
000000d0: ed29 e83c c748 94bc cc9f e3bc 287e 8f3b
000000e0: b62a 423c 64e3 cebc 206f d7bb 2fbd 433d
000000f0: f7d2 6b3b 723c 033b 6cc7 99bb f824 bbbc
00000100: 0d26 683c d47f 35bd ab81 1abb fb78 293b
00000110: 7011 863c dbbb c0ba 110c 3dbc d2d0 28bd
00000120: c4b3 f13c d8f7 113d 0bff 50bc 3b8f 37bc
00000130: 9be6 8b3c 5994 c3bc 5daa 28bc 241f a2bb
00000140: d1bd 443c b338 f63c 6799 983c ceea 133c
00000150: 65ee 043c 377a 04bc 9b39 02bd e125 ff3c
00000160: 08ba abbc 17bd 1fbc 2d00 483d 658c cfbc
00000170: feab 80bd d3cc 63bd ab4a 1ebc 06d4 493b
00000180: ff64 3ebd 5be6 3abd a5af 52bb a1d1 c2bc
00000190: b58c aabc 9dee 33bd 19d8 85bb 3d01 bbbc
000001a0: f317 c1bb 1112 283c e7d4 afba 55ef 083d
000001b0: 5584 93bd 6620 123c deac 01bc 5b9b a33c
000001c0: b913 213d decf 313c 4ae6 75bc ae4d c0bc
000001d0: 6f1d 55bb c006 58bd 3054 95bd 691b e8bb
000001e0: f929 8a3c d82d 2abd 4fc4 a73a 7d73 d53c
000001f0: f868 773c 5436 003c d738 cabc 8016 af3c
00000200: 782e 6a3c 1c74 edbc 4f5c 463d 100c f2bb
00000210: b5d8 29bb cdab 9dbb 1947 08bb 8d95 f7bc
00000220: 6fc3 14bd 3e8a 2fbd ed23 5abd d976 523d
00000230: d047 023b 1c60 15bc 4810 9e3b 2194 08bd
00000240: 1f0c bd3c e7ff 053c 505f 8dbc d8a4 8dbc
00000250: 5f4d 54bd 387b aaba 42c8 c5bc 2dab 04bd
00000260: e5b1 bebc 8828 993c f6d3 16bd 1b5d 46bd
00000270: 2fec 70bd f298 09bd 8508 0d3d 93e7 b5bb
00000280: ad13 48bd 5b20 c6bb 4388 a53c dc41 61bb
00000290: ad58 21bc 8ead 263b c405 b03c ec66 5b3b
000002a0: e8f2 de3a 0a51 4bbc 37c4 d8bb b699 67bc
000002b0: f183 03bd 3ead 173a 98a2 35bd 3d8d 92bc
000002c0: c27d a8bb bbd4 f3bb 6e8c b33c 0b8e fe3b
000002d0: e7e2 bb3c df23 1fbd 2dae cf3c 6a7d 8cbc
000002e0: 56ca 123c eb5f 99bc 1a68 983c 88d4 ce3c
000002f0: d0d4 a93c 7427 59bc 2cb0 153d 1a1f c5bb
00000300: 0f4a 883d 20b5 b63c 4e1d a23c 3cb8 0c3c
00000310: 1851 373d 9018 b93c e719 cf3c 6353 313d
00000320: 580c 69bd 6e28 b03b 1382 0a3d b1a4 1a3d
00000330: c9b3 16bd 9574 f1bb 4845 25bb 3ef5 ba3c
00000340: 408a d93c 2fe9 6bbd 0772 3abc 4bfe 663a
00000350: 4adf a0bb 0cc5 d23a 39ea 2a3d 892f 9d3b
00000360: 7605 86bd 708a 093b c2c8 94bd 34bd 56bb
00000370: ea66 92bc c722 e3bc ba6d 9ebb 0277 2dbd
00000380: 0459 a6bd 4587 43bd 3619 31bc
-0.020920955 -0.018335912 -0.033536777 -0.022378586 0.0029589767 -0.02288903 0.032788936 0.006419442
0.00665685 -0.015650872 -0.0479881 -0.051555693 -0.010959998 -0.0059565213 -0.021437522 -0.025964567
0.0063118828 -0.02163945 0.01053981 -0.03811943 -0.039794784 -0.01879425 0.010652834 0.050087616
-0.012198802 0.015687648 0.020265946 -0.022110946 -0.03541443 0.003068872 0.0109145865 0.0016773513
-0.0057740463 -0.0019688206 0.009723286 0.013055564 -0.042713936 0.014326658 -0.0001955948 -0.006051337
-0.052659065 -0.024927566 -0.026199073 -0.032621 0.007687352 0.024572823 0.010234455 -0.0037938633
-0.008184892 -0.0048406906 -0.013328469 0.0074746604 0.028340304 -0.01810111 -0.027786158 0.0043790527
0.011851003 -0.025254913 -0.0065745264 0.04778784 0.00359839 0.0020025042 -0.0046929624 -0.022844777
0.014169228 -0.04431136 -0.0023575823 0.0025859463 0.016365737 -0.0014704423 -0.011538521 -0.04121477
0.029504664 0.035636753 -0.0127561195 -0.011203582 0.017077735 -0.023874449 -0.010294524 -0.00494756
0.012008146 0.030056333 0.018627835 0.00902815 0.008113478 -0.008085779 -0.031793218 0.031145992
-0.02096273 -0.009749672 0.048828293 -0.0253355 -0.06282805 -0.055615257 -0.009661357 0.0030796542
-0.046483036 -0.04562984 -0.003214815 -0.0237816 -0.020819047 -0.04392873 -0.0040845987 -0.022827739
-0.0058927475 0.010258214 -0.001341489 0.03343137 -0.07202975 0.008918857 -0.00791475 0.01997154
0.03932545 0.010852782 -0.0150085185 -0.02347454 -0.0032518764 -0.052740812 -0.07291448 -0.0070833457
0.016865717 -0.041547626 0.0012799593 0.026056046 0.01510071 0.007825453 -0.024685306 0.021373034
0.014293306 -0.02898603 0.048427876 -0.007386692 -0.002591652 -0.00481174 -0.002079433 -0.030222679
-0.036319192 -0.042856447 -0.053256918 0.051382873 0.001987923 -0.009117153 0.004823718 -0.03334439
0.023077069 0.008178688 -0.017257363 -0.017290518 -0.0518316 -0.0013006693 -0.024143342 -0.03238981
-0.023278186 0.018696085 -0.036823235 -0.048428636 -0.058818992 -0.033593126 0.034431953 -0.0055512874
-0.04884689 -0.0060463375 0.020206576 -0.003437153 -0.009847802 0.0025433036 0.021487124 0.0033478094
0.0017009648 -0.012409458 -0.0066151875 -0.014135769 -0.03210825 0.0005786008 -0.044344515 -0.017889613
-0.0051419446 -0.007441131 0.021917548 0.0077683977 0.022935344 -0.03885257 0.025351608 -0.017149646
0.008959373 -0.018722495 0.018604327 0.025247827 0.02073136 -0.013254035 0.036544964 -0.0060156705
0.066547506 0.022303164 0.019789364 0.008588847 0.04475507 0.02259472 0.025280906 0.043292414
-0.056896538 0.0053759133 0.033815455 0.03775472 -0.03679255 -0.007368634 -0.0025218297 0.022822019
0.02655518 -0.057595428 -0.011379725 0.00088116963 -0.0049094306 0.0016080453 0.04172728 0.0047969264
-0.0654401 0.0020987056 -0.07264854 -0.0032766582 -0.017871339 -0.027726544 -0.004834858 -0.042349823
-0.08122447 -0.047736425 -0.010809233

fc.3.weight f4 [227, 454]
00000000: 347d e9bc c24c 2fbd a897 89bd 6048 a63c
00000010: 4e7d b1bc 783e 823d 1e64 a93d 155b 883d
00000020: 1b6a 49bd 03c4 843c 92f8 2cbd f21a 7a3d
00000030: 32d5 4d3d bf29 aa3d 451e 66bd 3122 57bb
00000040: 8571 45bd 2b29 b0ba cc7e 5f3d 6703 4d3c
00000050: d1e0 86bd 2fe1 1cb8 9fc5 bebd e6bf 58bd
00000060: 2a98 883d 229b 763d c9fa 11bd be11 c1bc
00000070: 3bfc 783d dd95 febb 473b cdbb dc67 86bd
00000080: 0639 ccbd fef9 a2bc 6e21 493d 1d05 a03d
00000090: c482 2abd 4bbf 153d 7557 043c 3928 973c
000000a0: 021a 853d 4cea 5b3b f564 60bd d572 1abb
000000b0: b6d8 b2bd bf22 2a3d 50b2 03bd d94d cbbc
000000c0: a4b9 473c b76b c2bd 924f 95bd 1c8e 01be
000000d0: 2c3d 943d b25d 76bb 60c8 453d 8f40 1bbd
000000e0: cabb 36bc 40e0 54bd afb9 dd3c 4a6f 943d
000000f0: c431 e63c 3829 02be 1f21 04bc 012b 6b3c
00000100: c357 c1bd a747 253b 6276 503d 22ea 4abd
00000110: e4f9 9fbc 63f0 86bd 850e d7bc 7bc1 6dbc
00000120: 8ca2 b33c c323 843c 19db 033d 16f7 f3bd
00000130: ff99 7b3b ebab 3a3c 39bd 20bd 6426 39bd
00000140: e9c2 0a3c 2bbc 8fbc 156d 1f3d 5967 9fbd
00000150: c766 1f3c c737 a13b c3df 56bd a6bf 683d
00000160: e188 e8bb f462 f0bc e97c a63c f311 25bd
00000170: f264 a13d 5a85 fe3c d8f6 5d3d a8c0 14bd
00000180: da32 1c3d fdf9 0bbd 2b5e 59bd 9df7 92bd
00000190: 8708 203b daf4 81bd 0d0d 9bbd b00a 753d
000001a0: 4506 48bd 5ebd 04be 2fc3 a93c 77ed 82bd
000001b0: aade 71bc edcf 813d bf1f 343d 345e 72bd
000001c0: eefa ccbc e24d 993c d6f3 063d 920a 8f3d
000001d0: 2858 72bd f599 4d3b 979b c83b 4239 b6bc
000001e0: 19ea ed3b 76ff 8a3d 77cd 913c 6892 89bc
000001f0: 3944 f8bd 0d26 af3c d9c9 36bd 2346 d9bc
00000200: 5c31 2fbd 9f26 0e3d 63c3 98bc 6220 6ebd
00000210: 29be 72bd 292b 1c3d 2a9d 12bd f87d 2c3d
00000220: 67a9 813d db8a 513d f7ff 2f3d b39c 4f3c
00000230: c4be 69bc 388b 8a3c 8e8a af3d 740a fbbd
00000240: e9d6 6bbd bb44 e63b 6937 2abd bcda ba3c
00000250: 9c0c 563c 7feb 143c 0a32 1f3d 0aad 503d
00000260: 2ab8 aebd 6ec4 e1bc c58d 37bd 312e 6bbc
00000270: 7d7f 8b3d d2dd 1f3d a119 0bbd 258a bcbb
00000280: 8ea3 b9bd f3c0 0e3d dc1f 983c 02c0 e4bc
00000290: 166b 83bd 5c82 4e3d 3709 9f3d 9aa5 743b
000002a0: 8a56 263d b2f1 153b 6d5f 83bc 1de4 153c
000002b0: 178a 033c 933c 373d 7e8a 4fbd 30ba 653d
000002c0: 02aa afbd 3e97 0a3d dfc7 1fbd 1878 b1bd
000002d0: 79be 8cbd 873f d8bd ba41 76bd 0e4c bdbc
000002e0: f92a 0f3d 6d0c 7f3d 8538 8a3c 1e1c 00bd
000002f0: b0db 6a3c 6bdb 88bd 4848 a9bd a0c4 073d
00000300: 8b08 5c3c e046 74bd 4b32 903d b6b5 85bb
00000310: 6f20 0d3d bee3 d7bb 522f 693b e457 4a3d
00000320: 583a 5dbc c353 4ebc e79c 2dbd d4b9 7dbd
00000330: 8a1a ab3c b85b ef3c 8f04 80bd 47a3 dbbc
00000340: 5555 d73c 8226 d1bd fe12 793c 0b49 b93d
00000350: 0f14 b2bd db1b a53d 6710 ae3d 4fa9 31bd
00000360: af0c 72bd 8ad3 0dbd 16e8 0d3c fe12 96bc
00000370: 8352 483d d748 453d 8731 893d 2417 d6bd
00000380: f3f6 3abd 3b93 153d 88c4 9d3d 153c 983d
00000390: 8822 2f3c ae65 453d ff66 13bb 78e4 d4bd
000003a0: 0f81 873d 5675 71bd 5d42 52bd a99e 93bd
000003b0: 91c6 7a3b 0175 06bd 4c52 abbb 34e7 6fbd
000003c0: 19fd 873d 9efe c33c 4cdd a8bd 08c5 843d
000003d0: 9c7e 54bd 7c48 d9bb d1e5 95bc d02e 63bd
000003e0: b81f 01bd 7564 5e3d 276a 0cbe aed8 e3bc
000003f0: a110 9cbd 24c6 02bb 2bea 84bd 11c9 e6bc
-0.028502084 -0.04279781 -0.06718379 0.020298183 -0.021666195 0.06359571 0.08271049 0.066579975
-0.049173456 0.016206747 -0.042229243 0.061060853 0.050252147 0.08308744 -0.05618121 -0.0032826776
-0.048203964 -0.0013440003 0.054564282 0.012513018 -0.06585849 -3.7403017e-05 -0.09315037 -0.052917384
0.06669648 0.06020654 -0.035639558 -0.02356803 0.06078742 -0.00776933 -0.00626317 -0.06562778
-0.09971814 -0.019894596 0.049104147 0.07813475 -0.041628614 0.036559384 0.008077492 0.018451797
0.06499101 0.00335564 -0.05478378 -0.002356698 -0.087327406 0.041537043 -0.032152474 -0.024817394
0.012190256 -0.09493201 -0.072905675 -0.12651867 0.0723823 -0.0037592468 0.048286796 -0.037903365
-0.011153171 -0.051971674 0.02706608 0.07247789 0.028099902 -0.12711036 -0.008064537 0.014353515
-0.09440567 0.002521971 0.05089415 -0.049539693 -0.019528337 -0.06588819 -0.02625204 -0.014511461
0.021928094 0.016130334 0.03219137 -0.11912362 0.003839135 0.0113935275 -0.039242957 -0.045202628
0.008469322 -0.01754578 0.038922388 -0.07783384 0.009729094 0.0049199793 -0.05245949 0.056823395
-0.0070963954 -0.02934406 0.020323234 -0.04030032 0.07880582 0.031069446 0.054190487 -0.036316544
0.038134433 -0.034173954 -0.05306832 -0.07176135 0.0024419145 -0.0634553 -0.075708486 0.059824646
-0.048834104 -0.12962863 0.020722954 -0.06392949 -0.01476256 0.06338487 0.043975588 -0.05917187
-0.025021996 0.018713895 0.032947384 0.06984438 -0.059166104 0.0031372283 0.0061220634 -0.0222441
0.0072605726 0.067870066 0.017798169 -0.016793445 -0.121223874 0.021380449 -0.04462609 -0.026522702
-0.042771682 0.0347048 -0.018647855 -0.05813635 -0.059263382 0.0381271 -0.035794415 0.04211232
0.06331139 0.051157814 0.042968716 0.012671637 -0.0142666735 0.016912088 0.08571349 -0.12257853
-0.057578 0.0070272363 -0.04155675 0.022809379 0.01306453 0.00908935 0.03886608 0.050946273
-0.0853122 -0.027559485 -0.044812936 -0.014354275 0.06811426 0.039029904 -0.03395999 -0.005753773
-0.09064399 0.03485198 0.01856988 -0.027923588 -0.064169094 0.05041729 0.077654295 0.0037330152
0.040609874 0.0022879657 -0.016036713 0.009148625 0.008028529 0.044735502 -0.050669186 0.056085765
-0.08577348 0.033835642 -0.03900897 -0.08665484 -0.06872267 -0.10558992 -0.060121275 -0.023107555
0.03495309 0.06226771 0.016872654 -0.031276815 0.014334604 -0.06682476 -0.0826574 0.0331465
0.013429771 -0.059637904 0.070408426 -0.0040804995 0.03445476 -0.0065884283 0.0035581184 0.049400225
-0.01350268 -0.012593213 -0.04238596 -0.061944798 0.020886678 0.02921854 -0.062508695 -0.026811255
0.026285807 -0.10212423 0.015202282 0.09047135 -0.08695232 0.08061954 0.08499222 -0.043374356
-0.059094127 -0.034625567 0.008661291 -0.018319603 0.048906814 0.04816517 0.066989 -0.104536325
-0.045645665 0.036517363 0.07703501 0.07433335 0.010689385 0.048192672 -0.002249181 -0.103951395
0.06616413 -0.05894979 -0.05133282 -0.072079964 0.0038265327 -0.032826427 -0.0052283164 -0.0585701
0.066400714 0.023925122 -0.08245334 0.06482893 -0.051878557 -0.0066309553 -0.018298062 -0.055464566
-0.03152439 0.054295022 -0.13712369 -0.027813282 -0.07620359 -0.0019954527 -0.064899765 -0.028172048
