inventory/ark_material.onnx (onnx, 680976 bytes, 8 tensors)

35 f4 [8, 3, 5, 5]
000000 15 4b a6 3d 2e 99 7a be d3 3b e1 3c 49 e0 44 be
       0.081197895 -0.24472496 0.027494347 -0.19226183
000010 e7 5b b2 be c1 17 dc be f0 74 cb be 14 d3 95 be
       -0.3483574 -0.42986873 -0.39737654 -0.29262602
000020 1a 80 c1 bd 3b 7b dc 3e 28 27 b9 be 24 d3 a3 be
       -0.094482616 0.43062767 -0.36162686 -0.31997025
000030 f0 7d 90 bc 93 40 b7 3e 3c 09 11 3f c1 f1 0b 3e
       -0.017638177 0.35791454 0.56654716 0.1366644
000040 88 3b 29 be 1c 00 ee 3d 58 02 b2 bd 3f 02 e5 bd
       -0.16526616 0.116211146 -0.08691853 -0.11182069
000050 ca 48 70 3e 99 4a 75 bd 36 a6 8f 3e ff 06 b7 3e
       0.23465267 -0.059885595 0.28056496 0.35747525
000060 81 d0 fb 3d 7c a4 c3 be d3 a4 3b be 00 0b c6 3e
       0.12295628 -0.3821143 -0.18324594 0.38680267
000070 4f ab 78 3d af 2d 17 be 6b a1 84 3e 84 02 9a be
       0.060710248 -0.1476352 0.25904402 -0.30080044
000080 b2 7f ed 3e 1a 4c 2a 3e 30 ab fa 3e 13 bb d8 3e
       0.46386486 0.16630593 0.4895873 0.42330226
000090 cd d9 4a be 7a a1 4c 3e c6 32 77 be 9a 39 89 be
       -0.19809647 0.19983473 -0.24140462 -0.2680176
0000a0 df 5d df 3d 8a 1c 1c 3e bd 47 52 be 5d c9 8b 3c
       0.10906576 0.15245262 -0.20535178 0.017063791
0000b0 fc bf 09 3e f9 26 9a be c5 14 9b 3e 8a 18 a9 3c
       0.13452142 -0.3010786 0.30289283 0.020641584
0000c0 b9 80 fc 3d 1b 2e 96 be 23 9c cc 3c 78 b2 bd be
       0.123292394 -0.2933205 0.024976796 -0.37050223
0000d0 b3 c7 d9 be b5 61 60 3e 53 5d 17 be 12 84 e0 be
       -0.4253517 0.21912272 -0.14781694 -0.43850762
0000e0 19 b8 c9 be 30 e0 d2 be 07 36 8d bc fa fc 3e be
       -0.39398268 -0.41186666 -0.017237676 -0.1865119
0000f0 1a f8 a8 be 06 6f a3 be f7 ca a4 3e e3 2c 82 3e
       -0.33001786 -0.31920642 0.321861 0.2542487
000100 95 a2 91 3e bd a4 df be ba bc 1a bd be 06 15 3e
       0.28444353 -0.43680373 -0.03777764 0.14553353
000110 31 53 36 3e c1 8b b9 3e 4c 8e 90 be ba 50 0d bf
       0.17805173 0.36239436 -0.28233564 -0.55201304
000120 ca f5 21 be 95 e2 e3 3d 03 8b a4 bd 62 1f a8 3d
       -0.15816417 0.111272015 -0.08034327 0.08209111
000130 40 bc ca bd 1c bf 10 bf 2d 82 53 3e 2d 86 7f 3e
       -0.09899187 -0.5654161 0.20655127 0.24953528
000140 66 c0 b8 be c4 91 db 3e 46 4f 99 3e 26 b0 c2 be
       -0.36084288 0.42884648 0.29943293 -0.38025016
000150 c1 64 f8 bd cb 5f 7f be b6 e7 cb be 4e 50 39 bf
       -0.12128592 -0.24938886 -0.3982522 -0.7238816
000160 a4 b8 31 bf 76 4e 10 be 11 85 e3 be 1f 56 c2 3e
       -0.69422364 -0.1409243 -0.4443746 0.3795633
000170 d3 25 e5 3c 90 04 c7 be f1 61 f6 be c4 76 bf 3d
       0.027972138 -0.38870668 -0.48121598 0.093488246
000180 81 62 fe 3d ce 84 06 bf 49 15 50 be 96 01 44 be
       0.12421132 -0.52546394 -0.2032062 -0.1914123
000190 9c a2 b5 3e f3 25 f2 3c ce eb 68 3e 27 c4 6f be
       0.35475624 0.029559111 0.22746202 -0.2341467
0001a0 31 df 2c bf dd 89 ce be 6b bf d0 bd d5 ba 79 3e
       -0.67528063 -0.40339556 -0.1019276 0.24387677
0001b0 60 64 f2 3d 7d a6 a1 be 34 22 27 bd 47 e2 fd bd
       0.11835551 -0.31572333 -0.040804103 -0.123966746
0001c0 31 91 23 3e 49 96 89 3d d6 b3 b8 3e ce 03 5b bd
       0.15973355 0.06718118 0.36074704 -0.053470425
0001d0 b2 8e a8 3e 95 f3 8e 3e 90 d3 bd 3e 12 e2 03 3f
       0.32921368 0.27920213 0.37075472 0.5151683
0001e0 8c 2f a7 3e b9 7d 0a 3f c9 63 08 3e 4d e2 1d 3f
       0.32653463 0.5409809 0.13319315 0.6167343
0001f0 c5 ee 10 be 5b 79 14 bf 00 a4 15 bf e6 00 54 be
       -0.14153583 -0.57997674 -0.5845337 -0.20703468
000200 12 bd ca be d3 c1 37 bc c6 2e 3c 3e 9c 1c 43 3e
       -0.39597374 -0.011215645 0.18377218 0.19053882
000210 95 ad a6 3d 16 e7 f5 3c ab a8 0e 3e 19 28 a3 3d
       0.08138577 0.030017417 0.13931529 0.079666324
000220 8e 0e a1 be 3b 32 85 be e1 fc 9b 3e e2 9a 47 3d
       -0.31456417 -0.26014885 0.3046637 0.048731692
000230 68 38 96 3e 65 75 67 3e 74 87 89 bd 6e ab f3 bd
       0.2933991 0.22603376 -0.06715289 -0.11897932
000240 40 dc 91 be 49 fb f3 be c5 2f 56 be 10 e6 bf be
       -0.2848835 -0.47652653 -0.2091666 -0.3748021
000250 56 d7 b8 bc ba 5d 0c be 80 c6 e7 be d1 65 ae 3e
       -0.022563618 -0.13707629 -0.4526863 0.34062055
000260 e4 90 06 3f 2e 14 c8 be 0e 85 d8 3e 00 96 c9 3d
       0.52564836 -0.39077896 0.42289013 0.09843063
000270 d0 2f fc bd 3a 5c a2 be ec ec 30 be 47 b4 47 3d
       -0.12313807 -0.31710988 -0.17277879 0.04875591
000280 d0 1f f1 be 2c da aa bd d0 8d 57 3e 12 53 e9 bd
       -0.47094584 -0.08342394 0.21050191 -0.113927975
000290 56 8d e6 3e e0 2e 6a be 91 13 db be fa 60 39 3e
       0.45029706 -0.22869444 -0.42788365 0.181034
0002a0 2b 23 ef 3e 3f 0e 56 3e e3 9f 55 be 99 a0 50 3e
       0.4670652 0.20903872 -0.20861773 0.20373763
0002b0 75 2c 06 be d4 c4 34 3e 2f e7 b3 3d dc e0 83 3e
       -0.13102897 0.17653209 0.08784329 0.25757492
0002c0 36 95 72 bd cb b9 0b 3e 94 d0 bc 3e 32 4d ed 3d
       -0.05922433 0.13645093 0.36877882 0.115869895
0002d0 30 b8 c6 bd c1 9d 83 bc 70 e7 b7 3d d2 b3 1d 3f
       -0.097031 -0.016066434 0.0897969 0.6160251
0002e0 68 60 f5 be d8 46 db be 60 94 56 3e 19 a3 96 3e
       -0.47925115 -0.42827487 0.20955038 0.2942131
0002f0 89 ec ad 3e e1 5c 11 3e 84 60 14 be 08 1a 9a 3d
       0.33969525 0.14195587 -0.14489943 0.07524496
000300 70 1f ab 3e b3 9b db 3e a8 02 94 3d 35 03 4b bf
       0.33422422 0.42892227 0.07227069 -0.7930177
000310 5d 0b a5 3d 42 b2 85 be 7d b6 97 3e 71 cc c9 bd
       0.08058808 -0.26112562 0.29631415 -0.09853447
000320 d2 06 f3 3c d0 0a 04 bf 92 b0 17 3e ee 50 92 3e
       0.029666338 -0.51579 0.1481345 0.2857737
000330 e1 03 7a be a8 74 77 3e f6 fc 41 be 7d 9b 2f bd
       -0.24415542 0.24165595 -0.18944153 -0.042872895
000340 fd 7b 73 3c f5 b0 c5 3e 46 da f4 be 8b a1 43 3e
       0.014861104 0.3861157 -0.4782278 0.19104593
000350 cb 9b 41 be 35 c0 30 3d 3f cc cc bb f5 77 0c bf
       -0.18907087 0.043152053 -0.006249934 -0.5487054
000360 ec 06 a5 3e 07 7b 24 bf cc 03 ac bd 2b cf 0c 3f
       0.32231843 -0.64250225 -0.08399162 0.55003613
000370 00 23 60 bf d6 83 af be 4b d9 ba be 96 a7 ee 3e
       -0.87553406 -0.3428027 -0.36493906 0.46612233
000380 64 28 c5 bd ef 52 f6 3d 88 c0 04 3e 15 de 12 3c
       -0.096268445 0.12027537 0.1296407 0.008964081
000390 21 be 27 3e 44 6a b0 be e9 ab 03 3e 8a 42 5f be
       0.16381122 -0.34456074 0.12858547 -0.21802726
0003a0 c2 0a 9d 3e 2d d1 b3 be 4d a5 a1 be 0c b7 ca 3d
       0.3067227 -0.35120526 -0.31571427 0.09898195
0003b0 b0 87 b2 3d 3e ca dc bd 2a 0a 53 be 29 85 5b be
       0.087172866 -0.10780762 -0.20609346 -0.21437515
0003c0 5f 55 82 3e 84 b0 c1 bd a2 fa 03 3e 62 0b eb 3c
       0.25455758 -0.09457496 0.12888578 0.028691951
0003d0 f7 81 40 be 95 76 a0 3e ab bd 24 3e 01 03 b5 bd
       -0.18799578 0.3134047 0.16087978 -0.088384636
0003e0 ab 07 c8 be 9d f9 9d be 51 30 78 3d 09 03 e7 bc
       -0.3906835 -0.30854502 0.060592953 -0.02819969
0003f0 ea c1 95 bd a1 15 d9 bd 6a b3 b7 be b1 0b 1f 3e
       -0.07312377 -0.105998285 -0.3587907 0.15531804

36 f4 [8]
000000 bb 90 58 3f 19 4f e0 3f 61 6d ff 3d 88 87 31 bf
       0.8459584 1.7524139 0.12472034 -0.6934743
000010 e6 44 da bf 69 26 ff 3f 82 94 41 bf d3 db d0 3d
       -1.7052276 1.9933597 -0.7561723 0.10198178

38 f4 [16, 8, 3, 3]
000000 4d 20 04 bf 0f 4e d7 3e 2c 61 55 bf f1 1b 6f 3f
       -0.5161179 0.4205174 -0.833514 0.9340201
000010 35 3d cb 3e ce 05 11 3f a2 15 94 3e 13 20 22 3f
       0.39695135 0.5664948 0.28922755 0.6333019
000020 cd 88 bf 3e fd 9c 05 bf 2a 2a 98 3f c5 3f 51 bf
       0.37409058 -0.5219267 1.1887867 -0.8173793
000030 b3 28 7a bf ed 8e b8 be 52 f2 96 3f 70 cd ef bf
       -0.9771835 -0.36046544 1.17927 -1.873457
000040 1e 19 03 be 73 45 29 3d 02 06 43 3f ac 97 de be
       -0.1280255 0.041325998 0.7618104 -0.4347509
000050 c3 66 3b bf 9d 17 5f 3f 20 d0 23 3b c6 63 39 bf
       -0.73203677 0.87145406 0.0024995878 -0.7241787
000060 6a 4e 4e 3f 51 ba 58 3f e2 65 f4 3e 2d 47 8c 3f
       0.805884 0.84659296 0.4773398 1.0959221
000070 1e 9a 60 bf 74 f7 cd be b6 5e 4e bf 6c e3 8b 3f
       -0.87735164 -0.40227854 -0.8061327 1.0928779
000080 e7 8d f1 bf 28 26 56 bf 8e 32 c3 3f 3b 6d aa 3c
       -1.887143 -0.8365197 1.5249803 0.020804038
000090 0b ad 3f bf 71 a7 29 be d1 40 89 be 34 c0 ec 3e
       -0.7487342 -0.1656778 -0.26807263 0.4624039
0000a0 6a 1a 79 3f c2 fa 0c 3e f3 1d 0a 3e a0 1f 7f 3e
       0.9730593 0.13767532 0.13487987 0.24914408
0000b0 70 db 3e bf 39 c6 fb be da d3 a9 bc f4 07 d0 3e
       -0.74553585 -0.4917467 -0.020730902 0.40631068
0000c0 c2 30 c9 3e 31 cc 2f be 8b 56 87 bf 6f 52 7d 3f
       0.39295012 -0.17167737 -1.0573286 0.9895391
0000d0 d3 c8 90 3e 78 b5 d6 3e 66 a4 d6 be 0c 1d a9 3f
       0.28278217 0.41935325 -0.419223 1.3211989
0000e0 17 41 9c be b8 4e b1 3e ac 7e 91 3f 6d 0d 06 3f
       -0.3051841 0.3463037 1.1366782 0.52364236
0000f0 4f d6 17 3f 05 13 ce be e8 d7 83 be a3 d4 3d 3f
       0.59311384 -0.40248886 -0.2575066 0.7415258
000100 32 13 4e 3f dc fa b3 3e 16 1f 47 3f e7 66 d4 be
       0.8049804 0.35152328 0.7778181 -0.41484758
000110 07 48 3e bf b6 6f 81 3e 5d e5 a8 3e 6b 01 ac be
       -0.74328655 0.2528054 0.3298749 -0.33594832
000120 2c c3 0a 3f 9f f6 68 3e 3c 61 f9 3e ed 05 88 3e
       0.5420406 0.22750328 0.48706996 0.2656702
000130 b2 48 60 be 96 7e 23 3e 2a dd 96 bf 6d 69 a9 bf
       -0.21902731 0.15966257 -1.1786244 -1.3235298
000140 b3 b7 13 3f 13 c5 20 3f 5f 22 de be 09 00 72 bf
       0.5770218 0.6280071 -0.43385598 -0.94531304
000150 90 ea 41 bf 22 f5 e7 be 88 48 70 3f 3d 42 b0 be
       -0.7574854 -0.4530421 0.93860674 -0.34425536
000160 50 86 43 bf 31 81 16 bb aa 41 c9 3e a1 c1 2d 3f
       -0.7637682 -0.0022965188 0.3930791 0.6787358
000170 42 0e b4 3e fe 1c 11 3f 66 5b 66 3f d1 35 bb 3e
       0.35167128 0.56684864 0.8998321 0.36564496
000180 f0 29 14 bf c7 dc 25 bf 91 9f de be c3 d8 64 3f
       -0.5787649 -0.64790004 -0.43481115 0.8939325
000190 db e7 11 bf 07 e1 b3 be db 2e 00 3f 91 a2 67 3e
       -0.5699441 -0.3513262 0.50071496 0.22620608
0001a0 06 5d 1b 3f dd de 54 bf 8d 16 2c 3f 23 bc 57 3f
       0.6068882 -0.8315256 0.6722191 0.8427145
0001b0 98 87 e0 be 4b c6 29 3f b6 3e 4a bf 1e 8f 3c bf
       -0.4385345 0.66318196 -0.7900194 -0.7365588
0001c0 d1 7b ff bc 6a 64 e9 bd e6 77 39 bf 10 d8 92 3e
       -0.03118697 -0.113961056 -0.72448575 0.28680468
0001d0 ab f6 3e bd 86 c7 ad 3e 9f f6 96 3e 75 2b e9 3e
       -0.04662196 0.33941287 0.29485032 0.45540968
0001e0 eb c3 63 3f 02 11 3a 3e 7a bc 66 3f 4f f1 b0 be
       0.8897082 0.1817055 0.9013134 -0.34559104
0001f0 06 b6 a8 bd 2e cd 6c bf 00 5b 0e 3f dd d1 1f bd
       -0.08237843 -0.9250058 0.55607605 -0.0390185
000200 65 bb 7d be 6c 9b ef be 10 89 b9 3f ec 94 01 bf
       -0.24778517 -0.46798265 1.4494953 -0.5061786
000210 ad 05 76 bf c2 7c 77 3f 03 ae 52 be 24 df 64 bf
       -0.9610241 0.9667474 -0.20574193 -0.89402986
000220 a3 95 e2 3d 7b c5 5d bd 7e a2 07 3f bc 2d 36 3f
       0.11063697 -0.05414341 0.5298232 0.71163535
000230 76 13 58 bf d5 d4 67 3f 2d 5c 06 bf 8a 86 9c bf
       -0.84404695 0.9055913 -0.524844 -1.2228558
000240 29 2c b5 3f 2d 57 af 3f 2e 90 fd bc dc fc 91 be
       1.4154102 1.3698479 -0.03095254 -0.2851323
000250 c6 35 d4 be e7 28 78 bf 73 1a b9 3f 11 e3 e3 be
       -0.41447276 -0.9693741 1.4461197 -0.44509175
000260 2b 95 65 bf ec e1 0f bf e5 fd 35 bf f1 e6 dc 3b
       -0.8968074 -0.56204104 -0.7109054 0.0067413975
000270 24 b3 bd be a8 c1 8c 3f 06 b5 92 bf 60 cc 15 3d
       -0.37050736 1.0996599 -1.1461494 0.03657186
000280 1f 98 53 be 6f 71 b6 3f 2a 35 1a bd 99 c6 32 bf
       -0.20663498 1.4253367 -0.037648357 -0.69834286
000290 c2 35 9d 3d 75 96 f7 be cf 1f 88 3f f7 63 ab bf
       0.07676269 -0.48356977 1.0634707 -1.3389882
0002a0 83 67 95 be 0f 06 b9 3f 17 b4 d6 3e 7c 53 42 bf
       -0.29180536 1.4454974 0.41934273 -0.7590864
0002b0 34 a6 87 3c e5 08 3f bf 29 b7 77 bf 43 6c 2a 40
       0.016558744 -0.74622947 -0.96763855 2.6628578
0002c0 72 40 0a bf 90 b6 1d bf f4 a4 8b 3f 52 1a a3 be
       -0.54004586 -0.61606693 1.0909715 -0.31856018
0002d0 e2 cb d0 3e 26 7e 94 bf 6e 93 a8 be f3 a8 ac bf
       0.4078055 -1.1600997 -0.3292498 -1.3489059
0002e0 7d 89 dd 3f 70 b5 d6 be 40 fa 05 3f a9 8b c4 3e
       1.7307583 -0.419353 0.52334976 0.38387802
0002f0 76 bc a5 3f 35 b3 fd 3e 2b 16 25 bf 0d 18 00 3f
       1.2948139 0.49550787 -0.6448695 0.500367
000300 b4 9b de 3f 39 5e f7 3a 15 1b 93 3e e9 4e 94 3e
       1.7391267 0.0018872685 0.287316 0.28966454
000310 ad 3b b9 be ec 10 81 be 0f 83 9c 3f fa 49 69 3c
       -0.36178342 -0.25208223 1.2227496 0.014238829
000320 50 c2 6a 3f fe 04 53 3f 92 7e b7 bf 36 8a ce 3e
       0.9170275 0.8242949 -1.4335501 0.40339822
000330 ca bd c0 3e 2d 70 4f c0 4e 46 12 3f 6d ef 20 3e
       0.37644798 -3.2412217 0.57138526 0.15716334
000340 a9 02 4a 3e 5b 44 3a 3f 40 93 23 3e 79 95 55 be
       0.19727577 0.7276055 0.1597414 -0.208578
000350 81 28 82 3e 04 29 9a 3f 70 2f cc bf 53 42 84 3e
       0.25421527 1.2043767 -1.5951977 0.2583185
000360 cb 9a 23 be 31 4f 7a 3f 81 dd 7b 3f 7c 85 c6 3e
       -0.15977018 0.97777086 0.98384863 0.38773715
000370 07 6c e4 3d df a1 9c 3d 5d 79 35 3d ff 40 79 3f
       0.11153417 0.07648062 0.044305194 0.973648
000380 12 41 46 3f fe ed d9 be 69 c9 86 bf 66 27 c4 3e
       0.7744304 -0.42564386 -1.0530216 0.3831131
000390 56 64 37 bf d2 a3 df be bf d7 cb 3f 37 b5 88 3c
       -0.71637475 -0.43679672 1.5925215 0.016687972
0003a0 30 7c 93 3d a9 b4 c4 3f ba a0 d6 be 81 e0 16 bf
       0.07201421 1.5367633 -0.419195 -0.58936316
0003b0 70 51 e0 3f ec 0c b6 3e fd 06 3d bf 5b ab 10 3f
       1.7524853 0.35556734 -0.7383879 0.5651147
0003c0 53 1e 08 3f 0d fe 04 3f 76 a0 6f bf 63 2c 71 3d
       0.5317127 0.5195015 -0.9360422 0.05888022
0003d0 a0 a5 4b 3e 11 18 21 3f 36 55 27 be 6d 38 b3 be
       0.198874 0.6292735 -0.16341099 -0.35003987
0003e0 de db 42 be 3b cf 59 3e 18 fd 31 3f f1 09 b9 bd
       -0.19029185 0.21270458 0.69526815 -0.09035099
0003f0 af 5d b0 3e c7 5b 43 3f 53 80 07 3f 98 a8 28 3f
       0.34446475 0.76311916 0.5293018 0.65882254

39 f4 [16]
000000 22 58 b4 bf 83 e7 3c 3e 62 10 63 bf a8 dc 90 bf
       -1.4089396 0.1844769 -0.88696873 -1.1317339
000010 7d 6b 8c 40 1f 6a 6a 40 0a b5 09 40 1f 1f 25 c0
       4.388121 3.662727 2.1516747 -2.5800245
000020 77 1f 7e 40 68 c6 14 40 ed c2 cc 3d b4 e3 b0 3e
       3.9706705 2.3246098 0.09998117 0.34548724
000030 2a 2b 33 3f da 36 23 c0 b3 3c 0e 3f c5 6c 06 40
       0.6998774 -2.5502229 0.5556137 2.1003888

fc.0.bias f4 [510]
000000 ef 17 8c 3d 7c 19 31 bc ff a2 72 bd 8d f0 a9 3d
       0.068405025 -0.010809299 -0.059237476 0.082978345
000010 ea 3e a4 3d 3d 72 19 3c f8 9f 49 bc 8c 30 bf 3d
       0.080198124 0.009365615 -0.012306206 0.093354315
000020 0f 59 cc bc a9 89 d2 3d d2 bb 90 3d 3d 1b 96 3d
       -0.02494481 0.10280163 0.07067074 0.07329414
000030 01 27 cd 3c 14 08 c8 3d d3 dd 1e bc 46 a5 89 bb
       0.025043013 0.09767166 -0.009696442 -0.0042006103
000040 24 59 f2 3c d1 a4 10 bc e5 8b a1 bd 2b 6b 7e 3d
       0.029583521 -0.008828358 -0.07888011 0.062113922
000050 6a 08 82 bc cd ce 9d 3d 09 1c a5 3d 42 0f 35 3d
       -0.015873153 0.0770546 0.08061988 0.044204004
000060 24 bf 15 bc ad 83 21 3d 12 aa 84 3d a9 8c e9 3d
       -0.00913981 0.039432216 0.06477751 0.11403782
000070 23 b0 20 3d 4b 73 02 3e 04 f4 0d 3d 90 60 a7 3d
       0.039230477 0.12739293 0.03465654 0.08172715
000080 6a f8 d2 3d 89 99 3b bd 6a 04 c9 3c bd 62 d2 3d
       0.103012875 -0.04580072 0.024538238 0.10272739
000090 97 fb d2 3d 75 8e b7 b9 d4 f7 7d 3d 5a 7b 67 3d
       0.10301893 -0.0003501062 0.062003925 0.05651412
0000a0 af 1e e8 bc fe bf ba 3d 4f b5 5d bd 2c 5e 6b 3c
       -0.028334944 0.09118651 -0.054127987 0.014365714
0000b0 5d 07 ac 3c d3 ee 1a bd 87 62 c9 3d 2f 50 4f 3d
       0.020999605 -0.037825417 0.09833246 0.05061358
0000c0 3c 54 83 bc 25 4c fa 3d b5 f7 82 bc 4e 50 c2 3d
       -0.016031377 0.12221555 -0.015987257 0.09487973
0000d0 fd ae 82 bd 85 64 1b 3b b2 7c a1 3d 1f 19 c1 3d
       -0.063810326 0.0023711037 0.07885112 0.094286196
0000e0 fd a5 14 3e d6 dc c4 3d 2b 8e e2 3d af b4 b9 bc
       0.14516445 0.096124336 0.11062273 -0.022669164
0000f0 ec 14 84 bd 40 ff 09 3e 7d 2f 90 3d 38 c6 6a 3d
       -0.06449303 0.13476276 0.07040308 0.057317942
000100 7f 1c 73 3d 5a e1 bd 3c 21 b5 1c bd b9 c6 1c 3d
       0.059353348 0.023178745 -0.038258675 0.038275454
000110 6b 6e ff bc 0c 3d de 3c 74 86 48 bb 52 71 da 3b
       -0.031180581 0.027128719 -0.0030597718 0.006666341
000120 50 7b a0 3d 40 df 35 3d be 06 72 3d 67 3f ac 3d
       0.0783602 0.04440236 0.05908846 0.084105305
000130 01 ce ce 3d d6 7b 37 bd e5 ac 3a 3d 19 ca 9e 3d
       0.10097886 -0.044795834 0.04557504 0.07753391
000140 8b 94 83 3d f6 9f 0f bd 2d 2c 47 3d 9b e7 7f 3c
       0.06424817 -0.03506466 0.048626114 0.015619184
000150 28 07 81 bd 03 30 8b bd 25 23 0c 3c c2 02 ee 3d
       -0.06300193 -0.06796267 0.008553301 0.1162162
000160 f5 56 3a 3c 8d 48 1d 3d 58 f3 ae 3a 1f 73 15 3e
       0.011373271 0.038399268 0.0013347669 0.14594696
000170 17 fd c1 bd 82 ce 6a bb 38 74 1e bd 66 87 c7 bc
       -0.09472101 -0.0035828655 -0.038685054 -0.024356555
000180 c2 74 de 3d 4a 48 a0 3d 89 c4 cc 3c c2 de 09 3e
       0.108621135 0.07826288 0.024996059 0.13463882
000190 a1 29 84 bc e5 c5 d2 3d 10 aa 06 3d 0b 80 b6 3c
       -0.016133131 0.10291652 0.032877028 0.022277853
0001a0 60 d4 6b bc eb 68 7f 3d 0a 69 01 3e a3 73 27 3c
       -0.014393896 0.062355917 0.12637725 0.010220441
0001b0 01 fb 0f 3e 49 cf 56 bc 70 75 b5 3d c5 c9 44 3c
       0.14060594 -0.013110944 0.0886029 0.012010996
0001c0 fa e4 7a 3d fa 3c 32 3c 23 a4 b4 3a d9 e8 c0 3d
       0.061253525 0.010878796 0.0013781827 0.09419412
0001d0 7c bf d2 3d 06 4b ba 3d cc 2e 38 3d b4 1c 53 3c
       0.10290429 0.09096341 0.044966504 0.012885261
0001e0 53 d2 85 3d bc c2 01 3e e8 74 7f 3d 25 f7 6e bd
       0.06534257 0.12671942 0.06236735 -0.058341164
0001f0 11 81 fd 3d 0d 08 ca 3d 10 86 97 3b 12 bb ef 3d
       0.12378133 0.09864817 0.004624136 0.11705603
000200 b3 ab 7b 3c ca 0e b9 3d 0f 10 da bb e3 af fc 3d
       0.0153607605 0.09036024 -0.0066547464 0.12338235
000210 af 43 ac bd c9 c0 18 bd a4 ad 6f 3d 87 66 49 bc
       -0.08411347 -0.03729323 0.058515206 -0.012292511
000220 bb 72 40 3d 73 96 35 3b bc 78 bb 3d a5 86 f3 3d
       0.046984416 0.0027708083 0.09153888 0.11890916
000230 f2 af 6f 3d 3c 08 52 bd a2 e8 c1 3d b6 1d 60 bc
       0.058517404 -0.051277384 0.09468199 -0.013678959
000240 ec 20 d8 bc 9a d3 01 3d b5 d4 19 3c a1 d1 70 3d
       -0.026382886 0.03169594 0.009389092 0.058793668
000250 4a 02 aa bd 73 1e 72 bd 90 6e da 3d 59 f4 92 3c
       -0.08301218 -0.05911107 0.106656194 0.01793878
000260 ef 9d e0 3d 14 5b 83 bc 21 b0 0e 3c cb 2f f9 3d
       0.109676234 -0.01603464 0.008708985 0.12167319
000270 53 4b 1b 3d 3c 8a 2a bd 36 95 ac 3d 1c e9 a5 3d
       0.03791363 -0.041635737 0.08426897 0.08101103
000280 30 f3 b3 3d 2b 0b 32 3d 81 9a 03 3c 57 51 95 bd
       0.08786619 0.04346768 0.008032442 -0.07290905
000290 b4 b7 30 bb 6a 73 1d 3e 85 3a 6f bb cd 3e ad 3c
       -0.0026964964 0.15376058 -0.0036503386 0.02114811
0002a0 06 03 85 bd 9d 8b f7 3c 0b 10 4e bc 24 96 e3 3d
       -0.06494717 0.03021794 -0.012577067 0.111126214
0002b0 e8 6a 07 3e 0c 9b 00 3e 3a b9 f4 3d 67 43 c7 3d
       0.13224375 0.12559146 0.11949392 0.09729653
0002c0 ea a2 41 bc 42 b1 dd 3d a1 39 c2 3c ab 27 3f 3d
       -0.011818627 0.10824825 0.02370912 0.04666869
0002d0 87 36 0e bc 0e e9 ab bd d5 24 8c 3d d7 28 dc 3d
       -0.0086799925 -0.08394061 0.06842963 0.10749977
0002e0 52 de d6 bc 22 c4 04 bd 78 66 10 3e ef 8f ac bd
       -0.026229057 -0.03241361 0.14101589 -0.08425891
0002f0 d9 67 d4 3d b0 73 4d bd e8 6b 6b 3d a7 56 96 3c
       0.1037137 -0.050159156 0.057475954 0.018351866
000300 30 41 bd 3d 42 79 c5 3d 4f d9 eb bc db 3f 86 3d
       0.09240949 0.09642269 -0.028790144 0.06555148
000310 34 55 8e 3d b4 1b 97 bc a6 da 38 3d 81 17 9e 3b
       0.06949845 -0.018445827 0.045130394 0.004824579
000320 53 70 4e 3d 29 6e 43 bb 35 47 50 3b 20 2e e2 3d
       0.05040009 -0.00298203 0.0031780724 0.11043954
000330 8b 36 bd 3b 78 bd 4e 3d 55 d3 13 3e 19 07 23 3d
       0.0057743243 0.05047366 0.14436086 0.03980169
000340 1c 2c 15 3d 19 70 94 3b fa 3b 84 bc 9e a3 73 bc
       0.03641902 0.0045299646 -0.01614188 -0.014870552
000350 12 ff 0d 3e 47 17 26 3d 3e 9e 13 bd 01 16 03 3e
       0.13866833 0.040549543 -0.036039583 0.12801363
000360 08 4a ec 3d 82 98 8d bd 0e 80 08 3e b2 55 2e bd
       0.11537558 -0.06913854 0.13330099 -0.042562194
000370 fe 53 a1 3d 20 c9 de 3c fa 9f ff 3d 69 fd 74 bc
       0.07877348 0.027195513 0.12481685 -0.014952996
000380 d9 81 a2 3d f0 2f c6 3d 1a cc 10 3e 97 74 a1 3d
       0.07934923 0.09677112 0.14140359 0.07883566
000390 e0 9a 8b 3d 17 4a 16 bd 1f bf 9d bc 97 92 8b 3d
       0.068166494 -0.03669175 -0.019256173 0.06815069
0003a0 d3 7b 5e 3c 60 c2 87 3d 8b 41 69 3c 71 bb f3 3c
       0.013579327 0.06628871 0.014236818 0.029752465
0003b0 99 b3 d4 3d 97 83 4f 3d 02 be 2c ba 43 b5 2a bd
       0.10385818 0.050662603 -0.00065895927 -0.04167677
0003c0 02 b1 97 3d 01 07 09 bd e9 e6 7b bc 1e d4 80 3d
       0.074068084 -0.033453945 -0.0153748775 0.06290458
0003d0 f5 a9 68 bd ae 51 89 3d 68 7a c2 3d fc 6c 60 bd
       -0.05680271 0.06705032 0.094960034 -0.054791436
0003e0 5b 48 a8 3d 6d a1 f0 b9 e3 52 12 bc 83 85 50 bd
       0.08216926 -0.0004589664 -0.008930895 -0.050908577
0003f0 39 85 d3 3d ec fc cb 3d 45 a2 5b bb dc 2d 29 3d
       0.103281446 0.099603504 -0.0033513468 0.0413035

fc.0.weight f4 [510, 64]
000000 28 5a 24 3d 7b 28 f4 3d 8a 86 a9 3c 40 e8 0d 3e
       0.040125042 0.119217835 0.020694036 0.13858128
000010 fa 16 af bc 57 ff f3 bc 79 f8 70 bd 78 cf a0 3d
       -0.02137326 -0.029784841 -0.058830712 0.078520715
000020 fe da bd 3d 63 e4 30 3d fc bc d0 3a 3f 69 3a 3d
       0.09270285 0.043186557 0.0015925462 0.045510527
000030 5e c3 a4 3d 91 ec dc 3d c4 b0 46 3d d0 8a d4 3c
       0.08045076 0.10787309 0.04850842 0.025945097
000040 a4 93 bd bd 76 81 a3 bd 74 1c 12 be dd d7 2c bd
       -0.09256676 -0.07983677 -0.14268667 -0.04219805
000050 5a 4c 96 bd 47 91 36 3b 8a b6 05 be 49 eb a5 3d
       -0.07338782 0.0027857588 -0.13057914 0.08101518
000060 f7 52 88 bd 30 ef 05 3e 9c 47 92 3d 22 1a e0 3b
       -0.06656449 0.13079524 0.07142565 0.006839053
000070 26 cd a4 3d 62 6e 43 3d 79 9e 3a bc a6 38 15 bd
       0.080469415 0.04771269 -0.011390322 -0.036430977
000080 65 37 1a 3d f3 7f 0e 3e 20 c4 32 3d 65 0a d1 3c
       0.037650485 0.13915996 0.04364407 0.025517652
000090 b9 cb ab bd e2 a1 0d 3c c1 80 0a 3e f3 c6 d6 3d
       -0.083884664 0.008644553 0.13525678 0.10487165
0000a0 43 a6 83 3d 0c 38 b7 bd 3b 37 f7 bc 06 a4 34 bd
       0.06428196 -0.08946237 -0.030177703 -0.044101737
0000b0 52 c5 29 3d 14 36 ad bd 47 87 13 3e b3 d4 94 3d
       0.041447945 -0.0845758 0.14407073 0.07267132
0000c0 0c 86 b7 bd b1 bd 9b 3d 32 7b 63 bd 89 c8 c1 3d
       -0.08961114 0.0760454 -0.05553741 0.09462077
0000d0 f2 f1 c3 3b 42 9a c9 3c 4d 9b f7 3d 16 91 90 3d
       0.00597977 0.024609689 0.12090168 0.07058923
0000e0 70 c7 5e bd 7c f8 9b 3d 04 e9 10 3d c4 06 07 be
       -0.054389417 0.07615754 0.03537847 -0.13186175
0000f0 67 ae ca 3b 60 ac 41 3b 2a 44 d5 bd 8e 2e 1e bd
       0.006185341 0.0029552206 -0.10413392 -0.038618617
000100 73 65 9a bd 00 39 f9 3d 9b 91 cf bd e0 59 fa 3b
       -0.07538881 0.12169075 -0.10135194 0.0076401085
000110 c0 6b a3 3d 1a de 46 3d 6c 4b d7 3d 6f 8a 78 3d
       0.07979536 0.048551656 0.105124325 0.060678896
000120 40 dc 10 3d a7 8b e4 3d ce b3 2c bc 39 14 af bc
       0.035366297 0.11159449 -0.010540916 -0.021371948
000130 9a 06 30 3d f5 44 66 bc 63 71 a2 3c f8 59 b9 3c
       0.042975046 -0.014054527 0.019829458 0.022625908
000140 aa 0f 05 3e 44 53 a9 3d 83 a6 24 bd 84 9c e6 3c
       0.12994257 0.08267835 -0.04019786 0.028150804
000150 40 b7 d1 3d 51 cb 1b be a7 7e 97 3d da 1a 78 bc
       0.1024003 -0.15214278 0.07397204 -0.015143121
000160 76 bc 19 3c 58 24 5a 3a fd a8 0e 3e 76 f8 17 3d
       0.0093833115 0.00083214557 0.13931651 0.037102185
000170 ef 86 ad bd 03 91 2e bc 3f c4 e5 bc f2 9e f4 3d
       -0.08473002 -0.010654691 -0.028047679 0.11944379
000180 02 40 80 bd 93 76 ab 3d 87 24 f5 bc b5 33 97 3d
       -0.062622085 0.083722256 -0.029924644 0.07382909
000190 a0 e6 a9 3c ef 95 80 3b 72 cb 95 bb 1d 18 ba 3d
       0.020739853 0.0039241235 -0.0045713717 0.090866305
0001a0 87 5a 95 bd 6b 12 99 bd 6f 81 e2 bd 85 f7 14 3e
       -0.07292657 -0.07474216 -0.11059844 0.14547546
0001b0 50 15 7f bb c5 44 92 bd cf 10 f2 bd 36 95 31 bd
       -0.0038922615 -0.07142023 -0.11819612 -0.04335519
0001c0 6e 7c ec bd a2 81 da 3d 4d 5a 8c 3d 47 95 c7 3d
       -0.115471706 0.10669257 0.06853161 0.09745269
0001d0 81 91 cc 3d 7d 50 3e bd 99 df a9 3d a4 6f 9b 3d
       0.0998869 -0.04646348 0.08294601 0.07589653
0001e0 a3 e6 f9 bd 2b d9 68 bd ec ad 90 b9 72 7c 92 3d
       -0.122021936 -0.056847733 -0.00027595402 0.07152642
0001f0 e3 d3 78 3d 59 0a a6 3d 2e 78 aa bd dd 77 9e bd
       0.060748946 0.081074424 -0.08323704 -0.07737706
000200 1c 9e 0a bd 5e f9 76 bd ea 9e 43 bc 4e ef c9 3d
       -0.03384219 -0.06029641 -0.0119397435 0.09860097
000210 91 20 d9 3a 0b 17 af 3d 0a e1 e4 3d 32 81 5d 3d
       0.0016565492 0.08549317 0.11175735 0.05407829
000220 e7 e8 4a ba a0 a4 10 3d d2 82 df 3d f1 01 65 3e
       -0.00077403936 0.03531325 0.10913624 0.22364022
000230 a8 ec 4c 3d 26 af 08 bd 22 74 0e 3d 71 8f b0 3d
       0.05003038 -0.03337016 0.03477872 0.08621109
000240 65 79 92 3d eb 1f 3a 3d d8 12 10 be 9c a3 29 3d
       0.071520604 0.045440596 -0.14069688 0.041415796
000250 de 30 8e bd b9 db 50 3d 63 5b 11 3e 41 6f 8d bd
       -0.069429144 0.050990794 0.14195018 -0.069059856
000260 4c f2 40 3c a3 05 81 bd df 0f 25 3b 0e 68 2d bd
       0.011776518 -0.06299903 0.0025186462 -0.042335562
000270 38 bb 8e 3d 4f 05 e1 3d 42 99 16 bd e9 ba 18 3b
       0.06969303 0.10987341 -0.03676725 0.0023304767
000280 14 df b4 bc d8 34 0d 3c 5f b2 8e bd 3f 4d 9a bd
       -0.022079028 0.008618556 -0.06967615 -0.07534265
000290 88 ee a6 3d 39 c7 0f 3e 19 59 e7 3d 44 e0 d4 bd
       0.08150965 0.14040841 0.11296291 -0.10394338
0002a0 3f 58 a2 3d c2 a1 c9 3d 9b c6 0d be ed 97 9e bd
       0.07926988 0.09845306 -0.13845293 -0.07743821
0002b0 2a a8 9d 3c 12 80 b0 3d 40 e0 ce 3c 52 70 94 bd
       0.019245226 0.086181775 0.025253415 -0.07247986
0002c0 ae c9 cb 3c 72 18 22 3d 8f 16 b0 3d 5d bd 94 bc
       0.024876442 0.039574094 0.08598053 -0.018156702
0002d0 9c d0 99 3c 39 81 b1 bd 4c ca 1e 3c 22 2a 3d 3c
       0.01877623 -0.086672254 0.009691786 0.01154569
0002e0 95 33 d6 3c b9 48 75 3d 29 71 d8 bd e3 92 b0 3c
       0.026147643 0.059883807 -0.105684586 0.021554416
0002f0 b0 e4 09 bd 8e ee b3 bc 3e 1d d0 3d 61 74 87 bd
       -0.03366536 -0.021964338 0.101618275 -0.066139944
000300 fc c2 47 3d e1 0a ad bd c7 6f 79 3c 1b 82 ed bc
       0.048769936 -0.084493406 0.015224404 -0.028992703
000310 71 7c 67 3d 9e ee 13 bc d6 41 23 bd 91 4e a8 3d
       0.05651516 -0.009029059 -0.039857708 0.0821811
000320 2a e5 12 3e 2e d0 53 bd 4b 89 2c 3e f4 7a 61 3d
       0.14345232 -0.051712207 0.16849248 0.055048898
000330 62 eb 82 3d c2 6a 18 3e d3 9e 61 bd 00 22 35 bd
       0.06392552 0.14884475 -0.055083107 -0.044221878
000340 56 12 76 bd 74 19 9a 3d 11 e6 85 bd 01 a2 0c 3c
       -0.06007608 0.07524386 -0.06538022 0.008583547
000350 c1 92 bc 3d 14 f8 5b bd be 77 ad bd d9 b3 13 3c
       0.092076786 -0.053703383 -0.08470105 0.009015047
000360 ee 0e 05 be 2f a8 f8 3d 9f 5e 66 be 63 96 93 3d
       -0.12993976 0.121414535 -0.22497033 0.07206418
000370 6c 0b ef 3c fa 06 59 3d c9 2d ad bd 9c aa ec 3d
       0.029180251 0.05298517 -0.084559985 0.11555979
000380 24 a9 a1 bb d8 4b 6a 3d 3f 09 f2 bb 7a d1 11 3e
       -0.004933493 0.057201236 -0.007386356 0.14240065
000390 64 83 8b 3d 94 96 e8 3d 96 8f 40 3c 82 59 ba 3d
       0.0681217 0.113568455 0.011752984 0.090991035
0003a0 e3 4d 2c 3e 93 a6 f0 3a ae cd 94 bd a4 30 32 bd
       0.16826586 0.001836019 -0.07265793 -0.04350342
0003b0 19 e5 2a bd ee 61 16 3b 30 6d f9 bc 98 14 fe 3d
       -0.04172239 0.0022946554 -0.030447572 0.12406272
0003c0 af ea 49 3e ab 70 57 bd 1a 78 f8 3c 87 8b 2d 3e
       0.19718431 -0.052597683 0.030330706 0.16947757
0003d0 d7 43 93 3d 5a 43 b3 bd af 20 4b 3e e7 5b 53 bc
       0.07190674 -0.08753081 0.19836687 -0.012900329
0003e0 a4 80 0e be ae d0 57 3d bf 1f 39 3b 2a 25 11 bd
       -0.1391626 0.052689247 0.0028247682 -0.035435833
0003f0 1f e4 6d bc 29 74 30 be 8c 76 05 3e 63 e9 1c be
       -0.01451972 -0.17231812 0.13033503 -0.15323405

fc.3.bias f4 [255]
000000 c4 c3 8d bb f1 80 8c bc 7c 80 11 bd b1 3f 99 bb
       -0.0043263156 -0.017151328 -0.035522923 -0.004676782
000010 65 e0 5e bc 71 e6 78 3b df 64 8f 3c 6c 08 9c 3c
       -0.0136033045 0.003797915 0.017504154 0.019046985
000020 6c 1e 46 bc 7f 09 e5 3c 36 f3 fc bc 71 f1 3c bc
       -0.012092214 0.02795863 -0.03087769 -0.0115321735
000030 6a 75 de 3a 1a 49 82 bb e9 5b e3 bc ab ac fa bc
       0.0016972248 -0.0039759995 -0.027753787 -0.030599913
000040 6e 17 55 bd 55 ff 16 bd 95 99 eb bc 76 b8 a8 bc
       -0.052024297 -0.036864597 -0.028759757 -0.02059577
000050 ca f9 94 bb c6 09 39 bc 39 28 31 3c 6a 5a b9 bb
       -0.0045463787 -0.011293834 0.0108128125 -0.00565653
000060 c0 af d0 3c df 49 1f 3c 26 8c 88 3b 53 d6 c7 3b
       0.02547443 0.009722202 0.0041670976 0.0060985475
000070 c1 f6 1f bc f4 ae ae ba ad 48 f4 bc a2 7c 04 3c
       -0.009763421 -0.0013327287 -0.02981981 0.008086355
000080 95 0e cd bc 4d d8 ed 3a 1f 62 ee 3b 7f 32 fc 3c
       -0.025031367 0.0018146128 0.0072748805 0.030785797
000090 06 37 4b bc 24 21 86 3b b9 30 62 3c f5 1c 99 3c
       -0.012403255 0.004093306 0.013805562 0.018690566
0000a0 d4 38 e4 bb 2b d4 ac bc 6f 92 72 bd 9a 86 88 bc
       -0.0069647823 -0.021097263 -0.05922168 -0.016665746
0000b0 5f 43 4c 3d 06 88 b6 3c 75 ed 6f bc 56 ea b3 bc
       0.049868938 0.022281658 -0.0146440165 -0.021962326
0000c0 a3 79 6a 3c 2c 93 c6 3a fa 01 40 bc 79 f4 4c 3c
       0.014311227 0.0015150062 -0.011719221 0.012509459
0000d0 33 d9 44 3b d3 75 ac bc 88 c2 27 bb 19 68 4e 3d
       0.0030036687 -0.021052277 -0.0025598127 0.050392244
0000e0 c0 36 bd bb 2f 30 5b 3c f6 07 44 bc 77 45 8b bc
       -0.005774349 0.013378187 -0.011964789 -0.017000897
0000f0 23 cf ee bc 8c c6 67 bd 98 d4 04 bd b8 1b fb 3c
       -0.029151505 -0.056585833 -0.032429308 0.030652866
000100 de 2a 3f bd 62 8a d8 bc c9 c2 58 3c 56 19 9a bc
       -0.04667174 -0.026433174 0.013230034 -0.01881091
000110 dc a9 1d bb 3c 44 ab bc 83 24 b5 bc 52 f1 2b bd
       -0.0024057543 -0.02090656 -0.022112137 -0.041978188
000120 0f c5 a5 bb 0a eb 39 bd 68 d0 ba bc 36 04 ec bb
       -0.0050588916 -0.045390166 -0.022804454 -0.0072026504
000130 00 22 38 bc ef 3a 39 3c 45 df 52 3c e5 a2 f5 bb
       -0.011238575 0.011305555 0.012870614 -0.007496225
000140 c3 1f 0d bc c7 5f 2a bd 23 05 06 bd b8 ad d9 3b
       -0.00861353 -0.041595247 -0.032719743 0.0066430233
000150 77 e2 6a 3b b5 8c 50 ba 22 5b 88 3c 67 73 73 bc
       0.003584055 -0.00079555373 0.016645018 -0.014859057
000160 45 6c 33 bc c4 4f a5 3b 79 96 4f bc c4 bf 84 3c
       -0.010951106 0.005044909 -0.012670153 0.016204722
000170 13 23 9c bc aa 00 03 bd 3d 49 33 3d ee 03 85 bc
       -0.019059693 -0.031983055 0.043771017 -0.016237225
000180 b4 9b 7b bd 11 4d 09 bd ad 1b 84 bb 05 d9 77 3b
       -0.061427787 -0.033520762 -0.0040316195 0.0037818563
000190 ad 00 3d 3c ba 87 15 bd 09 4c 68 3c 0f 56 34 bc
       0.011535806 -0.036506392 0.014178284 -0.011006846
0001a0 37 a8 f9 bb a9 d4 1e bd 7a fe e6 bc f8 b7 ed 3c
       -0.0076189297 -0.038777027 -0.028197516 0.029018387
0001b0 96 75 8e 3c 9b 73 5c bc 5e 6e 94 3b 59 6e 58 3c
       0.017390054 -0.013455297 0.0045297584 0.013209903
0001c0 d7 c1 9a 3b 35 43 e7 bb df 30 1f bc 2b ae 0e bc
       0.0047228145 -0.0070575722 -0.009716242 -0.008708517
0001d0 09 ee b5 bc 54 c6 dc bc 70 7c 17 3d 1c 33 d1 3b
       -0.02220823 -0.026950039 0.036983907 0.0063842665
0001e0 72 58 04 bd fa 60 e7 bc 83 f1 68 bc 03 b4 32 bd
       -0.03231091 -0.028244484 -0.014217737 -0.043628704
0001f0 3d f4 3e 3d a3 d9 50 bc 8b 30 1c ba aa 52 22 3c
       0.046619643 -0.012747201 -0.0005958161 0.009907404
000200 53 fd 03 bc 26 16 9d ba 20 e1 ea bb 87 fb e9 bc
       -0.008056003 -0.001198475 -0.0071679503 -0.02856232
000210 07 5e da bc ac d9 7d bc ce 84 58 3c 49 15 64 bc
       -0.026656164 -0.015493792 0.013215257 -0.01392109
000220 c9 b7 5f 3c 60 e8 34 3b b1 41 2c 3c b9 e1 80 3b
       0.013654658 0.0027604327 0.010513709 0.0039331582
000230 47 4d 62 bb d5 21 82 3a 50 a9 bb bc 08 3f 57 bd
       -0.0034530924 0.0009928296 -0.022907883 -0.052550346
000240 5c 51 e3 bc 1e 9c f8 3b 99 c7 2d 3d fc 3d 1e 3a
       -0.027748756 0.00758697 0.04242668 0.0006036458
000250 9c 28 1d 3c fd 74 e8 3b ab 19 de bb 0f a1 8a 3c
       0.009592202 0.007094024 -0.006777962 0.016922502
000260 dd be d3 3c bf 84 d1 bc ce 1f 00 bd 6b e4 2e ba
       0.025847847 -0.025575994 -0.03128033 -0.000667161
000270 bb 96 9b 3d a5 55 5b 3c 82 23 2c 3d 7d 55 f8 3b
       0.07597109 0.0133871185 0.04202605 0.0075785504
000280 44 97 25 bc db 0a cc 3c aa 8a 26 3a 3d 43 44 3b
       -0.010106865 0.02490752 0.000635306 0.0029947304
000290 59 cd 95 3b 3e e8 6e bd e7 a0 02 3d 92 02 05 bd
       0.0045715985 -0.058326952 0.03189173 -0.032473154
0002a0 e9 bd 86 bc 8d 83 47 3c ae aa 31 bd 5f cd f6 bb
       -0.016447978 0.01217736 -0.043375663 -0.0075318064
0002b0 da 3e 25 bd a5 be 20 bc a3 90 85 3b 53 8f 25 3c
       -0.040343143 -0.009811078 0.00407608 0.010104972
0002c0 61 28 76 bb 8b f5 66 bb 7e 0f 05 bb b6 5c ab 3c
       -0.0037560689 -0.003524157 -0.0020303424 0.020918231
0002d0 75 55 0c bd 8a 5b 2c bb 59 a6 e2 3c 55 c1 53 3d
       -0.034261186 -0.0026299679 0.027667211 0.051698048
0002e0 1a bf db bb 87 0c 8e bc 64 e0 7e bc fc f8 13 bd
       -0.0067061307 -0.017339958 -0.015556429 -0.036126122
0002f0 b0 db 46 3c 7a df f0 bb a4 e1 db 3a 2b b2 aa 3c
       0.0121373385 -0.007350859 0.001677562 0.02083691
000300 e3 96 26 3c 9f 4e 78 bc a4 61 d6 b8 3a 04 aa bc
       0.01016781 -0.0151554635 -0.00010222502 -0.020753969
000310 b5 0e 7c bd d4 12 f8 bc 30 71 01 3d 26 bb 44 3d
       -0.061537463 -0.030282415 0.031602085 0.04803004
000320 79 6f 92 bc 8c be 0a bb 5e 28 30 3d d9 68 db bc
       -0.01787542 -0.0021170704 0.043007247 -0.026783394
000330 a1 29 6b 3c ec 5d 0e bc 12 3e 0a bd 97 6f d3 3c
       0.014353187 -0.008689385 -0.0337506 0.025810046
000340 39 2c 4e 3c fe d8 03 bd 3f c1 7e 3c 3e 87 a0 bd
       0.012583786 -0.03218936 0.015549003 -0.078382954
000350 ce 81 da bb 11 f4 02 3c dc 19 14 bd e6 ea 1d bd
       -0.006668306 0.00799276 -0.036157474 -0.038554095
000360 ac 3d 08 bd 27 8b 69 3c 67 5a 2c bd 02 f1 a1 bb
       -0.03326194 0.014254368 -0.042078402 -0.0049420604
000370 15 55 31 bd a5 21 f9 3c 1d f3 80 3b 23 18 00 3d
       -0.04329403 0.03041155 0.0039352314 0.03127302
000380 bf d0 a7 3c 2e 4e 03 bc e0 73 0e bd 6d 15 a2 3b
       0.02048528 -0.008014245 -0.034778476 0.004946402
000390 a0 7e 82 ba f1 98 0e 3c 73 59 e4 3c 38 5a 75 bc
       -0.000995595 0.008703456 0.027874684 -0.014975123
0003a0 ad 8c 7a 3b 61 2b 22 3c be 88 83 bd 7b 78 78 bc
       0.0038230822 0.009898038 -0.06422566 -0.0151654435
0003b0 ed 49 a8 bb a2 69 24 bc 60 1b c6 bc 6f 4f 25 3d
       -0.0051357658 -0.01003495 -0.024182975 0.040358957
0003c0 61 5a 57 bc 84 47 2e bd 10 d8 ca bc de 9c b6 bc
       -0.013144107 -0.04254867 -0.02476123 -0.022291597
0003d0 3d fe f3 bc e3 4d fa bc 4e 62 47 bd 33 5f 5f bc
       -0.029784316 -0.030554717 -0.048677735 -0.013633537
0003e0 c4 03 09 37 4f 07 e5 3a 7c 39 b5 b9 6f 05 ab 3c
       8.166713e-06 0.0017473492 -0.0003456584 0.020876614
0003f0 73 00 f7 bc 28 20 52 bd 46 97 f3 3b
       -0.030151581 -0.051300198 0.0074338047

fc.3.weight f4 [255, 510]
000000 0d c0 52 3b fc e5 13 3b 8d 21 8a 3b 7b 99 43 3c
       0.0032157928 0.0022567501 0.0042154253 0.011938448
000010 1a 69 9f bc 1a c8 09 bd 5b 98 4c bd cc dc d1 3b
       -0.019459296 -0.033638097 -0.049949985 0.006404495
000020 61 82 76 3c a8 b7 72 3d 4a 36 ac 3d ac 77 ac 3d
       0.015045733 0.05925718 0.08408792 0.08421263
000030 0d aa c0 3c 7c c0 c1 bc c2 3c c4 bc 37 90 76 3d
       0.023518587 -0.023651354 -0.023954753 0.060196128
000040 15 06 f6 bc 7e d7 c1 3b a3 18 0d bd 12 69 80 bd
       -0.030032197 0.0059155812 -0.034447324 -0.062700406
000050 ea 1a 9e 3c 78 4e 64 3d ed 51 58 3d 56 49 33 3c
       0.019299943 0.055738896 0.052812506 0.010942778
000060 e8 84 62 bd 5c bb 95 bc 8d c6 11 bd 6b 16 35 bd
       -0.05530253 -0.018277816 -0.035589743 -0.044210833
000070 5e e3 72 3b a4 c7 66 3d 60 1b 61 bc a3 09 16 bd
       0.003706179 0.056342736 -0.013739437 -0.036630284
000080 c0 31 3b 3c 7b 89 9d bc 58 22 5e 3d 2d ed b2 bc
       0.011425436 -0.019230595 0.05423197 -0.02184161
000090 58 30 71 3c 0e 5b 0c bb f0 a4 89 bd 36 20 ab bc
       0.014720999 -0.0021416578 -0.067209125 -0.020889383
0000a0 fa 95 67 3d 00 ed ef bc db 3c a6 3c ab 23 05 3c
       0.056539513 -0.029287815 0.02029269 0.00812618
0000b0 69 2e bb 3c 04 ce 8c bd 36 2a 9f bd b7 cc 8e b9
       0.022849279 -0.06875232 -0.07771723 -0.00027236875
0000c0 15 59 99 3c 99 aa b7 bc 73 9c 64 bd 41 2d fe 3c
       0.018719235 -0.022420214 -0.055813264 0.031027438
0000d0 64 a8 bd 3c 83 a0 6f bd d9 35 8a 3d c8 36 25 bc
       0.023151584 -0.058502685 0.06748552 -0.010083862
0000e0 e9 06 90 bd 72 4b ec bc 41 07 31 bd e4 9f 4c 3d
       -0.07032568 -0.028844569 -0.04321981 0.04995717
0000f0 4e d3 e5 3c ef c2 3c 3d 61 d0 07 bc d9 fa 98 3d
       0.02805486 0.04608434 -0.0082894275 0.074697204
000100 39 01 b2 bd 12 7d 72 3c 7f b7 a0 bd 80 bc 50 3d
       -0.086916395 0.014800327 -0.07847499 0.050961018
000110 48 6f 68 3c 5c d0 49 bd a7 ad 84 bd cd 49 0d bd
       0.014186688 -0.049270973 -0.06478434 -0.03449421
000120 cc b1 7e 3d 19 24 32 3d 58 6f 84 bd e2 05 69 bd
       0.06218128 0.043491457 -0.0646655 -0.056890376
000130 68 da 18 3d d6 66 0a 3d 89 d7 85 bc 96 62 02 bd
       0.037317663 0.03378948 -0.016338127 -0.0318323
000140 67 70 52 bc fc c9 e5 bc 8a 1c 32 3d 80 ea b7 3b
       -0.012844182 -0.028050415 0.04348425 0.0056126714
000150 fd 2f 0c bd af 33 d1 3d 9b c0 3c bd 2b 71 b0 3d
       -0.034225453 0.10214936 -0.04608212 0.08615335
000160 84 48 7a bd ee b8 97 3c fb 1b 35 bd 81 bd 4e 3d
       -0.061104313 0.018520799 -0.044216137 0.050473694
000170 f0 67 4f 3d 7f 76 15 3c 3e dc 22 3d e3 15 8a bc
       0.050636232 0.00912249 0.03976082 -0.01685614
000180 64 4d 98 3c c7 7a 1e 3d b5 71 9a 3c ec 88 8a 3d
       0.01859159 0.03869131 0.018853048 0.06764397
000190 2e 2d 78 3d cf 0a b1 bc e2 2b b4 bc 65 db a1 bc
       0.06058996 -0.0216116 -0.021993581 -0.019757936
0001a0 e1 28 5d 3d a0 90 98 3d 18 0b 91 3d ba e5 51 3d
       0.053994063 0.0744946 0.07082194 0.051244475
0001b0 7a df ed 3c 4d e2 2a bd 4d d8 78 3b 76 c9 a0 3c
       0.029037226 -0.041719723 0.0037970722 0.019627314
0001c0 42 4b 7c bd ee c2 b1 3c 67 ee 60 3a c0 98 2c bd
       -0.06159521 0.021699395 0.00085804466 -0.04213786
0001d0 75 6e 41 3d 98 da 88 bd af f2 f9 3c 69 00 07 bd
       0.04722448 -0.066823184 0.030511228 -0.032959376
0001e0 aa 0b 77 bd b1 dc 47 3c 23 13 66 3c e2 d3 7d bc
       -0.060313858 0.012198613 0.0140426485 -0.015492411
0001f0 23 ec 6e bc 38 ea 8a 3d 11 1b 1e bc 84 85 94 bd
       -0.014582667 0.06782955 -0.009650008 -0.072520286
000200 7b a1 31 3c ed 9a 01 bd 6a ef 81 bc 6f e8 e5 3c
       0.010841723 -0.03164189 -0.015861232 0.028064935
000210 47 7c 24 3c 5b 6f 1f 3d 06 50 b8 ba 0e 7b 1e 3d
       0.010039396 0.038924556 -0.0014061935 0.038691573
000220 8c 02 94 bd 96 35 8b bc 9f 6c 24 bd ec 0b 4f 3c
       -0.07227048 -0.016993325 -0.04014265 0.01263712
000230 13 b7 0d bd a2 dd 46 bd 86 86 f3 bc 8f 02 19 bd
       -0.03459842 -0.04855121 -0.029727232 -0.037355956
000240 56 ce 4e bc d4 bb 65 bd 19 54 30 bd b8 b1 2e bd
       -0.0126224365 -0.05608733 -0.04304895 -0.042649955
000250 98 f0 89 3c 79 23 1d bd 05 00 91 bd dd c3 72 bd
       0.016838357 -0.038363907 -0.07080082 -0.05926882
000260 f9 79 b7 bc 26 17 19 3d 9c 18 0d 3d 2b 99 a8 3c
       -0.022397028 0.03737559 0.034447297 0.020580849
000270 65 81 94 3b 8c 26 87 bd fe 3a 3a bd d3 68 06 3d
       0.0045320266 -0.06599149 -0.045466416 0.032814812
000280 aa 82 02 bd ff 84 30 bd d6 ee 0f bd 72 47 78 3c
       -0.031862892 -0.043095585 -0.03513988 0.015153753
000290 ec 7b 87 bc a8 f3 52 bc 5f 8d 8b 3b 8b 65 87 bd
       -0.016538583 -0.012875475 0.004258796 -0.06611165
0002a0 84 7c 03 bd d6 c3 66 3d c6 d1 97 3a 19 47 a7 3c
       -0.03210117 0.056339107 0.0011582903 0.020419644
0002b0 eb ea 0f bd 68 2c 0b 3d b2 8c 03 bd 37 7d 8c 3d
       -0.035136145 0.033977896 -0.0321166 0.0685982
0002c0 ef 04 15 3d fa 9c ee ba 2c 62 d8 bc e3 30 47 bd
       0.03638166 -0.0018204742 -0.026414 -0.048630606
0002d0 5d 5c 50 3d 3e e4 59 3d ac c7 54 3d bb 89 da 3c
       0.050869334 0.053196184 0.051948234 0.026677003
0002e0 d7 f3 28 bd 04 36 9f bd 5a 4e 20 bc 82 11 2c bd
       -0.04124817 -0.077739745 -0.0097843055 -0.042008884
0002f0 75 67 b6 3c 3b 9e 57 3b 9c ce 77 3c be 0d e2 bc
       0.022266129 0.003290071 0.015124943 -0.027594443
000300 25 e8 7a bb ef 06 87 bd be dc a5 3c bb 15 7d bd
       -0.0038285342 -0.06593119 0.02024686 -0.061788302
000310 43 e7 e5 bc d5 c0 86 bd 69 61 22 bd 50 cc ed 3b
       -0.028064376 -0.065797485 -0.03964368 0.007257022
000320 05 a2 3b bd 14 fd 6b 3c ff 24 87 3c 53 5f e9 3c
       -0.04580881 0.0144036 0.016497133 0.028487837
000330 86 85 39 bb 46 aa 6f 3c 86 98 3e 3d f6 c2 91 bd
       -0.0028308346 0.014627999 0.046532176 -0.07117264
000340 86 08 28 bd 34 b6 68 bd 4a c8 d1 3c 0e 1a 79 3b
       -0.041023754 -0.056814387 0.0256082 0.0038009915
000350 e4 fa 91 ba 35 c4 1f 3d 8c c2 b1 bb 7f d9 01 bc
       -0.0011137393 0.039005477 -0.005424803 -0.00792539
000360 ab 18 7e 3d 86 94 57 bc 64 d0 23 bd d5 a7 ce 3c
       0.062035244 -0.013157969 -0.03999366 0.025226513
000370 d3 c1 c5 3b c3 80 54 bc 4c df e5 bc 35 1e 40 3d
       0.0060350685 -0.012970152 -0.028060578 0.046903808
000380 f7 39 69 bd b5 8d 5f 3d 89 79 d5 bb f2 12 85 3c
       -0.056940045 0.0545785 -0.0065147323 0.016244385
000390 16 6c 39 3c a7 3c 02 3c 69 72 70 3d 6d 93 3f 3c
       0.011317274 0.007949031 0.05870286 0.011692864
0003a0 cb e3 36 bd 88 0d c5 3b a3 63 58 bd ca 55 62 3c
       -0.044650834 0.006013576 -0.052829396 0.013814399
0003b0 01 db ad 3d 81 03 19 bd c8 16 fc bc 9d 22 9f 3d
       0.08489037 -0.037356857 -0.030772582 0.07770274
0003c0 ee 33 81 bd 59 f9 88 bd b3 a7 67 bd 03 7a 2a bc
       -0.06308733 -0.06688184 -0.056556415 -0.010405066
0003d0 7a 4a 89 bb 3e 15 0e bd 2b 6a c2 3c 4e c8 81 3d
       -0.0041897865 -0.034688227 0.023732265 0.06337033
0003e0 7b 2d fb bc 11 64 aa 3c f5 fe 1b 3d 3c 23 7d 3d
       -0.030661335 0.020799669 0.038084943 0.06180118
0003f0 2d 0f e3 3c 0e 10 41 bd e2 91 dd 3c 91 a9 e3 3c
       0.027717197 -0.04713445 0.027047101 0.027790817
