inventory/ark_material.onnx (onnx, 568796 bytes, 8 tensors)

35 f4 [8, 3, 5, 5]
000000 65 ac 1a 3f be 9f 71 be ea 00 a9 3e fb ee d8 bc
       0.60419303 -0.23596093 0.3300851 -0.026481142
000010 e0 b9 e6 3e d5 a1 c4 bd 63 5c 59 3e 3d a5 b5 3e
       0.45063686 -0.096011795 0.21226649 0.3547763
000020 9f cf af 3e b7 42 66 3e a5 b8 b8 3d 7a f0 8a 3e
       0.3433809 0.22486387 0.09019593 0.27136594
000030 e5 e2 b3 be 96 53 03 3e bf d4 16 3e 4a 19 c2 3d
       -0.35134044 0.12824854 0.14729594 0.0947748
000040 a7 23 13 3e ea b0 e7 be 27 c5 89 3c 60 33 6d 3d
       0.14369069 -0.45252162 0.016817642 0.057910323
000050 d1 b8 60 3e f8 2e d9 3e cf 75 ca 3e 55 1d ea 3d
       0.21945502 0.42418647 0.39543006 0.11431376
000060 ca 20 04 bf f1 7a b2 be 06 51 55 3e a1 7f 18 3e
       -0.5161253 -0.34859422 0.20831689 0.14892437
000070 c9 25 b7 3d d3 a5 f6 3e a3 d0 48 3e d4 a6 24 3d
       0.08942754 0.4817339 0.19610839 0.040198162
000080 11 03 57 bd 5e f7 fa b9 bf 10 a4 3c b4 a1 7a be
       -0.05249316 -0.0004786802 0.020027516 -0.24475747
000090 9f 66 0a bf 79 69 0f bd 83 d1 fa be d7 b5 c0 3d
       -0.5406284 -0.035012696 -0.4898797 0.09409683
0000a0 dc 26 ba 3d d0 05 d8 bd ac d8 b3 be 58 bb 82 bd
       0.09089443 -0.10547984 -0.35126245 -0.06383389
0000b0 d0 ef 3a 3d 4b ef ee be 34 53 92 be 9f 22 05 bf
       0.04563886 -0.4666694 -0.28579104 -0.5200595
0000c0 99 1e a3 be b8 fe 54 3a ea 3d ee 3e 7a 89 eb bc
       -0.31859282 0.0008125114 0.46531612 -0.028752077
0000d0 3f 3a 42 be 2a a2 c4 3e ca 8c 3d bc 63 f7 02 3f
       -0.18967532 0.3840497 -0.011569211 0.5115873
0000e0 58 65 fb 3d 26 71 a6 3d 1e a1 b2 3e 70 7b 35 3e
       0.12275189 0.0812705 0.34888548 0.17722869
0000f0 6d 29 bc be 6f 27 b9 be f1 eb be 3e e1 b3 a2 3c
       -0.36750355 -0.36162898 0.37289384 0.019861164
000100 a7 2e dd 3e 24 09 02 3e 27 47 9e 3d 17 0d 93 3e
       0.43199655 0.126988 0.07728415 0.28720924
000110 18 03 67 be c7 5f 65 3e e5 13 5c be e2 a3 c9 be
       -0.22559774 0.22399817 -0.21491964 -0.39382845
000120 6d b1 ce be e3 0d ac be d7 af 80 be da f9 13 be
       -0.4036974 -0.33604345 -0.25134155 -0.1445078
000130 91 8c 0a 3f 31 43 cf 3d 0b cc 89 be f5 91 6f be
       0.5412074 0.101202376 -0.26913485 -0.23395522
000140 b7 a3 0c bf 1e ad 29 bf 51 b0 60 be c6 87 35 3f
       -0.5493731 -0.6627978 -0.2194226 0.709103
000150 a3 d1 e4 bb 04 21 fe be f4 5d 37 bd 31 26 70 3e
       -0.0069829985 -0.49634564 -0.044767335 0.23452069
000160 25 e4 9d bd 0b c0 e0 3c ff 2d d8 3e 18 d0 e4 be
       -0.07709531 0.027435323 0.42222592 -0.44690013
000170 7e 14 49 3d 56 88 b4 bd a8 58 bc be c2 b3 30 bf
       0.04909181 -0.088150665 -0.3678639 -0.6902429
000180 bd 11 91 3e e8 32 a3 be e8 d4 35 3e 86 07 02 3f
       0.28333846 -0.31874776 0.17756999 0.5079273
000190 c8 62 48 bd 97 4e d8 be ab 2a 03 3f ef c9 14 3f
       -0.04892233 -0.4224746 0.5123698 0.58120626
0001a0 db e6 60 3e 9f b2 b0 3d 24 12 22 3e a0 c3 b8 3e
       0.21963064 0.08627819 0.15827233 0.3608675
0001b0 9b 73 2b be 82 18 0b 3e 2e a3 45 3e 93 e7 19 be
       -0.16743319 0.13583568 0.1930053 -0.15029745
0001c0 3c 40 24 3f e0 42 79 3e 9c 82 c9 3d c8 a3 21 bf
       0.64160514 0.24341917 0.09839365 -0.63140535
0001d0 5f f9 04 bd 7d 1b dc be 40 97 c3 3e a4 68 fa 3e
       -0.03246438 -0.42989722 0.38201332 0.4890796
0001e0 44 10 56 be 7f 7f d1 be ea 97 27 3e ad ed de 3e
       -0.20904642 -0.40917584 0.16366544 0.43540707
0001f0 c1 88 bd 3e cf ff 1b 3f 8b 86 9b 3d b3 0d a0 3d
       0.37018397 0.6093721 0.075940214 0.07815113
000200 a2 bd 43 bd 9b 29 cb be 6b e1 de 3e e5 ce 97 3e
       -0.04778827 -0.3968018 0.43531355 0.29650036
000210 cb e4 d7 3d b2 6f 6d be 66 91 1b bf b6 80 ff be
       0.10541686 -0.2318714 -0.60768735 -0.49902886
000220 cb 5e db 3e 55 b8 a9 be 9a f2 11 3f 04 a4 84 be
       0.4284576 -0.33148447 0.57010806 -0.25906384
000230 fd 77 3f bf 04 79 a1 3e 31 d4 9c bd e8 ca aa bd
       -0.7479246 0.3153764 -0.0765766 -0.083394825
000240 6c 18 45 3e 74 8a 9d be 94 e1 8e 3e 3f 9c 81 3e
       0.19247597 -0.30769694 0.27906477 0.2531452
000250 88 d1 21 3f 5f fb 24 3f 30 0f 2a 3e 57 f5 80 be
       0.63210344 0.6444606 0.16607356 -0.2518718
000260 07 14 e6 3e d6 51 18 3e 7c 34 cd 3e 79 df 5b 3e
       0.44937155 0.14874968 0.40079105 0.21471967
000270 b3 2b 5d be 0d d4 8a 3e 90 40 07 bd d7 29 eb bc
       -0.21598701 0.27114907 -0.033020556 -0.028706474
000280 93 b8 ef 3e 94 6b 71 3e cb 28 18 3d f8 db 10 3c
       0.46820506 0.23576194 0.03714828 0.008841507
000290 d1 d9 e5 3d 2f 67 d9 3a ba 78 63 3e bb d4 df bd
       0.11223186 0.0016586537 0.22214022 -0.10929247
0002a0 73 4c 91 3e 90 17 25 3e 07 56 93 bd 2f 4d d6 3d
       0.2837864 0.1612227 -0.07194143 0.1046394
0002b0 8e 1d 06 3d 93 76 9e 3e 3c 71 9a be 7c 58 06 3d
       0.03274303 0.3094984 -0.30164516 0.03279923
0002c0 02 46 c1 3e 79 2b 99 3b a6 ff a7 3e 1a fc c3 be
       0.37748724 0.004674372 0.32812232 -0.38278276
0002d0 eb fe 26 3e d7 46 74 3d a9 f2 4e 3e 25 66 99 be
       0.16308181 0.05963787 0.20209755 -0.29960743
0002e0 7f 5a e8 3c 80 fd 3f 3d bf 67 8c 3e 64 56 df be
       0.028363464 0.046872616 0.27422902 -0.43620598
0002f0 90 c1 d0 3c f2 0a 31 3e 19 93 0c 3e 40 90 8b be
       0.025482923 0.17289332 0.13727988 -0.27258492
000300 2e 8a 9d be 01 dc 01 bf 47 b1 e0 3d 92 73 dc be
       -0.30769485 -0.50726324 0.10971313 -0.43056923
000310 06 b7 4c 3e 63 b1 ef be a0 4a bd 3c 01 38 08 bf
       0.19991693 -0.46815023 0.023106873 -0.53210455
000320 f5 36 d1 bd e3 df 4a 3e 77 4d 0c 3e 88 28 84 3d
       -0.1021556 0.19811969 0.13701425 0.06453043
000330 10 22 c4 bb 36 2c b1 bd b5 24 03 be 2b 91 e2 3e
       -0.005985506 -0.08651011 -0.12806971 0.4425138
000340 57 a7 ab 3e 0d ed 0d be 5f 7a 3b be 07 52 14 be
       0.33526108 -0.13859959 -0.183084 -0.14484416
000350 0f 90 0a be c2 77 34 3d 10 de fb be 39 aa b8 be
       -0.13531516 0.044059522 -0.49192858 -0.3606737
000360 53 96 2a 3c 8a 1d 7a be b9 33 9d be 85 ee 44 3e
       0.010411817 -0.24425331 -0.30703524 0.19231613
000370 e5 de ae be 6e d3 a5 be 54 24 ff be 23 5b d8 be
       -0.3415443 -0.3238787 -0.49832404 -0.42257032
000380 4c 16 db be 8a 01 98 3e 58 a3 a5 bd 8a f7 9a be
       -0.4279045 0.29688674 -0.08087796 -0.30266982
000390 86 e6 9c be 30 ed 23 bd 10 2d 84 3e 67 49 d0 bd
       -0.30644625 -0.04002112 0.2581563 -0.101702504
0003a0 3e be e4 3d 2d 76 2f be c9 5c 68 be 63 46 41 be
       0.11169098 -0.17134924 -0.22691645 -0.18874507
0003b0 c0 15 8b be cc a1 93 be 24 7f 5d bd 35 08 5d be
       -0.2716503 -0.2883438 -0.05407633 -0.21585162
0003c0 f8 55 05 3e 52 96 e2 bc ac 41 7c 3d 67 67 a1 3d
       0.13021076 -0.027659569 0.061586067 0.078810506
0003d0 73 df 18 3e 17 24 04 3e e7 7f d0 bd 9e e3 23 bb
       0.14928989 0.12904392 -0.101806454 -0.0025007497
0003e0 fc 28 7b be dd 17 b2 bd 52 39 dc bc fa 3f 26 be
       -0.24527353 -0.08695958 -0.026882801 -0.16235343
0003f0 cd ed 22 be 80 84 74 3e 7b 6e c8 bd e4 a0 15 bd
       -0.15911026 0.2387867 -0.097866975 -0.03653039

36 f4 [8]
000000 7c d5 0a bf 6d 38 a6 bf 4e 5b 8a 3f 5d a4 fc 3f
       -0.54232 -1.298597 1.0809114 1.973766
000010 b9 df 86 be 2e 5b 9d bd a0 20 10 3f 1b bd bd bf
       -0.26342562 -0.07683407 0.5629978 -1.4823335

38 f4 [16, 8, 3, 3]
000000 66 c5 c2 3e 03 a5 a9 bd ee dd 13 bf 2b 54 7e 3d
       0.38041228 -0.082834266 -0.5776051 0.062091988
000010 bb 5a 6d 3f b4 12 81 be 10 59 1d bf b6 5f 98 3e
       0.9271657 -0.25209582 -0.61464024 0.29760522
000020 0d cc bf be ac 38 ee bc 94 f7 92 3e 2d 46 02 3f
       -0.37460366 -0.029079758 0.28704512 0.5088833
000030 8e 00 e6 3e e7 51 6c be 5a ae 9b bf c3 be 41 bf
       0.44922298 -0.23078118 -1.2162583 -0.75681704
000040 09 dd 90 bf d4 0d 68 3d 88 dd 64 3f 44 64 a5 3e
       -1.1317455 0.056653813 0.8940053 0.3230306
000050 8b b6 e0 3e 3e c2 dd be d6 c7 ee be b2 1e db be
       0.4388927 -0.43312258 -0.46636838 -0.42796856
000060 67 3b dc 3d 7e 76 17 bf dc a4 a9 be 98 cd d3 3e
       0.107535176 -0.5916518 -0.3313359 0.41367793
000070 f9 d3 ed 3e 91 34 82 be 8d d0 fe be 52 15 48 3e
       0.46450785 -0.2543073 -0.49768487 0.19539383
000080 de d3 fd 3e 55 fe 14 bf a7 cd 99 bf f4 81 a5 bf
       0.49575704 -0.5820058 -1.2015885 -1.2930284
000090 93 e9 a6 be ca 08 7f be 08 93 c3 bd 93 9d cd 3e
       -0.32600078 -0.24905697 -0.09549528 0.40159282
0000a0 55 32 cb 3f d0 c5 32 bf da 45 05 3f 2d c8 b6 3e
       1.5874735 -0.6983309 0.5205971 0.35699597
0000b0 92 a1 a3 bc af 2d 5a be 67 96 4b bf 23 82 e3 be
       -0.019974504 -0.2130649 -0.7952637 -0.44435224
0000c0 e6 18 4d 3e 3a 3c 96 be b7 c5 37 bf a7 85 96 3d
       0.20029029 -0.29342824 -0.71786064 0.07349711
0000d0 a5 b1 bc 3c 9b fe 3d bf f6 bb 02 bf 31 95 ed 3e
       0.023033926 -0.7421662 -0.51068056 0.46402887
0000e0 c3 c6 40 be 9d af e2 3e b9 e4 61 bc 79 49 b5 be
       -0.18825822 0.44274607 -0.013787442 -0.35407618
0000f0 be f5 e9 3e 50 eb 26 bf 91 9f 56 3e 7e 6c 3d be
       0.456953 -0.6520281 0.20959307 -0.18498418
000100 3f 75 95 bd 35 44 ef 3e 68 45 e2 3c 05 02 07 be
       -0.072977535 0.46731725 0.027620986 -0.13184364
000110 fc 77 82 bf 4a 31 19 bf 6a 19 c3 3e 97 5b 30 bf
       -1.0192866 -0.59840834 0.38105327 -0.68889755
000120 70 61 ab 3f 9e db 8b 3e 91 48 07 be 97 c4 02 3e
       1.338911 0.27315992 -0.13211276 0.12770306
000130 c1 27 d1 be e2 b4 47 bf fd b8 3e be e2 d7 27 3f
       -0.40850642 -0.7801038 -0.18625255 0.65563786
000140 c7 d6 ab 3f 5d 3d f6 3e 3c 05 47 be 81 00 fd be
       1.342492 0.4809369 -0.1943559 -0.49414447
000150 63 fb f2 bc 24 5a 8c be 8a 8b 0b bf 1f 31 0b be
       -0.029660886 -0.27412522 -0.54509795 -0.13592957
000160 da 76 bf bd 7e 68 8b be 2a 3c f7 bd 0a 72 49 3e
       -0.09348841 -0.2722816 -0.12072022 0.19672409
000170 00 04 a8 be 24 b4 46 3f f9 89 11 bf 17 d0 8d 3e
       -0.32815552 0.7761862 -0.56851155 0.27697822
000180 c8 99 53 bd b0 af 84 bf 62 67 5a 3e 67 ae 32 3e
       -0.05166033 -1.0366116 0.213285 0.17449342
000190 78 2f 07 bf 5d 8d 65 3f 00 55 bd be 08 6b 4a 3f
       -0.52806807 0.8966883 -0.36978912 0.79069567
0001a0 1b 4e c4 3f 14 d7 4f bf 25 76 72 be 4a db 33 3b
       1.5336336 -0.8118756 -0.23677881 0.002744394
0001b0 9c 60 ef 3e 21 42 b1 3f 94 cc 28 bf 29 61 fa 3e
       0.46753395 1.3848306 -0.6593716 0.48902252
0001c0 42 62 44 3f b6 09 4f 3d bf e2 0c be 6e 77 30 bf
       0.7671243 0.05054637 -0.13758372 -0.68932235
0001d0 bb b2 09 3e 00 cd 2a be 5d e5 05 bf 12 ca 04 3e
       0.13447087 -0.16679764 -0.52303106 0.12967709
0001e0 fc ad 86 be 43 56 04 bf 1c 64 5f bf 81 de 6b 3e
       -0.26304615 -0.51694125 -0.8726213 0.23034097
0001f0 37 94 78 3d e4 f0 48 3f f0 09 b5 bc b4 39 92 3f
       0.060688224 0.7849257 -0.022099465 1.142386
000200 2e 03 12 3f 8f 2c 36 3e a4 1f 10 bf fd 6c bc 3e
       0.570361 0.17790435 -0.5629828 0.368019
000210 f9 da b8 3e 53 5b a7 3e 7a 1a 09 3e c5 5b 07 3e
       0.36104563 0.32686862 0.13389006 0.13218601
000220 6b 75 5a bf 30 84 71 3e 4f 8c 41 bf b4 3b b7 bd
       -0.85335416 0.23585582 -0.7560472 -0.08946934
000230 71 70 8d 3e fc e2 85 be a6 c4 2c bf 62 5a 76 3f
       0.27624848 -0.26149738 -0.6748756 0.96231663
000240 f1 fb 34 bf 90 4a 2b 3f ec b9 b4 be 06 24 65 bf
       -0.7069693 0.6691065 -0.35298097 -0.8950809
000250 1b 54 34 3f 11 76 92 be cf 1c 92 b9 28 1d 1a bf
       0.70440835 -0.28605703 -0.00027868754 -0.6020074
000260 97 56 c0 bf 24 c3 90 3e 7c 7b 3a bf 95 07 c6 bd
       -1.5026425 0.2827388 -0.7284467 -0.09669415
000270 8e 9a 01 3f ce 3e 8f 3f c1 7d 85 bf 9a 18 94 bf
       0.50626457 1.1191041 -1.0429002 -1.1570008
000280 fb a6 bd 3e f9 90 e2 bf c3 be f9 3e d7 19 d8 3e
       0.37041458 -1.7700492 0.48778352 0.42207214
000290 a7 c7 05 be 9d b5 3c bf b1 a8 e8 be ce 18 38 be
       -0.13064443 -0.7371462 -0.454412 -0.17978212
0002a0 45 8d 8a 3e d6 d2 3c be 86 96 04 bf 25 7b b0 3e
       0.27060905 -0.18439803 -0.5179218 0.34468952
0002b0 9f de d3 3e 8c 79 db be a2 47 19 3d d2 d4 38 3f
       0.41380784 -0.4286617 0.03742183 0.7219974
0002c0 31 f2 7d bf fa a5 65 3e 39 d4 31 3e dc 28 00 bf
       -0.9919768 0.22426596 0.17366113 -0.50062346
0002d0 10 22 2f 3f cc 6f 98 bf 2f f6 8f 3e f9 85 18 bf
       0.6841135 -1.1909118 0.2811751 -0.59579426
0002e0 a1 b8 20 3f df 72 13 3f a3 8b 0c bf db eb fa 3e
       0.6278172 0.57597154 -0.5490057 0.49008068
0002f0 b8 87 16 3f 44 b9 1f be 20 7d 97 3f d2 53 dd be
       0.5880084 -0.15598017 1.183506 -0.43228012
000300 40 85 b1 3e 33 33 91 3f dd c3 10 bf 7d da 0c 3e
       0.34671974 1.134375 -0.56548864 0.13755222
000310 65 a3 0b bf 94 72 03 be ca 69 4e bf 5d e4 90 be
       -0.54546195 -0.12836677 -0.8063017 -0.28299227
000320 f3 0d 44 bf 0c 16 90 3f a5 8b 1e 3f 3f 08 56 3f
       -0.76583785 1.1256728 0.6193183 0.8360633
000330 72 a1 43 3f 52 bb 05 bf 97 f1 2e be 1f 0f 21 bf
       0.7641822 -0.52238953 -0.17084347 -0.629137
000340 5a e2 b2 3e 8e 0c e8 bc d4 36 bb be fe 03 45 3e
       0.34938318 -0.028326299 -0.36565268 0.19239804
000350 89 87 75 3f 29 28 ec 3e e0 9d c8 3f 08 b1 17 be
       0.95909935 0.4612439 1.567318 -0.14813626
000360 db 04 8c 3f ba 0b 62 bf 8f 86 da be e7 57 e8 bc
       1.0938982 -0.88299143 -0.42680785 -0.028362228
000370 ca b1 4f 3e b2 69 a7 3f 59 5b 96 3e 2d f9 cd 3f
       0.20282665 1.3079131 0.29366568 1.6091667
000380 05 98 ca 3e 63 9d ac 3f 0d f6 7e 3f c1 0a 16 3f
       0.39569107 1.3485531 0.99594194 0.5861016
000390 05 cb 1b be 3d b2 84 bf 9c 05 ae bf 6f 2d 68 be
       -0.15214165 -1.0366894 -1.3595462 -0.22673582
0003a0 01 09 62 bf 74 8b 13 3f 43 50 09 be 9b 44 0a 3f
       -0.8829499 0.57634664 -0.13409524 0.54010934
0003b0 50 95 22 3f 6d ec bc 3e bb 2d 69 3f e8 3f 06 bf
       0.6350908 0.3689913 0.91085404 -0.52441263
0003c0 3d 8c 50 bf a7 a2 fb be 13 fd 27 3e 73 2d 2d bf
       -0.81463987 -0.4914753 0.16405134 -0.67647475
0003d0 42 35 57 3c 79 ea 51 3e 45 cb 31 bf c2 5d e4 bf
       0.013135256 0.204996 -0.6945079 -1.7841113
0003e0 71 5d 5b bf ff 1a 0b 3f 8a e6 f3 be 38 f3 00 3d
       -0.85689455 0.5433807 -0.47636825 0.03148195
0003f0 84 fb 3e bf 3c 1c 55 bf 44 eb 87 bf 3c e9 1c bf
       -0.7460253 -0.8324621 -1.0618672 -0.6129339

39 f4 [16]
000000 50 2e 64 40 1c 64 0e bf 26 d8 b8 3e 72 d8 e5 3f
       3.5653267 -0.55621505 0.36102408 1.7956679
000010 7d f3 2b 40 4b cd ca bf ae 04 bd bf fc 42 47 bf
       2.6867363 -1.58439 -1.4767053 -0.77836585
000020 26 e2 50 40 ae 37 8d 3f e2 ec a4 bf 1e c2 8e bf
       3.263803 1.1032617 -1.2884791 -1.115299
000030 5b a9 30 40 a2 83 e1 3f d4 c7 a0 be 03 a2 fd bf
       2.7603366 1.7618296 -0.31402457 -1.9815067

fc.0.bias f4 [460]
000000 54 95 82 bc ed 94 8c bd 8f 7f 69 bb 4b 58 79 3d
       -0.015940346 -0.06864343 -0.003562901 0.06087522
000010 df 93 8d bc 38 87 4f 3d 6c 40 a4 bc 8a fb ad 3d
       -0.017282424 0.050666064 -0.02005025 0.08495243
000020 6f 8a a4 3d 8b 12 0a 3d 82 bf 66 bc 73 ba ea 3d
       0.080342166 0.03370909 -0.014083745 0.114613436
000030 9b 58 05 3e 30 b3 f7 bc ca 11 11 bd 13 7b 7a 3d
       0.13022082 -0.03023681 -0.035417356 0.06115253
000040 e7 35 85 3d 68 6e b0 3d 2b d0 a6 3b 4a 3e 3b 3d
       0.06504422 0.08614808 0.0050907335 0.0457137
000050 3a 5d 2b 3d 46 79 d0 3d de bd 3b bc 42 c7 18 bb
       0.041836955 0.10179381 -0.011458842 -0.0023312126
000060 8b 47 6a bc b3 16 48 bd 81 9c a0 3c 4d 93 0e 3e
       -0.014299284 -0.048849773 0.019605877 0.13923378
000070 43 b5 f9 3d 88 0c 67 bd 2a 1d ae 3d 8d 08 60 3c
       0.12192776 -0.056408435 0.08501656 0.013673914
000080 ef 03 de 3d 6c b1 c0 3d 34 8c 4f 3d 63 cc 6a bd
       0.10840594 0.094088405 0.050670817 -0.057323825
000090 1c 9a 96 bd 94 52 97 bc c4 a9 1d ba 97 5e fb bc
       -0.07353613 -0.018471994 -0.0006014372 -0.030684752
0000a0 ad 21 93 bd bc ec ff 3c f6 5d d7 3d 32 aa 04 3e
       -0.071841575 0.031240813 0.105159685 0.1295555
0000b0 6b f9 06 3e de f7 fa 3d 5c 24 1f bd c6 43 ae 3d
       0.13181083 0.12254308 -0.038853034 0.085090205
0000c0 69 60 ae 3d 9a 5f 8d bd d9 f6 08 3e 2f d8 30 bc
       0.085144825 -0.06903 0.13375415 -0.01079373
0000d0 0c 34 1c bc 2f 46 3d 3b 24 25 79 3d d1 97 80 bd
       -0.009533893 0.0028880944 0.060826436 -0.06278957
0000e0 21 1d e2 3c 25 8c 17 3e c5 d1 aa bd 01 5f 32 3e
       0.02760178 0.14799555 -0.083407916 0.17419054
0000f0 aa 21 9b 3c 5d 92 e9 3d f0 71 23 bd 1a 3c 18 bd
       0.01893695 0.1140487 -0.03990358 -0.037166692
000100 4c 96 09 3e 99 ec ad 3d 24 68 16 3e e8 5a 08 3d
       0.1343624 0.08492393 0.14688164 0.03328982
000110 df fc 84 3c ed ff b6 bc 80 2c c9 3d 18 9e 8d bd
       0.01623386 -0.022338832 0.09822941 -0.069149196
000120 5b 3b 9b 3d 92 9a 69 3d fb 17 e9 3d 2e 2d d4 3d
       0.075796805 0.057032175 0.11381527 0.1036018
000130 3b 2e f4 3d 33 26 c0 3d cc f1 f0 3d d4 61 4c 3d
       0.1192288 0.09382286 0.11764869 0.049897984
000140 00 d9 3c 3d 3b aa 3a bd b5 23 06 3d 23 52 a3 3d
       0.046105385 -0.0455725 0.032748897 0.07974651
000150 3e bc cc 3d 0a 7a d6 3d 4b 50 2f 3e be 1a 5b bd
       0.09996842 0.10472496 0.17120473 -0.0534923
000160 76 e2 da 3c 28 59 cc bc 44 56 dc 3a e0 f0 77 3c
       0.026719313 -0.024944857 0.0016810377 0.015133113
000170 fd 07 48 3d f6 b2 00 3d c1 08 42 3b 86 71 d2 bc
       0.048835743 0.03142067 0.0029607269 -0.025688898
000180 a0 41 f3 bc 53 1b 0a 3d c1 63 04 3e 63 24 10 3e
       -0.029694378 0.033717465 0.12928678 0.1407638
000190 84 99 1a bd b4 9c ba bc 7d b0 e1 3d 0f 69 fb bc
       -0.03774406 -0.0227798 0.110199906 -0.030689744
0001a0 13 58 87 3d 70 4e 04 3e a9 6f 34 3d 76 fb cb bc
       0.06608596 0.12920547 0.0440518 -0.02490018
0001b0 8c 8b aa bc 43 48 b4 3d 8d 5f f3 3c 0c 1c 7d bd
       -0.020818494 0.08802845 0.029708648 -0.061794326
0001c0 aa 1a a0 bc 3b d7 11 3e dc b2 f7 39 c7 9d 66 bd
       -0.019543964 0.1424226 0.00047244772 -0.056302812
0001d0 9d 2e 42 3d b0 43 9d bd 4b 3e de bc 78 5b b7 3d
       0.047407735 -0.07678926 -0.027129313 0.08952993
0001e0 47 de 01 3d 83 a1 d8 bb 20 df 52 3c bf 9f 13 3e
       0.03170612 -0.0066110506 0.01287058 0.14416407
0001f0 46 b4 76 3c 3d b7 1d 3e fd 5e 89 3c 73 77 f1 3a
       0.015057629 0.15401931 0.016768927 0.001842244
000200 0a 9d bc 3d 2e 20 82 3d 3e 7f c0 3c 57 fc 90 3b
       0.0920964 0.06353794 0.023498174 0.0044246125
000210 3c de 23 3d 3c 63 8b bd ae c2 52 3d 51 94 b0 3d
       0.04000686 -0.06806037 0.051455192 0.08622039
000220 71 a2 a6 bc 75 d1 99 bc 51 68 c0 3d 67 41 b7 3d
       -0.02034113 -0.018776635 0.09394897 0.089480214
000230 18 4d dc 3d fb 73 db 3b fa 8c c8 3c 4b 95 d4 3c
       0.10756892 0.0066971756 0.024481285 0.025950095
000240 5f d8 b4 3d 18 57 ee b9 6d e9 5b 3d 3e ea 1a 3d
       0.08830332 -0.00045459787 0.05368941 0.037821047
000250 7e ed 1e 3e 6b eb 30 3c e8 c0 e2 3d c9 50 2e 3d
       0.15520284 0.0107983155 0.1107195 0.04255751
000260 6c 20 a5 3b ab c0 b1 bb 48 87 c7 bc b8 c5 8d 3d
       0.0050392654 -0.005424579 -0.0243565 0.069224775
000270 2c 7b ce bc 3b 8d 5a 3d fb 19 e3 3c 36 96 a4 bb
       -0.025205217 0.053357344 0.02772235 -0.0050227894
000280 0e 92 4f bc de 87 4a 3d f9 5e aa 3d 21 bf 19 3e
       -0.0126690995 0.04944598 0.08318896 0.15014316
000290 54 b8 82 3d bf 2b 34 bc 1b 36 0e 3d a3 16 56 3d
       0.06382814 -0.010996758 0.034719568 0.05226768
0002a0 ed 4a 4a 3d 23 c3 03 3e d6 c4 9b 3d 64 73 88 3d
       0.04938786 0.12867408 0.07605903 0.06662634
0002b0 42 51 4a 3d 75 4c 05 bc c5 0d 09 bd cc 26 d7 3d
       0.0493939 -0.008135905 -0.033460397 0.10505447
0002c0 ab 7b ed 3d 73 59 11 3e 32 e9 01 3d 7c 1e 87 bb
       0.115958534 0.14194278 0.031716533 -0.004123507
0002d0 3d 67 0f 3e 85 f1 48 3b c5 52 bd 3d 41 fe 55 3d
       0.14004226 0.0030661535 0.09244303 0.05224443
0002e0 43 e7 8a 3d 90 26 dd bc 66 bc 6a bd 62 44 94 3d
       0.06782391 -0.026995927 -0.057308577 0.072396055
0002f0 00 8d ee 3c 07 af e5 3d d4 b0 db 3d 47 fa f8 bb
       0.029119968 0.112150244 0.10727087 -0.0075981948
000300 f1 00 73 3d 56 a4 bc bc 74 d5 b4 bc ba 04 69 bc
       0.05932707 -0.02302758 -0.022074439 -0.014222318
000310 c5 03 93 3d ad 8f 29 bb a4 de 37 bd aa 1e e6 3d
       0.07178453 -0.002587299 -0.04489006 0.112363175
000320 d1 a9 18 bc 31 95 dd 3d 66 e8 22 bd 82 d4 c9 bc
       -0.009317831 0.10819472 -0.039772414 -0.024637464
000330 bb ef cd 3c 92 42 e9 bc 41 03 8b 3a 26 59 b6 3b
       0.025138726 -0.028474126 0.0010605828 0.0055648265
000340 d5 99 e7 bc d7 f1 d8 3d 7b 98 02 bc 09 04 b1 3d
       -0.028271595 0.10593002 -0.0079709245 0.08643348
000350 a7 08 41 bd a4 da 60 3d e2 6c 63 ba c2 20 d6 3d
       -0.047127392 0.054896012 -0.00086755876 0.10455467
000360 ed cf e2 3d 60 95 86 3c f2 19 a9 3d 11 2e 0c 3d
       0.11074815 0.01642865 0.08256902 0.03422362
000370 74 81 d3 3c 4e ef 10 3d 4e 09 d8 3d 20 04 08 3d
       0.025818564 0.03538447 0.1054865 0.03320706
000380 b5 a9 96 3c 28 e5 d0 3d e2 18 06 3e 35 1d c9 3d
       0.01839147 0.10199958 0.1309543 0.09820024
000390 4b ab 44 ba ca e0 3f 3d ef 22 8e bd 61 c7 ee 3c
       -0.0007502331 0.046845235 -0.06940257 0.029147806
0003a0 68 0c 22 3b d3 ab 11 3e 58 66 0b 3c 33 7c e4 3d
       0.0024726633 0.14225702 0.008508287 0.111565016
0003b0 29 bf cc 3d 50 2a 65 3d 40 d7 88 3d 12 77 f7 3d
       0.099973984 0.055948555 0.06681681 0.12083258
0003c0 74 78 c2 3d c3 b3 c1 3b ec a3 c1 3d f2 a6 23 3e
       0.09495631 0.005911322 0.09455094 0.15981653
0003d0 39 76 89 3d 88 c8 7b bd b0 db 0f bc a5 50 2a 3d
       0.06712002 -0.06147054 -0.008780405 0.041580815
0003e0 22 69 93 3d 4c 7f 58 bd c2 a6 b8 3d 3b 67 12 bd
       0.07197787 -0.052855775 0.090161815 -0.03574298
0003f0 44 12 9e bc 32 5d b6 3d 0d cd 6c bd 9d 18 37 3d
       -0.01929582 0.08904494 -0.05781274 0.044701207

fc.0.weight f4 [460, 64]
000000 13 7d 25 be 8f 20 a1 3d 6e 1c ad bd 1c a3 46 be
       -0.16160993 0.07867538 -0.08452688 -0.19398159
000010 3b 57 0c 3e d2 2b 17 bb c7 46 9c 3d 2a f0 50 be
       0.13705151 -0.002306689 0.07630687 -0.20404115
000020 1d 18 20 bd 71 f4 2d 3e 24 f4 d0 3d 4a e7 27 3e
       -0.039085496 0.16987778 0.10202816 0.16396824
000030 63 74 e2 3c 1f 2e 0d 3e 06 b9 cb bc 42 fe 80 3a
       0.027643388 0.13787125 -0.0248685 0.00098414
000040 a8 35 94 3c 34 fe 44 3e f7 88 70 3d e9 66 4b 3d
       0.018091992 0.19237596 0.05872437 0.04965869
000050 42 8c 8a 3b 3c 55 0c 3e cf 8c 2b bd cb 92 aa 3d
       0.004228146 0.1370439 -0.041882332 0.0832878
000060 1d e4 6a 3e 1d 25 e8 3d 98 1a c2 3d 5d 5a 34 3e
       0.22938581 0.11335204 0.094777286 0.17612596
000070 16 18 66 bd c8 1b be bd cd a9 06 be ad c4 68 bd
       -0.056175314 -0.092826426 -0.13150711 -0.05682819
000080 22 ab 35 3e ba 77 2a bb 6b 34 34 3e 78 16 21 3d
       0.17741063 -0.0026011304 0.17598121 0.03932807
000090 67 05 95 bc b2 d0 2d 3d e8 b0 20 be ad ff 06 be
       -0.018191053 0.042435355 -0.15692484 -0.1318347
0000a0 e6 89 eb 3d 0d e8 2b b9 35 bc 4e 3c 73 11 bb 3d
       0.115009114 -0.00016394276 0.012618114 0.091341875
0000b0 12 08 32 3b 46 ab 26 3d 35 1c df 3d f7 e0 18 be
       0.0027165455 0.040690683 0.10894052 -0.14929567
0000c0 a3 b7 84 3d ec 36 e0 bc 71 99 1b 3c 19 26 91 3c
       0.064803384 -0.027369939 0.0094970325 0.017718362
0000d0 30 7d 13 be 3e 6f ea bd 80 e0 a0 3d dd 41 34 be
       -0.14403224 -0.11446999 0.0785532 -0.1760325
0000e0 13 32 2a 3d 3f b8 1c bc bc b2 e4 3d 46 9d 7d 3d
       0.04155166 -0.009565412 0.111669034 0.061917566
0000f0 a2 89 6b 3e 24 23 37 3e b5 ea 24 bd ea 8f 1d 3e
       0.23001722 0.17884499 -0.040262897 0.1538693
000100 79 bb a4 bd e5 9b 5e bd 00 d4 ee 3c 0a d9 20 bd
       -0.0804357 -0.05434789 0.029153824 -0.039269485
000110 20 8f 12 3d 62 78 bc 3d da fb 1b 3d 5f 32 1e 3d
       0.035781026 0.09202649 0.03808198 0.038622256
000120 73 51 3e 3d bf 39 27 bd 4f f5 1c 3c a6 f3 af 3d
       0.046464395 -0.040826555 0.0095799705 0.08591394
000130 30 3f 85 3d f2 8e 60 3d a3 9e 55 3c dc da e6 bd
       0.06506193 0.054823823 0.01303831 -0.11272213
000140 a0 c1 fb bc 74 dc dd bd 28 20 0b be 4c 81 77 bc
       -0.030731976 -0.10833064 -0.13586485 -0.01510651
000150 7c 54 99 3d 94 0c d8 3d b0 d1 3e 3e c5 ee ce 3d
       0.07486817 0.10549274 0.18634677 0.101041354
000160 93 c8 0c 3d e1 05 65 3c 70 dd 00 3e 0d 29 e3 3d
       0.03437097 0.013978452 0.12584472 0.11091814
000170 8e e0 f8 3c 36 0c c5 3d 74 4d 72 3d 33 92 9b 3d
       0.030380514 0.0962147 0.059155896 0.07596245
000180 02 d4 c7 bc 8c 60 e4 3c 9f 3e 8f bc 9b 45 9a 3d
       -0.024393085 0.027878068 -0.017485915 0.075328074
000190 e7 54 8d bd bd 96 93 bd 99 75 0f 3d 09 6c bf bd
       -0.069009595 -0.072064854 0.03502426 -0.09346778
0001a0 81 c2 13 3d db 6a fb 3d 62 64 6c 3d fa 08 00 3e
       0.036074165 0.122762404 0.05771292 0.12503424
0001b0 4d e3 9c 3d 29 50 59 bd 36 04 2a 3e 89 fa 0d 3e
       0.07660542 -0.053054962 0.16603169 0.13865103
0001c0 95 2e e0 3c cc 28 b5 bd fe 7b 46 3b 01 30 8c bd
       0.027365962 -0.08845672 0.0030286307 -0.068450935
0001d0 98 df 2e bd d4 1c d2 3d 92 fd 00 bc ee 3f 87 3d
       -0.042693704 0.10259405 -0.007872956 0.066039905
0001e0 22 f0 be 3d cf 3a aa bd f4 22 b0 3c e1 4f eb 3b
       0.093231454 -0.08311998 0.021501042 0.007181153
0001f0 ae 4c 0d 3d 8d b1 d1 3d bd a2 ad 3d 08 47 41 3d
       0.034496956 0.10238943 0.084783055 0.04718688
000200 a3 8a a4 bc 52 5c b8 3c a8 6a 23 bd 71 d5 27 be
       -0.020085638 0.02250496 -0.039896637 -0.16390015
000210 d4 21 00 be 9b 78 8a 3d fa 30 6e 3d f9 73 02 3e
       -0.12512904 0.06761285 0.058152176 0.12739553
000220 9a 8c 03 3e 1f c2 76 bd 5f e3 6a 3e d4 0d c0 3a
       0.12846604 -0.060243722 0.22938298 0.0014652559
000230 94 15 cd bd dd 48 90 bd 09 63 d4 bd c2 74 30 bc
       -0.10013881 -0.070451476 -0.10370452 -0.010770025
000240 90 e1 4c bd 75 c3 61 3e b2 0b 0d 3e 85 d4 36 3e
       -0.0500198 0.22047217 0.13773993 0.17854507
000250 aa 07 6b 3d 16 37 14 3e 30 fd db bc fa aa a9 bc
       0.057380356 0.14474139 -0.026854128 -0.02071141
000260 a2 32 67 bd 34 0f fb bd 60 5d 47 bd 6f 1e 81 3d
       -0.05644477 -0.12258759 -0.048673034 0.06304633
000270 d0 e5 49 bd a9 42 35 be c7 aa 0c bd f0 03 bc bd
       -0.049291432 -0.1770121 -0.034342553 -0.091804385
000280 16 24 e9 3d 5d 5a eb 3d 6b 1e 0f bd 0e 11 25 3e
       0.11383836 0.11491845 -0.03494112 0.16119787
000290 75 81 b9 3d 60 02 93 bc 96 26 80 3e 20 a2 c7 bc
       0.09057895 -0.017945468 0.2502944 -0.0243693
0002a0 6d 75 8b 3c 13 29 b6 3d 36 dc bd 3c c8 d0 4a 3c
       0.017023766 0.08894553 0.023176294 0.012378879
0002b0 1e 9e 1a 3e 00 c4 8b bd 3a b1 bf 3d 2e 82 21 bd
       0.1509938 -0.068244934 0.09359975 -0.03943079
0002c0 84 3a 4b 3e 0b 54 9b bd 02 fa c2 3c 29 99 fb bc
       0.1984654 -0.07584389 0.023800854 -0.03071268
0002d0 b9 c4 14 bd 18 d6 32 bd 23 be 3e 3e 67 f4 cf bd
       -0.03632042 -0.043661207 0.18627219 -0.10154038
0002e0 88 10 28 bd 15 56 a2 3d 8b 6d 8d 3c ae 70 53 3e
       -0.04103139 0.07926575 0.017264148 0.20648453
0002f0 da f1 b0 bc b3 83 f5 bd df 00 33 3d 2c 3c cd 3d
       -0.021599699 -0.1198801 0.043702003 0.100212425
000300 bc 2a a7 3d af 5a 84 bd 11 22 bc 3d 45 c0 1c be
       0.08162448 -0.06462609 0.09186185 -0.1530772
000310 78 a9 9b bd 30 6f 9a bd 54 0a 50 bc 06 a9 f5 bd
       -0.07600683 -0.075407386 -0.012697775 -0.11995129
000320 97 22 b4 3d 91 a6 1c bd 3a 9a 4e 3c 5c 38 c8 bd
       0.0879566 -0.038244788 0.012610013 -0.09776375
000330 92 61 59 bd fe c4 de 3d 66 b2 e5 bd 9a da e2 bc
       -0.053071566 0.10877417 -0.112156674 -0.027692128
000340 33 b9 25 3c 1e 4d 04 be f5 cc 7b bd 79 84 8f bd
       0.010114956 -0.12920043 -0.06147476 -0.07007689
000350 9c 5b a5 3d 69 49 c9 3d 5d ec 44 3e 5b 89 04 3e
       0.08074114 0.09828455 0.1923079 0.12943022
000360 fe e4 4f 3d fc e6 aa bd 87 88 0f 3d 0b 17 3a 3d
       0.050755493 -0.08344838 0.035042312 0.04543213
000370 51 56 f6 bc a5 3b 22 bd 76 ca 1e 3d 9b 57 61 3d
       -0.030070456 -0.039607663 0.0387673 0.055015188
000380 e3 cf 1b 3e bf 42 00 3e 64 52 68 3d 4c b0 c2 bd
       0.15216021 0.12525462 0.0567192 -0.09506282
000390 fc c9 8b 3d 1a 3c 96 3c 83 9d 58 bd b5 32 a4 3d
       0.06825635 0.018339206 -0.05288459 0.08017484
0003a0 9d 3d c3 ba 9f 98 49 bd 28 41 08 bc fd ad 54 3d
       -0.0014895682 -0.049217816 -0.008316316 0.05192374
0003b0 ab 8a d9 bc 92 2a c1 bc 17 0c 20 3e 0d cd 04 3d
       -0.02655538 -0.02357987 0.15629612 0.032422114
0003c0 24 ff a0 3b 97 89 0f 3e 58 40 07 3e 9f f7 c0 bc
       0.0049132276 0.1401733 0.13208139 -0.023555575
0003d0 9c 31 e7 3d fe 7a b2 3d 19 0e 0d 3e b3 99 13 bd
       0.11288759 0.08714865 0.13774909 -0.03603525
0003e0 0f 29 2a 3d 02 8a ac bd a6 c7 41 3d e7 9e ab 3d
       0.041543063 -0.084247604 0.04730954 0.083799176
0003f0 4b a4 b8 3c 63 a4 9b 3d 52 76 50 bd d6 cb 65 bd
       0.022539278 0.07599714 -0.05089409 -0.056102596

fc.3.bias f4 [230]
000000 d9 07 d5 bc 20 8d 89 bd 44 15 8e bc 92 b1 9f 3b
       -0.026004719 -0.067163706 -0.017344125 0.004873463
000010 a6 d0 14 3d ad 29 9d 3c 16 42 b8 3c db 86 30 3a
       0.036331795 0.019184912 0.02249245 0.0006733962
000020 60 58 bb 3b f4 59 e0 bc a0 3d 58 bd 8d 78 09 bd
       0.005717322 -0.027386643 -0.052793145 -0.03356223
000030 2e 7d 1a 3d 45 72 c6 bb 82 3a 98 38 a2 7a 28 bd
       0.037717037 -0.0060561025 7.258823e-05 -0.041132577
000040 2b e5 11 bc 51 30 dc bc 8c 2d 15 3b 0c 4a 70 bc
       -0.008904736 -0.026878508 0.0022762744 -0.014666092
000050 90 c5 ec bc 01 cd ec bc 6c d3 c4 3c 4e bd 1e 3d
       -0.028902799 -0.028906347 0.024026595 0.038754754
000060 7c 8c bd 3c dd c4 16 bb 0c ff 76 3c 49 06 be 3c
       0.023138277 -0.0023005523 0.015075456 0.023196356
000070 be 00 b7 bc 8e 4a c3 3c c7 ef cc bc 5c af b5 3c
       -0.022339221 0.023839261 -0.025016678 0.022178344
000080 35 70 d0 3b 3f 9f 84 3b 2e 08 cf bb d2 ac 1e bc
       0.0063610324 0.004047304 -0.0063181138 -0.009684758
000090 4a 77 a9 3b 18 81 74 bb fa dc 28 3d 1b f4 7e 3c
       0.005171691 -0.0037308391 0.041226365 0.015561129
0000a0 e6 e3 03 bd 75 a4 aa bd d5 44 53 bd f0 4a 9a bd
       -0.032199763 -0.08332149 -0.051579315 -0.075338244
0000b0 b6 6c 45 3d 25 55 a6 3b ad 4d 20 bc 9a 29 8e bb
       0.048199378 0.005076068 -0.009784144 -0.0043384554
0000c0 91 61 40 3b 11 7b 80 3c c8 79 a8 bb 2a c8 69 3c
       0.002935503 0.015683683 -0.0051414706 0.014268914
0000d0 b2 ec e8 bb aa d6 2d bd ae 4d aa bc db 15 9f 3c
       -0.0071082944 -0.042441048 -0.020788994 0.019419601
0000e0 75 4b a5 bc 6f 9f cc bc ab 13 30 bd 66 3d a9 bc
       -0.020177582 -0.024978368 -0.042987507 -0.02065916
0000f0 76 28 ae ba 20 5a 05 3b 39 08 46 3d ce b0 de bc
       -0.0013287205 0.0020347908 0.048347685 -0.027183916
000100 f9 f9 50 bd af 72 73 bd 71 0d f7 bb 56 e1 8f bb
       -0.051019643 -0.059435543 -0.007539444 -0.004390876
000110 cb 52 db bc 13 af d8 bc 04 32 8d bc 22 a5 a6 bd
       -0.026772877 -0.02645067 -0.017235763 -0.08136965
000120 61 6f 02 3d 75 5a f0 bc a3 46 02 bd df f6 90 bc
       0.0318445 -0.029340008 -0.031805646 -0.017695842
000130 ee 54 79 bd f4 ab 76 bd fd da b1 3c 0d a7 f9 bc
       -0.06087201 -0.06022258 0.021710867 -0.030475164
000140 19 16 36 3c 7d 06 83 3d 51 94 10 3d 6d 65 2d 3d
       0.011113667 0.06397722 0.035297696 0.042333055
000150 a5 86 b6 bc 03 ba df bc f6 f2 2a bb dd 47 a2 bc
       -0.022281 -0.027310377 -0.0026084757 -0.019809658
000160 2a 1f ee bc 45 ea 08 bd 31 70 5d 3d 37 40 0f bd
       -0.029067595 -0.03342654 0.054062072 -0.03497335
000170 18 13 00 bd c9 99 e6 bc 7f 89 ad bb 4b 32 a1 bc
       -0.03126821 -0.028149502 -0.005295932 -0.019677302
000180 11 d8 81 3b 2e 3d 2d bd 94 87 1b 3d 35 44 ea b8
       0.0039625247 -0.042294674 0.037971094 -0.00011170694
000190 fa 90 c2 3c 33 81 df bc 1a 92 ec bc 37 ca b0 3c
       0.02375077 -0.027283287 -0.02887826 0.021580799
0001a0 bc 0d 55 3c 80 16 0f bd ce f5 03 bd be 12 ba 3c
       0.013003763 -0.034933567 -0.03221684 0.022714015
0001b0 70 63 a4 bc eb 3e c8 3a 32 8f 38 bc e6 50 48 bd
       -0.020066947 0.001527754 -0.011264609 -0.048905276
0001c0 98 ac e4 3b 46 cf 1e bc 02 79 c4 bb 83 23 07 bb
       0.0069785826 -0.0096929725 -0.0059958706 -0.0020620532
0001d0 4f cd 51 bd f4 5b 82 bc a9 b8 8d bc 8f 3f 24 bc
       -0.05122119 -0.015912987 -0.017299967 -0.010024919
0001e0 5f 1e 1e 3d 95 bd a6 bc 2d 16 b7 bc 2c 96 18 bc
       0.038603183 -0.020354072 -0.022349441 -0.0093131475
0001f0 ec 5d e1 3c 41 52 33 bc 59 b8 05 bd 86 6b e7 bc
       0.027510606 -0.010944904 -0.03264651 -0.028249513
000200 22 37 b2 bb 7f 57 1a 3b f1 0f 0f 3c 75 2b b0 bc
       -0.0054387012 0.0023550687 0.008731828 -0.021505097
000210 20 e9 23 bd 45 39 3c 3d c6 1e dd 3a e1 7c 0c 3d
       -0.040017247 0.045953054 0.0016870133 0.03429878
000220 58 c8 0d bd d1 13 36 bd 2f 18 15 bd 01 2c f3 bc
       -0.03461489 -0.044452492 -0.036400016 -0.029684069
000230 08 22 80 3d d4 dc 54 bc 64 d7 28 bc f0 10 82 bc
       0.06256491 -0.012992103 -0.010305259 -0.015877217
000240 a8 3e 08 bd 8d 4a 20 3d 71 08 3d bb de 93 14 bd
       -0.03326288 0.039133597 -0.0028844143 -0.03627383
000250 64 16 1c bd 29 23 39 bb dd 6d 74 3b 12 82 c4 bc
       -0.03810729 -0.0028249717 0.003729693 -0.023987804
000260 a8 70 35 3d 41 4a 96 bc 9f 66 83 ba 94 82 8c bb
       0.04429689 -0.018345954 -0.001002509 -0.004288027
000270 02 61 4a bd 4e 4b b6 bb 11 0e c3 bc 2a e0 4d 3c
       -0.04940892 -0.0055631762 -0.023810418 0.012565652
000280 cb ea af 3c 5c 79 d0 37 3a 95 0c bd 9a 23 ca b9
       0.021474263 2.4852045e-05 -0.034322 -0.00038554968
000290 5a 65 02 3d 27 9f 1d bc 44 f1 e9 bc dc 67 d0 bb
       0.031834938 -0.009620464 -0.028557427 -0.0063600373
0002a0 fc a6 d1 3b 9f ed 32 bc 5f a7 26 3c d7 50 13 bc
       0.00639808 -0.010920911 0.01017174 -0.008991442
0002b0 92 2c ca bc 00 47 88 3c 54 61 59 bc 18 be cb bc
       -0.024679456 0.016635418 -0.013267834 -0.024870917
0002c0 3f 42 20 3c 3b 7e 83 bc b1 1e 0f bd ef d7 24 3d
       0.009781419 -0.016051402 -0.03494138 0.040244993
0002d0 df ca a4 3c 33 a6 34 3d 70 69 3f 3d 8c 7c 17 bd
       0.020116268 0.044103812 0.046731412 -0.03698401
0002e0 d3 15 95 bb 0d dc 63 3b 78 77 27 bd 8c 62 21 bd
       -0.004549721 0.0034768612 -0.04088542 -0.039400622
0002f0 bd 39 50 bd 63 05 36 ba 44 80 85 3c 77 d0 ab bc
       -0.050836314 -0.00069435517 0.016296513 -0.020973427
000300 88 7d 94 bc 17 60 67 bd d5 b8 23 bc 96 b9 0c bc
       -0.018126264 -0.056488123 -0.009992798 -0.008589169
000310 b2 d6 ac bc 3e 4a 22 bc 9a a9 ea 3b 6a 67 0a 3d
       -0.021098468 -0.009905396 0.0071613314 0.03379003
000320 e5 06 4c 3d c9 1d e7 bc cb 3b 5a bc ac 5a 99 bb
       0.049811263 -0.028212445 -0.01331992 -0.0046799984
000330 11 39 5e 3c 98 90 fd 3c af b5 a2 3c 11 4c 90 3c
       0.01356341 0.030952737 0.019862024 0.017614396
000340 ea 78 71 3b fd 53 ab 3c be b2 1a 3d a0 a5 60 bd
       0.0036845752 0.020914072 0.037768118 -0.054845452
000350 5d 64 c0 bc 2a 1d bf 3c 88 75 34 bb 90 7c 94 3c
       -0.023485357 0.023329336 -0.0027535874 0.018125802
000360 63 7d 48 3d a7 49 32 bd 47 f9 b1 bd ac a7 db ba
       0.048947703 -0.04352727 -0.08690124 -0.0016758344
000370 36 02 fb bc dd f7 eb bc 76 09 2b bc bf fe e6 bb
       -0.030640703 -0.028804714 -0.010439267 -0.007049411
000380 ba bc 5c 3d 33 7f 7a bd c4 31 6c 3c ca 11 1c bd
       0.05389092 -0.061156463 0.014416162 -0.038102902
000390 b1 ec 32 bd 81 c4 a4 3c
       -0.043682758 0.020113232

fc.3.weight f4 [230, 460]
000000 df dc 54 3c 25 3b 2f 3a 80 dc 33 bd 56 df 39 bd
       0.012992113 0.00066845334 -0.043911457 -0.045379005
000010 03 54 0e 3d be c1 89 bc 49 ba 17 bd a9 b8 8b 3d
       0.03474809 -0.016816016 -0.03704289 0.068223305
000020 79 67 7a 3c ad d2 80 bd 97 65 e6 3b 32 f1 04 bd
       0.015283459 -0.06290183 0.0070311534 -0.032456584
000030 b7 c3 0e bb 8a dd 21 3d 9a 1d 8d bd 54 c2 4f 3d
       -0.0021784136 0.039517917 -0.06890412 0.050722435
000040 0b fa d5 bd 74 4d 44 3d 4d f4 8a bd d3 40 98 3d
       -0.104480825 0.047925428 -0.06784878 0.07434239
000050 40 ae 9e bc 42 cf 6d bc 54 78 e0 3c d3 03 13 bc
       -0.019370198 -0.014514746 0.027401127 -0.00897308
000060 05 fc 4b 3d 15 78 e7 3c 1a bb ce bb 92 d2 12 bd
       0.04980089 0.028255502 -0.0063089253 -0.035845347
000070 b1 5f 8a bb cc a0 26 3d c9 28 dc bc 8a c4 64 bd
       -0.004222833 0.04068069 -0.026874917 -0.055851497
000080 73 8e 96 bd 94 ac 68 3d 54 da 03 bd d9 46 d1 3c
       -0.07351389 0.05680521 -0.032190636 0.025546478
000090 3a 77 10 bd 1b b0 c0 3d fd 81 a4 3d 3d 1d b6 3c
       -0.035269953 0.094085895 0.08032606 0.022230739
0000a0 6e 7c 16 bc f0 0c 88 bc 09 5b 77 3d b4 0a 49 bd
       -0.00918494 -0.016607732 0.060389552 -0.049082473
0000b0 88 f4 4c 3d 3e 10 3b bd 0e 73 d8 bc 8d fc e4 bc
       0.05003789 -0.045669787 -0.02642205 -0.027952457
0000c0 1d 9f a7 3c eb 19 03 bd ae 49 ce 3c 80 66 03 bc
       0.020461613 -0.03200714 0.025181618 -0.008020043
0000d0 de 1a 12 bd ab 76 47 3d 7c 16 0d bd a5 74 61 3c
       -0.035670154 0.048697155 -0.03444527 0.01376072
0000e0 d5 69 2e 3d 3b cd 3d 3d 07 fa 85 bd c8 28 18 3d
       0.042581398 0.0463383 -0.065418296 0.037148267
0000f0 38 b1 7f 3c dd 65 a5 bc 3d 0e 19 bd dc 69 c6 3c
       0.015606217 -0.020190174 -0.037367094 0.0242204
000100 a0 a1 36 3d 83 cf 86 bd df 2b 17 3d 79 6d ca bd
       0.04458773 -0.065825485 0.036907073 -0.098841615
000110 8a 8c 75 bc 94 a7 25 3d fb ce 7c bd 98 d9 65 3c
       -0.01498712 0.040443018 -0.06172083 0.014028929
000120 e0 e8 7e bd 10 65 00 3d 5d 23 c5 bd 3a 5c 49 3d
       -0.062233806 0.03134638 -0.09625886 0.04916022
000130 38 ad 28 3d cc ee 44 3d c0 e0 36 bd 4a 08 94 3d
       0.04118082 0.048079297 -0.044647932 0.072281435
000140 1e 9d 72 3d bb eb 1c 3d 70 c8 9e 3c a8 d0 d3 3c
       0.05923187 0.038310748 0.019382685 0.025856331
000150 17 5b 1a 3d ce d4 84 3d 8f 5b 99 3d 20 b4 22 3d
       0.037684526 0.06485902 0.074881665 0.03972256
000160 11 94 83 bd 06 f7 94 bd cd 93 8f bc 55 a1 57 3d
       -0.06424726 -0.072736785 -0.017526532 0.052644093
000170 65 bd cd bc 8c 1f bb bc cd 64 f9 bb 87 65 92 3d
       -0.025114724 -0.022842191 -0.0076108933 0.07148271
000180 c5 4f 7e 3d e3 35 45 bd ae 86 fb bb eb 2f 8e 3d
       0.062087793 -0.048147094 -0.007675967 0.069427334
000190 36 21 88 bd bd 4c 18 3d e2 1a 3d 3c 88 99 8d bd
       -0.066469595 0.03718256 0.011542054 -0.069140494
0001a0 51 0e 0b 3d 39 17 23 bd c8 70 f2 bd 17 b1 22 bd
       0.0339492 -0.03981707 -0.118379176 -0.039719667
0001b0 7e 16 5d bd 63 34 57 3c 7f 49 3c 3d ca 5e ac 3d
       -0.05397653 0.013135049 0.04596853 0.08416517
0001c0 e2 b7 a9 3c 4c a4 9f bd bf c8 23 bd 2a a6 86 3d
       0.020717565 -0.07795009 -0.03998637 0.06574662
0001d0 7a 26 b9 3d f7 ff b5 bc 62 3f 30 3d ce 07 87 3b
       0.09040542 -0.02221678 0.043029197 0.0041208034
0001e0 10 46 2b 39 83 50 41 bd f6 7b 20 bd 82 da 2e 3d
       0.00016333931 -0.047195923 -0.03918072 0.042688854
0001f0 27 ce 49 bd 47 e4 b0 bc 0b f8 ef 3c ce 7a 35 bd
       -0.049268868 -0.021593226 0.02929308 -0.04430657
000200 a7 cf ea bc 71 62 83 bc bf 98 47 bd 67 2a 74 bd
       -0.02866347 -0.016038151 -0.048729654 -0.05961075
000210 34 5e ff bc 73 03 4e 3d b2 d3 2f bb d7 76 2b 3b
       -0.03117285 0.05029626 -0.002682906 0.0026163363
000220 b7 09 75 3d 05 a3 aa 3c 08 ce 8a bd 44 89 3c 3d
       0.059823718 0.020829687 -0.067775786 0.046029344
000230 f5 dc e1 3c d4 40 a3 3c 20 77 8a bd 48 06 07 bc
       0.02757118 0.019928373 -0.067610025 -0.008241244
000240 b3 be 13 bd 2a 50 7e bd ac 6c 6c 3b 98 41 6e bd
       -0.036070537 -0.06208817 0.0036075516 -0.058168024
000250 a7 46 be 3c 7b d9 db 3b d0 c9 4f bd 99 a9 d5 bc
       0.023227049 0.0067092753 -0.050729573 -0.026081847
000260 c3 3e f3 bd d3 69 9c bd 86 e6 40 bb 90 21 25 3d
       -0.11877205 -0.07637372 -0.0029434278 0.04031521
000270 f8 7e 24 bd d3 f5 f4 3c a3 2f 79 3c 4f c1 0c 3d
       -0.04016015 0.029902374 0.015209111 0.03436404
000280 30 ae 23 bb 4e e3 04 3d df 7e 87 3c 2e 61 42 3d
       -0.002497565 0.032443337 0.016539989 0.04745596
000290 98 8b c7 bc 65 95 b1 3d fa 21 ba bc 58 81 91 bd
       -0.024358556 0.08671073 -0.02272128 -0.071047485
0002a0 94 9d c0 3c b3 3b bc 3c e5 82 1a bd 59 04 50 3b
       0.02351264 0.022977686 -0.037722487 0.0031740873
0002b0 37 d3 94 bd 7f 2f 23 bd 69 16 81 3d a8 1b b3 bb
       -0.072668485 -0.039840218 0.063031025 -0.0054659434
0002c0 a3 55 d3 bc 5a 8b 2a ba 7a cb a7 bd 4e dd 44 bc
       -0.02579767 -0.00065057504 -0.08193107 -0.012015654
0002d0 7b b2 f2 bb d6 e2 84 bc e9 cd 02 3b e3 5c 1c 39
       -0.0074065304 -0.016221445 0.0019959158 0.00014911922
0002e0 1e 9e 06 3c f4 71 c7 bc a2 5c af bc 79 c1 ad 39
       0.008216409 -0.02434633 -0.021406475 0.0003314128
0002f0 b6 9e 05 bd 9b dd 97 3d 3f 7b 7f bd 91 af 5d bd
       -0.03262206 0.07415315 -0.062373396 -0.05412251
000300 c7 4a ef 3d df e9 87 3d a5 51 1c bd 4e 22 cc bc
       0.116841845 0.06636404 -0.0381638 -0.024918701
000310 a8 50 64 bd 91 58 99 bd 3c 6e 81 3b 7e 31 27 3d
       -0.055740982 -0.07487596 0.0039499085 0.040818684
000320 fa 59 60 bd d4 0b d1 ba a2 e8 9c bc fb 55 42 3d
       -0.05477331 -0.001594896 -0.019153897 0.04744528
000330 74 2f 5e bd df 0e 28 bd c4 10 54 bd 57 b2 16 3d
       -0.054244474 -0.041029807 -0.0517738 0.036791172
000340 9a b6 09 bd cc b2 f5 bc 71 e7 9d bd ba 5c 95 bc
       -0.033621408 -0.029992484 -0.077101596 -0.018232692
000350 ec 4f 23 3d 70 12 8a 3d a2 23 88 3d 81 76 d6 bd
       0.03987114 0.06741798 0.066474214 -0.104718216
000360 7c 72 2c bd 84 b1 98 bd ca 9e dd bd 3c 79 a2 bd
       -0.04210137 -0.074557334 -0.10821302 -0.0793328
000370 c5 a9 4e 3d 1b 9a 89 3d 26 e4 76 bd e7 b9 9c bc
       0.050454874 0.067188464 -0.060276173 -0.019131614
000380 4a 6a 0c 3a d8 22 5b 3d ec 47 80 bd b8 11 30 bd
       0.00053564145 0.053500026 -0.06263718 -0.042985648
000390 fa eb c3 3c 55 c7 5c 3d ef fc 32 bd 39 32 26 bd
       0.023916233 0.053901035 -0.043698248 -0.04057524
0003a0 1e 3f 8e bb 63 ba 88 3d f1 8c 51 3d 21 cb ed bc
       -0.0043410202 0.066761754 0.051159803 -0.029027523
0003b0 70 7e cb bc 84 30 f8 bc 5e 92 90 bc 00 c6 c2 bc
       -0.024840564 -0.030296572 -0.017647918 -0.023776054
0003c0 04 47 09 bd 98 08 fe 3b cc 58 71 bc e7 80 25 3d
       -0.03351499 0.0077524893 -0.0147306435 0.040406134
0003d0 3d e3 9d bd f4 55 83 3c f9 90 f5 3a 94 7c 82 3d
       -0.07709358 0.016032197 0.0018735222 0.06371418
0003e0 41 f8 f8 bc 7c d6 94 3c 20 23 21 3c 33 c8 55 bc
       -0.030391814 0.01816868 0.009835035 -0.0130482195
0003f0 d7 95 c2 3c 34 0a 58 bb 0f b0 49 bd 13 27 56 bd
       0.02375309 -0.0032965066 -0.04924017 -0.052283358
