inventory/ark_material.onnx (onnx, 648502 bytes, 8 tensors)

35 f4 [8, 3, 5, 5]
00000000: 5331 b0bd c05a 693e 13d9 723e 7091 193f
00000010: 4951 a03e 0789 523e 4750 de3e 8937 723e
00000020: 681e a6be 4bb4 633e e12a 9b3e 63b5 babd
00000030: 70c1 943e 8a91 16be 09cc 97bd 2fd9 113f
00000040: 757f 8e3e 364e 09be 3011 a7be 072f b8be
00000050: 9d3d dbbe d2a4 b0be c1dd b7be 69b1 8f3e
00000060: 4bc1 8bbd 2f0c 3b3e fd2a 78be fede 19bd
00000070: a1ea 4cbd 6240 863e ba3a 7abe f589 7f3d
00000080: 20b0 d8bc 539f 3e3e 1104 8ebe 359a bb3e
00000090: 1901 d0be 058f 803e 5c21 f13d 6aec 2b3e
000000a0: 90b6 d5be 7072 af3e ae1d 883d b67f b8bd
000000b0: 4ce5 22bf 3bfe 16be 9dfb 7ebe 38d5 02bf
000000c0: 5bd4 31be ca11 d3be 413a 8a3d e1be db3e
000000d0: 5ec9 42be be21 3fbe eee2 de3d 65d6 7dbe
000000e0: d130 6f3e 4d61 c83e d633 d93e 4983 72be
000000f0: bb88 9a3e 737a da3d 9e19 74be 607f 04be
00000100: 34e8 e3be 932a 74be e4fb 05bf 930f d4be
00000110: 52b1 863e ea73 46be 6426 f0be d9aa aebd
00000120: f9cc 38be 4a0b f6bd fa1c c6be 03e2 7d3e
00000130: a1ee afbd d06c c4bd 122e 993e b323 333e
00000140: 43e2 a63e 014b 9e3e f436 0f3e 25b9 04be
00000150: c2ea 80be 1bab 97be 53af e83c 7f6b 0d3c
00000160: 0ddb adbe faeb 7f3d f553 71be d095 ecbb
00000170: fe07 643e e7e6 90be 3cf8 883d d378 3abe
00000180: 6d97 b6be 176b d4be f893 d53d 36e5 213e
00000190: 7d41 5e3e 5f79 7fbd cb82 043e d466 4c3e
000001a0: 6351 5b3e 26ff b93e 1f9b ad3e c1e0 bc3e
000001b0: b86c 6e3e 83ce 0d3f 09cb 5abe 4aea 76bd
000001c0: 2147 2f3d feb8 693d ee00 a73e 206b f93d
000001d0: 7a4e 343e ec63 013e 9161 7b3e 7dcb 3d3e
000001e0: bd57 56bd 0cca 65be fbf6 d63b a6dc 8dbe
000001f0: b8bd 5e3e 6184 12be d9cf d13e d9bf 9f3d
00000200: 2951 5c3e 3b11 b03e 999d 4bbe 20bb 0bbc
00000210: a685 133e 9ab0 5c3e e5f2 1a3d ff29 a43e
00000220: 6bf9 45bd 5871 313e a8c0 4a3e 65d8 5d3e
00000230: aedd ba3d 4507 89be bd66 cfbe 63f1 a8be
00000240: 281c 73be 87fd dfbe 1510 c6be 6413 b1be
00000250: b54a d4be e5d6 dabd e6f3 5b3e 3758 b8bb
00000260: 5ee5 6cbe 388a cdbc 218b 9abd 419d 243e
00000270: be80 b53e 062e 8abd fd8d 7dbe 3e26 e1be
00000280: 6f99 e1be 234b 11be 3072 9bbe fe64 9bbe
00000290: 8771 41bd bbda 8fbe 2ba6 a8be 4084 09be
000002a0: b9cc 2cbe 7479 cfbd e995 44be aa99 87be
000002b0: d694 92bb 7d58 5cbe 5e7b 043e 8da3 d23e
000002c0: b9c4 803e 69f8 8c3d 58a7 a4bc c2db 84be
000002d0: 3dc5 9e3e 4759 d43e ca59 e7bd 239d 86be
000002e0: 6d97 eebc 1061 84be 234e aebd d974 253e
000002f0: b13a 8abd 2a13 8dbe d9bc 7ebe 8935 30be
00000300: 95b0 7f3e 6678 a33d d528 96bd 5fef 633d
00000310: 4d50 0c3e ab54 c2bd 9506 163e 59e3 cc3e
00000320: 65b9 1ebe f63e 5b3e 4bb8 513d 639c abbd
00000330: 352b d83c 535d acbe b07e d4be 7c8d d8bd
00000340: 0d58 523c 6098 b7be 4ee0 9ebe 56bf 133d
00000350: d8cf adbe 8317 1e3e 1acc 9ebe ffb9 ebbe
00000360: 2841 c6bc e9b4 873e bc7f f63d e14f 603d
00000370: 6213 8cbe 6aab fc3d 13d3 e13d 3be7 bb3e
00000380: 1007 993e a37d 6cbe a8a9 e63e 8e23 13bf
00000390: 3e99 54bc 53f9 f3be 2879 603f 8f41 103f
000003a0: ac93 f6bd a5e2 59be c34c ddbd 626b 633e
000003b0: 1339 a33e 76ca 1f3f 765d 52bd c47c c5bd
000003c0: 1933 2abf 8d5b 0f3e 254a 2c3f dd97 663f
000003d0: 3136 6b3e 48df edbe db24 60bd 1ac8 c43e
000003e0: cbdc 843d 4281 1d3f e5de 06bf 4d47 a7bd
000003f0: 3e65 b33e 34e1 11be 2886 db3e 1d32 cb3e
-0.08603158 0.22788525 0.2371562 0.59987545 0.31312016 0.20560084 0.43420622 0.23653997
-0.32445073 0.22236745 0.30306152 -0.09116628 0.2905383 -0.14703956 -0.074119635 0.5697202
0.27831617 -0.13408741 -0.326303 -0.3597338 -0.42820445 -0.34500748 -0.35911372 0.2806504
-0.06823977 0.18266366 -0.24235149 -0.037566178 -0.050028447 0.26220995 -0.24436465 0.062387425
-0.02645117 0.18615465 -0.27737477 0.36641088 -0.40625837 0.25109115 0.11773941 0.16789404
-0.41740847 0.34266996 0.06646286 -0.09008734 -0.6363113 -0.14745419 -0.2490067 -0.51106596
-0.17366163 -0.4122451 0.06749392 0.42919067 -0.19022128 -0.18665215 0.10883127 -0.24788816
0.23358466 0.39136735 0.4242236 -0.23682894 0.30182442 0.106678866 -0.23837897 -0.12939215
-0.44513094 -0.23844366 -0.5233748 -0.41418132 0.2630716 -0.19380155 -0.4690429 -0.0852868
-0.18046941 -0.12013872 -0.38693982 0.24793248 -0.08590437 -0.09591067 0.2991796 0.17494087
0.325945 0.30916598 0.13985807 -0.12961252 -0.25179106 -0.2962273 0.028403914 0.008631586
-0.33956185 0.062480904 -0.23567183 -0.0072200075 0.22268674 -0.28301165 0.06687972 -0.18210153
-0.35662404 -0.41487953 0.104286134 0.15810093 0.2170467 -0.062371608 0.12940519 0.19961101
0.21417765 0.36327475 0.3390741 0.36890224 0.2328366 0.55393237 -0.21366514 -0.06028203
0.042792443 0.057061188 0.32617897 0.121786356 0.17608061 0.12635773 0.24548937 0.18534656
-0.052329767 -0.22440356 0.006560204 -0.27707404 0.2175206 -0.14308311 0.40978888 0.07800264
0.21515335 0.34388146 -0.19884337 -0.008528501 0.14406452 0.21551743 0.0378293 0.3206329
-0.048333567 0.17328393 0.19800055 0.21664579 0.09124313 -0.2676336 -0.4050807 -0.32996663
-0.2374121 -0.43748114 -0.38684145 -0.34585106 -0.41463247 -0.10685519 0.21479759 -0.0056257504
-0.23134372 -0.025090322 -0.07546068 0.16075613 0.35449785 -0.067470595 -0.24761195 -0.4397449
-0.44062373 -0.14188819 -0.30360556 -0.30350488 -0.04722741 -0.28096566 -0.32939276 -0.13429356
-0.1687497 -0.10130587 -0.19197811 -0.26484424 -0.004473309 -0.2151813 0.12937686 0.41140404
0.25150087 0.06883318 -0.020099327 -0.25948912 0.31009856 0.41474363 -0.11296423 -0.2629176
-0.02912494 -0.25855303 -0.08510997 0.16157855 -0.06749476 -0.27553684 -0.24876727 -0.17207922
0.24969704 0.079819486 -0.07332007 0.055648204 0.13702507 -0.094888054 0.14650948 0.40017202
-0.1550041 0.21410736 0.051201146 -0.08379438 0.02638779 -0.3366495 -0.41502905 -0.10573861
0.012838376 -0.3585844 -0.31030506 0.036071144 -0.33947635 0.15438657 -0.31015092 -0.4604034
-0.02420099 0.2650521 0.12036082 0.05476368 -0.27358538 0.12337382 0.11026587 0.36699852
0.298882 -0.23094802 0.45051312 -0.5747613 -0.012975989 -0.47651157 0.8768487 0.56350034
-0.12039885 -0.21277864 -0.10805657 0.22208932 0.31879482 0.62418306 -0.051358663 -0.09642938
-0.6648422 0.13999768 0.67300636 0.90075475 0.22969891 -0.46459413 -0.054722648 0.38433915
0.064874254 0.61525357 -0.5268386 -0.081678964 0.3503818 -0.14246064 0.4287579 0.3968667

36 f4 [8]
00000000: c452 9a3f 7d86 5dbf 9c19 dd3f 4826 b2bf
00000010: 64a2 603f 1016 adbf 9afb eb3f 7d5f 5dbf
1.2056508 -0.8653334 1.727344 -1.3917933 0.8774779 -1.3522358 1.8436158 -0.8647383

38 f4 [16, 8, 3, 3]
00000000: 4d31 2e3f 1743 f0be 82fc 903e 6514 a7be
00000010: b0f2 8fbe 86b5 10bf 08f2 c83d 1c6b 763e
00000020: 494a 693e 71ce 463e 94ee 06bf cadd a83e
00000030: 650b 73bb 78a2 7cbe d924 a23f 53b4 c33e
00000040: 0652 fabe 5175 8b3e da02 493f e5fe de3e
00000050: e0ab 37bf a6a6 143f 3b7c 30be 0566 53bc
00000060: acfa bf3e 51e7 14bf a580 61bf 0310 573f
00000070: 0b18 52bf 272a 373e ea70 d03e e2e4 01bf
00000080: dcf0 ea3e de83 a2bd 0c90 95be bf0d 213e
00000090: ec13 90be 1a7d 3fbf 2974 ea3e a452 2b3f
000000a0: 3d87 65bf 4188 b53e 8c41 143f ee1d 5e3e
000000b0: 669b b73e 0415 06bf 532a 87be 6c36 583f
000000c0: c1da 26bf 8aa9 28bd 2b32 5b3f fb94 47be
000000d0: eb31 aebe 9086 81be 88c9 e03e 4547 24be
000000e0: 6b1b 613f 7cd5 08bf 2969 b1be 3d8b a8be
000000f0: be03 51bf d105 95be 347f e1be b138 c0be
00000100: eafe 09bf 3d7a 23bc fccb 8ebe 0e83 11bf
00000110: 5b9f a3be 3ff6 873e 601b 7fbf 243f 3bbf
00000120: 5a8b ddbc c717 af3e 85b1 3d3f 4295 31bf
00000130: 3e38 b1be 4e26 6abf 3026 c83f a351 2abf
00000140: 752b 3ebf f863 3fbf 1fe3 063e b811 d6be
00000150: c6c6 67bf 0d4b efbd 78d0 3d3d 17df c3bd
00000160: 88a8 5cbe e064 6cbf 8cab d73e bca1 27bf
00000170: 1da9 f6be 82e8 1d3f 3fd2 603f 741c 813f
00000180: 32e6 a0bf 7f78 ec3e cf28 73be 96e6 4c3e
00000190: efa5 75bf 1a53 8c3e 3ee6 423e 20da dc3e
000001a0: 7fca 1abf 1789 a6be f6c5 f7be d1c8 dcbe
000001b0: 5ae2 7abe 2f61 4fbf 1f83 8ebd 19dc 3f3d
000001c0: 3ea8 96be eb82 ef3d a3e0 66bf 0714 803f
000001d0: a2b7 82be c4cf 493f c956 9c3f afbd e0be
000001e0: fa4c 493e 32fb b0be 681c f7be dc88 813f
000001f0: 77c6 6bbf 14b0 1fbf faef 76be 113d ad3f
00000200: 9a07 36be bc21 5c3f be0f 133f 631c b6bf
00000210: 0e0b 3a3f 444b ddbe e6fa d5bf 98e3 06bf
00000220: 1088 8bbe 073b 0e3e 7cc1 b03e 2279 ec3e
00000230: 7f2e 473f cb29 64bf cae5 253f 2ef5 9c3e
00000240: 78bc 55be a18a 73bf f4d0 373e 2910 93bf
00000250: bd83 d93f b899 c8bf a1d9 423e 25fb ea3d
00000260: aa2e 503d bd29 5bbe 697b 313f e47c 64bf
00000270: 5e20 eb3e 0b15 13bf 9558 34bf a644 1c3f
00000280: c46e 363f dafc e3bd a2b0 f9be 2dd8 493f
00000290: 773e 39bf d7ca 843e 9000 d9bd bdfc b3be
000002a0: 2345 093f fa81 31be d2b7 cf3d 1c60 a33e
000002b0: 6e16 e73e 6e45 d33e f8de 5bbf 6a9b e83e
000002c0: 2ada ed3d 895d 8dbf d713 693e 20e5 b43d
000002d0: e7ba db3d 66be a73e 2f71 30bf cd3e 913f
000002e0: 3727 4f3f d9c9 4abf ba3b 693f 0c15 473f
000002f0: 775f d4be 864d a5bc 3f80 993f eee7 fcbe
00000300: 41c3 10bf 7781 d13e d54c 10be 2789 3c3f
00000310: d46b d13e cc32 40bf 41b3 7a3e 5ed4 0d3f
00000320: 8b5f 35bf 66a4 3b3e 7506 913f d037 123e
00000330: 3685 7abf 555d 713f b172 633f 20f3 a03e
00000340: d832 2c3f 6906 95be 8ffd 1f3f 9958 e5be
00000350: 4d21 5f3f 9cb4 123e 9a54 7bbf d1b0 aebe
00000360: aa2c 9dbe 19e4 c3be 3601 02be 7651 ccbd
00000370: 4f12 6dbf a1c1 98bd 73b4 c9be d926 6cbf
00000380: 735a 80be aa5e 813f 6f0a 84be c252 1bbe
00000390: a4d9 003f a274 653f aa24 b6be 6936 4f3f
000003a0: 83fb a03f 8081 9f3e 9409 f4be 4630 3bbf
000003b0: d497 cd3e 693e 6cbf fa56 fcbf be56 0d3d
000003c0: 31ab 563f be74 a0bf 8788 7bbe e174 59bd
000003d0: 849c 22bf 9fb9 11bf 5fc8 dfbe 5d33 a9be
000003e0: ffb1 d2bf 2b5e e2be 8bf3 2fbd b0c8 503f
000003f0: 8970 b8bd c137 f63e fb16 5dbf 2675 1bbf
0.6804398 -0.46926185 0.28317648 -0.32632747 -0.28114843 -0.5652698 0.09811789 0.24064296
0.22782244 0.19414689 -0.5270779 0.32981712 -0.003708565 -0.24671352 1.2667495 0.38223514
-0.48890704 0.27237943 0.78519976 0.43553844 -0.71746635 0.58066785 -0.1723489 -0.012902741
0.37495935 -0.5816546 -0.8808692 0.84008807 -0.82067937 0.17887174 0.40711147 -0.5073987
0.45886886 -0.07935308 -0.29211462 0.157279 -0.281402 -0.74800265 0.45791748 0.66922975
-0.8965948 0.35455516 0.57912517 0.21691105 0.35860747 -0.5237582 -0.26399478 0.8445804
-0.6517754 -0.04117731 0.85623425 -0.19490425 -0.3402246 -0.25297976 0.43903756 -0.16042812
0.8793246 -0.5345075 -0.34650543 -0.3291873 -0.81646335 -0.29106 -0.4404236 -0.37543252
-0.53904593 -0.009977874 -0.27890003 -0.568406 -0.31957516 0.26555058 -0.99651146 -0.7314322
-0.027043987 0.34197828 0.74099 -0.69368374 -0.34613222 -0.914647 1.5636654 -0.6653082
-0.7428506 -0.74761915 0.13172577 -0.41810393 -0.9053768 -0.11684237 0.04634139 -0.095640354
-0.21548665 -0.92341423 0.42123067 -0.6548116 -0.48175898 0.61682904 0.8782081 1.0086808
-1.257025 0.4618568 -0.23746036 0.20009837 -0.9595632 0.2740715 0.19033143 0.43135166
-0.60465235 -0.32526466 -0.4839322 -0.4312196 -0.24500409 -0.81007665 -0.06958603 0.04684076
-0.29425234 0.116948925 -0.9018652 1.0006112 -0.25530726 0.7883265 1.2213985 -0.43894717
0.1965827 -0.34566647 -0.4826386 1.0119891 -0.9209971 -0.6237805 -0.24114981 1.3534261
-0.17776337 0.85988975 0.57445896 -1.4227413 0.7267312 -0.43221486 -1.6717193 -0.5269103
-0.27252245 0.13889705 0.34522617 0.46186167 0.7780532 -0.8912627 0.64803755 0.30655807
-0.20872676 -0.95133406 0.17950803 -1.1489307 1.6993328 -1.5671911 0.19028331 0.11473683
0.050825752 -0.2140264 0.69328934 -0.8925307 0.45923132 -0.57453984 -0.70447665 0.6104225
0.71262765 -0.11132212 -0.48767573 0.78845483 -0.7236094 0.25936005 -0.105958104 -0.35153762
0.5362112 -0.17334738 0.10142483 0.31909263 0.451343 0.41263908 -0.858871 0.45431072
0.11613877 -1.104417 0.22761475 0.088327646 0.10729008 0.3276245 -0.68922704 1.134729
0.8091921 -0.79214245 0.9110676 0.7776649 -0.41479084 -0.020178568 1.1992263 -0.49395698
-0.56547934 0.40919086 -0.14091809 0.7364678 0.4090258 -0.7507751 0.24482442 0.5540217
-0.7084891 0.18324432 1.1330096 0.14279103 -0.97859514 0.9428304 0.8884688 0.3143549
0.6726508 -0.29106453 0.62496275 -0.44794157 0.8716019 0.1432671 -0.98175967 -0.34119275
-0.30698138 -0.38259962 -0.12695774 -0.09976475 -0.9260606 -0.07458807 -0.39395484 -0.92246777
-0.25069007 1.0107014 -0.2578921 -0.15168288 0.50332093 0.8963109 -0.35574847 0.809424
1.2576755 0.31153488 -0.47663558 -0.73120534 0.40154898 -0.9228273 -1.9714043 0.034506552
0.8385497 -1.2535627 -0.245638 -0.05308998 -0.63520074 -0.5692386 -0.4370756 -0.33047
-1.646057 -0.4421247 -0.04295687 0.81556225 -0.090058394 0.48089412 -0.8636319 -0.6072563

39 f4 [16]
00000000: b8b1 0840 999f fc3f 25a7 a6bf 3a5b 9340
00000010: d66c 1f40 6489 083e 822f 52bf 053e 003f
00000020: a10a 04c0 c6de b73f 4e92 dcbf 3807 3bc0
00000030: a93c 3d40 7519 86bf fa98 57bf a178 263f
2.135847 1.9736205 -1.3019758 4.604886 2.4910178 0.1333366 -0.8210374 0.50094634
-2.0631487 1.436486 -1.7232149 -2.9223156 2.9568274 -1.0476519 -0.842178 0.65027815

fc.0.bias f4 [496]
00000000: 6292 e33d f51f bc3d 47cf 083c b3da cb3d
00000010: 4818 5c3d e926 373a c9fb fa3c 3e11 023e
00000020: 4e1d 063e f99d e73d 7284 b03d 80c5 203d
00000030: 34af 823c 395f f6bc 41bf 4a3c 5d37 c43d
00000040: 7d52 4dbd 069d 8c3d 5de4 753d e1fe a53d
00000050: fed6 063e 96e4 d73b 3dea b43b 496a f03d
00000060: d0ab a2bb 1f43 d93d 2d0a a13b b704 083e
00000070: 56fc 853d 1466 a83d c0c0 24bc d83d 053e
00000080: 9afb f03d 1f61 e33d 5499 36bd 0a40 fb3d
00000090: 0fb9 443d 776d 8f3d 655a 7e3d aa2c 083d
000000a0: 71c7 a43c e7cf da3d e635 c23d 3d7d 743d
000000b0: 9b49 023d 85e9 f53d 0854 c73d 5b3f 5cbd
000000c0: 8a56 0b3d f101 d53d e424 88bb bc38 20bd
000000d0: d071 093d d6fb b43d 8802 ffbc 2c06 a53b
000000e0: 052f b0bb 32e3 91bd c8f7 ab3d 2022 7b3c
000000f0: 6db7 12bd 0519 003c 0983 613d bbcd c73d
00000100: 7302 a33d 4757 103e 5151 043d 1f62 ebbc
00000110: 3d87 d4bc 4754 6dbc 192d 04bc 0311 b93d
00000120: 48b5 8cbd d1dc 25bc 527d 00bd 3859 713d
00000130: a529 7a3d 12d5 cb3d b05e 2f3d a816 133d
00000140: 485b dd3d 34ab 223d 8af4 ec3c 3e0c f7bc
00000150: cb62 663d c006 963c 53ff 163d 9709 afb9
00000160: 644e 103e b283 933d c7b6 043e e155 af3d
00000170: 2bc4 c43d 786c ab3d ede9 bb3d a957 d03d
00000180: 0173 273d 1530 d93d 5475 cd3c b60a b9bd
00000190: e26b d33c fd1c 243d e0f8 5dbc 44d5 fe3c
000001a0: d5b9 1b3d a192 2e3d 978d fabc a8b5 81bd
000001b0: eb7e 05b9 1374 8d3b 835d e43d eec6 53bd
000001c0: e0a3 a33d fe3c 52bd 8caf f1bc 4ae0 fe3d
000001d0: d77f b23d b773 a23d d3bb 8e3d fbac 853d
000001e0: d1fa 873d 361a bd3c 1093 503d 9f4e e13c
000001f0: bca1 69bc 1ed2 7cbd 542c 883c a28e 7f3d
00000200: 7db9 17bd 39ec f7bc dc4f a23d 388b 2e3d
00000210: 6ba2 65bd a8db 0e3d eaed 2abd d284 d03d
00000220: 9cc9 f93d 569e 1f3e 7f19 b83d 6fa5 033e
00000230: 0984 083e 2e6b d43d c6fe 2e3c 7328 613d
00000240: 1e65 07bd e358 153e 6c14 533d 7b92 1abb
00000250: a443 123d 4eb9 ab3c b0a7 11bd b2ea 91bd
00000260: 7647 633d 32ef 1b3d 8132 71bd 16dd af3b
00000270: a4e4 bc3d 87d5 57bc afd3 473d 60a1 943d
00000280: 48f7 eebb 5529 9abc feb5 11bd 8ea7 bcbb
00000290: 132c c6bc e273 a4bc bd01 62bc 24d7 bf3c
000002a0: f036 793d 28e4 013d 2ca7 463d 9d1f c43d
000002b0: f63b e2bc cf66 ab3d ec83 01bd 92ac fd3d
000002c0: 5609 d53c a164 ae3d edc5 813d 06f4 453c
000002d0: e3f8 c8bb c418 833d b1e4 353d 3db8 5c3d
000002e0: 86f2 22bd 5c5a b8bb 7b0d c53d c10d 933d
000002f0: 9adb 153d 6f7b c73d de08 213d 1790 08bd
00000300: 197d 2a3d 18e0 703d 4450 53bc 106b c9ba
00000310: 70ac 1abd dd8f 283d 968a 563d 612e 9cba
00000320: c04c 0a3d f3a6 6b3d f638 da3d 1471 a53d
00000330: 125c b83d ac45 9c3d 4224 06bd 4289 a8bc
00000340: f51b bdbb 5196 c33d be3c 003e 04ad 8e3d
00000350: 7988 aa3d 9929 413d feaa 523b 124e f43d
00000360: ec62 943d 2350 493d 5d26 b5bb 8938 53ba
00000370: 77ee b63d f887 883d 7ee3 dc3d add4 bf3d
00000380: e578 003e 730f f83d 64f3 6c3d ab56 e23d
00000390: f761 2e3d dbef e23a 21ba 823d 87d2 f3b9
000003a0: a98c 8e3d 1e36 2e3d cd63 483d 953b 6d3d
000003b0: 61f9 933d 21ae e53d ebe8 073e b2f7 993d
000003c0: 9219 8ebc 2358 3f3d f3b4 e83d 9c98 123c
000003d0: c76e a93d 7ca1 a83d 9859 5c3d 904e d83d
000003e0: 756a 03bd c0d4 f73d f813 bf3d a8f4 8c3d
000003f0: 2308 b83d 5630 18bd 8bff d83d ea19 073e
0.11111905 0.09185783 0.0083502 0.09953823 0.053734094 0.0006986694 0.030637639 0.1270189
0.13097116 0.11309428 0.08619012 0.03925085 0.015952684 -0.030074703 0.0123747 0.09580872
-0.050127495 0.06865887 0.060032237 0.08105255 0.1316795 0.006588529 0.0055210874 0.11739022
-0.0049643293 0.106085055 0.004914543 0.13283049 0.0654227 0.08222595 -0.010055721 0.13011873
0.11766739 0.11102509 -0.04457982 0.12268074 0.048028048 0.07003301 0.062097926 0.03324572
0.020114632 0.106841855 0.094829366 0.05968975 0.031808477 0.12007431 0.097328246 -0.053771358
0.034018077 0.10400761 -0.0041547883 -0.039116606 0.033555806 0.088370964 -0.031129137 0.005036136
-0.005376699 -0.07123412 0.0839687 0.01532796 -0.03581946 0.007818465 0.055056605 0.09756037
0.079594515 0.14095794 0.032304112 -0.028733311 -0.025943393 -0.014485425 -0.008067393 0.09036448
-0.06870514 -0.0101234475 -0.031369515 0.058922976 0.06107487 0.09952749 0.04281491 0.03591028
0.10808426 0.039714053 0.028925199 -0.030157205 0.05624656 0.018313766 0.03686459 -0.00033385746
0.14092404 0.07202853 0.12960349 0.08561302 0.096077286 0.08370298 0.09175477 0.1017297
0.04088116 0.10604874 0.02508036 -0.09035246 0.025808278 0.040066708 -0.013548106 0.031107552
0.03801902 0.042620305 -0.030585093 -0.06333476 -0.00012731149 0.0043168156 0.111506484 -0.051703386
0.07990241 -0.051327698 -0.029502653 0.124451235 0.0871579 0.07932227 0.069694184 0.06527134
0.06639636 0.023083787 0.0509215 0.02750331 -0.014259752 -0.06172382 0.0166227 0.062391885
-0.03704213 -0.030264007 0.07925388 0.042613238 -0.056063097 0.03487745 -0.0417308 0.101815835
0.12196657 0.15587744 0.08989238 0.12856077 0.13331617 0.103720054 0.01068086 0.054970216
-0.033055417 0.14584689 0.051533148 -0.0023585844 0.03570904 0.020962384 -0.03556031 -0.07124843
0.055488072 0.03806991 -0.058886055 0.0053669317 0.09223297 -0.0131734675 0.04878586 0.07257342
-0.007292662 -0.018818537 -0.035573952 -0.0057572788 -0.024190938 -0.020074788 -0.01379436 0.023418017
0.060843408 0.031711727 0.04849927 0.09576342 -0.027616482 0.083692186 -0.03161995 0.12386431
0.026005428 0.08515287 0.063365795 0.0120821055 -0.0061331852 0.06401208 0.04440755 0.05388664
-0.03978207 -0.005626006 0.09621712 0.07180358 0.03658638 0.0974034 0.039315097 -0.03334054
0.04162321 0.058807462 -0.012897555 -0.001536699 -0.037762105 0.041152824 0.05237826 -0.0011915677
0.0337646 0.057532262 0.10655396 0.080782086 0.09001936 0.07630476 -0.032749422 -0.020573262
-0.005771155 0.09550155 0.12523171 0.06966594 0.08326811 0.04715881 0.0032145376 0.11928953
0.0724543 0.04914869 -0.005528255 -0.00080574356 0.08932202 0.06666559 0.10785578 0.093667366
0.12546118 0.12112322 0.057849303 0.11051687 0.042573895 0.0017313914 0.063831575 -0.00046505427
0.069604225 0.04253208 0.048923302 0.05791815 0.072252996 0.11214853 0.13272445 0.07517947
-0.017346177 0.046714913 0.11362638 0.008947518 0.08273082 0.08233926 0.05379638 0.105618596
-0.032083947 0.12101126 0.093299806 0.06882602 0.08985927 -0.03715547 0.10595616 0.13193479

fc.0.weight f4 [496, 64]
00000000: db35 d53d 271d 363d 53f5 8f3d dff9 983d
00000010: 882c 2dbd 8330 483d 3abc 80bc e35f 693d
00000020: 4734 86bd 6b3d 643c 1dc5 b0bd cad0 003e
00000030: 8106 053e 7f18 69bd 1460 2a3e 59a7 c53d
00000040: c890 90bc 1fc5 b33d b018 353d f750 083e
00000050: abcb a83d 3090 d0bc 0285 36be e1b8 9cbd
00000060: 0691 a7bd ff78 c33d b467 e83d d884 b3bd
00000070: c5c3 d9bd fe5a c43c 016d aa3d 8549 d2bc
00000080: 1c6e 3e38 8868 4fbb 7e44 54bc 1cba 33bd
00000090: 2881 3b3c 209e 3b3c 89b9 a13b aeb1 debd
000000a0: 2fc5 af3d 54fd 86bd 950c 013e aefc bb3d
000000b0: d14a 043e 7698 a23c 12bc 4abe 0fad 683d
000000c0: 4677 e5bd 7996 e9bb 0f71 393e 0c17 bd3c
000000d0: d16d 783d fd19 fabc 54b5 bbbd 7797 9bbd
000000e0: 3866 d5bd 3e77 91bb 13a0 71bd c741 893d
000000f0: 697f 3c3e 2f6c b73d 47b4 a33d cf60 5cbd
00000100: 36e2 0a3c c161 bfbc 2ca3 e73d cb68 943c
00000110: c609 1e3e 02b0 d73d 7676 683d 4750 b5bd
00000120: bf71 1a3c d077 293d 1868 f13d 93e1 9abd
00000130: 7b48 05bd 9106 a63c 807a b53d 068b 57bd
00000140: d9cc 0c3e f380 cfbd 6cc2 a73d 1d96 7e3d
00000150: e8e7 993d 80e0 423d 1bb3 94bd ec57 e33d
00000160: 89dc 5bbd 22df e7bd 0bb0 8abc 5520 acbc
00000170: 351c 1ebd ee0f 92bd 056d 9d3d d8e9 173e
00000180: e0b6 773d 7a14 9f3a da0f 83bd a9d7 d93b
00000190: 832d 243e 683e a5bd 1cce a23d fcb9 c33d
000001a0: bf5b 52bd 078c 8d3c 5b66 a5bd 0112 bfbd
000001b0: a8b3 10bd bb2c 633d f688 eabd 6355 ea3d
000001c0: c741 c1bc 6468 c63c 1435 043e 069d 4dbd
000001d0: 785b a5bb dcbe 8abd edc6 c6bd 93ce f53d
000001e0: c5b2 46be 9b7c df3d 9cab bebd 0902 9b3d
000001f0: 4439 113e 18ed c3bc bcbe 8d3c 09e2 ad3d
00000200: c622 833d c29b 2d3e 4402 003e 34c7 bfbd
00000210: 93df 8bbd 4aa3 6b3d a9ae 443d fcb8 a33c
00000220: ba2d cfbc c6f2 843d 5358 4b3e 6390 0e3e
00000230: 2c32 153d 0712 c73d 18f7 d0bc 30ee 66bd
00000240: 2b5c 593e 2ab0 b23d 6c98 f03c caa2 263e
00000250: 3c23 ccbd 6fa8 743c 8367 a5bc 6d89 dc3d
00000260: a996 c4bd 3b84 c6bc dd8e cbbd d354 b6bd
00000270: 2a04 b73c fcaa be3d ce7a e73d 05d0 8cbb
00000280: 9d3d cdbd 771a fcbd a29a 86bd c61b 7cbc
00000290: 0976 05be 64e8 683d dec1 9bbc 1ef2 f33d
000002a0: e6c1 6a3d fac2 ef3d 0caf 26be 7642 473e
000002b0: ed1b d3bd b084 f33c b9c9 ab3d b29a 133d
000002c0: 2ec6 853d 1db4 8bbc 5acf a4bd f2b9 97bc
000002d0: 1c7c 90bd 23dc a1bd 69b0 2d3c 4b73 c9bd
000002e0: ca78 0c3e ee4a 113e 6eaf 94bd 1a7c 47bd
000002f0: 913e 283b 9302 db3d 0edb 55be 045a 22bd
00000300: 4602 22bd 9945 09be c0ad a3bd b498 11bd
00000310: 033d 98bd 58f3 ee3d 712b 79bd d50a c3bb
00000320: ba6f 9ebb 3e40 2f3e be19 bf3d 1ec7 17bd
00000330: d4d5 b7bd 69d3 1e3b 9c9f 963b 87d9 49bd
00000340: 6fbc 87bd b55d 97bb 6804 9bbd 7a53 a83d
00000350: e33a e03d 6590 f93c 6191 6a3c a322 123e
00000360: a22c 1cbd ce10 303e 105a 98bd 7ea7 dc3c
00000370: 81c3 493d 6783 82bc fd15 babd 6e6d 0fbd
00000380: e065 983d b1af 673d 90eb 993d 84f2 0c3e
00000390: 85a8 a4bc 5e55 ed3c 809b efba 05e6 cf3d
000003a0: 274a 833d 17d5 24bd 86a4 063c fdf9 7c3d
000003b0: cf03 2b3a 0fa7 ebbd 45d7 0d3d 6426 b83d
000003c0: bd56 d43d 8fcb b03d 5d74 653c c179 d33c
000003d0: b939 903d 88c9 30bd f291 58bd a508 c53c
000003e0: b258 443d ef70 7d3d 2099 863d 4abe babd
000003f0: 732d 0a3e 2b05 f5bd 3270 f73d 9ac7 3ebc
0.10410663 0.044461396 0.07029214 0.07469534 -0.042278796 0.04887439 -0.015714753 0.05697621
-0.0655294 0.013930659 -0.086313464 0.12579647 0.12990762 -0.056908127 0.16638213 0.0965106
-0.017647162 0.08777832 0.044212997 0.13312136 0.082419716 -0.025459379 -0.17824176 -0.0765245
-0.08181958 0.095445625 0.11347905 -0.08765572 -0.10633043 0.02396917 0.08321572 -0.025669822
4.5402077e-05 -0.0031648 -0.012955783 -0.04387866 0.0114443675 0.011451274 0.0049354476 -0.108737335
0.08582532 -0.06591287 0.12602456 0.09179054 0.12919165 0.01984809 -0.19798306 0.056805667
-0.1120439 -0.0071285334 0.18109535 0.023082279 0.060651604 -0.03052997 -0.09165445 -0.07597249
-0.10419887 -0.0044392636 -0.05899055 0.06701999 0.18407978 0.08956181 0.079933695 -0.05380326
0.008476784 -0.023362042 0.113104194 0.018116375 0.15433416 0.10531618 0.0567536 -0.08853202
0.009426533 0.041374028 0.117874324 -0.07562556 -0.032539826 0.020266803 0.08861256 -0.052622817
0.13750018 -0.10132017 0.0819138 0.062154878 0.07514936 0.04757738 -0.07260724 0.11100754
-0.053677116 -0.11321856 -0.016929647 -0.02101151 -0.03860112 -0.071319446 0.076868095 0.14835298
0.060477138 0.001213684 -0.06399508 0.006648023 0.16032986 -0.08068544 0.079494685 0.09556958
-0.051357027 0.017278684 -0.080761634 -0.09329606 -0.035327584 0.05546258 -0.114519045 0.114420675
-0.023590935 0.0242197 0.12910873 -0.050198577 -0.0050463043 -0.06774685 -0.09705911 0.120022915
-0.19404133 0.109124385 -0.09310076 0.075687476 0.14182001 -0.023916766 0.017302863 0.084903784
0.06403117 0.16953948 0.12500864 -0.09364167 -0.06829753 0.05752877 0.04801813 0.019985668
-0.025290359 0.06491618 0.19857912 0.13922267 0.0364248 0.09720235 -0.025508448 -0.056379497
0.21226566 0.08725007 0.029369555 0.16273037 -0.09967658 0.014932736 -0.02019096 0.107683994
-0.09599049 -0.024232974 -0.099393584 -0.08902898 0.022340853 0.093099564 0.1130272 -0.004297259
-0.100215174 -0.12309735 -0.065724626 -0.015387481 -0.13033308 0.05686225 -0.019013342 0.119114146
0.057313822 0.11707111 -0.16277713 0.19458947 -0.10308061 0.029726356 0.08388085 0.0360362
0.065319404 -0.017053658 -0.08047362 -0.018521283 -0.07054922 -0.07903316 0.0106011415 -0.098364435
0.13717952 0.1418874 -0.07260023 -0.048702337 0.0025672058 0.1069385 -0.20884344 -0.039636627
-0.03955295 -0.13405456 -0.079921246 -0.03554602 -0.07433512 0.11667508 -0.060832445 -0.005952219
-0.004835096 0.1711435 0.09331082 -0.037055127 -0.08976331 0.0024234897 0.0045966636 -0.049279716
-0.06627738 -0.004619325 -0.075692 0.08219047 0.10948732 0.03046436 0.014316888 0.14271025
-0.038128503 0.1719391 -0.07439053 0.026935335 0.049258713 -0.015931798 -0.09086225 -0.03501647
0.07441306 0.056564037 0.07515633 0.13764387 -0.020099888 0.02897137 -0.0018280596 0.101512946
0.06410628 -0.04024228 0.008217936 0.061761845 0.00065237 -0.11506473 0.034629125 0.089916974
0.103681065 0.08632576 0.014004794 0.025814893 0.0704226 -0.043160945 -0.05287356 0.024051974
0.04793615 0.06187528 0.06572175 -0.09118326 0.134939 -0.11963876 0.120819464 -0.011644268

fc.3.bias f4 [248]
00000000: 7d82 7fbc 0b3a 19bc 8ba0 c43b 526d 133c
00000010: c5af 18bc 080d 0ebd 7154 3c3c 80ba 17bc
00000020: b5bb 73bb 73b0 1abd 458e 83bd d592 2abd
00000030: ba66 523c 01d3 99bc fe9e 0dbc cac6 02bd
00000040: c6ae a23b 9a9f 81bd a6d6 11bd 6071 3dbc
00000050: 14c1 cbbc 6bc4 463c 4b36 cc3c b24c 453d
00000060: 0b1b 74bc 92ab 373c 9a05 673b 3123 dcbc
00000070: 0cad 20bd fda6 f1bb c096 00bd 881e 3cbd
00000080: 5cf8 a23a 6a7e 18bc bc6f 613c e932 7ebc
00000090: 1dd5 25bd 110c bebc 2057 27bc 3dbe 31bd
000000a0: 4e2d 3dbd 3cb3 44bd 56d5 3fbd 5b10 5dbd
000000b0: 2bc3 5c3d 39a0 0f3d 5275 91bc 5302 b3bc
000000c0: 1b67 29bb ac03 27bd fbe4 eaba 20d7 7abc
000000d0: 4496 afbc dd0f 57bc c4f2 18bd b8a2 6d3c
000000e0: 6622 80b9 9c9c 6a3b 4d41 7f3c 3a1d c1bc
000000f0: 5eae c2bc 4e21 9abd 791b 36bc c5eb 693c
00000100: d3dd 75bc 18b1 973b e905 b33c 4a66 4bbc
00000110: 8e41 29bd 669a fcba 021b eb3c 9aa8 debc
00000120: 2cda 90bb a1ce e3bc 11cc 80bd c54d 0bbd
00000130: 8bd3 e7bb fa4e 0fbd 4efe 6e3c 8a00 d6bc
00000140: 2a60 333b e25c 78bb e44a 033c b43a b43c
00000150: e64b 0f3c f489 10bc e011 82bb d6df 133d
00000160: 08d8 1e3c fe7a d5bb 999a d138 bdc0 3a3d
00000170: 6404 4f3c fe51 05bd 4192 153d 55be febb
00000180: 05e6 29bd d42b 12bd 4ecd 81bc ec82 f03b
00000190: 220f 07bc d3a2 933c bdc0 5fbb 21c3 59bd
000001a0: caac dcbc a9e7 51bc d9a7 9ebc 83bb 10bd
000001b0: f92b 933c ad15 e9bb 2e4c 243c 94a7 d33c
000001c0: 378e 06bd a51c fbbc d003 2cbc ec43 8a3c
000001d0: 2f57 343c b8c6 87b9 ffea aabc 2d73 8339
000001e0: b6bb 8bbb 7b4d 18bd 4f4d 37bc 63a2 a43b
000001f0: 7258 623c 8e66 b1bc 7e64 74bc 1e66 e03b
00000200: 069b 23bb f05e ccbc 3a3f eebc 87f8 7d3c
00000210: b9e9 ddbc 94ad d73c 0fa8 0c3c 4193 29bc
00000220: d5dd 043c ed0f 533c b2b1 c73c 857c 05bd
00000230: 805c 2dbd cce8 7a3c e5ab 4539 ac27 50bd
00000240: d20d 373c 4427 143d e025 f6bb 4401 983c
00000250: 14ed 0dbd 8c65 abbc 9006 683d 3d06 46bc
00000260: 3fbc afbc fc0b aebc f6dc f83c 2f58 6f3d
00000270: 8efe 04bc 732e 933b 7e4f 293d b0af 81bc
00000280: baaf 1cbd 973d a53c 1b29 773b 9f0d 6a3b
00000290: e98e 853c a0c1 26bc 5109 e5bc bd9a 1d3c
000002a0: 5bab f13b dafa 82bc 0fc9 e1bc 4fd8 8e3b
000002b0: 260a 3c3c abf9 99bb 1641 80bb e259 f73c
000002c0: 1976 c7bb a1dc 4b3c 0a0c 6e3a f375 713d
000002d0: f0d7 d538 22ea a73c 546b 04bc 1868 e4bc
000002e0: 9764 5d3b d7bc 8bbc 9d4c f1bc a290 823c
000002f0: 57ed d4bc b872 93bc a378 bebb f2bf 943c
00000300: f0fb 333d 587e 023c a6e7 b4bc 1647 f93c
00000310: 4dcb 433d 9946 883b ff21 1ebc 13b0 8abc
00000320: 53af e43c c3ee 09bd 5b24 e2bc 14bd dfbc
00000330: 40df 83bc 2a65 f3bc 9abb e4bc c4d6 35bd
00000340: d146 12bc 1ef4 d23a e164 803c c798 65bc
00000350: 761f 17bc ec0d e63b 65a2 e43c d5e1 cd3c
00000360: bb88 573d aaa8 123d 61a2 82bd e14d 12bd
00000370: ed4f 9a3c 3390 103c bec1 a4bc e292 87bc
00000380: 5aca 1abc fb4c e83c eb16 c3bc 2832 d3bc
00000390: 3841 493c 568f 2d3d 5ed1 053c 7823 4bbc
000003a0: 5721 603d 2989 34bd 19f5 92bd 08c8 9f3c
000003b0: 13f6 33bd ef12 0dbb bfb7 c6bc 5b6a b93b
000003c0: 44f0 dcbb a5a4 e03b 8e7a 39bb ac11 87bd
000003d0: 643d 223d 1529 d7bc da33 08bd 0da2 ddbb
-0.015595076 -0.009352217 0.0060005835 0.008998232 -0.0093192505 -0.034680396 0.011494742 -0.009260774
-0.003719074 -0.03776593 -0.0642362 -0.041643936 0.012841875 -0.018777372 -0.008643864 -0.03192786
0.0049646823 -0.0632927 -0.035605095 -0.011562675 -0.02487234 0.012131791 0.024928233 0.048168845
-0.014899026 0.011210339 0.0035251142 -0.02687225 -0.03922753 -0.007374643 -0.031393766 -0.045927554
0.0012433636 -0.009307483 0.01375955 -0.015515068 -0.040486444 -0.023199113 -0.010213643 -0.043394316
-0.046185784 -0.048022494 -0.046834312 -0.053970676 0.053897064 0.03506491 -0.017756138 -0.021851694
-0.002584881 -0.040774986 -0.0017921025 -0.015310079 -0.021433957 -0.013126341 -0.037340894 0.014504127
-0.0002443969 0.0035798913 0.015579534 -0.023573507 -0.023764785 -0.075258836 -0.011114948 0.014277403
-0.0150065 0.0046292655 0.021853404 -0.012414524 -0.041322283 -0.0019272089 0.028699402 -0.027180005
-0.0044205394 -0.02780849 -0.062889226 -0.034009714 -0.0070747784 -0.034987427 0.014586998 -0.026123304
0.002737055 -0.003789716 0.008013461 0.022000648 0.008746123 -0.008821953 -0.003969416 0.03610214
0.009695061 -0.006514906 9.994693e-05 0.045593966 0.012635324 -0.032548897 0.03651643 -0.007774154
-0.04147913 -0.03568633 -0.015844967 0.007339826 -0.008243354 0.018021977 -0.003414198 -0.053164605
-0.026937861 -0.01281158 -0.019367145 -0.035335075 0.017965304 -0.0071131797 0.010027928 0.025836743
-0.03285047 -0.030653307 -0.010498956 0.01687809 0.011007114 -0.00025897264 -0.020864008 0.0002507208
-0.0042643202 -0.037183266 -0.011187865 0.005024241 0.013815032 -0.021655347 -0.014916537 0.006848111
-0.0024964227 -0.024947613 -0.029082883 0.015501148 -0.027088987 0.026327886 0.00858499 -0.0103500495
0.0081095295 0.012882215 0.024376724 -0.032589454 -0.042324543 0.015314292 0.0001885142 -0.050819084
0.011172729 0.03617026 -0.0075118393 0.018555291 -0.034649923 -0.020922445 0.056646883 -0.012086448
-0.021452067 -0.021245949 0.0303788 0.058433708 -0.008117331 0.004491621 0.041335575 -0.015830845
-0.038253523 0.02017097 0.003771371 0.0035713685 0.016303496 -0.010178 -0.027958544 0.009619412
0.0073751635 -0.015988756 -0.027561693 0.004359282 0.011477029 -0.004698952 -0.003914009 0.030194227
-0.0060870764 0.012442739 0.00090807735 0.058950376 0.00010196853 0.020497385 -0.00808223 -0.027881667
0.003378188 -0.01705782 -0.029455477 0.015938107 -0.025992079 -0.017999038 -0.005812721 0.018157933
0.04394144 0.007964693 -0.022083115 0.030429404 0.047801305 0.0041588065 -0.00965166 -0.016929662
0.027915632 -0.033674967 -0.027605226 -0.02731184 -0.016097665 -0.029711325 -0.027921487 -0.04439427
-0.008928017 0.0016094481 0.015673103 -0.014013476 -0.0092238095 0.0070207026 0.027909467 0.0251321
0.05262063 0.03580538 -0.063786276 -0.035718802 0.01883694 0.008823442 -0.020111915 -0.016549531
-0.009447658 0.02835702 -0.02381464 -0.025780752 0.012283616 0.042373024 0.008167593 -0.012398593
0.054719295 -0.04407612 -0.07175655 0.019504562 -0.043935847 -0.0021526178 -0.024257539 0.0056584305
-0.006742509 0.0068555647 -0.0028301808 -0.065951675 0.039609328 -0.026264707 -0.033252575 -0.0067637027

fc.3.weight f4 [248, 496]
00000000: 5f19 f33c 94b6 2bbd d4c2 35bd 0d58 8abd
00000010: d306 f53c bf32 52bd 6153 4bbd 98fd 5cbd
00000020: fbc4 43bd 2e86 933d 7353 3d3d 40d5 a33a
00000030: 480c 603d 78b7 1f3d bc0c 12bc bb7e 75bd
00000040: 00ad 503c 69fe 3fbd 16be bdbc 5a84 383d
00000050: d1d4 02bd 176b 62bd e809 debc 419a c3bc
00000060: bd0d 333d fd3f a0ba 21c7 f13c a38b eb3c
00000070: b224 56bd 316b b73d 75ab 39bd 6752 903d
00000080: 3c88 1cbb 912a 713d ccf4 a53c 6d35 ad3b
00000090: ac0b 8fbc b7aa b73c e5ec d53c fd52 84bd
000000a0: 76cd 84bd 13cd ad3d dbc7 1bbd cd4b 89bd
000000b0: 32af 8ebc 9236 f13c df1c 29bd e41b 933c
000000c0: 5698 f73b c6aa ae3c 6ff1 05bc ef8e 89bd
000000d0: 86f8 d13c da62 233d 2406 acbd 9cfd cbbc
000000e0: 8d12 9cbd 5702 243d f398 3c3d 451e 0f3c
000000f0: 9a19 9d3d f172 ab3c 90dd 43bd 4843 7f3d
00000100: 7a5f c7bc 97a0 353c ed84 0f3d 64c7 15bd
00000110: deb9 413d 018e 113d 0f6a 4cbd 3526 d5bc
00000120: 32fb fabc b114 15bd be24 8c3d 3cf8 673d
00000130: 4281 e83b 8893 b73b 32f2 5bbd 3895 55bd
00000140: ebac 76bc 2a53 57bd 48de dabc 11e3 91bb
00000150: 6551 fa3d 9d48 36bd ea56 573d cf18 8ebd
00000160: d52f 9fbc fe72 463c d495 9e3c 8205 6cbd
00000170: 6896 cebd 079e 04bd 6a79 de3c 0e2f b7bd
00000180: f5df e93c 4e6f 62bd 9508 2ebd aeee a83c
00000190: 8da6 37bd aff5 69bd 0868 093d dfe8 27bd
000001a0: 96e1 393d 3f53 81bc eccb 08bd f1a0 5abc
000001b0: d4e0 193d 92fe 393d 4365 8bbc 3e0d 57bc
000001c0: 1c6a dabc 9598 16bb b323 c43c c8bc 85bd
000001d0: 75fb 4ebd 5ef5 4bbc c825 44bd e354 b7bd
000001e0: 0fa5 073b 2c06 fd3c e03e afbd 59b2 07bd
000001f0: c62c 93bb 9941 8bbb 9fce 5bbd bf1e 85bd
00000200: b1a8 97bc de1b 23bc ba6a 3abd ea41 2fbd
00000210: caec bd3c 1e7b d7bc 3cde b23c 1772 efbc
00000220: 9f67 8a3d 0a1c 4d3d eac7 18bd e1b7 a53d
00000230: 0dd2 a43d 58f1 05bd 4e63 4b3d 698a 3dbc
00000240: 3e25 f1bc d7a7 2abd 962a 423b 2c13 243c
00000250: 4d13 8d3c 771f 0d3b 7a8a 48bc 520c bcbb
00000260: 348d 98bd c085 583d 63d0 ddbb 5ee4 55bd
00000270: 7781 7d3c d40d 9fbd 58d8 873d 8270 a33b
00000280: 09a5 633d 6089 223d f087 833b 0214 9b3d
00000290: e93c 4f3d 6938 88bd 0c1d e8bb 6ab1 6fbd
000002a0: 58e3 29bd db11 163d c4bf 843c 51da 87bd
000002b0: 1be6 603c 1a28 56bd 57b2 8dbc 9c31 78bd
000002c0: 347f db3b d397 e3bc 0f5c 893d 72e1 cd3c
000002d0: 1d09 e73c ce4c 24bd 7c5b 9b3d 5031 c23c
000002e0: c432 28bd a97a 56bd a031 ddb5 6f84 1abd
000002f0: c1ec 183c d2fa 77bd 9f5e 563d cca6 8bbd
00000300: 842d 96bc b04e 0c3d bc9d b13d 6b87 b1bc
00000310: 81ba 313d ae8b bcbc 9771 f03c 95fd 91bd
00000320: d887 acbc 55c5 993d 75f3 97bc b4fa 853d
00000330: cf69 c2bb bcad 743d ef0c 4cbd 357d babc
00000340: d649 11bc bed4 00bd 67d1 87bc 50ed f0bc
00000350: 281d 363d 7bd8 38bd 7178 3abd 5426 7bbc
00000360: 2bf6 823d 45d0 27bd 2494 1b3c 6989 ea3c
00000370: 8d40 54bd d9da b2bc 5c6f 2c3d 9cca c6bc
00000380: 7902 6b3d bf5b f63b 17c9 6b3d 4042 833d
00000390: cdb0 cdbc f540 9ebc c65c 9abc 292d 1e3d
000003a0: ff7a 0fbd af4c a6bd 0164 ecbc 7e00 4cbc
000003b0: 967a 9b3c 4c82 8fbd f102 253c b66b a43d
000003c0: c771 3a3c bbb5 60bd 3e98 5ebd d4d2 8a3c
000003d0: 16bd 763d a2bb 423d 852b 28bd 23ce b5bc
000003e0: d552 85bd 6653 193d 4010 333d 5545 b2bd
000003f0: d9d3 55bd f3c9 da3c a6d0 1cbd cf69 aebd
0.029675184 -0.041922167 -0.044375256 -0.067550756 0.02991048 -0.051317926 -0.049640063 -0.053952783
-0.047795277 0.07203327 0.04622216 0.0012499467 0.054699212 0.03899333 -0.008914169 -0.059935313
0.012736559 -0.046873484 -0.02316193 0.045048095 -0.03194124 -0.05527791 -0.027104333 -0.023877265
0.043714274 -0.0012226101 0.029513897 0.028753107 -0.05228109 0.08955992 -0.04532953 0.07046967
-0.0023884913 0.058878485 0.02025833 0.00528591 -0.01746162 0.02242027 0.026113937 -0.06461141
-0.06484501 0.084863804 -0.038032394 -0.06703911 -0.017417524 0.029444966 -0.0412873 0.017957635
0.0075560017 0.021321665 -0.008175238 -0.067167155 0.0256312 0.039889194 -0.08399609 -0.024901204
-0.07620726 0.040041294 0.0460443 0.008735244 0.07670899 0.020928832 -0.04781872 0.062320024
-0.024337519 0.011085651 0.035038877 -0.036567107 0.047296397 0.035535816 -0.049905833 -0.026019195
-0.030637357 -0.036396686 0.068429455 0.05663322 0.007095487 0.005602304 -0.053697772 -0.05214426
-0.015055875 -0.052569546 -0.02671732 -0.0044521173 0.12222556 -0.044502843 0.052573122 -0.069383256
-0.019431988 0.012112377 0.019358553 -0.05762244 -0.100872815 -0.03237727 0.027157504 -0.08944522
0.028549174 -0.05528193 -0.042488653 0.020621624 -0.04483657 -0.057119068 0.033546478 -0.040993568
0.04538115 -0.015786765 -0.0333976 -0.0133440355 0.03756793 0.045408793 -0.017016059 -0.013125716
-0.026661925 -0.002297913 0.023942804 -0.06530148 -0.050532777 -0.012448637 -0.047887594 -0.08951738
0.0020697748 0.030886732 -0.08556914 -0.03312907 -0.0044914214 -0.004249763 -0.053663846 -0.06500005
-0.018513056 -0.0099553745 -0.04551194 -0.04278747 0.023184199 -0.026303824 0.021834485 -0.029229207
0.067580454 0.05007557 -0.037300028 0.08091713 0.080478765 -0.032700866 0.04965525 -0.011568644
-0.029436704 -0.04166397 0.0029627434 0.010014337 0.017221117 0.0021533647 -0.012240047 -0.0057387734
-0.07448807 0.05286193 -0.0067692264 -0.05221974 0.015472761 -0.077663094 0.06633061 0.004987777
0.05557731 0.039681792 0.0040140077 0.075721756 0.050595198 -0.066513844 -0.007083541 -0.058518805
-0.041476578 0.036638122 0.016204722 -0.066334374 0.013726736 -0.052284338 -0.017296953 -0.060594186
0.0066985134 -0.027782356 0.06707012 0.025131915 0.028202588 -0.04011231 0.07585809 0.023705155
-0.04106404 -0.05236307 -1.6480226e-06 -0.037723955 0.00933379 -0.060541935 0.05233633 -0.06818923
-0.01833225 0.03425473 0.086726636 -0.021671018 0.043390755 -0.023015823 0.029351039 -0.07128445
-0.02106087 0.07508341 -0.018548707 0.065419585 -0.0059330235 0.059736 -0.049817022 -0.022764781
-0.0088677015 -0.031452887 -0.016579343 -0.029410034 0.0444614 -0.045128327 -0.045525018 -0.015328962
0.06394609 -0.040970106 0.009495769 0.028629975 -0.051819373 -0.02183287 0.042098388 -0.024266534
0.057375405 0.007518261 0.05756482 0.064091206 -0.02510872 -0.019318083 -0.018843066 0.038617287
-0.035029408 -0.08120095 -0.02885628 -0.012451289 0.018979352 -0.07007274 0.010071502 0.08028357
0.011379666 -0.05486081 -0.05434441 0.016946234 0.06023892 0.04754222 -0.04105713 -0.02219302
-0.065099396 0.03743305 0.04371667 -0.0870463 -0.052203987 0.026707625 -0.03828492 -0.08516275
