inventory/ark_material.onnx (onnx, 763192 bytes, 8 tensors)

35 f4 [8, 3, 5, 5]
000000 af b0 48 3e a5 93 69 3e 74 c9 3e 3f b1 ce 60 be
       0.1959865 0.22810228 0.74526143 -0.21953847
000010 0d e4 bb bb 26 dd 35 be 14 be bf be 95 64 43 3e
       -0.005733973 -0.17760143 -0.37449706 0.19081338
000020 7c 18 80 be fb 53 21 3d b6 b1 88 be ec f3 96 be
       -0.2501868 0.03938673 -0.26698083 -0.29482973
000030 b7 e5 17 3f 15 8f ce 3d f8 12 44 bd d3 3a 95 bd
       0.5933489 0.100858845 -0.047869653 -0.072866105
000040 e2 f1 41 3c 08 66 09 3d 06 fd d3 be 09 53 04 3e
       0.0118374545 0.03354457 -0.4140398 0.129223
000050 11 75 c1 be 16 dc 02 3f 5d 95 f1 3e e8 55 25 3f
       -0.37784627 0.51117074 0.47184268 0.6458421
000060 1f c8 78 3e d1 c2 fd bd 6f 9b 32 bd e7 1b 91 bd
       0.2429509 -0.12390674 -0.043605264 -0.070854
000070 a0 eb 15 be f3 2a da bd 58 4f 38 bc bf fd 47 3e
       -0.14640665 -0.10652723 -0.011249386 0.1953039
000080 5b 28 b3 3e a0 02 a8 3d 7e c7 93 3e 3d 44 6f 3e
       0.34991726 0.08203626 0.28863138 0.23365875
000090 d8 35 65 bc 6c a6 e2 3e ab 68 bb 3e 94 95 80 3e
       -0.013989888 0.44267595 0.36603293 0.2511412
0000a0 bf 6c da be a8 1d 24 3a a3 5a 25 be 9f 98 b1 3e
       -0.42661092 0.00062605226 -0.16147856 0.34686753
0000b0 f0 f7 1e 3e 35 31 8e bd e8 a9 c8 3d 53 28 62 bd
       0.15524268 -0.06942979 0.09798032 -0.055214237
0000c0 87 5a 0a bd 9b fa 42 be 82 81 34 be 54 67 bb be
       -0.03377774 -0.19040911 -0.17627528 -0.3660227
0000d0 c0 97 e0 3e 9d c2 3a be a7 b1 17 bf cd 06 46 bf
       0.43865776 -0.18238302 -0.5925545 -0.7735413
0000e0 23 cc a3 3e f3 e8 0f bf f6 a2 ab 3e 18 4e 17 bf
       0.3199168 -0.5621483 0.33522767 -0.59103537
0000f0 07 f5 cb bd ee 62 20 3f ba 20 93 3e 86 08 43 3e
       -0.09958845 0.62650955 0.28735906 0.1904622
000100 53 c7 49 3e fa 9a 03 bf 1f ce b7 be fc 63 0c 3f
       0.19704942 -0.5140835 -0.35899445 0.54840064
000110 d6 42 3b 3f 9a 0d 0c be b6 ba 1e 3e af f9 2b be
       0.7314886 -0.13677064 0.15500912 -0.16794465
000120 0d e2 ac 3e 88 99 99 3e ef 52 c1 be c6 df b9 3d
       0.33766213 0.29999948 -0.37758586 0.090758845
000130 f9 e4 a6 3d 56 ac ec 3d 7e 07 cc 3d 70 f3 16 3e
       0.08149142 0.11556308 0.099623665 0.14741302
000140 88 0b c8 3e 7c e3 ba be 8b dc a9 bd cf 85 b9 be
       0.39071298 -0.36501682 -0.08294018 -0.362349
000150 12 61 ba 3e a8 37 c5 bd 10 45 f9 3d 4d 80 e4 3d
       0.36402184 -0.09629756 0.12171376 0.11157284
000160 50 46 7e 3e 11 cf b6 be a3 1d 96 3e 77 9e c0 bd
       0.2483151 -0.35704854 0.29319486 -0.09405225
000170 6d 86 9f bd c1 fe 8b 3d a5 30 67 bd 4f d5 83 be
       -0.077893116 0.068357 -0.056442875 -0.2574868
000180 64 96 65 3e 67 8e 3b be 7a d6 3e 3d b8 c3 9d 3e
       0.2242065 -0.18316041 0.04659126 0.30813384
000190 5c 37 5f be 75 07 99 3e 2e 74 27 bf dc e3 d8 be
       -0.21798462 0.29888502 -0.6541165 -0.42361343
0001a0 63 b6 47 3d 1a 8a fc be 4c 3b 41 3e d6 fd ee bd
       0.048757922 -0.49324113 0.18870276 -0.11669509
0001b0 46 81 81 3e 04 14 29 bf 1e 41 b3 be 78 cc bf 3e
       0.2529394 -0.66046166 -0.35010618 0.37460685
0001c0 10 2a 0a 3e 55 a4 c1 be 8c c4 1f bf 48 5a af bd
       0.13492608 -0.37820688 -0.6240928 -0.08562142
0001d0 4b 1c fd be b5 a5 b6 3e 89 69 4c 3d 1f 91 6e be
       -0.49435648 0.356733 0.049905334 -0.23297547
0001e0 f3 46 57 bd c4 b6 d6 be b8 e3 80 3e c6 c1 3f be
       -0.052557897 -0.41936314 0.25173736 -0.18726262
0001f0 63 7a 9d bd b5 a2 c9 3d c0 8c d4 3e e4 70 00 3f
       -0.07689359 0.09845487 0.41513634 0.5017226
000200 e2 ee ca bd 21 e3 db be b4 dd 09 3f 2f 01 2a be
       -0.099088445 -0.42946723 0.5385392 -0.16602014
000210 37 95 0f be dc 94 27 be ee 8d d9 be 3c 66 b8 ba
       -0.14021765 -0.16365379 -0.42491096 -0.0014068554
000220 f0 2b 4c 3d d4 97 08 bf 2e 2b 0d bf 3c d8 55 3e
       0.04984659 -0.5335667 -0.5514401 0.20883268
000230 7e ba a5 bd 38 bf 78 be 82 08 76 bd b1 29 a5 3e
       -0.08092211 -0.24291694 -0.060066707 0.3225837
000240 20 93 7d be f1 74 93 3e 3a 5f ed 3e 3f 61 87 be
       -0.24763155 0.28800157 0.46361715 -0.2644138
000250 3f 24 ed 3c 1b 0f ff be da 53 97 3d 38 2e 4a bd
       0.028947948 -0.49816212 0.0738904 -0.049360484
000260 13 c3 ec 3d 14 ea ba be 21 cb 04 be 3d 8c 9f bc
       0.11560645 -0.36506712 -0.12968113 -0.01947605
000270 00 d8 c3 bd 0f c5 b4 be f1 c2 0f 3d 4f 8d 8a be
       -0.09562683 -0.35306594 0.03509802 -0.27060935
000280 b7 76 9e be ab 0f 83 3d 19 78 e9 bd f0 00 b1 be
       -0.30949947 0.06399473 -0.1139986 -0.34571028
000290 c7 71 e4 3d 15 6b 85 be ec 42 7c be c4 6a cf be
       0.11154514 -0.2605826 -0.24634904 -0.40511143
0002a0 21 05 75 be 25 19 da be 90 27 be be 0f 1b 4d be
       -0.23927738 -0.4259731 -0.3713956 -0.20029853
0002b0 f7 8c 18 3e 38 bb 0b 3d 79 f6 f8 be 35 83 5a 3e
       0.14897524 0.034114093 -0.48625544 0.21339114
0002c0 37 89 8d bd f9 73 36 be db f1 6a bd f3 bd 94 3d
       -0.06910937 -0.17817678 -0.057359558 0.072627924
0002d0 59 0d e3 3d 4f 4c 62 3e 3c 63 90 be 17 bb 6c 3e
       0.1108653 0.22099422 -0.2820071 0.23118244
0002e0 c8 77 38 3e c0 bf 65 be 57 c4 ac be 7f 12 f1 bd
       0.18014443 -0.22436428 -0.33743545 -0.11771106
0002f0 15 cb 3d 3d 9f 4a e1 3d 24 f6 e6 3d b5 b4 0b bd
       0.046336252 0.11000561 0.11277416 -0.034107883
000300 08 58 00 bd d8 d3 0e 3e 82 47 56 bd 1b f7 fd 3d
       -0.031333953 0.13948 -0.05231429 0.12400647
000310 55 1e 14 be 14 f0 4a 3d 60 4f 01 bd 9f 7e 51 be
       -0.14464696 0.049545363 -0.03156984 -0.20458458
000320 44 22 04 be 53 66 57 be d3 7f 38 be 1b 42 09 3e
       -0.12903696 -0.21035127 -0.18017511 0.13404123
000330 fd 2a 8d bd 2e 02 57 be 1c 79 8e be 53 98 9b 3e
       -0.06892965 -0.20996925 -0.27826774 0.30389652
000340 97 58 92 3d c5 5a 61 3e 35 dd a3 3e f8 5a 6f 3e
       0.071458034 0.22007282 0.32004705 0.23374546
000350 c4 2e 8f 3e 12 8b c9 3b 69 2f 3b 3e 0f 45 d9 bd
       0.27965367 0.0061506117 0.18279804 -0.10608875
000360 3f b4 c7 3e a9 29 7c 3e ca 46 4e bd b2 2a a1 be
       0.39004704 0.24625267 -0.05036048 -0.31477886
000370 4d 14 49 bc 11 3f a7 bd a2 a1 64 bd fc a7 f9 bd
       -0.0122729065 -0.08166326 -0.055818208 -0.121902436
000380 01 0f 2d 3e f8 4b d4 3e a5 25 72 be a0 6c 80 be
       0.16900255 0.4146421 -0.23647173 -0.25082874
000390 54 f2 b7 be 65 5f a3 3e b6 1d 3d be 97 6f 6c 3e
       -0.3592707 0.31908718 -0.18468365 0.23089443
0003a0 2e 92 37 be 3d 06 61 be af ad 7c bd ba 90 97 3e
       -0.17926857 -0.21975036 -0.061689075 0.29602605
0003b0 02 f9 2a 3e 9f 6b d3 bd 6c 06 fc bc 9d 38 60 be
       0.16696551 -0.103232615 -0.030764781 -0.21896596
0003c0 59 e1 a2 be 20 70 31 3e 19 85 35 be 59 7b 02 be
       -0.31812552 0.17327929 -0.17726554 -0.12742366
0003d0 d3 4a cd be c3 5e 7a be 7c f4 4c bc 72 8d be 3b
       -0.4009615 -0.24450211 -0.0125094615 0.0058152014
0003e0 28 d0 a2 bc 82 ba 2e bd fe 10 4d 3e 6a 7b 94 bd
       -0.019874647 -0.042658336 0.20026013 -0.07250102
0003f0 c5 93 3d 3e 8f 49 ee 3d b5 1a f3 bc 15 22 3f 3e
       0.18513401 0.11635124 -0.02967582 0.18665345

36 f4 [8]
000000 e8 b5 94 bf ad 99 e8 3f 1e b7 b7 3f da e3 b5 bf
       -1.1618013 1.8171898 1.4352758 -1.421016
000010 ee 24 06 3f 73 a9 f9 3e ef aa 87 3d 3b 88 a4 bf
       0.524001 0.48762092 0.066244 -1.2854074

38 f4 [16, 8, 3, 3]
000000 19 cf 74 3f 10 d0 17 bf eb 20 6d be 55 57 4b 3f
       0.95628506 -0.59301853 -0.23157088 0.79430133
000010 fe 5d a5 3e 23 f5 b7 3e bd c6 42 3e 91 0f 40 bf
       0.32298273 0.35929212 0.19021125 -0.7502375
000020 e4 75 0d 3e c1 84 19 bf c7 e6 b1 3f 52 2b 86 be
       0.13814503 -0.5996819 1.3898553 -0.26204926
000030 2a fa de 3f e4 2e cb be 39 2e 17 c0 6b 88 fd 3d
       1.7420094 -0.39684212 -2.3621962 0.12379535
000040 b4 31 03 bf 8c 63 46 bf 39 96 94 3f 23 5c 46 3e
       -0.51247716 -0.77495646 1.1608344 0.19371085
000050 e4 86 7e bf 20 a8 0f 3f 00 73 55 3f 54 85 6d be
       -0.99424577 0.56115913 0.833786 -0.23195392
000060 da 8a a0 bf 72 c4 7f 3f c9 be 0d be 89 0a d7 bd
       -1.2542374 0.99909127 -0.1384231 -0.10500056
000070 44 9b 10 3d e6 5a 31 3d 76 bb 04 3f 7f b7 d9 3e
       0.035304323 0.043299578 0.5184854 0.4252281
000080 61 c5 a3 bf e5 4c b2 be b5 91 e8 3e c1 85 6a bf
       -1.279461 -0.3482429 0.45423666 -0.9161034
000090 af 63 2f 3f 6f f5 0a be 26 8b d9 3e 65 f6 22 3f
       0.6851148 -0.13570188 0.42488974 0.6365722
0000a0 54 91 13 3f d8 af eb bd 0e 27 1a bc b4 d5 dd be
       0.5764363 -0.11508149 -0.009408725 -0.43327105
0000b0 8b a0 24 bf 63 53 ce bd 0f c2 dc 3c 63 24 d0 be
       -0.6430747 -0.100744985 0.026948003 -0.4065276
0000c0 6a 6b 95 bf 84 9b 95 3f ce 56 17 bf 50 a6 11 3f
       -1.1673405 1.1688085 -0.5911683 0.568944
0000d0 b9 57 d5 3f 67 5a 69 3f 7d eb 5f 3e bf e1 b9 bf
       1.6667396 0.9115357 0.21867175 -1.4522017
0000e0 5f 76 88 bf 28 7c 94 be 8a 1b 13 40 7f c7 b4 3f
       -1.0661124 -0.29000974 2.2985559 1.4123381
0000f0 7a bb b4 bf 3f ff e8 bd 60 0d d3 3e ff 29 9f be
       -1.4119713 -0.11376809 0.41221142 -0.31086728
000100 34 70 94 3f 2d 18 38 be d7 7f 10 3f 58 3d 87 bf
       1.1596742 -0.17977972 0.5644507 -1.0565596
000110 30 3c 06 bf ff 81 59 3f c8 62 39 bf 62 7f 73 be
       -0.5243559 0.84963983 -0.72416353 -0.23779061
000120 f6 11 0f bf 86 2a 78 3f 8e 7c a0 be bd 62 8e bf
       -0.5588678 0.96939886 -0.31345028 -1.1123883
000130 bb ce 26 3e ac ae f4 3e 98 7e f7 3d 69 aa b3 be
       0.16289799 0.47789514 0.12084693 -0.3509095
000140 57 5b a1 bf 81 da 0f bd 10 7c 39 be 97 a5 e9 bd
       -1.2606 -0.03512049 -0.18113732 -0.11408537
000150 38 f5 a8 3f bb 9a 09 3f 30 64 64 3c ad 9b 6f bf
       1.3199835 0.53751725 0.013939902 -0.9359692
000160 40 1d 1b 3f 0b 9a 16 3e a2 be df bc 4c d2 1f 3f
       0.60591507 0.147072 -0.02731258 0.6243026
000170 08 74 9e bf 31 b5 a0 bf cf 29 dd be 6f 08 e1 3e
       -1.237916 -1.2555295 -0.4319596 0.43951747
000180 96 f1 fa 3e 79 fb 8c bf 45 fc 29 bf 56 0c c5 3e
       0.4901244 -1.1014243 -0.6640056 0.38485974
000190 cb 3f 44 3f 74 4a 1c 3e d8 fe 46 be 7f 54 2f 3d
       0.7665984 0.15262777 -0.19433153 0.04280519
0001a0 a4 32 05 3e bc f7 a2 3e 92 b3 81 bf 0e 5f 97 3d
       0.13007599 0.3182963 -1.0132926 0.07391177
0001b0 c9 cf 9b 3e da 26 a0 bf 1e 40 6f 3f 6a 9e b8 3f
       0.30431965 -1.2511857 0.9345721 1.4423344
0001c0 70 51 48 bf 1d 0b 87 3f 99 d8 95 3f f5 63 4e be
       -0.78249264 1.0550267 1.1706725 -0.20155318
0001d0 53 b7 25 bf d7 52 5c bf 4f b6 6c bf 28 c6 84 3d
       -0.64732856 -0.86063904 -0.9246568 0.06483108
0001e0 cd 22 56 bf 40 27 2c 3d a2 ba 0e 3f 4a 9d b2 bd
       -0.8364685 0.04202962 0.5575353 -0.08721407
0001f0 95 8f a7 bf 47 22 d0 3e 65 0d 0a 3e 30 88 bc be
       -1.3090693 0.40651152 0.13481672 -0.36822653
000200 75 4c 62 3e 76 7f 8f 3e fd d0 14 3f cc 16 8f 3f
       0.22099479 0.28026932 0.5813139 1.1178832
000210 6d e0 e7 be f0 bd 0c c0 b0 83 6d 3e 3e a7 84 3e
       -0.4528841 -2.1990929 0.23194766 0.25908846
000220 e7 4d 0a 3f f9 fe 9b be 6f d0 47 3e ca e3 4e 3f
       0.5402512 -0.30467966 0.19513105 0.8081633
000230 b5 61 66 3e b4 89 d1 be 6b 63 33 bf 39 52 38 bf
       0.2249821 -0.40925372 -0.70073575 -0.7200046
000240 c6 ed c9 3a 04 4f 1c 3e 47 26 a0 3e d4 5d 30 3f
       0.0015405945 0.15264517 0.31279203 0.6889317
000250 54 51 66 3f 0b 30 4c 3c cf ff 7d 3d ba eb 15 bc
       0.89967847 0.012462626 0.062011536 -0.00915044
000260 ff 4c 87 3d b1 60 f3 be f9 3c 79 3e 20 41 64 3c
       0.06606483 -0.47534707 0.24339665 0.013931543
000270 dc 9c c1 3d 26 7a 78 3f 92 dd 62 3f c2 ad 26 3e
       0.09453747 0.97061384 0.8861934 0.16277221
000280 8a 95 65 3e ca 97 05 3f a0 42 40 bf 49 34 92 3d
       0.22420326 0.52184737 -0.7510166 0.07138879
000290 ba 4b 1f bd 2c c5 34 bf e0 7d 07 3f 46 87 47 be
       -0.038890578 -0.7061336 0.52926445 -0.19485196
0002a0 9e aa 3c bf 5d 12 1f 3f 8b 7f 0d 3f 4c ad 05 3e
       -0.7369784 0.62137395 0.5527274 0.13054389
0002b0 7f 38 87 3d 2d f7 2b 3f 8a 96 30 3f db c2 a3 be
       0.06602573 0.67174035 0.68979704 -0.319846
0002c0 1e 67 a8 be 5d d9 0e 3f f5 23 41 bf 89 4d f5 3c
       -0.32891172 0.5580042 -0.7544549 0.029944198
0002d0 d7 e9 5d 3d 33 fe cc 3d 80 57 3a 3e 5f b4 31 3f
       0.054178085 0.10009422 0.18197441 0.6941585
0002e0 df 69 93 3f 9d 15 df 3e 2c ea c5 3e b8 76 f5 3e
       1.1516684 0.43571177 0.3865522 0.47942138
0002f0 06 41 78 3e 3e 2a 42 bf 2c cd 24 be e0 19 ba bc
       0.24243554 -0.75845706 -0.16093892 -0.022717416
000300 f9 45 c2 3e 2b 53 15 3e 02 d1 22 bf e0 70 bd 3d
       0.3794401 0.14582507 -0.6360017 0.09250045
000310 69 64 1c bf 51 36 89 be c0 63 1c 3f 41 1e dc be
       -0.61090714 -0.26799253 0.61089706 -0.42991832
000320 3e f5 b2 3d 66 ca 92 3e e4 b6 98 3e 20 3f 4e bf
       0.087381825 0.28670043 0.29827034 -0.8056507
000330 02 7a 16 be af 70 b1 bd 52 37 52 be bf d2 2f bf
       -0.1469498 -0.08664071 -0.20528916 -0.6868095
000340 ea 96 24 be 91 0a fa bc 62 f6 c5 bd 7e c2 80 3d
       -0.16073194 -0.030522617 -0.096661344 0.062870964
000350 38 a4 31 3e 68 3c b2 bd 08 5b 7f 3e 20 d0 fa bc
       0.173478 -0.08702928 0.2493707 -0.03061682
000360 c2 da c8 be 1f be 65 3d 3c 2b 4b be 90 2c 52 be
       -0.392294 0.056089517 -0.19840711 -0.20524812
000370 cc 9b 8e be 86 88 37 bf 81 bc 33 3e b5 e6 8c be
       -0.2785324 -0.71692693 0.17552377 -0.27519765
000380 c1 29 83 3e 8a 89 8e 3e 01 0a d4 3e 20 c4 a7 3e
       0.25617793 0.2783931 0.41413882 0.3276682
000390 42 6c 52 bf 36 f6 80 be 2c 1f 92 3e 21 de 08 bf
       -0.8219644 -0.25187844 0.28539407 -0.5346394
0003a0 ed ef 73 be ff 71 f8 3e 70 e3 27 3d 41 7f b5 3f
       -0.23821993 0.48524472 0.040988386 1.417946
0003b0 95 a3 11 3e f2 ac fe be 91 a6 b1 bc a7 38 3d 3f
       0.14222558 -0.49741322 -0.02168587 0.7391457
0003c0 c8 cf 20 be fb 56 19 be 65 81 9c bf e1 ec 83 be
       -0.15704262 -0.14974587 -1.2226988 -0.25766662
0003d0 7c c9 53 bf 67 ff 52 be 2a cd 96 bc 3a 8a 09 3f
       -0.82729316 -0.20605241 -0.018408377 0.5372654
0003e0 cf a2 87 be 51 13 e3 bb 19 ed b5 be 2a e5 c7 be
       -0.264914 -0.006929793 -0.35532454 -0.39042026
0003f0 de 08 9d be 52 15 13 3f ef 04 70 bf 43 17 21 3f
       -0.30670828 0.5745441 -0.9375753 0.6292612

39 f4 [16]
000000 14 5a 64 3e ef 70 e1 3f 1b a2 02 c0 a6 80 5a 40
       0.22299987 1.761259 -2.0411441 3.414102
000010 48 32 43 3d 2c 47 b6 bf b9 3b 56 be 15 9d 34 be
       0.047655374 -1.424047 -0.2092122 -0.17638047
000020 0a a1 2f 40 5a 06 89 3f fe eb f9 bf f4 75 4b 3f
       2.744204 1.0705063 -1.9525144 0.7947686
000030 61 49 71 40 4f fd 0d bf d8 3a c1 3f 46 dd 0d 40
       3.7701037 -0.55464643 1.5096083 2.2166305

fc.0.bias f4 [544]
000000 a1 13 9a 3d c2 76 8c 3c 9d 73 d6 3d 54 f0 81 3d
       0.07523275 0.017146472 0.1047127 0.06344667
000010 33 b9 c3 bc de a6 9c 3d 89 3c 03 bb 6f ff 10 3e
       -0.02389202 0.07649015 -0.0020025095 0.1415994
000020 ef d7 9a bd 29 2b 58 3d c2 6b 04 3e ec ac b2 3d
       -0.07560717 0.052775536 0.12931731 0.087243885
000030 38 ac 0c ba a7 91 0b 3e 3a 29 d3 bb 46 79 b5 bd
       -0.0005366239 0.1362978 -0.0064441236 -0.08861022
000040 cb 9f 95 3b d4 7d 68 3d 6e 8e 86 bc 30 6f 2d bc
       0.004566168 0.056760624 -0.016425338 -0.010585591
000050 ce 23 fd 3d be 0c 36 3d 90 3f b9 3d e9 67 2d 3d
       0.12360345 0.044445746 0.09045327 0.042335425
000060 be f4 99 3d 2e 19 ff 3d 76 80 cb 3d ca 62 0d 3d
       0.07517384 0.124559745 0.09936611 0.03451804
000070 7c 1f 14 bd 63 fb 16 3d 1d f0 87 3d cc 92 cd 3d
       -0.03616284 0.036860835 0.06637595 0.10037765
000080 1b 4c 80 bb 23 5c 38 bd 63 77 5b bd 6e 14 42 bd
       -0.0039153225 -0.045009743 -0.053580653 -0.047382765
000090 cf 48 15 bc c5 fe c3 3d 00 95 96 3d 71 fe bc 3c
       -0.009111597 0.09570078 0.07352638 0.023070546
0000a0 1d 29 dc 3d 10 d1 31 bc 88 94 2d bd 3d 50 61 bd
       0.10750029 -0.010853067 -0.04237798 -0.05500816
0000b0 20 76 bf bc 27 a0 40 3d d0 10 ad 3d 0f c2 8d 3d
       -0.023371756 0.047027733 0.08450472 0.06921779
0000c0 0f 3a 01 3e e3 e7 71 3c 95 f8 66 3d 38 7b 0d 3e
       0.12619804 0.014764759 0.05638941 0.13816535
0000d0 87 ca 04 3e 97 96 ac 3d 05 86 2c 3c 21 ba c3 3d
       0.12967883 0.0842716 0.01053 0.09556986
0000e0 c0 4a 02 3e ce 9c c4 bc 15 59 dd 3d ff 83 47 3c
       0.12723827 -0.024000552 0.10808007 0.012177466
0000f0 d9 8f 67 3d dc ec c5 3d 2b 68 25 bd e9 21 21 bb
       0.05653367 0.09664318 -0.040382545 -0.0024586862
000100 40 77 71 3c 2d 79 a9 3d df 66 88 3d 1e 33 58 bc
       0.014737904 0.082750656 0.06660246 -0.013195781
000110 5e 99 6f 3c a3 8d 17 3e 92 28 cc bc 6b 9f 0d bd
       0.014623968 0.14800124 -0.02492169 -0.03457586
000120 7d fb fc 3d 01 fa 1f 3e c9 e6 0b bc c4 fa 09 3e
       0.12352655 0.15622713 -0.00853891 0.13474566
000130 30 60 83 3d 27 b1 a9 3d a6 15 c8 3c 7b b1 c8 bc
       0.06414831 0.08285742 0.024424385 -0.024498692
000140 20 05 21 bd c0 f6 74 3d 0c 84 bc bc 22 8c 86 3d
       -0.03931153 0.05980563 -0.023012184 0.06569697
000150 bb 3b c6 3d a7 0e 03 3e bc 10 bd bd ae e8 cc 3d
       0.096793614 0.12798558 -0.092317075 0.10005318
000160 e9 73 9c 3d af 8d 32 bc d2 69 0e 3c 7a a0 2e bd
       0.076392956 -0.010898038 0.008692222 -0.04263351
000170 61 20 ef 3d 26 0c 70 bc df a5 fd 3d fd 2d 0e bd
       0.11676098 -0.014651334 0.12385153 -0.034711827
000180 76 96 3f 3d 18 fd 74 3b 68 0d f9 3d 4a 19 2e bd
       0.04677435 0.00373823 0.1216076 -0.042504586
000190 34 79 c1 3d 67 de f3 bc b4 e2 92 ba 38 b0 77 3c
       0.09446946 -0.029769136 -0.0011206479 0.015117697
0001a0 3c 10 c1 3d a7 74 2a 3d ce ac 9c 3d 22 2e ef 3d
       0.094269246 0.041615155 0.076501474 0.11678721
0001b0 98 92 a2 bc 8b 23 10 3e 1c 08 cd 3a 16 dc ca 3d
       -0.019845292 0.14076059 0.0015642676 0.09905259
0001c0 cb 65 9c 3d 72 ae d9 3b c9 7d 1f 3c ef 16 bc 3d
       0.07636603 0.00664311 0.009734579 0.09184062
0001d0 4d d0 27 3d 2b 51 e6 3c e5 f6 19 3d f2 a8 92 3d
       0.040970135 0.028114876 0.037588973 0.0716113
0001e0 cd 5f 1a 3d bf 31 da 3d ce 58 9d 3d 35 8f b4 3d
       0.03768902 0.106540196 0.07682954 0.08816377
0001f0 e1 14 cf 3c 15 76 46 3d c3 92 b4 3c e6 89 93 3d
       0.02527851 0.048452456 0.022042638 0.072040364
000200 72 b2 44 bd b0 02 c9 3d b9 32 e1 3d 06 b4 36 3d
       -0.04802174 0.09814966 0.10996003 0.044605277
000210 f2 1d c2 3d 07 29 eb 3b 09 f2 e3 3d 6a 21 82 3d
       0.09478368 0.0071765217 0.11130149 0.063540295
000220 e9 93 90 3c 3d 1e f5 bc 13 ab b8 bc 90 ce c8 3d
       0.017648654 -0.029921645 -0.022542512 0.09805024
000230 dd 3d 02 bd 9f 73 02 bd 01 64 27 3d 2b 47 71 bd
       -0.03179728 -0.031848546 0.040866856 -0.05890576
000240 7d c5 62 bd 86 65 d2 3d a7 49 21 3e f6 58 fa 3d
       -0.05536412 0.1027327 0.15750752 0.12223999
000250 9d bf 47 bd 4c 2c 4e bd 57 a8 e3 3d a1 60 5c 3d
       -0.04876672 -0.050335214 0.11116093 0.05380309
000260 2f fd 8b 3d 3d 42 8c 3d 2b e0 f4 3c e6 8f 56 3d
       0.068354 0.068485714 0.029892048 0.052383326
000270 dd cf 54 3d 99 57 f6 3b 99 16 e4 3d 3a 16 58 3c
       0.051956046 0.0075177667 0.11137123 0.013188893
000280 2c bc 92 3c 06 d6 9a 3d 2e 2e e8 3d 5a 51 d2 bb
       0.017911993 0.07560353 0.11336933 -0.0064183893
000290 7a eb bf 3d c4 1a 55 bb 28 78 20 3c 47 b7 f9 3d
       0.093710855 -0.0032517174 0.0097942725 0.121931605
0002a0 df 4f c4 3c b1 d1 bb 3d 55 0a ab 3b b2 d7 a6 3d
       0.023963867 0.09170855 0.0052197375 0.08146609
0002b0 5e e4 6c 3c 5b bd 1d 3d ae 65 f2 3d 3f ce e4 3c
       0.014458744 0.03851066 0.118358 0.027930377
0002c0 17 0e 9f bd f0 06 e3 3b ea 12 cd 3d 6b 23 ad bd
       -0.07766359 0.0069283172 0.10013373 -0.08454021
0002d0 7b 2e 67 bc 0b c1 ca 3d 9a a0 f9 3d fd b8 41 bd
       -0.014110203 0.09900101 0.121888354 -0.04729556
0002e0 ca 6b 90 bb da f3 85 3d f3 ee bc 3d 1f 43 cb 3c
       -0.0044073807 0.065406516 0.092252634 0.02481228
0002f0 77 57 34 3d 73 e7 b9 3d 9f 8a 06 bc b8 7b a1 3d
       0.044028725 0.090773486 -0.008211761 0.078849256
000300 ea 0f 6f bd 96 81 a9 bb fb c6 37 3b 0a 3a 06 3e
       -0.058364786 -0.0051729186 0.0028042186 0.13108078
000310 f4 21 be 3c 1e 8e b8 bc 83 e4 2d bc 0b d5 9b bd
       0.02320955 -0.022528704 -0.0106135635 -0.07608994
000320 5d 61 21 3d 47 b0 3b 3d 8e 8d b6 3d 24 00 a6 bc
       0.039399493 0.045822408 0.08913718 -0.020263739
000330 ec 75 55 bd 79 46 fe 3d 4b 07 5b 3a 0a 06 35 bd
       -0.052114412 0.12415785 0.0008355274 -0.044195212
000340 ca b5 74 3d 04 dc a6 3b 24 cd d7 3d 8c 61 22 3d
       0.05974368 0.005092146 0.10537174 0.03964381
000350 63 ad 47 bc a1 a4 80 3d c4 8f 21 3d 04 27 e4 3d
       -0.012187335 0.062814005 0.039443746 0.11140254
000360 21 a6 92 3c 35 b0 d3 3d f3 79 ca bc 3a 02 f4 3c
       0.017901482 0.10336343 -0.024716353 0.029786218
000370 e8 86 85 3d 87 5b ea bb e8 d7 c3 3d c5 34 52 3d
       0.06519872 -0.007152024 0.09562665 0.051319856
000380 09 60 35 bd 10 54 81 3d f8 7c 18 bd b2 6f 68 3d
       -0.04428104 0.06314862 -0.037228554 0.056747146
000390 6f c8 48 bd 19 1d c2 3d 72 1b 24 bc 2e de f8 bb
       -0.049019273 0.09478206 -0.010016309 -0.0075948453
0003a0 7d d4 ad 3d 69 30 c3 3d 61 37 f8 3d 05 2e 3c bc
       0.084877945 0.09530718 0.12119938 -0.011485581
0003b0 f4 d5 9e 3d 1b 78 4a bc eb e4 b2 bc 7c df 91 3d
       0.07755652 -0.012357737 -0.021837672 0.071227044
0003c0 20 3c 0a bd 38 7d 2b bd 0c f8 15 3d e7 c5 c9 3d
       -0.033748746 -0.041867465 0.03661351 0.098522
0003d0 e9 e2 9a bd 85 c0 69 3d 4c b4 24 bd b7 c6 9c 3d
       -0.07562811 0.057068367 -0.040211007 0.07655089
0003e0 fd 48 8a 3d db 6f 79 3d b7 80 0f 3e 4d b4 5a bc
       0.06752203 0.06089769 0.14013945 -0.013348651
0003f0 21 0f c9 3d 40 c7 e2 bb fa 19 5d bd c6 d8 e3 bc
       0.09817339 -0.006920725 -0.05397985 -0.027813327

fc.0.weight f4 [544, 64]
000000 dc d4 ed bd 50 91 a4 3c f1 89 9e 3d 63 1a c1 3d
       -0.11612865 0.020088822 0.07741154 0.09428861
000010 37 ce 85 bd cc a8 fa bd 85 f8 68 bd eb 00 98 3d
       -0.06533473 -0.12239227 -0.05687763 0.0742205
000020 d8 e8 08 3d 74 4a 17 3e 66 c0 b0 bd db 9a 67 3d
       0.033425182 0.14774495 -0.08630447 0.056544166
000030 84 90 80 bc 3f 3e d0 3d 0b e4 de 3c e9 c2 17 3d
       -0.01569391 0.101681225 0.027208349 0.037051115
000040 90 c2 1f bd 61 61 41 3e e1 51 6a 3d bd dd 6a 3d
       -0.03900391 0.18884803 0.057206992 0.057340372
000050 66 4d b0 bc 84 2d dc 3c 66 cc 61 bd 3d 04 3e bd
       -0.021521281 0.026877172 -0.05512657 -0.04639076
000060 7e 72 d9 bd 3a 54 f4 bd 9b 5f be bd 4f 20 07 bd
       -0.10617541 -0.119301274 -0.09295579 -0.032989796
000070 7c ca e0 3d 5c e4 ed 3d 0d 1b 9d bd e1 c3 8c 3d
       0.10976121 0.11615822 -0.07671175 0.068732984
000080 32 e5 e5 bc 1b cd b2 bc 2a b2 01 3c 3b 1b 30 bd
       -0.02806339 -0.021826318 0.007916013 -0.04299472
000090 ce 9d 1d 3e ff 62 7d bd 3f 92 9d 3d a0 3c c0 38
       0.15392229 -0.06186199 0.0769391 9.166566e-05
0000a0 16 bd 99 bd 93 a5 d4 3d 73 6f 8c bd 33 8c 16 bb
       -0.075067684 0.10383143 -0.06857195 -0.002297175
0000b0 18 3d a5 3d 0d a4 7d 3c 55 8c 94 3d e0 2b ec bc
       0.08068293 0.015481007 0.07253329 -0.028829515
0000c0 5f e3 1a 3d dc 04 20 3d cf ff 48 3e a5 ae df bd
       0.037814494 0.039067134 0.19628833 -0.10921983
0000d0 31 7c 21 bd db 34 18 bc be 60 56 bd a8 3f 2a 3d
       -0.03942508 -0.0092899455 -0.052338354 0.041564614
0000e0 31 39 72 3d b3 a6 b3 3d 35 5c fb 3d 28 96 2e 3e
       0.059136573 0.0877203 0.122734465 0.17049468
0000f0 ea 0e 8a bd 38 c2 0b 3d d5 e4 e3 bb 66 e6 7b 3b
       -0.06741126 0.03412077 -0.006954769 0.0038436889
000100 0c b9 3a bc f8 1f 94 3d f4 3b b4 bd 9e 0d 44 3d
       -0.011396658 0.0723266 -0.08800498 0.04786455
000110 d6 da d1 bd d1 08 55 3d de 3e 24 bd e0 1d 95 3d
       -0.10246818 0.05201036 -0.040099017 0.07281089
000120 a8 04 d5 3d b0 69 f9 bd 2c e4 1d 3d 68 c1 7f 3e
       0.10401279 -0.121783614 0.03854768 0.24976122
000130 7f 19 08 3d 58 3e 20 bd 6f 97 e8 3d 69 1a e1 3d
       0.03322744 -0.039121956 0.11357009 0.109913655
000140 ba 5d 98 bd de 3d 82 bd d8 2f 45 3c cd c5 97 3d
       -0.07439752 -0.063594565 0.012035333 0.074107744
000150 2a 03 79 3b fd 54 3a bd fd 26 9f 3c e8 cc d9 bd
       0.003799627 -0.045491207 0.01942777 -0.10634786
000160 60 a4 56 bd 64 52 1b 3e 2e fb b4 3d 4e 59 dd 3d
       -0.052402854 0.15168148 0.08836971 0.10808049
000170 27 b7 3f 3e 23 38 b7 3d ae 9c 9b bd 48 1e 88 bd
       0.18722211 0.08946254 -0.07598244 -0.06646401
000180 d0 d9 09 bd 78 9b a4 bd 6d 1a 41 3d 5d 38 12 3e
       -0.033654988 -0.08037466 0.047144342 0.14279313
000190 17 65 b4 3d 34 4c f7 3c 2a 7f a5 bb bb 51 79 bd
       0.08808344 0.030187704 -0.0050505595 -0.06086896
0001a0 83 13 85 3c 7b 2f 0b 3e 17 82 e9 3d 16 6e ca 3d
       0.016244655 0.13592331 0.11401766 0.098842785
0001b0 98 b7 12 3d 35 2c 75 3c b8 9a 8f bd dc fd 26 bd
       0.03581962 0.014964153 -0.07011932 -0.040769443
0001c0 03 2e 0c 3d 5a 2d b1 bd f4 bf c4 bd 14 c8 ed bd
       0.034223568 -0.08651228 -0.09606925 -0.116104275
0001d0 ad 30 c1 3d 8a 0b 2c 3b f0 a9 bd 3d a1 f0 38 3d
       0.09433112 0.0026251995 0.09260929 0.045151357
0001e0 eb e5 d1 3d 50 39 8f 3c bc e9 e1 bc 47 63 bb bd
       0.102489315 0.017483383 -0.027577274 -0.09149795
0001f0 52 a1 15 bd f5 35 9c 3d bb fc 51 3e c0 2b 8d bd
       -0.0365308 0.07627479 0.20506565 -0.0689311
000200 5c 14 4d 3c 5c 81 60 bb a6 ee 4c 3d a7 9f f3 bc
       0.012517061 -0.0034256792 0.05003228 -0.029739214
000210 ac 18 89 bc 7d c0 47 3d a6 e4 85 bd 4c 78 23 3d
       -0.016735397 0.048767556 -0.06537752 0.039909646
000220 83 76 c7 3d 09 a2 0c bd 54 d8 9d 3c 2f f0 10 3e
       0.09739401 -0.034334216 0.019268192 0.14154123
000230 22 67 c3 3d f3 c2 8f 3d 5f ca 2c 3d 67 6a ba bd
       0.095411554 0.070196055 0.042185184 -0.09102326
000240 b1 af 12 bd 71 fd c8 3b ad 43 a8 3d 7d 7a ec 3d
       -0.035812084 0.006133728 0.08216033 0.115468
000250 3b 6f d6 bc 29 0d 88 bd bb ff ae bd ee 29 c7 3c
       -0.026176086 -0.06643135 -0.085448705 0.024311986
000260 86 ab 61 3d ed d1 c7 3d 3c b7 d7 3c 14 42 bd 3c
       0.055095218 0.09756837 0.02633249 0.023102798
000270 c9 37 83 bd a4 8b 68 3d f2 c1 56 3c 8f 5a 1a be
       -0.064071245 0.056773797 0.013107764 -0.15073608
000280 cd 19 0e bc bc 23 ce bd 77 27 dd 3d 99 63 ed 3d
       -0.008673144 -0.100654095 0.10798543 0.11591262
000290 ee 34 c0 bd 56 0a 2b bc 7b 26 8d bd 50 9f ba 3d
       -0.093850955 -0.010439476 -0.06892105 0.09112418
0002a0 ea 92 d6 3a 57 01 57 3d 10 03 7c 3d fc 7b 82 3c
       0.0016370688 0.052491512 0.061526358 0.015928261
0002b0 67 08 48 bd e9 57 7f bd 73 8c 74 bd bc 81 09 3e
       -0.048836138 -0.062339697 -0.059704255 0.13428396
0002c0 63 18 10 3e d0 bc b6 b8 32 e0 9c bd d1 e0 0c bd
       0.14071803 -8.713605e-05 -0.07659949 -0.03439409
0002d0 0d 85 a9 3d d3 0f e1 bc 06 d2 fc 3d 5a df e7 3c
       0.082773305 -0.027473366 0.12344746 0.028304745
0002e0 bb e1 fe 3d c1 f9 83 bd 54 61 8b 3d 70 de 3d bd
       0.124453984 -0.06444121 0.06805673 -0.04635471
0002f0 a2 59 33 bd ff 77 8d 3d 6e 33 49 3d dd 63 cb 3d
       -0.043786652 0.06907653 0.049121313 0.09931157
000300 d7 16 d3 3d 23 e0 10 bd d8 80 92 3c 44 ed 94 bd
       0.10307091 -0.035370003 0.017883703 -0.07271817
000310 2b d3 d4 3d bb 5b 9b 3d 8c 1f 02 3e 8e e4 4c bb
       0.103918396 0.075858556 0.12707347 -0.003126416
000320 20 1c cb 3d 97 d5 36 3e 83 c7 f9 bd 0b 46 81 3b
       0.09917474 0.17854916 -0.12196257 0.0039451174
000330 51 52 c8 ba 6b 56 43 3d f1 6f ed bd 7c 44 06 3e
       -0.0015283321 0.047689836 -0.11593617 0.13112062
000340 09 2c 7c bc 55 bd 09 bb 60 9e 98 bd 2c 9f 18 bd
       -0.015391358 -0.0021017392 -0.07452083 -0.037261173
000350 b6 b5 e5 3d 4d a3 fb 3d e9 cf 09 3e c7 25 0f 3e
       0.11216299 0.122870065 0.13458218 0.13979255
000360 19 db ce 3c d4 d8 57 3d d9 4b bb bb 2c 32 10 be
       0.025250958 0.052697018 -0.005715829 -0.14081639
000370 4e 1f 95 bd 13 84 2b ba ac 1d 03 3e 16 bb 11 3e
       -0.072813615 -0.0006542813 0.12804288 0.14231524
000380 b6 ab 30 3c 9f f9 a6 3d fb 02 42 3c 62 74 09 3e
       0.010783127 0.0815308 0.011841531 0.13423303
000390 c0 1e a6 3d 00 7c 33 bb b2 e1 f7 3c 50 84 a1 3b
       0.08111334 -0.0027387142 0.030258987 0.004929103
0003a0 97 79 b6 bd 8b 01 93 3d 43 57 1b 3c d1 74 10 be
       -0.0890991 0.07178029 0.009481254 -0.14107062
0003b0 3e 59 bb 3c 3e d8 c7 3d a5 c3 fd 3d 61 02 02 3d
       0.022869702 0.09758042 0.12390832 0.03174055
0003c0 73 f9 b6 bd 0e fb 37 bd db 4a 71 3d bf 26 ae 3d
       -0.089342974 -0.04491716 0.05890928 0.08503484
0003d0 12 dd 97 bc fa f3 c1 3d 32 0f 86 bd 18 dd af bd
       -0.018538032 0.09470363 -0.06545867 -0.08587092
0003e0 71 ad 81 3d a6 97 d7 bc db 43 1b bd 04 8c f0 bd
       0.063319094 -0.026317429 -0.03790651 -0.11745456
0003f0 3a f7 c8 bd f3 7c 66 bd 4a 3d ba bd c4 e5 44 3d
       -0.0981278 -0.056271505 -0.09093721 0.048070684

fc.3.bias f4 [272]
000000 6a 85 96 bb 43 2b 7e bc da b5 11 bd 59 58 f1 bb
       -0.004593541 -0.015513244 -0.035573818 -0.007365268
000010 99 a4 ae bc aa 12 70 3c a2 1d cc 38 95 a4 1a bc
       -0.02131872 0.014652887 9.7329976e-05 -0.0094386535
000020 db 33 8c 3c d5 40 de bc 99 3b 28 bd 14 15 a8 bc
       0.01711457 -0.027130524 -0.04107246 -0.020517863
000030 6c b5 eb 3b 29 7c 9c 3a 40 5f 28 3c 1d 87 b2 bc
       0.007193258 0.0011938858 0.010276616 -0.021792943
000040 2f bb b1 3b 9a eb 12 3b 0b 60 13 bd 2d 1e 73 bc
       0.0054239254 0.0022418262 -0.035980266 -0.014838737
000050 99 c7 db bc 65 e4 7c 3c 43 a7 8a bc e1 21 54 3d
       -0.026828574 0.015435313 -0.01692546 0.051790122
000060 06 f5 43 bc f3 54 18 bb ed 49 37 3d 03 28 3b 3c
       -0.011960274 -0.0023243993 0.044748235 0.011423114
000070 fc d4 83 bb 22 fe 35 bb 09 1c 19 3c 32 cf 91 bc
       -0.0040231925 -0.0027769883 0.009345063 -0.017798994
000080 27 ac 9e bc b6 b5 2c bc 8f dc e6 bc fa 0b a1 bc
       -0.019369198 -0.01054137 -0.028181342 -0.019659031
000090 bd fb 4e bc f1 33 92 3c 74 29 20 bc 8c 0e fd bc
       -0.012633261 0.017847033 -0.009775508 -0.030890726
0000a0 22 2a 0e bd 53 0d 32 bc 4b 37 87 bc 76 c5 ca bc
       -0.03470815 -0.010867435 -0.016505858 -0.02475236
0000b0 7e 75 2d 3d 3e 7e 7b 3c 45 30 10 3c 36 0e 91 bc
       0.042348377 0.015349923 0.008800571 -0.017706972
0000c0 3b 71 ca bb f0 88 0b bd 2e 09 57 3d e4 76 90 3c
       -0.006178049 -0.03406614 0.05249899 0.017634816
0000d0 65 d1 a8 3b 99 ee 4e bc ac 0a 1c bc e6 8b 04 3d
       0.005151915 -0.012630128 -0.009524029 0.03235998
0000e0 0f 08 33 bb 40 40 b1 3a 61 93 72 3c 05 71 1b 3d
       -0.0027318036 0.0013523176 0.014805646 0.03794958
0000f0 ac 0f 96 bc a0 e8 29 bd 50 9b eb bc f2 d6 17 3c
       -0.01831802 -0.041481614 -0.028760582 0.009267556
000100 75 19 63 bd d5 5a a0 3c 00 a2 1b 3d 86 b9 12 3c
       -0.0554442 0.019574562 0.037996292 0.008955365
000110 46 2f 1f 3c dd ce d1 3b 4d fe a1 3c f6 e0 f4 ba
       0.009715861 0.006402834 0.01977458 -0.0018682766
000120 7c 53 32 bd 74 c7 db 3b 91 b7 17 bd e4 91 ba bc
       -0.04353665 0.0067071263 -0.037040297 -0.022774644
000130 9b 07 eb 3a 39 37 79 3c e8 4f e5 3c 30 c2 9a 3c
       0.0017931344 0.01521092 0.027992204 0.018891424
000140 a4 cb 43 bd 64 5f 3a bd 9d 0d f9 bc 32 fd f4 b9
       -0.04780163 -0.045501128 -0.030402 -0.00046727952
000150 5a 66 08 3c 30 d3 c6 3c 7e 30 9c 3c e5 e5 1e bd
       0.008325184 0.024270624 0.019066092 -0.038793463
000160 15 c1 e6 ba 31 31 60 bc 0d a7 00 bc 55 61 8d 3c
       -0.001760515 -0.013683603 -0.007852328 0.017258326
000170 df f7 cf 39 bc 00 a3 3b a2 1f 4b 3d 8e bd ae bc
       0.00039666795 0.004974453 0.049590714 -0.021330621
000180 17 c1 ee bc 4d 34 0f bc c1 ca cd bc 43 81 8e bc
       -0.029144807 -0.008740497 -0.025121095 -0.017395621
000190 5a 0a 0a bd 5c e2 0e bd 7d e9 61 bb ec f6 17 bc
       -0.03370128 -0.034883842 -0.0034471445 -0.009275179
0001a0 40 4c f3 bb 94 a3 31 bd a7 c0 7a bc 91 f5 ec bb
       -0.007424861 -0.04336889 -0.015304721 -0.0072314222
0001b0 b9 51 8e 3c 50 08 f8 ba be 8f 1e bd 89 82 44 bb
       0.017372953 -0.0018923376 -0.038711302 -0.0029985032
0001c0 ac 8b 94 ba 22 9a c0 3c c4 4c 02 bd 27 cc 90 3b
       -0.0011333129 0.023510996 -0.03181149 0.004418868
0001d0 21 8f 90 bb 05 7d 18 bb 33 e3 d2 bc 95 71 87 bb
       -0.0044115935 -0.0023267877 -0.025743103 -0.004133413
0001e0 e4 13 ec bc 51 81 56 bc a7 73 79 bd dd 70 a5 bc
       -0.028818078 -0.013092355 -0.06090131 -0.020195419
0001f0 3a af 8c 3c 09 91 68 bc 7d 61 0b 3a f5 43 13 39
       0.017173398 -0.014194735 0.0005316956 0.00014044328
000200 b1 ec a6 3c cc e6 7a bc e8 1d 94 bc 2d 3d 89 3b
       0.020376535 -0.015313815 -0.018080667 0.004188201
000210 29 f8 21 bc ef 99 cd 3c f8 19 2d ba 56 7f 69 3c
       -0.009885826 0.025097815 -0.0006603296 0.014251551
000220 9c e2 16 3c ce d2 ff bb 27 c5 d9 3b 48 53 a2 3c
       0.009209301 -0.0078071123 0.006645817 0.019815102
000230 ba 7c ff 3b 1c 14 f5 3c 6f d9 b4 bc b0 8f d9 bc
       0.007796851 0.029916815 -0.022076337 -0.026557773
000240 b3 75 ba bc 8f 3d f5 bb 71 98 1a bd 76 0b c6 bb
       -0.022761201 -0.007484145 -0.037743036 -0.0060438467
000250 9b 7c 44 3c 55 df 72 3d d2 37 38 bd c3 3a 89 3b
       0.011992599 0.059295017 -0.04497511 0.004187913
000260 de 04 76 3b 28 31 28 bb c0 d4 76 bc 7f 0c a2 3c
       0.0037539522 -0.0025664065 -0.015065372 0.01978135
000270 0a 27 91 3c 0a 0e ea bc b3 73 8d 3c f8 24 16 bd
       0.01771881 -0.028571147 0.017267084 -0.03665635
000280 cd 4f 9c 3d 04 db 01 3c 2b f5 14 3c ab 18 05 3d
       0.07632408 0.007925753 0.009091656 0.03249423
000290 3b 72 9f bd 52 e9 ef 3b 27 8c 77 3c 39 cb e1 3b
       -0.077854596 0.007321515 0.0151090985 0.006890681
0002a0 29 84 b8 bc d2 1d a8 bc 6e a2 39 3c d4 f5 d8 bc
       -0.022523956 -0.020522032 0.01133023 -0.026484407
0002b0 7b c8 9d 3d 8d 94 b7 bc 44 71 e3 bc c2 af 2c 3c
       0.07704254 -0.022409702 -0.02776397 0.010539951
0002c0 cb 71 45 bd 27 01 d2 3c 5e b3 a6 bc 8a f1 00 bd
       -0.048204225 0.025635315 -0.0203492 -0.03148035
0002d0 cb 84 9b 3c a4 fe 1c 3c 0b b8 cc bb cc 1b ed bc
       0.018984219 0.009582195 -0.0062475256 -0.028943919
0002e0 d4 55 2e bb 03 b5 db 3b e3 0e fb 3b ae ae d9 bc
       -0.002660145 0.006704928 0.0076616867 -0.026572552
0002f0 08 14 eb 3c 23 5c 19 3b 4c b7 8c bc 41 b5 1e 3c
       0.028696075 0.0023400865 -0.017177247 0.009686769
000300 a4 76 32 3d aa a9 ab bb ef d4 ad bc 73 f6 10 bd
       0.043570176 -0.0052387314 -0.021219699 -0.035391282
000310 81 34 bc bc 74 4d 8b 3c d6 8d 26 3c c7 f9 e6 bc
       -0.022974255 0.017004706 0.010165652 -0.028195275
000320 04 1f a4 bc 05 6a 9e 3c 85 90 46 3d 80 8f 2b 3d
       -0.02003432 0.019337663 0.04847767 0.0418849
000330 9f bd d7 bc 9a 59 dc bc b6 5f e4 bc 1f 20 74 bc
       -0.026335536 -0.026898194 -0.02787767 -0.014900236
000340 04 6d 79 3c e1 a9 fe bb d0 41 e6 3c 25 3f 80 bc
       0.015223745 -0.007771716 0.028107554 -0.01565511
000350 a4 49 03 bd 13 4a c4 bb 12 22 c0 bb 91 4b 2f bc
       -0.03205265 -0.0059902756 -0.0058634365 -0.010699169
000360 6a 60 29 bd 7a c6 3c bd c5 d9 cd bc 72 b7 18 3b
       -0.041351713 -0.04608772 -0.025128255 0.0023302701
000370 80 19 91 3c e9 f2 4f bd e2 87 09 bd ff 94 4b bc
       0.017712355 -0.050768767 -0.033576854 -0.01242566
000380 9a b8 1f bc 32 87 28 bd aa ba 2e bc 5c 4a c7 bc
       -0.009748602 -0.041144557 -0.010664621 -0.02432745
000390 96 65 5c bd 02 8a f7 ba 23 b3 ca 3b bf 7f 69 3b
       -0.053807817 -0.0018885734 0.0061859055 0.003562912
0003a0 93 e2 86 bc 9a 7b 59 3c f6 0c 51 b9 d2 a1 ce 3a
       -0.01646546 0.013274098 -0.00019936622 0.0015764779
0003b0 cf 7a 52 3d d6 71 a1 3c 57 bf ce 3c 25 9c 25 3d
       0.05138665 0.019707602 0.025237722 0.040432114
0003c0 f1 20 29 bc 83 8c 50 3c e6 f0 43 ba 17 a8 1a 3c
       -0.010322795 0.012728813 -0.00074745563 0.00943949
0003d0 c8 40 d1 bc f3 3d f4 3b b1 ab 28 bc 42 38 aa 3c
       -0.025543585 0.007453674 -0.010294841 0.020778779
0003e0 02 49 ab 3b 8c dc 03 bc 97 c8 a9 bc 07 75 8d 3b
       0.005227209 -0.008048188 -0.020725532 0.0043169293
0003f0 bf 8b 19 3c 18 82 80 3c 00 ae f1 3c 8d b7 91 bb
       0.009371697 0.015687034 0.029501915 -0.00444693

fc.3.weight f4 [272, 544]
000000 af 31 76 3d df b9 85 bc 2a 8d 08 bd 72 e3 63 ba
       0.060105976 -0.016323982 -0.03333775 -0.0008693255
000010 17 da 60 3d 4f cd f2 3c bb 1f 93 3b 0c 26 59 3a
       0.054895487 0.029638914 0.0044898666 0.00082835625
000020 a0 8d 04 3d 70 ad 4d 3c 70 99 98 bd fe 30 33 bd
       0.032361627 0.012553558 -0.07451141 -0.043747894
000030 32 40 98 bd 3e 0d d0 ba 51 96 bc 3d d2 11 16 bd
       -0.07434119 -0.0015873087 0.09208358 -0.03663809
000040 ca 55 13 bd be c2 3b 3c a1 a8 8f bd 17 dc 64 3c
       -0.035970487 0.011460004 -0.07014585 0.013968489
000050 4b 29 84 bd c7 3e 12 bc fd 0f 53 bd b9 1f 3e bc
       -0.064531885 -0.0089261 -0.05152892 -0.011604243
000060 8b 0a 01 3c 5c 67 24 3d 99 b5 43 bc 45 7d d3 bc
       0.007876049 0.040137634 -0.011945152 -0.02581657
000070 f0 92 47 bd 5d 2f 05 3d c0 ff 43 bd 6f d0 30 bd
       -0.048724115 0.032515872 -0.047851324 -0.043167528
000080 cb 7f 67 3c 5a 00 5d bd c4 dd 12 3d fe bb fc 3c
       0.014129589 -0.053955413 0.035856023 0.03085136
000090 ae b0 54 bd 7d f2 13 3d 19 2c c8 bc 0b c6 48 bd
       -0.051926307 0.036119927 -0.02443509 -0.049016993
0000a0 4b 4c a9 3c a8 43 72 3d 61 fe 59 3d 1b ca 89 bc
       0.020666262 0.059146553 0.05322111 -0.016820004
0000b0 be 02 b0 bc ae ba b0 bc f5 fa 48 3c 66 b6 4f bd
       -0.021485683 -0.02157339 0.012266864 -0.050711058
0000c0 79 58 fa 3c 0f c3 36 3d c7 c2 60 3d eb 88 72 3d
       0.030559765 0.044619616 0.054873254 0.059212606
0000d0 89 b6 04 bd 43 e0 fb bc 7e 0f 4a bd 56 a4 e6 bb
       -0.03240064 -0.030746585 -0.04933118 -0.0070386333
0000e0 71 1a 7b 3c 92 0d 31 bd fb 42 cd 3c 66 7e a1 bc
       0.015326128 -0.043225832 0.025056353 -0.019713592
0000f0 27 52 62 bd d1 ac c2 bb 2b a6 65 3d 73 70 f3 3c
       -0.055254128 -0.0059410115 0.056066673 0.029716706
000100 6a 8b 42 bd e6 f9 0d bc 66 0d d8 3c 23 ab 2d 3d
       -0.047496237 -0.008665537 0.026373576 0.042399537
000110 fd a9 81 bd af 90 4b bd 2e b1 de 3a 2b 78 0f bd
       -0.06331251 -0.049698528 0.001699006 -0.03502671
000120 6f 45 a0 3c d4 d1 8b bd 97 5c 1d 3d c8 c3 7d 3c
       0.019564359 -0.06827131 0.03841838 0.015488572
000130 79 37 93 3d 24 4d 24 3d cd fc ca 3c 6f 8d a0 bc
       0.07188315 0.04011263 0.024778748 -0.01959869
000140 d5 b0 6f 3c 2e 9e 6c 3d ee 19 93 bd 86 e4 96 bb
       0.014629562 0.05776804 -0.0718268 -0.004604879
000150 17 b7 52 3d 61 13 da 3c 4d 7a 11 bd 49 e1 4c 3c
       0.05144414 0.026620569 -0.035517026 0.012504884
000160 37 1e 58 bc 4f 5c 50 bd 10 86 5e 3d 06 14 f9 3c
       -0.0131907975 -0.050869282 0.05432707 0.030405056
000170 37 22 17 bd ac 96 4c bd 13 29 74 bd 61 80 0f bd
       -0.036897864 -0.04994838 -0.059609484 -0.03503454
000180 5d ae 46 bd 42 49 7d bc 38 5d 22 bd bc 6b 39 bd
       -0.04850613 -0.015459361 -0.03963968 -0.04526876
000190 14 ff e5 bc 5e 33 25 bd fc 96 be 3c 91 8f 49 bd
       -0.028075732 -0.04033219 0.023265354 -0.04920918
0001a0 e8 5c 64 3d 54 6e 26 bd 48 15 a0 3b 73 32 65 bd
       0.055752665 -0.04063256 0.0048853494 -0.055956315
0001b0 7a f8 34 3d ab 75 bf 3b 61 4c 2a bc 00 c8 8d bc
       0.04418228 0.0058428845 -0.010394187 -0.017307281
0001c0 3e de 94 bb 06 6e c7 3b 7f 99 1c bc f6 b4 3a 3d
       -0.004543095 0.006086114 -0.009558081 0.045582734
0001d0 a3 81 45 3d 32 2c 7d 3c f2 51 33 3c 50 3d b6 bc
       0.048219334 0.0154524315 0.01094483 -0.022246033
0001e0 9d d8 7d 3d a7 17 2d bc da be 53 3d 2b d3 bc 3c
       0.061974157 -0.010564721 0.051695682 0.023049911
0001f0 81 ee 87 bd 48 80 ee bc 43 91 65 3d fb 8e 3e bd
       -0.06637288 -0.029113904 0.056046735 -0.046523076
000200 53 73 29 3d e9 31 fd 3c 52 66 4c bd a9 31 51 3d
       0.041369747 0.030907588 -0.049902268 0.05107275
000210 94 f6 73 3d 24 a4 8c bb e9 97 27 3d d0 f0 23 3d
       0.059561327 -0.004292028 0.040916357 0.04002458
000220 29 3e 72 3b 92 72 89 3c 2c 00 02 bd c1 5a e4 bc
       0.003696332 0.016778264 -0.031738445 -0.027875306
000230 38 8a 4c bd 6d fc 3d bc cf d0 51 bd 2d 3b 5e bc
       -0.049936503 -0.0115958275 -0.051224526 -0.013563913
000240 f5 c6 13 3d 49 8c 46 bd 5a 9a ad 3c f7 b5 99 bb
       0.036078412 -0.04847363 0.021191765 -0.0046908814
000250 9f ca 0e bc 06 a9 82 bd 75 b4 d1 3b f3 d6 c0 bc
       -0.008715301 -0.06379895 0.006399686 -0.023539996
000260 3f b2 d2 3c 79 44 a8 3d cd cc 36 3c ae e3 c8 3c
       0.02571976 0.08216185 0.011157227 0.024522629
000270 de 18 11 3d 3e 94 28 3d cf 41 5a bd ac 56 40 bb
       0.035424106 0.041157 -0.053285416 -0.0029348535
000280 55 1c 82 3d 30 31 b1 bc 41 48 23 3b fb e6 41 3d
       0.0635306 -0.0216299 0.0024914893 0.04733942
000290 3b d7 d6 bc c7 27 4e 3d 4b aa 81 bc 0e 46 29 3d
       -0.026225677 0.050330903 -0.015828272 0.041326575
0002a0 29 9a 5d bd 7f ff 4c bd 7f 59 28 bd c9 0f fb bc
       -0.054102097 -0.050048348 -0.041100975 -0.030647175
0002b0 ba 8d b1 bc 47 ea 03 3d 2d 17 15 bd 3d 53 5d 3d
       -0.021674026 0.032205846 -0.036399055 0.05403446
0002c0 66 07 ab 37 aa 85 c8 bc 36 76 74 bc 38 d8 f9 bc
       2.0388234e-05 -0.024477798 -0.014920762 -0.030498609
0002d0 c8 53 ee bc 51 05 23 3d 0e db 97 3d 89 4e 09 bd
       -0.029092684 0.039799992 0.07414828 -0.033522163
0002e0 cb 04 de 3c 1a ca 6b 3c e0 24 4b 3b f2 32 55 bd
       0.027101895 0.0143914465 0.003099732 -0.05205054
0002f0 3b 16 58 3d 48 dc 11 bd 01 79 c3 bc 1c c3 34 bd
       0.052755576 -0.035610467 -0.02386141 -0.044131383
000300 d3 50 35 3c f4 7b e8 3c 78 bb 55 bd 92 34 8f bc
       0.011066633 0.028379418 -0.052180737 -0.017481122
000310 3a 9e cb 3c 00 9e 0a 3c 53 2f 3b bd 12 3f c2 3c
       0.024855722 0.008460522 -0.04569943 0.023711715
000320 92 2a 66 3c e1 64 24 bd 55 6b 0c bd 9a 58 dd bc
       0.0140482355 -0.040135268 -0.034282047 -0.027019788
000330 10 f9 86 3c 16 fc 9b 3d fd ba 3c 3d b7 5d 2c bd
       0.016476184 0.07616441 0.046076763 -0.04208156
000340 52 ec af 3b 61 2e 6c 3c a3 54 24 3d ee 52 bd bc
       0.0053687477 0.0144153545 0.04011978 -0.023110833
000350 98 67 9c 3c 21 ca d2 bc ef 6a 61 3d 27 a8 ba bc
       0.019092366 -0.025731148 0.05503362 -0.02278526
000360 65 02 75 3c 9a 6a 31 3d 45 27 7a 3d 3e a4 21 3c
       0.014954184 0.043314554 0.061072607 0.009865819
000370 88 61 b2 3c 34 0f c3 3d e9 3c 50 bd 90 f3 92 3c
       0.021775022 0.09524384 -0.05083934 0.017938405
000380 e3 a7 46 3d 3a 05 b1 bd fa d5 a8 bd 2d f9 aa bc
       0.048499953 -0.08643575 -0.08243938 -0.02087077
000390 c4 d3 d2 bc 2c 24 b8 bb 21 49 07 bd 6e 17 62 bd
       -0.025735743 -0.0056195464 -0.033028726 -0.055198126
0003a0 df 37 77 bd 0b 3e 16 bd 95 09 40 bd b5 8e 6c 3c
       -0.060356017 -0.036680263 -0.046884138 0.014438321
0003b0 00 50 f6 3b 07 96 c2 bb 59 d8 1c bd 0b 95 8b bc
       0.007516861 -0.005938295 -0.038292263 -0.017038843
0003c0 07 60 a1 bc 93 22 d6 bc 37 3b 2f bd aa 5a 15 3d
       -0.01969911 -0.026139533 -0.04278108 0.036463417
0003d0 c7 35 02 bd 9c 4f 44 bc 2a 23 77 bc d9 00 9c bc
       -0.031789567 -0.011981871 -0.015084067 -0.019043373
0003e0 62 73 03 bd 6d 1e 2d bd b6 91 f3 bc f7 32 66 3d
       -0.03209246 -0.042265344 -0.029732566 0.056200948
0003f0 76 4c b2 bc 4b cd f5 bc 6d 96 05 3d 39 fa b8 bc
       -0.021764975 -0.030005118 0.03261416 -0.022580253
