inventory/ark_material.onnx (onnx, 573092 bytes, 8 tensors)

35 f4 [8, 3, 5, 5]
000000 14 a7 84 be 6f ce 51 3d 08 dc ab be 64 eb c3 3d
       -0.2590872 0.05122226 -0.33566308 0.095663816
000010 3c 6e bf bd 3a 21 4f be 0f 46 d1 be 56 7a 53 bd
       -0.093471974 -0.20227519 -0.40873763 -0.05163034
000020 71 bd e8 be 07 9b 8a 3e 7c 46 80 3e 8c 13 a7 bd
       -0.45457032 0.270714 0.25053775 -0.08158025
000030 b4 04 bf be 5e 9a 1a be 74 f6 13 bf 4c 7a 7e 3d
       -0.37308276 -0.15097949 -0.5779793 0.06212835
000040 a4 fc a8 be 32 47 76 bd 7a 45 08 be 5e 40 f2 be
       -0.3300525 -0.06012649 -0.13307753 -0.47314733
000050 1a 69 d8 3e 60 c0 e1 bd 5e 2b 82 3e 35 f6 3e 3e
       0.42267686 -0.11023021 0.25423712 0.18648608
000060 5b f8 9c be 3d cf 8a be 5b 21 bb 3e 2e 53 ca 3e
       -0.3065823 -0.27111235 0.36548886 0.39516586
000070 8a 7e 9c 3e 1e d8 cd 3d ec 20 c8 be b8 b2 5e 3e
       0.30565292 0.10050987 -0.39087617 0.21747863
000080 1a ff 15 be c3 f4 55 3d ae 20 b6 be b7 6b a9 bd
       -0.14648095 0.052235376 -0.35571808 -0.08272498
000090 84 61 7b bd 60 b0 a6 3e d7 0b 93 be ba c0 8f be
       -0.061372295 0.32556438 -0.2871997 -0.28076726
0000a0 d8 e3 5c bc 58 39 3e 3e ad e4 a9 3e 11 cd ab bc
       -0.013482057 0.18576562 0.33182278 -0.020971807
0000b0 37 4b 41 be 55 e6 b6 3d a0 d1 9d 3e 0a 9f 76 3e
       -0.18876348 0.08930651 0.30823994 0.24084106
0000c0 9a 1a e2 be 92 32 35 bd 1e c7 9f 3e 4d 9c b7 3e
       -0.4416092 -0.04423768 0.31206602 0.35861436
0000d0 a8 56 7a bd 5a 9b f5 be c3 78 b8 be 7f 1f c1 3e
       -0.061117798 -0.47970086 -0.36029634 0.37719342
0000e0 b7 4e bb bc 1e 1f 97 3d 85 41 ab be d3 8c 62 3e
       -0.022864683 0.07378982 -0.33448425 0.22124033
0000f0 eb 1f 3d be 85 ff b5 3e 7a a3 f5 bd da ac bd bd
       -0.18469207 0.35546508 -0.11994071 -0.092614844
000100 5b 7b b3 be 22 86 63 3e 6d 0e b8 be fd 49 d2 be
       -0.3505505 0.22219136 -0.35948506 -0.41072074
000110 f4 a8 a5 bd e0 58 5b bd 88 a7 a4 be d2 ff 71 3e
       -0.08088866 -0.053551555 -0.32159066 0.23632744
000120 db f1 70 be 27 ac 36 3e ff 45 41 be de 42 fe be
       -0.2352976 0.17839108 -0.18874358 -0.4966039
000130 5f 9b 3c bf 12 90 0d 3f 4e e7 3e 3f f4 38 8a 3f
       -0.7367458 0.5529796 0.7457169 1.0798631
000140 9a f3 67 bf 39 bd d7 be 16 7b 22 bf 70 23 60 3f
       -0.9060608 -0.42136553 -0.63469064 0.87554073
000150 11 38 2f be f8 73 8a be dc cb ef bd 4a 9b 4f 3d
       -0.17111231 -0.27041602 -0.11708805 0.050685205
000160 a2 a4 95 3f 23 15 f3 bd f2 71 e6 3d 5c 27 19 3f
       1.1690867 -0.11869266 0.11252202 0.5982568
000170 bc d5 b3 3e af 8e 5e bf 64 36 05 be ac f9 32 3e
       0.35124004 -0.8693647 -0.1300903 0.17478055
000180 e5 29 8e 3e 75 cc 1a 3f 02 47 a6 3e a0 fe 20 bf
       0.27766338 0.60468227 0.3247605 -0.62888527
000190 01 ba 4c 3e e1 25 0b be b8 ff a9 be 44 e4 52 3f
       0.1999283 -0.13588668 -0.3320291 0.82379556
0001a0 43 7a 78 be 0d 3d cf 3e 48 fe 36 bf f1 2f aa 3e
       -0.24265389 0.40476266 -0.7148175 0.332397
0001b0 1f 0a cf be ee 0d 61 be ef f5 82 3f 1b 61 40 3f
       -0.4043741 -0.2197797 1.0231303 0.7514817
0001c0 5e 15 88 3f 9c 7b fe be 59 90 c0 be 47 fb 61 bf
       1.0631521 -0.4970368 -0.3761013 -0.88274044
0001d0 08 74 b6 3e c3 a9 1e bf 0f 7d 4b be 9c d1 0e be
       0.356354 -0.61977786 -0.19871925 -0.13947147
0001e0 86 51 1b be af cc e5 3e 1a 53 a5 3e a0 22 00 be
       -0.15167817 0.44882724 0.32289964 -0.12513208
0001f0 ec eb de 3e f8 27 86 be d5 08 68 be 1e 6b f2 be
       0.4353937 -0.2620237 -0.22659619 -0.4734735
000200 b7 92 94 bb 81 b9 e0 3e 30 de 62 bf bf 47 b9 be
       -0.0045340913 0.43891528 -0.8862028 -0.3618755
000210 3c ad 5a 3f 92 43 f5 bd d2 dc d3 3d a0 42 8e be
       0.85420585 -0.11975779 0.103448525 -0.27785206
000220 d3 5b c8 be 12 57 87 3f 9e b7 fb be 3f 54 61 bf
       -0.39132556 1.0573447 -0.49163526 -0.88019174
000230 a1 fc da be 03 d3 3d 3f da e9 2e 3f 50 d1 42 3f
       -0.42770866 0.74150103 0.6832558 0.76100636
000240 1a 17 6a bf a8 c4 13 bf 9a 78 e6 3e 24 96 51 3f
       -0.914415 -0.5772195 0.45013887 0.8186972
000250 82 1c bb be 53 e4 b1 be 0a 17 9d 3e b3 21 af 3e
       -0.36545187 -0.3474451 0.3068164 0.34205398
000260 67 cf f1 be d3 7d 3b 3e 01 bd ac be 19 1d b4 bd
       -0.47228548 0.18309717 -0.3373795 -0.087946124
000270 d4 2f d5 3d fd dc 81 be 77 02 2d 3e b1 95 da be
       0.10409513 -0.25363913 0.16895472 -0.4269233
000280 27 cf 09 3d d5 46 61 be 92 65 64 be 7c 54 1b bd
       0.03364482 -0.21999677 -0.22304371 -0.037922367
000290 56 2d 8c be f0 69 a1 be 3b 46 91 3e d0 46 3f 3d
       -0.2737834 -0.31526136 0.28373894 0.04669839
0002a0 78 a1 c3 be 7f 64 72 3e a4 1b 81 bb 94 e2 b9 3e
       -0.38209128 0.23671149 -0.0039400626 0.36305678
0002b0 19 33 c8 3e cb 2f 8d be 3a 4d 05 be 12 0e ae 3e
       0.39101484 -0.27575526 -0.13017741 0.3399511
0002c0 85 0b 6c be 8d db 66 3e a2 b9 f8 be 0d 68 a9 3b
       -0.2305127 0.2254469 -0.48579127 0.0051698745
0002d0 55 6e e2 3d a6 2c bb bd 57 9a 3c 3e bd 1a 9e be
       0.110562004 -0.091393754 0.18418251 -0.30879775
0002e0 d7 b8 3b be 51 b5 5a 3e d3 17 26 bc 24 dd 19 3e
       -0.1833223 0.21358229 -0.010137516 0.15025765
0002f0 f0 48 92 be a8 c1 55 3c d7 3d 84 3e 40 70 51 3e
       -0.28571272 0.0130466595 0.2582843 0.20452976
000300 01 24 0a be 72 1c 17 be ac ae 82 be 96 01 3d be
       -0.13490297 -0.14756945 -0.2552389 -0.18457636
000310 54 95 32 3e c2 a9 1b 3e 59 cf 21 bd d2 c9 c7 be
       0.17439777 0.15201476 -0.039504383 -0.39021164
000320 c5 97 52 3e 5d d9 f9 3c 10 6b 0a be f0 77 00 3e
       0.20565708 0.030499155 -0.13517404 0.12545753
000330 4c 25 3f bd 8a 96 aa 3e 52 50 57 3e a2 c8 62 3d
       -0.04666643 0.33317977 0.21026734 0.05536712
000340 e8 0b 21 bd e2 fe cb 3b 8e 3a 7b 3e e0 32 fb 3e
       -0.039317995 0.0062254528 0.24534056 0.49062252
000350 58 be 7b 3e 18 07 b8 3e 56 69 bc be d0 ad c3 3e
       0.24584329 0.35942912 -0.36799115 0.38218546
000360 02 70 ea 3e 51 cc 8b 3e 64 72 9d be ef 95 86 be
       0.4578858 0.2730432 -0.30751336 -0.26286265
000370 91 a5 dc 3e a4 e3 a3 3d 9e 39 18 3e f3 4e 27 be
       0.43095067 0.080024034 0.14865729 -0.1633871
000380 5d 17 2e be 5b a8 e3 bd 76 75 eb 3e 21 29 34 bf
       -0.170011 -0.11116096 0.45988053 -0.7037526
000390 df e8 e3 3e 09 0a 2c bf e9 38 04 bf 49 0e 54 be
       0.44513604 -0.6720281 -0.5164934 -0.20708574
0003a0 16 de 1d 3e 65 2b 14 3f 81 29 0e 3e 75 95 e1 be
       0.1541675 0.57878715 0.1388302 -0.4405934
0003b0 b6 11 ba bd af ba ea 3e 88 1c b5 be 24 48 9d 3e
       -0.09085409 0.45845553 -0.3537333 0.307191
0003c0 79 0c 68 be 29 a5 5f be 67 74 58 bb d0 de 31 bf
       -0.22661008 -0.21840347 -0.0033028366 -0.6948061
0003d0 d5 57 dc be 5f 6b 23 3f d9 51 31 3f e4 dd 53 bd
       -0.4303576 0.6383571 0.69265515 -0.051725283
0003e0 f8 cc df bd 4b 65 ee be ca 7a bf 3e a1 45 69 3e
       -0.109277666 -0.46561655 0.37398368 0.22780468
0003f0 79 b2 3a 3f d7 9c b9 be d4 a8 d8 3d aa 0d 47 bf
       0.7292858 -0.36252472 0.105790764 -0.77755225

36 f4 [8]
000000 d8 57 e6 3f d5 4e 28 bf 6c e3 e8 be d8 19 25 bf
       1.7995558 -0.6574529 -0.4548601 -0.6449256
000010 fd 92 df 3f e0 f7 ea bf 4d 4c 9f bd 00 0c dd 3f
       1.7466732 -1.8356895 -0.07778225 1.7269287

38 f4 [16, 8, 3, 3]
000000 36 69 09 3f 26 c4 0b 3f 13 2b a2 bf 8e 9a db be
       0.53676164 0.54596174 -1.2669395 -0.42891353
000010 fe 57 86 bf a5 4c d6 bf 84 38 61 3e a8 73 e5 3e
       -1.0495603 -1.674214 0.21994215 0.448148
000020 06 69 f4 bd fb c3 d9 be f5 ff d9 3e 62 a0 dd be
       -0.11934094 -0.42532334 0.42578092 -0.43286425
000030 29 a7 af 3f 6f 25 51 3f d4 fa 4d bf bd aa 28 3f
       1.3722888 0.81697744 -0.8046086 0.65885526
000040 4f e9 55 bf 39 4a 6f bf 32 ed 59 bf cd d2 c0 be
       -0.83559126 -0.9347263 -0.85127556 -0.37660828
000050 3b 1c a3 3e ab 30 ba bf a5 4f c3 3f 10 11 f6 3e
       0.31857476 -1.4546102 1.525868 0.48059893
000060 8d 45 af bc d3 88 b1 3f ac 13 80 bf 74 0e 55 3f
       -0.02139547 1.386988 -1.0006003 0.8322518
000070 cd d2 23 bd bc a7 1a be b1 06 8c 3f 71 af 8c bf
       -0.039995957 -0.15103048 1.0939542 -1.099104
000080 16 80 8a bf 52 87 7e bf 2e 7d 6e bf 8a db fc be
       -1.0820339 -0.9942523 -0.9315976 -0.49386245
000090 f5 90 9a 3d 38 c1 d3 3d ec 92 6f 3e a0 5d fe be
       0.075471796 0.10339588 0.2339589 -0.49680805
0000a0 23 07 4a bf c5 47 12 3e a7 1f 40 bf ed e5 0e bd
       -0.7891714 0.1428519 -0.750483 -0.034887243
0000b0 01 05 63 3f f4 da 72 3f 5d 36 e3 be 4a 8c a7 bd
       0.8867951 0.94865346 -0.44377413 -0.08181055
0000c0 c2 dd 11 3e 85 28 45 bf bf f5 86 bf d1 0d 51 bf
       0.1424475 -0.7701495 -1.0543746 -0.8166171
0000d0 61 ed 3d 3e ab 7a a5 be 31 3b 88 bf 32 58 05 be
       0.18547584 -0.3232015 -1.0643064 -0.13021925
0000e0 ff da 26 bf f1 fc 8d 3f 9e 80 7f 3b f5 fa 23 bf
       -0.6517791 1.1092817 0.0038986574 -0.64054805
0000f0 06 65 0f 3e c7 b4 31 bf 08 82 28 3f da b0 33 bf
       0.14003381 -0.6941647 0.6582341 -0.7019173
000100 5a f2 2a be 08 b7 8b 3f d9 8f ee 3e 8e 53 c1 be
       -0.16694012 1.0915232 0.46594122 -0.3775906
000110 d2 a0 14 3f c9 ae b5 be 65 27 b1 be 1e 95 81 bf
       0.5805789 -0.35484913 -0.34600368 -1.0123632
000120 84 be 89 be 99 5d 22 be 27 b6 ea bd dc 87 b6 bf
       -0.26903164 -0.15856017 -0.11460524 -1.4260211
000130 76 25 64 bf 71 44 c1 3f 74 d2 a4 be e4 2c cd be
       -0.8911966 1.5099012 -0.32191813 -0.4007331
000140 bd a9 b9 3f 42 a3 54 bf e0 0c 7b bf 87 9c a9 3e
       1.4504925 -0.8306161 -0.9806652 0.33127233
000150 fd c6 c8 be 24 38 9f bf f5 b3 7c bf ea 52 03 bf
       -0.39214316 -1.2439008 -0.9871209 -0.5129839
000160 20 7d 3f be 31 72 ce bd 29 44 f0 bd 37 2c 20 3d
       -0.18700075 -0.10080374 -0.117317505 0.039104667
000170 56 30 2d bd 46 fc b0 3e cf b6 e7 bf 89 b8 b1 be
       -0.042282425 0.3456747 -1.8102664 -0.34711102
000180 9e 69 72 3f f9 42 fc bd 7a d7 8c 3e 31 e9 f0 3e
       0.9469241 -0.123174615 0.27508146 0.4705291
000190 f9 be 46 3f 64 ab 68 3e 0a 44 71 3e 35 82 a9 bd
       0.7763515 0.2272163 0.23561111 -0.08276788
0001a0 0b 9c 9a be a8 df e4 be 60 17 fc 3e 7e 37 8d bf
       -0.30197176 -0.44701886 0.49236584 -1.103256
0001b0 5e e9 ff bc 4c 0e ca 3e e0 e2 3f 3d 14 cd 2b 3f
       -0.031239208 0.39464033 0.046847224 0.671098
0001c0 83 b4 6f bf 7e a1 60 bf 86 4f 27 3f 5f a4 37 3f
       -0.93634814 -0.8774642 0.6535572 0.71735185
0001d0 9c 1c 0c 3d 14 fb 8a 3e 81 e9 51 bf b7 97 ef 3e
       0.03420697 0.27144682 -0.81996924 0.46795437
0001e0 cc ac 8d 3f 0e 44 df bf 4c 71 7a 3f 56 52 a6 3e
       1.1068358 -1.7442644 0.9782913 0.32484692
0001f0 47 d8 ff 3e ff ee f7 3f f8 fd cd 3e fe c6 7b 3f
       0.49969694 1.9369811 0.40232825 0.98350513
000200 04 ad d5 3d fa b9 c1 bf f1 f2 4f bf 83 62 2b bf
       0.10433391 -1.513488 -0.81230074 -0.6694719
000210 b2 76 1b bf db 87 e6 be 76 b2 76 bf 76 27 ed bc
       -0.6072799 -0.45025524 -0.9636606 -0.02894948
000220 f8 fd cb bd a0 2f 23 bd 0d ec b9 3e 37 5a a6 3f
       -0.0996055 -0.03984034 0.36312905 1.2996281
000230 9f d0 38 bf fe 42 2e 3e c5 2b 33 bf f9 b1 4f bf
       -0.7219333 0.17017743 -0.6998866 -0.8113094
000240 28 3c db 3e de 75 97 3e 70 0a 5e bf 89 c7 d8 be
       0.42819333 0.29582113 -0.86734676 -0.42339733
000250 82 c6 0c bf 2e de 02 3f b0 19 96 bd e6 f3 1c 3e
       -0.549904 0.5112027 -0.07329118 0.15327415
000260 18 d2 e7 be ef 8d 29 3f 12 a6 5f 3f b0 76 45 bf
       -0.45277476 0.662322 0.8736278 -0.7713423
000270 ed 84 46 3f a6 1e fa 3f 32 86 a2 3f bd f8 5a 3d
       0.7754658 1.9540603 1.2697203 0.05345987
000280 09 e0 1b bf bf 9a d8 be 5e 92 96 3f ea d2 03 3f
       -0.60888726 -0.42305562 1.1763418 0.51493704
000290 97 d2 24 be 30 1c 93 3f f7 48 7f bf fd 83 c6 3e
       -0.16095959 1.1492977 -0.9972071 0.38772574
0002a0 d2 81 23 3f 13 63 86 bf 7c de 02 3d 2b 96 54 3f
       0.63869965 -1.0498985 0.03195046 0.8304164
0002b0 1e d9 5e 3f b7 3b a5 be 1e d0 ea be ed 32 26 bf
       0.87050045 -0.3227212 -0.45861906 -0.64921457
0002c0 9d dd a5 be 10 e3 03 bf da c7 47 be 22 fd 40 bf
       -0.3239564 -0.51518345 -0.19509831 -0.7538625
0002d0 09 2c 93 3e 40 c7 08 3e 82 cc eb be d5 33 49 be
       0.28744534 0.13357258 -0.46054465 -0.19648679
0002e0 23 94 53 3e 3d ba 5d 3f 94 3a de 3f a7 74 8d bf
       0.20661978 0.866123 1.7361627 -1.1051224
0002f0 8f 6e d2 bd df 46 81 bf b0 62 8d 3f 22 73 58 bf
       -0.10274994 -1.0099753 1.1045742 -0.8455068
000300 57 17 7d bf b2 25 4c bd 4e 5f cf 3d 3a 9e df 3d
       -0.9886374 -0.049840637 0.101256 0.10918851
000310 ed af 93 3e a3 6b 0e bf bc 34 a3 bf ad 04 42 3e
       0.28845158 -0.5563299 -1.2750468 0.18947096
000320 c5 48 00 3f 3d 4a 23 3e af 9a d6 3d 47 85 b7 3e
       0.5011104 0.15946288 0.10478722 0.3584387
000330 d4 0f e6 3e aa 8e 0e bd af 1c ca 3e c9 d7 1e 3e
       0.4493395 -0.034804024 0.3947501 0.15512003
000340 9a 0f 34 bf b5 90 00 3f 5e 05 fc be 26 f1 7f 3f
       -0.70336306 0.50220805 -0.49222845 0.9997734
000350 3e ec c3 3f be 4d ae bf f6 52 3e bf e3 8d d8 be
       1.530647 -1.3617475 -0.7434534 -0.4229575
000360 7a 06 ea 3e cf 95 b4 3e 6a 15 dd be bc 5b c4 be
       0.45708066 0.35270545 -0.431804 -0.38351238
000370 54 3e 60 3f 6c b3 80 be 7b 4f f0 3e bf af 48 3f
       0.87595105 -0.25136888 0.4693564 0.7839317
000380 8d 03 e6 3d a9 92 9e 3b fd c0 83 be ee 4c 44 bf
       0.11231146 0.0048392606 -0.25733176 -0.76679885
000390 01 07 4e 3e e6 42 64 be bc b5 cf 3e 9b 07 e0 3f
       0.2011986 -0.22291145 0.4056834 1.7502321
0003a0 50 4b 3d bf 9b df 66 be 8a f7 1f be bd 1e b3 3e
       -0.7394304 -0.22546236 -0.15621772 0.3498439
0003b0 0f f1 b7 3d 78 c0 e7 bd f7 21 ba 3f 84 42 1a 3f
       0.08981525 -0.113160074 1.4541615 0.60257745
0003c0 c8 8c 2a bf fe ca 53 bf 1e a7 62 3f 93 98 e1 3e
       -0.66621065 -0.82731616 0.8853625 0.44061717
0003d0 6b ab f0 bc 77 a4 e3 be 62 49 01 bf 35 54 4e 3f
       -0.029378613 -0.44461414 -0.505026 0.8059724
0003e0 f4 e0 bd 3c 7d 73 2f bf b3 da 6f 3e c4 93 f2 3e
       0.023178555 -0.68535596 0.23423271 0.4737836
0003f0 d6 54 1b bf fd 26 0b bf 4d f0 35 3e 07 4b 4c 3f
       -0.60676324 -0.54356366 0.17767449 0.7980198

39 f4 [16]
000000 05 5f 79 40 86 2e 03 40 5e b2 85 be 26 46 8a be
       3.8964245 2.0497146 -0.26112646 -0.27006644
000010 aa a1 ad be 58 11 b1 bf 1e f3 53 3f 1d bd 92 40
       -0.33912402 -1.3833418 0.8279284 4.585585
000020 81 62 42 3f 09 2e ee bf 0f 59 08 c0 5f 64 39 40
       0.75931555 -1.8607799 -2.1304357 2.8967512
000030 0e 19 29 c0 b2 bb 23 3f 6c 08 57 bf 4e e1 9f 3f
       -2.6421542 0.63958275 -0.83997226 1.2490633

fc.0.bias f4 [462]
000000 97 65 54 3c 96 bb a7 3b 53 ad 1e 3e a7 1a 7a 3d
       0.012963674 0.0051187975 0.15495805 0.061060574
000010 8d cc 73 3d 9f 17 b4 3d 72 25 e6 3c 60 7a d6 3c
       0.059521247 0.08793568 0.028094027 0.0261814
000020 b8 05 81 3d 17 30 93 3c c4 12 8c 3d 51 20 3e 3d
       0.06299919 0.017967267 0.06839517 0.046417538
000030 90 ea bc 3d 88 dd b4 ba 2a 9e cb 3d 63 a3 b1 3d
       0.09224427 -0.0013798932 0.09942277 0.08673742
000040 b3 1d 85 bb ac b0 7e 3c 77 c2 05 3e fc 19 45 3d
       -0.0040623783 0.015545052 0.13062464 0.048120484
000050 ab f6 c6 3d 9f ac 1e 3d d0 25 38 3d 77 22 ec bc
       0.09715017 0.038738843 0.044957936 -0.028825028
000060 04 83 be 3d 5b ab d0 3d d2 fa dd 3b 6c a2 06 3d
       0.09302333 0.101889335 0.006774285 0.03286974
000070 a9 84 3f bd 6b da ac bc 3d c1 5b 3d 78 a4 00 bc
       -0.046757374 -0.021100244 0.053651083 -0.007851712
000080 d4 28 d4 3d 43 eb 8c 3c 23 0f 26 bd 20 51 51 3d
       0.1035935 0.017202025 -0.04054178 0.051102757
000090 41 cf 41 3d 26 39 a6 bc c1 db ab 3d cb c3 2c bc
       0.047316793 -0.020290922 0.08391524 -0.010544728
0000a0 85 8d 8a 3b 21 63 8f 3d 68 2d 3f 3d e5 29 62 bd
       0.004228296 0.07001329 0.046674162 -0.055215735
0000b0 11 7a d1 3d 9e 21 87 3d c0 54 0d 3d 41 37 4e 3c
       0.102283604 0.06598209 0.034504652 0.012586416
0000c0 7a 29 0d 3d d3 7e ae 3d 14 46 46 3d 77 c2 f0 bb
       0.034463383 0.085202836 0.048406675 -0.0073474008
0000d0 8a 34 c8 3c 64 44 00 3e 43 b7 b0 3d 99 a3 90 3c
       0.024439115 0.12526089 0.086287044 0.017656134
0000e0 d1 e1 95 bd b5 db 6a bd fc c8 ea 3c cf a6 ad bd
       -0.07318462 -0.057338435 0.02866029 -0.08479082
0000f0 24 cc eb 3d f0 ee e6 bc 41 9b f2 3d 32 2e e5 bc
       0.11513546 -0.028190106 0.118460186 -0.02797613
000100 2c 6e 5b bc b4 69 81 3d ea 47 9e 3d 64 04 cf bc
       -0.013392966 0.063189894 0.0772856 -0.025270648
000110 69 88 5f 3d 05 1a 0e 3c b5 1a c4 3d 1d 39 ae 3b
       0.05457345 0.008673196 0.095754065 0.005316867
000120 c4 37 46 3c a6 29 13 bc 72 4c c7 3d 2a 8f 8a 3d
       0.0120982565 -0.008982098 0.09731378 0.06765588
000130 71 31 20 3e dc d9 16 3e 28 04 eb 3d f1 fa b1 3c
       0.1564386 0.14731544 0.11475402 0.021726103
000140 f0 80 42 bd c0 90 af 3d ff 68 de 3d 13 85 05 bc
       -0.047486246 0.08572531 0.1085987 -0.008149403
000150 ef 75 ca bc cc 99 46 3d 90 08 0d bd 24 9c 99 3c
       -0.024714438 0.048486516 -0.034431994 0.018751211
000160 78 83 50 3c dd 13 13 3e 14 e9 eb bb bc 44 8c 3d
       0.012726657 0.14363046 -0.007199416 0.068490475
000170 db 6c 37 3c 68 ef 20 3d bd 29 84 bd 08 5f 80 3c
       0.011195387 0.039290816 -0.064532734 0.015670314
000180 18 b3 22 3d 38 7a b1 3d 72 e2 f5 3d 75 f5 50 bd
       0.03972158 0.086658895 0.12006082 -0.051015336
000190 37 11 9d 3d bf 8a a7 3d 97 93 8c bb 39 47 a1 3d
       0.07669299 0.081807606 -0.004290055 0.07874913
0001a0 2d e6 4e bd 86 de fe 3d 11 14 6a bc ba 8d d0 3d
       -0.05051248 0.12444787 -0.014287011 0.10183282
0001b0 53 97 58 bc e9 05 d4 3d 8c 66 df bc 11 68 c5 3b
       -0.013219672 0.1035269 -0.027270578 0.0060243686
0001c0 7c e9 94 3d 98 5e ab bd 73 d6 a0 3d 5c d6 f5 3d
       0.07271096 -0.08367652 0.07853403 0.120037764
0001d0 2a 97 c3 3c 7a bb 20 3e 50 f1 82 bc 2e 9b d7 3d
       0.023875792 0.15696517 -0.015984207 0.10527645
0001e0 64 84 fc 3d 87 d6 85 bd 06 b2 6e 3d cd 7c ac bc
       0.12329939 -0.065350585 0.058275245 -0.021055603
0001f0 a3 95 cf 3d 5a a8 7f 3b ae 13 a6 3c 56 5e b2 3d
       0.10135963 0.0039010257 0.020273056 0.087093994
000200 23 58 d1 3d d8 e3 fb 3c 95 ec d3 bb e0 84 b1 3b
       0.10221889 0.030748293 -0.0064674118 0.0054174513
000210 45 07 61 bd 69 e6 0e bc fe 80 53 b9 46 5d ec bc
       -0.054938573 -0.008721926 -0.00020170581 -0.02885307
000220 00 50 7b bc ce 88 b4 3d 04 e2 9a bc 94 6b 54 3d
       -0.015338898 0.08815156 -0.0189066 0.051860407
000230 52 f0 b4 bc e3 22 22 3e 0c 4e e8 bc 3c 7c 93 bd
       -0.02208725 0.1583362 -0.028357528 -0.0720143
000240 d2 57 fb 3c f4 85 ae 3a 66 58 05 3c 4b d9 ad 3c
       0.030681524 0.0013315068 0.008138752 0.021221777
000250 4d 5b 03 3d 60 de 47 bd 49 90 cf 3d 45 6d 66 3d
       0.032069493 -0.048796058 0.10134942 0.05625655
000260 b8 0c f6 3c d9 17 d9 3b 50 79 d7 3d 47 ef 76 3d
       0.030035362 0.0066251573 0.105211854 0.060286786
000270 17 ca b6 3d 11 81 f2 3d 12 bc 94 3d 57 02 92 3d
       0.08925264 0.11841024 0.07262434 0.071293525
000280 32 52 6d 3d ac 5f 93 bc 68 bc b1 3c a0 d7 06 3e
       0.057939716 -0.017989956 0.021696284 0.13168192
000290 e0 9e cb bd da d8 8e 3d 14 74 10 3e d1 3e c4 3d
       -0.099424124 0.06974955 0.1410678 0.09582294
0002a0 e2 31 2a 3e 0b 5c 11 3d 45 fd 7e bd db ce 95 bd
       0.16620591 0.03548817 -0.062253255 -0.07314845
0002b0 5e 0a 5f 3d ec b8 b2 bd 63 e7 04 bd 31 f9 7c bd
       0.054453246 -0.08726677 -0.03244723 -0.061761085
0002c0 d8 b6 37 bd f2 38 0b bd 5c 7e 92 bc 87 2c 24 3c
       -0.044852108 -0.033989854 -0.017882518 0.010020382
0002d0 ad 03 9c bc a6 a1 92 3b e2 ca 20 3d d6 8e 40 bc
       -0.019044721 0.0044748364 0.039255984 -0.011752805
0002e0 ab 52 9a 3d b2 47 92 3d 1c 8a fb 3d f9 f9 d2 3d
       0.07535299 0.07142581 0.12282202 0.10301585
0002f0 e4 07 fd bc 2b 7b 63 bc ed 5c 93 3d 06 e3 cc 3d
       -0.030887552 -0.013884346 0.071954586 0.10004239
000300 d0 e7 e1 bd 83 f6 56 3d 9d 6e d1 3d 1c 47 88 bb
       -0.11030543 0.052481186 0.10226176 -0.0041588675
000310 e8 f6 db 3d 5c 4c 8c 3d ac d5 53 bd fb 21 19 3d
       0.10740453 0.06850502 -0.051717445 0.037385922
000320 8c 00 89 3d 79 c0 8c 3c f0 f4 96 bb 98 b9 87 3d
       0.066895574 0.017181622 -0.0046068355 0.06627196
000330 fd 49 b2 bd 70 0a fb 3d d8 5e 46 3d c5 ac af 3d
       -0.087055184 0.1225785 0.048430294 0.08577875
000340 a0 d1 fe 3d 72 48 c9 bc 5f d5 c0 3c cb c2 39 3d
       0.124423265 -0.024570677 0.023539243 0.045351785
000350 6f fe df 3c e2 af 05 3e 65 a3 04 3e 90 13 8c bc
       0.027343003 0.13055375 0.12952955 -0.017099172
000360 b5 78 05 3e 5e 23 4e bc 1b ec 97 3d 15 33 f7 3d
       0.13034327 -0.012581674 0.074180804 0.1207029
000370 53 48 98 3d 0a a6 cd bc 00 a6 d0 bc 85 be 00 3e
       0.0743567 -0.025103588 -0.02546978 0.12572677
000380 c3 dc c3 3d f9 3b e1 bc 65 98 90 3c f6 2d 98 3d
       0.09563591 -0.027494418 0.017650792 0.07430641
000390 fe db 75 3d 5a 10 f0 3d 9a e5 f7 3d dc 2b 16 bd
       0.060024254 0.11721869 0.1210434 -0.03666292
0003a0 6b ea 85 3c 5f 99 56 3c a6 9e b9 3d ae 60 44 3d
       0.01634713 0.01309809 0.09063463 0.047943763
0003b0 c1 ea 90 bd b0 a2 0f 3e e0 df b0 3d 27 d5 71 3d
       -0.07076026 0.14026904 0.08636451 0.05904117
0003c0 8e bf 01 3e 05 5d 66 bc 89 6b 96 bc e1 be a1 3d
       0.12670729 -0.0140602635 -0.018361824 0.078977354
0003d0 72 b5 98 3b 88 fa 8e bd 17 ee 6a 3d 1d be b1 3d
       0.004660302 -0.06981379 0.057355966 0.08678839
0003e0 8b e5 11 3e a6 53 1d 3d 2b 7c 04 bd bc db 7a 3d
       0.1424772 0.03840985 -0.03234498 0.06124471
0003f0 47 dd f2 3b e5 2e d0 3d f8 ec 2a 3d fa 4f 02 3e
       0.007411632 0.101651944 0.041729897 0.12725821

fc.0.weight f4 [462, 64]
000000 da 77 c3 3c fc b9 a4 bd 2a 01 e4 bd 54 1b 82 3b
       0.02386086 -0.08043286 -0.111330345 0.003970543
000010 b5 55 db 3d 3b 88 e9 3d 85 18 2c 3e 88 0f df 3d
       0.10709707 0.11402937 0.16806228 0.10891634
000020 c1 f9 84 bd 9b 43 8b 3c 9e 31 f0 bd 7d e5 3d bd
       -0.06492949 0.01700001 -0.11728214 -0.046361435
000030 3a 93 a7 3c 59 e8 f1 3d 81 f8 d0 3d 76 2a 8c bd
       0.020455945 0.11811895 0.10203648 -0.06844036
000040 c6 ba 09 bc 31 78 41 3e d7 04 63 bd df 26 9f 3d
       -0.008406347 0.18893506 -0.055424538 0.07771086
000050 77 5b c3 bc e4 84 86 3c 6d 24 e8 bb 11 25 84 3b
       -0.023847325 0.016420789 -0.0070844204 0.004032739
000060 e1 54 62 3d bb c1 dc 3d 58 79 3e bd 35 54 dd 3c
       0.055256728 0.10779139 -0.04650244 0.027017692
000070 89 d2 99 3d 0a 48 71 bd f1 83 ef 3d 91 4a ef 3d
       0.075108595 -0.058906592 0.11695088 0.11684144
000080 ab be da 3d 1f 60 4c bd e1 4b c8 ba 43 85 90 bd
       0.10680898 -0.049896356 -0.0015281403 -0.07056668
000090 30 08 9c 3d bf 38 48 bd 17 21 da 3c bc 4f 92 bd
       0.07618749 -0.048882242 0.026627107 -0.071441144
0000a0 54 f9 98 3d ea 08 57 3d ee 88 b4 bc ac 48 27 3b
       0.074694306 0.052498735 -0.02203795 0.0025525494
0000b0 7e 41 a7 bc 08 85 f9 3c 43 1b 00 3c 49 e8 ac 3d
       -0.020416971 0.030458942 0.007819 0.084427424
0000c0 23 a6 68 3d 32 c4 6f 3d 86 f9 13 bd 09 b0 8c 3d
       0.056799065 0.058536716 -0.036126636 0.068695135
0000d0 4b 36 2a 3d 46 d1 3a bc c0 27 0f bd bb 88 a2 3d
       0.041555684 -0.011402434 -0.034950018 0.079362355
0000e0 10 ce f3 bd 52 0b 84 3d e3 05 e8 bd 02 c7 37 bc
       -0.11904538 0.06447472 -0.11329248 -0.011216881
0000f0 4b b2 a2 3d 36 2b ba 3d 74 50 6f 3d 2d d0 0f 3e
       0.07944163 0.09090273 0.058426335 0.14044257
000100 9e 31 89 3d c9 0c d5 3d 16 cf da 3b 2b f0 ef 3d
       0.06698917 0.10402829 0.0066775186 0.1171573
000110 61 a7 f0 bd fe c0 14 bd e5 a6 fa bd d6 6c 51 bd
       -0.11750675 -0.036316864 -0.12238864 -0.051129185
000120 e7 a7 a1 3d 09 0a 43 3d 2a e9 47 3d 4e 78 f7 3d
       0.07893353 0.047616992 0.048806347 0.12083493
000130 49 87 87 b9 a9 29 c1 3d 56 2b 2c bd 36 4c af 3d
       -0.00025850002 0.09431774 -0.042033516 0.08559458
000140 15 6e 93 3d d5 07 6a bd 30 ef f4 bd 22 e0 a3 3d
       0.07198731 -0.057136375 -0.11959684 0.08001734
000150 f3 a7 87 bc dc 4c a5 bd 4d 49 01 3d e5 00 8d 3d
       -0.016559577 -0.080713004 0.031564046 0.06884936
000160 0b b6 a0 3d 93 12 6b 3c 08 98 53 3d 1d d0 df 3d
       0.07847222 0.01434769 0.05165866 0.10928366
000170 7e 1b 32 bc d7 7b 4d 3e 8f 1b 7e 3d 41 ef 7b 3d
       -0.010870812 0.20066772 0.062038 0.061507467
000180 72 ca 7f 3c 2e 71 82 bd 69 a3 53 3e 1c f5 37 3e
       0.015612232 -0.063692436 0.20667805 0.17964596
000190 e5 0a 10 3e 19 07 a9 bc ed c0 bc 3d 72 96 b2 bd
       0.14066656 -0.020633267 0.09216485 -0.087201014
0001a0 4e 69 89 3b 48 e7 44 be 14 3a 1e bc 2d 53 ab bd
       0.0041934615 -0.19228852 -0.009657402 -0.08365474
0001b0 00 36 a3 bd c2 31 6f bd ec 16 a3 3d 7e 01 dd 3d
       -0.07969284 -0.058397062 0.079633564 0.107913
0001c0 64 2a d7 bd 1f cb 8c bd cd 40 51 3d 51 9a 7c bd
       -0.10506132 -0.0687468 0.05108719 -0.061670605
0001d0 fe ea cf bd 91 cc b9 3d c5 5e b6 bd 75 29 64 bd
       -0.10152243 0.09072221 -0.089047946 -0.0557036
0001e0 d5 41 94 3d 97 8a 8a 3d 9e 27 4b 3d 63 18 6d bd
       0.07239119 0.06764715 0.04959833 -0.057884585
0001f0 89 2f bf bb 3a 05 5d 3b 27 e6 ac bd 82 92 ee bd
       -0.005834524 0.003372504 -0.084423356 -0.11649038
000200 61 76 37 3e 66 22 0c be 67 5e 37 3e b4 1d 1e 3e
       0.17916252 -0.13684997 0.17907105 0.15441018
000210 ce e0 ba bd c2 1e 59 3e aa 18 1f be 9c 83 ab 3b
       -0.09124909 0.2120314 -0.15536752 0.005234195
000220 14 e3 a3 3d c5 51 cf 3d 70 16 c3 3d dc 5b 4c 3e
       0.08002296 0.10123018 0.09525764 0.19956917
000230 34 8f ad bb b8 87 ae bc 58 9c 65 3e ac 87 36 3e
       -0.005296612 -0.02130495 0.22422922 0.17825192
000240 b0 30 a3 3d cc f4 a8 bd 0a 0f 19 3d bd 7e 50 3d
       0.07968271 -0.08249816 0.037367858 0.050902117
000250 e8 28 68 3b bc 5f de 3d 10 0a 87 3d 14 c5 e8 3d
       0.0035424773 0.10858104 0.06593716 0.11365715
000260 e0 b3 37 3d 6c 22 8c bb f9 84 01 bc 2e 29 18 be
       0.044849277 -0.0042765643 -0.007905238 -0.14859459
000270 6b df 1d 3e 01 26 1c 3d 1c c6 e7 bc 3c 83 13 bd
       0.15417258 0.03812218 -0.028292708 -0.036013827
000280 a6 53 01 bd e5 16 ba 3d 3e 5e 6e bc e2 a2 47 be
       -0.031573914 0.09086398 -0.014548836 -0.19495729
000290 68 44 0e 3b ec 40 3a 3e 62 ba 58 bb cc 2f a5 bc
       0.0021708254 0.18188828 -0.0033070077 -0.020164393
0002a0 4d aa b1 bd a1 2b 13 3c e2 b8 93 ba c3 ae c1 3c
       -0.086750604 0.00898257 -0.0011270309 0.023642903
0002b0 51 61 91 3d f2 57 57 bd 5e 16 93 3d ba 9d 1c bd
       0.0709864 -0.052574106 0.071820006 -0.038236357
0002c0 bb 97 cf bc 66 25 2e 3c 5c 72 99 bd 58 fa a3 bd
       -0.025340905 0.010629034 -0.074925154 -0.08006734
0002d0 91 5f 20 bb 65 ea bb bd d7 88 09 bc e3 dd d6 3d
       -0.0024471025 -0.091755666 -0.008394442 0.1049154
0002e0 5f ef f2 3b 86 f6 18 be a0 03 12 3e 10 13 22 be
       0.007413789 -0.14937791 0.14259195 -0.15827584
0002f0 82 9a 61 3d 01 77 e4 3c d9 4b b2 3c 10 a1 f4 3d
       0.05507899 0.027888777 0.021764683 0.11944783
000300 e4 25 6a 3b b2 a2 ba 3d 39 b5 66 bd 00 78 42 3e
       0.003572815 0.09113063 -0.05632517 0.18991089
000310 43 c4 d1 3d 39 fe 9a 3d e4 c0 89 be 50 e1 f2 3c
       0.10242512 0.075680204 -0.26904976 0.029648453
000320 7a 67 d8 bc 9c 03 ca 3d e2 76 79 bd db c2 b7 bd
       -0.026416529 0.0986397 -0.06090439 -0.089727126
000330 2e 12 05 3e f3 be 37 bc 5c b4 b2 3c 1e c7 26 be
       0.12995216 -0.011214959 0.021814518 -0.16286895
000340 2e c3 29 3b d4 70 f2 3c b5 19 1d 3e 8c 96 bb bd
       0.002590369 0.029594816 0.15341838 -0.09159574
000350 77 cf 96 bd c4 70 b2 bb 17 18 3b 3e 85 6d 6d 3b
       -0.073637895 -0.0054455716 0.18270908 0.0036228609
000360 c1 84 c2 3d 33 ea 35 bc 2b e4 61 3b 47 b1 93 bd
       0.09497977 -0.011103201 0.0034468274 -0.07211547
000370 6a 6e a9 3d 00 e2 83 3c 06 b4 c4 bb 9e f9 00 3e
       0.08273013 0.016098976 -0.006002906 0.12595221
000380 ca 02 06 3e c0 99 80 bc c4 09 31 3d d0 3a 8a 3d
       0.13087001 -0.015698314 0.043222204 0.06749499
000390 79 0e 54 3d 5d 85 da bc 71 26 5e bd 81 2e c6 bd
       0.051771615 -0.02667492 -0.05423588 -0.09676839
0003a0 89 b9 03 bc 15 1a 88 bd bd 78 19 bd b6 a1 14 3d
       -0.0080398405 -0.066456 -0.03746866 0.036287032
0003b0 07 3f 99 3c 88 f0 a4 3d 15 f8 2c 3d 62 7a a6 3d
       0.018706812 0.0805369 0.042228777 0.081288114
0003c0 96 a0 a3 bd 26 1f 98 bd 91 a8 f0 3b ec fe c6 bc
       -0.07989614 -0.07427816 0.0073443134 -0.024291478
0003d0 e2 b2 ec bd d0 ff 05 3e 7a 56 b6 bd 05 b3 a2 bc
       -0.11557557 0.13085866 -0.08903213 -0.019860754
0003e0 fe d2 b2 bd 39 7b 44 3e 40 b8 4e 3d ba ef 28 bd
       -0.0873165 0.1918763 0.050468683 -0.041244246
0003f0 92 d4 e9 3d 32 e0 1c bd 6a 8d 84 bd 33 dc fc bd
       0.11417498 -0.038299747 -0.06472285 -0.12346687

fc.3.bias f4 [231]
000000 aa a2 34 bd ef 39 31 bd 09 47 11 3d 61 1d 29 bc
       -0.04410044 -0.04326814 0.035468135 -0.010321946
000010 cd 3c 8a 3c 4d 1e 3a bd b1 c6 0f 3c f7 62 23 3c
       0.016874695 -0.045439053 0.008775399 0.0099723255
000020 22 b9 83 bc a5 c5 e0 bc 6e 82 69 bc 56 84 cb bc
       -0.01607949 -0.027437994 -0.014252288 -0.024843376
000030 6c 9b 9a bb bd 60 ac b8 cd d2 02 bd 58 f4 d7 bc
       -0.0047182348 -8.219618e-05 -0.031939317 -0.02636163
000040 cb d9 9d bc 00 88 54 b6 3b 0c 3e bc 36 ee 22 bc
       -0.01926889 -3.1669624e-06 -0.011599596 -0.009944489
000050 f7 51 da bb 9d 68 31 bd 92 93 aa 3c 30 73 6d bb
       -0.006662603 -0.043312658 0.02082232 -0.0036231987
000060 8b 08 55 3d 22 a0 b9 3c 50 3b f0 bc 29 2a c8 3c
       0.0520101 0.022659365 -0.029325157 0.024434166
000070 f9 c7 06 bc ec 98 79 bc 2a 24 7d 3c 0b ab 86 bb
       -0.008226388 -0.015234213 0.015450517 -0.0041097454
000080 48 2b 03 bb e1 c1 f1 3a 1d 66 f4 3c a5 ac c4 bb
       -0.0020014811 0.0018444621 0.029833848 -0.006002026
000090 36 de 1e bd de 26 7b bc 78 6d 9d 3b 2f 87 e1 3b
       -0.038786136 -0.015329091 0.0048043095 0.00688257
0000a0 48 b0 15 bd f9 16 00 bd f2 38 3a bc 68 47 85 bd
       -0.036545068 -0.03127191 -0.011366116 -0.0650776
0000b0 d3 78 71 3d ec 5f c6 3c 4c 8d 83 3b 4d 83 a0 b7
       0.058953118 0.024215661 0.0040146466 -1.9134628e-05
0000c0 31 6c 1c 3d 60 6a 6e 3c 25 eb 22 3c f5 8f fc bc
       0.038189117 0.014551729 0.009943758 -0.030830363
0000d0 95 5e 56 3c 67 c1 a1 bd f5 a6 27 3b 6a 88 e7 bc
       0.013084074 -0.07898217 0.0025581692 -0.02826329
0000e0 e0 ff c2 bc 5e 61 7a bd 93 27 06 bd 9d 48 0e 3c
       -0.023803651 -0.061128013 -0.032752585 0.008684305
0000f0 2e a4 76 bc 5f d9 cf 3c 14 bc 15 3c 0e a2 ca bc
       -0.015053792 0.025372205 0.00913908 -0.024735477
000100 37 30 79 3c 56 db 59 bd b7 55 42 bb ed 02 ab 3c
       0.015209249 -0.05318769 -0.002965314 0.020875419
000110 11 37 2d bd 13 a6 c8 bc b9 3b 81 bc c5 3e ab bc
       -0.042288844 -0.024493253 -0.015775548 -0.020903954
000120 df 40 58 bc 51 d5 91 bc ee 04 90 bd c4 c3 03 bd
       -0.01319906 -0.017801913 -0.0703219 -0.03216912
000130 07 e6 55 bd 22 90 b2 bc 93 a0 17 bc 11 90 46 bc
       -0.052221324 -0.021797244 -0.0092545925 -0.012119309
000140 93 04 09 bc 53 73 06 3c 26 60 39 bd 88 33 a2 3c
       -0.008362907 0.008206206 -0.04525771 0.019799963
000150 38 86 3b 3b ad 8b b1 bc 4e 58 fb bc 0d 73 06 3d
       0.0028613936 -0.021673048 -0.030681755 0.032824565
000160 06 d7 51 3c ba 67 53 bd a2 c5 0d ba fa b2 a0 bc
       0.012807613 -0.051612593 -0.0005408173 -0.019616593
000170 e7 9b 08 bd fe 9a 51 3c df 54 71 bc c9 79 8f bc
       -0.033351805 0.012793301 -0.0147297075 -0.017514126
000180 f3 c3 c5 bc 83 11 58 bc 63 e8 14 3c b2 c1 20 bd
       -0.024141287 -0.013187769 0.009088608 -0.039247222
000190 e7 ba 91 3c 1d 8f b2 bc b8 25 21 bd 8f 53 6f 3c
       0.017789317 -0.021796757 -0.039342612 0.014607324
0001a0 19 d0 e0 3c f8 17 90 3c 83 03 e5 3a c0 45 00 bd
       0.027442979 0.017589554 0.001747236 -0.03131652
0001b0 f6 e1 a3 bc 3f 0b 20 bb e2 da 91 bc 3e 62 25 3d
       -0.020005208 -0.0024420766 -0.017804567 0.040376894
0001c0 20 22 09 3d b5 f2 da bc 0f 49 af 3b d4 2f a5 bc
       0.03347981 -0.02672706 0.0053492854 -0.020164408
0001d0 a9 c1 e3 bb a2 fd 1d bd e6 d7 b7 bc cb 76 a7 bc
       -0.0069505763 -0.03857196 -0.022441816 -0.020442387
0001e0 94 44 84 3d fc 3b 19 bc c4 35 00 bd 90 8a e9 bc
       0.06458393 -0.00935268 -0.031301275 -0.028508455
0001f0 47 78 df 3b c0 ab 4b 3c c3 b6 5a bc b6 f9 c2 bb
       0.006819758 0.012431085 -0.013349238 -0.005950178
000200 e9 9a 44 bd 38 0e 56 3d ba 44 bc 3c 66 61 82 bc
       -0.047999296 0.052259654 0.02298199 -0.015915584
000210 71 1f b4 bc 35 ba 27 3d 4a 6b 88 3c d3 88 3b 3c
       -0.021987649 0.040949065 0.016652722 0.011446196
000220 fc af 96 bc 9a 67 8c 3a 99 55 bb 3c 12 4c a2 3c
       -0.018394463 0.0010712028 0.022867965 0.019811664
000230 8c c4 5e bb 09 1c 06 3d 44 df a6 3a f1 80 16 bc
       -0.0033991663 0.03274158 0.0012731333 -0.009186015
000240 eb 6e 10 bc 4f b1 8b 3d e1 1a 06 bc ce 02 97 bc
       -0.008815507 0.06820928 -0.008185119 -0.018433955
000250 38 d5 6c bc 1c 70 15 bd cf 24 91 bc ec 37 4a 3b
       -0.014455132 -0.03648387 -0.017717747 0.0030856086
000260 91 31 9e ba 8e be 02 3d 2a c3 06 bb ff 03 fe bc
       -0.0012069215 0.03192001 -0.0020563104 -0.031007765
000270 d5 46 3c bb 66 a1 10 bb a7 fa dd bc 05 9f 18 bd
       -0.0028728743 -0.0022068857 -0.02709706 -0.037261028
000280 07 0a 46 3d 8e c5 3c bc 37 83 95 bc 0b a0 b2 bc
       0.048349407 -0.01152171 -0.018251045 -0.02180483
000290 db de de bb 05 d8 94 3c c2 87 0f 3d de 42 a2 bb
       -0.006801469 0.018169412 0.035041578 -0.004951819
0002a0 d7 ca 6d bc 6b 72 a7 3c d4 31 95 bc 7b 6e 1a bc
       -0.014513693 0.0204403 -0.018212236 -0.009425755
0002b0 2f 6a 8a bc 49 68 25 3c 09 bb 08 3d e7 65 d4 bb
       -0.016896335 0.010095664 0.033381496 -0.0064818743
0002c0 60 5c ba 3c ec 5d 2e bd ca e9 ed ba 3e ee bf 3c
       0.022749126 -0.04257004 -0.001815134 0.023429032
0002d0 14 41 20 3d 3a 65 63 3c c4 49 6f bb 7e 61 ec 3c
       0.039124563 0.013879115 -0.0036512474 0.028855082
0002e0 9f c2 48 bd 1a ee 2d bc c5 88 ae 3c 01 9a 63 3c
       -0.04901373 -0.01061585 0.021305451 0.013891698
0002f0 ba 5d 05 bd 47 f7 1a 3b a6 61 0a 3d e1 28 37 3d
       -0.032560088 0.0023645924 0.03378453 0.04471672
000300 94 bc ee 37 8e bf 86 3c 83 5b 23 bc 64 f9 1d bc
       2.8459624e-05 0.016448762 -0.009970549 -0.009641979
000310 50 e8 23 3c 16 41 37 bc c5 45 bb bc 83 e0 fe bb
       0.010004118 -0.011184951 -0.022860417 -0.0077782287
000320 b8 cc 5a bc f3 e1 35 3d f8 85 7e 3d 18 f5 87 bc
       -0.013354473 0.044404935 0.06213948 -0.016596362
000330 f0 69 46 3c c9 96 06 3c 82 6a ae 3c a8 cc e5 bc
       0.012110218 0.008214661 0.021291021 -0.02805169
000340 73 4a 50 bc 44 e9 a1 bb 20 c8 ef 3b cb 19 c4 bc
       -0.012713063 -0.0049411375 0.007317558 -0.02393808
000350 4c 2b 28 bc 9c 96 0d bd 84 f7 30 b9 03 c0 6e bc
       -0.010264229 -0.03456746 -0.00016876875 -0.014572146
000360 80 ce 24 bd 93 86 01 3d d5 f9 1c bd 6c 51 7f bd
       -0.040235996 0.03162248 -0.038324196 -0.06233351
000370 c0 2c c3 3c b0 19 03 bd 65 e8 a8 ba 0a 81 45 bd
       0.02382505 -0.03200692 -0.0012886642 -0.048218764
000380 bb f3 c4 bc dd 8d b5 3c 36 6e 35 bd 1e 11 b6 3d
       -0.024042001 0.022162372 -0.04429456 0.088899836
000390 09 19 89 bd 53 e6 85 bd de c4 34 bc
       -0.06694228 -0.065380715 -0.011033265

fc.3.weight f4 [231, 462]
000000 66 6d e1 bc 73 02 08 3d a1 fb 46 bd 61 5a c1 bc
       -0.027517986 0.03320546 -0.048579816 -0.023602666
000010 47 a1 bb 3d 89 78 f0 bc 81 14 41 bd 2d 57 89 3c
       0.091616206 -0.02935435 -0.047138695 0.016765201
000020 52 1b 11 3c d8 64 a6 3d 9c 97 41 3d 7a 35 d6 bb
       0.008856611 0.08124703 0.047263727 -0.0065371366
000030 83 94 45 bd 6b a7 08 bd e3 0c 53 bd 00 d2 14 3d
       -0.048237335 -0.033362787 -0.05152596 0.036333084
000040 77 81 6f 3d 90 8e e1 3c c6 67 a1 bd 34 19 a9 bd
       0.058473077 0.0275338 -0.07881121 -0.0825676
000050 e6 45 d4 bc fe 8c a8 bd 8d 35 37 bd 11 0c 61 3d
       -0.025912236 -0.08230017 -0.044728804 0.054943148
000060 43 df 0e bd 00 47 f5 bc 3e 7b 33 bd cc 48 3c bc
       -0.034880888 -0.029941082 -0.043818705 -0.0114919655
000070 57 ae c3 3c a4 37 65 3c 0f f5 e5 3c f5 54 a7 bc
       0.023886843 0.013990317 0.028070955 -0.020426253
000080 20 ce 18 bd 0e fd 40 bd 88 30 6e 3d bb 5a fd 3c
       -0.03730595 -0.04711633 0.05815175 0.030927053
000090 52 f6 c3 bc 92 a0 a2 bd 3c 10 66 3d 9c 94 54 bd
       -0.023921166 -0.079407826 0.056167826 -0.051899537
0000a0 09 39 7a bd 3b ba 92 3d ab 72 71 bd 07 f3 33 3d
       -0.06108955 0.07164427 -0.058947247 0.04393294
0000b0 51 8d 7b bd 7f 26 a5 bc 0f a2 bc bc 09 5b 0e bd
       -0.061414067 -0.020159958 -0.023026494 -0.034754787
0000c0 3a 88 64 3d 65 c4 df 3c 81 a3 aa 3d 9d 78 7c bd
       0.05579398 0.027315328 0.08331967 -0.061638463
0000d0 24 5e 84 3d a8 ee 9e bd 1d 53 32 bd b4 df d7 3d
       0.064632684 -0.07760364 -0.043536294 0.10540715
0000e0 cd 0c c1 3c cf ef 6a bd de 3f 4b 3c bf 53 45 3d
       0.023565674 -0.057357606 0.012405364 0.04817557
0000f0 c4 38 dc 3b 3b 9a 66 3c f5 44 41 3d c9 ab 03 3d
       0.006720634 0.014074857 0.047184903 0.03214625
000100 a2 0d 9b 3d ac 6e e6 3c ee b3 8c bd 7d af ab 3d
       0.0757096 0.028128944 -0.06870256 0.08383081
000110 6d 84 82 37 99 99 15 bd 72 58 b9 bd bd b8 5b bd
       1.5558873e-05 -0.036523435 -0.09050073 -0.053642977
000120 1b f1 8a bd d0 cb 43 3d b1 19 93 3c 74 3a 69 3d
       -0.067842685 0.047801793 0.017956587 0.05694051
000130 6e 3c 94 3c 18 3b 7b 3c ba 18 0f ba 90 d3 77 bd
       0.018095221 0.015333913 -0.00054587016 -0.060504496
000140 29 3e 0d bd b4 a1 8f bc 3d 8e bc bc 83 9b 10 3b
       -0.03448311 -0.01753316 -0.023017043 0.0022065348
000150 ad d1 51 3d 96 ae 50 3d ad 4a 4c 3d 01 41 94 bd
       0.051225353 0.050947748 0.049875904 -0.07238961
000160 84 bf 51 3c 8b 87 e5 3b 1f 74 29 3b c5 81 96 bb
       0.012802009 0.0070046834 0.0025856567 -0.0045931065
000170 c1 ae 0c bc 5b 78 f4 bc 6b 6a b6 bc 34 c8 a7 bc
       -0.008586586 -0.029842546 -0.02226754 -0.020481206
000180 9e cb 5d bd e0 e9 a6 3d d7 b4 3e bd 08 d3 cb bd
       -0.054149263 0.08150077 -0.04655918 -0.099523604
000190 23 35 2a bd 15 b2 41 3d d8 10 2c 3c d4 1d 18 3a
       -0.04155458 0.047288973 0.010502063 0.00058027846
0001a0 d5 72 b6 bb 04 b1 a8 38 c6 f6 ec 3c e1 20 b4 3c
       -0.0055678883 8.043836e-05 0.028926264 0.021988334
0001b0 61 aa 20 3c 0d ed d7 bc 05 a1 c9 3c fd 5a 54 3c
       0.0098062465 -0.026358152 0.024612913 0.012961146
0001c0 f9 70 35 3d 70 95 77 bc b0 c2 9d 3d 6b e0 8c bd
       0.044297192 -0.015111312 0.07703149 -0.06878742
0001d0 b3 b8 c8 3b da 84 07 3b fe e0 b2 bd 05 36 66 3d
       0.0061255335 0.002067855 -0.0873432 0.05620386
0001e0 cb 1f 69 bd da 67 42 bd e2 c6 b0 3c b4 13 64 bd
       -0.056915086 -0.04746232 0.02157921 -0.055682853
0001f0 74 e6 d3 bb a2 84 08 bc c7 ed 8e bd d8 b0 d7 3b
       -0.006466681 -0.008332403 -0.06978946 0.0065823607
000200 a9 bc 91 3c 78 a3 5a bd bb 5d 16 3d b4 32 81 bd
       0.017790155 -0.053378552 0.036710482 -0.06308499
000210 15 79 de 3c 2a be e7 3a 4b 04 11 bd e1 32 48 bd
       0.027157346 0.0017680575 -0.035404485 -0.048876647
000220 4e 42 81 3d df 4f 91 bb c5 43 b9 bd 1d 5c 88 3d
       0.06311475 -0.00443457 -0.09046129 0.06658194
000230 e1 8f 60 bd 1d 2c 9a 3d c9 9b 3d 3b 65 92 0f 3d
       -0.054824714 0.07527945 0.0028931967 0.035051722
000240 80 09 59 bd 44 f9 0d bd ce 73 b7 3d d4 c7 86 bd
       -0.052987576 -0.034661546 0.08957635 -0.06581083
000250 0c f3 f0 bc 17 2b b9 bd 6b 04 5b bd 99 2b cd 3b
       -0.029412769 -0.09041422 -0.05347101 0.0062613008
000260 75 44 8b bd 5e b7 51 3d 2c 35 50 3d 4f 00 5b bd
       -0.068001665 0.051200263 0.05083196 -0.05346709
000270 ab c8 dc 3c 54 f1 23 3d dd 6d 78 3d ed ab 86 3d
       0.026951155 0.04002507 0.06065165 0.06575761
000280 13 db 70 bc e8 dd 78 3d f5 16 97 3c 63 59 8d bd
       -0.014700669 0.0607585 0.018443564 -0.06901815
000290 3e 15 56 3d 72 ea 63 3d e2 ab 2e bd a1 63 75 3d
       0.052266352 0.055643506 -0.04264439 0.059909467
0002a0 ee 5c 2e bd 75 29 3c bc 56 e1 a1 3d 6b 5b 69 3c
       -0.042569093 -0.0114844935 0.079043075 0.014242987
0002b0 d4 99 fe bb 51 dc a7 3d 52 af 16 bc b8 70 84 bd
       -0.0077698026 0.08196319 -0.009197073 -0.06466812
0002c0 41 68 3c 3d b9 69 98 3d d9 3f 12 bd 3d 7c 5f bc
       0.04599786 0.0744204 -0.03570542 -0.013640461
0002d0 c3 73 51 3d 96 b6 99 3d af 50 15 bd 0c 0d a0 ba
       0.05113579 0.07505529 -0.0364539 -0.001221092
0002e0 ba 25 30 3d 88 64 0f bd 9d b0 50 3d d4 2a 15 3d
       0.04300473 -0.035007983 0.05094968 0.036417797
0002f0 e7 48 a8 3c 2d 32 1a bd 8c 53 fe bc 48 ce 2d 3c
       0.020542575 -0.037645508 -0.031045698 0.010608263
000300 97 b9 b7 3c 1c 3a 5d bc cf 0d 42 ba 99 72 8c bc
       0.022427363 -0.013502624 -0.00074025703 -0.017144488
000310 6d bb 6e 3d 05 7c 7b bc ec d7 da bc 37 63 a1 bd
       0.058284212 -0.015349393 -0.026714288 -0.07880252
000320 1f ee 1e 3d 26 ca 2d bd d8 72 25 3c 1e be a0 3d
       0.03880131 -0.042429112 0.010098182 0.07848762
000330 20 2e 2b 3d 74 1e 62 3d 60 61 20 bc ae 1e 88 3b
       0.041792035 0.055204824 -0.009788841 0.004154048
000340 2b ed 0f bd d0 c3 96 3c 05 c6 0a 3d 4e 7c 4d bd
       -0.03513829 0.018403918 0.033880252 -0.050167374
000350 6f 22 78 3d f5 94 7d bd a2 da 47 bd 5b 4e 14 3c
       0.060579713 -0.061909635 -0.04879249 0.0090518845
000360 50 b0 37 bd 38 0d 54 bd 9e 5b 14 bd 75 60 5b bd
       -0.04484588 -0.05177042 -0.036220185 -0.053558785
000370 12 80 8b bd 32 69 98 3d e3 64 0c 3d 96 af 62 3d
       -0.06811537 0.074419394 0.0342759 0.055343233
000380 5e cb 59 bd 59 b7 75 3d 94 8a 47 bd 23 72 29 bd
       -0.05317246 0.059989307 -0.048716143 -0.041368615
000390 13 ba 88 bd e0 17 3f bc 75 29 78 3d 9d c4 f6 3c
       -0.06676116 -0.011663407 0.06058641 0.03012305
0003a0 e8 9d 94 3c 33 67 e6 3d d5 da de bd 4a 96 20 3d
       0.018141702 0.112501524 -0.10881583 0.039205827
0003b0 d8 ca 8f bc 55 d1 93 bd c4 45 b0 3a 37 3b 95 bc
       -0.017552778 -0.07217661 0.0013448526 -0.018216712
0003c0 08 b6 1d bd 93 83 7b 3d 1b a4 78 bd e0 03 69 3d
       -0.038503677 0.061404776 -0.06070338 0.05688846
0003d0 df 13 d6 bc 0b a6 a6 bc bd 19 a5 bd 23 12 96 bd
       -0.026132522 -0.020342847 -0.0806155 -0.07327678
0003e0 8c 8d 84 3d f5 be 62 bd b5 61 7c 3d 80 db 9b 39
       0.064723104 -0.055357892 0.06161662 0.00029727444
0003f0 7c 05 27 3d a0 cd 91 3c 88 6f 49 bd df 69 fa bc
       0.040776715 0.017798245 -0.04917863 -0.030568061
