inventory/ark_material.onnx (onnx, 723947 bytes, 8 tensors)

35 f4 [8, 3, 5, 5]
00000000: 99a8 2ebe d2d2 ae3e b40f 623d 1555 e73e
00000010: f206 013f 8fd4 a5be 3e99 263c 4617 07be
00000020: dfd7 9d3e 7323 d83e 131e cfbe d1fa a43e
00000030: b68e 4ebe 4f4d 83be 1c60 f8bd 1743 15bd
00000040: 3f02 b9bd b011 e0bd e482 da3e d0a3 793d
00000050: 73b6 13bf f12a 14bc dac6 10bf ba6c 16be
00000060: 2722 b1be bcb1 aa3e bf3f 6f3e eb0e 8f3d
00000070: 58fe d23e 3d56 89bd 380a b0be 8172 783e
00000080: 7d9e 043f 9827 e73e 78ed e93e e07f ab3e
00000090: d9d4 e6be f42a 5abe 55bc a53e 6c29 1e3f
000000a0: 583c 89be 9854 19be 5ed2 b7be ddd6 9dbd
000000b0: c270 903e b83b 1f3e da35 b63d 0e2a f03c
000000c0: 2a0e 913e b1f3 cd3e d27c 5bbd ec0b c73e
000000d0: b29b a2be df02 afbe b089 413e 0c2d a33e
000000e0: 374c 013e f0b3 b9be 0298 883d b95e 01bd
000000f0: 6a12 4f3e 5cbb 933e 10a8 09be a37c 40be
00000100: d00b d33c b891 cbbd d3f7 dabe 483c cabd
00000110: cd96 e0be b53e 9e3e 67d4 f9bd d374 4a3e
00000120: dc24 bdbe c29f 03be 7705 273e 8593 48be
00000130: 0146 9cbe d860 9abd 6e1c 5b3d 021c 393e
00000140: 3040 83bd 441b bdbc c31b 68be 415b b33d
00000150: d26a 913e fa15 35bc 85be 95be 97ce d9be
00000160: 6f15 cb3c 39e2 453e b159 24be fafa 84be
00000170: 0d4c 5e3d 8578 9bbe b8bc 6f3e 5a42 363e
00000180: fa35 533e 552b b8be e2b1 28be 889e bcbd
00000190: d1db 763e d164 3e3e 14eb a2be 90ad 573e
000001a0: 968f 463e bca0 8f3e fd80 12be f30f 21bc
000001b0: ed08 2f3e 139b b23e 2a57 703d 0025 873c
000001c0: fdb3 00be 9c7f 98be 445b 71be cbf5 b33e
000001d0: 7d14 d0bd 2f48 5abe 5b7f 0f3e af26 0c3e
000001e0: a675 6cbd 61cb 61bd a604 82be 158e 8bbe
000001f0: bd70 fcbb 7ca2 bcbe de97 723d 66b9 f3be
00000200: fdc2 95be d49c 113e 870f 393e c758 1dbd
00000210: 857c f7be 3272 c8be 336c 77bd d467 4d3e
00000220: 537e 37be e675 d3bd 6464 c2be f1a2 543e
00000230: 5a08 ac3c 05cb 72be 2006 9abe 95d3 a0bd
00000240: 59cb 863e 79ba bc3d 3295 67bd e754 92bc
00000250: 0316 ea3d e1be 60be a961 93bd 3997 fe3d
00000260: 1274 af3e c9f0 55be 2126 33bf f246 0bbf
00000270: fd32 1abf e8b0 0d3e 037d 88be 4cba b8be
00000280: 3c04 543d 7762 0e3d d9cc 7b3e 8736 923e
00000290: 624a 123e 2562 083f 586f 0f3d b306 153f
000002a0: 7e63 3bbe 50ab f03d 2997 073f 2abe 273e
000002b0: 051a ca3e 659b dfbe 24ec 06bf b62b b73e
000002c0: e5c5 9b3e 5215 2e3e c214 6e3c 8ce8 21be
000002d0: bfc8 93bd 9f28 a5bd 261a a33e 2f0c 843e
000002e0: 0cb4 1dbf 6730 24bd a30a 463e c081 1cbd
000002f0: 4fbb 633e 2fa9 1ebf f212 f23d 5708 003f
00000300: 9336 a93e 04e7 c0be 7692 dbbe 0657 0d3f
00000310: 89c7 e83e 3101 05be 95d7 8c3e 56c2 ce3c
00000320: 3e91 cfbe 667a b9be e8b0 803e bc41 773e
00000330: c23b 2cbf 73df c83e cb91 923d 3537 ef3e
00000340: d07b 34bd 19ef 263e fa76 f73e 7691 b4be
00000350: f1af ab3e 0311 123e 75ca 0dbf 649d 75be
00000360: 0188 9cbe fd17 8cbd 079c f6bb 7897 7abe
00000370: af78 0c3f b599 0d3e 34c9 20be 4f03 0d3e
00000380: 810e 1ebe 2720 2d3e 4feb ef3d 4279 fdbc
00000390: dfe6 8ebe 3c05 d5bd 1283 59be 8c4f 9abc
000003a0: 841b 2fbd e396 a33e 1d49 823e e54c 70be
000003b0: 4c2a 34be 837e 80be b14b d73e 2993 983e
000003c0: 5d16 2c3d 0a1d 3abc 7a7b 403e 62b0 ff3e
000003d0: 1e88 4c3e 1521 763d e47b b23d 5634 b33e
000003e0: fd34 a43e 5ba5 343e 127b c43d 9e53 98bc
000003f0: c319 52be f3d6 083c f6c2 cdbc f7d2 6e3d
-0.17056502 0.34145218 0.055190757 0.451821 0.5040122 -0.32388732 0.010168372 -0.13192472
0.3082876 0.42214546 -0.40452632 0.32222608 -0.20171627 -0.2564492 -0.121277064 -0.036440935
-0.090336315 -0.109408736 0.42677987 0.06094724 -0.5770027 -0.009043441 -0.56553423 -0.14689913
-0.3459637 0.33338726 0.23364161 0.06985267 0.41209674 -0.06705902 -0.34382796 0.2426243
0.51804334 0.45147395 0.45688987 0.33495998 -0.45084265 -0.21305448 0.32370248 0.61781955
-0.2680385 -0.14973676 -0.35902685 -0.077069975 0.28211027 0.15550125 0.0889699 0.029316928
0.2833112 0.40224984 -0.053585835 0.38876283 -0.3175941 -0.34181878 0.1890018 0.31870306
0.1262673 -0.36270094 0.06669618 -0.031584475 0.20221868 0.2885388 -0.13443017 -0.18797545
0.025762469 -0.09939903 -0.427672 -0.09874779 -0.43865052 0.30907217 -0.12198716 0.19771127
-0.36942184 -0.12853912 0.16310678 -0.19587524 -0.3052216 -0.07538003 0.05349391 0.1807709
-0.06408727 -0.02308429 -0.2266684 0.0875764 0.2840181 -0.011052603 -0.29246917 -0.42540428
0.024790494 0.19324578 -0.1604984 -0.2597273 0.054271746 -0.30365387 0.23411834 0.17798749
0.20626059 -0.3597056 -0.16474107 -0.09209925 0.24107291 0.18593146 -0.31819975 0.21062303
0.19390711 0.28052318 -0.14307018 -0.009830463 0.17093249 0.34883937 0.058676876 0.016497135
-0.1256866 -0.29784858 -0.23569971 0.35148463 -0.10160158 -0.21316598 0.14013426 0.13686632
-0.057729386 -0.055125598 -0.2539417 -0.27256837 -0.007703869 -0.36842716 0.059226863 -0.47602385
-0.29250327 0.14219981 0.1807233 -0.038414743 -0.48337188 -0.39149624 -0.06040592 0.20059139
-0.17919283 -0.10325222 -0.37967217 0.20765282 0.021000076 -0.23710258 -0.30082798 -0.07852856
0.26327017 0.09215254 -0.056538768 -0.01786275 0.1142998 -0.21947815 -0.071963616 0.12431187
0.34268242 -0.20892633 -0.69980055 -0.5440513 -0.6023405 0.13837016 -0.26657876 -0.36079633
0.05176185 0.034761872 0.24589862 0.28557226 0.14286187 0.53274757 0.035018295 0.5821335
-0.18299672 0.11751425 0.5296503 0.16381136 0.39472976 -0.43673244 -0.5270407 0.35775536
0.3042442 0.1700032 0.014531316 -0.15811366 -0.07216024 -0.080643885 0.31855887 0.25790545
-0.61602855 -0.040085223 0.19339995 -0.038209677 0.22239421 -0.61976904 0.1182002 0.50012726
0.3304945 -0.3767625 -0.42885178 0.5521091 0.45464733 -0.12988736 0.27508226 0.025239151
-0.40540498 -0.36226195 0.2513497 0.2414617 -0.67278683 0.39232978 0.07156714 0.46721807
-0.04406339 0.16302146 0.4833296 -0.35267228 0.3353267 0.14264302 -0.5538705 -0.23985821
-0.30572513 -0.06840513 -0.007525924 -0.24471843 0.5487165 0.13828166 -0.15701753 0.13770793
-0.1543522 0.16906796 0.117148034 -0.03094161 -0.27910516 -0.10401389 -0.21241406 -0.018836759
-0.04275085 0.31951055 0.25446406 -0.23466833 -0.1759426 -0.2509652 0.42049935 0.29799774
0.042013515 -0.0113594625 0.18797103 0.49939257 0.199738 0.060090143 0.087150365 0.35000867
0.32071677 0.17641203 0.09593786 -0.01859456 -0.2051764 0.008352029 -0.025117379 0.05830666

36 f4 [8]
00000000: 8f30 55bf 61ae e33f 150f 0bbf dd81 db3f
00000010: bcb5 eabf d197 a93f 8ccc 26be 4fd3 323f
-0.8327722 1.7787591 -0.5431989 1.7149006 -1.8336711 1.3249456 -0.16288966 0.6985368

38 f4 [16, 8, 3, 3]
00000000: e007 393f e959 9ebf 3f26 31bf b952 69bf
00000010: a878 f83e f0fa 903f 4258 793e f136 563f
00000020: bbc3 ac3f e1ba 0e3f 7164 4d3f f62c f8be
00000030: 54b9 133e 6257 c33e f0d5 b3be 23b5 7d3f
00000040: 7f44 0b3f 3050 b13e 4dfc 403f 4201 033e
00000050: d6ab 80bf 62c6 49be 6d1d 8c3f 56fd 0e3f
00000060: 56db 98bb a0a3 d83e 6885 9a3f fb18 7cbe
00000070: a57c 9dbe 9d33 9a3f 37be e7bb ca8c 3f3e
00000080: 3e3c 95be 6112 2c3e f2cd 3abf 5f8a 1c3f
00000090: c50a 243f b171 2fbf a16d dfbd eee3 b93d
000000a0: 8aab 90bd c8dc 87bf c614 083f 7966 c0be
000000b0: d407 613c 580c 2c3f c715 6dbd c96f 3ebe
000000c0: 1c74 56bf 804d 5d3e d52a 7dbf 9174 d8be
000000d0: e7fa 0c3f 9102 2f3e 9183 9b3e 6b52 60bf
000000e0: 9ea1 983f 25d0 1bbf 4024 e4be 53c6 e23e
000000f0: 2f40 273f 6fb0 833f 25f4 a3be ba63 d03e
00000100: d0ef 483f 1587 183d 71ae e2bf f1c3 7dbf
00000110: 9911 77bf ab22 c33e 64f2 063e db10 893d
00000120: 40b0 f1be edb5 b6bc 0d43 5ebf 7703 5cbf
00000130: e711 8cbf 0a7f 94be 74ac 173f 15ba 90be
00000140: 0ff4 a73e 1efb 383f 54e8 023f 81a5 973f
00000150: cfa0 9abd af43 7bbf c295 213f a5e0 8f3e
00000160: d0a2 e83e 1ce6 11be 4ed2 f83e 9a69 63bd
00000170: fc47 06bf d580 0fbf 315a 94bf 309a dfbe
00000180: 6730 d03d 1bec b33d 04ba 923e c3ae 48bf
00000190: 1d15 0d3f f290 153f 0784 58be 06f9 8ebf
000001a0: 7ee2 20bd 4169 0e3d 22da 64bf 6da2 55bf
000001b0: b963 dbbe 5823 71bf 3f33 4a3f 162b 483f
000001c0: 6774 f2bd 2728 80be 421b 993e 4f9e 5ebe
000001d0: 1a8c 1ebf 0268 fabe 856c febe f2b6 6f3e
000001e0: f9a3 c43e ce3e a43d 401d 663f 1a3c b3ba
000001f0: a276 75bf 6163 353e 5136 953c 26e8 d5bd
00000200: 1102 44bf d01a a3bd 4fac 3f3d 6585 b7bf
00000210: 4e33 8cbf 34e0 063f 275f babd a7f9 8e3e
00000220: 220e b3be 27e5 3fbe 38b8 183f 4e11 18be
00000230: cd99 99be 86d3 87be d02a bf3c dc56 4cbc
00000240: f94f 27bf 295b bdbd 90ed cf3c f4d6 e93d
00000250: 441f b13e ac86 813e 801d 843f 8b3a 1e3f
00000260: e16e dfbe a793 2f3f 4837 c73e 1452 c0be
00000270: 7a27 a1be 14f6 1cc0 26a2 6a3f 83ae 69bf
00000280: 4321 13bf 29b4 06bf a6ef 183e f079 c13f
00000290: 44e3 1a3f 1d8a 103f 27d1 55bf 6cc3 8d3e
000002a0: b47a f1bf b21c 93be 17b2 1e3e 4e9e a9bf
000002b0: 3f74 64bf fd10 12bf 773c dfbf f2cc 4a3f
000002c0: c2ab d13f 1922 e23f df94 803f 4367 d93f
000002d0: 5f6e a9bf 3371 373f e05a 69be bd1a 60be
000002e0: 0edf e7bf 258f 933f 798b 0b3f 4b6f df3e
000002f0: 1c05 a43e 41df 10bf 3f2d 873f 529b eb3d
00000300: cf6c 6d3f 8ae6 e3be 6b73 b1bf 1598 613e
00000310: adbc f8bd c2c1 743e 5667 133e b13c ba3e
00000320: 96b5 95bf eaad 3bbf 75e3 18bf cc7f b43d
00000330: d43e 463f c688 933f cfff e63e c9e1 213f
00000340: 6008 853e 5f05 953e 9073 1a3d b062 d1bf
00000350: 27df 9c3e 87ba 173f 420f 9fbd 5d18 913f
00000360: f43f c3be 1919 923e dc8e 493e 9f37 53bf
00000370: e627 fcbe 8266 88bf b778 d23e ff95 abbe
00000380: 5391 c4bf 0d0c 23bf ee4a 193f 0306 7b3f
00000390: bd70 973e 9ccb 483f db5b 1c3d 710d 5fbf
000003a0: fc70 d2bf 46e4 90bf 6f53 6bbe e6ec 013f
000003b0: fad4 09bf ecf7 a8be 293a 3c3f 3d2c 323f
000003c0: 7beb 623e 049c 30bf b575 87be 51bb 2b3f
000003d0: ec86 373f 8908 80bf 343d 503e 9062 be3f
000003e0: 3363 98bf 2498 413f d2b0 a83e d23d a4bf
000003f0: 8bb4 c53f 8469 6a3f acd4 c53e 3fb7 e73e
0.7227764 -1.2371188 -0.69198984 -0.9114185 0.48529553 1.132658 0.24350074 0.83677584
1.3497232 0.55753905 0.80231386 -0.48471802 0.14426166 0.38152605 -0.3512416 0.9910452
0.5440139 0.3463149 0.7538498 0.12793449 -1.005244 -0.19704583 1.094648 0.5585531
-0.0046648188 0.42312336 1.2071962 -0.24618904 -0.3075916 1.2047001 -0.007072236 0.1870605
-0.29147524 0.16803886 -0.729705 0.6114864 0.64078933 -0.68532854 -0.10909582 0.09076677
-0.070639685 -1.0614252 0.531567 -0.3757818 0.0137347765 0.67206335 -0.057882097 -0.1859733
-0.8377092 0.21611595 -0.9889348 -0.42276433 0.55070347 0.17090823 0.30373815 -0.8762576
1.1924322 -0.6086448 -0.44558907 0.44291934 0.6533231 1.0288218 -0.32022205 0.40701085
0.78490925 0.0372382 -1.7709485 -0.9912711 -0.96511227 0.38112387 0.13178402 0.06692668
-0.4720478 -0.022303546 -0.8682106 -0.85942787 -1.0942963 -0.29003173 0.5924752 -0.2826697
0.3280339 0.72258174 0.51135755 1.1847383 -0.07550203 -0.9815015 0.6311914 0.28101078
0.45436716 -0.14247936 0.4859795 -0.05552063 -0.5245359 -0.5605596 -1.1590024 -0.43672323
0.10165482 0.08785268 0.28657544 -0.78391665 0.5511034 0.58424294 -0.21144114 -1.1169746
-0.0392785 0.034768347 -0.89395344 -0.8345097 -0.4284952 -0.94194555 0.78984445 0.78190744
-0.11838608 -0.25030634 0.2990361 -0.21740077 -0.6193253 -0.48907477 -0.4969217 0.23409632
0.3840635 0.080197915 0.8988838 -0.0013674528 -0.95884144 0.17713691 0.018214377 -0.104446694
-0.76565653 -0.079640985 0.046795186 -1.4337584 -1.0953157 0.52685857 -0.0910018 0.27924845
-0.3497172 -0.18739758 0.59656096 -0.14850351 -0.30000153 -0.26528567 0.023335844 -0.012471881
-0.65356404 -0.09245903 0.025381833 0.11417952 0.34594166 0.2529806 1.0321503 0.6180808
-0.4363928 0.68584675 0.38909364 -0.3756262 -0.3147543 -2.4525194 0.9165367 -0.9128191
-0.5747263 -0.5261865 0.14935169 1.5115337 0.6050303 0.56460744 -0.83522266 0.27688158
-1.8865571 -0.2873283 0.15497623 -1.3251436 -0.8923988 -0.5705717 -1.7440327 0.7921897
1.6380541 1.7666656 1.0045432 1.6984638 -1.3236808 0.71657103 -0.22788572 -0.218852
-1.8114946 1.1528059 0.54509693 0.43639597 0.32035148 -0.5659066 1.0560683 0.115042344
0.92744154 -0.44511825 -1.3863348 0.22030671 -0.12145362 0.23902038 0.14394888 0.3637443
-1.1696041 -0.73312247 -0.5972207 0.08813438 0.7743962 1.1526115 0.4511704 0.63235146
0.25982952 0.2910566 0.037707865 -1.6358242 0.30639002 0.59268993 -0.07766582 1.133556
-0.3813473 0.28534773 0.19683403 -0.82506746 -0.4924919 -1.0656283 0.41107723 -0.33512875
-1.535685 -0.63690263 0.5987996 0.9805605 0.295782 0.78435683 0.038173538 -0.87129885
-1.644073 -1.1319664 -0.22981046 0.50752103 -0.538406 -0.3300165 0.73526245 0.6959875
0.22160141 -0.6898806 -0.2645699 0.670827 0.7169025 -1.0002605 0.20335847 1.4873829
-1.1905273 0.75622773 0.32947403 -1.2831366 1.5445722 0.91567254 0.38638818 0.45256993

39 f4 [16]
00000000: e924 b6bf e749 5440 60ab adbe 09c0 253f
00000010: 11dd 583f 94ff d63e 8640 1740 14c3 20c0
00000020: 8bf2 61bf 5101 113f 37d2 3640 2972 5abf
00000030: 832f a140 97b5 a23f c6b2 1ac0 22c1 5740
-1.4230014 3.3170106 -0.3391981 0.6474615 0.8471232 0.41991866 2.3633132 -2.5119066
-0.88260716 0.56642634 2.8565805 -0.85330445 5.03705 1.2711667 -2.4171615 3.371163

fc.0.bias f4 [528]
00000000: 5539 ff3b e764 e93d ca13 5f3d 634a ca3d
00000010: a6c8 983d 780d 75bc 9b40 9e3d 5197 b33d
00000020: 037b 8cbb efe2 e4bb b5c7 bbbc ff35 283d
00000030: d07d 4f3d b962 8fbb 4968 c0bc 070c b7bc
00000040: e189 903c f7eb be3d e2e5 0d3d 48dc aa3d
00000050: f722 853d abe4 ff3b 9216 813d 42eb f03c
00000060: bc2a d73c fb42 333d 4eff 3d3c 23f6 9a3c
00000070: b145 fd3d 856f d8bb f7f8 5e3c d7c5 9d3d
00000080: 358f 7c3d 7a84 403d 0649 d43d 0693 733d
00000090: 1ef6 8cba b134 7d3c d5ac 51bd 6c02 ce3d
000000a0: 3e8e 523d cfe8 813b e5bb 983c 059f ec3d
000000b0: d181 ac3d 7ccd 81bc 9d60 7f3d 49c2 4fbc
000000c0: b561 d33d dac4 19bd 46d6 323c d659 463b
000000d0: 650e 59ba 3c0e 563d f73b 213d 6930 b33c
000000e0: 5e4c 4d3c 5e47 0b3a a1de ef3d 2ecf df3d
000000f0: 42b2 28bb c42f 1fbd 4fe2 0abd 2d11 913d
00000100: 6216 0b3d 09c6 3a3d d374 033e 3db2 f13d
00000110: ad0e 45bd 0b3c 7c3d df30 6a3c 88c0 dd3d
00000120: 3ab6 61bb 7615 ae3c 54a6 183d dd8f 31bd
00000130: 3a21 ce3d ee7a bc3d f10d e13c f5e7 2b3b
00000140: edb5 e13d 0729 11bd bf45 23bd 5e27 d03d
00000150: e1a4 37bc 7cf7 043d 5a9a 063e 4e40 b93c
00000160: 6725 95bd b3b0 9c3d 73b2 3b3d 6b69 c03d
00000170: 5d56 0f3c bd6c 68bd 6c6b bbbd d442 093d
00000180: fc49 0b3e 540c b43c 5be9 80bc 479a 7d3c
00000190: c439 a03a 59f1 c73d a63a 813d 9b2a b03d
000001a0: ae44 e0bc 1dce ca3c fe3f 963d 9d48 0b3c
000001b0: 668b a13d 87e0 9d3d 0c4c 833d cc7a c5bd
000001c0: ac2d 893c 5777 b63c 770f 8a3b b6ec 8e3d
000001d0: ff6e 17bc f84e b0bc a1b9 87bc 7851 6d3d
000001e0: 4389 873c e836 d73c 3dfe a83d 47f1 0f3d
000001f0: 31f9 df3c d6b1 123d e995 2bbd 6611 6bba
00000200: 229c fc3c e657 8abc 94cb a9bc 8f4c e6bc
00000210: f70c 053d 7a8f 81bc e93a b3bb a6c2 1bbc
00000220: a29b 023e 42ed 1fbd e9ff 6b3b ef08 4d3c
00000230: 77ef b9bc c381 053e 0433 ba3c 4430 42bd
00000240: 6082 3bbd 50e9 ef3c 99f3 493d ab41 7e3b
00000250: bd64 85bc 888a 263d 489e 813d 4d94 adbd
00000260: 6884 423d ac4f 203e 291d 143e e132 bd3c
00000270: 6e82 24bd faaa 0f3c 7a1f e03b 108c 8cbd
00000280: 9022 b33d cd1a 97bd 9135 803d 8f5c 9e3d
00000290: b96a 133d 46cb b1bc 762f e3bb 9a99 d93d
000002a0: 2c32 4cbc b921 7bbd 88b4 e4bc f8db 75bc
000002b0: 3f98 073d a7b2 f03d 27da 55bc a134 4dbd
000002c0: c65d 693b c305 f63c a4bf 973d de0c 07bc
000002d0: 6102 0c3e 3dec d93c 6531 d5b9 2cfb 6539
000002e0: 2052 d93d 8123 ea3d a51b 48bc 60f0 ab3d
000002f0: f33c 173d fca7 d73d 1315 913d f651 1cbd
00000300: 5511 283d f6bf ce3c 2f59 8fbd ce38 b63d
00000310: c9dc 9d3d 2d22 893d 7841 423d cc1b 403c
00000320: 903c 3e3d aea1 af3d d38e 52bb 4117 663d
00000330: b490 5f3d 2bf3 9a3d 7df9 5bbb e22c 893d
00000340: 2ebe 44bc a192 043c 8eb0 bc3d 9c14 ab3d
00000350: 7a29 523d f6d4 ad3d 317a 113d 81d1 c23d
00000360: e3a8 c03d 461b ef3c 8484 ce3d d0f5 a43c
00000370: c09a 83bc 0bf1 0c3d 28a2 0dbd 8fe4 2e3b
00000380: 3d8b 083c d943 cd3d f2f1 c73d 66a3 e03d
00000390: f1c2 043e b462 55bc 3358 2e3d 8255 883d
000003a0: ad4a 3d3d e163 f13d 8672 113c 460a 05bb
000003b0: ea81 8dbb 637e bdbd 0a82 f63d 60d5 633c
000003c0: c031 e33d 0876 c63c 7694 cfbb 3020 083d
000003d0: e973 be3d 24be b53c cfcf 563d 2515 08bd
000003e0: 60a6 c73d 2b50 073e cb97 b23c f025 e4ba
000003f0: 56c0 293b 6313 933c bde2 423d 6ece fa3a
0.007788817 0.11396199 0.05446223 0.098774694 0.07460146 -0.0149568245 0.07727166 0.08769096
-0.004287125 -0.0069850604 -0.022922376 0.04106712 0.050657094 -0.0043757823 -0.023487227 -0.022344602
0.01764387 0.093223505 0.03464306 0.083427966 0.0650081 0.007809242 0.06303133 0.029409055
0.026265495 0.04376505 0.011596514 0.018916195 0.12366808 -0.006605091 0.0136091625 0.077037506
0.06166001 0.04700134 0.103654906 0.059466384 -0.0010754501 0.015454457 -0.051190216 0.10059056
0.051405184 0.0039645205 0.018644283 0.11553768 0.08423198 -0.015845053 0.062347997 -0.012680599
0.103213705 -0.037541248 0.010915345 0.0030265949 -0.0008280038 0.05225967 0.039363828 0.02187367
0.012530414 0.0005313064 0.11712385 0.10928188 -0.0025741016 -0.038863912 -0.03390723 0.07083354
0.033956893 0.045599017 0.12837534 0.118015744 -0.0481097 0.0615807 0.014293878 0.10827738
-0.003444089 0.021250468 0.037267998 -0.04335009 0.10064931 0.092031345 0.027472468 0.0026230786
0.11021028 -0.035439517 -0.039861437 0.10163759 -0.011208744 0.032462582 0.13144818 0.02261367
-0.072825246 0.0765089 0.04582448 0.09395107 0.008748618 -0.056744326 -0.091513485 0.033510998
0.13602442 0.021978535 -0.015736273 0.015478677 0.0012224247 0.0976283 0.063100144 0.08601876
-0.027376499 0.024756486 0.07336424 0.008501199 0.07887916 0.07708841 0.06410989 -0.09642562
0.01674541 0.022273703 0.0042132693 0.06978743 -0.009242772 -0.02152203 -0.016568007 0.057939023
0.016544944 0.026271299 0.08251617 0.03514221 0.027340503 0.03581413 -0.041891012 -0.0008967131
0.030836169 -0.016887616 -0.020726956 -0.028112678 0.032483067 -0.015815485 -0.005469669 -0.009506857
0.12754682 -0.039044626 0.0036010689 0.012514337 -0.022697194 0.13037781 0.022729404 -0.04740931
-0.045778632 0.029286057 0.04930458 0.0038796465 -0.016283387 0.040659457 0.06329018 -0.08475552
0.047489554 0.15655392 0.14464249 0.02309555 -0.04016345 0.008768791 0.00683969 -0.06862652
0.08746827 -0.07378159 0.06260217 0.07732498 0.03599045 -0.021703374 -0.006933148 0.10625
-0.012463134 -0.061311457 -0.027918115 -0.015006058 0.033104178 0.11752825 -0.0130525 -0.05009902
0.0035608872 0.030032044 0.074095994 -0.008242814 0.13672782 0.026601905 -0.00040663328 0.0002193271
0.10611367 0.11432553 -0.012213622 0.08395457 0.03692336 0.10530087 0.07084098 -0.0381641
0.041032154 0.025238018 -0.06999432 0.088975534 0.07708127 0.06695972 0.047425717 0.011725377
0.046444476 0.0857576 -0.0032128587 0.05617452 0.05458136 0.07565912 -0.0033565455 0.06698014
-0.012008233 0.0080916 0.09213363 0.0835354 0.051309086 0.08487885 0.03551692 0.09512616
0.094072126 0.02918781 0.10083869 0.020136744 -0.016065001 0.034409564 -0.034578472 0.0026686525
0.008333978 0.100227065 0.09762944 0.10968666 0.12964989 -0.013024021 0.042564582 0.06656934
0.046213794 0.117866285 0.008877402 -0.0020300313 -0.0043184655 -0.09252622 0.12036522 0.013905853
0.110934734 0.024226204 -0.0063348366 0.03323382 0.09299452 0.022185393 0.052444275 -0.03322329
0.097485304 0.13214175 0.021800896 -0.0017406326 0.0025901995 0.01795358 0.047579516 0.0019135007

fc.0.weight f4 [528, 64]
00000000: 2e59 fd3c a632 ae3d 9b4d dc3d d7ea c13d
00000010: 2d5f b93d 1d82 143e 5fa8 b73d abed 383d
00000020: 2cb6 2abb 339a babc b661 a1bd 3b10 bebd
00000030: 7cff 7f3d d25c 233e 3e60 373d 2c8f 143e
00000040: e210 e43b bf04 173d a7f4 873d 57f2 113d
00000050: df35 913d 06bc 543d a858 e4bd e0a8 9b3d
00000060: 264d 7f3d ffc3 3abe eed1 7dbc 3ccc 84bd
00000070: 5b69 083d 7fd5 173e eb1d 393d 436e 843b
00000080: 032d 283d bead 423e 14ff 06bd d207 a73d
00000090: a7d6 a23d 21c4 ce3b a785 a63d 748d 863c
000000a0: 7c32 463d 4584 2ebe 342e eb3d 5dc4 92bd
000000b0: a0ab b8ba 2f6a 803d e975 89bd 8a8e b7bd
000000c0: 514a fa3d f516 553d 5727 ba3d 619b bb3d
000000d0: 2e91 aebd e13a 80bd 791a 12bd 46d5 223d
000000e0: 36f4 a73d dcf9 8d3a 83f0 42bd c0ad 40bb
000000f0: 3ce5 583b 87ea f8bd 50e4 bf3b 72c8 08be
00000100: 89d2 533c fd61 163b 53b6 323e 624d 273e
00000110: a393 993d 44b4 b43c d3e5 6bbd 7f81 a53d
00000120: 1b14 aabc 0aa6 a53d e651 8cbd f7be 153e
00000130: 3186 2a3d e896 bbbd 1277 35bc d43e 0e3d
00000140: 8092 08bd 0b0b 073d de15 163c add8 dd3d
00000150: 5648 61bc 2d8c 8e3d 3b0d 343d 03b6 04be
00000160: 77eb 843d d6ab 5ebc 3186 a1bc 5b01 65bd
00000170: c8d8 2a3d 728b 0e3d c459 1cbd 970f 253d
00000180: 1613 2c3d b0f6 a43d 176c 8a3d a2ca 1f3e
00000190: 31e8 1bbd a2b3 5a3c 7b55 ec3d bbee 7e3d
000001a0: 0ef0 163e 22c6 95bd a7e9 9fbc 6886 fc3d
000001b0: 82fc b0bc 176f 193d 0506 e7bc ee32 c33d
000001c0: 2048 193e 2f6a 7fbd 479b 853d 287a febc
000001d0: 148b 3e3c eb10 12bc 5314 d0bd 87f0 d6bd
000001e0: 41da 11be b662 773c 02c9 133e a119 a53c
000001f0: 3e18 d4bd bc99 733d 2503 17bd 6dd0 eebd
00000200: 0300 613d 1261 3cba 0d04 78bc 54f4 cd3c
00000210: 8d41 62bc 578f 7c3c 0c31 143b 7109 b03d
00000220: 725c 06bc 6e7a 0a3c 9554 f63d 6efa e43d
00000230: 3cbf ad3d 7556 e3bb 8f7c e53d 4528 113e
00000240: 885e 383d 61cc c23d 9774 13be fbe6 143e
00000250: bb73 a73d 5acc fe3d 19e6 b0bd 0e2d d63c
00000260: e52f 83bd 1e72 a23d d1db 9fbc 152d 3c3d
00000270: 31ba 8b3c a93c 6a3c 2888 83bb 4452 e53d
00000280: 5ae1 92bd 2064 c7bd a44d 56bc 5d27 a4bd
00000290: cd73 93bb 5135 ce3d aef6 0c3e 1d68 ddbd
000002a0: 14d9 373c 5eba 783d 0762 00bc 8a7c 813c
000002b0: 8753 a0bd 7c50 c03d 567a 5c3d bda5 993d
000002c0: 21c8 0b3e 0da7 f43b 67d4 b93d 311e 28be
000002d0: f255 5ebd a312 83bc 8a84 c8bd 5637 75ba
000002e0: 6537 97bd 4a10 9a3d 46b0 ae3d ece3 58bd
000002f0: cbe2 a9bc 9b27 973b 00dc 52bd 1f90 96bd
00000300: 8a0b 083d f7b8 713c 4a02 1ebd 8396 31be
00000310: 1a5d cd3b 4100 693d a8e4 a53d ee27 ee3d
00000320: a5a2 233b 0b01 00be 6345 08be 718f 2abd
00000330: 8695 9cbd 5253 4dbd 977e 293d 6bca 9bbd
00000340: a444 843a 5345 573e ff64 e23d ddbe 213d
00000350: d5f4 463d 9420 023e 60f8 32be f5ad 003e
00000360: ce60 703c 042d 42bd f9fb e0bd cc1d a5bd
00000370: 1b35 29bc ed79 5cbd e22c 123e 2dc0 ac3d
00000380: ca05 a0bd c22c 1fbe d104 ec3d fb60 fb3d
00000390: a880 f93d dd7b 8e3d c2ba 21bc c9d8 d0bd
000003a0: 4f12 c13d 4ef0 323e ad78 ddbc 97f3 a43d
000003b0: 8c36 823d dc34 bb3d 4a06 c13d 31bd 463d
000003c0: d9a0 a6bd 261d fc3d 7339 a93c ef5a 8c3d
000003d0: 3f38 253d 3129 893d fab9 8d3e decc c63c
000003e0: 03fc 9b3d ee09 f9bc a933 f4bc 121f 8dbd
000003f0: 9ee8 313e b2ad 353c 5996 773d d92c 1bbd
0.030926313 0.08505754 0.107569896 0.0946862 0.090513565 0.1450276 0.08967661 0.045148533
-0.0026048524 -0.022778606 -0.07879965 -0.092804395 0.06249951 0.15953377 0.044769518 0.1450774
0.0069600204 0.03686976 0.066384606 0.035631504 0.07090353 0.051937126 -0.11149722 0.0760057
0.062329434 -0.18238829 -0.015491946 -0.06484267 0.0333036 0.14827536 0.045194548 0.0040414645
0.04105855 0.1901159 -0.032958105 0.081557885 0.07951098 0.0063100015 0.08130961 0.016424872
0.04838799 -0.17042644 0.11483422 -0.071663596 -0.0014089234 0.06270253 -0.06711943 -0.08962734
0.12221206 0.052023847 0.09089535 0.091604955 -0.085237846 -0.0626123 -0.035669778 0.039754175
0.082008764 0.001083191 -0.04759265 -0.0029400438 0.0033095619 -0.121541075 0.0058560744 -0.13357714
0.012928613 0.002294659 0.17452364 0.16338113 0.074988626 0.022058614 -0.057592224 0.0808134
-0.02076154 0.0808831 -0.068515584 0.14623629 0.04163188 -0.091596425 -0.011075752 0.034727886
-0.03334284 0.032969516 0.009160487 0.10832343 -0.013750156 0.0696033 0.04395793 -0.12960057
0.06490224 -0.013590774 -0.019717308 -0.055909496 0.041710645 0.034800954 -0.038171545 0.04029807
0.04201039 0.080548644 0.06758898 0.15604642 -0.03806323 0.013348492 0.115397416 0.06223939
0.14740011 -0.073131815 -0.019520594 0.123303235 -0.02160478 0.03745946 -0.028201113 0.095311984
0.1496892 -0.062357124 0.065237574 -0.031064108 0.0116298385 -0.008915166 -0.101601265 -0.10495096
-0.14243414 0.015099218 0.14432147 0.020153822 -0.10356186 0.059472784 -0.036868233 -0.11660848
0.05493165 -0.00071860955 -0.0151376845 0.025140919 -0.013809574 0.015415034 0.0022612242 0.08595551
-0.008200752 0.008452041 0.120278515 0.11180578 0.08483741 -0.0069377967 0.11205398 0.14175518
0.045012027 0.095116384 -0.14399944 0.14541237 0.08176371 0.12441321 -0.08637638 0.02614453
-0.064056195 0.079319224 -0.019513996 0.04594143 0.017056556 0.014296689 -0.004014034 0.111973315
-0.07171889 -0.09735894 -0.013080034 -0.080153205 -0.0044998885 0.10068763 0.13765976 -0.10810874
0.011221189 0.06072461 -0.007835872 0.015806455 -0.078284316 0.09390351 0.053827606 0.07502315
0.13650562 0.007466203 0.09073716 -0.16417767 -0.054281183 -0.016000098 -0.09790905 -0.0009354254
-0.073836125 0.07522638 0.08529715 -0.05295174 -0.020738026 0.0046128756 -0.05147934 -0.07351708
0.03321413 0.014753572 -0.0385764 -0.17342572 0.006267202 0.056885008 0.08100253 0.1162871
0.002496877 -0.12500398 -0.13307719 -0.041640703 -0.07645707 -0.05012829 0.04138049 -0.076069675
0.0010091257 0.21022539 0.1105442 0.039488662 0.048573334 0.1270774 -0.1747756 0.1256636
0.014671518 -0.04740621 -0.1098556 -0.08062324 -0.010327603 -0.053827215 0.14274934 0.08435092
-0.07813604 -0.15544418 0.11524356 0.12274357 0.12182742 0.06957219 -0.009871187 -0.101975985
0.0942732 0.17474481 -0.027035082 0.080542736 0.0635806 0.091409415 0.09425028 0.04852027
-0.08136148 0.12310247 0.020657277 0.06853282 0.040336844 0.0669731 0.2768095 0.02426761
0.07616427 -0.030400243 -0.02980979 -0.06890692 0.17373893 0.0110887755 0.060446117 -0.037884567

fc.3.bias f4 [264]
00000000: 6c7f ebbb 8b5d f3bc 27e6 13bd 1c7b 15bd
00000010: 399b d23a f26c f3bc 6b68 b3bc 58c7 9ebc
00000020: f069 b83a 455a a7bc ab24 bfbc 93d6 7bbd
00000030: fbd3 6f3c 209f ba3a e348 cabb 4058 9ebc
00000040: 018a b63c 7743 b5bc b685 33bd 4344 27bd
00000050: 95af 5fbc 2e53 11bd dc55 80bc 5478 be3c
00000060: ac57 49bc cde2 803c db3a 9f3a dff4 00bd
00000070: 48b9 e0bc ad13 8d3c 83c3 99bb 3c4d e3bb
00000080: ec14 23bc 55dd 88bc 7137 ed3a 1ad1 f2bb
00000090: a24c 42bc b2a7 13bb 5523 543c 635d 2ebc
000000a0: a11a 69bc 2994 fabc 34a3 85bd 6aaf 6cbd
000000b0: 8ebd 153d 98f6 c5bb 6d24 c9bc 30e2 b6bc
000000c0: feee 27bc 218b 0cbb d3e6 163c d7f0 603c
000000d0: a825 b1bc 98c6 32bd a033 2cbc ec50 163d
000000e0: 7f21 df3c b4cc 393c a96c 9ebb ba48 45bc
000000f0: a948 7ebc cd37 6abd d3da c3bc 31d5 c33c
00000100: a5d4 8a3c 6d83 8cba 0c71 873c 4dca 00bd
00000110: 2bea 2abd a77f 5e3a 3b1b 7fbc 3154 a0bc
00000120: 2fe0 d4bc cc4f dabc c63e 09bd 3a22 67bd
00000130: e2bf 0a3b 0738 8ebb fbd3 65bc 9daf 85bb
00000140: 9363 ddbc 2473 8ebc b2a4 ba3b 733b 103c
00000150: 34e9 853c 63b7 963c 8820 f4bb 682b 9b3c
00000160: d924 c7bb 7afe 8bbc 1726 10bc 452c 153c
00000170: 8325 be3c 36af 56bc 97b4 263d 55ad cdbc
00000180: bd00 89bc 52d7 13bd 7333 86bc 1b62 13bc
00000190: 3c1f 0bbc f1e6 ecbb c0ce 8d3c 1a9b 7fbb
000001a0: b8a7 01bd 9117 21bd bf54 c13b 22bd dbbb
000001b0: 27d6 003d d34d 45bc 6eed 853c 33f8 8aba
000001c0: f1b6 c9bc 2753 9d3c bff4 1abc 572e e93c
000001d0: 17ed 463a 8948 a6bc 6cc0 bebc e990 22bb
000001e0: 7131 5f3c ec9c b6bc e99e 9fbc 3dd5 0a39
000001f0: 077e 1e3d bd9b 17bd a59d edbb 042c a53b
00000200: 7d76 eebb 4008 82bc ddca 18bb 60c4 c33c
00000210: 7fae 0fbd bdbd 963c ab63 3b3c fb2d 2dbc
00000220: 37b9 9c3c f7c4 20bd 48e5 ee3c 2420 7fbc
00000230: 8495 29bb c293 19bc 04f2 66bc 90c5 0fbd
00000240: e240 04bd 4f56 91bc 58b6 0abd 4893 8e3c
00000250: ea68 e0bb 315d 193d 7c01 5c3c a028 12bb
00000260: 9385 e0bc 1565 60bc db2c 923d 6e21 8e3c
00000270: 1d0f 19bd df56 743c cece 43bc 9608 c53c
00000280: 14f4 313c be4d 893c 0ed1 783c 2768 74bd
00000290: 44a5 f23a b37b 1d3c 7f43 5abb e34b 0abd
000002a0: 14b8 63bc b1ec bbbb affc 1dbc 70bf 09bc
000002b0: 7865 263b d865 26bc 72e8 53bc a1f1 81bc
000002c0: 5409 9fbc ea66 a03c 58f0 5a3b 61be b3bb
000002d0: daba d1bc 2b90 ac3c 89e4 d53c 7dba 2dbd
000002e0: 020b d3bc 36ab 103c 271a 513c 83eb d4bb
000002f0: bde9 a13b 454c 9d3c 6232 26bc 7d22 80bb
00000300: b8fd c7bc 1762 88bc e26a 0fbd d2ed 4f3b
00000310: 2aa0 aebb 5fe1 3a3c a079 a8ba 0369 083d
00000320: 3ab3 603c 9271 8ebc 563b 583c e13c 52bc
00000330: ac72 8cbc e48d d2bc 9cca 6bbc ffa0 183d
00000340: 6b5c 66b9 185a 213c ab83 6b3c b400 973c
00000350: 6f58 62bc bec5 0d3c f3ca 33bd 018f 3dbc
00000360: 0aac cebc 14a2 3bbb 186b b3bc 5f6f 49bd
00000370: e347 923c fbf5 413c b22d c93a 83d6 b53c
00000380: 3f33 42bc 3b7f fb3c af55 8c3c 2709 98bb
00000390: ed37 debc d94b 2d3d 08eb 83bb 24fd 8c3d
000003a0: c87b 1f3d d5fa a9bc c04b c9bc b2eb 1b3d
000003b0: df5f 3c3d 2c4a 5f3c b43b 8b3c 1cb6 bcbb
000003c0: 460a 663d 8b05 6a3c 1b2f 0ebd d2c2 d3bc
000003d0: 017f 7f3c 76d3 65ba 598a 20bb 842a 803d
000003e0: 3c3e 93bc 2bbb d13b 66af a5bd ec34 223a
000003f0: 5842 003d 1f62 7ebc 7211 63bc 0ea8 c3bc
-0.0071868207 -0.02970769 -0.036108162 -0.03649436 0.0016067988 -0.029715035 -0.021900376 -0.019382164
0.0014069658 -0.020428786 -0.023332914 -0.06148393 0.014637942 0.0014238097 -0.0061732396 -0.01932919
0.022282602 -0.022126896 -0.04382869 -0.040836584 -0.013652702 -0.035479717 -0.015665941 0.023250736
-0.012288969 0.015733147 0.0012148278 -0.031483527 -0.027432099 0.017221296 -0.0046924963 -0.0069366973
-0.009953719 -0.016707102 0.0018098188 -0.0074101808 -0.011859091 -0.0022530374 0.012947877 -0.010642382
-0.01422754 -0.030588226 -0.06525269 -0.057784475 0.036557727 -0.006041359 -0.024553502 -0.022324651
-0.010249851 -0.0021445232 0.009210306 0.013729296 -0.021624401 -0.043646425 -0.010510355 0.036698267
0.027237652 0.011340309 -0.0048347306 -0.012041265 -0.015520253 -0.057182122 -0.023908054 0.023905369
0.0169471 -0.001072032 0.016533397 -0.03144293 -0.041727226 0.00084876496 -0.015570457 -0.019571396
-0.025985805 -0.026649378 -0.03350713 -0.056429125 0.00211715 -0.004340175 -0.014027591 -0.0040797726
-0.02702502 -0.017388888 0.0056959027 0.008803236 0.016346551 0.018397992 -0.007450167 0.018941596
-0.0060773906 -0.017089117 -0.008798144 0.009104793 0.023211246 -0.013103297 0.040699568 -0.025107065
-0.016723985 -0.036094017 -0.016381955 -0.008995558 -0.008491334 -0.007229679 0.0173105 -0.003900236
-0.03165409 -0.039329115 0.005899995 -0.006705896 0.03145423 -0.0120424805 0.016348567 -0.0010602534
-0.024623366 0.01920469 -0.009457766 0.02846448 0.000758843 -0.02029826 -0.023285113 -0.0024805611
0.013622628 -0.022291623 -0.019484954 0.00013240143 0.038694408 -0.037013758 -0.0072514587 0.0050406475
-0.0072773085 -0.015873075 -0.0023314275 0.02389735 -0.03507852 0.018401021 0.011437337 -0.010570045
0.019131286 -0.03925034 0.029162064 -0.015571628 -0.0025876472 -0.009373607 -0.014095787 -0.03510052
-0.03228844 -0.01774135 -0.033865303 0.017404214 -0.006848444 0.03744239 0.013428088 -0.0022302046
-0.027407443 -0.013695975 0.07137462 0.017349925 -0.03736793 0.01491329 -0.011951162 0.024051946
0.010861415 0.016760703 0.015186561 -0.05966964 0.0018512388 0.009612012 -0.003330439 -0.033763777
-0.013898868 -0.005735003 -0.009642764 -0.008407459 0.002539007 -0.010156117 -0.012933837 -0.015862288
-0.019413628 0.019580323 0.0033407416 -0.0054853414 -0.025601793 0.021064838 0.02610995 -0.042414177
-0.025762085 0.008829882 0.012762583 -0.0064978017 0.004941194 0.019201407 -0.010143848 -0.0039103613
-0.024412975 -0.016648335 -0.03501404 0.0031727445 -0.0053291516 0.011406272 -0.001285363 0.033303272
0.013714606 -0.017388139 0.013197741 -0.0128318975 -0.017144524 -0.025702424 -0.014391568 0.037262913
-0.00021968938 0.00984814 0.014374654 0.018432952 -0.0138150295 0.008653102 -0.04389472 -0.011569739
-0.025228519 -0.0028630542 -0.021901652 -0.049178477 0.017856544 0.0118384315 0.0015348701 0.022197014
-0.011853038 0.030700317 0.0171307 -0.004639763 -0.027126277 0.042308662 -0.0040258206 0.0688422
0.038936406 -0.020749489 -0.024572253 0.038066573 0.045989867 0.013628524 0.016996242 -0.005759014
0.05616214 0.014283548 -0.034712892 -0.025849734 0.015594245 -0.0008767167 -0.0024496524 0.06258109
-0.017974012 0.006400486 -0.08090095 0.00061876955 0.03131327 -0.015526324 -0.01385914 -0.023883846

fc.3.weight f4 [264, 528]
00000000: 36e1 233a 5551 343d aa48 71bd d966 2c3d
00000010: e561 53bd 295d d33c b236 d8bc 93a0 483d
00000020: 8344 bd3b c23e 043d ae86 053d 1e39 82bd
00000030: 809c 343c f0a1 323d e465 313c 9af9 3b3d
00000040: 2c45 a43a c40d 363d f11c 2abd 0364 523d
00000050: f95b 833d aaa7 20bc 9849 00bd 61d3 43bc
00000060: f030 bc3c 027f 1abd 478e 0b3c 9929 e93c
00000070: 61c9 0ebd dbde c63c 8707 16bd 2962 3abd
00000080: 3d4d 93bd a67f 3bbd c2a2 153c 7051 6e3c
00000090: d205 37bb 97b4 4ebd e816 b53b bae0 ccbc
000000a0: d940 9fbc 9da3 44bd c33f 793c d748 55bd
000000b0: 124f 3c3b 685b 1b3d b316 58bd 6a02 fa3c
000000c0: d5bc 123d bcab c3bc e4f4 533d e670 8dbd
000000d0: f541 863d b650 36bd 3e31 803d f275 1abd
000000e0: 96de 10bc 39c2 8b3b 89fa 5ebd 4fca 80bd
000000f0: 8059 f6bc b7ed 803c 1453 0d3d 5013 04bd
00000100: 88c9 2fbd 28e5 513b 01bd b3bb 33c7 ca3a
00000110: edf6 5abd 5c92 513c 2fff a03d 8757 3dbd
00000120: 767c 6dbd f820 6bbd 5925 0cbd a50d d93c
00000130: fbd3 063b 3165 863d 7b07 40bc 960b d63c
00000140: f48b 34bd 9b55 a4bc a973 f73c 5d62 e1bd
00000150: c47a baba d4c2 dbbc 3b9c 80bd df7e c3bc
00000160: 298c 5d3d 8a27 4bbd f259 2abd 4467 17bd
00000170: 1c7e 63bd 36a3 ecbc 0382 663d eb7d 6d3c
00000180: 6baf 61bc 0627 85bc 3916 9fbb 7c3a cdbc
00000190: e007 3dbd 601c 353d 5386 62bd 12c2 3f3d
000001a0: 1ee9 a5bc 765f 503d 8938 483d 3c66 5d3b
000001b0: 9591 30bd 8780 7e3d da91 2dbd 0b75 403c
000001c0: 688f 013d 5e29 64bd f7c2 713d 2b9e dabb
000001d0: d29a 89bd bd1c c3bc 9cb5 3cbd ce54 3e3d
000001e0: d82d 0ebd 92fb 81bd 8e0d 2bbc 0dde 35bd
000001f0: 424f b0bc 01dd 2cbd 92a8 ef3c 5af7 9ebc
00000200: f4ba 093d 6fb5 a6ba 79a6 4d3d f75c 563c
00000210: 5021 743d 0f0f eb3c bbb0 71bc 9bb0 043d
00000220: 2b9b b9bc 7fc9 e03c 3a42 74bd da0c 7a3d
00000230: cb22 f0bc 8649 273c a0fc 073d 636d 973d
00000240: 9154 d33c 6e35 293d 90e3 423d 1fa5 2f3d
00000250: 3584 1ebd 2d65 8439 ec1b 6f3d 02da a93b
00000260: d905 47bd 1371 a3bd d262 8e3d a893 833b
00000270: d0ab fdba 456a 2d3d a104 44bd 48cf 23bd
00000280: 225d 223c 20a9 143d a69f 823d 6e44 f5bc
00000290: 099a 48bd ece4 c7bc 78eb 783d f94d 1fbc
000002a0: 5aeb 0abd 0a00 db39 3312 f53c 457f 5dbd
000002b0: 882e 37bd 5e96 7abd 0916 46bd 3cfe 64b8
000002c0: 8592 183d a06d 873d de75 2f3d b16d 4dbd
000002d0: 5fd6 82bc 6ed2 d13c 69cf 553d e33b 013d
000002e0: 7344 86bd 164e f43c fa02 833d d316 f63c
000002f0: 6a48 0f3d 9eb2 a1ba e24b 0e3c 14fd bf3c
00000300: 32b7 463d 71f8 a3bb 6fd8 07bd e64a a73d
00000310: 272b 9ebc 026a 6bbc cf29 ac3c cbe9 0abd
00000320: 244c 583c 6c17 f2bc c56e 1dbd d78a 4dbc
00000330: eb3a ba3c 1461 3ebd cc8f bbbc c64d b73c
00000340: 2dfd a93c 0546 193d ddce 92bc 0e00 413c
00000350: 6734 dbb9 5502 74bd d7bc 413d 557e 20bd
00000360: 1960 fb3c b27c 35bd 915e 3bbc c118 b13d
00000370: a68c 0e3d 17b8 4b3c d17e 303d e753 7abc
00000380: 16da 483d 4239 8cbd e21f 5d3d f271 08bb
00000390: f40d fdbc a854 3ebd 2f6a 95bb f22f ee3c
000003a0: 2b5f bd3d e29e 70bd 6c84 29bc fac1 9bbc
000003b0: c1c4 353d e3c0 b3bc 6a60 61bd 2e6a 1bbd
000003c0: cb76 083d 3d34 153d 274d 55bc 6b23 e93b
000003d0: 377c 2ebc 7929 b8bd 5204 26bd 9f69 47bb
000003e0: 0d66 563d aa85 5dbd 748c dfbc 3c20 0a3b
000003f0: ab60 1bbd 5761 983b f6b0 15bd 219f d2bc
0.00062515156 0.044022877 -0.05890719 0.04209027 -0.05160703 0.025801258 -0.026393268 0.04898126
0.0057759895 0.032286413 0.032599144 -0.063585505 0.011023641 0.043611467 0.010827515 0.045892335
0.0012532822 0.04444672 -0.041531507 0.05136491 0.06414027 -0.009805599 -0.031320184 -0.011952252
0.022972554 -0.03771878 0.008517808 0.028462218 -0.03486002 0.024276188 -0.036628272 -0.04550377
-0.071924664 -0.045776032 0.009133043 0.014545783 -0.0027927053 -0.050465193 0.0055264123 -0.025009502
-0.019440101 -0.048007596 0.015212956 -0.05207142 0.0028733653 0.03792897 -0.052756023 0.03051873
0.035824616 -0.0238856 0.051747218 -0.06906299 0.06555549 -0.044510566 0.06259392 -0.037710138
-0.008842131 0.0042650965 -0.054438148 -0.06288587 -0.030071974 0.015738351 0.034503058 -0.03224498
-0.042916805 0.0032027457 -0.0054851775 0.0015470743 -0.053458143 0.012791242 0.078611724 -0.04622605
-0.057980023 -0.05740449 -0.034215305 0.026495764 0.0020573128 0.065622695 -0.0117205335 0.026128571
-0.044078782 -0.020060351 0.030206518 -0.110050894 -0.0014227261 -0.0268263 -0.062797986 -0.023864208
0.054088745 -0.049598254 -0.041589685 -0.036963716 -0.05554019 -0.028886419 0.056276333 0.014495353
-0.013774733 -0.01625396 -0.004854944 -0.025052302 -0.04615009 0.044216514 -0.055303883 0.04681594
-0.02025276 0.05087229 0.04888204 0.003378286 -0.043107588 0.062134292 -0.042375423 0.011746655
0.031630903 -0.055703513 0.059023824 -0.006671687 -0.06718983 -0.023817414 -0.046071634 0.046467595
-0.03471169 -0.06346811 -0.010440243 -0.044401217 -0.021522168 -0.042202953 0.029255185 -0.019405056
0.033625558 -0.0012718866 0.05020759 0.013083688 0.05960208 0.028693704 -0.0147516085 0.032394987
-0.022656998 0.02743983 -0.05963347 0.061047412 -0.029313466 0.0102104 0.033199906 0.07393911
0.02579716 0.04131072 0.0475803 0.04288208 -0.0387003 0.00025252384 0.058376238 0.0051834593
-0.04858956 -0.079805516 0.06952442 0.0040154047 -0.0019353572 0.042337675 -0.047855977 -0.0399926
0.0099099 0.036294103 0.06378107 -0.029939856 -0.048975024 -0.02440115 0.060771435 -0.00972318
-0.033915855 0.00041770964 0.029915905 -0.05407645 -0.04472211 -0.061178558 -0.048360858 -5.459621e-05
0.037249107 0.06612706 0.042837016 -0.050153438 -0.01597136 0.025613036 0.052199755 0.031551253
-0.065560244 0.02982239 0.06397052 0.03004018 0.03498117 -0.0012336557 0.008685084 0.023436107
0.048514552 -0.0050039818 -0.03316539 0.081685826 -0.019307686 -0.014368536 0.02101603 -0.03391437
0.013201747 -0.029552184 -0.038435716 -0.012545309 0.022733172 -0.0464793 -0.022895716 0.022375952
0.020750606 0.03742029 -0.017920906 0.011779798 -0.00041809978 -0.059572536 0.047299232 -0.03918298
0.030685471 -0.04430837 -0.011436121 0.086472996 0.0348021 0.012434027 0.04308969 -0.015278793
0.049036108 -0.068468586 0.053985484 -0.002081987 -0.030890442 -0.046467453 -0.004559777 0.029075596
0.092466675 -0.058745272 -0.010346513 -0.019013394 0.044377092 -0.021942561 -0.05502359 -0.037943058
0.033316415 0.03642677 -0.013018883 0.007114818 -0.010649732 -0.08992285 -0.040531464 -0.0030427945
0.052343417 -0.05408255 -0.027288653 0.0021076342 -0.037933987 0.0046502757 -0.036545716 -0.025710644
