inventory/ark_material.onnx (onnx, 616855 bytes, 8 tensors)

35 f4 [8, 3, 5, 5]
000000 1f 21 f8 bd f0 d7 90 be 27 d1 d4 3e 26 43 e9 be
       -0.12115692 -0.28289747 0.4156582 -0.45559043
000010 9d d5 af 3d 90 f0 23 bf bb 17 6f be e6 f7 e4 bc
       0.085856654 -0.64038944 -0.23348896 -0.027950238
000020 b8 85 fb 3d 27 fc 66 bf 57 a3 3c 3f 5b e4 27 3f
       0.12281364 -0.90228504 0.73686737 0.6558282
000030 d7 aa 3c 3f 88 76 3b bd 8a 87 ba be 0b 8a 69 bf
       0.7369818 -0.045767337 -0.36431533 -0.9122626
000040 48 58 06 be a8 ec 52 3f ae 74 67 3e 7b 7d 2f 3f
       -0.13119614 0.8239236 0.22603104 0.68550843
000050 52 ff 9d 3e 9c d0 b6 be 4d 8f e8 bd 6c 47 1f 3f
       0.30858856 -0.3570603 -0.113554575 0.62218356
000060 1f e8 45 3f 1f 0f 93 be c7 04 87 bd b9 3e a1 3e
       0.77307314 -0.28722474 -0.06592708 0.31493166
000070 b3 89 a1 3e dc 34 12 bf 0c 5c 14 bf 1f dc 10 bf
       0.3155037 -0.57111907 -0.5795295 -0.5658588
000080 76 90 83 3b b6 d0 5c bf fb 4e 24 3f a3 0f c0 3e
       0.004015024 -0.8625597 0.64183015 0.3751193
000090 56 ea d2 be e1 ef bb 3e 0d 89 da 3d cf e8 8a be
       -0.4119441 0.3670645 0.106706716 -0.27130744
0000a0 06 d4 1e bb 93 b5 0b bf f9 40 cf be 2c d1 ac be
       -0.0024235263 -0.54573935 -0.40479258 -0.33753335
0000b0 43 2c 6e 3e 7b 8e 01 3f 70 3a fd 3e cd 54 b3 3d
       0.23259072 0.5060803 0.49458647 0.08756409
0000c0 e5 bf 20 be ec f2 fd be 26 0e 6d 3f 14 64 d1 3d
       -0.15698202 -0.49599397 0.92599714 0.102241665
0000d0 89 79 33 bf f4 99 5f 3e 5e 54 84 be 1b ad 09 3f
       -0.7010732 0.21836072 -0.25845617 0.53779763
0000e0 13 0a 26 3f ca 14 21 bf 12 fe d5 be 4b 08 2a bf
       0.6485912 -0.62922347 -0.41795403 -0.66418904
0000f0 11 0b f9 3d d8 b6 80 3f f2 3b 4c 3f 9e 78 d5 3d
       0.12160314 1.00558 0.7977897 0.104233965
000100 ec ca a8 bd 31 48 42 bf 15 99 c4 bd 00 d7 f4 be
       -0.08241829 -0.75891405 -0.095995106 -0.47820282
000110 55 c8 85 3f 9c 3d 7f 3f 4f 32 8c be 93 6d 5b 3d
       1.0451761 0.99703383 -0.27382132 0.053571295
000120 71 42 99 be a8 91 08 3f 01 03 ab be 8b 87 0c 3f
       -0.29933503 0.53347254 -0.3340073 0.5489432
000130 62 76 96 be 53 e7 27 be 75 7e dc 3e 82 ba a3 3e
       -0.29387194 -0.16396837 0.4306523 0.31978232
000140 f0 7d ae 3e 9e 51 22 be 7d a1 ef bc 4c 80 0f bc
       0.34080458 -0.15851447 -0.029251808 -0.008758616
000150 22 9b 34 3e 6a 15 cd bd 6e b1 5b be bb 38 15 be
       0.17637303 -0.1001385 -0.21454403 -0.14572422
000160 7d 48 cd 3e 07 18 6f be ec 7c 1f bd bb 70 6e 3e
       0.40094367 -0.2334901 -0.038937494 0.23285191
000170 18 6a fe 3d 75 d5 ff 3e ba b5 cd 3b a1 c3 e3 be
       0.124225795 0.49967542 0.006277767 -0.4448519
000180 82 bd 62 3e 72 18 d4 3d e8 9a 39 be da f3 27 be
       0.22142604 0.10356225 -0.18125498 -0.16401616
000190 1b be 25 bd 31 61 a4 3b 64 d1 eb 3e c5 ea 4b bd
       -0.0404645 0.005016469 0.4605819 -0.04978444
0001a0 d8 0b 0a 3f e6 9a 0f 3e a8 8e b3 bc 5d 19 de bd
       0.5392432 0.14023933 -0.02191861 -0.108446814
0001b0 93 dc 42 3e f2 a3 4a 3e c5 18 26 be 00 ad 96 be
       0.19029455 0.19789103 -0.16220386 -0.29428864
0001c0 64 28 f3 3e 41 1a 64 bd 95 8b 33 3f 11 6b 1c bf
       0.47491753 -0.0556891 0.7013486 -0.6110087
0001d0 c4 4a 74 be 3a 4c 3f be 19 e0 96 3d 02 84 5e be
       -0.23856646 -0.18681422 0.07366962 -0.21730044
0001e0 09 8b a8 be 02 c9 95 be 62 f7 04 3e 0d c6 38 3f
       -0.32918575 -0.2925492 0.12984994 0.721772
0001f0 2b c4 03 3f c0 f3 aa 3e cb 79 b7 bd a5 a2 44 be
       0.51471204 0.33389091 -0.08958777 -0.19202669
000200 71 8e 4d 3e 86 cd 20 be 58 82 d6 be 01 4d b8 be
       0.20073868 -0.15703401 -0.4189632 -0.3599625
000210 54 09 41 bc eb 49 73 3d 37 40 04 3f 35 19 a6 be
       -0.011782009 0.059396666 0.51660484 -0.32441106
000220 3b 58 82 3e fe d9 89 be 44 e6 89 3e 60 b9 73 3e
       0.2545794 -0.26924127 0.2693349 0.23801184
000230 d6 74 3f bf 6a 4e 5f 3d 12 88 16 3e c7 0d 43 be
       -0.7478765 0.05451814 0.14700344 -0.19048224
000240 a7 41 a1 3e 95 6c 8c be eb 56 c2 3e 4b 13 20 3e
       0.314954 -0.27426592 0.37956938 0.1563236
000250 f8 bb 77 bd c4 61 45 be d8 4a 34 3f d0 8b b6 be
       -0.060481995 -0.19275576 0.704267 -0.35653543
000260 1c 1b a6 3e 7a 54 09 3f cd 83 32 3e ae 0c 1f 3d
       0.32442558 0.53644526 0.1743309 0.03883045
000270 4e 3b 8d 3e da c6 7a be b3 d7 31 3f 30 55 85 3e
       0.27584308 -0.24489918 0.69469756 0.26041555
000280 d3 18 9b be 68 c8 a8 3c 22 9e c8 3e 6a 92 9f 3e
       -0.30292377 0.020603374 0.39183146 0.31166393
000290 64 fa a4 3d 3e 8c de be bf 2c b5 be 7f 05 ab 3c
       0.08055571 -0.4346637 -0.353857 0.020876644
0002a0 7c 26 d0 be 73 66 fd bd 92 12 0b bf 31 4a 14 bf
       -0.4065436 -0.12373056 -0.5432521 -0.5792571
0002b0 07 7f 5d bf 06 08 93 be 69 1d bf be 25 60 17 3e
       -0.86521953 -0.2871706 -0.37327126 0.1478277
0002c0 0b f3 b4 3d 7b 3c 51 3f d6 d1 83 be d1 bb 0b 3e
       0.08835419 0.8173291 -0.2574603 0.13645865
0002d0 0a ff 92 3d 6e 5d 3f 3f 90 da 0b bd b0 ba 94 be
       0.07177551 0.7475194 -0.034143984 -0.2904868
0002e0 f4 57 ed bd f5 9e ed 3e a5 70 f1 be ee c4 95 be
       -0.11589041 0.46410337 -0.47156253 -0.29251808
0002f0 05 1f 0b 3e 88 3b c4 3e e6 e8 a0 bd 86 95 eb 3e
       0.13586052 0.3832667 -0.07856922 0.46012515
000300 ef 81 c6 be 51 f5 a1 be 48 f7 fd 3e 3f 6e 3b 3e
       -0.38771006 -0.31632474 0.49602723 0.18303774
000310 73 77 62 be 05 78 9a 3e cc a7 eb 3e 03 77 8d be
       -0.22115879 0.30169693 0.46026456 -0.2762986
000320 e1 6f 72 3e e9 f9 53 be 5a 0b cb be e3 42 81 3e
       0.23675491 -0.20700802 -0.39657098 0.25246343
000330 79 5e 38 be 82 2a 74 be 5e 31 a3 3e b6 c4 1f 3f
       -0.18004788 -0.2384434 0.31873602 0.6240953
000340 10 09 db be 93 a8 69 3e 74 f4 02 be b5 08 80 bd
       -0.42780352 0.22818212 -0.12788564 -0.06251661
000350 f2 90 86 be f5 88 83 bd f5 02 d0 be 88 e8 0c bf
       -0.2628246 -0.06422607 -0.40627256 -0.55042315
000360 32 d2 a3 3d b2 cb a9 be 5f 21 ad 3d a4 c7 35 be
       0.07999076 -0.3316322 0.08453631 -0.17751938
000370 a3 b2 e6 bc 4a 31 d6 3d 49 4e 82 be 0b e4 e8 be
       -0.028161353 0.1045862 -0.25450352 -0.45486483
000380 b1 60 1f bf 83 9f 24 be 67 48 53 be b4 be 25 be
       -0.62256914 -0.16076474 -0.20633088 -0.16186029
000390 0f 9b 19 be 6e c3 91 3e 5d 79 89 3e 9c 95 86 bd
       -0.15000556 0.28469414 0.26850405 -0.065715045
0003a0 5f 22 44 bd 92 83 3f be e6 ef 8e be 16 fa a5 bd
       -0.04788434 -0.18702534 -0.27917403 -0.08104341
0003b0 38 03 05 be 85 a3 0b be 69 fb a4 be a2 d1 ba be
       -0.12989509 -0.13636597 -0.3222306 -0.36488062
0003c0 8f 20 68 be bb c1 07 be b7 a8 ab be 31 62 81 be
       -0.2266867 -0.13257496 -0.33527157 -0.25270227
0003d0 1d 49 15 be d6 5d d7 3d 7f 94 f3 bc 39 44 b2 be
       -0.14578672 0.10515945 -0.029733894 -0.34817675
0003e0 e5 0f d5 be 8d 7d 60 be 41 85 6c 3e 8d 6e 00 3e
       -0.4161369 -0.21922894 0.23097707 0.12542172
0003f0 df 0e 15 bd 4e 90 96 3c d3 2c b7 be 1b ac ff 3b
       -0.036391135 0.018379357 -0.35776386 0.007802499

36 f4 [8]
000000 2c b1 55 bf 6b 71 7c bf 1c bb 7a 3f 58 38 b8 3f
       -0.8347347 -0.9861056 0.97941756 1.4392195
000010 66 23 d0 3f 41 32 b7 bd 6a 64 9e 3f 63 dc d3 bf
       1.6260803 -0.08945132 1.2374394 -1.6551632

38 f4 [16, 8, 3, 3]
000000 1e 07 0e bf 7a cb 36 3e 2d 5c 65 bf 73 cd 27 3f
       -0.5547961 0.17851058 -0.89593774 0.65547866
000010 9b 16 36 be 83 30 35 bf 47 ac 1a bf 4e 0f 48 bf
       -0.17782061 -0.7077715 -0.60419124 -0.78148353
000020 5c 0b d4 be 89 92 09 3f 3e 0b 99 3f 94 92 86 3e
       -0.41414917 0.5373922 1.1956556 0.26283705
000030 9f 75 0a 3f c0 7f 36 3e 89 aa 49 bf 46 6a 87 3e
       0.54085726 0.1782217 -0.7877584 0.26448268
000040 e8 b1 48 bf 12 67 a9 bf 2f 4f 89 3e 8c 68 a4 3f
       -0.78396463 -1.323458 0.26818225 1.2844405
000050 a3 e8 3f bf 89 6a 90 3f 16 4c 57 3f fb 48 a6 bf
       -0.7496435 1.1282512 0.8410047 -1.2991022
000060 24 93 f5 3b 43 4b e9 be 99 c2 f1 be e3 27 cb be
       0.007494347 -0.45565233 -0.4721878 -0.3967887
000070 e9 d0 28 3f df 40 18 bf 78 fc 6e 3f 95 45 b8 3f
       0.6594377 -0.59473985 0.93353987 1.4396235
000080 14 c1 82 3f 9a c5 ce 3e 0a d9 bb bd 2b 27 b9 bf
       1.0215173 0.40385133 -0.09172256 -1.4465078
000090 f8 74 13 bf 9e bf ed 3e 2c 7a 5d bf 04 23 7d bf
       -0.57600355 0.46435255 -0.86514544 -0.98881555
0000a0 c5 42 aa 3f 97 6c 0e bf 21 6f 96 be 7f cd 75 3f
       1.3301626 -0.55634445 -0.2938166 0.9601669
0000b0 5a 05 c4 3e 19 25 0f 3f d8 41 5a 3e 6a 19 54 be
       0.38285333 0.5591598 0.2131418 -0.2071282
0000c0 d9 00 32 be 9c da 69 bf 7c ad 47 bf c8 b9 93 bf
       -0.17383136 -0.91349196 -0.7799909 -1.1541071
0000d0 ca 50 d0 be 9a ea 70 3e 20 59 39 3f 77 a3 e4 be
       -0.40686637 0.23526993 0.7240162 -0.44655964
0000e0 95 cd 44 bf c2 ae b4 3e 33 49 a3 3f fa d8 07 3f
       -0.76876193 0.3528958 1.2756714 0.53065455
0000f0 67 61 9b bf d5 b3 63 be 80 fa 34 bd cb 47 76 3e
       -1.21391 -0.22236569 -0.044184208 0.24050824
000100 2f 56 59 be b9 d8 01 bf 8d 73 d0 3e f5 4d f1 3f
       -0.21224283 -0.5072132 0.40713158 1.8851916
000110 ff ed d0 3e 6e 0d 1d bf 51 ed b9 3e fb f3 c7 3e
       0.40806577 -0.6134862 0.3631387 0.3905333
000120 69 bc e1 3e 39 49 65 bf aa 2f c5 3c 2b af 0d bc
       0.44089058 -0.89564854 0.02407058 -0.00864772
000130 32 6e a2 bf d1 7f 8b bc 55 1a 6b 3e ea 76 08 bf
       -1.2689879 -0.017028721 0.22959264 -0.5330645
000140 d2 c6 3b 3e 7f b3 8d be d5 0f 04 3e f6 d6 8a 3d
       0.18337563 -0.27676007 0.12896664 0.06779282
000150 b3 48 8b be 70 d0 61 bf 58 ed 9e 3f b5 b2 b8 be
       -0.27203903 -0.88208675 1.2416182 -0.36073843
000160 23 71 da be ee 2b 2a bf 01 95 41 3e 67 de 02 be
       -0.4266444 -0.6647328 0.18904497 -0.12780152
000170 41 5f 35 bf 5e 54 1a 3f 76 42 8d 3e d9 6e 22 bf
       -0.7084847 0.60284984 0.27589768 -0.6345039
000180 f1 27 45 3f 00 da 1d 3f 38 87 29 bf 57 bf 08 bf
       0.7701407 0.61660767 -0.6622195 -0.5341696
000190 cc 90 26 3f 5b 99 c0 3e 07 50 53 3f d0 d8 69 bf
       0.6506469 0.37617 0.8254399 -0.91346455
0001a0 be 07 4d be 5e 7d f7 3e 32 be be be 29 c0 e8 be
       -0.20022485 0.48337835 -0.37254483 -0.45459107
0001b0 08 5d d0 bd dd 67 ed 3e 18 5b 6b be 08 c9 1b 3d
       -0.10173994 0.46368304 -0.22983968 0.038033515
0001c0 fd e3 e5 be c2 45 f2 be b8 4f 04 bf 6e 85 44 3e
       -0.44900504 -0.47318846 -0.5168414 0.19191524
0001d0 3c a9 bc be 71 35 ae be cc d0 05 bf b6 20 d2 bd
       -0.36847866 -0.34025148 -0.52271724 -0.10260145
0001e0 04 f1 d7 be c8 80 1f be 23 01 7b 3f b1 27 db 3e
       -0.42176068 -0.1557647 0.9804861 0.4280372
0001f0 8c 92 fe 3e 72 ee 84 3f 6a ff 4e 3f e8 bb f2 be
       0.4972118 1.0385268 0.8085848 -0.47408986
000200 00 25 0c 3f 32 0b aa bf 2b 25 34 3f 34 ee 30 3f
       0.5474396 -1.3284667 0.70369214 0.6911347
000210 ef 23 08 3f 26 50 70 3f e5 7c 61 bf 10 14 8a 3e
       0.5317983 0.93872297 -0.880812 0.2696843
000220 5f 7e 2e bf 17 74 d1 3e c6 33 07 bf b2 5f 5e bf
       -0.68161577 0.40908882 -0.52813375 -0.8686477
000230 ae 41 69 3f e4 f0 53 be a1 a0 39 3d 6a c4 4a 3f
       0.91115844 -0.20697361 0.045319203 0.79205954
000240 68 20 77 3f 03 7b 57 bf 8e 09 9c 3f d7 06 e8 3e
       0.96533823 -0.84172076 1.2190416 0.45317718
000250 4e 03 3f 3f c1 04 36 bf 7e fe 05 bf 6b 26 5a bf
       0.7461442 -0.71101004 -0.5234145 -0.8521487
000260 0b ca f7 bf 2c 25 13 3f d3 28 80 be 67 08 77 be
       -1.9358534 0.57478595 -0.25031146 -0.24124299
000270 63 e4 cc be b9 13 d4 3f 06 cc 07 3f 20 de df 3e
       -0.40017995 1.6568519 0.5304569 0.43724155
000280 7a 75 86 be e1 ab b7 bf 15 bb 18 bf 97 6b 4c 3f
       -0.26261503 -1.4349328 -0.59660465 0.7985167
000290 bc f1 ea bd a2 74 83 3f 62 d1 0e 3f e8 3a 9d bf
       -0.114718884 1.0269969 0.5578824 -1.2283602
0002a0 a6 5c 7f 3f 40 68 a2 bf 54 e4 4c bf 1e 25 65 3e
       0.99750745 -1.2688065 -0.800359 0.2237744
0002b0 2c 49 51 bf 6e 80 83 3e 04 1d 34 3f 15 1b d2 3f
       -0.81752276 0.25683922 0.70356774 1.6414515
0002c0 a1 63 05 bf d7 79 3f be 02 f4 66 be ab aa 56 bf
       -0.52105147 -0.18698822 -0.22554019 -0.8385417
0002d0 85 c8 a5 bd f7 97 86 bf 70 aa 74 3f 02 d7 c2 be
       -0.08094887 -1.0515126 0.95572567 -0.38054663
0002e0 cc 12 60 bf 3e ef 0b 3f 86 d9 68 bf ae 63 c0 be
       -0.8752868 0.5466193 -0.90956914 -0.3757605
0002f0 34 d3 1d 3f f1 0c 78 3e 53 58 46 3f ea 86 a8 3e
       0.61650395 0.24223687 0.7747852 0.3291543
000300 bc ff 56 3d 53 92 66 3f c1 c6 42 bf fa d1 3e bf
       0.05248998 0.90067023 -0.76084524 -0.7453915
000310 bd 4b 8f bf 89 66 bb be 17 83 0c bd b7 10 fc be
       -1.1194988 -0.36601666 -0.034304705 -0.49231502
000320 c4 92 97 3e 17 d5 a2 be 23 7b 36 3f b1 7d b0 3e
       0.2960416 -0.318032 0.7128164 0.34470895
000330 28 be 1b 3e d2 3c 17 3e 4c f8 fa 3e 80 c6 62 bf
       0.15209258 0.14769295 0.4901756 -0.88584137
000340 9c 86 9f bf 86 7d 10 3d 39 d8 d4 be 4a d4 22 40
       -1.2462955 0.03527596 -0.41571215 2.544207
000350 52 dc 28 bf 8f bf 7f bf 45 6c ef 3e 07 29 74 3e
       -0.6596118 -0.9990167 0.4676229 0.23843776
000360 f8 40 bb 3e 2d 53 45 3f e0 a0 dc 3e e2 f1 97 be
       0.36573005 0.7708004 0.43091488 -0.2967673
000370 cf 22 2a 3f d8 f8 26 3f f7 6d 5c bc 2b 28 20 bf
       0.66459364 0.65223455 -0.013453952 -0.6256129
000380 08 30 25 bf ce 73 1b bf 00 8e 5c bf f3 50 4b bf
       -0.64526415 -0.6072358 -0.86154175 -0.79420394
000390 53 ae b0 3e e9 7e 2f 3f 61 37 16 3e 96 b7 1f 3f
       0.34508 0.68553025 0.14669563 0.62389505
0003a0 06 e9 33 bf 5e 0a 4c bf 78 fd d9 3c 47 bf 5e 3f
       -0.7027744 -0.7970332 0.026610121 0.87010616
0003b0 eb ce 04 3f 01 29 3a 3c c6 aa 7a bf 9a f5 8f bf
       0.5187823 0.011362315 -0.9791683 -1.1246827
0003c0 01 32 85 bf 12 ba 62 3f 9b 48 a0 3e e7 0b fd 3c
       -1.0405885 0.8856517 0.31305394 0.030889465
0003d0 bb fb 03 3d b5 e8 4b be db 84 5c be 18 3b d1 3c
       0.03222249 -0.1991299 -0.21535055 0.025540873
0003e0 d8 48 08 bf 04 76 0c 3f 53 8b 80 3f 64 de 55 3d
       -0.5323615 0.5486758 1.0042518 0.05221404
0003f0 28 50 6c bd a8 93 6a 3f 10 ca 19 bf ec 09 0a 3f
       -0.05769363 0.91631556 -0.6007395 0.5392139

39 f4 [16]
000000 ee 15 9e bd 59 dc 71 3f 30 55 8a 3f d9 19 2f 3e
       -0.077190265 0.9447685 1.0807247 0.17099704
000010 30 5e 84 40 d9 6e a4 40 59 1f 3b be 3c d6 d1 be
       4.1364975 5.138531 -0.18273677 -0.4098376
000020 fa 55 76 bf bf 21 6b 3f 34 da d8 3e 19 47 1a 40
       -0.9622494 0.9184837 0.42353976 2.4105895
000030 35 dd 01 c0 a9 d1 b6 3f 26 a3 90 3f ef 27 6e c0
       -2.0291264 1.4282733 1.1299789 -3.7211874

fc.0.bias f4 [482]
000000 9d 30 c2 3d f1 37 96 3c da 02 e9 3d c3 08 06 bb
       0.094819285 0.018337222 0.11377497 -0.0020452
000010 43 62 a9 3c 75 51 0b 3e 96 13 00 3c a5 7a f4 3c
       0.020676738 0.13605292 0.00781717 0.029843638
000020 d8 99 f0 3c 7a 24 0a bd 53 56 85 39 52 73 49 3c
       0.029370233 -0.033726193 0.00025432053 0.012295561
000030 f4 58 2a bc 71 63 e4 bc 92 70 aa bd eb 27 23 3d
       -0.010397185 -0.027879449 -0.08322252 0.03983299
000040 8a 24 20 bd 2e 4c 64 3d 81 9c 0a 3d 3c 8c 54 bd
       -0.039097346 0.055736713 0.03384066 -0.05189155
000050 68 7a 20 3e 51 b4 06 3e 81 4e 72 3d 81 83 a0 bb
       0.15671694 0.13154723 0.0591569 -0.004898489
000060 bf c8 a2 3d 11 b2 46 3d 79 18 06 3d b9 d9 06 3e
       0.079484455 0.04850966 0.032738183 0.13168992
000070 ab 9b 1a 3d 62 d7 b9 3b 49 0e be 3d 58 ac 9e ba
       0.037746113 0.0056714276 0.092800684 -0.0012105806
000080 ad d4 db 3d 62 d8 f3 3d 97 6b 35 3d e2 eb d0 bc
       0.10733924 0.11906506 0.04429206 -0.025503103
000090 19 46 67 3c 59 c4 02 3d 25 f1 b7 3d 29 04 b1 bb
       0.014115834 0.031925533 0.089815415 -0.0054021073
0000a0 eb 0f 40 3c da fa 6e 3d fb 02 48 bd 6a 7a e0 3d
       0.011722545 0.0583447 -0.048830967 0.10960849
0000b0 1e b2 73 3c 86 87 8f 3d b3 65 0d 3b b3 d1 ea 3d
       0.014874009 0.07008271 0.002157551 0.11465778
0000c0 f7 8d d2 bc 0c 08 9b bc 1e 96 8a 3d 40 6f 6a 3d
       -0.02570246 -0.018924735 0.06766914 0.057235003
0000d0 a1 cd 9c 3d 6c 78 89 bc 80 27 7a 3d a5 26 f8 bc
       0.07656408 -0.016781054 0.061072826 -0.030291865
0000e0 59 4d 37 bd 41 7a 03 bd b9 37 84 3d 19 1d ce 3c
       -0.0447515 -0.032099012 0.06455941 0.02516036
0000f0 6d 85 03 3c 3d 1e 90 3d 9f 3b 28 3d 10 c5 8c 3b
       0.008027417 0.070370175 0.041072484 0.0042959526
000100 56 30 14 3c 97 aa 0e 3b 3e d9 57 3d 47 b5 07 3e
       0.009044727 0.002176916 0.052697413 0.13252746
000110 72 32 19 bc fe 39 a7 3d 23 9c b4 3d a0 12 ed 3c
       -0.009350406 0.08165358 0.08818843 0.028939545
000120 1c 15 40 bd af 0a 76 3d 4a 6e ba bb 57 29 0c 3d
       -0.04689513 0.060068782 -0.005689417 0.034219112
000130 ab 3f e4 3d 99 d8 79 3d 8c 2c a9 3d 75 45 de 3d
       0.11144956 0.06099758 0.0826045 0.108530916
000140 51 90 a7 bb 9d de 41 bd bf a4 c4 bd e5 7b a2 3d
       -0.0051136394 -0.04733144 -0.09601735 0.07933787
000150 e0 3c cc 3b fd e9 3c bd ae d4 f2 3d 88 9f 83 3d
       0.006232843 -0.046121586 0.11856972 0.064269125
000160 70 da 0d 3d 5a 5e d5 3d c0 e9 17 bd 16 07 02 3d
       0.034632146 0.10418387 -0.037088156 0.03174504
000170 19 1c 8c bd f9 94 f2 3c 61 69 4a bd e0 0a 02 3e
       -0.06841297 0.029612051 -0.049416903 0.12699461
000180 7e 1a 7b 3d 47 96 59 3c 64 f5 dd 3d e8 4a bc 3d
       0.06130456 0.013280458 0.1083782 0.09193975
000190 39 ee 88 bc 84 e5 92 bd a4 76 c5 3c 2b ef bb 3c
       -0.016715156 -0.07172683 0.024104424 0.022941193
0001a0 10 bd 76 bd 71 c8 f2 bc d5 cd 49 3d fe 7b c2 3d
       -0.060238898 -0.029636594 0.049268562 0.09496306
0001b0 fc 68 84 bc 0b e3 8e bc e5 8d 31 bd bc d1 fc bc
       -0.016163342 -0.017442247 -0.04334821 -0.030861728
0001c0 4a 49 e8 3d 65 34 a5 3c f8 aa b8 3d e1 d5 93 bc
       0.11342104 0.020166585 0.09016985 -0.018046321
0001d0 f9 67 b0 3d 55 91 04 3e 3c c5 02 3e e4 bf ce bb
       0.08613581 0.12946065 0.12770551 -0.0063094962
0001e0 07 a4 03 3e 8d 02 35 3c 97 03 a1 3d ed 56 c5 3d
       0.1285554 0.011047971 0.07862013 0.096357204
0001f0 4d 18 a2 3b 93 1b 73 3d 94 ef d2 bc da fb 86 bb
       0.0049467445 0.05935247 -0.025749005 -0.0041193785
000200 9d 60 53 bd e6 4d bd bd 9c e1 d3 3c 89 38 5d 3d
       -0.05160581 -0.092433736 0.025864415 0.054008994
000210 aa 00 7e 3d c6 80 38 bc 1a fb 07 bd e4 0d 9f 3d
       0.062012352 -0.011261171 -0.033198453 0.07766321
000220 e6 1b 79 3d df df 1b bd ea 32 e6 bc 78 1e 2a 3c
       0.06081762 -0.038055297 -0.02810045 0.010383241
000230 87 d5 e3 bc 1a a6 a6 3d b8 59 0b 3e 5e 68 98 3b
       -0.027811779 0.0813715 0.13608444 0.0046511134
000240 db 7b cf 3d 08 55 d1 3d 9c 55 41 3d 04 f7 11 bd
       0.101310454 0.102212965 0.047200784 -0.035635963
000250 66 9b cc 3d d1 09 1f 3d 11 66 68 3c da 6a e8 3d
       0.099905774 0.03882772 0.014184491 0.11348505
000260 bb 65 02 3d 7d 93 e1 3d 8c 4c cc 3d 98 4b c7 3d
       0.0318353 0.11014459 0.09975538 0.09731215
000270 a1 6b d9 3d 35 c3 cc 3d 8a a8 c2 3d f7 17 fe 3d
       0.10616232 0.0999817 0.095048025 0.12406915
000280 32 c9 b9 3d 70 21 05 3b 7e 58 5f bc af f1 81 3a
       0.09071578 0.002031412 -0.013631938 0.0009913946
000290 43 21 86 bc c0 16 98 3d 19 82 90 bd 60 dc 8d 3d
       -0.016373282 0.07426214 -0.07056064 0.06926799
0002a0 db 42 01 3e 97 a0 bf 3d 34 5a 81 3d 50 27 f7 3d
       0.1262316 0.09356802 0.06316033 0.12068045
0002b0 99 7e 30 bd c9 11 c4 3d 37 72 7e 3d 1a b2 73 bc
       -0.043089483 0.09573705 0.062120643 -0.014874006
0002c0 a9 38 94 bc 78 93 cf 3d 32 28 aa 3d 52 7c a0 3c
       -0.018093424 0.10135549 0.08308448 0.01959053
0002d0 9c e5 2e 3d 77 42 91 3d 83 b7 2e 3c 47 de 12 3e
       0.04269944 0.07092755 0.01066387 0.14342605
0002e0 79 ac d1 3d 84 b1 c9 3d 8a d9 ac 3d 45 06 93 bd
       0.10237975 0.098483115 0.0843993 -0.0717893
0002f0 a3 cd bf 3d 6e ec 7d 3d de c7 f0 3c d4 75 0a 3e
       0.09365394 0.061993055 0.02939218 0.1352151
000300 41 6b 3d bd e8 5c f8 ba 4a df 0d bd 65 d2 cc 3c
       -0.046244863 -0.0018948587 -0.034636773 0.025002668
000310 cb 36 b3 3c 07 e2 ff 3d c2 32 6a 3d 08 36 4d 3d
       0.021876713 0.12494283 0.057177313 0.050100356
000320 17 e8 bb 3d ce fe 8e 3d 82 91 91 3c a7 32 0c 3e
       0.09175127 0.06982194 0.017769579 0.13691197
000330 cc 57 8c 3d 52 1c 23 bc bc 64 d3 bb 44 7d ed bb
       0.068526834 -0.009955483 -0.0064512175 -0.007247599
000340 05 4d bf bc 7f 2a e0 3d a1 94 06 3e 4f e1 e5 b9
       -0.023352155 0.109456055 0.13142635 -0.00043846152
000350 3f 11 1e 3e f9 b6 b2 3c 02 4a bd bb ef a1 33 bd
       0.15436266 0.021815764 -0.0057766447 -0.043855604
000360 8f 65 95 bc 00 86 4a ba e8 e6 ba bc 4e a7 f4 3d
       -0.018236903 -0.0007725656 -0.022815183 0.11945973
000370 8b e1 e0 3d 3f 5d c0 bd 99 05 b8 3d 87 5f 1d 3d
       0.10980519 -0.09392785 0.08985443 0.03842118
000380 b1 32 35 3d 2d 1b c1 3d 66 0b 8d 3c 42 c1 bc 3d
       0.044237796 0.094290115 0.01721735 0.092165485
000390 7e 03 14 3d d1 f6 34 3d 97 75 ff b9 61 f9 f5 bc
       0.036136143 0.044180695 -0.00048725 -0.03002614
0003a0 de 66 d2 3d 2f 48 8a 3d 6c cf bf bc d1 a8 e6 bb
       0.102735266 0.06752049 -0.023414336 -0.0070391675
0003b0 34 b3 3e bd 97 91 da bc ca b4 7c 3d 7a 5e 10 3e
       -0.04655762 -0.02668075 0.06169585 0.1409854
0003c0 21 bc 95 bd 70 a6 bf 3d a1 c4 e6 3d 18 ca bd 3c
       -0.07311273 0.09357917 0.11267973 0.023167655
0003d0 1c e6 4a 39 e4 e3 f5 3d 62 cf 95 3d cf 95 bd bb
       0.00019349944 0.12006357 0.07314946 -0.005785681
0003e0 25 6b 19 3e 90 d9 6d 3d 4d 62 36 bd 96 73 eb bb
       0.14982279 0.058068812 -0.04452734 -0.00718541
0003f0 4d 0b 64 3c 2a 3e 61 3d 0f 7a d9 3c 69 19 55 3d
       0.01391871 0.054990925 0.02654746 0.052026186

fc.0.weight f4 [482, 64]
000000 84 17 2c bd 3d 4f 99 bd 25 8c 8f 3d 2d 0d f2 3d
       -0.042014614 -0.07485817 0.07009152 0.11818919
000010 02 7c 01 be c2 b3 d5 bd ba 80 8e 3a 4c 1e c0 bd
       -0.12644961 -0.10434677 0.0010872104 -0.09380779
000020 a7 3c a3 3b e2 35 f0 bd 6b ce 9e bd db 6b 29 3d
       0.0049815956 -0.11729027 -0.07754215 0.041362625
000030 4b e7 cb 3c 2a 4d 8b bc 45 bd 6e 3d d2 28 ab 3d
       0.024890563 -0.017004568 0.05828597 0.08357395
000040 43 e1 96 bd 68 51 b2 3c e5 2c 06 be 50 27 6a be
       -0.07367184 0.021767333 -0.13103063 -0.22866559
000050 26 a9 17 3e f5 23 66 3e 44 f2 28 3e 37 d9 90 3c
       0.14810619 0.22474654 0.16498667 0.017681701
000060 c7 58 7c bd 1e 28 14 be 36 27 91 3d d7 d7 4c bc
       -0.061608102 -0.14468428 0.07087557 -0.012502632
000070 36 f8 c4 3d 36 2d f3 bd ca 85 f7 bc 61 2f e2 3c
       0.09617655 -0.11873858 -0.030215163 0.027610483
000080 ed 5d 5d bd eb b1 8e bc 94 a9 c2 3d 42 da 54 bd
       -0.054044653 -0.017418822 0.09505001 -0.05196596
000090 96 1f a6 3d d2 82 23 3b e3 1d 13 3d 8c 83 24 3e
       0.08111493 0.00249498 0.035917174 0.16065806
0000a0 93 73 05 3d 30 0f 54 3d db a4 1a 3e 39 62 d7 3d
       0.032580923 0.051772296 0.1510195 0.10516781
0000b0 c1 00 84 3a dc 23 b2 bd 57 38 f3 3c 01 e1 86 bd
       0.0010071025 -0.08698246 0.02968995 -0.06585885
0000c0 3f a7 25 3d f4 6e d4 bd a8 15 33 3e ea c6 e5 bc
       0.0404427 -0.10372725 0.1748873 -0.028048951
0000d0 fb 15 45 3e 85 5d ce 3d 8d f7 f2 3d 92 ed 0b 3c
       0.19246666 0.10076431 0.11863623 0.008540528
0000e0 85 d0 b3 3d 59 a4 41 3e d8 0a a9 bd ac 3a 19 3e
       0.08780006 0.1891035 -0.082540214 0.14963788
0000f0 19 47 29 3d 67 4b 3f bd 29 79 5c 3d 25 e4 fd 3d
       0.04132757 -0.04670277 0.053826485 0.12397031
000100 88 e2 f0 3d 6c b3 fd 3d 62 96 6f ba 78 ef f9 3d
       0.117619574 0.12387738 -0.0009139535 0.12203878
000110 f7 95 fd bc e1 66 a1 3c 82 44 4e bd 61 cd 01 be
       -0.030955298 0.019702377 -0.050358303 -0.12676002
000120 b6 b8 93 bd da bf 41 bd b6 a8 68 3d 50 05 2a 3e
       -0.07212965 -0.047302105 0.05680152 0.16603589
000130 4a 51 1d 3d 09 f0 59 bd 49 c3 aa 3d 0f c7 b9 bc
       0.0384076 -0.05320743 0.08338029 -0.022677926
000140 48 2b 18 3d 21 f5 f8 3d 8c 70 83 bd 4b 5a a6 3d
       0.03715065 0.1215613 -0.06417951 0.08122691
000150 cc 87 10 bd 8d b9 49 3d 37 51 94 bd 30 38 df bc
       -0.035285756 0.04924922 -0.07242053 -0.027248472
000160 36 cb 73 3c 57 80 e3 3d 4e 1a e5 bd 76 d1 d0 bd
       0.014879992 0.11108463 -0.11186658 -0.101962015
000170 8f b1 33 be db be 87 bd 5e 39 37 be 32 0c a6 bd
       -0.17548202 -0.066282 -0.17892978 -0.08107795
000180 6e 93 85 3d 6b 13 cd 3d d7 5a 1c 3d b3 eb fd 3c
       0.065222606 0.10013469 0.03817257 0.03099618
000190 ab 21 5a 3d 64 2a 24 bc f8 52 4c 3e 6f ae 41 3e
       0.053254765 -0.010019872 0.19953525 0.18914197
0001a0 e4 09 9b 3d c7 4f 26 3e 95 6f be 3d 37 fa 98 3c
       0.07570246 0.1624137 0.09298626 0.018674
0001b0 ac 64 2d 3d 5b 69 b1 bd d7 b3 fc 3d d2 95 be bd
       0.042332336 -0.08662673 0.12338989 -0.0930592
0001c0 0a d6 02 bb 21 03 67 3d 75 13 34 bd 4d ee ab bd
       -0.0019964003 0.05639947 -0.04396387 -0.08395062
0001d0 e2 79 34 bd f9 55 c1 3b 2b 2c ea bd 2b bd 13 3e
       -0.04406155 0.0059001413 -0.114342056 0.1442763
0001e0 2f 33 35 3e 7a d1 c5 bc ee d6 c0 bd 23 e0 dc 3c
       0.17695306 -0.024147738 -0.094159946 0.026962345
0001f0 6c c7 99 bd a3 c9 22 bd 66 ba 45 bd b4 42 fe 3d
       -0.0750874 -0.039743077 -0.048273467 0.12415066
000200 c1 5d 96 3d f2 03 75 3d f8 21 c6 bd 92 6d 89 3d
       0.07342101 0.059818216 -0.09674448 0.06710352
000210 39 ef a0 bc 2a 95 5b bc c4 4c ac 3b 12 8e a1 bd
       -0.01964532 -0.013402263 0.0052581746 -0.07888426
000220 d9 82 82 bd a6 22 89 3d 21 75 9e bc ab fe 18 3d
       -0.063726135 0.06696062 -0.01934296 0.037352245
000230 16 d6 a0 3b 67 e6 07 3e 53 bd 58 bd 3f c7 b4 3d
       0.0049083335 0.13271485 -0.05291493 0.08827066
000240 66 17 93 bd 2a 9c 09 be c9 62 94 3d 4c 79 00 3e
       -0.07182197 -0.13438478 0.07245404 0.12546271
000250 34 a0 37 bc af 33 bc 3c 4d 27 cd 3c a6 c6 8a 3d
       -0.011207629 0.022973863 0.025043154 0.067761704
000260 0d 4d 4c bd 7f a1 ae bd 03 cb f3 3c e7 3a f8 3d
       -0.04987817 -0.08526897 0.02975989 0.1212061
000270 db ae b6 3d ac 27 bc 3d fd e5 59 3d db b3 70 3d
       0.0892007 0.09187254 0.05319785 0.058765274
000280 21 0f f3 bc c2 36 16 be e8 52 0e 3c 15 ae 37 bd
       -0.0296703 -0.14669326 0.008686759 -0.044843752
000290 57 51 b3 bd db 99 80 bc bc 1b da bd 11 70 67 3d
       -0.08755749 -0.015698364 -0.10649821 0.05650336
0002a0 c0 ab c1 3d 40 05 f2 3c 48 a3 d0 bd 24 dd ef bd
       0.09456587 0.029543519 -0.101873934 -0.11712101
0002b0 4f c7 48 bd da a2 5e bd 4c 5f 7b bd 23 17 bb bd
       -0.0490182 -0.054354526 -0.06137018 -0.09135272
0002c0 f5 d0 21 3a fa fd 60 3d 68 68 f7 3d a0 03 80 bb
       0.00061727996 0.05492971 0.12080461 -0.003906682
0002d0 2d 8c c1 3d 82 0d 3e 3e b1 c9 35 3e e3 7e fd 3d
       0.094505645 0.1855984 0.1775272 0.12377717
0002e0 1d ae cc bd 0c e2 0b 3e f9 8d e8 3d a7 37 16 3e
       -0.09994147 0.13660449 0.11355204 0.14669667
0002f0 0c fb 16 3d b4 d8 de 3d d8 24 29 3d 7f 63 f2 3d
       0.03686051 0.108811766 0.041294903 0.118353836
000300 e0 0d af bc 94 49 02 3e 7f 9b 8e 3e fe 72 d9 bd
       -0.02136892 0.1272338 0.2785301 -0.10617636
000310 ac b3 2b 3c 3d 59 2c be 91 d1 64 bd d7 f2 fc 3d
       0.010479849 -0.16830917 -0.05586392 0.123510055
000320 09 ca 44 3e fe 48 1e bd 13 e8 a4 3d 6c 1e 88 bd
       0.19217695 -0.03864383 0.08052077 -0.066464275
000330 43 e0 ed bb 62 39 58 3e 31 7d 22 3d 55 22 12 3d
       -0.0072594 0.2111564 0.039670173 0.035677273
000340 78 80 9f 3b f3 85 12 be 9d e4 99 bd db 94 f0 bd
       0.0048676096 -0.1430891 -0.07514308 -0.11747142
000350 c9 c6 6f be e9 c8 c5 bd 50 3c 0c be d9 94 ab 3d
       -0.23415674 -0.09657461 -0.13694882 0.08378
000360 5d f8 5d 3c fa ea a3 bd 69 6b 82 3e 6f 7d e4 3d
       0.013547984 -0.080038026 0.25472572 0.11156737
000370 84 3a 4d 3e ce e6 fb 3c f9 b7 0a 3d f3 73 28 3e
       0.20041853 0.030749705 0.033866856 0.16450481
000380 95 ff e3 3c 0d 1f df 3d 29 07 76 bc 20 d0 2c 3e
       0.027831832 0.10894594 -0.015016356 0.16876268
000390 d9 b0 b5 3d 63 c7 a9 3c 28 5c 0e 3d 54 6d dd 3a
       0.08871622 0.020724958 0.034755856 0.0016893544
0003a0 d6 4f 22 3c 31 12 60 3d 03 2e 22 be ef a3 38 3e
       0.00990673 0.05470485 -0.15837865 0.18031286
0003b0 da 79 d9 bc f8 bc 0c be 94 d9 bd bd 0f 85 22 bd
       -0.026547361 -0.13743961 -0.09270015 -0.039677676
0003c0 67 55 79 3b a2 35 ae bd 01 d1 58 3e c9 0e 05 bc
       0.0038045289 -0.085063234 0.21173479 -0.008121201
0003d0 bb 80 04 3d 06 d0 ed 3c fb e8 87 3d 02 a9 04 be
       0.03234933 0.029029857 0.066362344 -0.12955096
0003e0 ef c7 36 3d 55 8e 32 3e ee 79 7f bd 16 66 41 3e
       0.044624265 0.17437108 -0.06237214 0.18886599
0003f0 a4 13 87 3d c6 54 95 3d 95 51 6a 3e 17 57 fe bd
       0.06595543 0.0729156 0.22882684 -0.12418955

fc.3.bias f4 [241]
000000 ce d1 6f 3b 36 34 87 3c 52 28 96 3c 44 ba c5 bb
       0.003659356 0.016504388 0.018329773 -0.0060341675
000010 af 45 b5 3c c0 72 a4 bc 73 8b 02 3d d8 45 90 bc
       0.022127954 -0.020074248 0.03187127 -0.01761143
000020 3e e0 50 3b 2f b4 8e bc 24 dc bb bc 85 42 76 bd
       0.003187194 -0.017419903 -0.02293212 -0.06012203
000030 cb 81 1b 3c 40 c8 af bc 57 01 4c 3c 3e 43 1f 3d
       0.009491394 -0.021457791 0.012451491 0.038882487
000040 e1 fc cb bb 53 b1 a4 bc 8b f3 44 bc 02 d1 ee ba
       -0.006225214 -0.020104086 -0.012020956 -0.0018220248
000050 20 0a a1 bc 24 0a 8a 3c 42 29 ab 3c 75 c0 12 3d
       -0.019658148 0.016850539 0.020893697 0.035828073
000060 42 ae cd 3c bd 3b d1 3b 9f 82 8f 3c 78 37 af 3c
       0.025107507 0.006385295 0.01751834 0.021388754
000070 2c 7c 3a 3c e8 64 91 bc 74 12 04 3d 94 00 db bc
       0.011382144 -0.017748311 0.03224416 -0.026733674
000080 40 25 a8 3a 7d 89 12 3c eb a5 a5 3c 1d c5 a0 3c
       0.0012828484 0.008943913 0.020220717 0.019625241
000090 0c ca a4 3b e1 d1 a2 3c 01 d9 0b 3d 8d 81 c7 3c
       0.0050289687 0.019875469 0.034142498 0.024353767
0000a0 5f 6f 5f bd 48 8d 05 bd c8 62 fc bc e2 2c 80 bd
       -0.05454957 -0.03260544 -0.030808821 -0.06258561
0000b0 16 23 10 3d 09 20 98 3c 51 3a 4f bc 71 79 3b bd
       0.03518971 0.018569963 -0.012648181 -0.045770112
0000c0 17 8f aa bc 2c 4b da bc 68 db 47 bc 2a 77 f0 3c
       -0.020820184 -0.026647173 -0.012198307 0.029353697
0000d0 b0 1d e5 bb 8e d8 30 bd 0e 47 c3 3a f2 b0 67 3d
       -0.0069920644 -0.043175273 0.0014898495 0.056565233
0000e0 35 2a b3 3c 59 f9 c4 3a 2c d0 84 3c 4e 38 51 bc
       0.021870712 0.0015027925 0.016212545 -0.012769772
0000f0 72 b7 11 bd 28 f7 bf bc 67 85 a5 bc a3 b4 cb 3a
       -0.035575338 -0.023433283 -0.020205213 0.0015541505
000100 c3 50 0b bc a7 51 aa bb fd b2 4c 3d b1 cd 55 bc
       -0.008503142 -0.005197722 0.049975384 -0.013049529
000110 b2 0d 41 bd b1 96 84 bc 17 62 72 bc 3c 61 26 bd
       -0.0471322 -0.016185137 -0.014793894 -0.040620074
000120 d5 eb cf bc 1f ec cd bc 2d 6a 44 bd 19 cf 73 bd
       -0.025381008 -0.025137005 -0.04795282 -0.059523676
000130 af 0f 7c bc ea 51 25 bd 93 e6 73 bd d3 e4 ec ba
       -0.015384599 -0.040361322 -0.059546065 -0.0018073566
000140 87 a3 a8 bc 68 09 88 bd 90 67 58 3c 63 b9 f8 3b
       -0.020585788 -0.06642419 0.013208285 0.007590459
000150 c1 d8 54 bb 73 ef a3 3c d1 4e 06 bc c9 70 ed 3c
       -0.0032477828 0.02001164 -0.008197502 0.028984444
000160 c1 eb 51 3b d7 5a c2 bc da be 49 bd d5 48 e1 3c
       0.003203139 -0.023724956 -0.049254276 0.02750055
000170 91 a4 68 3b 3e 61 3e bd d6 ff 14 3d e0 27 40 bc
       0.003549848 -0.046479456 0.036376797 -0.011728257
000180 47 61 11 bd 95 3c f8 bc 40 40 3c bb a4 ca 5f bc
       -0.03549316 -0.030302325 -0.002872482 -0.013659153
000190 c1 c8 52 bc 6d 70 b2 bc 67 73 8d 3a f0 06 b8 3b
       -0.012865246 -0.021782124 0.0010791839 0.0056160614
0001a0 0f e0 43 bc 2c 57 44 bc dc 13 a1 bc b8 3b cf ba
       -0.011955275 -0.011983674 -0.01966279 -0.0015810644
0001b0 a0 eb 8b 3c 64 76 f6 3c 19 4c 89 3c 28 03 78 bb
       0.017080128 0.03008575 0.016759919 -0.0037843678
0001c0 6e c8 9c bc 78 55 be bc bb 88 f2 bc 89 04 3b bc
       -0.019138541 -0.023234114 -0.029606214 -0.0114146555
0001d0 ea b1 ab 3c 98 5b 78 3b 6c c5 19 bc fd 3f 8b 3c
       0.02095886 0.003789639 -0.009385448 0.016998285
0001e0 0d 01 fe bc 1e 2e 4a 3c 86 ba ed bc e8 19 7d 3c
       -0.03100636 0.012340097 -0.029019605 0.015448071
0001f0 4b c0 fa ba 4e 91 0a bd a9 32 86 bb bf 06 33 3c
       -0.0019130794 -0.03382998 -0.0040953946 0.010926901
000200 f5 15 24 3d 45 72 ea bc ce a8 08 bd 73 db 1d bc
       0.040060002 -0.028618941 -0.03336411 -0.00963484
000210 b8 4f 3b bd d9 1a 96 3c f0 77 62 3c 9c 72 02 3d
       -0.045730323 0.018323349 0.013822541 0.03184758
000220 e5 fc e9 bc b7 4a 46 3c 5f 71 c9 3a 15 43 8f bc
       -0.028562972 0.012102774 0.001536887 -0.017488042
000230 fa b6 11 bd 06 f8 2a bd bb 31 61 3b 90 2a 3e bc
       -0.03557489 -0.04174044 0.0034361917 -0.011606827
000240 d9 ba db 3c e9 b1 9e 3d a8 81 98 3c 8b d9 e3 bb
       0.026822494 0.077487774 0.018616512 -0.0069534234
000250 67 da f4 bc 47 74 31 3b 83 cd d3 3c 77 49 42 bc
       -0.029889299 0.0027077363 0.025854832 -0.011858336
000260 0f bc ad bc 8d a8 9e bc 08 b6 13 bb 3a e0 6b ba
       -0.021207837 -0.01936748 -0.002253892 -0.0008997951
000270 bc 47 ae bc f8 d2 01 bd 6c ec 98 3c 0e ed ba 3c
       -0.02127444 -0.031695336 0.018667422 0.022818115
000280 e2 2f be bb 86 8e 4a 3c 46 3a 40 bc ba af 12 bd
       -0.005804048 0.012363082 -0.0117326435 -0.035812117
000290 00 d3 3d bc 16 e9 01 bc fd 06 bf 3c f9 25 14 bc
       -0.011585951 -0.007929107 0.023318762 -0.0090422565
0002a0 26 c0 16 bc 93 d0 ad ba a0 13 93 3c eb 92 a1 bc
       -0.009201085 -0.0013261013 0.017953694 -0.019723376
0002b0 c7 37 d4 bc 10 be 94 3d e1 f1 ad bc fb 99 6f 3b
       -0.025905503 0.07262814 -0.0212335 0.0036560285
0002c0 b7 b9 31 bc c5 3b 88 3c fe 7e 5f 3c 5c fe d6 bc
       -0.0108475005 0.016630063 0.013641117 -0.026244335
0002d0 af 90 f4 bc 3f 71 1f 3d 09 f7 96 bc 3d 49 aa 3c
       -0.029854147 0.03892636 -0.018428342 0.020786876
0002e0 49 99 18 3a 21 79 76 3b a2 86 cb 3c 9a 6c 99 bc
       0.0005821181 0.003760882 0.024844471 -0.018728543
0002f0 36 66 29 3d 0c 12 3a bc 8b fb 9f 3b f8 4f 14 3d
       0.04135724 -0.011356842 0.004882281 0.036209077
000300 3d 65 01 3d 46 87 45 ba 47 d1 5a bb dd 77 52 bb
       0.03159069 -0.0007535111 -0.00333889 -0.00321149
000310 16 ce 83 b8 2e cb 99 3a 4c ff 1f 3b fc 0b f6 bc
       -6.284953e-05 0.0011733526 0.0024413643 -0.030035011
000320 5e 5e 21 bc 0a 9e 9b 3c d4 87 45 bb 2a 2e b6 3b
       -0.009849159 0.018996257 -0.0030140774 0.0055597024
000330 b9 a7 0f bc bd 32 03 bc 97 8b 11 bd e7 44 ba bc
       -0.008768016 -0.008007702 -0.035533514 -0.022737933
000340 b0 0c 5c 3d 39 13 f6 3c df eb 20 3d 4e ac 51 3d
       0.053723037 0.030038463 0.039287444 0.051189713
000350 69 62 eb bc a2 dd c3 bb e1 d2 0d 3d 6c a6 0c 3d
       -0.028733449 -0.0059773484 0.034624938 0.0343384
000360 12 8d 33 bd 38 f8 d0 3a 7c da 93 bc 93 7f 94 3c
       -0.043835707 0.0015943116 -0.018048517 0.018127238
000370 06 80 8b 3c 70 3e d6 bc 99 e7 b4 bb a8 09 47 bb
       0.01702882 -0.02615282 -0.0055207727 -0.0030370746
000380 08 35 83 ba ba aa 2b bd 58 ca 36 3d 12 16 90 b9
       -0.0010010311 -0.041910864 0.044626564 -0.00027482264
000390 20 a9 40 bd dd b1 1a 3c 9a b4 00 3b 30 0d 2e bd
       -0.04703629 0.00944182 0.0019638897 -0.042493045
0003a0 d4 4b 21 bd 76 63 ce 3b 80 47 00 3c 36 6a cd 3b
       -0.039378956 0.0062984778 0.007829547 0.006268765
0003b0 08 37 4c bc aa a6 ab 38 40 80 28 bd cf 20 64 bd
       -0.012464292 8.184959e-05 -0.041137934 -0.05569535
0003c0 96 88 cd bb
       -0.006272386

fc.3.weight f4 [241, 482]
000000 2e 85 28 3b 30 8c 74 3d 6a 34 82 bc 1a c4 19 bd
       0.0025714147 0.059704006 -0.015894134 -0.037540533
000010 31 8f 90 3d 58 ff c9 bc a8 36 35 3a f1 8c 6a 3d
       0.070585616 -0.02465789 0.00069127465 0.05726332
000020 4f 1d 2f 3d df 7d 70 3d 89 d4 30 bd 33 10 d2 3a
       0.04275256 0.05871379 -0.04317144 0.0016026556
000030 77 22 bf bc 55 73 25 3d 6b 20 aa 3c 4d 6b ec bb
       -0.023331864 0.040393192 0.020767411 -0.0072149397
000040 c1 bc 0f bd 23 97 00 bd c7 46 8f bc 6f b7 0a 3d
       -0.03509212 -0.031394135 -0.017489804 0.033866342
000050 07 f9 f0 3a d7 44 2f 3d 4b 09 03 bd c8 32 4c bd
       0.0018384763 0.04279026 -0.031991284 -0.049853116
000060 8e bb 2e 3d c1 31 b3 3c 24 80 32 bd 7a b2 af bd
       0.042659335 0.02187431 -0.043579236 -0.085789636
000070 a3 60 56 3d e9 7c 38 bd 34 2a a6 bc 9a 2a 4c bd
       0.052338254 -0.045041 -0.020283796 -0.049845316
000080 d6 4b 93 3d 84 c8 52 bd 23 87 29 3d 56 9d 8f bd
       0.07192199 -0.051460758 0.041388642 -0.07012431
000090 70 ae fb 3c a7 20 1b bd f4 a5 04 be 0b d5 84 bd
       0.030722827 -0.037872937 -0.12953931 -0.06485947
0000a0 23 20 8b bd 21 fc 61 bd 2b 98 f2 bc 6d 3c 88 bd
       -0.06793239 -0.05517209 -0.029613575 -0.0665215
0000b0 ef f4 ae 3d a5 09 88 3d 6b df 67 bc 8a 07 d1 bd
       0.08542811 0.066424645 -0.014152388 -0.10206516
0000c0 b1 ea 60 3d c5 15 db bc 57 f3 07 3c 67 72 6e 3c
       0.05491132 -0.026743779 0.008297763 0.014553643
0000d0 2a 13 84 3c 84 36 c9 bd 89 5e a9 bd 27 46 73 bd
       0.01612242 -0.09824851 -0.08269984 -0.059393074
0000e0 e1 8c 52 3d 61 d3 b4 ba 32 58 6b bc d5 b3 96 3d
       0.051403884 -0.0013795906 -0.014364289 0.07358519
0000f0 68 ea 42 3d ce 0d 28 bd 26 20 93 3d 71 69 36 bd
       0.04758683 -0.04102879 0.07183866 -0.04453415
000100 79 c3 28 bd 7f 47 60 3d 86 23 eb bc 66 be 8e 3d
       -0.041202042 0.054755684 -0.028703462 0.06969909
000110 09 7c 38 bd 45 49 3a bd 7a fe 44 b9 d1 59 45 3d
       -0.045040164 -0.04548003 -0.00018786817 0.04818136
000120 52 4d 62 bc 10 1c 53 3d c4 cf 18 bd 76 61 a6 bd
       -0.01381238 0.051540434 -0.037307516 -0.08124058
000130 07 12 e3 3c b0 0f f5 bc f2 7a 3a bd d1 64 95 bc
       0.027718557 -0.029914707 -0.045527406 -0.01823655
000140 de 1f f5 3b c8 e7 88 3c 99 58 38 3c 12 b5 cd bc
       0.0074806055 0.016712084 0.011251592 -0.025110755
000150 00 fc 87 3d 34 e0 d0 bc 13 58 2e 3d 11 21 0e bd
       0.06639862 -0.025497533 0.042564463 -0.034699503
000160 77 52 d6 bc f4 74 55 bc e3 83 34 bb 9b c3 2f bd
       -0.02616237 -0.013028372 -0.002754443 -0.042911153
000170 3a 99 04 bd 05 e9 83 bc 7d 6f ac bd 1f 50 e4 3c
       -0.03237269 -0.016102323 -0.08419702 0.027870236
000180 dd 12 5a 3d 9b 99 4d bc 74 6d 55 bd 40 a9 83 3d
       0.053240646 -0.012548829 -0.052106336 0.06428766
000190 c9 9b ef bd 0b 53 70 3d f9 d6 a7 3c 5b 99 98 bc
       -0.116996355 0.058672946 0.02048825 -0.018627813
0001a0 cf d4 0f bd fa 86 86 3d 08 03 2e bc 2d 78 87 3b
       -0.03511506 0.065687135 -0.01062084 0.004134199
0001b0 ba f0 c6 bc bf 79 a0 3d b1 cf 0d bc 7d 93 0c 3d
       -0.02428471 0.07835721 -0.0086554745 0.034320343
0001c0 72 78 b5 3c 14 4a 90 bd ab dd 02 bd 69 c2 5d 3d
       0.02215216 -0.07045379 -0.03194968 0.054140482
0001d0 4b b3 b1 bd 80 e0 86 bd 06 12 1d 3d b1 ac 9b 3d
       -0.086767755 -0.06585789 0.038347267 0.07601298
0001e0 be a6 b5 bd 61 73 ba bb 74 c6 1d bd 48 1b 28 bd
       -0.08869694 -0.005690024 -0.038519338 -0.041041642
0001f0 4a 70 6d 3d 9b 5e b1 3a 6e 95 5b 3d 06 f9 51 3d
       0.057968415 0.0013532223 0.053609304 0.051262878
000200 97 cc 23 bd 47 d0 40 3d 8b 26 53 3d c3 9d 81 bd
       -0.039990034 0.04707363 0.05155043 -0.06328919
000210 7b 49 73 bd f8 00 54 3c 56 81 99 bb f2 b6 92 3d
       -0.05939625 0.012939684 -0.0046846075 0.071638
000220 13 4d b2 bc bd c8 3d 3d d0 5c cf 3d f0 3e 02 3d
       -0.021765267 0.046334017 0.101251245 0.031798303
000230 40 69 27 bd 4b fc 92 3d e2 8f e8 bc 13 5e 28 3d
       -0.04087186 0.07177027 -0.028388921 0.04110534
000240 d7 c8 36 bd 1a 55 59 bd 62 9e af 3d c2 e1 89 3d
       -0.04462513 -0.053059675 0.08575131 0.06732513
000250 0e f1 8e 3c f2 02 85 bc 39 36 0e 3d 9c 81 e5 bb
       0.017448928 -0.016236756 0.03471968 -0.007003976
000260 be 5a e3 3c a2 b1 9e 3d ff 26 56 bc 24 06 f8 bc
       0.02775323 0.077487245 -0.013070821 -0.030276366
000270 d6 1d d0 3c d9 67 12 bd 83 b2 bb 3b c3 6c 15 3d
       0.025404852 -0.035743568 0.0057280674 0.036480676
000280 bd ae 81 bd bf 08 3d bd 5b 0b 94 bc 52 40 85 3d
       -0.06332157 -0.04615092 -0.018071821 0.06506409
000290 3c d5 0c bd e1 6d b6 bc f5 2f d6 3a f9 cd 64 3d
       -0.034383044 -0.022269191 0.0016341197 0.055860493
0002a0 7c 3a 17 3d b6 50 2b bd a1 36 92 bc 0c dd 68 3c
       0.03692101 -0.04182502 -0.017848315 0.014212858
0002b0 9f dd 8b bd e0 d0 28 bd 9c ab 9f 3d be fd 1d 3c
       -0.0682938 -0.041214824 0.07796404 0.009643016
0002c0 94 65 5f 3c a7 df 58 bd b0 3d 91 bd 87 ad 0d 3d
       0.013635058 -0.052947666 -0.07091844 0.034589317
0002d0 a0 06 a0 bc 68 e3 06 3d cb 57 7c 3d f4 03 ea 3c
       -0.019534409 0.032931715 0.061607163 0.028566338
0002e0 31 96 51 bc f0 0f 7f bd 9b f1 b4 bd 8c 77 cc 3d
       -0.012792156 -0.06227106 -0.08835145 0.09983739
0002f0 19 12 4a bd d7 28 91 bd 08 c7 ca bd fa ec 5f 3b
       -0.049333666 -0.07087868 -0.099012434 0.0034168349
000300 e5 1b 39 bd 98 f7 0e bb d3 88 b2 3c 5c 8a 85 3d
       -0.045192618 -0.0021815058 0.021793758 0.065205306
000310 ab 73 95 bd 83 04 aa 3d f3 a3 83 bd a1 0e d5 3c
       -0.072974525 0.08301642 -0.06427755 0.026007952
000320 e2 37 40 3d 83 5a ba bc b5 b2 b4 3a a7 ca 84 bd
       0.046928294 -0.022748237 0.0013786169 -0.06483965
000330 bf 09 6a bd 4d 41 32 bd 8d 80 93 bd f4 48 12 bd
       -0.0571382 -0.043519307 -0.072022535 -0.035714105
000340 4b 5d 37 bd a1 97 1e bd 75 d0 89 3d ac 8d 25 bd
       -0.044766705 -0.038718823 0.06729213 -0.040418312
000350 e2 30 7e bd 3c 65 89 bc f8 56 98 3d 3a db bb 3c
       -0.062058337 -0.016771905 0.07438463 0.022931684
000360 50 ea 4f bd 60 10 55 3d f7 88 59 bd 39 45 a5 bd
       -0.050760567 0.05201757 -0.053109135 -0.08069844
000370 2c 4d a2 3d f7 55 39 3d df fe 5f 3d e9 90 64 3d
       0.079248756 0.045247998 0.054686423 0.05580226
000380 a4 46 c9 bc 69 bb c5 bc 51 0c e3 bc 96 0c da bc
       -0.024569817 -0.024137216 -0.027715834 -0.02661733
000390 4a 5e ab 3d ac 4d 57 3d b4 01 78 3a 26 37 10 bd
       0.083675936 0.052564308 0.0009460703 -0.035208844
0003a0 a6 21 62 bd 1b ee 1b 3d eb 6b c2 3c 46 9b c3 3d
       -0.05520787 0.038068872 0.0237331 0.095511004
0003b0 f8 28 a6 3c c4 23 52 3d 13 9c 4b bd b5 b5 26 3d
       0.020283207 0.05130364 -0.04970939 0.040700633
0003c0 03 af 72 3d d0 94 e9 bc 8a 56 fd 3c c5 62 92 bd
       0.059248935 -0.028513342 0.030925054 -0.07147745
0003d0 07 52 32 3d 78 3e 19 3d 36 9f 33 3d 8e b3 08 3d
       0.04353526 0.03741309 0.043853007 0.03337436
0003e0 34 a0 3f 3c c9 25 aa 3d aa d8 91 bc bf ca 26 3c
       0.01169591 0.08307988 -0.017803509 0.010180174
0003f0 6c 38 a4 bc 46 be 83 bc c0 8a 5e bd 79 3b 0c 3c
       -0.020046435 -0.01608194 -0.05433154 0.008559101
