inventory/ark_material.onnx (onnx, 526568 bytes, 8 tensors)

35 f4 [8, 3, 5, 5]
000000 37 cf c6 3c 3e 02 0d be 4d 7e 8c 3e 94 2d 89 3d
       0.02426873 -0.13770387 0.2744011 0.066981465
000010 f0 e5 08 bd 33 77 cd bc 58 e5 a6 bc 63 66 16 3d
       -0.03342241 -0.025081253 -0.020373031 0.036718737
000020 44 9c a6 bd e0 30 7b 3c 58 38 e7 bd 24 97 95 bd
       -0.08135274 0.015331477 -0.112900436 -0.073042184
000030 e7 ed f8 be a4 85 45 be 43 b0 a4 be 20 c7 c9 bd
       -0.48619005 -0.19289261 -0.32165727 -0.09852433
000040 a5 29 1a be d2 8d f8 bd 2e 28 d0 bd a2 eb 94 be
       -0.15054949 -0.12136425 -0.10163914 -0.29086024
000050 83 57 03 bf 6a 0e 9f bd 47 c5 01 bf 04 bf c6 be
       -0.5130541 -0.07766421 -0.50691646 -0.38817608
000060 4e 63 b5 be 20 a0 59 3e 30 fa b9 3e 24 e4 74 be
       -0.35427326 0.21252489 0.3632369 -0.23915154
000070 70 67 82 be 1a 75 07 bf 30 43 01 be 88 b7 68 3e
       -0.25469542 -0.5291306 -0.12623286 0.22726262
000080 b1 8d 5c 3e 93 08 6e be 3c 1a e2 3c 0c ef da 3e
       0.21538426 -0.23245458 0.0276004 0.42760503
000090 1c 5f 12 3d a3 f8 20 3e 81 e8 9f be 93 05 ec be
       0.035735235 0.15719847 -0.31232074 -0.46098003
0000a0 ea 80 8e 3d 3b 91 a5 3e f5 69 73 be 70 08 2b 3e
       0.06958182 0.32337365 -0.23770888 0.16702437
0000b0 4d dc 79 3d 18 1d d6 bd d4 0d e0 3d 1b cf 91 be
       0.06100111 -0.10454768 0.109401375 -0.2847832
0000c0 9e 48 96 3d 80 5b 86 3d 23 02 15 be dc 1d 1c 3e
       0.073380694 0.06560421 -0.14551596 0.15245765
0000d0 aa 46 86 bd ad 40 cd be 70 42 e3 3d 99 2a 23 bd
       -0.06556447 -0.40088406 0.11096656 -0.039835546
0000e0 dd 7a a4 3d bb 7f a1 3d 84 0f 57 3e 7c b3 71 be
       0.08031247 0.07885691 0.21002012 -0.23603624
0000f0 f6 cd 89 be 21 ab 87 bd 11 b1 83 3e b2 5c a1 be
       -0.26914948 -0.06624437 0.25721028 -0.31516033
000100 1f 1e 95 3e 6f d2 1c be 97 d0 85 be 44 0a 7f be
       0.29124543 -0.15314649 -0.26135704 -0.2490626
000110 5e ef a7 3e bf d3 d8 3d de 72 a6 3d 5e 68 1b be
       0.3279981 0.10587262 0.08127378 -0.15176532
000120 36 97 28 3e 61 ed 2a 3e d1 dd a1 3b f3 0b 76 3e
       0.16463932 0.16692115 0.0049397727 0.24027996
000130 04 ed e0 bd 38 23 ad 3e fd cc a8 3d 4a d9 c0 bd
       -0.10982707 0.33815932 0.082422234 -0.094164446
000140 09 41 d3 3e f2 fb fc 3e 75 cd 80 3e c2 d9 e3 be
       0.41260555 0.4941097 0.2515675 -0.44502074
000150 2e 40 d1 be 56 63 fa 3e 20 af f6 bd ae e6 e7 3e
       -0.40869278 0.48903912 -0.12045121 0.45293182
000160 24 12 e5 3c 01 19 2e 3c aa 71 27 3f db 38 a5 3d
       0.027962752 0.010626079 0.6540781 0.08067485
000170 ba b8 f9 bd da 88 06 bf c8 fb b0 be 78 03 63 bd
       -0.12193437 -0.5255257 -0.34567094 -0.05542323
000180 32 d1 ac 3e 84 34 58 3e da ec 80 3e 6b 63 53 3e
       0.33753353 0.21113783 0.25180703 0.20643394
000190 2a 84 98 be d4 65 2b be 75 be 90 be d9 b5 c2 be
       -0.29788333 -0.16738063 -0.28270307 -0.38029364
0001a0 03 e7 b9 3d 51 67 13 bf b6 6b 33 3e 7d 72 c9 be
       0.09077265 -0.57579523 0.17521557 -0.3934516
0001b0 57 32 bc 3e ee b4 24 bf 15 8a 26 be aa db 08 3f
       0.36757156 -0.64338577 -0.16263612 0.5346018
0001c0 85 ca 90 be cc d0 c2 be d4 6d ce be 67 7c c1 be
       -0.2827951 -0.38049924 -0.40318167 -0.37790224
0001d0 0b 1d a2 3e 46 a4 4d be dc 4f 2f bb 05 bc 04 bf
       0.31662783 -0.20082197 -0.002675048 -0.51849395
0001e0 47 35 1a 3e d7 b2 27 bd 61 0b a0 3d 8e 25 35 bf
       0.15059386 -0.04094204 0.0781467 -0.7076043
0001f0 e5 df 96 bb 4a 8d c2 3e 2e 70 1d 3f 19 db bf be
       -0.004604327 0.3799842 0.614993 -0.37471846
000200 a6 eb 4d 3e a9 fe ea be ba 20 42 3e 83 2a d6 3d
       0.20109424 -0.45897415 0.18957797 0.10457327
000210 a9 f4 84 3d 84 f2 91 be 9e 41 24 3d 49 17 09 3e
       0.06491978 -0.28505337 0.04010164 0.13387789
000220 9c 7f 1b 3f c0 a5 73 be e0 51 68 3e ad 03 24 bd
       0.6074159 -0.23793697 0.22687483 -0.040042568
000230 b2 64 be 3e 8d 6a f4 3e f2 09 b0 be 11 38 8c 3e
       0.371862 0.47737542 -0.34382588 0.27386525
000240 e0 bf fb be 13 b5 0e 3f 36 26 9a be d0 e7 09 3e
       -0.49169827 0.5574505 -0.30107278 0.13467336
000250 f8 18 db bd 08 09 91 3e 79 27 70 3e 19 60 b1 be
       -0.10698122 0.28327203 0.23452558 -0.3464363
000260 b6 b1 48 3d 76 48 13 bd 1a ac f3 3d 7a 6b e1 be
       0.048997603 -0.035957776 0.1189806 -0.4402731
000270 21 7f 5b 3e d2 72 8d 3e 21 e3 ac 3e 49 1c 8f 3d
       0.21435215 0.27626663 0.33767036 0.06987817
000280 29 a7 f2 3b c2 8e 9a 3e db b7 a8 3d e1 5f 54 bd
       0.007405181 0.3018704 0.08238193 -0.05184925
000290 bc 1a fe 3d df c0 aa 3e 69 1f 0a be 49 3c 3e 3b
       0.12407443 0.33350274 -0.13488545 0.0029027632
0002a0 7d 98 a1 be 82 63 ec bc c5 1b 66 be 84 7f 3a be
       -0.31561652 -0.028856043 -0.2247153 -0.18212706
0002b0 83 2e 2d 3e 5c 85 82 be 2d 6f 18 bd 3d e1 66 3e
       0.16912274 -0.2549237 -0.0372154 0.22546859
0002c0 c9 4b be 3e 15 ed b5 3e 5e f7 f5 bd 37 79 c3 3d
       0.37167194 0.35532442 -0.12010072 0.09544604
0002d0 7c 9f bd 3e 54 6c 45 3e 36 04 c6 be 1b 65 a1 be
       0.3703574 0.19279605 -0.38675088 -0.3152245
0002e0 2e 39 4f be 8e 7d 94 3d ce 43 33 be e3 9d d7 bd
       -0.20236656 0.0725051 -0.17506334 -0.105281614
0002f0 7d 49 32 bd f8 da f3 be dd 75 aa bd ab c8 47 3e
       -0.043527115 -0.47627997 -0.08323262 0.19510143
000300 b3 b5 c5 bc a7 a0 08 be 26 49 e1 be 20 19 ad 3c
       -0.024134493 -0.13342534 -0.4400112 0.021130145
000310 58 f9 03 be 5d a0 0d be 2e a1 4b be 16 5f 5d 3e
       -0.12888086 -0.13830705 -0.19885704 0.21618304
000320 86 76 97 be ab 1b a1 3e c1 62 8b 3c ee c4 5b 3b
       -0.29582614 0.3146642 0.017014863 0.0033534127
000330 35 08 e2 be ac 40 9e 3d a2 10 97 3e 3d 5a d1 be
       -0.44146886 0.07727179 0.29504877 -0.4088916
000340 eb 1a 42 3d be 2a c9 be c5 cd cb be e6 0f b1 be
       0.047388952 -0.39290422 -0.39805427 -0.34582442
000350 60 9c 9e be 76 38 ea bd 7e ac 8e be 9f ab 5f be
       -0.3097868 -0.1143655 -0.27865976 -0.21842812
000360 ce e4 89 be de de 10 bf 8d bf 10 be f7 51 90 3e
       -0.26932377 -0.5659007 -0.14135571 0.28187534
000370 7b 66 9f be 4e 0c 59 bc 6a a2 5b 3d ae 5c 97 3e
       -0.31132874 -0.013247563 0.053621687 0.29562896
000380 81 34 a4 be 3c f1 6e bf 18 17 00 be 84 fc a1 bd
       -0.32071307 -0.93336844 -0.1250881 -0.07909492
000390 29 a5 ac 3e 89 df 3a 3e 6d 4c 8a 3e bd a4 93 3d
       0.33719757 0.18249334 0.27011433 0.07209156
0003a0 0e 3a c1 3e 65 29 26 3e 24 ed 78 bf da 26 2e bf
       0.37739605 0.16226728 -0.9723685 -0.6802803
0003b0 bf 67 83 3e b6 79 07 3e b3 5d 0a 3e 32 27 15 3e
       0.2566509 0.13230023 0.13512306 0.14565733
0003c0 7f 49 10 3f a3 6d 19 3f 02 30 2b 3f 30 ee 0e bf
       0.56362146 0.5993292 0.6687013 -0.55832195
0003d0 25 5d 19 3e 46 92 b5 3c 35 f3 fe bd ad c9 cc 3e
       0.14976938 0.022164475 -0.12448732 0.39997616
0003e0 7c 10 0c bf 30 18 00 3f 6d f9 01 be 57 5f c8 be
       -0.54712653 0.5003691 -0.12692805 -0.3913524
0003f0 2f 3a 34 3f 90 06 2e 3f 59 11 a1 3e 95 87 58 3d
       0.7040128 0.67978764 0.31458548 0.052863676

36 f4 [8]
000000 df 4d ee 3f d3 91 3d bd 8e 40 eb 3f 4c 3f b5 be
       1.8617514 -0.046281647 1.8379076 -0.35399854
000010 a4 7a 65 bf b2 54 bd bf f9 df 14 be c8 69 e1 bf
       -0.8964026 -1.4791472 -0.14538564 -1.7610407

38 f4 [16, 8, 3, 3]
000000 d2 10 d2 3e 8b 56 7b 3f 4b 4c 01 be a2 b4 a6 be
       0.41028458 0.9817893 -0.1262676 -0.32559687
000010 c8 1c f0 3e 0d 25 12 bf 83 55 0b 3f 86 3f ba 3e
       0.46896958 -0.57087785 0.54427356 0.3637659
000020 05 e4 91 bf a7 a6 d2 be 9a 46 5f bf 2c ef c5 be
       -1.1397711 -0.4114277 -0.87217104 -0.38659036
000030 c1 40 bd 3e fd 0c 7c 3e 11 22 43 3f 33 0f 8b bf
       0.36963466 0.2461433 0.76223856 -1.0864013
000040 da a2 7c 3d 41 75 85 bf 8c a6 06 bf d4 5f e5 be
       0.061678745 -1.0426408 -0.5259788 -0.44799674
000050 ab 3e b3 3d cd ce 92 bf 40 79 3e 3e 57 84 2a bf
       0.08752187 -1.146936 0.1860094 -0.66608185
000060 8d 08 89 3f e7 4b 65 bf 88 6b eb 3d 90 14 ce 3d
       1.0705734 -0.8956894 0.11495119 0.10062516
000070 06 69 80 bd c2 c1 74 3f c0 cf 18 be 02 39 a6 3e
       -0.06270032 0.9560815 -0.14923 0.32465369
000080 87 a6 ec bc 2c 4a 80 3f a3 2a 60 bf 03 9a ac bf
       -0.028888 1.0022635 -0.8756506 -1.3484501
000090 02 53 38 3f dd a7 37 bf a4 a0 ae be 0a ca 1b 3f
       0.7200166 -0.71740514 -0.34106934 0.6085516
0000a0 2b 09 fb 3e 98 b4 9b bf 8e d0 73 be 77 d0 7b be
       0.49030432 -1.2164488 -0.23810026 -0.24591242
0000b0 3f 6c 8f bf bf 67 a1 bd f9 ba 56 3d b7 75 9a 3e
       -1.1204909 -0.07881116 0.052424405 0.30167934
0000c0 d5 3c b8 be a9 36 b1 3d 50 45 4e 3f a2 25 29 be
       -0.3598391 0.08653004 0.8057451 -0.16518262
0000d0 c8 43 0b bf ab 19 c4 be 92 c9 0f bd 72 05 1e bf
       -0.544003 -0.38300833 -0.03510434 -0.6172706
0000e0 53 4d 69 3f e1 87 d8 be cd 21 18 3f 31 33 1b bf
       0.9113361 -0.42291167 0.59426576 -0.60624987
0000f0 ed 03 30 bf 5c b6 3f 3f f4 3c 3e bf 7c 1a 89 3e
       -0.6875599 0.74887633 -0.7431176 0.26778018
000100 ec ec 45 bf 39 5d 6d 3e c0 cc d1 3e 72 01 08 bf
       -0.7731464 0.23180093 0.40976524 -0.53127205
000110 0b 49 45 3e e2 e3 19 3f 98 07 47 3e b4 bc a1 bd
       0.19266145 0.60113347 0.1943649 -0.078973204
000120 9b 88 07 3d 62 3e 48 bf 00 26 f2 3e b9 72 39 3f
       0.03308926 -0.7822019 0.47294617 0.7244068
000130 93 60 63 3f 4e bf e1 be e1 96 5c be d5 7d 24 3c
       0.88819236 -0.44091266 -0.2154193 0.010039766
000140 93 ae 61 bf 8b c4 a5 3e 68 b1 33 3e 24 cd 5f 3f
       -0.88157004 0.32376513 0.17548144 0.87422395
000150 69 17 34 3f 1c b2 f1 be 82 1c 0f bf 0d eb 7f bf
       0.7034822 -0.472062 -0.55902874 -0.99968034
000160 a7 f2 0c bf b2 cd e1 be 5b 79 a3 3e a0 67 70 3e
       -0.5505776 -0.44102246 0.31928524 0.2347703
000170 e5 9c 21 bf 38 9e bb 3d 9f 08 5f 3e 7c bf 05 bf
       -0.6313003 0.09161037 0.21780632 -0.52245307
000180 95 69 f1 bb 2c 54 23 3d ae a2 70 3f 48 8b 80 be
       -0.0073673227 0.039875194 0.9399823 -0.25106263
000190 5e 6f b7 bd a2 27 ba 3e ca a0 95 be 49 3d ff bb
       -0.089567885 0.36358362 -0.29224235 -0.007789288
0001a0 4d e8 55 3e 14 1e a2 be d7 27 2a be 4b a2 1a be
       0.20889397 -0.31663573 -0.1661676 -0.15100972
0001b0 35 7d f6 3e a0 f1 1f 3f ee 7b 1d bf 48 d4 42 bf
       0.481424 0.62478065 -0.61517227 -0.76105165
0001c0 3f d9 02 3f 55 dc 1a 3f f0 02 25 bf 86 55 8c 3e
       0.5111274 0.6049245 -0.6445761 0.27409
0001d0 1a 2e a0 3f 60 55 95 be 9a bb 91 bf 28 c5 f2 bd
       1.2514069 -0.29166698 -1.1385376 -0.11854011
0001e0 d0 55 62 bf 23 65 bf 3f ea 42 e5 be 7c 6d 3e 3f
       -0.8841219 1.495274 -0.44777614 0.7438581
0001f0 43 57 97 3e 13 e5 a2 3d b0 e3 41 bf 8c a8 c4 3f
       0.29558763 0.07953849 -0.7573805 1.5363936
000200 be 85 3f bf 62 ca 21 be d0 28 68 3f 2e 0c 65 bf
       -0.7481345 -0.15799859 0.90687275 -0.8947171
000210 72 32 4b 3f 67 0e e9 be c5 8e da 3d a3 c7 d9 3e
       0.7937385 -0.455188 0.106717624 0.42535123
000220 b6 93 86 3e e5 5c e0 be 03 ec 0c 3f ab 04 93 3f
       0.2628457 -0.43820873 0.55047625 1.14858
000230 3b 47 3e bf bd 95 87 be b4 12 83 3e 15 85 3d 3e
       -0.7432744 -0.2648143 0.25600207 0.18507798
000240 d0 1c e1 3b 36 c6 4c 3f 5f d0 00 bf 2a a3 b4 bf
       0.00686989 0.79989946 -0.5031795 -1.4112294
000250 8a 22 fd bf fe 3b 35 bf 0f 77 6e 3d 62 cb 29 3f
       -1.9776165 -0.70794666 0.058219012 0.6632596
000260 db 1c 4a 3e 90 cf 65 3f 9b 48 f1 3e 03 c6 2c be
       0.1973757 0.8976984 0.47125706 -0.1687241
000270 b9 8e ec be 95 80 65 3f dd 8d 1b 3f cb 0d 41 3e
       -0.4620264 0.89649326 0.6076334 0.18852918
000280 e7 d2 b3 bd 3b f6 7e bf cf c5 41 3d c8 84 23 bf
       -0.08780461 -0.9959447 0.047307786 -0.63874483
000290 e4 77 c0 3e 93 44 71 3f 47 82 74 3f 41 8c 25 3e
       0.3759147 0.9424526 0.9551129 0.16166784
0002a0 9f a2 ed 3d fc 54 2c bc 0f e1 5c 3f 56 49 56 be
       0.11603283 -0.010518309 0.8628091 -0.20926413
0002b0 b0 88 c3 be b6 9a 99 3f fb 1f b6 bc 6a fb 22 3f
       -0.38190222 1.2000339 -0.022232046 0.6366488
0002c0 06 75 5d 3e 0f 48 ef 3d 50 a3 a7 bf f1 44 5e bf
       0.21626672 0.11683666 -1.3096714 -0.86823946
0002d0 5b 14 47 bf a1 0d 41 3f eb c4 e4 3e 29 1d b6 be
       -0.77765435 0.7541142 0.44681486 -0.35569122
0002e0 18 72 13 be cd 90 34 3e 82 20 f2 3b f6 3a 6d 3f
       -0.14398992 0.17633362 0.007389129 0.9266809
0002f0 c7 7c 23 3e ae eb a0 3e d8 65 e1 be 1c 9a 84 bf
       0.15965568 0.3142981 -0.44023013 -1.035953
000300 2e 2d ed 3d 06 b3 d6 be 8b 7b 1e 3f 2e 89 64 3e
       0.11580883 -0.4193346 0.6190726 0.22317955
000310 14 0c 1c 3e 8e 4c d3 bd 7f 24 76 3f ab a0 10 bf
       0.15238982 -0.10317336 0.9614944 -0.5649516
000320 c6 8d ce bd 4e 60 97 3f f1 95 81 3f c4 7e d4 3d
       -0.10085635 1.1826265 1.0123883 0.10375741
000330 be 8c 7f 3f eb e9 66 3f 4d 67 a8 3e d0 d0 31 3f
       0.9982413 0.9020068 0.32891312 0.6945925
000340 f9 23 0f 3e fb 4a a4 be 5d 5d 5f bf 25 a4 e8 bf
       0.13978566 -0.32088456 -0.87251836 -1.8175093
000350 03 8d 11 3f 26 a5 d2 be 5e 96 bb 3d d5 fe b3 3d
       0.5685579 -0.41141623 0.0915954 0.0878884
000360 16 ae 4b 3e 58 39 58 bd 39 d7 24 bf 37 f3 81 3f
       0.19890627 -0.052789062 -0.64390904 1.0152348
000370 70 e0 46 bf 98 23 0a be 95 06 e9 3c f1 28 0a 3f
       -0.77686214 -0.1349014 0.028445521 0.5396872
000380 e1 4f ef 3f 2d f6 ae 3e f2 70 49 3d f9 24 86 3f
       1.8696252 0.34172192 0.04917998 1.0480033
000390 ef 55 ca be 10 36 a8 bf f1 d2 0c 3f 70 c4 8b 3c
       -0.39518687 -1.3141499 0.5500937 0.017061442
0003a0 86 5d c0 3e f2 99 4d 3f a1 27 2e bf dd 32 9d 3f
       0.37571353 0.80313027 -0.6802922 1.2281147
0003b0 71 dc ef 3e f8 73 ba 3f a4 32 19 bf 1f d1 b9 be
       0.4684787 1.4566641 -0.59842896 -0.3629236
0003c0 58 a0 a4 be 6d d3 d5 3e 9e 1b bf bf 13 a2 71 be
       -0.32153583 0.41762868 -1.4930303 -0.23596983
0003d0 1d 68 ec be f2 e8 94 be 24 3c 20 bf 85 7a af bd
       -0.46173182 -0.29083973 -0.6259177 -0.085682906
0003e0 64 63 9d 3e e8 e2 ff 3d 0d d7 20 3f c5 78 d9 be
       0.30739892 0.12494451 0.6282814 -0.42474952
0003f0 bf 64 fc bb 79 3f 1d be 72 62 57 bf 11 38 49 3e
       -0.0077024396 -0.15356244 -0.8413459 0.19650294

39 f4 [16]
000000 65 63 28 40 28 f3 3f bf 78 50 0e bf 02 cb 0f 3f
       2.6310666 -0.749804 -0.55591536 0.5616914
000010 fa 9a 13 bf 3b 4d 84 40 19 f0 d9 3f f5 f1 ef bf
       -0.5765835 4.1344275 1.7026397 -1.8745714
000020 2b 61 c7 bf ca 2c f4 3f d4 04 c7 3f 7c 3f be be
       -1.5576528 1.9076169 1.5548348 -0.3715781
000030 6a 86 f7 bf 68 53 d6 3e 0e 95 d6 3f 84 c9 53 40
       -1.9337895 0.4186051 1.6764238 3.3091745

fc.0.bias f4 [440]
000000 af 7a 9f 3d c1 27 4c bd 5c 4d a0 3d da da 72 bd
       0.07787072 -0.0498426 0.07827255 -0.059290744
000010 dc 97 23 3d 92 e9 a2 3d fa 66 f2 bc 2e 99 0a 3e
       0.039939746 0.07954706 -0.029590119 0.13534996
000020 73 e3 f1 3c f0 96 13 3e 9e 83 db 3c e7 80 d7 3d
       0.029527402 0.14413047 0.026796158 0.10522633
000030 d7 01 0a 3d 01 a3 14 bd 29 99 04 3d 98 51 d7 3d
       0.03369316 -0.036288265 0.032372627 0.1051361
000040 02 2e 14 bd e1 d8 14 3e 97 80 a9 3b a8 38 89 3d
       -0.03617669 0.14535858 0.0051728 0.067002594
000050 dd bc 64 3d d0 6e 9e bc 4e 4c 82 3b ab ec b6 bc
       0.055844177 -0.019339949 0.0039763814 -0.022329649
000060 71 02 7a 3d cd 17 cd 3d 2a e9 e8 bc 5b cc 87 3d
       0.061037485 0.10014305 -0.028431494 0.066307746
000070 64 f7 09 3d 9c ed af 3c 2f b2 ac bc 83 5e 88 bd
       0.033683196 0.021475606 -0.021081058 -0.06658652
000080 e3 d1 d2 3c 39 e7 ce 3d cf 36 bb bd dc bf cd 3b
       0.025734847 0.10102696 -0.09141313 0.006278975
000090 ec 63 d8 bc 42 66 c9 3d fe 20 01 3e 99 71 2a bd
       -0.026414834 0.09833957 0.12610242 -0.04161224
0000a0 bb 76 55 3d 2d c4 83 3c 3f 9d a9 3d d0 a6 14 bd
       0.052115183 0.016084755 0.082819454 -0.036291897
0000b0 c9 49 94 3d 5b aa f1 3d d0 94 b8 3c 15 a2 ad 3c
       0.07240636 0.11800071 0.022531897 0.02119545
0000c0 ee d0 f0 3c 66 79 8b bd 89 22 0d 3d 76 4e f6 3c
       0.0293965 -0.06810264 0.034456763 0.03006671
0000d0 7e 1a c5 3b 49 2f 3e bc 90 1d 80 bd 2b 06 13 bc
       0.006015121 -0.011607953 -0.062556386 -0.0089736385
0000e0 2b 36 29 bd 35 a0 f0 3d 67 4c fc 3d 17 a6 82 3d
       -0.041311424 0.11749307 0.1231926 0.063793354
0000f0 01 42 fd 3d 22 45 87 3d ce a0 0d 3d ae 4f 81 bd
       0.12366105 0.06604983 0.034577183 -0.06314026
000100 25 43 23 3d 23 f6 0a 3e b7 da 9f bd 9c 45 2b bd
       0.039858956 0.13570456 -0.078053884 -0.04181443
000110 df ff 02 3e 8c e8 a7 3d d7 c0 12 bd 43 66 80 3d
       0.1279292 0.08198652 -0.035828438 0.06269505
000120 ca 73 a3 3d 84 da dd 3d 7b f2 30 3d c0 cd 97 3b
       0.079810694 0.10832694 0.043199997 0.0046326816
000130 f2 1e 31 3d 9a 4a 9e 3d 7f 05 7b 3d fa 7e 64 3d
       0.043242402 0.07729073 0.06128454 0.055785157
000140 62 92 07 bd 51 c7 90 bd 09 46 c8 bb 79 82 21 3d
       -0.033098586 -0.070692666 -0.0061118645 0.03943107
000150 62 d0 07 3d 9b 5b ba bc 71 d6 2e b9 03 f8 08 bc
       0.033157714 -0.022748759 -0.00016673819 -0.008359912
000160 01 41 c3 3d 62 be 48 3d 2b 82 df 3d 60 a7 e5 3b
       0.09533883 0.04900969 0.109134994 0.007008478
000170 f5 31 c7 3d ab ec b2 3d ed a4 a0 bd 69 ca 81 bd
       0.097263254 0.08736547 -0.07843957 -0.06337435
000180 d0 e6 96 3d 67 f7 94 3c ad fa 31 bd 15 1d de 3d
       0.07368243 0.018184377 -0.043451954 0.10845391
000190 63 6e b5 bc eb 90 b7 3d 5e e4 0d 3d 37 cc c5 3d
       -0.022147363 0.08963188 0.034641616 0.096580915
0001a0 65 e1 6f bd c0 ee 3a bd 56 a6 17 3c eb d1 53 bd
       -0.058564562 -0.045637846 0.009255966 -0.051713865
0001b0 5b 84 a7 bb 8c e1 e6 3d 07 ce c5 3d 66 88 a1 3d
       -0.0051122135 0.112734884 0.09658437 0.07887344
0001c0 1c fe 6c 3d 70 76 9e bd 4f 0d 7a 3d 86 9d 06 bc
       0.057859525 -0.07737434 0.06104785 -0.008216267
0001d0 78 8e a7 3d 2b eb c9 3d 60 90 8a bc a8 7c cb 3d
       0.08181471 0.09859308 -0.016914546 0.09935886
0001e0 b9 3c 37 bd bf bd 23 3d 7f 13 9c 3d 9d 0d e8 3d
       -0.044735644 0.039975878 0.07620906 0.113307215
0001f0 fe 9f c5 3d 64 ec eb 3d 8a e3 7a ba cd d7 7d bd
       0.09649657 0.11519697 -0.0009570649 -0.06197338
000200 ab 6d 5c 3c 30 8f 15 bd 78 ca c5 3d 72 be 62 3b
       0.013453881 -0.036513507 0.096577585 0.0034598378
000210 07 18 12 3c ba a1 36 bc 5d 09 1d 3e 77 35 92 3b
       0.008916861 -0.011146957 0.15335603 0.00446194
000220 50 12 ce 3d be d6 ec 3c e9 f4 31 3c 80 8b 9f bd
       0.100620866 0.02891099 0.010861614 -0.077902794
000230 f1 1a ce bd 22 f3 99 bb 4c 22 38 3c 15 b7 bb 3d
       -0.100637324 -0.004698173 0.011238646 0.091657795
000240 6b c6 d3 3d 3a cd e8 3c b8 59 0e 3e 2a b2 fa 3d
       0.103405796 0.028418172 0.13901412 0.12241013
000250 8c d3 eb bb 93 5d 89 bd 07 3a e9 3d 8f 8c 86 3d
       -0.007196849 -0.06707301 0.11388021 0.06569778
000260 25 79 71 3d 82 3f 9d bb 52 41 54 3c 19 29 44 3d
       0.058953423 -0.0047988305 0.012955027 0.047890756
000270 56 2f e2 3d 7a 2e 18 3d bd 9c cf bc 88 b8 1e 3c
       0.11044185 0.0371537 -0.025343293 0.00968755
000280 65 b1 55 bd 2f f3 e1 3d 2b d3 9b 3d f1 31 27 3c
       -0.05217113 0.11032712 0.076086365 0.010204778
000290 fa 98 ec bc 1c 0e 8d 3d fc c1 f2 bc 78 47 b8 3c
       -0.028881539 0.06887457 -0.029633515 0.022495016
0002a0 66 ee 4a bd 84 08 25 3d 3c 77 6c bd d4 f2 11 3e
       -0.04954376 0.040291324 -0.0577309 0.14252788
0002b0 5d 57 0c 3e 47 1f ef 3c 21 55 ec 3d ad 73 55 bc
       0.13705201 0.029189719 0.115396746 -0.013028068
0002c0 d6 ae 84 3d 3a eb e7 3d 7e 18 b9 bc 30 7c 10 bc
       0.0647866 0.11324163 -0.022594687 -0.008818671
0002d0 85 0b a4 3d cb 88 73 3d 3f ad 30 bc 81 74 05 3c
       0.0801001 0.059456628 -0.010783493 0.0081454525
0002e0 56 51 38 3d 53 44 3d bd 21 78 98 bc 55 bb e0 3d
       0.044999443 -0.046207737 -0.01861197 0.10973231
0002f0 0a 9e 34 bc 18 af 13 3d 3a b2 4d bd 5d 61 8d 3d
       -0.011024008 0.036055654 -0.0502188 0.06903336
000300 e6 a3 00 3e fc 3d 7f 3d ff 0d f6 bc ed fa 2c bd
       0.12562522 0.062314972 -0.03003597 -0.04223149
000310 00 b4 04 3e 00 95 0d 3d 00 51 b3 3d f3 2f ec 3d
       0.1295929 0.034565926 0.08755684 0.11532583
000320 85 1c 18 bd 28 ed 4b bd de 36 96 3d 8a 4c 77 3d
       -0.037136573 -0.049786717 0.07334684 0.060375728
000330 65 15 fd 3d 8f 0c 06 ba cc 90 6b 3d c4 0c 4d 3d
       0.12357596 -0.0005113566 0.057511136 0.050061002
000340 b9 e4 b1 3c e5 a8 0e 3e 48 eb c4 3b bd 0e 7f 3d
       0.021715509 0.13931616 0.006009493 0.062269915
000350 cd b1 e6 3d 06 8f 7c bc 06 df 7e 3c 22 04 e4 3d
       0.112643816 -0.015414959 0.015556103 0.11133601
000360 05 3f 30 3d 89 02 0e bd 58 37 de 3c 82 29 79 bc
       0.04302885 -0.034670386 0.027126 -0.01520765
000370 38 3b a7 3d 3c d7 f0 3d 40 5b cd 3d e1 ae fb 3c
       0.08165592 0.11759803 0.1002717 0.030723037
000380 99 27 09 3e d6 3d 29 bd 66 83 49 bd bf 8e b5 3b
       0.13394012 -0.041318737 -0.049197577 0.0055406983
000390 38 88 aa 3d 91 4b 09 3c fc 53 f7 3c 99 2d cc 3d
       0.08326763 0.008379833 0.030191414 0.099696346
0003a0 f8 0e 73 3d 5c b0 e0 bc 68 f5 08 3e a6 07 e0 3d
       0.059340447 -0.027427845 0.13374865 0.10938959
0003b0 10 fd 18 3c f7 46 a1 3d dc 4f ba 3d c2 e1 81 3d
       0.009337679 0.078748636 0.09097263 0.06341888
0003c0 8c 62 ac 3d 3d 5e b5 3d 1a 8f ef bc d6 0c 2e 3d
       0.08417234 0.08855865 -0.02924304 0.04249271
0003d0 7e 2e 27 3d 09 c4 41 3d fc a2 54 bb 23 5b 06 3e
       0.040815823 0.047306094 -0.003244578 0.13120703
0003e0 7d 87 31 bd ad 66 b6 3c ce b0 79 3d 11 c1 52 bd
       -0.043342102 0.022265757 0.06095963 -0.051453654
0003f0 41 2f af 3d 5e 06 7c 3d ea bf 3f 3d dc eb fa 3d
       0.08553935 0.06152951 0.046813883 0.12252018

fc.0.weight f4 [440, 64]
000000 a8 83 88 3c 5c 5b c2 3a 04 02 09 3d 3c 2f 45 be
       0.016664341 0.0014828253 0.033449188 -0.192563
000010 25 63 3a 3d 3c 32 31 bd 82 10 52 3e 83 04 89 3d
       0.045504708 -0.043260798 0.2051411 0.06690314
000020 8b 3a ed 3d a2 de 07 bd 29 85 f6 3a 9a be a6 bd
       0.11583432 -0.033171304 0.0018807995 -0.08141823
000030 33 6b b9 3c 25 c3 99 3d 44 ca 07 3e 9d a3 98 bc
       0.022634124 0.07507924 0.13260752 -0.018632704
000040 0c 47 9f 3d 1b 5b 29 3e d2 20 cb 3d dc 3d 37 3d
       0.07777223 0.1653866 0.09918369 0.044736728
000050 8c 47 ae bc b6 1d a5 bd 16 8b c0 bd 4f f1 c9 bd
       -0.02127435 -0.080623075 -0.094015285 -0.09860479
000060 a0 71 f0 bc 36 5a ed 3d bc 9a df bc a5 2a 29 3e
       -0.029351056 0.11589472 -0.027295463 0.16520174
000070 7a 4d 91 bc 13 72 94 bd 73 dd fd 3c f0 b0 78 bd
       -0.017737139 -0.072483204 0.030989384 -0.060715616
000080 36 e1 b2 bc 10 d9 3c 3e 23 95 43 3d 1d 91 19 3e
       -0.021835905 0.18442178 0.04774965 0.14996763
000090 61 94 ef bd 96 a9 84 3d 6b 5c b8 3d f9 35 34 3c
       -0.11698223 0.064776585 0.09002002 0.010999196
0000a0 46 af 37 3d ae 4f 23 3c 63 16 ae 3d d9 2d 0d 3e
       0.04484489 0.009967728 0.08500364 0.1378702
0000b0 8c fb 32 bc 13 44 e6 3d 6c b2 0c 3d d3 7c be bc
       -0.010924231 0.11243453 0.034349844 -0.02325288
0000c0 1e 49 e1 3d cd 2d 23 3d f9 3a 50 3e 15 dc 4d 3e
       0.11000274 0.0398386 0.20334996 0.20103486
0000d0 e6 b7 cb 3d 43 4c fc bd a7 91 7b 3d d0 a5 47 3d
       0.09947185 -0.12319233 0.0614182 0.048742115
0000e0 c6 b6 0a bc a0 79 3f bb 22 af 04 3e 3e 7a 1c be
       -0.008466428 -0.0029216781 0.12957433 -0.15281007
0000f0 02 36 1a be 3e b5 fa bd f7 a0 1d be 39 64 d3 3c
       -0.15059665 -0.122416005 -0.15393434 0.025804626
000100 5a 8a a6 bd 74 dc a0 3d 06 30 17 3e 87 3f 0f 3e
       -0.08131857 0.07854548 0.14764413 0.13989078
000110 e4 51 ac 3d f0 29 89 bd 28 9a d9 3d d0 b4 cd bc
       0.08414057 -0.06697452 0.10625106 -0.025110632
000120 7c 8e db 3c ba 10 af 3c 34 f5 46 bd 13 8d 9c 3d
       0.02680134 0.02137028 -0.048573688 0.07644095
000130 e2 a6 cb 3d 74 11 1a 3e 8f 37 11 3e 02 84 f5 3d
       0.0994394 0.1504572 0.1418135 0.11988069
000140 9d 48 d4 3d 02 fe 32 3d d7 c6 b4 bd 85 99 12 bd
       0.103654124 0.043699272 -0.08826988 -0.03579094
000150 40 df 5a 3d 04 0b d1 bd d8 a4 8a bb 83 5e 38 be
       0.053435564 -0.10207179 -0.0042310767 -0.18004803
000160 4f bb 4b 3d fe 57 bd 3b c6 52 f0 3c f3 6b 90 3d
       0.04973918 0.0057783118 0.029336344 0.0705184
000170 80 9d 92 bd 8b 32 f3 bd 88 66 aa 3c e8 86 d0 3d
       -0.07158947 -0.11874875 0.020800844 0.10181981
000180 43 84 2a 3d bf e1 8a 3d df 67 64 3d e3 0a 33 3e
       0.04163004 0.06781339 0.05576312 0.17484622
000190 f3 f1 03 3e f5 67 84 3d da ea 28 bd 6d 25 c8 bb
       0.12885265 0.06465141 -0.041239597 -0.006107977
0001a0 f9 e5 ab 3c 9d c4 e4 3d 10 b1 6d bd 2b 2e be 3d
       0.020983683 0.111703135 -0.058030188 0.092861496
0001b0 2d 34 d8 bd 8d c2 de 3b 5c c4 79 3d 56 9a 96 bd
       -0.10556827 0.0067980946 0.06097828 -0.07353656
0001c0 f8 85 ca bd 06 eb d9 3d f0 db 0d 3e a1 6d fc 3d
       -0.09888834 0.1064053 0.13853431 0.123255976
0001d0 56 53 cb 3a 0d 9a 73 bc 50 ae ad 3d c5 7f 8d bd
       0.0015512507 -0.014868272 0.08480513 -0.06909136
0001e0 6c 25 ca 3d d8 62 c2 bd 60 6f 26 3d 33 cb 28 be
       0.09870419 -0.09491509 0.04063356 -0.16483764
0001f0 4f 03 0b 3d 76 70 a0 bd 69 41 81 bd d0 c3 94 3d
       0.033938702 -0.0783395 -0.06311304 0.07263911
000200 17 2e 12 bd 41 70 1f bd 5e 07 1b 3d 86 18 ef 3a
       -0.035688486 -0.038925413 0.037848823 0.0018241561
000210 a0 87 eb 3c cd ef 12 3d 6d 2b 6d bd 8f 42 bf 3d
       0.028751194 0.035873223 -0.057902742 0.09338867
000220 fa 93 24 3d 6f 31 8a 3c 8f 52 ed 3d 57 30 93 bc
       0.040180184 0.016869275 0.115880124 -0.017967386
000230 56 37 12 3e d6 a7 a5 3d fa 9e 11 3d f9 ed f1 bb
       0.14278921 0.08088653 0.035552002 -0.007383105
000240 97 98 41 3c 63 93 13 be dd 4d 55 bd 17 72 58 bd
       0.011816165 -0.14411692 -0.05207621 -0.05284318
000250 6a da 1b bd 7a ed 30 bc ed ef af bd dd 89 c7 3d
       -0.038050093 -0.010798806 -0.08590684 0.09743092
000260 51 8c 32 bd d4 a9 b8 bb 7e 1a 4d be ab f6 46 be
       -0.043590847 -0.0056354795 -0.20029637 -0.19430034
000270 74 33 5e bd fe 60 80 3b e9 42 90 3d 78 0f 07 3e
       -0.05424829 0.0039178124 0.07044012 0.13189495
000280 3a f9 ed 3d 62 44 ab 3d 88 ed a8 bd b7 d6 8a 3d
       0.11619802 0.08362652 -0.082484305 0.06779235
000290 4a 51 52 3e 2a 3a 9a 3b 53 3a dd 3c 7f bc 98 bc
       0.20538822 0.0047066407 0.02700535 -0.01864457
0002a0 0b 78 0d 3e b7 bf 6e bc c7 5c 7a bd 47 c1 27 3e
       0.13815324 -0.014572076 -0.061123636 0.16382323
0002b0 65 eb b8 3d 73 fe df bd 14 ea 75 be ce 8d aa bd
       0.09029273 -0.10937204 -0.24015075 -0.08327828
0002c0 01 15 94 3d 96 32 14 3e 93 26 29 bb 3c eb 26 3d
       0.07230569 0.14472422 -0.0025810346 0.04075168
0002d0 b5 41 d4 bd a7 6d 2e 3e 4a 6e 1c 3e 7c 0c 87 3d
       -0.10364095 0.17034017 0.15276447 0.06594178
0002e0 bb ba c4 3d b4 a9 30 3d 5f 9d 4c 3e b6 8b 3b 3d
       0.096059285 0.04313059 0.19981907 0.045787536
0002f0 58 55 8c bc 1b 3c f7 3d 11 87 61 3e 78 02 e8 3d
       -0.017130539 0.12072011 0.2202418 0.11328596
000300 2e 73 31 3c 00 b7 0a bb 26 03 e2 3d de 21 fd 3d
       0.010830684 -0.0021166205 0.11035757 0.12359975
000310 51 18 28 3c 30 75 55 3d ca 5a a9 3d dc d4 12 3e
       0.010259704 0.05211371 0.0826927 0.14339012
000320 e7 3a 21 3d 60 0e aa bd ec 6a 10 3b 32 5f e4 bd
       0.039362814 -0.08303523 0.0022036387 -0.111509696
000330 28 e1 b6 3d 0d c9 c6 bd ab 15 ff bd e5 9b ad bc
       0.08929664 -0.09706316 -0.12455305 -0.0211925
000340 62 8a 5a bb d8 c6 b3 bd 50 b0 6b bd ea 57 9b 3d
       -0.0033346643 -0.08778161 -0.05754119 0.07585128
000350 72 dd 3f bd 8c f0 79 3d d2 e3 36 3d 31 21 e9 3d
       -0.046842046 0.06102042 0.04465086 0.11383284
000360 7e 3f b3 bd 51 f2 2e 3c bf d1 de bd 98 ed 57 3d
       -0.087523445 0.01067789 -0.1087985 0.05271682
000370 7d 83 87 bd ce f1 ae 3d 9e 8f d5 3d 0d 54 11 bb
       -0.06616876 0.08542214 0.104277834 -0.0022175342
000380 93 c2 6f bc fb 0a 10 3e 45 c6 73 3d ea eb c9 bd
       -0.014633792 0.14066689 0.059515256 -0.0985945
000390 c3 0a 1d 3e f4 4a 17 3e 47 42 82 3d f0 6a 5a 3d
       0.15336137 0.14774686 0.06360298 0.05332464
0003a0 82 40 11 bc c8 0d 87 3d 5b 1a c1 bb 1d 90 4f 3c
       -0.0088654775 0.065944254 -0.0058930344 0.012668637
0003b0 a7 76 6d bc d4 f4 21 bd 76 18 10 be e5 dc 00 3d
       -0.014493621 -0.039540127 -0.14071831 0.03146066
0003c0 f9 9e e1 3d ce 22 9c bd f6 71 53 3b 8c 96 4e 3c
       0.1101665 -0.07623826 0.003226397 0.012609135
0003d0 87 3e 20 3d d3 f3 01 3e 43 00 e7 3d 2b 2a 3a 3d
       0.03912213 0.12690668 0.11279347 0.04545037
0003e0 0c 96 09 3e 24 d8 63 bc 69 9b a0 bb f0 68 89 3d
       0.13436145 -0.013906512 -0.004901339 0.06709468
0003f0 fb 29 d5 3d 06 70 9c bd a6 f9 c1 bc 45 3e 9d 3d
       0.10408398 -0.07638554 -0.023678612 0.076778926

fc.3.bias f4 [220]
000000 56 7f d7 3c c0 e4 d6 bb f8 b0 0d bd cb d3 23 3b
       0.026305836 -0.006558031 -0.0345926 0.0024998065
000010 e4 52 52 3b e2 53 16 bd 0a 00 1e 3c 88 ab 33 bd
       0.0032092864 -0.03670109 0.009643564 -0.043864757
000020 5f 76 61 bb e9 18 d1 bc ba 96 94 bc 66 f0 8d bd
       -0.003440283 -0.025524573 -0.018138278 -0.06930618
000030 79 6e 2e bc 15 4d df bc f4 70 cc bb 6c b2 9e bc
       -0.010646456 -0.027258435 -0.006239051 -0.019372188
000040 90 cb cf 3b 9d b4 28 bc 27 ab 66 bc 8a b0 06 bd
       0.006341405 -0.010296968 -0.014078892 -0.032883205
000050 79 b8 b3 3c 31 32 48 bb 1b 49 b7 bb 04 40 27 bc
       0.02193855 -0.0030547495 -0.0055934316 -0.010208134
000060 98 4e c8 bc 24 02 c3 bb 50 1f 5e 3c 5e 96 e5 3c
       -0.024451539 -0.005951183 0.01355727 0.028025802
000070 e5 c3 29 3b 39 46 9a 3a 5b b2 68 bc 40 e2 a1 ba
       0.0025904116 0.0011770196 -0.0142026795 -0.0012350753
000080 b6 05 e0 bc a7 08 c2 3c 0a 54 88 ba 3d 20 14 3d
       -0.027346473 0.023685766 -0.0010401022 0.036163557
000090 be a6 44 bc d7 d9 75 bc 03 b1 2d 3c ac dd 0c 3d
       -0.012002645 -0.01500555 0.010601285 0.03439109
0000a0 10 92 06 bd 58 8d 9c bd 48 f9 53 bc 56 f3 a5 bc
       -0.03285414 -0.07644147 -0.012937851 -0.020257633
0000b0 1b 8a 4f 3d 92 cc 96 3c 09 14 d4 bb 61 00 3a bd
       0.050668817 0.018408094 -0.006472115 -0.045410518
0000c0 27 82 94 bb 9d 28 b5 ba db 9a 4f 3c 43 77 07 bc
       -0.004532117 -0.0013821308 0.012671198 -0.00826818
0000d0 5b 95 39 3b e8 d6 3b bd ac 07 39 3c d7 35 10 3b
       0.0028317783 -0.045859247 0.011293333 0.0022004747
0000e0 28 6c f0 bc 04 ba 3d bd 74 cc 3a bb 0c e9 12 3d
       -0.029348448 -0.046319976 -0.0028503211 0.035866782
0000f0 83 6b 05 bd 92 79 b2 3c e7 df b4 3c 3c 76 09 3d
       -0.032573234 0.021786485 0.022079421 0.033560023
000100 4b 84 8f bc c1 03 02 bd 91 19 98 bc 30 01 5c bd
       -0.017519137 -0.03174186 -0.018566879 -0.05371207
000110 b6 cb 56 bd 03 9f c7 bc 62 cb d0 bc 3d 9a 8e bd
       -0.052440368 -0.024367815 -0.025487605 -0.06963012
000120 0b 3c 01 3d dc 7b 05 bc 54 9c eb bc 81 a1 7a bd
       0.031551402 -0.008147206 -0.028761066 -0.06118918
000130 35 0d 93 bd 01 0c 54 bd 7d 91 54 3d 9e ac 99 3c
       -0.071802534 -0.05176926 0.05189656 0.018759068
000140 15 c2 34 bc 1c 4d 10 3d 10 f5 46 39 1f 52 fd 3a
       -0.011032601 0.035229787 0.00018974044 0.0019326842
000150 e4 ec 8d bc f7 d0 52 bd 65 07 36 bd bf 79 bb 3c
       -0.017324872 -0.051468816 -0.044440646 0.022885201
000160 1d e2 22 bc 11 7c 1a bd cc a7 3c 3d ac 27 32 bd
       -0.009941605 -0.037715975 0.04605846 -0.043494865
000170 e1 3c 4f bd 59 2b 24 bc 82 ea e4 bc c8 1c e6 bc
       -0.050595168 -0.0100201005 -0.027943853 -0.028089896
000180 e6 ed 3c bd fc 6f 24 bd 52 54 a5 bc 27 fc e2 38
       -0.046125315 -0.04014586 -0.020181809 0.00010823487
000190 3e 80 8d bc 2d fd 86 bd 75 13 ae 3c 6a 80 dd 3c
       -0.017273065 -0.06591258 0.021249512 0.027038772
0001a0 c5 a4 3c 3d cd 70 02 bd 2c 6a 14 3d 80 f0 0d bc
       0.046055574 -0.031845856 0.036234066 -0.008663297
0001b0 03 30 c5 3c c6 11 15 bc ed a7 d0 3b fb 8d 1d 3c
       0.024070745 -0.009098476 0.0063676746 0.00961637
0001c0 55 fb e7 ba 68 f6 1b bd b7 90 bb 3c 47 71 e0 3c
       -0.0017698804 -0.03807679 0.022896154 0.027397765
0001d0 d0 db 1f bc 2e 74 09 bd 74 ac a5 bc 6f 34 1d bc
       -0.009756997 -0.033558063 -0.020223834 -0.009595021
0001e0 42 bd d5 3c f6 bd ce bc 48 de 65 bc c7 56 f5 3c
       0.026091222 -0.025237065 -0.014030047 0.029948605
0001f0 05 88 0b 3c b0 e5 f6 bc 35 8a b0 bb fa aa c6 3c
       0.008516316 -0.03013882 -0.0053875693 0.02425145
000200 d3 51 df 3c c5 40 33 3c 21 69 39 bd 78 fe cd 3a
       0.027260697 0.010940735 -0.045266274 0.0015716096
000210 06 34 ca 3b 2d 8d 09 bc 69 72 e6 bb d2 49 17 bc
       0.0061707525 -0.008395475 -0.0070326817 -0.009233909
000220 39 72 79 bd 2a dc 64 bd eb 68 d2 3c 83 3c 15 bd
       -0.060899947 -0.055874027 0.025684794 -0.03643466
000230 71 63 30 bc 29 e2 ba 3b 59 cd 23 bc d5 c7 98 bc
       -0.010765896 0.00570323 -0.009997689 -0.018649975
000240 c5 cc 84 bb ed 5b 45 3c cd b0 ef bc 07 18 93 bc
       -0.0040527307 0.012045843 -0.02925911 -0.017955793
000250 3f 28 20 bd 0c 7f 1b 3d 3a 64 f4 bc b6 71 52 bd
       -0.03910088 0.03796296 -0.029832948 -0.051377974
000260 d0 41 ae bb 84 d0 37 bd 95 4b 86 3d f5 0d 53 bd
       -0.005317904 -0.04487659 0.06557385 -0.051526982
000270 50 62 0c b8 00 01 6b 3c 08 e0 c3 3c a0 89 42 3c
       -3.347016e-05 0.0143435 0.023910537 0.011873633
000280 01 49 d1 bc cf 7a 02 3c 27 74 78 3a 6f f5 42 3c
       -0.025547506 0.00796385 0.0009477757 0.011899336
000290 d8 5a c9 3c bb cf be bc 8b 66 aa bc 31 8a 05 3d
       0.02457945 -0.023292413 -0.02080085 0.032602493
0002a0 a6 ce 5b 3c 66 00 bb bc 67 1c 2d bd 86 0b 5e bd
       0.013415968 -0.022827338 -0.042263415 -0.05421021
0002b0 2c 65 22 3c 52 3e b8 3c 89 f2 a7 3d f5 e3 42 ba
       0.009911817 0.022490654 0.08200557 -0.0007434481
0002c0 5c fd 96 3b d7 b1 14 bc 69 a1 39 3d b5 7d d9 bc
       0.0046078395 -0.009075603 0.04531995 -0.0265492
0002d0 47 c1 dd 3c 69 b2 80 3c 86 60 24 bd 1c 4b f8 3a
       0.0270697 0.015710073 -0.040131114 0.0018943283
0002e0 31 c2 5e bd 0d 75 7c bd 58 00 88 bc 96 23 2b bc
       -0.054384414 -0.061635066 -0.016601726 -0.010445496
0002f0 8e 68 8f 3c 44 52 1f bd 12 43 56 bd 58 0c eb bc
       0.01750591 -0.038896814 -0.052310057 -0.02869241
000300 a1 e4 5f 3d ae 19 5e 39 0d 79 3a 3d 7a eb 09 bb
       0.054661397 0.00021181136 0.0455256 -0.0021044896
000310 fb b0 f0 bc a5 c1 31 bd e2 99 10 3c f7 48 14 3c
       -0.029381266 -0.043397564 0.008825751 0.009050599
000320 69 91 a8 bb 83 59 db bc 82 4b 14 bb b8 30 98 3b
       -0.0051442874 -0.026776081 -0.0022628014 0.0046444796
000330 71 07 35 bd f3 95 03 bd 24 35 16 3d 92 89 c3 bc
       -0.04419655 -0.032125425 0.036671773 -0.02386931
000340 91 9a f2 bc b5 01 e3 3c 00 6b 9e bc ad 5b 7c bd
       -0.029614719 0.027710775 -0.019338131 -0.061610866
000350 4b 89 63 bb a6 3b db bc 54 f0 73 bc 36 16 4b bd
       -0.0034719284 -0.026761841 -0.014888842 -0.04958173
000360 95 01 31 bc 54 16 47 bd 40 d1 9a bd 59 ce d7 bc
       -0.0108036 -0.048605278 -0.075594425 -0.026343511

fc.3.weight f4 [220, 440]
000000 36 95 9a 3d 65 78 85 3d a5 72 1a 3d aa cb af bd
       0.07547991 0.06517104 0.03770699 -0.08583768
000010 0e b1 cc bc 1e ab 18 bd 8d 25 ad 3c 4e a6 17 bd
       -0.02498677 -0.037272565 0.02113607 -0.037023835
000020 f7 45 06 bd 7e 8a 34 3c 9f 28 b1 bc 75 8a 87 bd
       -0.032781567 0.011019347 -0.021625815 -0.066182055
000030 03 eb b1 bd 70 44 4b 3b 97 9f 99 bd 9c 52 f7 3c
       -0.08687403 0.0031016134 -0.075011425 0.030190758
000040 83 f9 0f 3d 04 20 30 bd 58 52 21 3c 60 64 7d 3d
       0.035150062 -0.042999282 0.009846292 0.061863303
000050 47 02 b2 bc c4 c8 ad bd 1a 76 17 bd 5d 23 6e 3d
       -0.021729602 -0.08485559 -0.036977865 0.058139194
000060 a7 52 9b bd 60 ca c3 bc 87 7b ca bc 38 ec d3 bc
       -0.07584124 -0.02390021 -0.024717106 -0.025869474
000070 30 ff 14 bd aa 58 ab bc b0 a0 26 3d cc 6d e0 3c
       -0.03637618 -0.020916302 0.040680587 0.027396105
000080 83 4e f3 bc 23 6c ae bd c0 6c 6e bd a2 cf 92 3d
       -0.029700523 -0.08516719 -0.05820918 0.07168509
000090 42 67 58 bd 2d 75 16 3c 12 7f 50 bd ce 6f 1f 3b
       -0.05283285 0.00918321 -0.050902434 0.0024328115
0000a0 99 76 c6 ba d3 be f1 3b a3 79 8f 3c d4 6b 73 3d
       -0.0015141546 0.0073774843 0.017514056 0.059429005
0000b0 dd 42 d5 bd b3 e3 1d 3d 42 da e2 bc c7 5f 9c 3d
       -0.10413144 0.03854723 -0.027691964 0.076354556
0000c0 56 ac 43 bb bd 66 40 bd 98 80 1d bd 6f 6e a0 bd
       -0.002985736 -0.04697298 -0.038452715 -0.078335635
0000d0 c2 17 81 3d 10 46 17 3d 5d ec ad 3d d9 38 60 bd
       0.063033596 0.03693205 0.08492348 -0.054741714
0000e0 70 7d 63 3d 60 76 a5 3d b9 48 b1 bb 27 d5 bc bd
       0.05553955 0.08079219 -0.0054102805 -0.09220343
0000f0 bb 50 0e bc af b0 d3 bd f7 0b b8 3c 26 1e a8 bd
       -0.00868624 -0.10336434 0.022466643 -0.08208875
000100 22 1f 44 3d d3 7a 02 3d 30 4c 6f 3d 52 e3 ae bb
       0.047881253 0.031855416 0.058422267 -0.0053371573
000110 23 93 00 bd f0 5f 47 bd 63 56 0e 3c 05 81 16 3c
       -0.03139032 -0.048675478 0.008687588 0.009186034
000120 dd ec 9b bd 19 aa 88 bd a9 2b 13 3d 15 bc 83 bc
       -0.076135375 -0.066730686 0.03593031 -0.016080895
000130 63 f4 d2 bc 04 34 95 ba da 20 09 3c ae 91 0d bd
       -0.025751298 -0.00113833 0.008369649 -0.03456276
000140 31 6f 1a bd 66 3f 0a 3d d7 42 aa 3d cf 73 34 bc
       -0.037703697 0.033751868 0.0831353 -0.011013939
000150 2d f2 71 3d 51 3f b8 3d ce df 80 3d 35 b9 58 bd
       0.059068847 0.08996452 0.06292687 -0.052911002
000160 82 ef a4 3d 24 d7 79 bd 42 b2 37 bb e1 2c 86 3d
       0.08053495 -0.06099619 -0.0028029834 0.06551529
000170 37 0f 93 bd bf a2 15 bd af de 6e bd be 0d 73 bc
       -0.071806364 -0.03653216 -0.058317836 -0.014834819
000180 23 b7 32 bd a9 55 15 3c 35 12 59 3d fc 09 0d bd
       -0.043631684 0.009114661 0.05299588 -0.03443335
000190 85 59 b1 3c 11 45 45 3d eb 1a a5 b7 6e df 04 3d
       0.021649132 0.04816157 -1.9682067e-05 0.03243964
0001a0 0a 14 e0 3c 78 cc f0 bc 70 eb 4f bd 48 eb 3c 3d
       0.027353305 -0.029394373 -0.05076164 0.04612282
0001b0 49 c8 a1 3c 39 dc 67 3d 7d a8 8f 3a 0c 5f 4f bd
       0.019748824 0.056606505 0.0010960248 -0.050627753
0001c0 16 fa 9c ba 06 7a c7 bc 9f b8 53 3d 2b 5c da 3c
       -0.0011976387 -0.024350177 0.05168974 0.026655277
0001d0 ce 2c e4 bd 62 0d 84 bd a0 6c 86 3d 96 21 20 bd
       -0.11141358 -0.06447865 0.06563687 -0.03909453
0001e0 14 5c 4a bd 74 0c d3 3c 7d fa 3c 3d e6 80 c1 3d
       -0.04940422 0.025762774 0.04613732 0.094484136
0001f0 54 b8 c6 3b 64 92 3e bd 3c 8b 49 3d 8b f2 23 bd
       0.006064454 -0.046526328 0.04920505 -0.04002623
000200 0b 61 81 3d cb 05 00 bd 4d 19 36 bd f7 fa 3f 3d
       0.063173376 -0.031255525 -0.044457722 0.046870198
000210 2c b2 49 bd 27 2c 7f bd 94 f5 32 bd 03 45 71 3d
       -0.049242184 -0.062297966 -0.043691233 0.058903705
000220 a2 92 63 3d d4 2e 6d bb 6c 82 76 3d 88 43 b7 3d
       0.05555976 -0.0036191242 0.060182974 0.089484274
000230 69 ff cf 3c d3 37 35 bd c6 78 59 3d b9 52 38 bd
       0.025390344 -0.04424269 0.053093694 -0.045000765
000240 e0 97 d2 3b 99 86 f4 3b 4a 64 93 bd 99 d7 4d bd
       0.0064267963 0.0074623344 -0.07196863 -0.050254438
000250 d4 39 d6 3c ee 0e 4b 3d 28 71 b3 bd 14 b5 0d ba
       0.026150621 0.049574785 -0.08761817 -0.0005405706
000260 f9 58 04 bd c1 2e 6c bd 6b 46 c9 3d 60 d4 e5 bc
       -0.032311413 -0.057661775 0.09827884 -0.02805537
000270 49 c1 18 3c db f6 ed 3a 92 53 27 bd fa 4e 3b 3c
       0.0093234265 0.0018155234 -0.040851183 0.011432404
000280 ea c3 99 3c 54 3b bf bb d2 b8 44 3c 1c 61 63 3d
       0.018770177 -0.00583593 0.012006955 0.055512533
000290 5d ea 1b bc 2f 92 62 bc 4f 44 c0 bb 2d 9c 57 bc
       -0.009516326 -0.013828798 -0.005867518 -0.013159794
0002a0 f1 fa fb bc b0 40 ae bd 3a 50 44 bc f5 15 81 bd
       -0.030759307 -0.08508432 -0.011982018 -0.06303016
0002b0 65 76 8a bd 47 17 13 bd 87 f1 67 bc ca 89 66 3d
       -0.06760863 -0.03591087 -0.014156706 0.05628375
0002c0 ed b4 94 3d 19 c5 84 3d 84 ef 80 3d 2b 89 49 bd
       0.07261071 0.06482906 0.06295684 -0.04920308
0002d0 10 e0 5c 3d 41 ba 77 bd ad 99 25 bd 29 f5 a0 3c
       0.05392462 -0.06048036 -0.04042976 0.019648151
0002e0 f1 e1 e6 3c 0d 97 85 3c c0 70 08 bd 92 bc 46 bd
       0.02818391 0.016307378 -0.03331065 -0.04851968
0002f0 df 97 90 3d 8c 1f a0 3d df 27 82 bd a8 91 9f bd
       0.07060217 0.07818517 -0.06355261 -0.077914536
000300 fd 1c 59 bd da a9 ed bc 35 33 0c bd 02 d5 a1 bd
       -0.05300616 -0.029011656 -0.034228522 -0.07901956
000310 20 3c a2 bd 7b 89 0e bd bb 51 3f bd c0 c1 86 bd
       -0.07921624 -0.03479908 -0.046708804 -0.06579924
000320 2e ac d2 bc a0 5c de ba 46 a4 91 bd f2 79 74 bb
       -0.025716867 -0.001696486 -0.07111411 -0.003730413
000330 84 77 c3 3c 5c ce c6 3c 03 6f 9d bd 4d 00 86 bd
       0.0238607 0.024268322 -0.076871894 -0.06543026
000340 b2 a5 6b 3b cc 9e 8c 3c ec 6b 0b 3d 58 60 82 3c
       0.0035956916 0.017165564 0.03403847 0.01591508
000350 46 08 6a bd 5d e5 f2 bb 51 30 7d 3d e0 4f 7e bd
       -0.057136796 -0.007412596 0.061813656 -0.062087893
000360 cc eb 9e bb 09 13 af 3b ac 83 6f 3d 43 3d 10 3d
       -0.0048498865 0.0053428453 0.05847518 0.035214674
000370 06 75 d4 bc c2 9b 09 bd 16 3f d1 b9 f4 51 f3 3c
       -0.025934707 -0.033595808 -0.0003991059 0.029702164
000380 33 0d 78 bd 85 38 96 3b fe 16 1b bd d4 ce 2a bc
       -0.060559463 0.0045843744 -0.037863724 -0.010425288
000390 17 fa 4f 3c 82 44 43 3d a9 63 91 bc 00 4e 39 bc
       0.012693903 0.047672756 -0.017747717 -0.011310101
0003a0 26 2d 8d 3c b2 fe 0d 3c 59 d3 01 3d 86 a1 91 3c
       0.017233443 0.008666681 0.031695697 0.017777216
0003b0 59 79 e2 bc c1 c4 df 3c 93 04 77 3d f0 79 98 bd
       -0.027645754 0.0273155 0.060307097 -0.07445133
0003c0 d9 21 6e bd 51 06 0c 3d 70 01 4c 3d f1 e0 64 3c
       -0.05813775 0.03418571 0.04980606 0.013969646
0003d0 72 99 8d bd 8f 74 77 bb 52 60 96 3d 1f cb 09 3d
       -0.06914033 -0.0037758683 0.073425904 0.033640977
0003e0 44 45 5c bc 0b e3 4a 3d ed 1e 88 3b 13 65 13 bd
       -0.013444249 0.04953293 0.0041540773 -0.035985064
0003f0 81 5e 81 bc 98 c0 8d 3d 49 a9 b6 bd 31 83 13 3d
       -0.015792133 0.069215 -0.08919007 0.036013786
