inventory/ark_material.onnx (onnx, 555942 bytes, 8 tensors)

35 f4 [8, 3, 5, 5]
0	0xbbc1576a	-0.005900313
1	0xbe8b4ee8	-0.27208638
2	0x3e046a11	0.12931086
3	0x3e074578	0.13210094
4	0xbc938f99	-0.018012809
5	0x3e885282	0.26625448
6	0xbf0eff7b	-0.5585858
7	0xbd93c01f	-0.072143786
8	0xbe9d7235	-0.30751196
9	0x3e8c9a7a	0.27461606
10	0xbe551dc9	-0.20812143
11	0xbeb42419	-0.3518379
12	0xbe7de2c8	-0.24793541
13	0xbea29a01	-0.3175812
14	0xbea507ec	-0.32232606
15	0xbed9be17	-0.4252784
16	0xbd732a30	-0.059366405
17	0x3e30ace5	0.17253454
18	0x3f02d57f	0.5110702
19	0xbd0677a8	-0.032828957
20	0xbd1202d5	-0.035647232
21	0xbefac0ca	-0.4897521
22	0xbd80ba30	-0.062855124
23	0xbeba1c02	-0.36349493
24	0x3d3b9da6	0.045804642
25	0x3ebd3aa5	0.36958805
26	0x3e8d58de	0.27606863
27	0x3eaf8a59	0.34285238
28	0x3e117116	0.14203295
29	0x3e91ab8b	0.2845119
30	0xbe976d03	-0.29575357
31	0x3eb42f48	0.35192323
32	0x3d46591c	0.048424825
33	0x3e9e2f8a	0.30895644
34	0x3f02123e	0.50809085
35	0x3e876f8b	0.26452288
36	0x3eb4deb2	0.35326153
37	0xbe9c119d	-0.30482188
38	0x3e5a1a0e	0.21299002
39	0x3f17e124	0.5932791
40	0x3e515453	0.20442323
41	0x3c08d330	0.008351132
42	0xbe214af6	-0.15751252
43	0xbecbec1d	-0.39828578
44	0xbf02c395	-0.51079684
45	0xbe2b1f31	-0.16711117
46	0xbe869682	-0.26286703
47	0xbebbc0e8	-0.36670613
48	0x3f0905c7	0.5352444
49	0x3eaf1d76	0.34202164
50	0x3ecb0726	0.3965389
51	0x3d62a44b	0.055332463
52	0x3d278b68	0.040904433
53	0xbc1487f4	-0.009065617
54	0x3effab54	0.499354
55	0xbe80bb97	-0.2514312
56	0x3e1f7e39	0.15575494
57	0xbdd40817	-0.103531055
58	0xbe201591	-0.15633227
59	0xbaa6c2cc	-0.0012722849
60	0xbdcb2457	-0.09919041
61	0xbe9c5594	-0.3053404
62	0x3f1386f4	0.576278
63	0x3f3c3a2d	0.7352627
64	0x3e2d4709	0.16921629
65	0xbebd7b7b	-0.3700827
66	0xbe632ea9	-0.22185768
67	0x3e2207bf	0.15823267
68	0x3c7b3231	0.015331791
69	0x3d654e4a	0.055982865
70	0x3ee16dca	0.44029075
71	0xbea755a8	-0.32682538
72	0x3ea6afce	0.32556003
73	0xbe9da979	-0.3079336
74	0x3ead78d9	0.33881262
75	0x3e6df07b	0.23236267
76	0x3eb8aa06	0.36067218
77	0xbf1573ab	-0.5837962
78	0x3f0dc521	0.5537892
79	0x3ef99698	0.48747706
80	0x3ee09bde	0.43868917
81	0xbf6c214e	-0.9223832
82	0xbe5122bb	-0.20423405
83	0xbeaf94eb	-0.34293303
84	0xbe59374a	-0.21212497
85	0xbed4591d	-0.41474238
86	0xbe13cce2	-0.14433625
87	0xbee8689d	-0.45392314
88	0xbf84e62b	-1.0382742
89	0x3e81b3c1	0.25332454
90	0xbed6370d	-0.41838875
91	0x3f46d820	0.7767353
92	0xbe0a6484	-0.13514906
93	0x3e92128c	0.28529775
94	0xbe9c6e00	-0.30552673
95	0x3e203ad4	0.15647441
96	0xbd95af93	-0.07308879
97	0x3ea0ef04	0.31432354
98	0x3ecb4953	0.3970438
99	0x3f7d8b53	0.99040717
100	0x3e8e791f	0.27826783
101	0xbf4d2d00	-0.8014679
102	0x3f1dda67	0.6166138
103	0xbdb76559	-0.089548774
104	0x3f20660c	0.6265571
105	0xbf2a527b	-0.66532105
106	0x3ed1babb	0.40962777
107	0x3ee40ac5	0.44539467
108	0xbf011f62	-0.5043851
109	0x3f2ae027	0.6674828
110	0x3e146a68	0.14493716
111	0x3f01e1de	0.5073527
112	0xbf8fb681	-1.1227571
113	0xbe1d4acf	-0.15360568
114	0xbf57f696	-0.84360635
115	0xbf0c3490	-0.54767704
116	0xbf38b52c	-0.72151446
117	0xbd5d201a	-0.053985693
118	0xbef78eee	-0.48351234
119	0xbf56be8e	-0.83884513
120	0x3f32741e	0.6970843
121	0x3f0891f0	0.5334768
122	0x3f276b7c	0.65398383
123	0x3ea4df53	0.32201633
124	0x3e46cb66	0.19413528
125	0xbc66036b	-0.014038901
126	0x3e12fb92	0.14353779
127	0xbd703960	-0.058648467
128	0x3f15dad7	0.5853705
129	0xbf1f8bb2	-0.62322533
130	0x3e82da11	0.25556996
131	0x3eccae8c	0.3997692
132	0xbf537d54	-0.8261311
133	0x3d276c91	0.04087502
134	0xbf43fcd6	-0.7655767
135	0xbe7f508f	-0.24933074
136	0xbec08b90	-0.37606478
137	0x3cec89fb	0.028874388
138	0x3f01fe10	0.50778294
139	0xbf61ce24	-0.8820517
140	0xbf178af0	-0.59196377
141	0x3f00c13b	0.50294846
142	0x3e90b9a9	0.28266647
143	0xbe79dffb	-0.24401848
144	0x3f1fda03	0.62442034
145	0xbccff537	-0.025385482
146	0xbefefc01	-0.4980164
147	0x3f1ef728	0.6209588
148	0xbe0bab14	-0.1363948
149	0xbeff66c2	-0.49883085
150	0xbee7a218	-0.45240855
151	0x3ded41e5	0.11584834
152	0xbe740c1e	-0.23832747
153	0x3ef9da82	0.4879952
154	0xbe769571	-0.24080445
155	0xbe2569db	-0.16153662
156	0x3d2203e9	0.03955451
157	0xbbe0232f	-0.0068401317
158	0xbe56292f	-0.20914148
159	0xbdfa3f0c	-0.122190565
160	0x3e714965	0.23563154
161	0x3e8ee051	0.27905515
162	0x3dcc13c2	0.09964706
163	0x3e68ba64	0.22727352
164	0x3ea53299	0.32265165
165	0x3d1cbeb3	0.038267802
166	0x3e4877dc	0.19576973
167	0xbead6a06	-0.33869952
168	0xbecf7b2a	-0.40523654
169	0x3ed878a3	0.4227954
170	0xbbeabfc4	-0.0071639735
171	0xbea9adb4	-0.33140337
172	0x3dd16509	0.10224349
173	0xbd2cc8ab	-0.04218356
174	0xbcac52c0	-0.021035552
175	0x3e63547c	0.22200197
176	0x3f2ae725	0.6675895
177	0xbda20a3e	-0.0791211
178	0x3e44c7a1	0.19216777
179	0xbea40d3f	-0.32041356
180	0x3ea929d5	0.33039728
181	0xbdcb7255	-0.099339165
182	0x3eb311e2	0.3497458
183	0x3db6f6d4	0.089337975
184	0x3d42f014	0.047592238
185	0x3e1733c0	0.14765835
186	0x3e9d2c5d	0.3069791
187	0x3e241bd6	0.16026244
188	0x3da81d46	0.082087085
189	0xbe91b1ef	-0.28456065
190	0x3e919a03	0.28437814
191	0x3f10043a	0.5625645
192	0x3ebff341	0.37490276
193	0x3e77592b	0.24155109
194	0xbebedc4c	-0.37277448
195	0xbe16f8d7	-0.14743362
196	0xbd9fa2f3	-0.07794752
197	0xbdce3ac4	-0.100698024
198	0xbd15675d	-0.036475528
199	0x3ddf858f	0.10914146
200	0xbf18b278	-0.5964732
201	0xbe927dac	-0.28611505
202	0xbef9aa55	-0.48762766
203	0xbe16bd7c	-0.1472072
204	0xbce25b4f	-0.02763143
205	0x3e060ed9	0.13091601
206	0xbecbbfab	-0.3979467
207	0xbe18edd7	-0.14934479
208	0xbebc1397	-0.36733696
209	0x3eaa32f8	0.3324201
210	0xbf45814a	-0.77150404
211	0xbf116ef5	-0.5680993
212	0xbec962d4	-0.39333212
213	0xbea77db8	-0.32713103
214	0xbef78900	-0.4834671
215	0x3c80dfc6	0.015731703
216	0xbe1e37c2	-0.15450957
217	0xbea5b5ea	-0.32365352
218	0x3a3f8cf7	0.0007307077
219	0xbeea302c	-0.45739877
220	0xbe800f99	-0.250119
221	0x3d94fb67	0.07274514
222	0x3e214da9	0.15752281
223	0x3ed8e639	0.42363146
224	0xbd9c8359	-0.0764224
225	0x3ee361f0	0.44410658
226	0x3f4b55ca	0.7942778
227	0x3dc0e866	0.094193265
228	0x3efd0009	0.4941409
229	0x3e8d277d	0.2756919
230	0x3e3109ef	0.17288946
231	0xbeb128b1	-0.34601358
232	0x3cc7a00f	0.024368314
233	0x3f191ce4	0.5980971
234	0xbe270aa4	-0.16312653
235	0x3e5d5b3f	0.21616839
236	0xbd256150	-0.040376008
237	0xbe14fbd6	-0.14549193
238	0xbed7dcad	-0.4216055
239	0x3efb3218	0.49061656
240	0x3ccbb8f3	0.024868464
241	0xbebc0bc3	-0.36727723
242	0xbf377684	-0.71665215
243	0xbf192a3f	-0.5983009
244	0xbf1e9980	-0.6195297
245	0xbf2d2824	-0.67639375
246	0x3e6a0b65	0.22855909
247	0xbef0fdb9	-0.47068575
248	0xbf0ed6b2	-0.5579635
249	0xbf101dc8	-0.5629544
250	0xbe4bf4a3	-0.1991754
251	0xbe95b677	-0.29240772
252	0x3eb7118e	0.3575558
253	0x3f1e1974	0.6175759
254	0x3f01d54f	0.5071611
255	0xbf08d877	-0.534553

36 f4 [8]
0	0xbf7c1f37	-0.9848513
1	0x3f998b47	1.1995629
2	0x3fafd6f8	1.3737478
3	0x3e5616b5	0.209071
4	0xbfafdbc7	-1.3738946
5	0x3fe37ade	1.7771871
6	0x3f807b30	1.0037594
7	0x4000413d	2.0039818

38 f4 [16, 8, 3, 3]
0	0xbefd4caa	-0.49472553
1	0x3de1ade7	0.11019497
2	0xbdd59abb	-0.10429903
3	0x3f1eb37d	0.6199263
4	0x3c8c3cb8	0.017118797
5	0x3eb9aea7	0.36266062
6	0x3edca41a	0.4309395
7	0x3ea5e232	0.32399136
8	0x3f0e36cb	0.5555236
9	0x3e761f95	0.24035485
10	0x3e875679	0.2643316
11	0x3dbd8c3a	0.09255262
12	0x3dd5ffab	0.104491554
13	0xbf268b9d	-0.6505678
14	0x3e8ff3bd	0.28115645
15	0x3f553ca6	0.8329567
16	0xbe78cc66	-0.24296722
17	0x3ed1c111	0.4096761
18	0xbe569bad	-0.20957823
19	0x3e774730	0.2414825
20	0xbf2b6ca7	-0.66962665
21	0xbee19d1c	-0.44065177
22	0x3ed00689	0.40629986
23	0x3f8720a8	1.0556841
24	0xbeebc4be	-0.4604854
25	0x3e86e540	0.2634678
26	0x3d7ae7e3	0.0612563
27	0x3f8c1cf6	1.0946338
28	0x3fae3d95	1.3612543
29	0x3e99d58d	0.3004574
30	0xbed1d605	-0.40983596
31	0x3ee921c0	0.45533562
32	0xbe3294af	-0.17439531
33	0xbf1623e1	-0.58648497
34	0xbf004bb9	-0.50115544
35	0xbe7519f7	-0.23935686
36	0xbe91da16	-0.284867
37	0xbed9efe8	-0.42565846
38	0xbdd84ab3	-0.10561123
39	0x3e4a9c0e	0.19786093
40	0x3f023168	0.5085664
41	0x3ec0a915	0.37629
42	0x3ed3e8fd	0.41388693
43	0xbf210f9b	-0.6291444
44	0xbf0ad655	-0.54233295
45	0xbd83f4f8	-0.064432085
46	0xbdfb4089	-0.122681685
47	0xbecf2a54	-0.4046198
48	0xbc88afd7	-0.01668541
49	0xbf953998	-1.1658201
50	0xbbdc8fd1	-0.0067310114
51	0xbcb6a2cc	-0.022294424
52	0xbf6dcb1c	-0.92888045
53	0xbe3cffed	-0.18457003
54	0x3cd78191	0.0263069
55	0xbec49cfc	-0.3840102
56	0x3d3abd05	0.04559042
57	0xbf37a5bc	-0.71737266
58	0xbdfaf3f3	-0.12253561
59	0x3f4c6313	0.79838675
60	0x3eeff3e3	0.46865758
61	0x3fd11e4c	1.6337371
62	0x3f87f163	1.062054
63	0xbf1b36d5	-0.6063054
64	0x3e2ebf73	0.1706522
65	0xbe550253	-0.20801668
66	0x3e2ab3f9	0.16670217
67	0x3e688473	0.22706775
68	0x3f5e9fab	0.86962384
69	0xbd5fb4d7	-0.05461582
70	0xbf4e8255	-0.8066762
71	0x3f802ed6	1.0014293
72	0x3efeeba1	0.49789146
73	0x3e2ca1c7	0.16858588
74	0xbc44cdda	-0.012011969
75	0x3e02fac9	0.1279098
76	0xbf4d79aa	-0.8026377
77	0xbed80b25	-0.42196003
78	0xbf2b67fd	-0.6695555
79	0x3eb1c07b	0.34717163
80	0x3eac9de2	0.33714205
81	0xbf0b79cc	-0.5448272
82	0x3e909e15	0.28245607
83	0x3ea6bf50	0.32567835
84	0xbeb51a9b	-0.3537186
85	0xbee1bdf3	-0.44090232
86	0xbef06575	-0.46952406
87	0xbe90ea9c	-0.28303993
88	0x3f4a7ec3	0.79099673
89	0xbe6a5fb3	-0.22888069
90	0x3ee42a30	0.44563437
91	0xbe30f31a	-0.17280236
92	0xbf098652	-0.5372058
93	0x3f0802d2	0.53129303
94	0x3c05f977	0.008177153
95	0xbf335bd5	-0.70062
96	0x3f29baa9	0.66300446
97	0x3e033790	0.12814164
98	0xbf4618d8	-0.7738166
99	0xbdbd3252	-0.092381135
100	0xbdb655e7	-0.08903103
101	0x3e2fc2dc	0.17164177
102	0xbf85f524	-1.0465436
103	0xbf20630c	-0.62651134
104	0xbe480d30	-0.1953628
105	0x3e98cd6c	0.29844224
106	0x3ef53355	0.47890726
107	0x3e0c2c84	0.13688856
108	0x3f3879ae	0.7206067
109	0xbf34f022	-0.70678914
110	0x3f0ae6f7	0.54258674
111	0x3de4a34c	0.11163959
112	0xbf814ae3	-1.0100979
113	0xbf50aeb7	-0.81516594
114	0x3f4d2c60	0.80145836
115	0x3d01448b	0.03155951
116	0x3f8034e7	1.0016145
117	0x3e8809a5	0.26569858
118	0xbef02bb9	-0.46908358
119	0xbe1dc9fd	-0.15409084
120	0xbf91be24	-1.1386151
121	0xbf2b98c5	-0.6702998
122	0x3f4bfc24	0.7968161
123	0x3ebc2f22	0.3675471
124	0xbc3c1f37	-0.011482052
125	0x3eec81ea	0.46192867
126	0xbde11182	-0.109896675
127	0x3cc47118	0.023979709
128	0xbf22b73f	-0.6356086
129	0xbf2bf437	-0.6716952
130	0x3e81cdfc	0.25352466
131	0xbdf690ed	-0.12039361
132	0xbeb672cc	-0.35634458
133	0xbf089b74	-0.533622
134	0x3e26d7da	0.16293278
135	0xbeb2062e	-0.3477034
136	0x3fb871c6	1.4409721
137	0x3f9d3239	1.2280952
138	0x3f34f46e	0.7068547
139	0x3f4c69e0	0.7984905
140	0x3f729e9b	0.9477326
141	0xbd669491	-0.056294028
142	0x3ec30a92	0.38094002
143	0xbf6ce01a	-0.9252945
144	0x3d9ef8a6	0.0776227
145	0xbe58e9f6	-0.21182999
146	0xbe467190	-0.19379258
147	0x3e0c32c8	0.13691247
148	0xbf076fe9	-0.52905136
149	0x3f356839	0.70862156
150	0xbf072c75	-0.5280221
151	0xbec056ff	-0.37566373
152	0x3f4d4edd	0.8019846
153	0xbe620d61	-0.22075416
154	0x3e5ad789	0.21371283
155	0x3e7c051a	0.24611321
156	0xbe8664f6	-0.26248902
157	0x3f48c756	0.7842916
158	0xbf0a3006	-0.5397953
159	0xbe416db9	-0.18889512
160	0xbd0ef8c3	-0.034905206
161	0x3ed315b5	0.412275
162	0x3f4a9fbd	0.7914999
163	0xbd19bd61	-0.03753412
164	0xbf278871	-0.6544257
165	0xbeabd969	-0.33564308
166	0x3f14966b	0.5804202
167	0xbf0c42b7	-0.547893
168	0xbe51db50	-0.20493817
169	0xbeef3941	-0.4672337
170	0xbef83b64	-0.4848281
171	0xbf610ada	-0.87907183
172	0x3f27679c	0.6539247
173	0x3ea44634	0.3208481
174	0x3f0d0ce4	0.55097795
175	0x3ecd92f4	0.4015118
176	0x3dd568d5	0.10420386
177	0x3ecbb465	0.39786068
178	0xbea86a47	-0.32893583
179	0xbe28e957	-0.16495262
180	0x3f2c39e5	0.6727584
181	0xbe3d97f0	-0.18514991
182	0x3ef836bc	0.4847926
183	0xbdc42fb1	-0.09579409
184	0xbeedbaff	-0.4643173
185	0x3ededda5	0.43528476
186	0x3f41a9a5	0.7564948
187	0xbf198b16	-0.59977853
188	0x3dfc8305	0.123296775
189	0x3e8251fd	0.25453177
190	0xbf0376a8	-0.5135293
191	0x3de098e8	0.109666646
192	0xbf452c17	-0.770204
193	0x3f193256	0.5984243
194	0xbea6e621	-0.3259745
195	0x3ef14f3d	0.47130767
196	0xbe419c90	-0.1890738
197	0xbf25e8e6	-0.648085
198	0xbe1d372b	-0.15353076
199	0xbf2dd317	-0.6790022
200	0x3d52b68d	0.051443625
201	0xbc691062	-0.014225097
202	0x3f12d349	0.57353646
203	0xbed6f716	-0.41985387
204	0xbf06bad9	-0.52628857
205	0xbf297c01	-0.6620484
206	0xbf00abb6	-0.5026201
207	0x3d9e86bb	0.077405415
208	0x3ebe097e	0.37116617
209	0x3e8e4ab8	0.2779138
210	0xbeae52f1	-0.34047654
211	0x3f7d05c7	0.9883694
212	0xbee62e19	-0.44957045
213	0x3f52a03f	0.82275766
214	0x3e838ec4	0.2569486
215	0xbd2f78a5	-0.042839665
216	0xbc56ad9c	-0.013102915
217	0x3f7b9390	0.9827204
218	0x3f094bdd	0.53631383
219	0x3dabbdd9	0.0838582
220	0x3f47268b	0.77793187
221	0xbef33aa9	-0.47505692
222	0xbf366cf4	-0.7126
223	0xbd6d1b76	-0.057887517
224	0xbf287df6	-0.658172
225	0xbe2349e5	-0.15946157
226	0xbdd83500	-0.10556984
227	0x3ee74ff7	0.45178196
228	0x3e168075	0.1469744
229	0x3f09b586	0.5379261
230	0x3da0a7a9	0.07844479
231	0xbeca0b1c	-0.394616
232	0xbf6bd877	-0.92127174
233	0xbf88fa45	-1.0701376
234	0xbecccd8f	-0.4000058
235	0xbb850e29	-0.004060526
236	0x3f3a2742	0.7271615
237	0xbdab7c74	-0.08373347
238	0xbdee9c3c	-0.11650893
239	0xbce31bad	-0.027723158
240	0x3e097763	0.13424449
241	0x3f43c745	0.76475936
242	0xbf3354db	-0.70051354
243	0xbde533be	-0.1119151
244	0xbf2a0c91	-0.66425425
245	0x3e7e65c6	0.24843511
246	0xbf486c39	-0.78290135
247	0xbf50efdb	-0.8161599
248	0xbfb12a77	-1.3841084
249	0x3f604cb2	0.8761703
250	0xbfab886d	-1.3401009
251	0xbf653160	-0.89528465
252	0xbd8154a5	-0.06314973
253	0x3ecf338c	0.40469015
254	0xbf3df9ba	-0.7420918
255	0x3d915667	0.07096558

39 f4 [16]
0	0xbfb86e40	-1.4408646
1	0x3eddfc26	0.43356436
2	0x3f208248	0.62698793
3	0x40594678	3.394926
4	0x40848d7d	4.1422715
5	0xbd8080cc	-0.06274566
6	0x400da5ac	2.2132368
7	0xbf3c6cdc	-0.73603606
8	0xbeccd624	-0.40007126
9	0xbf92a5d6	-1.1456859
10	0xc023e902	-2.5610967
11	0x405a05a1	3.4065936
12	0x3f10a80a	0.5650641
13	0xbf989534	-1.1920533
14	0x3ef6f746	0.4823553
15	0x4031465e	2.7699199

fc.0.bias f4 [454]
0	0xbd9f698d	-0.07783804
1	0x3db39991	0.08769525
2	0x3dbe40e0	0.09289718
3	0xbd41e4ab	-0.047337215
4	0x3d994341	0.07483531
5	0x3c89a1af	0.01680073
6	0xbd6a028d	-0.05713134
7	0xbd9dc4e2	-0.07703568
8	0x3d0ad4e1	0.033894423
9	0x3dcba9d4	0.099445015
10	0x3db8d5b8	0.090251386
11	0x3ac36903	0.0014908615
12	0x3e02ac94	0.12761146
13	0x3d40fddb	0.047117095
14	0xbc3e48d2	-0.011614041
15	0x3c34579b	0.011007215
16	0xba8c2c98	-0.0010694442
17	0xbca55745	-0.020183215
18	0x3d16c7eb	0.03681175
19	0xbd277893	-0.040886473
20	0x3da484b6	0.08033125
21	0x3cbc891a	0.023014594
22	0xbd96cf26	-0.07363729
23	0xbd1aca6d	-0.037790705
24	0x3d588dc1	0.052869562
25	0x3c015ec8	0.007896133
26	0xbc0bd522	-0.008534702
27	0x3d436337	0.04770204
28	0xbb89961f	-0.004198804
29	0x3d5da987	0.054116752
30	0x3c9eda71	0.01939127
31	0xbc298702	-0.01034713
32	0x3d3bfc27	0.045894768
33	0x3d196a0b	0.037454646
34	0x3dba13cc	0.09085807
35	0x3ddeefcd	0.10885582
36	0xbb483ffc	-0.0030555716
37	0x3d2d5625	0.042318482
38	0x3d5f69f8	0.05454442
39	0x3d62071c	0.05518256
40	0x3d097866	0.033562087
41	0x3ca14eef	0.019690959
42	0x3c394098	0.011306904
43	0x3d9df3ac	0.07712492
44	0xbc3ea93c	-0.011637028
45	0x3cfdffa8	0.031005695
46	0x3d2bae5b	0.041914325
47	0x3e1a75fa	0.15084067
48	0x3d2902d4	0.041262463
49	0xb9205394	-0.00015289924
50	0xbbac6074	-0.0052605215
51	0x3d2248da	0.039620258
52	0xbd45c9c5	-0.048288126
53	0x3d092ea2	0.03349174
54	0xbd5cc0f4	-0.053894952
55	0x3d34fb95	0.04418524
56	0x3dbb1a1e	0.09135841
57	0xbc628972	-0.013826715
58	0x3e03d1b5	0.12872966
59	0x3d8f7048	0.07003838
60	0xbc95e035	-0.018295387
61	0x3d530b29	0.051524315
62	0x3d51e61b	0.051244836
63	0x3dd94127	0.1060813
64	0x3d88425a	0.066532806
65	0xbd09c65e	-0.033636443
66	0x3d1cc2a4	0.03827156
67	0x3d3dcdff	0.04633903
68	0x3c661e93	0.014045375
69	0x3ddbf5da	0.10740252
70	0x3dea0a56	0.11427753
71	0x3cb4e7b3	0.022083139
72	0x3dbb4d13	0.0914556
73	0xb99c4d50	-0.0002981224
74	0x3daab7e2	0.08335854
75	0x3db64f27	0.08901816
76	0x3d396e9b	0.045271497
77	0x3de07cb1	0.10961283
78	0x3d1dea24	0.038553372
79	0x3d398715	0.04529484
80	0x3e1894c6	0.14900503
81	0xbbc98c00	-0.0061507225
82	0x3dd772c6	0.10519938
83	0xbc56f850	-0.013120726
84	0xbc835085	-0.016029606
85	0x3da69f1d	0.08135817
86	0x3bf5b39a	0.007498217
87	0x3de87ea3	0.11352279
88	0x3d5c6fb0	0.05381745
89	0x3de72f08	0.112882674
90	0x3d8e48a2	0.06947447
91	0x3dddbf7d	0.10827539
92	0xbb68bf0a	-0.0035514259
93	0x3dbb3a42	0.09141971
94	0x3dc6647c	0.096871346
95	0xbca09a27	-0.019604756
96	0x3d73af59	0.059493396
97	0x3e31dece	0.1737015
98	0x3d629add	0.05532347
99	0x3d5184d0	0.05115205
100	0xbb734a54	-0.003712316
101	0x3ca06ac8	0.019582167
102	0x3dafc0ce	0.085816965
103	0xbd61bf13	-0.055113863
104	0x3d15dff5	0.036590535
105	0x3dc9f6e1	0.098615415
106	0x3dc00dd8	0.093776405
107	0x3dc9e1de	0.09857534
108	0x3c0d7e51	0.008636073
109	0xbd0ee599	-0.03488693
110	0xbbbdbc29	-0.0057902527
111	0x3da2cdb3	0.0794939
112	0x3e003556	0.12520346
113	0x3d44e33e	0.048068278
114	0xbbfff12a	-0.0078107314
115	0x3d61a37d	0.055087555
116	0xbc4e5b5e	-0.012595026
117	0x3dbeef72	0.09323014
118	0x3cc3bec8	0.023894683
119	0x3ddd4ccc	0.108056635
120	0x3ca4192e	0.020031538
121	0x3d926f1f	0.07150101
122	0x3d79527b	0.060869675
123	0x3d731f27	0.05935588
124	0xbd90cc06	-0.070701644
125	0x3c2a1dd7	0.010383091
126	0xbce5b806	-0.02804185
127	0x3d52b191	0.05143887
128	0x3d50b0da	0.05094991
129	0xbcac627e	-0.021043058
130	0xbd2f9653	-0.04286797
131	0xbc861641	-0.016368033
132	0xb7994e2a	-1.827542e-05
133	0xbd7ec08b	-0.062195342
134	0x3de33a88	0.11095148
135	0x3d73207b	0.059357148
136	0x3e22e3e2	0.15907243
137	0xbcfc3ba1	-0.030790152
138	0xbca65753	-0.020305311
139	0xbbef6457	-0.0073056626
140	0x3d2a2f7e	0.0415492
141	0x3d64b1e5	0.055833716
142	0x3de4610e	0.11151324
143	0x3c90362c	0.017603956
144	0xbc8e5962	-0.017376605
145	0x3d0419a3	0.03225101
146	0x3da15608	0.07877737
147	0xbc8be73d	-0.017078036
148	0x3cf5516f	0.029946057
149	0x3e1661d6	0.14685759
150	0xbd03c26b	-0.032167833
151	0x3c57f3d4	0.013180692
152	0xbc3eb561	-0.011639924
153	0x3e054e06	0.13018045
154	0x3dddbc23	0.108269
155	0x3cd4a3bf	0.025956986
156	0xbc077992	-0.008268731
157	0x3dc762d4	0.09735647
158	0x3d0db77a	0.034598805
159	0x3dbbb3c1	0.09165145
160	0x3df968d3	0.12178197
161	0xbc317c69	-0.010832884
162	0xbcda12af	-0.026620237
163	0x3df9c338	0.12195438
164	0x3ddc9b19	0.1077177
165	0x3d7ff72f	0.062491592
166	0xbbd94383	-0.0066303625
167	0xbcd68358	-0.026185676
168	0xbd9a4620	-0.075329065
169	0xbc4102aa	-0.01178042
170	0x3d6655d0	0.05623418
171	0xbcdf530b	-0.027261278
172	0xbdb49483	-0.08817389
173	0x3dbf7b79	0.093497224
174	0xbcb31a27	-0.021863056
175	0x3e04499b	0.12918703
176	0xbc56e018	-0.013114952
177	0xbc5cb14a	-0.013470003
178	0x3dad41a2	0.08459784
179	0xbd2298e2	-0.03969658
180	0x3df1b8e4	0.11802843
181	0x3d1e87b9	0.038703654
182	0xbcaa744a	-0.020807404
183	0xbd9561d0	-0.07294047
184	0x3b45142a	0.0030071833
185	0x3c4450c5	0.011982148
186	0xbb797a03	-0.003806711
187	0x3bfa0e00	0.0076310635
188	0x3df0805c	0.117432326
189	0xbc2f7bc0	-0.010710657
190	0xbbbe168b	-0.005801027
191	0x3d1fffd9	0.039062355
192	0x3cdbb76a	0.026820857
193	0xbd35c046	-0.04437282
194	0xbcdb85da	-0.026797224
195	0x3cb830ef	0.02248427
196	0x3d3656a0	0.044516206
197	0x3cc34017	0.023834271
198	0xbc9cd373	-0.019143796
199	0x3cfb6891	0.03068951
200	0xbd6c3378	-0.057666272
201	0x3d138e3d	0.03602432
202	0x3db1c17d	0.08679483
203	0x3cb85b38	0.022504434
204	0xbbd5d3ce	-0.006525493
205	0x3d354643	0.04425646
206	0x3d35bedc	0.04437147
207	0x3dd2bdf7	0.10290139
208	0x3dc27f67	0.09496956
209	0xbcc1fcd7	-0.023680134
210	0x3c8a8578	0.016909346
211	0x3e0652b0	0.1311748
212	0x3dcf27c9	0.1011501
213	0x3bb41aa8	0.0054963417
214	0x3d91d3ba	0.07120462
215	0x3ca09ce9	0.01960607
216	0x3ca3c757	0.019992514
217	0x3d8e7409	0.06955726
218	0x3d7dbe99	0.061949346
219	0x3d9edede	0.07757352
220	0xbd14e430	-0.03635043
221	0x3d434baf	0.0476796
222	0x3daac877	0.08339017
223	0x3dea1d23	0.11431339
224	0x3d4d75ec	0.050161287
225	0x3d32e351	0.043673817
226	0xbc1bf3a8	-0.009518541
227	0x3df267aa	0.118361786
228	0xbd64f4e7	-0.05589762
229	0x3d9f958f	0.07792198
230	0x3d04611e	0.03231918
231	0xbce65b3c	-0.028119676
232	0xbd8d9809	-0.06913764
233	0x3d397933	0.0452816
234	0x3ca4ea8c	0.020131372
235	0x3dc9908e	0.09842025
236	0xbdc62d92	-0.096766606
237	0x3ddc6e81	0.107632644
238	0xbd51b345	-0.051196355
239	0xbb4e75c8	-0.0031503309
240	0xbc91e91e	-0.017811354
241	0x3ce94ade	0.028478082
242	0xbd714507	-0.05890372
243	0x3d4c23b2	0.04983873
244	0x3d9b1a39	0.07573361
245	0xbcb48762	-0.022037212
246	0xbcfd5d5e	-0.03092831
247	0x3de6b608	0.112651885
248	0x3d3085b3	0.043096256
249	0x3dcceae7	0.100057416
250	0x3d36994d	0.044579793
251	0x3dfa1f33	0.12212982
252	0xbd44f0bb	-0.04808114
253	0x3dae9501	0.08524514
254	0x3d9ae0bc	0.07562396
255	0x3d409de1	0.047025565

fc.0.weight f4 [454, 64]
0	0x3d5bdace	0.053675465
1	0xbdbc0b62	-0.091818586
2	0x3e093367	0.13398515
3	0x3d97335b	0.07382842
4	0x3c96d6bd	0.018412942
5	0x3d8e1151	0.069368966
6	0xbc4f5741	-0.01265508
7	0x3dd71cfb	0.105035745
8	0xbdc6cc27	-0.09706908
9	0xbd67e294	-0.056612566
10	0xbd92f894	-0.07176319
11	0xbb59969c	-0.0033201342
12	0x3dea4f92	0.11440958
13	0x3e3a7a0d	0.18210621
14	0x3d666120	0.05624497
15	0x3dfbccbb	0.122949086
16	0x3d3180e8	0.043335825
17	0xbb6d1ada	-0.0036179335
18	0x3d5df1e1	0.05418575
19	0xbe06bdbe	-0.13158318
20	0xbb810740	-0.003937632
21	0x3d9927ed	0.07478318
22	0xbdef13c6	-0.11673693
23	0xbc9de4db	-0.019274166
24	0x3db25af3	0.087087534
25	0xbcabc164	-0.02096624
26	0x3e0bd666	0.13656005
27	0xbd93d42b	-0.07218202
28	0x3ce4f443	0.027948504
29	0xbe178017	-0.14794956
30	0xbd9b1f99	-0.07574386
31	0x3cb1bb6f	0.02169582
32	0x3d989635	0.07450525
33	0xbcb12fa1	-0.021629157
34	0xbe163165	-0.1466728
35	0x3db1b419	0.08676929
36	0x3d769bc2	0.060207136
37	0x3d351617	0.04421052
38	0x3d0e985a	0.034813263
39	0xbddb02d6	-0.106939
40	0x3dcf2076	0.10113613
41	0x3d5026e7	0.05081835
42	0x3d0c77e3	0.03429402
43	0x3e2bb366	0.16767654
44	0xbd756be2	-0.05991734
45	0x3e090b77	0.1338328
46	0xbc55b419	-0.013043427
47	0x3df669a8	0.12031871
48	0xbd2119ec	-0.03933136
49	0xbcaeda0f	-0.021344213
50	0x3d2f772a	0.042838253
51	0xbdb93b4a	-0.090445116
52	0x3ce2b433	0.027673816
53	0x3dd42800	0.10359192
54	0xbd382ab1	-0.04496259
55	0x3e18e5cb	0.14931409
56	0xbae90197	-0.0017776963
57	0x3d11af5d	0.03556763
58	0xbd55285f	-0.052040454
59	0x3d7918b6	0.06081458
60	0xbd63da1f	-0.05562794
61	0x39d766b8	0.00041084527
62	0x3c8041cb	0.015656373
63	0xbda6f0b8	-0.08151382
64	0xbd29e20d	-0.041475344
65	0x3db743ea	0.089485005
66	0xbda693c6	-0.08133654
67	0x3da14da4	0.07876137
68	0x3da3aaaf	0.0799154
69	0x3e2ba7db	0.1676325
70	0x3da01d9c	0.078181475
71	0x3e0a7f92	0.13525227
72	0x3dd47f1e	0.10375808
73	0xbce31a0f	-0.027722387
74	0xbc9af1d7	-0.018914146
75	0x3c9b7ddb	0.018980911
76	0xbd8bc9c0	-0.0682559
77	0x3d0a94b0	0.033833206
78	0xbdf31a0e	-0.11870204
79	0x3dd302c6	0.10303263
80	0x3d9fa90b	0.07795914
81	0x3c4cb8ee	0.012495263
82	0xbce0451f	-0.02737671
83	0xbcc873f3	-0.024469351
84	0x3c81d567	0.015848828
85	0x3d2ab255	0.041673977
86	0x3e216887	0.1576253
87	0xbdc93586	-0.09824662
88	0xbdf586b0	-0.1198858
89	0x3b97ae3a	0.0046289237
90	0xb97bfe30	-0.00024031918
91	0xbaad1eb7	-0.0013208006
92	0xbcd0129a	-0.025399495
93	0x3d341e43	0.043974172
94	0xbd67ef7e	-0.056624882
95	0xbd083844	-0.033256784
96	0xbe0c4c49	-0.13700975
97	0x3d97956a	0.07401545
98	0xbdd0bb44	-0.10191968
99	0xbdb07561	-0.08616138
100	0xbd9f6961	-0.07783771
101	0xbc3f5877	-0.0116788065
102	0x3deca769	0.115553685
103	0x3d852393	0.06500926
104	0x3d7e7f47	0.0621331
105	0x3d423243	0.047411215
106	0x3dec3abb	0.115346394
107	0x3e031b2a	0.12803331
108	0x3e22bdb6	0.15892681
109	0xbd1b6bb6	-0.037944518
110	0x3d2d6633	0.042333793
111	0x3d08022f	0.033205207
112	0xbca760f0	-0.020431966
113	0x3d604ac4	0.054758802
114	0xbd393854	-0.045219734
115	0xbd47b5f4	-0.04875751
116	0x3d486708	0.048926383
117	0xbdf6ce7b	-0.12051102
118	0x3d8378c8	0.064195216
119	0x3d2f107e	0.042740338
120	0x3dff81ed	0.12475953
121	0x3dc48547	0.09595733
122	0x3e0ef1a1	0.13959362
123	0x3e31c800	0.1736145
124	0xbdbed751	-0.09318412
125	0x3d7b8dc3	0.06141449
126	0xbd3de68d	-0.04636245
127	0xbd09451c	-0.033513173
128	0x3c303fb9	0.01075738
129	0x3cb93f2e	0.022613134
130	0x394b0084	0.0001935978
131	0x3db37ff2	0.08764638
132	0xbdbde4b6	-0.09272139
133	0xbd9935d6	-0.074809715
134	0xbca5a944	-0.020222314
135	0x3db84f3e	0.08999489
136	0xbe0b4f03	-0.1360436
137	0x3c8cf97b	0.017208805
138	0x3dcf68fa	0.101274446
139	0x3d7c48e1	0.06159294
140	0xbd910e12	-0.07082762
141	0xbd6b502d	-0.05744951
142	0x3d4748fc	0.048653588
143	0x3e457d05	0.19285972
144	0x3dc4083c	0.09571883
145	0x3e22ef36	0.15911564
146	0x3db65b93	0.08904185
147	0xbbb57480	-0.0055375695
148	0xbe125ed4	-0.14293987
149	0xbbff0331	-0.007782363
150	0x3cf672f5	0.030084113
151	0xbaf91f36	-0.0019006494
152	0x3da7c183	0.08191206
153	0xbd2c19f5	-0.042016942
154	0x3d5364ac	0.05160968
155	0x3e5d3ac2	0.21604446
156	0x3d63f2ca	0.055651464
157	0x3e134428	0.14381468
158	0xbe0cfb58	-0.13767755
159	0xbde70814	-0.11280838
160	0xbb03edaa	-0.0020130672
161	0xbcb84af0	-0.02249667
162	0x3d86a7ff	0.065750115
163	0xbde312fa	-0.11087604
164	0x3c0aff74	0.008483756
165	0xbb9928c5	-0.0046740496
166	0xbe195198	-0.14972532
167	0x3c349d49	0.011023828
168	0xbde174b1	-0.11008585
169	0xbe06767a	-0.13131133
170	0x3d5d4107	0.054017093
171	0xbdfa42c3	-0.12219765
172	0xbd38cbd2	-0.045116253
173	0xbe011650	-0.12606168
174	0x3e5af7e7	0.2138363
175	0x3e1159f7	0.14194475
176	0x3c92590a	0.017864723
177	0xbcfb2546	-0.030657422
178	0xbd2c8278	-0.042116612
179	0x3deaf526	0.114725396
180	0xbded86a9	-0.1159795
181	0xbbfe86fd	-0.0077675567
182	0x3d6b4264	0.057436362
183	0x3df5e88b	0.12007245
184	0x3e05b494	0.13057166
185	0x3e04785f	0.12936543
186	0xbdf9b01a	-0.12191792
187	0x3d431d31	0.04763526
188	0x3a849763	0.0010115918
189	0xbdd1cec0	-0.102445126
190	0x3c126745	0.008935754
191	0x3e28788b	0.16452233
192	0xbc963e6f	-0.018340318
193	0xbdf7e4f3	-0.121042155
194	0x3dc1d726	0.094648644
195	0x3e017286	0.12641343
196	0xbd7d0b41	-0.06177831
197	0x3d41fbec	0.047359392
198	0x3b7a6ab6	0.0038210577
199	0xbd4c312c	-0.04985158
200	0xbbac6c45	-0.00526193
201	0x3d9090b4	0.0705885
202	0x3ddf8c37	0.10915416
203	0x3dcd997b	0.1003904
204	0xbdc4f80e	-0.09617625
205	0x3d70754f	0.058705624
206	0x3d4ac973	0.049508523
207	0xbc678116	-0.014129898
208	0xbdb2c306	-0.08728604
209	0xbd15ab30	-0.03654021
210	0x3da78ccd	0.081811525
211	0x3c082b75	0.008311142
212	0x3e018e28	0.12651885
213	0x3d6b6bec	0.05747597
214	0x3dc0088d	0.09376631
215	0x3e28e584	0.16493803
216	0xbde548cc	-0.111955255
217	0xbc8f9d5f	-0.017531095
218	0xbda91b07	-0.08257108
219	0x3cc5058b	0.024050495
220	0xbd7c93a2	-0.06166423
221	0xbbf4caef	-0.0074704806
222	0xbdbf4ec8	-0.09341198
223	0x3e2b2d4c	0.16716498
224	0x3e19e2bc	0.15027899
225	0x3cc16792	0.023608956
226	0xbd192c14	-0.03739555
227	0xbd5bab94	-0.053630427
228	0x3b26d870	0.0025458597
229	0xbd28938d	-0.04115634
230	0xbd6f67a1	-0.058448438
231	0x3dd76fcf	0.10519373
232	0x3d07285a	0.032997467
233	0x3cbfe6c0	0.02342546
234	0x3c6eb402	0.014569284
235	0x3d90e13a	0.070742086
236	0x3ac8068f	0.0015260744
237	0x3e36b23d	0.1784143
238	0xbd361e66	-0.044462584
239	0x3c222309	0.009896048
240	0xbc55ba25	-0.013044869
241	0xbd5a48b1	-0.05329198
242	0x3c56b8df	0.0131056
243	0x3d67c767	0.05658665
244	0x3d9cb3d9	0.07651491
245	0x3ce3d47f	0.027811287
246	0x3e0b5d2c	0.13609761
247	0x3c945264	0.018105693
248	0x3da61b0d	0.08110628
249	0x3c870c19	0.01648526
250	0x3e1105e7	0.14162408
251	0x3d9e69e7	0.07735043
252	0xbd9f22a4	-0.07770279
253	0x3cd3378f	0.025783328
254	0x3db0b44c	0.08628139
255	0xbdcd0048	-0.10009819

fc.3.bias f4 [227]
0	0x3baf7774	0.005354816
1	0xbcad3539	-0.021143543
2	0xbc5dff88	-0.013549693
3	0x3cf0edaf	0.029410211
4	0xbb86280c	-0.0040941294
5	0xbc81ac10	-0.015829116
6	0xbcc2f4a9	-0.023798304
7	0xbd11e467	-0.035618212
8	0x3c61143e	0.013737736
9	0xbd10e266	-0.03537216
10	0xbd827f24	-0.063719064
11	0xbbad88e9	-0.005295862
12	0xbbe1134d	-0.006868756
13	0xbba9c20f	-0.0051806043
14	0x3b0e31ba	0.002169712
15	0xbcac24db	-0.021013668
16	0x3d093988	0.03350213
17	0xbb42f261	-0.002974652
18	0xbc549c68	-0.012976743
19	0xbcc5f12d	-0.024162853
20	0xbbb99b61	-0.0056642746
21	0xbcf06039	-0.029342758
22	0x3d4aec3f	0.049541708
23	0x3d7c85eb	0.06165115
24	0x3cc3baec	0.023892842
25	0xbbcf3abd	-0.006324141
26	0xbc4f07d5	-0.012636145
27	0xbaf7ff29	-0.0018920648
28	0x3bea07ca	0.007142042
29	0x3beccd45	0.0072266185
30	0x3d1f0b9c	0.03882943
31	0xbbfca892	-0.007710525
32	0xbc396806	-0.011316305
33	0xbc81ecd9	-0.015860008
34	0xbb07f422	-0.002074488
35	0x3b4fe545	0.0031722349
36	0xbcaede83	-0.021346336
37	0x3d61256e	0.054967336
38	0x3bde89b5	0.0067913183
39	0x3d12ef89	0.03587297
40	0xbd0e810c	-0.034791037
41	0xbd3d45bb	-0.04620908
42	0xbd226943	-0.039651167
43	0xbda48fc7	-0.08035236
44	0x3c4f5318	0.012654088
45	0x3aa99804	0.0012938981
46	0x3c385c3b	0.011252458
47	0xbd87fdf5	-0.06640235
48	0xbc1b89d7	-0.009493313
49	0x3d31c063	0.043396365
50	0xbc713c6d	-0.014723879
51	0x3ce39c11	0.02778438
52	0x3b91f69c	0.004454447
53	0xbcb87a28	-0.022519186
54	0x3bf4ccc0	0.007470697
55	0x3ac453e5	0.0014978616
56	0xbc0f1735	-0.00873356
57	0xbd7a2795	-0.061072905
58	0xbd26d783	-0.04073287
59	0x3bae9ed2	0.0053289915
60	0xbc688eb5	-0.01419418
61	0x3c7e8ff2	0.015537249
62	0x3d138032	0.03601093
63	0x3b828ff9	0.003984448
64	0xbd7a9645	-0.061178464
65	0xbcf753e3	-0.030191367
66	0xbcad5139	-0.021156894
67	0xbd415ba9	-0.047206555
68	0xbc8312cc	-0.016000174
69	0xbd628715	-0.055304606
70	0xbd198406	-0.037479423
71	0xbcd02351	-0.025407465
72	0x3b23e01b	0.0025005403
73	0xbd4f4370	-0.050601423
74	0xbd08ed19	-0.03342924
75	0xbd607178	-0.054795712
76	0xbd9bdb00	-0.0761013
77	0xbd7bcb76	-0.061473332
78	0x3c13ab67	0.0090130335
79	0x3ca2faf1	0.019895049
80	0xbbb2f760	-0.0054616183
81	0x3bce755c	0.0063006114
82	0x3af6550a	0.0018793654
83	0xbbff2400	-0.007786274
84	0xbc708af4	-0.0146815665
85	0xbbebc3e0	-0.007194981
86	0xbd089b7d	-0.03335141
87	0x3d00cd3b	0.031445723
88	0xbba110cf	-0.004915334
89	0xbcd0cd61	-0.025488557
90	0x3cd7da64	0.026349254
91	0xbc807bb2	-0.015683983
92	0xbd75918c	-0.059953257
93	0xbd4311ed	-0.047624517
94	0x3b0f099d	0.0021825798
95	0x3c657ceb	0.014006834
96	0x3b8f954d	0.0043818117
97	0xbd3a5043	-0.0454867
98	0x3c604cf2	0.01369022
99	0x3b9febe4	0.0048804153
100	0xbcc51a42	-0.024060372
101	0xbc5c501a	-0.013446832
102	0xbca6f22c	-0.020379148
103	0xbc94f30a	-0.018182296
104	0xbaf1a0e2	-0.0018434788
105	0xbd32a9ce	-0.04361897
106	0xbcc96c69	-0.024587827
107	0x3cb81a5c	0.022473507
108	0xbcf796e8	-0.030223325
109	0x3b3b01ae	0.0028534937
110	0xbb7996ee	-0.0038084346
111	0xbcb72e8f	-0.022361068
112	0x3a66cd00	0.0008804351
113	0xbb90de92	-0.0044210637
114	0x3cd94241	0.02652085
115	0x3c263edc	0.010146823
116	0x3bdd351b	0.0067507154
117	0xbd500e06	-0.050794624
118	0x3be09ebd	0.0068548606
119	0xbd3107b8	-0.04322025
120	0x3d3a7628	0.04552284
121	0xbcb88d52	-0.022528324
122	0xba757c09	-0.0009364491
123	0x3a43621c	0.0007453279
124	0xbad4b8e7	-0.0016229422
125	0x3cb55189	0.022133606
126	0x3bc03177	0.0058652717
127	0xbd1b68a3	-0.037941586
128	0x3bf995df	0.007616743
129	0xbbea217f	-0.0071451063
130	0x3cad669b	0.02116709
131	0x3c6f0db4	0.014590669
132	0x3cf0c80c	0.029392265
133	0x3c16596e	0.009176595
134	0xbc3325f3	-0.010934341
135	0xbc46b98c	-0.012129199
136	0xbb9792b5	-0.004625643
137	0xbbe07875	-0.006850297
138	0xbc86611c	-0.016403727
139	0x3cb44ba2	0.02200872
140	0xbb364b74	-0.002781597
141	0xbcde3b47	-0.027127875
142	0xbbf6eedf	-0.0075358
143	0xbd03e5c6	-0.03220155
144	0x3d18eddc	0.037336215
145	0x3bcb0831	0.006196045
146	0xbc2f16e2	-0.010686608
147	0xbb34b274	-0.0027572187
148	0xbbab7cc5	-0.0052333795
149	0x3c178af2	0.009249436
150	0x3cc98e90	0.024604112
151	0x3c65d42f	0.014027639
152	0x3d0ab0b9	0.033859942
153	0x3c8564fa	0.016283501
154	0xbc111041	-0.008853973
155	0xbd1b74c1	-0.037953142
156	0xbae58ea2	-0.0017513821
157	0x39f46488	0.00046614208
158	0x3cc53296	0.024071973
159	0xbc03e4b9	-0.008050137
160	0xbb451b98	-0.0030076262
161	0x3d2fb2db	0.04289518
162	0x3baa8e1d	0.0052049295
163	0xbba9ffd3	-0.0051879673
164	0xbb089965	-0.0020843383
165	0xbcf6c897	-0.030124946
166	0xbb20197d	-0.0024429255
167	0x3cbf3f0a	0.023345489
168	0x3cd4e215	0.02598671
169	0xbc15d931	-0.009146021
170	0x3c8766b8	0.016528472
171	0xbbf14147	-0.007362518
172	0x3c84ef1b	0.016227296
173	0xbbe86bed	-0.007092944
174	0xbc87bcfb	-0.016569605
175	0xbccbc26b	-0.02487298
176	0xbcd27767	-0.025691701
177	0x3c10e10b	0.008842717
178	0x3cfbab5b	0.030721357
179	0xbc2c9c7b	-0.010535355
180	0x3d26ad46	0.04069259
181	0xbc0a433f	-0.008438884
182	0x3cbacfaf	0.02280411
183	0xbcdac67a	-0.02670597
184	0xbc195660	-0.009358972
185	0xbc85659a	-0.016283799
186	0x3ce19f39	0.027541744
187	0x3cf0f7ea	0.02941509
188	0x3d50717d	0.05088948
189	0x3d29a608	0.041418105
190	0xbb1fc77c	-0.0024380377
191	0xbce9ecea	-0.028555352
192	0x3c038618	0.008027576
193	0x3c7558c1	0.014974774
194	0x3be7e6a8	0.007077057
195	0x3bd1233e	0.006382375
196	0x3d976c07	0.073936515
197	0xba70330e	-0.0009162881
198	0x3d078f66	0.03309574
199	0xbc2831bc	-0.010265764
200	0xbc93d7cb	-0.018047234
201	0x3cc7d268	0.024392322
202	0x3c3c2b9e	0.0114850085
203	0x3d0fa1d4	0.03506644
204	0x3d06e32c	0.03293149
205	0x3acd7926	0.0015676364
206	0x3b811589	0.003939335
207	0x3d5358cf	0.051598366
208	0x3d1dd188	0.038529903
209	0xbd3248ee	-0.043526582
210	0xbcc7deb5	-0.024398187
211	0x3d1cc4b0	0.038273513
212	0x3b800f7e	0.003908097
213	0xbcae4853	-0.021274721
214	0x3d348d29	0.044079933
215	0x3baf84b4	0.0053563956
216	0xbd831b10	-0.06401646
217	0x3cc70fe5	0.024299571
218	0xbc4bd71b	-0.012441422
219	0xbc7b4aea	-0.015337685
220	0xbc8bbded	-0.017058337
221	0xbd243a50	-0.040094674
222	0xbc5af0d5	-0.013363083
223	0xbc0bac2b	-0.008524935
224	0xbd993eca	-0.07482679
225	0xbd75162a	-0.05983559
226	0x3c5456aa	0.012960115

fc.3.weight f4 [227, 454]
0	0xbd3d4f05	-0.046217937
1	0x3cb5e293	0.022202766
2	0x3c3fdcf9	0.011710399
3	0x3d2f2a85	0.04276516
4	0x3d871fe5	0.0659788
5	0x3c1f7984	0.009733561
6	0xbce0d2aa	-0.027444202
7	0x3cb8743a	0.022516359
8	0xbd7281f5	-0.059205968
9	0xbc8d3265	-0.017235944
10	0xbc11eb3f	-0.008906185
11	0xbd8d183f	-0.0688939
12	0x3c5dfd25	0.013549124
13	0x3d597fec	0.05310051
14	0x3cbb1f6f	0.022842137
15	0x3d61b521	0.05510438
16	0x3d65da3f	0.05611634
17	0xbd46d7e1	-0.048545722
18	0xbd3c4714	-0.045966223
19	0x3c99014b	0.018677374
20	0x3d31e8ca	0.043434896
21	0xbd8bedad	-0.068324424
22	0xbd449e22	-0.04800237
23	0x3de4060e	0.11133967
24	0x3ca4a4ac	0.020098053
25	0x3ce70f22	0.028205458
26	0x3d8ebe72	0.06969918
27	0x3d963a42	0.073353305
28	0xbd446e9d	-0.04795705
29	0xbcf59057	-0.029976053
30	0xbd9c4f47	-0.076323085
31	0xbd99f0a6	-0.07516603
32	0x3d1e801f	0.038696405
33	0x3d36b7f7	0.044609036
34	0xbd3c30eb	-0.04594509
35	0x3c4abd2b	0.012374203
36	0x3d93074a	0.07179125
37	0xbc90820a	-0.017640132
38	0x3dba6aea	0.091024235
39	0xbd1be297	-0.03805789
40	0xbc047170	-0.008083686
41	0xbb06fb34	-0.0020596506
42	0x3ce8ca65	0.028416822
43	0xbce47d40	-0.027891755
44	0xbd733f07	-0.05938628
45	0xbd38ffdd	-0.045165885
46	0x3c1dca06	0.009630686
47	0xbd316d3f	-0.043317076
48	0xbc7bc381	-0.015366436
49	0xbd85ea10	-0.065387845
50	0xbd44d57e	-0.048055165
51	0xbd467f7b	-0.04846142
52	0xbcd4d1aa	-0.025978882
53	0x39cc2b5c	0.00038942217
54	0xbc99bc79	-0.018766629
55	0x3d2ef435	0.042713363
56	0xbde227f5	-0.110427774
57	0xbc98fb7c	-0.018674605
58	0xbd6a75d8	-0.05724129
59	0xbd85d8d0	-0.06535494
60	0x3d43de37	0.047819342
61	0xbc9b9098	-0.018989846
62	0xbd501df4	-0.050809816
63	0x3d1167cf	0.03549939
64	0x3c04e993	0.008112329
65	0x3c07cb3e	0.008288203
66	0x3d65d25b	0.056108814
67	0x3dbbe897	0.09175222
68	0xbd2c19d6	-0.042016827
69	0xbd284881	-0.04108477
70	0xbd55be39	-0.052183364
71	0xbce35deb	-0.027754745
72	0x3bb8e547	0.0056425664
73	0xbd085273	-0.033281755
74	0xbd4ee98b	-0.050515693
75	0xbddcf4d1	-0.107888825
76	0x3da4cb50	0.08046591
77	0x3d77d0e8	0.060501963
78	0xbd3551b7	-0.044267382
79	0xbc394b56	-0.011309465
80	0x3d4eb246	0.050462984
81	0xbdcd6647	-0.100292735
82	0xbdc28010	-0.09497082
83	0xbdcb26c7	-0.099195056
84	0xbd00cf9c	-0.03144799
85	0xbc582610	-0.013192669
86	0xbd21a513	-0.039464068
87	0xbd4ab2c0	-0.049486876
88	0x3dcb610f	0.09930622
89	0xbc809c00	-0.015699387
90	0x3d2c77d2	0.042106457
91	0xb9fd0117	-0.00048256732
92	0xbd442a20	-0.047891736
93	0xbde8914e	-0.1135584
94	0xbbc8fd76	-0.0061337305
95	0x3c187f5a	0.009307707
96	0xbbea9522	-0.0071588913
97	0xbd98bd6a	-0.07458003
98	0xbc0e06e1	-0.008668632
99	0xbd026bf1	-0.031841222
100	0xbd409241	-0.04701448
101	0xbd4fce87	-0.05073407
102	0xbd351e16	-0.044218145
103	0xbc807e2c	-0.015685163
104	0x3d354996	0.04425963
105	0xbccabd1c	-0.024748378
106	0xbd02d31f	-0.031939622
107	0x3d005ced	0.03133862
108	0x3c9ab815	0.018886605
109	0x3d4d7134	0.050156787
110	0x3ce93458	0.028467342
111	0x3c277e82	0.010223033
112	0xbce6e5cd	-0.02818575
113	0x3d989707	0.07450681
114	0xbc4344b2	-0.011918234
115	0x3d49ccba	0.049267508
116	0x3d8ca697	0.06867712
117	0xbd581f08	-0.05276397
118	0x3d0b50cf	0.034012612
119	0x3bc68b5e	0.0060590943
120	0x3d0ae15c	0.033906326
121	0xbd7a7455	-0.0611461
122	0x3c942582	0.018084291
123	0xbb5e98fb	-0.0033965695
124	0x3d8889f9	0.06666941
125	0xbd671821	-0.056419495
126	0x3d230784	0.03980209
127	0x3cc08437	0.023500545
128	0xbc50e4bb	-0.012749846
129	0x3c5fb933	0.013654995
130	0x3d08ebfa	0.03342817
131	0x3c3cf771	0.011533604
132	0xbd5a9d56	-0.053372703
133	0xbce72a01	-0.028218271
134	0xbd08c59a	-0.033391573
135	0xbaaa65fe	-0.0013000367
136	0xbd5eece9	-0.054425154
137	0x3cece9d0	0.028920084
138	0xbd89c2df	-0.06726622
139	0xbd6f9b7b	-0.058497887
140	0x3cc0e756	0.02354781
141	0xbc262524	-0.010140691
142	0x3d38c03c	0.045105204
143	0x3bf88ecb	0.0075853816
144	0xbd359ee9	-0.044341
145	0x3d874299	0.06604499
146	0xbd8c1dab	-0.06841596
147	0x3d0c4590	0.034246027
148	0xbd92e30d	-0.07172213
149	0xbd5479ab	-0.051873844
150	0xbd97a6a4	-0.07404831
151	0x3c9b6df5	0.01897333
152	0xbc8ceca6	-0.017202687
153	0xbd09304b	-0.03349332
154	0xbd9f319d	-0.07773135
155	0x3c8a5767	0.01688738
156	0xbdeb4d0d	-0.11489306
157	0x3dc0e1ab	0.09418043
158	0x3c7426b8	0.014901809
159	0x3d91bded	0.071163036
160	0xbd38e32f	-0.045138534
161	0x3d7ad452	0.06123764
162	0xbc0117b6	-0.007879188
163	0x3d01b6cb	0.031668466
164	0xbcbe71ae	-0.023247566
165	0xbd6564ff	-0.05600452
166	0xbd159c41	-0.03652597
167	0x3d32e691	0.043676917
168	0xbcfae356	-0.03062598
169	0xbb20887c	-0.0024495414
170	0x3d6d4c05	0.057933826
171	0xbd0d271f	-0.034461137
172	0x3a855575	0.0010172563
173	0xbd412e17	-0.047163095
174	0xbca0d8e0	-0.019634664
175	0xbc967d72	-0.018370364
176	0xbd884137	-0.06653064
177	0xbd90c65d	-0.07069085
178	0xbd7a72a9	-0.061144505
179	0x3b95e8ba	0.0045748623
180	0xbd6b5c1e	-0.057460897
181	0xbd5550b7	-0.05207893
182	0x3bbef2b9	0.0058272746
183	0x3d6434b8	0.05571434
184	0xbdd763b4	-0.10517064
185	0x3d992840	0.0747838
186	0x3d94119a	0.0722992
187	0x3d78aec3	0.06071354
188	0xbd3c74ed	-0.046009947
189	0xbd2e587f	-0.042564865
190	0xbcda03a0	-0.026613057
191	0xbca36c1d	-0.019949013
192	0x3d5c6e4e	0.053816132
193	0xbcb50509	-0.022097128
194	0x3d4fc3b3	0.050723743
195	0x39f73d4b	0.00047157178
196	0xbd838756	-0.06422298
197	0xbd3b4f16	-0.04572972
198	0xbd6b629f	-0.0574671
199	0x3d73357b	0.059377175
200	0xbd57be67	-0.052671816
201	0xbcba98bc	-0.022777908
202	0xbd5ce496	-0.053928934
203	0x3bcf4f7f	0.0063266153
204	0x3d65fa0f	0.056146678
205	0x3c400bb6	0.011721542
206	0xbd9adde0	-0.075618505
207	0xbd4b9a4c	-0.049707696
208	0x3c76b3b8	0.015057497
209	0x3d08f7b3	0.03343935
210	0xbd584457	-0.05279955
211	0x3c77b8f3	0.015119779
212	0xbd827a9d	-0.06371043
213	0x3d9363ad	0.07196746
214	0xbc8f2d21	-0.017477574
215	0x3a6e93bb	0.0009100993
216	0xbd91aedb	-0.07113429
217	0x3d4964cf	0.049168404
218	0xbdd74431	-0.10511053
219	0x3b6d6f80	0.003622979
220	0xbdb8fa0f	-0.0903207
221	0xbd5c62b7	-0.05380508
222	0xbd37f21d	-0.04490863
223	0x3d55990b	0.052147906
224	0xbce2a868	-0.027668193
225	0xbc708cbe	-0.014681993
226	0x3bff2b28	0.007787127
227	0xbc929634	-0.017893888
228	0x3d080a34	0.033212855
229	0xbd9dc2cd	-0.07703171
230	0x3b4cbeae	0.0031241584
231	0x3d500ced	0.050793577
232	0x3d03d8ec	0.032189295
233	0x3d8c1674	0.0684022
234	0xbd4aa908	-0.049477607
235	0xbca4863d	-0.020083541
236	0xbce67ea7	-0.028136564
237	0xbd15485b	-0.036445957
238	0xbc7fda97	-0.015616081
239	0xbd0e57dc	-0.034751758
240	0x3c36b162	0.01115069
241	0x3c86daf2	0.016461823
242	0xbcbca75d	-0.023029024
243	0x3d55d107	0.052201297
244	0xbcb14c7a	-0.021642912
245	0xbcfb3d05	-0.030668745
246	0x3cd49ecb	0.025954625
247	0xbdb2a2db	-0.087224685
248	0x3bac9f33	0.0052680015
249	0x3cb5b136	0.022179227
250	0xbd647431	-0.05577487
251	0xbd77286e	-0.06034129
252	0xbd1144ea	-0.035466112
253	0x3c9c10f5	0.019051054
254	0x3c933dcb	0.017973801
255	0x3d8bbbdb	0.0682294
