inventory/ark_material.onnx (onnx, 560212 bytes, 8 tensors)

35 f4 [8, 3, 5, 5]
0	0xbe461809	-0.19345106
1	0x3de10314	0.10986915
2	0xbd806a26	-0.06270246
3	0xbe75aba9	-0.23991264
4	0xbec2ccfa	-0.3804701
5	0x3e0491da	0.12946263
6	0xbe5c38f2	-0.21506098
7	0xbcb361f1	-0.021897288
8	0xbeb55c2b	-0.3542188
9	0x3ea5e039	0.3239763
10	0xbe2656d8	-0.16244066
11	0x3e5dd653	0.2166379
12	0x3df73f56	0.12072627
13	0xbe8db71c	-0.27678764
14	0xbe8ef0fd	-0.27918234
15	0xbe88ef28	-0.26744962
16	0xbed741ae	-0.42042297
17	0xbe174477	-0.14772211
18	0x3e457236	0.1928185
19	0x3d0be0ec	0.03415005
20	0xbe6d579c	-0.23177952
21	0x3ee57eaf	0.44823214
22	0x3eb786dc	0.35845077
23	0x3e50c152	0.20386246
24	0xbe22e6b6	-0.15908322
25	0xbdf184b6	-0.11792891
26	0x3ebb40fb	0.36573014
27	0xbe4eea70	-0.20206618
28	0xbb08866c	-0.0020832075
29	0xbd1407fe	-0.036140434
30	0xbe470cb8	-0.19438446
31	0xbf0250dc	-0.5090463
32	0xbdbe609a	-0.09295769
33	0x3e9c506b	0.30530104
34	0x3ea890bd	0.32922927
35	0x3eb1b396	0.34707326
36	0x3dac43c4	0.08411363
37	0x3e9216dd	0.28533068
38	0xbe677023	-0.2260137
39	0xbeb5e44c	-0.3552574
40	0x3f18e5a9	0.59725434
41	0x3eb4cd7d	0.35313025
42	0xbb7be74f	-0.0038437431
43	0xbe505414	-0.20344573
44	0x3edbac26	0.42904776
45	0x3ec5bd9d	0.38621226
46	0x3e633fa2	0.22192243
47	0xbd60b52e	-0.054860286
48	0x3e4ab683	0.19796185
49	0xbe2274d9	-0.15864886
50	0x3e3b5433	0.18293838
51	0xbeff3ead	-0.49852505
52	0x3e544ad0	0.20731664
53	0xbecbe1a3	-0.39820585
54	0xbeca29ba	-0.3948496
55	0xbe822a57	-0.25422928
56	0xbcc8f72f	-0.024531929
57	0xbeefb0ea	-0.46814662
58	0x3defe56a	0.11713679
59	0x3dfc8d03	0.12331583
60	0x3cd1a147	0.025589598
61	0x3dee8a60	0.11647487
62	0xbe40420b	-0.18775193
63	0xbb3957b8	-0.0028281044
64	0x3d7d1aca	0.061793126
65	0x3db63b54	0.08898035
66	0x3e5560a0	0.20837641
67	0x3eb9cb84	0.36288083
68	0x3ef03f41	0.4692326
69	0x3e981d87	0.29710028
70	0x3e984c97	0.29745933
71	0xbde612fc	-0.1123409
72	0x3f0bc93f	0.5460395
73	0x3eafaacd	0.34309998
74	0x3f1d014c	0.61330104
75	0xbecc7c21	-0.39938453
76	0x3eab5433	0.33462676
77	0xbf1af1aa	-0.60525
78	0x3eada8be	0.33917803
79	0xbecdd89f	-0.4020433
80	0xbcd5ed3d	-0.0261141
81	0xbeb29d55	-0.3488566
82	0x3ef87ea3	0.48534116
83	0xbed4eac8	-0.41585374
84	0x3cdfb1bd	0.027306432
85	0x3ed35e17	0.41282722
86	0x3f22f174	0.6364968
87	0x3ee7831a	0.4521721
88	0x3df43323	0.11923816
89	0x3d334548	0.043767244
90	0x3e87da7e	0.26533884
91	0x3f17536b	0.5911166
92	0x3df075b7	0.11741202
93	0x3f13b245	0.5769389
94	0x3f272cfc	0.65303016
95	0xbe684656	-0.22683081
96	0x3f036d1a	0.5133835
97	0xbebe7f5c	-0.37206542
98	0x3ef7afc1	0.48376277
99	0xbf1782b5	-0.5918382
100	0xbf7fee6a	-0.99973166
101	0xbecc588f	-0.39911315
102	0xbed87819	-0.42279127
103	0x3cc0ddb9	0.023543226
104	0x3f05bf40	0.5224495
105	0xbec6ed60	-0.38852978
106	0x3ea04eeb	0.3131021
107	0x3e591c4a	0.21202198
108	0x3f060d12	0.52363694
109	0x3ddd9be0	0.108207464
110	0xbe98b15a	-0.29822809
111	0x3f014495	0.5049527
112	0x3f11e526	0.5699028
113	0x3e0d8e56	0.13823828
114	0xbedaa1db	-0.4270161
115	0x3f25a0d2	0.6469852
116	0xbf1bab33	-0.60808104
117	0x3f0c240a	0.5474249
118	0x3df65a8e	0.12028991
119	0xbf2e0868	-0.67981577
120	0x3de3b958	0.11119336
121	0xbec61b0d	-0.38692513
122	0xbf119485	-0.5686725
123	0xbf29c98c	-0.6632316
124	0xbf1a9606	-0.6038517
125	0xbf5f8dab	-0.87325543
126	0xbe6ee833	-0.23330764
127	0x3d0d6936	0.034524165
128	0x3f068bc5	0.5255702
129	0x3f38e0cc	0.7221801
130	0x3cc62199	0.024185942
131	0xbf0b1710	-0.54332066
132	0x3e63633f	0.22205828
133	0x3ea727e3	0.3264762
134	0x3ecc7b89	0.39938
135	0x3e88b12b	0.26697668
136	0xbcd3d772	-0.025859568
137	0x3e489578	0.19588268
138	0x3eebb591	0.46036962
139	0xbe6134d2	-0.21992806
140	0x3db3c7bf	0.08778333
141	0x3e9089d8	0.28230166
142	0xbeaf0dc3	-0.34190187
143	0xbeec8624	-0.4619609
144	0xbe8a3b5a	-0.26998407
145	0x3f1690e5	0.5881484
146	0x3e8ddf4b	0.27709422
147	0xbeb24a20	-0.34822178
148	0xbf35dd40	-0.71040726
149	0xbf6f9745	-0.93590194
150	0x3f4f5ae8	0.80998087
151	0xbf8549e8	-1.0413179
152	0xbe8d1a56	-0.27559155
153	0x3ecad9ba	0.39619237
154	0x3f8182b2	1.011801
155	0xbe8a6cf9	-0.27036265
156	0x3ebf041e	0.3730783
157	0xbd500650	-0.05078727
158	0xbf1a1440	-0.6018715
159	0x3f250d36	0.64473283
160	0x3e78fa9b	0.24314348
161	0xbf406579	-0.75154835
162	0xbf0d4e0b	-0.5519721
163	0x3eb595af	0.35465762
164	0xbddcedc2	-0.10787536
165	0x3e046772	0.12930086
166	0xbdda9a00	-0.106739044
167	0xbf658b2a	-0.8966547
168	0xbf443f38	-0.76658964
169	0xbe1d3621	-0.1535268
170	0xbea0669a	-0.3132828
171	0xbe4aa0c2	-0.19787887
172	0x3eeb162f	0.45915362
173	0xbf286291	-0.657754
174	0x3f6bda29	0.9212976
175	0xbecc9a02	-0.3996125
176	0xbf54442c	-0.8291652
177	0x3f020816	0.5079359
178	0xbeab4528	-0.334512
179	0xbe4d5c45	-0.2005473
180	0x3ef1eb19	0.47249678
181	0xbe807f3b	-0.2509707
182	0xbee3901b	-0.4444588
183	0xbf18f58a	-0.5974966
184	0xbf32eea6	-0.698954
185	0x3f6c957d	0.924156
186	0x3efc5589	0.49284008
187	0x3f2b7106	0.66969335
188	0xbf515862	-0.81775486
189	0xbe717a7a	-0.23581877
190	0x3f135ac0	0.5756035
191	0x3f2bcb75	0.67107326
192	0x3ef57394	0.47939742
193	0xbeb41d69	-0.35178688
194	0x3eaa1efe	0.3322677
195	0x3f3af383	0.7302782
196	0x3e4947fa	0.19656363
197	0x3e8354ab	0.25650534
198	0x3f0063e0	0.501524
199	0xbf0b44fa	-0.54402125
200	0xbf119444	-0.5686686
201	0xbde7f674	-0.11326304
202	0xbd75c342	-0.060000665
203	0xbe5476de	-0.20748469
204	0x3deb9473	0.11502924
205	0x3d5395a5	0.051656384
206	0x3eb33b2e	0.35006088
207	0xbf0f06ef	-0.55869955
208	0x3f1d2cb7	0.61396354
209	0xbeb883f2	-0.36038166
210	0xbf305b7c	-0.68889594
211	0xbf1a627c	-0.60306525
212	0x3ee65f90	0.44994783
213	0x3e1c53ef	0.15266393
214	0xbed050e0	-0.40686703
215	0xbe9ff104	-0.31238568
216	0x3ebd7075	0.3699986
217	0x3e3dff2d	0.18554373
218	0x3ef6d437	0.48208782
219	0xbf0d5b7d	-0.55217725
220	0xbea5c276	-0.32374924
221	0xbe884659	-0.2661617
222	0x3f13739a	0.5759827
223	0x3e3d3e9a	0.18480912
224	0xbf4c0482	-0.7969438
225	0xbea7fbaa	-0.32809192
226	0xbe73f085	-0.2382222
227	0x3e518cdf	0.20463894
228	0x3dcb7737	0.09934848
229	0xbc1f1060	-0.009708494
230	0x3e7f0149	0.24902834
231	0xbe9bf019	-0.30456617
232	0x3d78bfe8	0.06072989
233	0x3e136cd9	0.14396991
234	0xbcf09c7d	-0.029371494
235	0x3e87881a	0.26471025
236	0xbe05fb6f	-0.13084196
237	0xbd4aa291	-0.04947144
238	0x3d9b4d1f	0.07583069
239	0x3e09dc4b	0.13462941
240	0xbd643ec6	-0.055723928
241	0xbdc01f24	-0.093809396
242	0x3eb68886	0.35651034
243	0xbb04be69	-0.0020255095
244	0x3e5f1ecd	0.21789093
245	0x3c9fa4a0	0.019487679
246	0xbde3693b	-0.111040555
247	0x3e61c6fa	0.2204856
248	0x3f02388a	0.5086752
249	0x3f2fba09	0.6864324
250	0x3e9a1eec	0.30101717
251	0x3eae2980	0.34016037
252	0xbec60544	-0.38675892
253	0x3d679448	0.056537896
254	0xbed6918b	-0.41907915
255	0xbd8393e8	-0.06424695

36 f4 [8]
0	0xbf96c9f5	-1.1780382
1	0x3da64c39	0.08120007
2	0x3f95661d	1.1671788
3	0xbfb48348	-1.4102564
4	0x3ff4f9cf	1.9138736
5	0x3ffc116c	1.9692817
6	0xbf9003b5	-1.1251131
7	0xbdf953e9	-0.12174208

38 f4 [16, 8, 3, 3]
0	0xbf3b272d	-0.7310665
1	0xbebdc01f	-0.3706064
2	0xbe5ef292	-0.2177222
3	0x3f2ee149	0.6831251
4	0xbd956e3f	-0.072964184
5	0xbe837a80	-0.25679398
6	0xbea61590	-0.32438326
7	0xbf46884a	-0.7755171
8	0x3f7168a6	0.94300306
9	0x3ed3fe91	0.41405156
10	0x3eafc932	0.34333187
11	0x3ac45b15	0.0014980758
12	0x3f9924c4	1.1964345
13	0x3fd4d843	1.6628498
14	0x3e49ab65	0.19694288
15	0xbc22f14f	-0.009945228
16	0xbd88bb82	-0.06676389
17	0xbe114e5a	-0.14190045
18	0x3f44fd13	0.7694866
19	0xbf1893af	-0.5960035
20	0xbe3aa0cc	-0.18225402
21	0xbf9fb350	-1.2476597
22	0x3e6d377e	0.231657
23	0xbea0ec40	-0.31430244
24	0x3ec32fc7	0.3812239
25	0xbe8c7191	-0.27430394
26	0xbf0056a5	-0.5013221
27	0x3dee89f2	0.11647405
28	0xbe78f9e9	-0.24314083
29	0xbe8f646e	-0.2800631
30	0x3b385ca1	0.0028131383
31	0xbf321f02	-0.69578564
32	0xbe894b9a	-0.26815492
33	0x3e76bf9f	0.24096535
34	0x3f379500	0.7171173
35	0x3faf28f6	1.3684375
36	0xbecf86f4	-0.4053265
37	0x3f4b49d7	0.79409546
38	0xbe1748d6	-0.14773878
39	0x3ea8cd5b	0.32969174
40	0x3d9ab615	0.07554261
41	0xbe4cc610	-0.1999743
42	0xbf6f56c4	-0.9349177
43	0xbeb38a6e	-0.3506655
44	0x3f21b267	0.63162845
45	0x3eabdff3	0.33569297
46	0xbecc9886	-0.39960116
47	0xbf187728	-0.5955682
48	0xbe9a7e9f	-0.3017473
49	0x3dd2edb4	0.102992445
50	0xbf04d9eb	-0.51895016
51	0x3f81edc8	1.015069
52	0xbf177113	-0.5915691
53	0x3f06d350	0.5266619
54	0x3f7faeac	0.99875903
55	0xbd9102f5	-0.07080642
56	0xbe8df747	-0.2772772
57	0xbf797f00	-0.9745941
58	0x3e47129c	0.19440693
59	0xbe60e1c0	-0.21961117
60	0x3eadd740	0.33953285
61	0xbf272436	-0.6528963
62	0x3fb19759	1.3874313
63	0xbe8d6ad6	-0.27620572
64	0x3fdeb8a8	1.7400103
65	0x3f1ff008	0.62475634
66	0x3ea700ba	0.32617742
67	0xbeb72253	-0.35768375
68	0x3dffd7a3	0.12492301
69	0xbe31395c	-0.17307037
70	0xbe988279	-0.29787043
71	0x3f388528	0.7207818
72	0x3f9e7e4e	1.2382295
73	0x3f1cd06e	0.6125554
74	0xbf0f552c	-0.55989337
75	0x3f0323de	0.51226604
76	0x3eb14f5d	0.34630862
77	0xbfd06c54	-1.6283059
78	0xbe693921	-0.22775699
79	0xbf859305	-1.0435492
80	0xbd787702	-0.06066037
81	0xbeb424d7	-0.35184357
82	0x3f0e7f07	0.5566258
83	0xbdaddb39	-0.08489079
84	0xbea7f119	-0.3280113
85	0x3e5b7b26	0.21433696
86	0xbf89bc45	-1.076058
87	0xbd734e48	-0.059400827
88	0xbd02a559	-0.03189597
89	0xbf6388fd	-0.888809
90	0x3cee0d93	0.029059207
91	0xbf4bee45	-0.79660445
92	0xbf082f62	-0.531973
93	0x3faa4cd7	1.33047
94	0x3fd9be40	1.7011185
95	0xbcce7f1c	-0.025207095
96	0x3f58c8f8	0.84681654
97	0x3f75afb4	0.95971227
98	0x3f0d2240	0.55130386
99	0xbc8563cd	-0.01628294
100	0x3f06b7fc	0.5262449
101	0x3f24bb47	0.6434826
102	0xbeaf7794	-0.34270918
103	0x3f839819	1.0280792
104	0x3f1a7a20	0.603426
105	0xbf0467be	-0.517208
106	0xbef6e64c	-0.48222578
107	0xbf2f371f	-0.68443483
108	0x3e8afa01	0.27143863
109	0xbee83098	-0.45349574
110	0xbf4250ee	-0.7590474
111	0x3e45cdce	0.1931679
112	0x3e82ac2b	0.2552198
113	0x3d8e266f	0.069409244
114	0xbf8ceb3f	-1.1009291
115	0xbf302794	-0.6881039
116	0xbe5d248c	-0.21595973
117	0xbf2ac8d4	-0.6671269
118	0x3f89f529	1.0777942
119	0xbebe08e2	-0.37116152
120	0xbecb629f	-0.3972368
121	0xbe2ba38f	-0.16761611
122	0xc00fe548	-2.2483692
123	0x3f7231c5	0.9460719
124	0x3ebce8a6	0.36896247
125	0xbee767cb	-0.45196375
126	0xbda063c3	-0.07831528
127	0xbf38715f	-0.7204799
128	0xbf58abd5	-0.84637195
129	0xbf4025f1	-0.75057894
130	0x3f163b84	0.58684564
131	0xbf6f8103	-0.9355623
132	0xbda2a534	-0.07941666
133	0x3f03ea29	0.51529175
134	0xbf493e27	-0.7861046
135	0x3f0395ec	0.5140064
136	0x3f6927e0	0.9107647
137	0x3f8e79ab	1.113088
138	0xbedbae5b	-0.4290646
139	0x3e6163f5	0.22010787
140	0x3e5c6061	0.2152114
141	0x3eb4adcd	0.3528885
142	0xbf164f21	-0.5871449
143	0xbf67ca3c	-0.9054296
144	0x3f691d8c	0.9106071
145	0x3f5ea6cb	0.86973256
146	0x3e78df9d	0.24304052
147	0xbf15ebc8	-0.585629
148	0x3bf85cf0	0.0075794384
149	0xbf203d38	-0.6259341
150	0x3e8a3533	0.26993713
151	0xbf383ce7	-0.7196793
152	0xbfbfdfa1	-1.4990121
153	0xbe5742c8	-0.21021569
154	0x3fbd3408	1.4781504
155	0x3f9eb480	1.2398834
156	0xbf036db5	-0.51339275
157	0xc0309adb	-2.7594516
158	0xbfa7e564	-1.311688
159	0x3e810ef4	0.2520672
160	0xbf66ee74	-0.902076
161	0xbeebab2c	-0.4602903
162	0xbe80b3d3	-0.25137195
163	0x3ed21feb	0.41039976
164	0x3fae2e22	1.3607829
165	0x3ec75c86	0.38937777
166	0x3f5889bf	0.84585184
167	0xbfab1616	-1.3366115
168	0xbe9fc901	-0.3120804
169	0x3eba15b2	0.36344677
170	0xbf0321ef	-0.51223654
171	0xbf156784	-0.5836108
172	0xbffe37b3	-1.9860748
173	0xbf212a44	-0.6295512
174	0x3f002cbf	0.5006828
175	0x3ff2eda5	1.8978773
176	0x3d8d7585	0.06907181
177	0x3eadf378	0.33974814
178	0x3d7afbf3	0.061275434
179	0x3f95c222	1.169987
180	0xbeddb586	-0.43302554
181	0xbf31e2c8	-0.69486666
182	0xbf20445c	-0.6260431
183	0x3c897a0a	0.016781826
184	0x400e9428	2.2277927
185	0xbec5b52b	-0.38614783
186	0xbf4b3c95	-0.79389316
187	0xbf2a9aeb	-0.66642636
188	0xbebb2f4b	-0.3655952
189	0x3e8fb93d	0.28071013
190	0x3e81d1e3	0.25355443
191	0xbf701277	-0.93778175
192	0x3f81cdc3	1.0140918
193	0x3e856394	0.26052535
194	0x3e70a14a	0.23499027
195	0x3f22d1c5	0.6360133
196	0xbefae872	-0.49005467
197	0x3da688ce	0.08131562
198	0x3e30b0f7	0.17255007
199	0xbe0dd253	-0.13849764
200	0xbf596421	-0.8491841
201	0x3f4562e3	0.77104014
202	0x4045d5d8	3.091177
203	0x3f0c2673	0.5474617
204	0xbe945b18	-0.2897575
205	0xbf87ce96	-1.060992
206	0xbf3b2a68	-0.7311158
207	0x3fc2279c	1.5168338
208	0xbf4b24c2	-0.7935296
209	0xbefd52f0	-0.4947734
210	0xbef89e06	-0.48558062
211	0x40274cc8	2.6140614
212	0x3f0315b7	0.5120501
213	0xbf6ea93e	-0.93226993
214	0xbf0e53f5	-0.5559686
215	0x3f1f4d76	0.6222757
216	0xbe8f2c40	-0.27963448
217	0x3ea3dc26	0.32003897
218	0xbe544e9a	-0.20733109
219	0xbed88c17	-0.4229438
220	0x3f3f4b78	0.7472453
221	0x3f61ce91	0.8820582
222	0xbf105ee7	-0.5639481
223	0x3f932149	1.1494533
224	0x3f4fab82	0.81121075
225	0x3e95e3b7	0.29275295
226	0xbec129ba	-0.37727147
227	0x3e45683b	0.19278042
228	0x3e33dedd	0.17565484
229	0xbf72e0d5	-0.94874316
230	0xbe2a5557	-0.16634117
231	0x3f0cc2a2	0.54984486
232	0xbf2c1d82	-0.67232525
233	0xbf165938	-0.58729887
234	0x3f642830	0.8912382
235	0xbe58aba6	-0.21159229
236	0xbedc1895	-0.42987505
237	0xbf111d01	-0.5668488
238	0x3f4afa70	0.7928839
239	0x3eaae59a	0.33378297
240	0xbd550447	-0.052006032
241	0x3e69b663	0.22823481
242	0x3cbfca3e	0.023411866
243	0x3f17888b	0.59192723
244	0xbed76ae2	-0.42073733
245	0x3eed9029	0.46399048
246	0xbea13a70	-0.31489897
247	0xbf3289a3	-0.69741267
248	0xbf4625a4	-0.77401185
249	0xbebd8508	-0.37015557
250	0xbeb7172f	-0.35759875
251	0x3f1fd4e3	0.62434214
252	0x3f2e4a34	0.68081975
253	0xbe911428	-0.2833569
254	0x3edce2e8	0.43141866
255	0x3f20bdad	0.6278942

39 f4 [16]
0	0xbf1e8dd0	-0.6193514
1	0x40050ff8	2.0790997
2	0x3e9701fc	0.294937
3	0x3f82c3e6	1.0216033
4	0x3e607dca	0.21922985
5	0xbf4a2a34	-0.78970647
6	0x4086e55e	4.215499
7	0x3ece843e	0.40335268
8	0xbf537f50	-0.8261614
9	0xbf7c7bc0	-0.9862633
10	0x3f72231d	0.9458483
11	0x3ee4872f	0.44634387
12	0x3f7acaaa	0.9796549
13	0xc02db77f	-2.7143247
14	0xbe10f6b3	-0.14156608
15	0x40b3f799	5.6239743

fc.0.bias f4 [456]
0	0xbcb09a3e	-0.021557923
1	0xbb6753e4	-0.0035297805
2	0x3d5db6e5	0.0541295
3	0x3d5fde43	0.054655325
4	0x3d86b8ac	0.06578192
5	0xbd1fbbec	-0.038997576
6	0x3d113314	0.035449103
7	0x3dbd1bec	0.09233841
8	0x3dce252f	0.10065686
9	0xbcf989cf	-0.03046122
10	0xbc9934ca	-0.01870193
11	0xbd841c2b	-0.06450685
12	0x3cf12a6e	0.029439177
13	0x3e05e51b	0.13075678
14	0x3d994d99	0.07485504
15	0x3da6d08c	0.08145246
16	0x3ddf63e1	0.10907722
17	0x3c19fd69	0.009398797
18	0x3d48056b	0.048833292
19	0x3d984693	0.07435336
20	0x3e270aa2	0.1631265
21	0x3da2b61c	0.07944891
22	0xbd55da21	-0.052209977
23	0x3d111ccb	0.03542785
24	0x3daa1cfd	0.0830631
25	0x3da739c9	0.081653185
26	0x3e15b66f	0.14620374
27	0x3d992e66	0.07479553
28	0x3dd8fce2	0.105951086
29	0x3c190347	0.00933916
30	0xbbdfcb7b	-0.0068296767
31	0xbd8336f3	-0.06406965
32	0xbcce8359	-0.025209116
33	0x3da2f582	0.07956983
34	0x3e049025	0.12945612
35	0x3b9445a0	0.0045249015
36	0x3d958173	0.07300081
37	0x3b72d8ea	0.003705556
38	0xbd92e00c	-0.0717164
39	0x3dd0005f	0.10156321
40	0xbd1c70fa	-0.03819368
41	0xbc3d4079	-0.011551016
42	0x3e13c8e3	0.14432101
43	0xbbeb80bb	-0.0071869767
44	0x3d340fc3	0.043960344
45	0x3e13b5a1	0.14424755
46	0xbcd9144e	-0.02649894
47	0xbc4eadc3	-0.01261467
48	0x3d3e2c94	0.04642923
49	0x3cb05afc	0.02152776
50	0xbda27f94	-0.0793449
51	0xbd72e68a	-0.05930189
52	0x3d39e72e	0.045386486
53	0x3c865b51	0.016400965
54	0x3dacde35	0.0844082
55	0x3d79682e	0.06089037
56	0xbd4ece94	-0.050489977
57	0x3d70c69a	0.05878315
58	0xbcd0e8ea	-0.025501687
59	0x3cc03410	0.023462325
60	0x3dcb3c41	0.09923602
61	0xbc99dcd8	-0.018782064
62	0x3d2fb2ed	0.042895246
63	0xbc8510a3	-0.016243285
64	0x3d8b3558	0.06797284
65	0x3deaf680	0.114727974
66	0xbd4f755b	-0.05064903
67	0x3d4b2a6c	0.049601004
68	0xbcc53b1c	-0.024076037
69	0x3cccc107	0.024994386
70	0xba573df1	-0.0008210829
71	0xbd84026b	-0.06445774
72	0x3dee9544	0.11649564
73	0x3d8ef59a	0.069804385
74	0x3d99159c	0.07474825
75	0x3d89c5ab	0.06727155
76	0x3dc15535	0.0944008
77	0xbca02108	-0.019547
78	0xbd902513	-0.07038321
79	0x3dd0b5b2	0.10190906
80	0x3dd11cdf	0.10210585
81	0x3e146f64	0.14495617
82	0x3cc52b9c	0.024068646
83	0x3dd28584	0.10279372
84	0x3d53e98a	0.051736392
85	0xbd85a076	-0.06524746
86	0x3dcf86c5	0.10133127
87	0x3d8cc63a	0.06873746
88	0x3ddc3b03	0.10753443
89	0x3d5f28ff	0.054482456
90	0xbb0e99a3	-0.0021759055
91	0x3dcd8f4e	0.10037099
92	0x3d9bf746	0.07615523
93	0xbd293a67	-0.041315462
94	0xbc90737e	-0.017633196
95	0x3c9c3d66	0.019072246
96	0x3ce0b30d	0.027429128
97	0x3dee3e22	0.11632945
98	0xbd441cc7	-0.047879007
99	0x3d81f0e4	0.06344774
100	0x3dc95a24	0.09831646
101	0x3da2ccde	0.079492316
102	0xbd621de9	-0.055204306
103	0x3d85f13e	0.06540154
104	0x3d1f3a44	0.038873926
105	0x3da9e89a	0.08296318
106	0x3cc35a46	0.023846757
107	0xbccf84a4	-0.025331803
108	0xbc9d56ae	-0.019206371
109	0x3c3746a4	0.011186276
110	0x3da5ca59	0.080952354
111	0x3d7188d7	0.05896839
112	0xbc15c003	-0.009140017
113	0xbd7d1029	-0.06178299
114	0x3d6884d5	0.056767303
115	0x3e0716da	0.13192311
116	0xbd9e7f0c	-0.07739076
117	0x3debc073	0.11511316
118	0xb99296f2	-0.00027959753
119	0xbd964b4f	-0.07338583
120	0x3dcfd066	0.10147171
121	0x3df3945c	0.11893532
122	0x3d3a4320	0.04547417
123	0x3ccc904a	0.024971146
124	0x3daf4859	0.08558721
125	0x3dcbe656	0.099560425
126	0x3d90f3e2	0.07077767
127	0x3c1048f4	0.008806456
128	0x3d828bb0	0.063742995
129	0xbd146c97	-0.03623637
130	0x3ddb2e36	0.107021734
131	0x3e026fda	0.1273798
132	0x3d228285	0.039675254
133	0xbc6887d7	-0.014192543
134	0x3d9dc99a	0.07704468
135	0x3df02fa3	0.11727836
136	0x3d959045	0.07302908
137	0x3da4c665	0.08045653
138	0x3db71eee	0.08941446
139	0x3bfccaaa	0.007714589
140	0x3c2ca7e0	0.010538071
141	0x3c5deb14	0.0135448165
142	0x3d6a2b33	0.057170104
143	0x3cff914c	0.031197213
144	0x3aca2dcc	0.0015425025
145	0xbcef716a	-0.029228885
146	0x3b280d0f	0.002564255
147	0x3df1d7f9	0.11808772
148	0x3e077d19	0.13231315
149	0x3cea3ac4	0.028592475
150	0x3dbc9942	0.09208919
151	0x3daf3b2c	0.08556208
152	0xbdc2018a	-0.0947295
153	0x3d7b829d	0.06140386
154	0x3d952c32	0.0728382
155	0x3e028bb0	0.12748599
156	0x3b4e5bf5	0.0031487916
157	0x3cbf97e3	0.023387855
158	0x3db3b064	0.08773878
159	0x3daa9096	0.08328359
160	0x3ce70a5e	0.028203186
161	0x3c69b529	0.014264383
162	0x3e1f0ad6	0.15531477
163	0x3d606e0e	0.054792456
164	0xbd010415	-0.031498034
165	0xbd607c17	-0.05480584
166	0xbd55594d	-0.052087117
167	0x3dce779b	0.10081407
168	0x3da2dd88	0.0795241
169	0x3cc69d39	0.024244891
170	0x3cdd8d0e	0.0270448
171	0x3d17b976	0.037042104
172	0x3d03e3a0	0.032199502
173	0xbb15d8d3	-0.0022864833
174	0xbd48c2b2	-0.0490138
175	0x3d2e0586	0.042485736
176	0x3d3863d5	0.045017082
177	0xbd11d4d2	-0.035603352
178	0x3dfc9b7f	0.12334346
179	0x3c4049db	0.0117363585
180	0x3dedc4a4	0.11609772
181	0x3d8df331	0.06931151
182	0x3a86ba3f	0.0010278894
183	0x3d12dddf	0.035856124
184	0x3c5206ec	0.012819033
185	0x3d847a4a	0.06468637
186	0x39b024d7	0.00033596784
187	0x3d7cb83e	0.061699145
188	0x3e115aeb	0.14194839
189	0x3de1019e	0.109866366
190	0x3dedb542	0.11606838
191	0x3d154bdf	0.03644931
192	0x3d04c830	0.032417476
193	0xbd8fd57e	-0.07023142
194	0x3e24b8c8	0.16086113
195	0x3dde9f8f	0.10870277
196	0x3d61be5a	0.055113174
197	0x3dae5367	0.085120015
198	0x3dc83260	0.09775233
199	0x3d4bd8f6	0.049767457
200	0x3da04692	0.0782596
201	0x3d23ec7d	0.040020455
202	0x3e1c3907	0.15256129
203	0xbab5d1dc	-0.0013871747
204	0x3e033dc7	0.12816535
205	0x3dde25f8	0.10847086
206	0x3c36f36e	0.011166437
207	0xbce10e11	-0.027472528
208	0xbcead594	-0.028666295
209	0x3c332490	0.01093401
210	0x3dffc4ec	0.12488732
211	0x3c819836	0.01581965
212	0x3d30a8b1	0.043129627
213	0x3d2686a1	0.040655736
214	0x3c791580	0.01520288
215	0x3ce4aa23	0.027913159
216	0x3d0e0e6d	0.034681726
217	0x3da80f40	0.08206034
218	0x3d7a02dd	0.061037887
219	0x3dc50ff4	0.096221834
220	0xbd995bf0	-0.07488239
221	0xbca1dcfb	-0.019758692
222	0x3d82b7ca	0.06382711
223	0x3ddb74f0	0.107156634
224	0x3d37adc4	0.04484345
225	0x3ddb4a96	0.107075855
226	0x3d5e93e5	0.054340262
227	0xbd8bc1e9	-0.06824095
228	0x3ccdf2b7	0.02514015
229	0x3d682d38	0.05668375
230	0xbd5d2f9b	-0.05400048
231	0x3d75fa98	0.060053438
232	0xbcbbe8fd	-0.022938246
233	0x3cde1061	0.02710742
234	0x3d87901e	0.06619285
235	0x3d8268b7	0.06367629
236	0x3db3ee5b	0.08785697
237	0x3df1e935	0.11812059
238	0x3daca771	0.084303744
239	0x3caaed0e	0.02086499
240	0x3ddd5783	0.10807707
241	0x3de69009	0.11257941
242	0xbb7f1bb9	-0.0038926436
243	0x3b200dff	0.0024422405
244	0x3d821524	0.063516885
245	0x3d7527a6	0.059852265
246	0x3da70240	0.08154726
247	0xbd80fc4d	-0.062981226
248	0xbcde1f0d	-0.027114416
249	0x3db617d0	0.088912606
250	0x3ccdeb39	0.025136577
251	0x3d6dca21	0.058054093
252	0x3dad1712	0.08451666
253	0xbd609221	-0.05482686
254	0x3d1240c5	0.0357063
255	0x3d0e867c	0.034796223

fc.0.weight f4 [456, 64]
0	0xbcdf7e5e	-0.027281936
1	0x3d8677f0	0.06565845
2	0x3d575e9b	0.052580457
3	0x3de8151d	0.11332152
4	0x3da8a415	0.08234421
5	0x3d1681ab	0.036744755
6	0x3c818c8e	0.015814092
7	0x3e420ca4	0.18950135
8	0x3d9d3b57	0.07677334
9	0x3dc72bcc	0.097251505
10	0xbd9c1b73	-0.07622423
11	0xbe156c04	-0.14591986
12	0x3e4546a3	0.19265227
13	0xbd886c4a	-0.066612795
14	0x3e21ad36	0.15788731
15	0xbdd22c87	-0.10262399
16	0x3d06591b	0.03279982
17	0x3d71f58e	0.05907207
18	0x3e0a383b	0.13498013
19	0xbc8c0a04	-0.01709462
20	0xbcb82499	-0.022478389
21	0xbd45518b	-0.04817347
22	0xbde7fd1f	-0.11327576
23	0x3e2df3c0	0.16987514
24	0x3cc492ee	0.023995843
25	0xbaac5639	-0.0013148255
26	0x3dbfe6cd	0.09370194
27	0xbd650ac8	-0.055918485
28	0xbc0a332d	-0.008435053
29	0x3e43f401	0.19136049
30	0xbe3d1fc2	-0.18469146
31	0xbdc9a112	-0.09845175
32	0xbd304f22	-0.043044217
33	0x3d8c276c	0.068434566
34	0x3e145f6c	0.14489526
35	0x3e35e733	0.17763977
36	0x3dd6d311	0.104894765
37	0x3e31f6bf	0.17379282
38	0x3d251c72	0.04031033
39	0xbe4f6643	-0.20253853
40	0xbcf7a582	-0.030230287
41	0xbe70f4f1	-0.23530938
42	0x3bfd8e56	0.007737915
43	0xbd14ed1c	-0.036358938
44	0xbda51528	-0.08060676
45	0xbe3d153a	-0.18465129
46	0xbe098664	-0.13430172
47	0x3e03977d	0.12850757
48	0x3e67fb71	0.22654511
49	0x3e0fd350	0.14045453
50	0xbd76be90	-0.06024033
51	0x3df8f386	0.121558234
52	0xbdf53c32	-0.11974372
53	0xbd8cc70c	-0.06873903
54	0xbd935229	-0.07193405
55	0x3d992401	0.0747757
56	0xbded14a2	-0.11576201
57	0xbd91cc96	-0.071191
58	0xbd8dbbb6	-0.06920569
59	0xbdf2e60a	-0.11860283
60	0x3e7ab7e7	0.24484216
61	0xb9003b51	-0.00012229128
62	0x3e811baf	0.25216433
63	0x3e3eb001	0.18621828
64	0x3c7b1e7b	0.015327091
65	0xbd1ed1ae	-0.038774185
66	0x3e0f1d24	0.1397596
67	0xbdf51802	-0.1196747
68	0x3b09d23f	0.0021029857
69	0xbcacbd3e	-0.021086331
70	0xbe08aa90	-0.13346314
71	0x3bab5fc0	0.00522992
72	0xbd544770	-0.05182594
73	0x3cc97df8	0.0245962
74	0xbdf985a0	-0.1218369
75	0x3c51eaa9	0.012812295
76	0xbc58d675	-0.013234724
77	0xbdd7289e	-0.10505794
78	0xbdad1abb	-0.08452364
79	0x3d93c9b6	0.07216208
80	0x3de164ba	0.1100554
81	0x3e293725	0.16524942
82	0xbdbfccbf	-0.09365224
83	0xbd0a3e46	-0.033750795
84	0x3ab423ed	0.0013743617
85	0xbe1dbb62	-0.15403512
86	0x3b609bc1	0.0034272524
87	0xbda06775	-0.07832233
88	0xbc8bec40	-0.017080426
89	0x3e6e4ef1	0.23272301
90	0x3d2b62ff	0.041842457
91	0x3cc8869c	0.02447825
92	0xbcd4adbb	-0.025961747
93	0xbe08ffb7	-0.13378797
94	0x3deb1f75	0.11480609
95	0x3cd8bf25	0.026458332
96	0x3e1f3c05	0.1555024
97	0x3e3eb6e9	0.18624462
98	0x3e12d477	0.14338861
99	0xbdcfd78b	-0.101485334
100	0xbd01f6e1	-0.031729583
101	0xbe34a7fe	-0.17642209
102	0x3ca4160c	0.020030044
103	0x3d016769	0.03159276
104	0xbc703ca2	-0.0146628935
105	0xbe4affe6	-0.1982418
106	0xbd1d878f	-0.038459357
107	0x3e0a2d0c	0.13493747
108	0x3e0f741a	0.14009133
109	0xbe105b60	-0.14097357
110	0x3da29f3d	0.079405285
111	0x3dd4f3d5	0.1039807
112	0xbd8223da	-0.063544944
113	0xbd9feb9d	-0.078086115
114	0xbcce4639	-0.02517997
115	0x3d8528d1	0.06501926
116	0x3e201f80	0.15637016
117	0xbe2e6d73	-0.17033939
118	0x3d92d035	0.071686186
119	0x3e1cd0b7	0.15313993
120	0x3db62a9c	0.08894846
121	0xbd411003	-0.04713441
122	0x3d9393d1	0.07205928
123	0xbc38cb5b	-0.0112789525
124	0xbd908066	-0.0705574
125	0x3e7111fe	0.2354202
126	0x3e02cde8	0.1277386
127	0xbde282fd	-0.1106014
128	0x3d320b09	0.043467555
129	0xbd1ee546	-0.03879287
130	0xbd957add	-0.07298825
131	0x3d575f67	0.052581217
132	0x3dec7e41	0.115475185
133	0x3dc0393a	0.09385915
134	0xbd785f1d	-0.060637582
135	0x3dbe5bcd	0.09294853
136	0x3e06916e	0.13141415
137	0x3e01dbd3	0.12681513
138	0xbe4f9389	-0.20271124
139	0x3d082435	0.033237655
140	0x3e2579e6	0.16159782
141	0xbcfbfe4e	-0.03076091
142	0x3e307148	0.17230713
143	0xbc8bd63b	-0.017069926
144	0x3dc38932	0.09547652
145	0x3e125173	0.14288883
146	0x3d93998c	0.07207021
147	0xbdc13cc8	-0.09435421
148	0xbce73c20	-0.028226912
149	0x3c129feb	0.00894926
150	0x3cbfcbbc	0.023412578
151	0xbe0839d1	-0.13303305
152	0xbde564a0	-0.11200833
153	0x3cda95c7	0.026682748
154	0xbcb9820a	-0.022645015
155	0x3e3efc83	0.18651013
156	0xbded40eb	-0.11584648
157	0x3d26a831	0.040687744
158	0xbd70e309	-0.058810268
159	0x3d2560cc	0.040375516
160	0x3d713c61	0.058895472
161	0xbdb2b188	-0.08725268
162	0x3c1e8be9	0.009676912
163	0xbd9fa961	-0.07795978
164	0x3e0d45b7	0.13796125
165	0xbdadff5a	-0.0849597
166	0x3d9ee4d6	0.07758491
167	0x3d7ea80e	0.06217199
168	0x3dc1b3eb	0.09458145
169	0xbdd75240	-0.10513735
170	0x3cffcb3f	0.031224845
171	0xbd4d4818	-0.050117582
172	0x3d8cbe5f	0.06872248
173	0x3ce3a209	0.027787225
174	0x3e20560c	0.15657824
175	0x3e533892	0.20627049
176	0x3de6a596	0.11262052
177	0xbd516e15	-0.051130373
178	0xbd9fa1e3	-0.07794549
179	0xbd62001a	-0.055175878
180	0x3e104ab9	0.14091004
181	0x3cd94150	0.026520401
182	0x3d82f6b4	0.06394711
183	0x3de21e4e	0.110409364
184	0x3c9aef70	0.018913
185	0x3d68ff55	0.05688413
186	0xbde08b68	-0.1096409
187	0xbd8a507a	-0.06753631
188	0x3ca2b02a	0.019859392
189	0x3d887290	0.06662476
190	0xbd28e42c	-0.041233227
191	0xbd63c876	-0.055611096
192	0xbd94031a	-0.07227154
193	0xbbb24590	-0.0054404214
194	0x3d8e9ddb	0.06963702
195	0x3da1b774	0.07896319
196	0x3dd5fe3e	0.104488835
197	0xbc4e8419	-0.012604737
198	0x3d5efac4	0.054438367
199	0xbdc6bae5	-0.09703616
200	0x3d79a2a9	0.06094614
201	0x3d179ad0	0.037012875
202	0x3e16f5d6	0.14742216
203	0xbe187338	-0.14887702
204	0x3caad2f1	0.020852538
205	0x3df1e5cf	0.11811411
206	0xbcf36de3	-0.029715484
207	0x3ddf109d	0.108918406
208	0xbd390e02	-0.045179375
209	0x3d8cf5eb	0.06882843
210	0xbdc08463	-0.09400251
211	0x3da8c67c	0.08240983
212	0x3c8fffb3	0.017577982
213	0xbd1db39a	-0.03850136
214	0x3d61877c	0.05506085
215	0x3ddcc8d7	0.10780495
216	0x3c8c8568	0.017153457
217	0x3db312c4	0.08743814
218	0x3d8b453f	0.06800317
219	0xbd1c3473	-0.038135957
220	0xbd38de32	-0.045133777
221	0xbd332145	-0.0437329
222	0x3ca4f213	0.020134961
223	0xbd1f36c7	-0.0388706
224	0x3d228176	0.039674245
225	0xbca0632c	-0.019578539
226	0x3d98af85	0.07455353
227	0xbcff8e10	-0.03119567
228	0x3c17fb12	0.009276168
229	0x3d4a5557	0.049397793
230	0x3c5ca382	0.013466718
231	0xbdbacd4a	-0.09121187
232	0xbd3c02e7	-0.045901205
233	0x39f5cabb	0.00046881087
234	0x3d3f7c77	0.04674956
235	0xbd40be7a	-0.047056653
236	0x3c9d2761	0.019183816
237	0xbd6526fb	-0.055945378
238	0x3d33a3e4	0.04385747
239	0x3e3396c8	0.17537987
240	0x3dca51c8	0.0987888
241	0xbda5c4fd	-0.08094213
242	0x3d566760	0.05234468
243	0xbd11ae4d	-0.035566617
244	0xbc620d41	-0.013797105
245	0x3db2f909	0.08738906
246	0xbc78f8c2	-0.015196027
247	0xbcca9f3b	-0.02473413
248	0x3df96cbf	0.12178945
249	0xbc436df6	-0.011928072
250	0xbdc2280a	-0.09480293
251	0xbd999dea	-0.07500823
252	0x3db05c68	0.08611375
253	0xbbe05fa5	-0.006847339
254	0x3c2ef6df	0.010678976
255	0x3dc5e08f	0.09661972

fc.3.bias f4 [228]
0	0xbcb574c4	-0.022150405
1	0xba16f42f	-0.0005758432
2	0xbc81aefd	-0.015830511
3	0xbcbf3459	-0.023340391
4	0xbcfaa770	-0.030597419
5	0x3b5a934b	0.0033351954
6	0x3c2ca38d	0.01053704
7	0xbca4b111	-0.020103963
8	0xbcb17709	-0.021663206
9	0xbcc2fde2	-0.023802701
10	0xbcd72861	-0.026264371
11	0xbd5d2f16	-0.053999983
12	0x3cee090d	0.02905705
13	0xbac44f01	-0.0014977158
14	0xb92f8a3d	-0.00016740798
15	0xbc2b69c1	-0.010462225
16	0xbce8c334	-0.028413393
17	0xbd06ff3f	-0.032958265
18	0xbb9c4bb2	-0.004769766
19	0x3b5e638b	0.0033933844
20	0xbc95fa3f	-0.018307803
21	0x3827bfd4	3.9994557e-05
22	0xbcac92c7	-0.021066083
23	0x3cd57f38	0.02606164
24	0x3d1b4993	0.037911963
25	0x3ca30d7f	0.019903896
26	0x3d24c806	0.04022982
27	0x3b427574	0.0029672058
28	0x3d29883b	0.041389685
29	0x3b07feee	0.0020751315
30	0x3c17ce45	0.009265487
31	0xbc8feee8	-0.017569974
32	0xbb116779	-0.0022186919
33	0xbb66dbeb	-0.0035226296
34	0x3bfaeb07	0.007657412
35	0x3cb98738	0.022647485
36	0xbbf27e2c	-0.0074002948
37	0xbb214241	-0.002460614
38	0xbc1126de	-0.008859364
39	0x3d060a3d	0.032724608
40	0xbd0d49d3	-0.034494232
41	0xbd1b21be	-0.037873976
42	0xbd710fd6	-0.058852993
43	0xbd13d485	-0.036091346
44	0x3d08c1c8	0.03338793
45	0x3c301f71	0.010749684
46	0xbc8e7409	-0.017389314
47	0xbd24fbf9	-0.040279362
48	0x3c2a285c	0.010385599
49	0xbaedc6e7	-0.0018140943
50	0x3c6074d6	0.013699731
51	0xbb325c99	-0.0027215837
52	0xbba23840	-0.004950553
53	0xbce559d1	-0.02799693
54	0xbcd24ca3	-0.025671309
55	0x3c6a96ac	0.01431815
56	0xbb291cbd	-0.0025804483
57	0xbdadfc92	-0.084954396
58	0xbcee4d20	-0.02908951
59	0xba97b625	-0.0011574669
60	0xbcc98ea9	-0.024604158
61	0xbcb506d0	-0.022097975
62	0x3bf84e29	0.007577677
63	0xbb6d783f	-0.0036235002
64	0x3aa27ff4	0.0012397752
65	0xbcb7fa96	-0.022458356
66	0xbc92962b	-0.017893871
67	0xbc192fc1	-0.009349764
68	0x3d0889d0	0.033334553
69	0x3bd06d6c	0.0063607004
70	0xbc54aab3	-0.012980151
71	0xbc8b7761	-0.017024698
72	0x3d4926c4	0.049109235
73	0x3d1fe9fe	0.03904151
74	0x3c44ea0c	0.012018692
75	0x3bd7bb22	0.0065835873
76	0x3bb20bc7	0.005433533
77	0x3c33eccf	0.010981753
78	0x3c6d3825	0.014478718
79	0x3bd97271	0.006635957
80	0x3bfdf664	0.0077503193
81	0x3d308efd	0.043105114
82	0x3c3325f0	0.010934338
83	0xbbe50403	-0.0069890036
84	0x3ab68e58	0.001392792
85	0x3d14ff92	0.036376543
86	0x3c6d988e	0.014501704
87	0x3cc7efad	0.024406279
88	0xbc3bd634	-0.011464644
89	0x3b950d34	0.004548693
90	0x3d42de02	0.047575004
91	0xbd0c2de2	-0.034223445
92	0xbd0aa4d5	-0.033848602
93	0xbca639d5	-0.020291248
94	0xbbe6650a	-0.0070310878
95	0xbc74633c	-0.014916237
96	0xbc804aea	-0.015660722
97	0xbd19a22d	-0.03750818
98	0xbce4cc9b	-0.027929595
99	0xbc7b3444	-0.015332285
100	0x3ca9675e	0.020679172
101	0xbba6ccf1	-0.005090349
102	0xbcd66f26	-0.026176047
103	0xbcf1ac7d	-0.029501194
104	0xbc7bd3ee	-0.015370352
105	0xbd98e2a1	-0.07465101
106	0xbab55ca2	-0.0013836811
107	0xbce4dbd1	-0.027936848
108	0xbd68e8f2	-0.05686278
109	0xbd12fc39	-0.03588507
110	0xbbc012cd	-0.005861616
111	0x3cc5a05b	0.024124315
112	0xbaab9a05	-0.0013092166
113	0xbc9ea209	-0.019364374
114	0xbc145fea	-0.009056071
115	0xbb7ecc2c	-0.003887902
116	0xbc8d207b	-0.017227402
117	0xbca7d40d	-0.020486856
118	0xbcb9bf49	-0.02267422
119	0x3c34faf4	0.01104616
120	0x3cbc12cf	0.022958187
121	0xbd20c7c7	-0.039253023
122	0xbc1398be	-0.009008585
123	0x39a0a09b	0.00030637239
124	0x3c6089d1	0.013704733
125	0xbbf21ba0	-0.007388547
126	0xbd454c4e	-0.048168473
127	0xbca21d47	-0.019789351
128	0xbcb72323	-0.022355622
129	0x3c3ff084	0.011715058
130	0x3c04d278	0.00810682
131	0x3d78e6ca	0.060766973
132	0x3cefb1ad	0.029259527
133	0xbcc4ac73	-0.024008011
134	0xbba228a6	-0.0049486933
135	0x3b755bf9	0.0037438853
136	0xbd2dbfb2	-0.042419143
137	0xbc84a3be	-0.01619136
138	0xbd40920f	-0.047014292
139	0xbd93c117	-0.07214563
140	0x3b1c2237	0.0023824105
141	0xbc96e488	-0.018419519
142	0xbc00dfd9	-0.007865869
143	0xbd346f08	-0.0440512
144	0xbcd384be	-0.025820132
145	0x3d608e66	0.0548233
146	0xbcb82056	-0.022476356
147	0xbcfdda37	-0.030987842
148	0x3c0b1c1e	0.00849059
149	0xbc3fc2c5	-0.0117041515
150	0xbd265d58	-0.040616363
151	0x3c3d15d6	0.011540851
152	0xbcccc854	-0.024997868
153	0x3bff685b	0.0077944226
154	0x3b3cf4b3	0.0028832376
155	0xbce82618	-0.028338477
156	0xbd47f4aa	-0.048817314
157	0xbc493a63	-0.012281987
158	0x3c0292b3	0.007969546
159	0x3d0702bc	0.032961592
160	0xbc8f9eaa	-0.017531712
161	0xbcab24d8	-0.020891592
162	0x3d408720	0.047003865
163	0x3c604dad	0.013690394
164	0xbc17da56	-0.009268364
165	0xbd20c5c2	-0.039251097
166	0x3bc2c433	0.005943799
167	0xbc583438	-0.013196044
168	0x3c463d93	0.012099641
169	0x3c6cf590	0.014462844
170	0xbc9b5110	-0.018959552
171	0xbc1e53eb	-0.009663562
172	0xbca7a2e7	-0.02046342
173	0xbd4005b4	-0.04688044
174	0x3c63d273	0.0139051555
175	0xbc894c88	-0.016760126
176	0x3c540f48	0.012943096
177	0xbcb2c862	-0.021824066
178	0x3c0e6526	0.008691108
179	0x3c7b7cf6	0.015349617
180	0x3d1ea674	0.03873296
181	0xbbe46d2a	-0.006971021
182	0x3c2b0193	0.010437387
183	0x3b731756	0.0037092767
184	0xbd1b0e6f	-0.03785556
185	0x3b878a46	0.0041363565
186	0x3c2b5557	0.010457358
187	0xbc8fab30	-0.017537683
188	0xbcde4e13	-0.027136838
189	0xbb9ff183	-0.0048810854
190	0xbd6b4b7c	-0.057445034
191	0xbcf8b624	-0.030360289
192	0xbce0df2d	-0.027450169
193	0xba8e43d3	-0.0010853953
194	0x3c0bbc88	0.008528836
195	0xbd2339e6	-0.039850138
196	0xbd109ea6	-0.03530755
197	0x3d83765c	0.0641906
198	0x3d342d67	0.04398861
199	0x3c3843e4	0.011246655
200	0x3d12c563	0.035832774
201	0x3cb49a73	0.022046303
202	0x3b94b0e4	0.0045376886
203	0x3c8b948c	0.017038606
204	0x3c48f2a7	0.012264884
205	0xbbfb6ba8	-0.0076727457
206	0x3d00f7bc	0.031486258
207	0x3d19f205	0.037584323
208	0x3ceb47a6	0.028720688
209	0x3d102e5f	0.035200473
210	0xbc66a444	-0.01407725
211	0xbba0a086	-0.0049019484
212	0xbc500d3f	-0.012698471
213	0x3d32b3be	0.043628447
214	0x3c06f3b8	0.008236818
215	0x3c12608d	0.008934152
216	0xbbec41ac	-0.007209977
217	0xbd3f7001	-0.046737675
218	0x3bf47645	0.007460388
219	0xbc921c87	-0.017835869
220	0xbcc3b59a	-0.023890305
221	0xbc9e8f04	-0.019355305
222	0xbc277ce2	-0.0102226455
223	0x3c6cd314	0.014454622
224	0xbd2964cd	-0.041355897
225	0xbd2a57ee	-0.041587763
226	0xbce2dd40	-0.02769339
227	0xbc25554f	-0.01009114

fc.3.weight f4 [228, 456]
0	0xbb5487d7	-0.00324296
1	0x3d052800	0.03250885
2	0x3b1c4534	0.002384496
3	0xbd35f8da	-0.044426776
4	0xbd360e53	-0.044447254
5	0xbd3d086c	-0.04615061
6	0xbb304611	-0.0026897232
7	0x3d4513d3	0.04811461
8	0x3d9b31c5	0.07577852
9	0x3cac9a73	0.02106974
10	0xbcb5961f	-0.02216631
11	0xbd77b76b	-0.060477655
12	0x3d21bb28	0.039485127
13	0x3d24c748	0.040229112
14	0xbc1d9d0b	-0.0096199615
15	0xbd02898e	-0.031869464
16	0x3d1c1df4	0.038114503
17	0xbcfe1cef	-0.031019656
18	0x3d14f91a	0.036370374
19	0x3c203f42	0.009780707
20	0xbd1dc7e7	-0.03852072
21	0x3d391359	0.045184467
22	0xbcedc482	-0.029024366
23	0xbc050694	-0.008119244
24	0xbaa000c8	-0.0012207264
25	0x3cef07d7	0.029178543
26	0xbd5a5408	-0.053302795
27	0x3c0dae96	0.008647582
28	0xbd0fa45f	-0.035068866
29	0xbd910b5d	-0.070822455
30	0xbbacfa00	-0.0052788258
31	0x399cb4a0	0.00029889215
32	0xbd47fbd7	-0.048824158
33	0x3d0ac9c4	0.033883825
34	0xbd5f0752	-0.05445034
35	0x3d6421af	0.055696186
36	0x3bb1986a	0.0054197805
37	0xbc3dec35	-0.011591961
38	0x3d6d63b2	0.057956405
39	0xbc69cf64	-0.014270637
40	0x3cec3e5e	0.028838333
41	0xbd516acb	-0.051127236
42	0x3d8e07d0	0.06935084
43	0xbd5f748b	-0.054554503
44	0x3d8468e8	0.06465322
45	0xbcf79596	-0.030222695
46	0xbd2d6325	-0.04233088
47	0xbd430ecb	-0.04762153
48	0xbd5c8cc9	-0.0538452
49	0x3bf94100	0.0076066256
50	0xbd03b6de	-0.032156818
51	0xbd72ada2	-0.05924762
52	0x3c271b56	0.0101993885
53	0xbd5dc18a	-0.05413965
54	0x3c98a088	0.018631235
55	0x3c8f0ade	0.017461237
56	0xbcfbc334	-0.030732729
57	0x3ca7990b	0.020458719
58	0x3c8820fa	0.016617287
59	0xbd8dc98b	-0.06923207
60	0x3c52da56	0.012869438
61	0x3bbc5b9b	0.005748225
62	0xbd2c1dfc	-0.042020783
63	0x3d0b1922	0.033959515
64	0xbd0c05ef	-0.034185346
65	0xbd32638f	-0.043551978
66	0x3c2e10a3	0.010624084
67	0x3d24e09b	0.040253263
68	0x3b85faf6	0.0040887548
69	0xbd797282	-0.06090022
70	0x3bff2b2e	0.00778713
71	0xbd200c78	-0.03907439
72	0xbc9ac1e7	-0.018891288
73	0xbce16a4f	-0.027516512
74	0x3c832f28	0.016013697
75	0x3dabf821	0.08396936
76	0x3d177bc9	0.036983285
77	0xbd5f03f7	-0.05444714
78	0xbda16763	-0.078810476
79	0xbd3347a5	-0.043769497
80	0x3c31857f	0.010835051
81	0xbd4ba3bf	-0.049716707
82	0xbc20fed6	-0.009826383
83	0x3d58ea56	0.052957855
84	0x3db5f42a	0.08884461
85	0x3d8d6944	0.069048434
86	0xbd610aa2	-0.05494178
87	0x3c708128	0.014679231
88	0xbd1a22f8	-0.037631005
89	0x3d41d4a4	0.04732193
90	0x3c87cbaf	0.016576616
91	0x3d21e2be	0.03952288
92	0xbd0a4508	-0.03375724
93	0x3d035007	0.032058742
94	0x3d3e57c2	0.04647041
95	0xbdcc4a78	-0.09975141
96	0xbbaad0a1	-0.005212859
97	0x3cf74557	0.030184431
98	0xbc8a41d6	-0.016877096
99	0xbcf38fb2	-0.029731605
100	0xbd9b0f3e	-0.075712666
101	0x3d04b49b	0.0323988
102	0x3c77834d	0.015106988
103	0x3d66e625	0.056371827
104	0xbc41d4f7	-0.01183056
105	0xbc5a9c2a	-0.0133428965
106	0x3d5e112f	0.054215606
107	0x3d6727d6	0.056434475
108	0xbd05d221	-0.032671098
109	0x3daa0729	0.08302147
110	0xbd550261	-0.05200422
111	0x3d987489	0.07444102
112	0xbd01090b	-0.031502765
113	0x3bedb5b8	0.0072543286
114	0x3d6451b3	0.055741977
115	0xbb560eb6	-0.0032662577
116	0xbcb2f379	-0.021844612
117	0xbc2bb6cf	-0.010480597
118	0xbd69c292	-0.057070322
119	0x3d0f8dea	0.03504745
120	0x3d28a12e	0.041169338
121	0x39a6b6a3	0.00031798062
122	0xbbf4e7b0	-0.0074739084
123	0xbb64910d	-0.0034876496
124	0xbd44a04e	-0.04800444
125	0xbd24dd67	-0.04025021
126	0xbd3d0a11	-0.04615218
127	0xbb99e206	-0.0046961335
128	0xbabe094f	-0.0014498624
129	0x3dac9b61	0.08428074
130	0xbcf16537	-0.029467208
131	0x3cfedfe6	0.031112622
132	0x3d0a08ca	0.03369979
133	0xbd32cbfa	-0.04365156
134	0x3d431740	0.047629595
135	0xbd3027ac	-0.043006584
136	0xbd98c2e8	-0.074590504
137	0xbd31a8e0	-0.043373942
138	0xbd519b77	-0.051173653
139	0xbc228fde	-0.009921996
140	0x3d3ef3b4	0.046619132
141	0xbd61b7d5	-0.055106957
142	0xbd421884	-0.04738666
143	0x3d8a7c7f	0.06762027
144	0x3c0664a8	0.008202709
145	0x3d8ee345	0.06976942
146	0xbd5c3dae	-0.05376976
147	0x3d088d3b	0.033337813
148	0x3cc3635f	0.023851095
149	0xbce0c6ab	-0.027438482
150	0xbd807818	-0.06272906
151	0xbd70aa00	-0.058755875
152	0x3c9a4b75	0.018834809
153	0x3c40af14	0.011760492
154	0x3d22ec30	0.039776027
155	0x3d37e1cd	0.044893075
156	0xbc90622b	-0.017624935
157	0xbd2fb814	-0.04290016
158	0xbd4bbf88	-0.049743205
159	0xbd4f58c8	-0.050621778
160	0x3db4a56e	0.08820616
161	0x3c4f8a32	0.012667226
162	0xbb70f1cf	-0.0036765223
163	0x3d1b77df	0.037956115
164	0x3d8c27b2	0.06843509
165	0xbc568199	-0.013092422
166	0xbc96981e	-0.018383082
167	0xbd6b936e	-0.057513647
168	0xbcd7b3ca	-0.026330847
169	0xbd8bf014	-0.06832901
170	0x394bc7c3	0.00019434006
171	0x3db7fbc8	0.0898357
172	0x3cf5393e	0.029934522
173	0x3c6b49a0	0.014360815
174	0xbdaa077e	-0.0830221
175	0x3d0bf57e	0.034169666
176	0xbd53bbd5	-0.051692802
177	0x3d8ca18f	0.06866752
178	0xbcba98ca	-0.022777934
179	0xbca1aaff	-0.019734858
180	0xbd9100cc	-0.0708023
181	0x3d9e855d	0.07740281
182	0xbd68a1f4	-0.056795076
183	0xbc9e8538	-0.019350633
184	0xbd86a972	-0.06575288
185	0x3c859e0b	0.016310712
186	0x3cba4887	0.022739662
187	0xbd90b476	-0.0706567
188	0xbc6128cd	-0.013742638
189	0x3d142eae	0.03617733
190	0xbd804c90	-0.06264603
191	0x3dad1568	0.084513485
192	0xbd028f41	-0.0318749
193	0x3d9eb7dd	0.07749913
194	0x3c9dccd5	0.01926271
195	0x3d255c67	0.040371325
196	0xbce459cb	-0.027874848
197	0xbcd01a86	-0.025403272
198	0x3cd07d62	0.025450412
199	0xbd8f9785	-0.07011322
200	0xbc8fe215	-0.017563859
201	0x3bc9aa20	0.0061543137
202	0xbb010042	-0.0019683992
203	0x3c897049	0.016777175
204	0x3d8a29e7	0.067462735
205	0x3c635e7c	0.013877507
206	0xbd85cb61	-0.06532932
207	0x3c37d3e3	0.011219951
208	0xbcd3ab89	-0.02583863
209	0xbd0e8ee1	-0.03480423
210	0x3b61c07d	0.0034447007
211	0x3b3a04fb	0.0028384316
212	0x3d7ea20f	0.06216627
213	0x3d35d07e	0.044388287
214	0x3c25e7ac	0.010126036
215	0xbd12f700	-0.03588009
216	0x3c2c5816	0.010519048
217	0xbd8817c5	-0.06645159
218	0x3c7486d8	0.014924727
219	0x3db3a6b6	0.08772032
220	0x3cb4aa86	0.022053968
221	0xbd00c8a0	-0.03144133
222	0xbd3bac70	-0.045818746
223	0x3d1b5466	0.037922285
224	0x3ba2624e	0.0049555665
225	0xbc59fcd0	-0.013304904
226	0x3c913104	0.017723568
227	0x3d2956f2	0.041342683
228	0xbbb9aad9	-0.0056661186
229	0x3d894f46	0.06704573
230	0xbbc2df58	-0.005947035
231	0x3d12c3a2	0.0358311
232	0xbd45e035	-0.048309524
233	0xbd0f2e5d	-0.034956325
234	0x3c188c9e	0.0093108695
235	0xbc32910a	-0.010898838
236	0xbd2b2bf2	-0.041789956
237	0x3d0902cf	0.033449944
238	0xbd282f8b	-0.041060966
239	0xbd10ceba	-0.0353534
240	0x3d3eedce	0.046613507
241	0xbd6a324a	-0.057176866
242	0xbc97d2e1	-0.018533172
243	0xbd017611	-0.031606738
244	0xbd513cbd	-0.051083315
245	0x3d30260f	0.043005046
246	0x3cf3a302	0.029740814
247	0xbb65bf04	-0.003505648
248	0x3d18bf3c	0.03729175
249	0xbd5e816c	-0.054322645
250	0xbd8239e1	-0.06358696
251	0x3ca901db	0.020630768
252	0xbccfe6a9	-0.025378542
253	0xbd29ad51	-0.041425053
254	0x3bbd5cfd	0.0057789073
255	0xbd121738	-0.035666674
