inventory/ark_material.onnx (onnx, 699904 bytes, 8 tensors)

35 f4 [8, 3, 5, 5]
000000 c1 3c b9 3e 5c ae 19 3e 9a 15 31 3d 64 98 bc 3e
       0.36179164 0.15007919 0.04323349 0.36835015
000010 dc de f1 3d aa 2c 0d 3e 0e f0 56 be 06 d8 29 be
       0.11810085 0.13786569 -0.20990011 -0.16586313
000020 e3 f0 f4 bd 86 08 97 3d ee b1 96 3d 86 80 a7 bc
       -0.11960008 0.073746726 0.07358156 -0.020447027
000030 51 a0 96 bc 52 b4 b4 3e c4 aa 8b 3e 9c e3 7a 3e
       -0.018386992 0.35293823 0.2727872 0.24500889
000040 1d 13 81 bd 37 45 a4 3e 24 36 8c 3d b2 29 1a bc
       -0.06302474 0.32084057 0.06846264 -0.009409355
000050 d6 11 db 3e 4a 30 c3 3e 0b 64 0d 3d 30 55 6c 3e
       0.42787045 0.3812278 0.034519237 0.23079371
000060 f6 b0 b6 3e 4c d5 d1 bd 04 d9 2c 3e b9 0c a4 3e
       0.35681885 -0.10245761 0.1687966 0.32040957
000070 6f 63 91 be e3 b8 54 be cf 06 93 be 7a 91 95 bd
       -0.28396174 -0.20773654 -0.28716132 -0.07303138
000080 3a 31 42 3e c5 97 88 be fc a0 1d 3e 82 8e 7b 3c
       0.18964091 -0.2667829 0.15393442 0.015353801
000090 62 5c 85 be 63 8a 85 bd 2b 7d 58 3e 14 c9 74 bd
       -0.26047045 -0.06520536 0.21141498 -0.059762076
0000a0 d8 92 66 be e1 e6 ff bd c9 c0 71 be ce e1 c0 3e
       -0.22516954 -0.124952085 -0.23608698 0.37672275
0000b0 18 ea 60 3d 35 96 d4 3e db 5b 9b 3e 7a 3c ac 3d
       0.05491075 0.4152085 0.30343518 0.084099725
0000c0 0f b9 90 bd 82 c5 92 3e ca 85 b5 be f6 a5 28 3d
       -0.07066547 0.28666312 -0.35453635 0.041173898
0000d0 b5 37 bb 3d 88 ab 71 3e 48 b4 80 3e ea 1f 7c 3e
       0.09141485 0.2360059 0.25137544 0.24621549
0000e0 0b ab a4 bd d1 44 c3 be b4 25 94 3e e3 c7 8b be
       -0.08040436 -0.3813844 0.28935015 -0.2730094
0000f0 94 bd a9 be 2b fc bb 3d 3a 6d a9 3e 9d 47 04 be
       -0.3315245 0.091789566 0.33091146 -0.12917943
000100 89 69 86 3e 2d 9c 34 be db 1f 75 be b6 38 06 bd
       0.26252392 -0.17637701 -0.23937933 -0.032768928
000110 a7 29 a8 3e f1 3f 19 3e fe eb c1 be 4e 5b e7 3d
       0.32844278 0.14965798 -0.3787536 0.11296712
000120 23 03 87 3e 3d 72 40 be d6 f0 66 bd 5a 6a 08 3d
       0.2636958 -0.18793578 -0.056382023 0.03330455
000130 df 6c 92 3c de c6 1d 3e b7 8e dc 3d fe 07 a6 be
       0.01787418 0.15407893 0.10769408 -0.32427973
000140 ef 74 17 3e 55 bc 61 3d 32 81 02 be 93 06 02 be
       0.147907 0.055111248 -0.12744597 -0.1269782
000150 1f ca 98 3d ad b9 a6 3e b7 a9 29 bd a3 18 34 be
       0.074604265 0.32563534 -0.04142162 -0.17587523
000160 47 80 47 3c e8 c1 bf be ff a2 02 bd 89 e6 b6 3e
       0.01217658 -0.37452626 -0.031893726 0.3572276
000170 ec b2 70 be ab f2 3b 3d be 12 98 3d 0b 44 22 3e
       -0.23505753 0.045885723 0.0742545 0.15846269
000180 7b f3 8a bd c6 76 dc bd 20 a9 9c be 0d 1c bc 3b
       -0.067847215 -0.10764842 -0.30597782 0.0057406486
000190 cb 77 26 be 1f b9 73 3e fc 20 d8 be 99 88 9a be
       -0.16256635 0.23801087 -0.42212665 -0.3018234
0001a0 f7 1f ad bd e2 da 45 3e 10 79 28 3e 2c d3 d6 3d
       -0.084533624 0.19321778 0.16452432 0.104894966
0001b0 0e ba 6c bc fe 5d d6 bc 7c 04 d1 bd b1 54 bd 3d
       -0.014448656 -0.026167866 -0.102059335 0.09244669
0001c0 10 96 52 bd 5b 3c ad bd 15 5a a3 be ba 8c 8b be
       -0.051412642 -0.084587775 -0.31904665 -0.27255803
0001d0 13 f1 2c 3d e7 f7 8a 3e 67 dd fb bd 50 2c 7b be
       0.042222094 0.2714226 -0.122980885 -0.24528623
0001e0 e1 bd 1a be 38 bc ce be c6 47 9b be 51 21 3b be
       -0.15111496 -0.40377975 -0.30328196 -0.18274428
0001f0 e2 68 8a be 0e 8f 85 3e 6f 8e 29 3c 51 bf 0e be
       -0.27033144 0.26085705 0.0103489 -0.13940169
000200 d1 eb 97 3c 77 c8 ba bd 3e 10 80 be a6 3f 9e 3e
       0.018545063 -0.09120267 -0.25012392 0.30907935
000210 1a 61 00 bc 2b 70 82 bc 3c 0b 7d 3a b0 fa be bc
       -0.007835651 -0.015922626 0.0009652858 -0.023312896
000220 8b 3a 55 3e fe 01 9c be 9b de 37 be b9 33 38 bb
       0.20823114 -0.3047027 -0.17956011 -0.0028107
000230 8e 89 53 be f8 60 73 bd 59 40 a2 be 60 b9 50 3e
       -0.20657942 -0.05941865 -0.31689718 0.20383215
000240 be 90 82 be 71 87 da be c6 4f 21 be d9 a5 80 be
       -0.25501055 -0.4268146 -0.15753087 -0.25126532
000250 df bf ec 3d f1 62 52 be b9 64 ce be da 49 f7 be
       0.11560034 -0.20545556 -0.4031122 -0.48298532
000260 4c a3 54 bf df 8c f0 be 9f 2e e8 3d 2e 99 97 3f
       -0.8306167 -0.46982476 0.11337017 1.1843622
000270 b1 52 57 3e 68 ac c7 3e f1 1e 61 bd 46 97 3b 3e
       0.21027638 0.38998723 -0.05496115 0.18319425
000280 fc 90 d9 be b9 74 12 3f 0f 56 6b 3f e7 23 04 bf
       -0.42493427 0.57209355 0.9192819 -0.5161728
000290 7a 89 02 bf 8d f3 8e be 4c e0 c7 3e 5e b1 14 3e
       -0.5099102 -0.2792019 0.39038312 0.14520785
0002a0 d2 fd 2e 3f 04 64 d6 3e 59 2d 0a bf bb 1f 8a bf
       0.6835605 0.4187318 -0.53975445 -1.0790933
0002b0 91 23 2a bf c6 19 dc be 36 9d 34 3f 62 59 f4 bc
       -0.6646052 -0.42988414 0.70552385 -0.029827777
0002c0 6f c8 ff be 6c 5e 9f 3e 84 af 34 bf 1d 7e 53 bf
       -0.49957606 0.31126726 -0.70580316 -0.8261431
0002d0 b3 9e 9f 3f bc e0 4f bf 09 a3 53 3f aa 22 00 bf
       1.2470306 -0.8120229 0.82670647 -0.50052893
0002e0 53 c7 d8 3e 8c 62 71 3e 6a fe 6a 3f 43 e1 98 be
       0.42339572 0.23572749 0.91794455 -0.2985936
0002f0 73 ea 3e 3f da bc be 3e 61 44 c4 3e a2 7e 75 3e
       0.7457649 0.37253457 0.3833342 0.23974088
000300 92 62 6d 3e 3f f3 c9 be 7a 85 b9 3e 2d 88 99 bf
       0.23182133 -0.39443395 0.36234647 -1.1994683
000310 cf 6f 66 3d d4 e7 77 be a0 b5 3f be 55 7e b9 3d
       0.056258973 -0.24209529 -0.18721628 0.09057299
000320 9a 54 19 bf ea 68 5f be 23 22 3c bf e9 5f 8e be
       -0.59894717 -0.21817365 -0.7348959 -0.2780755
000330 48 e5 6f 3d 2d 1e 3b 3f 71 f7 27 3e 0c 5d f7 3e
       0.05856827 0.7309292 0.16402985 0.48313177
000340 5b 9f 47 bf b9 0a 8e bf 1e dc 9e be 4c 76 fe bb
       -0.7797753 -1.1097022 -0.3102731 -0.007765567
000350 37 25 36 bf fd 2f 44 3f e5 29 e0 be 1e d0 97 3e
       -0.71150535 0.76635724 -0.43781963 0.29650968
000360 91 82 89 3e 87 23 b9 3e ff a9 83 3f 67 6d fe 3d
       0.26857427 0.36159918 1.0286254 0.124232106
000370 4f 8c c3 be 24 59 6d 3d 7b b9 3b 3e 75 08 7d 3f
       -0.38192984 0.05794634 0.18332474 0.9884103
000380 69 c2 9d be 61 e2 11 be b9 3e 2c 3e 01 a7 38 3d
       -0.30812386 -0.14246513 0.16820802 0.045081142
000390 fc 02 e3 3e 31 bf 1c 3d 2f c7 26 bf df 70 72 3e
       0.44338214 0.03826827 -0.6514768 0.2367587
0003a0 c8 27 9c 3e 16 9a a7 3e ea c1 c1 3e 0f a6 2a bd
       0.304991 0.32734746 0.37843257 -0.041662272
0003b0 03 08 d9 3e 04 0e 1f 3f c4 da 36 3f 7f 69 e3 3e
       0.42388925 0.6213076 0.7142756 0.44416425
0003c0 7f 6b 5a be 85 e4 a3 be e1 ab 96 3b ef a0 c1 3e
       -0.21330069 -0.32010284 0.0045981263 0.37818095
0003d0 d6 84 ae 3e 6a b7 8e be 28 3f 70 bd 32 8d 87 bd
       0.3408572 -0.2787431 -0.05865398 -0.06618728
0003e0 06 81 df 3e e6 6b ac 3e f3 a1 d1 bd fb 6b c1 be
       0.43653125 0.3367607 -0.102359675 -0.37777695
0003f0 8f 83 11 3e 99 69 e8 be 9b f5 fa be 2a a6 96 3e
       0.14210342 -0.45393065 -0.49015507 0.29423648

36 f4 [8]
000000 e1 c6 bd bf 92 db 09 40 eb f3 bf 3d 27 47 a2 be
       -1.4826318 2.1540265 0.093726955 -0.3169491
000010 fc a2 df bf c2 5d ac 3f 99 a8 be bf b2 5f 95 be
       -1.7471614 1.3466113 -1.4895202 -0.29174572

38 f4 [16, 8, 3, 3]
000000 a7 11 cc bd 1e ef 2b bf 50 e7 80 3d 42 ce 09 bf
       -0.099643044 -0.6716174 0.06294119 -0.5383035
000010 ae 7b 42 bf 33 0e 8c be eb d7 00 3f 8b 37 0e 3e
       -0.7596997 -0.27354583 0.50329465 0.13888375
000020 08 ec 8d 3e 75 f5 ba 3d 2d c7 ee be 46 0b d1 3e
       0.2771914 0.091288485 -0.46636334 0.40828913
000030 4c f9 4c bf 34 61 b2 3f ef b8 33 3f 90 41 57 3f
       -0.80067897 1.3935914 0.7020406 0.84084415
000040 75 b3 ba 3f 69 fe 0d c0 36 6f 14 bf a2 dc 44 bf
       1.4586016 -2.218653 -0.57982194 -0.7689916
000050 4e 37 69 bf 09 75 09 bf fc 0d 5c be ca 8c 0f bd
       -0.91100013 -0.53694206 -0.2148971 -0.035046376
000060 68 e2 9c 3e 3c 68 9c 3e bb 1f d3 3e 74 26 f4 bd
       0.30641484 0.30548275 0.41235146 -0.11921397
000070 87 5d 70 3d 8a ca 05 3f 27 1e 1a 3f a6 84 2b be
       0.058682945 0.52262175 0.6020226 -0.1674982
000080 54 a3 4e 3e 15 19 21 3d 88 ec 9a bf 60 0c a1 bf
       0.20179492 0.03933056 -1.2103434 -1.2581902
000090 cf af 95 be 10 ac 37 3e 64 22 b1 be 88 a8 5a 3e
       -0.29235694 0.1793673 -0.3459655 0.21353352
0000a0 6f a1 04 3e 16 f0 42 bd 3c 46 fe be 6e 35 28 be
       0.12952207 -0.047592245 -0.4966296 -0.16426632
0000b0 8b 84 08 be 20 4b 18 3f 1f b1 f7 3e 40 52 9e be
       -0.13331811 0.5948963 0.4837732 -0.30922127
0000c0 f1 ce 02 bf 14 06 8d bf 3f 1a a2 bf 01 0f 4a 3e
       -0.5109702 -1.101748 -1.266426 0.19732286
0000d0 5a 21 e2 3e ba f6 ca be f4 4c 1c 3e 7f 55 8f 3e
       0.4416607 -0.39641362 0.1526373 0.27994916
0000e0 9f aa 52 bd ce c7 d0 be 22 a0 41 3f 16 bb 04 3e
       -0.05143225 -0.4077744 0.7563497 0.12961993
0000f0 4d c5 17 3f 98 be 7f 3f 5f e1 ae bf 95 74 cb be
       0.5928543 0.999002 -1.3662528 -0.39737383
000100 33 38 c8 3e 3f 67 b8 3e 9e 35 3e bf b9 17 8c bf
       0.39105377 0.3601627 -0.74300563 -1.094474
000110 ec ad 02 3e c5 13 4e 3f 3f 0b 13 bf ae a2 ca 3e
       0.12761658 0.80498916 -0.57439035 0.3957724
000120 7f 6f 6f bf 10 9c e6 3e 12 12 2b 3e 17 10 e2 3e
       -0.93529505 0.4504094 0.16706112 0.441529
000130 ea 2a 9f 3f 11 d0 bc 3f 5b 23 b5 be d6 a0 0e 3f
       1.2434971 1.4750997 -0.35378537 0.55714166
000140 8c 07 8e bf a6 1e 0d 3e 21 7d a8 3f d3 79 84 3e
       -1.1096053 0.13781223 1.3163186 0.25874195
000150 06 0d 10 bf 5b ef 21 3e 4f 33 a8 bf 99 9c 5c be
       -0.5626987 0.15813963 -1.3140658 -0.21544112
000160 fa 3b 91 3f 47 98 14 bf 47 ad 46 3f 50 42 97 be
       1.1346428 -0.58044857 0.7760815 -0.2954278
000170 ae 4c 77 be aa 2b 8d bd dc a1 0e 40 1b cc 06 3f
       -0.24150345 -0.06893094 2.228629 0.5265519
000180 96 87 f5 be 0d 5b 12 40 3b 20 1f bf 58 03 5d 3f
       -0.47955006 2.2868073 -0.62158555 0.8633323
000190 34 5e 53 3f 02 0b c5 bf 50 9f 64 bf 17 60 ca 3f
       0.8256562 -1.5393984 -0.8930559 1.5810574
0001a0 76 ca 26 bf 95 aa 59 3e 36 4a 90 bf 44 6d 57 bf
       -0.6515268 0.21256478 -1.1272647 -0.841511
0001b0 a3 0c 6f 3f 95 f7 0e 3f 78 c0 81 be ef fc 8b bf
       0.9337866 0.5584653 -0.25342155 -1.0936564
0001c0 13 08 27 bf 4f a3 c7 bf b0 bb 26 3f b6 07 fc be
       -0.65246695 -1.5596713 0.6513014 -0.49224633
0001d0 32 a1 cb be 29 a5 15 3f fc 4a 9d be 31 f1 c0 bf
       -0.3977142 0.5845514 -0.3072127 -1.5073606
0001e0 da 8b b0 3f 31 e0 24 3f dc 1f 9a 3d 08 7a c1 be
       1.3792679 0.6440459 0.07525608 -0.37788415
0001f0 23 02 9a bf 95 ac 1d bf 69 cb d2 be 31 92 dd be
       -1.2031902 -0.61591464 -0.41170815 -0.43275598
000200 a6 cf 7c bf 1c 0f 06 bf a8 f7 5e 3f a2 f3 02 bf
       -0.98754346 -0.52366805 0.87096643 -0.51153004
000210 78 8b 69 3e 71 a1 3d bf 2b 5e 80 3f f7 ff af 3f
       0.2280711 -0.74074465 1.0028738 1.3749989
000220 a5 41 7d bb 52 aa cc be e5 c1 aa 3d 0e ce b1 3e
       -0.0038643864 -0.39973694 0.08337764 0.3472752
000230 d0 9c 85 3e 92 51 55 3e 06 1e 51 3f 40 7b 84 bf
       0.260962 0.20831898 0.8168644 -1.0350113
000240 d9 b4 c7 3e 68 e7 8b 3c 0b 22 1f 3f d5 81 59 be
       0.39005163 0.017078117 0.6216132 -0.21240933
000250 e1 e9 cb 3e 9a d7 87 3f 7b 34 d4 be 67 ba 68 3f
       0.39826873 1.0612671 -0.4144629 0.9090943
000260 97 a0 82 bf ba 88 a0 be c7 40 44 bf e4 21 c2 3e
       -1.0205258 -0.31354314 -0.7666134 0.37916481
000270 6d 12 80 3f bb aa 06 3f ff c2 21 bf 3d c6 aa be
       1.0005623 0.52604264 -0.63188165 -0.3335437
000280 a6 25 d8 3f 1d f9 4a 3f 35 7d 2c be 59 5b 3a 3f
       1.6886489 0.79286367 -0.16844638 0.72795635
000290 67 8b dd 3e 20 fd 16 3f eb d9 8a 3d 64 83 84 3f
       0.43270418 0.5897999 0.06779846 1.0352597
0002a0 be 71 a1 be 42 d5 83 bf 05 20 bc be 34 22 90 3e
       -0.3153209 -1.0299456 -0.3674318 0.28151095
0002b0 6d 08 6b 3e 2c 43 f2 bd 54 7b e9 be 8e fa 0f bf
       0.22952433 -0.11829218 -0.45601904 -0.5624169
0002c0 dd 4b 75 3f f6 8e d3 3d b0 fc b6 3d 9c 67 0d be
       0.95818883 0.10330002 0.08934915 -0.13809055
0002d0 98 03 55 be 95 e0 7f bf 90 8d 51 3e e3 3c ac 3e
       -0.20802152 -0.9995206 0.20464158 0.33640203
0002e0 b9 c9 a4 be a4 46 06 3f 61 ed 32 be 6e 76 f2 3e
       -0.32185152 0.5245154 -0.17473365 0.4735598
0002f0 e9 f8 89 3e 02 f8 50 3f 8c 4c fc 3e 98 37 dd 3d
       0.26947716 0.8162843 0.4927715 0.10801619
000300 20 6c 39 3f 28 cb 67 3e d2 96 7f 3f 61 ff 3f bf
       0.7243061 0.22636092 0.9983951 -0.7499905
000310 b4 d8 28 3e 2b e0 2f be 71 52 1d 3f 1d 2d 75 bf
       0.16488916 -0.17175357 0.6145392 -0.9577196
000320 fc 4f 51 be 0f 88 97 3f 1d 7c 24 3f fd 33 82 be
       -0.20440668 1.1838397 0.6425188 -0.2543029
000330 fe 17 82 be 28 3e 0a bf f1 3e a6 3d f1 49 f4 3d
       -0.2540893 -0.5400109 0.08117474 0.11928166
000340 94 7c 0e 3e 5b e9 ca be 04 cb 91 bd 55 db d2 be
       0.1391471 -0.3963116 -0.071188 -0.41182962
000350 1c ad 23 3f a7 68 40 bf 85 56 94 bf c7 e7 15 be
       0.6393602 -0.75159687 -1.1588904 -0.14639197
000360 a4 90 98 3d 13 6f f8 bd 42 77 14 be 45 ce ab 3e
       0.07449463 -0.12130561 -0.14498618 0.3355581
000370 b0 68 82 bd c5 4a a8 3d a6 64 a9 3e ce a4 9e 3d
       -0.06367624 0.08217386 0.330846 0.07746278
000380 dc 71 47 bf 33 b2 9b 3e 89 02 ef 3d fe 7c d0 3e
       -0.7790811 0.30409393 0.116704054 0.4072036
000390 3f 47 3e be 78 1b aa be 55 f9 ab be 6a f0 5a be
       -0.18581866 -0.33224082 -0.33588663 -0.21380773
0003a0 c8 23 3a 3f 77 83 38 bd 81 52 08 be 63 7e 09 be
       0.7271085 -0.04504725 -0.13312723 -0.13427119
0003b0 82 5e e7 bc 29 df 84 3e 07 d5 98 3e d9 c3 91 3e
       -0.028243307 0.25951508 0.29850027 0.28469732
0003c0 b2 c1 ac 3c 6b 77 80 be 22 51 d1 be c1 b2 47 be
       0.021088455 -0.2509111 -0.40882212 -0.19501783
0003d0 4b 31 af 3e 83 e6 6d bd 68 a1 b0 bc 34 59 88 be
       0.34217295 -0.05808116 -0.02156134 -0.26630557
0003e0 8d 9f fb be 43 87 4c be 06 69 d7 be 27 d6 24 3d
       -0.49145165 -0.19973473 -0.42072314 0.040243294
0003f0 55 77 64 3d a3 0b 99 3e 63 0b de bd f4 73 3c 3f
       0.055777866 0.2989169 -0.108420156 0.7361443

39 f4 [16]
000000 11 a9 1a 40 d4 ea 38 3d 31 0c 0f c0 d4 72 b8 be
       2.416569 0.045145825 -2.235119 -0.36025107
000010 2f 64 01 bf f5 ce 32 40 f9 ea 74 3f a0 9c dc 3b
       -0.50543493 2.7938817 0.9567104 0.0067325383
000020 b4 02 a1 40 7a 9a a0 3f 24 a3 cc 3f b6 a6 73 3f
       5.03158 1.2547143 1.5987287 0.95176256
000030 38 65 48 c0 ae fe f0 bf 5d 0d b5 3f 1a aa 95 3f
       -3.131178 -1.8827722 1.4144703 1.1692536

fc.0.bias f4 [518]
000000 42 dd 82 3d 68 a1 59 3d 76 8a 35 3d 04 ac c7 3b
       0.06389858 0.053132445 0.0443215 0.006093504
000010 ac 98 bb 3d 30 63 4a 3b 6f 78 b7 3d fb 03 ff 3c
       0.09159979 0.0030881874 0.08958518 0.031129828
000020 9f 99 82 3d 85 b1 cb bc 03 8a a1 3d 5b f4 5f bd
       0.06376957 -0.024864921 0.07887652 -0.054676395
000030 05 4f 5d 3d e4 51 7e bd 74 74 17 3e e1 65 f1 3d
       0.054030437 -0.062089816 0.14790517 0.1178701
000040 e3 0f 9a bc ae 70 c3 3d e1 91 84 3d ec 22 95 3b
       -0.018806404 0.09542976 0.06473137 0.004551282
000050 4c bd 02 3e e1 85 27 3d e5 2f b7 bc b2 0b 37 3d
       0.12767524 0.04089916 -0.022361705 0.044688888
000060 38 85 de 3d 7d 40 fd 3c 9a 83 34 bd d4 d6 1f bd
       0.10865253 0.03091454 -0.044070818 -0.039023235
000070 b7 c9 94 bc 9a 98 47 bb 7b 3c be 3b 70 13 8e bc
       -0.018162591 -0.0030455948 0.0058055497 -0.017343253
000080 17 a0 2b 3c c0 3a 27 bd 27 b0 cf bc 6e 9d 3c bd
       0.01047518 -0.040827513 -0.02535255 -0.046048574
000090 41 4b 48 bc 30 7d 50 bd 78 a5 79 3c 9b ea 83 3d
       -0.012224973 -0.050900638 0.015237205 0.06441232
0000a0 2f 3c 56 3c f7 52 88 bd 1b 9d 84 3d 98 50 56 3c
       0.013075872 -0.06656449 0.06475278 0.0130807385
0000b0 87 87 8d 3d 5f 1b d8 bc cd 77 22 bc 07 e0 2f bc
       0.069106154 -0.026380239 -0.009916258 -0.010734565
0000c0 b1 1c a1 3d 21 21 c1 3d 37 58 89 3d 2a 2f f5 3d
       0.078668006 0.09430147 0.06706279 0.119718865
0000d0 67 f9 af 3c 34 3a a0 3d b8 a6 00 bc 84 49 d6 3d
       0.021481229 0.07823601 -0.007852249 0.10463241
0000e0 a4 20 cf 3d 8a 94 97 3d a6 c0 5e 3d 7d af f9 3c
       0.101136476 0.074013785 0.054382943 0.030479187
0000f0 17 68 1d 3d 22 ba a8 3d 51 e0 78 3d 97 a4 cd 3d
       0.038429346 0.08238627 0.0607608 0.10041159
000100 61 ab 4e 3d 1e d3 6d bd da 65 42 3d 0d 28 6f 3d
       0.05045641 -0.058062665 0.047460414 0.058387805
000110 3f c0 54 bb 12 d6 21 3e c0 c5 b1 3d b5 a9 a5 3d
       -0.003246322 0.15804318 0.08680296 0.0808901
000120 cf 4d 10 bd 86 c5 34 3c bd 4f a2 3c 5a c4 21 39
       -0.035230454 0.011033421 0.019813413 0.00015427303
000130 eb 42 0b 3e 56 99 ce bc af da 74 3d ab 7f 00 3e
       0.13599746 -0.0252196 0.059778865 0.12548701
000140 85 43 03 bd 86 51 2f 3c 78 7a 17 3e 18 2e 9f 3d
       -0.032046814 0.010700589 0.14792812 0.077724636
000150 30 e4 df 3d 42 c8 c3 3d 1f d6 92 3d 1c a2 69 3c
       0.10932195 0.095596805 0.071697466 0.014259841
000160 ef 18 5b 3b 18 9c 7c bd e5 e5 05 3e a2 43 6c 3d
       0.003343161 -0.0616723 0.13075979 0.057681687
000170 79 fd df 3d 74 21 88 3d 5a b9 5c 3d 60 53 e7 3c
       0.10937018 0.06647006 0.053887703 0.028237998
000180 0a c3 50 3d f5 43 65 3d a7 f5 cf 3d 03 3d df 3d
       0.050967254 0.055973012 0.10154276 0.10900309
000190 75 84 38 bd 85 9e ec 3d ac a5 b9 3d 55 7e 47 3b
       -0.045048196 0.11553673 0.090648025 0.003044029
0001a0 af 0b 24 bd 2a d4 28 bd 7f f5 0b 3e 20 9a 00 3d
       -0.040050205 -0.04121796 0.13667868 0.031396985
0001b0 47 cc dd 3d f7 41 23 bc 59 b1 b0 3d 04 b6 c9 bc
       0.108299784 -0.009964458 0.086275764 -0.024622925
0001c0 7a 93 f8 3d 66 00 58 bb 53 17 84 3d 5e 26 eb 3d
       0.12137504 -0.0032959222 0.06449761 0.11481927
0001d0 45 bf 84 3b 9e f1 b7 3d 99 9d 9c bc d1 cd 3b 3d
       0.0040511214 0.08981632 -0.019118117 0.04585058
0001e0 95 e7 d0 3d 6a a9 38 3d c3 63 aa bd 2e 31 cd 3d
       0.10200421 0.04508344 -0.08319809 0.10019146
0001f0 a9 df b1 3d f1 9c 52 3d 1a 74 ac bc 80 8f 71 3c
       0.08685238 0.051419202 -0.021051455 0.014743686
000200 4f c5 09 bd 9f f1 7e bd 5d 2c 12 3e 7c cc d0 3d
       -0.033635434 -0.062242147 0.14274736 0.10195252
000210 73 b5 99 bb fd 04 cc bb 3c 49 cf bc 18 83 96 3d
       -0.00469082 -0.0062261806 -0.025303476 0.07349223
000220 b1 ed be bb c4 fd 04 3e 90 68 00 3e 7d f9 fb 3d
       -0.005826675 0.12987429 0.12539887 0.123034455
000230 77 89 21 3d 01 08 de 3d c6 3b c8 3d bb 7a a6 bd
       0.039437737 0.108413704 0.09777026 -0.08128878
000240 58 0f 86 3c c8 57 93 3d 61 90 da 3d f0 cd 6f 3d
       0.016364738 0.07194477 0.10672069 0.058546007
000250 0d ba 21 bc 88 ea 97 3d c9 84 ad bd 2c e0 ca 3d
       -0.009871018 0.0741778 -0.084725924 0.09906039
000260 5b 7c d0 3d 75 0e 35 3d 98 6b 0e 3e a1 fc 83 3d
       0.10179969 0.04420324 0.13908231 0.064446695
000270 b9 47 a1 3d 7e 84 55 3d e9 54 b3 bc d1 11 30 bd
       0.07875008 0.052128308 -0.021891074 -0.04298574
000280 55 67 1b bd 0d f6 06 3e a8 96 6d bc a1 15 2b 3b
       -0.037940342 0.13179798 -0.014501251 0.002610542
000290 c4 17 fe 3c cb 76 ad 3d 2e c2 7e 3d 28 f8 0a 3d
       0.031017192 0.084699236 0.062196903 0.033928066
0002a0 f5 aa 19 bd 0b d8 43 3c c7 d5 05 3e 6e 3e a6 3d
       -0.037516553 0.011953364 0.13069831 0.08117376
0002b0 60 96 f7 3d 9d 55 8c 3d f6 de b3 3d 65 85 c4 ba
       0.12089229 0.06852267 0.08782761 -0.0014993368
0002c0 ec 3d 6d 3d 44 55 b9 3d c6 b2 56 bd 00 b7 8f 3d
       0.05792038 0.09049466 -0.052416585 0.07017326
0002d0 7f 24 4f 3d 13 f8 2b 3c dd 9d f4 3b 87 5d ed 3c
       0.050571915 0.010496157 0.007465108 0.028975261
0002e0 70 a3 3a bd 6c a7 51 bd 9c 2d 94 bd c0 04 23 3d
       -0.045566022 -0.051185057 -0.07235262 0.03979945
0002f0 bb d5 7c 3d a8 1c 39 3c 21 ce 92 3d ea ac 59 3d
       0.061727267 0.011298336 0.07168222 0.05314342
000300 1d b7 23 bd a0 60 11 3e dc 4b d6 bb a3 b8 9c 3d
       -0.039969552 0.14197016 -0.006539805 0.07652404
000310 ae 4f 3a 3d a0 3b 08 3e c5 67 3b 3d d1 38 72 bd
       0.045486145 0.13303995 0.04575326 -0.059136216
000320 f9 11 b4 3d d1 7b ca 3d c5 3d f7 3d f0 4c ab 3d
       0.087924905 0.09886897 0.120723285 0.08364284
000330 c9 4e 7e bd 52 65 f9 3d fe 54 e2 3b d8 ac 93 3d
       -0.062086854 0.121775284 0.0069071045 0.07210702
000340 76 4b a0 3d 26 d3 a9 bc 6c cf 38 3c 90 57 fe 3c
       0.07826893 -0.020730566 0.011279922 0.031047612
000350 21 b8 1a 3e c2 d1 02 3e 8c f3 0c bd 5f 9b f2 bc
       0.15109302 0.12775329 -0.034411952 -0.029615102
000360 ef 56 b8 3d 2c 6f 8c bc 73 6e 19 bd 0e fe 05 3e
       0.09000956 -0.017142855 -0.03745885 0.13085195
000370 02 42 21 bc f7 a3 b0 3d af 03 94 3d 81 fc 9c 3d
       -0.009842398 0.08625024 0.07227265 0.07665349
000380 6f d7 82 3d 5a 8f c0 3d a4 60 78 3d 53 4d 0c 3c
       0.06388747 0.09402342 0.06063904 0.008563357
000390 53 dd c2 3c 0c 9c d4 3d 9f 9c 03 3e 40 4d 44 3d
       0.023787176 0.10381326 0.12852715 0.047925234
0003a0 8f ca f1 3c fa 81 e9 3d 9f 16 52 3d bd 29 b3 3d
       0.029515533 0.11401744 0.051291104 0.08748195
0003b0 ba 23 26 3d 81 5d 88 3d 19 0b 64 3d 93 82 d1 3c
       0.040561415 0.066584595 0.055674646 0.025574958
0003c0 a8 d4 12 3e fb 20 51 bd 54 ae e3 3d 2d 28 92 3d
       0.14338934 -0.051056843 0.11117235 0.07136569
0003d0 ac 1c c4 ba cb 3a a4 3d b1 ab 55 3d de 89 af 3d
       -0.0014962158 0.08019026 0.05216569 0.08571218
0003e0 d8 08 20 bc 30 62 7b 3d 29 f9 f1 3a fe 24 78 bd
       -0.0097677335 0.061372936 0.0018461096 -0.060582153
0003f0 85 8c 0c 3e a6 b1 0a 3d 07 2e 63 bd 96 b7 ba bb
       0.13725479 0.033860825 -0.055463817 -0.0056981547

fc.0.weight f4 [518, 64]
000000 6d d1 dc bc 7c a7 c6 3d 0b e9 1c 3e 63 e6 f8 bd
       -0.02695533 0.09699914 0.15323274 -0.12153318
000010 bc e9 6c 3b 69 6e e9 3d 3b 37 6a bd d4 c4 01 3e
       0.0036150059 0.11398012 -0.057181578 0.1267274
000020 9e 7a df 3d c5 30 85 3d 1c e2 52 3e 82 92 d1 3d
       0.10912059 0.06503443 0.20594066 0.10233022
000030 37 1f 85 3c 19 a2 4e 3d c5 4e 48 3d e9 66 c8 bd
       0.016250236 0.050447557 0.048903245 -0.097852536
000040 bc 8d f7 bd 6a e1 6c 3d cb 12 4d bd ff bf c0 bd
       -0.120875806 0.05783216 -0.05006675 -0.0941162
000050 2e 95 7a 3c 64 54 0b bc ea 31 81 3d 89 a3 9e bc
       0.015294356 -0.008504007 0.063083485 -0.019365089
000060 5f 45 de bd f8 35 d4 bd 95 88 2e 3e dd 92 94 3d
       -0.10853075 -0.10361856 0.1704429 0.072545744
000070 7c 86 98 3d f4 8c 04 be 05 51 f0 3b e3 ed 0e bc
       0.07447526 -0.12944394 0.007333877 -0.008723709
000080 54 1f 32 bd 9f 81 71 bd 9b ea 3d be f5 f2 ab 3b
       -0.043486908 -0.058961507 -0.18546526 0.0052474686
000090 66 b2 c2 3d 30 57 cd 3d bc dc 38 3e c9 ab 23 3d
       0.09506683 0.10026395 0.18052953 0.03995875
0000a0 21 b9 9d bd 1a 5d fa 3c 93 e0 eb bd 3e 9a fb 3d
       -0.07701326 0.030561972 -0.115174435 0.12285279
0000b0 68 02 bf bd af 43 1d 3e b8 42 0d 3d ab 01 8f bd
       -0.09326631 0.1535785 0.034487456 -0.0698274
0000c0 2a c4 8c bd be ab 20 be 26 da 99 3c ca b5 17 be
       -0.06873353 -0.15690514 0.01878078 -0.14815441
0000d0 a0 06 86 3c 26 6c 04 3d 90 d2 27 3e 4f e4 00 bd
       0.01636058 0.0323297 0.16388917 -0.031467732
0000e0 8a 64 d3 3d 8c fd f1 3d 9f 65 c4 3d 89 d3 f6 bc
       0.10321911 0.11815938 0.09589695 -0.030130165
0000f0 85 71 5a bd b2 fe 4a bc 2c c5 6b 3d 1d c0 c1 3d
       -0.053330917 -0.012389826 0.057561085 0.09460471
000100 8c 57 6c 3d e8 e8 06 3e 26 5c 22 3d c8 2a 3f bd
       0.05770068 0.13174784 0.03963866 -0.04667166
000110 4c 63 e3 bc 3c 59 89 3d 35 da dc bc 37 c5 f9 3a
       -0.02775731 0.06706473 -0.026959518 0.0019055967
000120 b9 7a 7d bd c8 07 02 be 4a d7 37 3e a3 9f 3f bd
       -0.061884616 -0.12698281 0.1795322 -0.0467831
000130 89 22 e8 3b 14 3e c6 bd 61 09 bf 3c 6c 9d b6 3d
       0.007084195 -0.09679809 0.023319902 0.089167446
000140 86 56 e6 3c 6a 29 0e be 9d 9f dc bd 6f 21 1a bc
       0.02811743 -0.13882986 -0.10772631 -0.009407385
000150 b1 01 54 bd ba 82 07 bd 8a 78 10 3e a2 d3 23 3e
       -0.051759426 -0.033083655 0.14108482 0.159987
000160 c4 52 19 bd 3c 4d 2f 3e 9e bb 08 be f6 93 39 be
       -0.037432447 0.17119306 -0.1335282 -0.18122849
000170 62 ff 2b 3d 2a 4b 56 bc 95 0e b6 3d b3 57 1b 3e
       0.0419916 -0.013079444 0.088895 0.15170173
000180 54 69 47 3c ad 57 28 bd 1c 6c 30 3e 5e f8 d8 bd
       0.012171108 -0.04109924 0.1722874 -0.10594247
000190 31 37 8e 3c 0d 66 06 be 58 14 6e 3d 70 c8 c8 3d
       0.017360302 -0.13124867 0.05812487 0.098038554
0001a0 01 ca 06 bc 47 ad 62 3d 51 93 ad 3d 49 1d e0 3d
       -0.008226872 0.05534103 0.08475364 0.10943086
0001b0 a7 d0 37 bd 10 f1 9d bd 34 6a 0d bd e0 35 02 3e
       -0.04487672 -0.07711995 -0.03452511 0.12715864
0001c0 2a 38 21 3e 27 82 15 3e 33 ce 29 bd ab e2 35 3e
       0.15744081 0.1460043 -0.041456413 0.17762248
0001d0 35 f4 5e 3d 45 64 c1 3d c9 51 da 3c b5 28 2f 3e
       0.054432113 0.09442953 0.026650326 0.17105372
0001e0 e8 0f 96 3d 7a 93 13 3e da b1 4f 3e bb ce c8 3d
       0.073272526 0.14411727 0.20282689 0.09805056
0001f0 54 0d 05 3d 6d 12 19 bd 19 ce a3 bc 1b 67 f5 bd
       0.032483414 -0.037371088 -0.019995736 -0.119825564
000200 db 39 b6 3d 84 8d 00 3d a4 d7 54 3e 1b fe 73 bd
       0.08897754 0.03138496 0.20785385 -0.059568506
000210 63 d9 85 bd 45 02 18 3c b6 6c 1f 3e 10 d0 96 3d
       -0.06535604 0.009277885 0.15568814 0.073639035
000220 04 ac 69 3d 03 6c 84 3d 8c cf 12 3e 8b e1 0e be
       0.057048813 0.06465914 0.14336985 -0.13953225
000230 31 0e 36 bc d1 15 cc 3a 8c 42 0d 3c 45 34 c4 bd
       -0.011111782 0.0015570467 0.008621823 -0.09580282
000240 66 c6 13 bc 82 fe 86 3d 8d fd d3 3d 0b 68 e7 3c
       -0.00901947 0.06591512 0.10351095 0.028247854
000250 d0 92 98 3c 59 46 a0 3d 60 7d 81 3d ad 61 62 3e
       0.018624693 0.07825918 0.063227415 0.22107573
000260 04 ef 08 3e ef 9a 05 be a5 5c 8e bb 2e c8 06 3e
       0.13372427 -0.13047384 -0.00434454 0.131623
000270 9b ba 0d be 43 f0 81 3d c1 a2 9c bc 6a 73 e0 bd
       -0.13840716 0.063446544 -0.019120576 -0.109595135
000280 ac 1c be bd 35 99 32 3e 3b e9 2e be 95 be 27 3e
       -0.092828125 0.17441256 -0.17081158 0.16381295
000290 f2 61 1e bd 6f 04 ca 3d 98 8b d1 3c 41 98 60 bd
       -0.038667627 0.09864127 0.025579259 -0.0548327
0002a0 0f 71 88 3d 42 be 0c 3e ff 20 03 3c a4 7e 70 bc
       0.06662189 0.13744453 0.008003472 -0.014678631
0002b0 86 6c 19 be 3e c4 36 bd 76 12 06 3e 30 da cb 3b
       -0.14982805 -0.044620745 0.1309298 0.0062210783
0002c0 5c 99 b6 bb 2e d2 34 be da 8f 4e 3d f7 9f 2e bd
       -0.005572481 -0.17658302 0.050430156 -0.042633023
0002d0 53 83 59 3d 33 fd 89 3c ce 05 8a 3d 79 06 24 be
       0.053103756 0.016844368 0.067393884 -0.16018094
0002e0 8b b7 c8 3c 8f 9c 9b 3d c1 07 fb 3c 77 1b 4a 3e
       0.024501583 0.075982206 0.030643346 0.1973704
0002f0 53 6f 04 3e 99 c7 68 3d 95 45 46 3d 27 21 64 ba
       0.12933092 0.056830976 0.048406202 -0.000870245
000300 2c f8 97 3d 04 d3 67 bc b4 9c 69 bd a4 f4 da 3d
       0.07420382 -0.014149431 -0.05703421 0.10691193
000310 00 03 6f bc c1 9d b5 3d 32 1a 61 be 33 4a f5 bd
       -0.014588118 0.0886798 -0.21982649 -0.11977043
000320 17 56 57 3b 22 b8 8e 3c 44 e0 a0 bd 00 9c 28 be
       0.003285771 0.017421786 -0.07855275 -0.1646576
000330 11 f6 92 bb 0d ef 33 3e d8 6b 48 bc 97 23 f5 3b
       -0.0044849 0.1757166 -0.012232743 0.0074810493
000340 2f be e5 bd de 27 c7 3c 73 13 0a be 3a 4e e6 3d
       -0.11217915 0.024311002 -0.13483982 0.11245389
000350 8e eb 41 3e a7 55 99 3d d3 01 46 3e 64 41 45 3c
       0.18937513 0.0748704 0.19336633 0.012039516
000360 49 c7 84 bd d8 89 b2 bd f0 61 a7 bd e0 72 d0 bc
       -0.06483323 -0.08717698 -0.08172977 -0.025445402
000370 4d a1 66 3d 6c 3a f2 3d 1f f1 25 3e 96 c0 4b bd
       0.056306172 0.11827549 0.16205262 -0.04974421
000380 b9 14 bb 3d 3c 24 e1 3d 45 1f 1c 3e b4 b6 33 3d
       0.09134812 0.10993239 0.15246303 0.04387541
000390 71 af 98 bd c8 50 01 3e 27 89 48 3d e6 02 bd 3d
       -0.07455338 0.12628472 0.048958924 0.092290685
0003a0 a1 e5 e4 bd 8a 1e 17 3d 14 48 b5 3d df 85 1e bd
       -0.11176611 0.03689436 0.088516384 -0.03870189
0003b0 89 b5 42 3e d5 16 04 3e 3b 6a fd 3d c9 df 78 3d
       0.19014563 0.12899335 0.123737775 0.060760293
0003c0 d4 db be bd 00 1a 9c bd 6d 1b a1 bd 49 85 83 3a
       -0.09319273 -0.076221466 -0.07866559 0.0010034229
0003d0 01 1b 7d 3d a0 c2 6c bd d4 d9 09 3d 0e b6 14 be
       0.06179333 -0.057802796 0.033655003 -0.14522573
0003e0 23 7c 33 3e 10 a8 da 37 3c 61 e9 3d 3a fd be bd
       0.17527823 2.6065885e-05 0.11395499 -0.09325643
0003f0 ea b1 ae 3d 2c 62 fe 3d d2 ff f5 3d 7f e3 6f 3d
       0.08530028 0.124210685 0.120116845 0.058566567

fc.3.bias f4 [259]
000000 60 80 3f bc cf 94 45 3d fe b9 21 bd 8d ed 00 bd
       -0.011688322 0.048237618 -0.039484017 -0.031476546
000010 17 07 6b bc f1 0b 26 bc 28 5c 97 3c 9e b4 9f bb
       -0.014344952 -0.010134683 0.01847656 -0.004873826
000020 30 44 2c bd 2e 9d 15 bd 37 5f be bc 13 65 89 bd
       -0.042057216 -0.03652685 -0.023238761 -0.067087315
000030 66 79 66 3a 86 17 22 bd c5 db b7 3a 12 db de bc
       0.00087918935 -0.039573215 0.0014027288 -0.02720407
000040 c2 36 bb bc 0e ba 89 bc ae 21 28 bc d1 5e 37 bc
       -0.022853259 -0.01681235 -0.010261936 -0.01119204
000050 f0 f1 b4 3b a2 d4 28 3c a6 bc 4e 3c a1 fe 02 3d
       0.0055220053 0.010304602 0.0126182195 0.031981114
000060 39 63 9b bb 71 a7 e9 bb e1 cc a1 bc f1 ae e8 3c
       -0.004742053 -0.0071305563 -0.019751014 0.028403731
000070 25 12 47 bc ec 43 0f 3d 4b a9 0a bc ce b1 d6 bc
       -0.012150322 0.034976885 -0.008463214 -0.02620783
000080 75 47 3c bc 82 8e 96 3c 73 9e 10 3c 9d d3 e6 3c
       -0.011491646 0.0183785 0.00882684 0.028177077
000090 57 9d a5 bc 66 77 23 bc 97 21 ed 3c 99 c1 16 bc
       -0.020216627 -0.009977197 0.028946681 -0.009201431
0000a0 ca 51 64 bd 55 1b 94 bc fa 41 38 3a 48 07 63 bd
       -0.055742063 -0.01807944 0.0007028874 -0.055426866
0000b0 a8 16 32 3d d6 e3 bd 3c 06 14 36 bc f4 4e 89 bc
       0.043478638 0.02317993 -0.011113172 -0.01676128
0000c0 0d ec c2 bb d2 47 09 bc 4c 6a 7d 3b fd 83 09 bd
       -0.0059485496 -0.00837894 0.0038668094 -0.03357314
0000d0 96 23 36 bc 42 fa 1a bd 0c 4a 33 3a 9e f9 33 3d
       -0.011116883 -0.03783632 0.0006839342 0.043939225
0000e0 52 0a b4 3c bf c5 05 3a fb 1c 2f bc 69 a0 8a 3c
       0.021977577 0.0005103014 -0.010688062 0.016922193
0000f0 9e 59 9f bc 55 bc 1e bd ee e0 13 bd 8c 5a f2 3b
       -0.019451912 -0.038753826 -0.03610318 0.007396048
000100 bf 4a ee bc 7d 00 ca 3c 1f 83 73 bc d8 41 06 bd
       -0.029088376 0.024658436 -0.014862805 -0.032777637
000110 da 89 5a bc 8a 6c 40 bc 90 14 9c bc e0 e6 ce 3b
       -0.01333853 -0.011744628 -0.019052774 0.0063141435
000120 83 dd ef bc 4b 43 23 bd 1a c3 97 bb 4c 91 13 bd
       -0.02928043 -0.039859097 -0.004631412 -0.036027238
000130 f6 e5 62 bc fe 3d 50 3c b5 9e 38 bc 7f bf ca bc
       -0.013848772 0.012710093 -0.011268307 -0.024749516
000140 56 c2 1c bd 91 69 1e bd 0d b4 1f 3c c6 fb 8a bc
       -0.03827127 -0.038674895 0.009747517 -0.016965758
000150 22 b5 18 3d f0 ce 17 3c 4a 86 f0 3b c0 40 83 bb
       0.037282117 0.009265646 0.0073402273 -0.0040055215
000160 35 ff 59 bc f6 73 81 bc f5 2a df bc ef dd 9b bb
       -0.013305475 -0.015802365 -0.027242163 -0.004756681
000170 1e 0a 4a bc c7 79 96 3c 28 96 10 3d 75 aa 8f bb
       -0.012331514 0.018368615 0.03529945 -0.0043843337
000180 4c f9 80 bc 0f ea 34 bd e5 c2 18 b9 f4 f4 cf 3a
       -0.015743874 -0.04416853 -0.00014568453 0.0015865848
000190 2a 9b 05 bc c8 a8 87 bc 75 da 8c 3b 52 12 d1 bc
       -0.00815467 -0.016559973 0.004298503 -0.025521431
0001a0 e4 e9 47 39 7c 67 6d bc 0b 14 1a bc 87 ec 1d 3c
       0.0001906525 -0.014490005 -0.009404193 0.009638912
0001b0 6f bb 24 3d ab 25 0e 3c f4 91 9c 3b 3e 25 87 bc
       0.040217813 0.008675973 0.004778141 -0.01649725
0001c0 d4 22 b6 39 1a 54 7f ba 3c 25 87 bc bc e7 f3 3b
       0.00034739694 -0.000974001 -0.016497247 0.0074433964
0001d0 91 45 bd 3c a2 b7 46 bb cb 5e d2 3c 52 1c cc 3c
       0.02310446 -0.0030321856 0.025679966 0.024915848
0001e0 ab cd 93 bc e9 fa 74 bc b0 6c 25 bd 0b c2 1b 3b
       -0.018042406 -0.0149524 -0.040386856 0.0023766782
0001f0 9e 30 30 3d f9 85 19 bd a1 fb da 3b 97 46 c7 bc
       0.043015115 -0.037481282 0.0066828285 -0.024325652
000200 5f ac 28 3b a6 13 17 bd 49 04 c1 bc 16 7b 58 bd
       0.0025737507 -0.036883973 -0.023561614 -0.05285176
000210 e0 48 ea bc d3 e6 b4 3c 54 5b 0e 3d f6 ba 14 bc
       -0.028599203 0.022082722 0.034755066 -0.009077778
000220 88 50 55 3c 72 ae e7 bc 9e b9 fb bb 32 2b 2e bc
       0.013019688 -0.028281424 -0.0076820394 -0.010630416
000230 cf 09 75 bc 6f 56 87 bd 1f 44 0c bd ce 25 ba bc
       -0.014955952 -0.06608283 -0.034244653 -0.022723105
000240 f2 7a 49 bd e6 eb 56 ba 06 a8 02 3c 11 5e be 3c
       -0.049189515 -0.0008198604 0.00797463 0.023238214
000250 0d ae c5 bb 81 00 61 bc ba 66 0c bd d4 fa c9 bc
       -0.0060327114 -0.01373303 -0.034277655 -0.024655737
000260 de b8 5a 3c f8 20 56 3c 81 10 39 bc 7e 06 36 bc
       0.01334974 0.013069384 -0.011295439 -0.011109946
000270 fe 3a 9b bc ad 3b 71 3d 71 13 d9 3c cd 3f 87 3c
       -0.018949028 0.058894802 0.026498528 0.016509915
000280 bd f2 2c 3d 3e d8 a4 ba 36 52 a2 3c 85 54 81 3c
       0.04222368 -0.0012576652 0.019814592 0.015787372
000290 bd 7b 94 bd 94 cc eb bc 9f 9e 4d bc d0 de cc bc
       -0.07250164 -0.028784074 -0.012550025 -0.025008589
0002a0 f8 a4 ec bc 41 88 84 bc 8e f9 72 bb a6 40 4e bc
       -0.028887257 -0.016178252 -0.0037075016 -0.012588656
0002b0 e8 a9 cf 3b 4c 04 d7 bb d9 4b 58 bc 32 3a 2b bd
       0.006337393 -0.0065617915 -0.013201677 -0.041803546
0002c0 9a 44 0e bd 8f 77 91 3c 1c 2c 1a bd a4 68 2d 3b
       -0.034733392 0.017757205 -0.037639722 0.0026460076
0002d0 c6 29 5e 3b 4a 88 2e 3d ca 0a 06 3d 07 ef d4 3b
       0.003389941 0.042610444 0.032725133 0.006498221
0002e0 b2 82 b8 ba b9 09 1b bc 66 97 ad bc 84 13 f2 bb
       -0.0014077036 -0.009462767 -0.021190356 -0.0073875804
0002f0 c4 a5 12 3c d8 a9 4d 3c 9e 7b 17 3b be d0 7a bc
       0.008950654 0.012552701 0.0023114453 -0.015308557
000300 07 d4 91 3b bd 26 53 3c 64 07 f4 3b cc 04 85 3b
       0.0044503245 0.012887654 0.00744717 0.0040594097
000310 9b d4 bf 3c 83 9f d6 bc 7f bb 8a bd 9b c1 73 bd
       0.023416808 -0.026199108 -0.06774043 -0.05951081
000320 b2 ef 82 bb 4e e6 f8 3c c9 86 23 3d aa 46 89 3b
       -0.003995859 0.030383255 0.039923463 0.004189332
000330 e4 63 45 3c 24 e5 a6 3b 36 cc 84 bc 16 cb 11 3d
       0.012047742 0.0050932337 -0.016210657 0.03559407
000340 79 f4 ee 3c 75 b7 4a 3c a8 27 d0 3b 86 bb 90 bc
       0.029169308 0.012372841 0.0063523836 -0.017667543
000350 cb 6d 5b bd 38 c8 39 bb 82 91 c1 bc ea c7 3b bc
       -0.053571504 -0.00283481 -0.023628954 -0.011461237
000360 cf 86 f8 bc bb 12 28 bd a2 de 46 bd 9e cb 8c ba
       -0.03033772 -0.041033488 -0.048552163 -0.0010741835
000370 d2 34 6c 3c bd 20 67 3c 5e 0b 5c bd 0e 54 37 3c
       0.01441689 0.0141069265 -0.053721778 0.011189474
000380 08 96 09 3d 5b b2 3d 3c e0 20 10 3d 62 e2 81 bc
       0.033590347 0.011578168 0.035187602 -0.015855018
000390 c5 8a d6 3c a3 55 5f bc ba c4 24 ba 7a 87 ac bc
       0.026189217 -0.013631257 -0.0006285418 -0.021060694
0003a0 d3 b3 b0 bc 63 5c 48 bc 6a df 92 3c bf ea b0 3c
       -0.021570122 -0.012229058 0.017928798 0.02159631
0003b0 4d 8f ee 3b 86 1a af bc 7d fc 12 3c 87 fc 4d bc
       0.0072802664 -0.021374952 0.008971331 -0.012572414
0003c0 db f3 c0 3c 8c f9 21 3c 12 5a f4 3c e8 8f 29 bd
       0.02355378 0.009886157 0.029828105 -0.041397005
0003d0 cb 3b 23 3c 94 15 5e bd 9b 90 8f 3b e7 29 01 bc
       0.009962986 -0.054219797 0.004381252 -0.007883525
0003e0 5e ee 7b bc b4 8c 17 bc 68 62 c1 bc 6d 41 31 bd
       -0.015376655 -0.009249855 -0.023606494 -0.043275286
0003f0 81 21 19 bd 3c 26 2a bc f2 fe 56 bd bb 1f 72 3b
       -0.037385467 -0.010385092 -0.05248923 0.0036945182

fc.3.weight f4 [259, 518]
000000 c4 7a 6c 3d 4e f6 78 3d c8 d5 36 bc 9c 46 e2 3c
       0.057734266 0.06078177 -0.011159368 0.02762156
000010 84 32 29 bd 26 79 46 3c 69 21 01 3b 6e d2 19 3c
       -0.04130794 0.012113845 0.0019703752 0.009388549
000020 d2 93 2c bd 8a 43 0f 3d e7 41 69 bd 6f 75 7b bd
       -0.04213316 0.03497652 -0.056947615 -0.06139129
000030 00 55 05 35 a3 0b d1 bc 8d 99 22 bd 99 01 84 bd
       4.967005e-07 -0.025518244 -0.03969722 -0.06445617
000040 bb c1 e5 3c b4 91 83 bd 61 8d 1b bd c5 fc c5 bd
       0.02804648 -0.06424275 -0.037976626 -0.096673526
000050 70 58 1c bd 6e 4d 28 bd aa 05 3c 3d 9a 7b 91 bd
       -0.038170278 -0.041089468 0.04590384 -0.07103653
000060 98 b4 71 bd 47 63 0b 3b af 14 b9 3c 28 92 1c 3d
       -0.05901012 0.002126889 0.02259287 0.038225323
000070 7a ab 0a bd ee 2b 54 3d 23 2b f8 b8 d6 40 8a 3c
       -0.03385494 0.051799707 -0.00011833596 0.01687662
000080 d2 fe d3 bc 10 ab 5f 3d a5 93 14 3d 6a ec 0e bd
       -0.025878344 0.054606497 0.036273617 -0.03489343
000090 b4 6b a2 3c 31 37 5d 3c e2 b9 e2 bc 7f 39 93 3d
       0.019826747 0.013501928 -0.027676526 0.07188701
0000a0 1e ac 24 bd e4 2a 85 3d ea a0 e8 3c 78 8c 72 3d
       -0.040203206 0.06502321 0.028397042 0.059215993
0000b0 90 c7 2f bd 65 05 e8 bc a1 f8 78 bd a6 2d 69 bc
       -0.042914927 -0.028322885 -0.060783986 -0.014232075
0000c0 9f 0e a9 bc 85 03 f7 bc 0f d5 11 3d 74 e8 e1 3c
       -0.020636855 -0.030153045 0.03560358 0.027576663
0000d0 27 70 1e bd 0d cf 07 bd 24 4b c5 bb 5a 9f 85 bd
       -0.038681176 -0.033156443 -0.0060209204 -0.065245345
0000e0 59 87 8a bc 43 0e 03 3c aa df ab bc cf 64 61 3b
       -0.016910242 0.007999006 -0.020980675 0.0034392362
0000f0 27 57 2e bb 03 45 30 bc f9 93 a2 bc 0c c7 e6 bc
       -0.002660224 -0.010758641 -0.01984595 -0.028171085
000100 2d e3 90 bb ce 09 20 3d 76 88 69 bd 36 db 35 bd
       -0.0044216127 0.03907185 -0.057014905 -0.04439851
000110 68 ce 12 bd fb df 70 bd 8e c4 b0 bc 19 ce 30 bb
       -0.035841376 -0.058807354 -0.0215781 -0.0026978313
000120 bb bf 06 bd f1 df f8 bd ee 4f 6f 3d 03 be 5c bc
       -0.032897692 -0.121520884 0.058425836 -0.013473037
000130 92 b4 42 3d 24 7e 74 bd af 7f 57 bd 0a 41 99 3d
       0.047535487 -0.05969061 -0.052612003 0.07483108
000140 c7 bf ff bc a3 a4 2e bd b1 96 89 bc fa 9c 76 3d
       -0.031219376 -0.04263748 -0.016795488 0.0602083
000150 24 a7 cc bc 6a 16 38 3d 79 a6 aa bc 2d 84 01 be
       -0.024982043 0.04494325 -0.020831333 -0.12648077
000160 ef 82 05 3d f4 16 64 3d 8c 1b 33 bd b8 6c 40 3b
       0.03259557 0.055685952 -0.043727443 0.0029361676
000170 ae 60 23 3b aa 8b 0a 3d 33 26 4a bd c6 6f 2c 3d
       0.0024929452 0.0338246 -0.049352836 0.042098783
000180 89 96 3e bd a2 e6 b4 bd 4f f3 8d 3d 12 45 9d bc
       -0.04653028 -0.08833052 0.06931173 -0.019197974
000190 1b b7 f0 ba 5b 0a 9d bc e8 7a 2b 3d dd 28 52 3c
       -0.0018365117 -0.019169977 0.04186526 0.012827125
0001a0 d5 29 98 3d f3 66 11 bd 6e f6 83 bd b6 8e e1 bc
       0.07429854 -0.03549857 -0.06443487 -0.02753387
0001b0 85 cc 21 bd a7 1d e4 bc 3f 67 12 3d 59 c0 2b 3d
       -0.039501686 -0.02784617 0.035742994 0.041931484
0001c0 40 70 47 3d 1a c9 a2 bc 76 d7 a6 3c 17 70 da bd
       0.048691034 -0.019871283 0.020366412 -0.10665911
0001d0 ea 39 37 bd e5 98 0d 3d 88 53 35 3c 57 46 62 3d
       -0.044732966 0.03456964 0.011067279 0.055242863
0001e0 a6 94 b5 bc f5 be f2 3c 22 a4 24 b9 5c e4 2f bd
       -0.022165608 0.029632071 -0.00015701403 -0.04294239
0001f0 e0 5d 60 bc 82 44 11 3d a2 52 20 bd 59 f0 ed 3c
       -0.013694257 0.035465725 -0.039141305 0.02904527
000200 2f 8c 75 bd ec 44 bc 3d a8 a6 83 3d 2f e6 89 3b
       -0.059948143 0.09192833 0.064282715 0.004208348
000210 e6 4b 23 bd 3d ff 39 bd e3 53 65 3c 9c 36 18 bd
       -0.039867304 -0.04540943 0.013997051 -0.037161455
000220 b2 02 13 ba 1d 8c 89 bd a9 43 05 3d 22 79 da bc
       -0.00056080066 -0.067161776 0.03253523 -0.026669089
000230 d2 d8 eb 3c 3e 4d 9d bc 5e c7 1e bc 6e 11 0a bd
       0.028789911 -0.019201871 -0.0096910875 -0.03370803
000240 2f ec 05 3c 30 06 e0 3c 04 35 12 3d 1f ad 49 3d
       0.008173986 0.0273467 0.03569509 0.049237367
000250 c9 00 66 bd 64 03 79 3c 23 06 04 3c f7 a5 a3 bc
       -0.056153093 0.015198562 0.008058104 -0.0199766
000260 ef 6a a0 bd eb 95 a1 bd f6 07 a7 3a c5 e8 2c 3c
       -0.07832896 -0.07889923 0.0012743461 0.010553543
000270 bc 92 4b bb c4 b2 00 bd 5d bf 2b bc 55 19 48 bd
       -0.0031062802 -0.031420484 -0.010482636 -0.048852284
000280 c2 9b 16 3d be e7 6f 3d 0f 63 3b bd e5 31 67 bd
       0.036769636 0.058570616 -0.045748767 -0.056444068
000290 8c ec 90 bd fd b0 54 3c 42 aa b1 bd 6c f5 e0 3c
       -0.07076368 0.01298165 -0.08675052 0.027460776
0002a0 95 bc 15 3c 06 9f 4f bd 73 1b 21 3d f4 37 db 3b
       0.0091392 -0.050688766 0.03933282 0.0066900197
0002b0 22 99 4c bd b0 32 6c 3d 39 6c f3 3c f6 26 7f 3d
       -0.049950726 0.057665527 0.02971469 0.062293015
0002c0 a1 69 1d bd e6 af 72 bd 90 36 67 bd 25 c2 0e bd
       -0.038430814 -0.05924978 -0.05644852 -0.03485312
0002d0 5f e6 80 bd 75 ba 7b bc 80 3f 6a 3c 19 76 cf 3c
       -0.0629394 -0.015364279 0.014297366 0.025324868
0002e0 7f f3 1b bc f7 ed 30 3c e7 d9 da 3b 87 ab 1d 3d
       -0.009518503 0.010798923 0.006678808 0.03849366
0002f0 fe 1f a7 bd c0 e7 53 3d 2c 9b 06 bd 43 6c 6a bd
       -0.08160399 0.051734686 -0.032862827 -0.057232153
000300 1d 0a 40 bd 5e b8 83 3c 55 32 93 bc db cb 7c bd
       -0.046884645 0.016079124 -0.017968336 -0.06171785
000310 a9 4b 37 bd 50 0d 19 3d 9c a4 28 3c c5 4b 13 bd
       -0.04474989 0.03736621 0.010293152 -0.03596093
000320 ef 72 4f bd 18 6a db bc 47 3a 53 3d 4e ee cf bc
       -0.05064672 -0.026783988 0.05156925 -0.025382187
000330 fb aa d4 3c d9 02 b0 3c c8 25 c9 3b 39 74 12 3d
       0.025960436 0.021485733 0.006138537 0.03575537
000340 84 b8 b7 3c 06 d4 31 3d 97 24 d8 bc e8 b2 88 bd
       0.022426851 0.043415092 -0.026384635 -0.06674749
000350 ec b1 ea 3c 47 49 68 bd c8 52 87 bc 32 88 9c bd
       0.028649293 -0.056710508 -0.016518965 -0.07643165
000360 9e af bb 3b 3c db d5 bb e3 98 db 3c f7 f2 1b bd
       0.0057277223 -0.006526379 0.0268063 -0.038073506
000370 d4 d4 86 3c c5 73 c7 bc 82 bf ee bc 91 1b 43 bd
       0.016458906 -0.024347195 -0.029144052 -0.04763371
000380 15 08 23 3d a8 62 e3 bc c2 30 9e bc f5 1d b4 bd
       0.03980263 -0.027757004 -0.019310359 -0.08794776
000390 b5 3f 13 bd b0 88 1c 3d 47 31 92 bb 7f 64 7f 3d
       -0.035949428 0.038216293 -0.0044614407 0.0623517
0003a0 d6 ee 06 3d cb 48 3e 3d f0 6b 2b bd 2a 5b 36 bd
       0.032942615 0.04645614 -0.041850984 -0.044520535
0003b0 60 a0 db bc c3 ef 5e 3d b2 3f a6 3c 74 f5 18 bb
       -0.026809871 0.054427873 0.020294044 -0.002333966
0003c0 6e 08 4d 3d 00 8b 66 3c 2a d5 25 bd 00 35 eb bc
       0.050056867 0.014071226 -0.040486492 -0.028711796
0003d0 14 09 a7 3b 16 86 05 bd 7a 72 d6 3c 44 3f 2e 3d
       0.0050975177 -0.032598577 0.026177634 0.042540804
0003e0 c6 f4 3a 3d 89 66 36 bd f3 46 b3 3a e6 1e 59 bd
       0.04564359 -0.04453138 0.0013677761 -0.053007983
0003f0 dd 96 01 3d dd 4b 8e bb 1a 35 1d bc 16 9b 27 bd
       0.031638015 -0.0043425397 -0.00959518 -0.040919386
