inventory/ark_material.onnx (onnx, 539053 bytes, 8 tensors)

35 f4 [8, 3, 5, 5]
00000000: 4a6b c03e addc 5ebc 8dfc ab3e 1e71 a5be
00000010: ea03 24bf 1cc9 2fbf 67e4 303e c62f f5be
00000020: 1a1a 8abe 5bc8 d8bc f02e 233d dd22 223e
00000030: 79f0 51bf 01dc eb3e 970e 733e ba79 ddbe
00000040: 727c 3fbf f79e 613e 4c81 1abf 231b 3f3f
00000050: e81c 033f 91c0 42bc bedc fbbe 30d3 44be
00000060: 1c74 a8bd ee78 05be e7c4 da3e 9467 cdbe
00000070: 111f dabe 7a89 083f d6d6 863d c2f6 3b3e
00000080: 3c0e 243f 89c9 283f a4b7 08be 0bc2 273f
00000090: 4555 7e3e dbd5 263f f5be 3f3f be40 583e
000000a0: b421 7dbd 5a67 f93e 9df9 263e e8d1 103b
000000b0: bb55 073f 2117 213e 7122 a83e 5bf9 abbd
000000c0: dd8d 573f 430c 03bf 8283 f23d 4584 3bbe
000000d0: 0c11 aebe 3f6e a33e 806d 70bf 6105 253f
000000e0: f429 d338 27a7 9fbe cd0f 2bbf 5726 d6be
000000f0: 8bcb f2be add8 d5bd fab1 2ebe 05bd 0dbf
00000100: 47fe 57bf 0f84 98be a43d 1b3f 10b6 ff3d
00000110: bc93 1d3e 62cd f1be eaa8 9b3e 45c1 ca3e
00000120: d0ce 0d3f 7a56 7ebe b559 05bf 68f6 8fbd
00000130: 2130 cc3d 5fec e73e 9f30 943e 7286 c23c
00000140: 9954 213c 0da9 c53d b131 943e 0173 f93d
00000150: 9e3e 673e f33b 303e 4078 803e acaf 5f3c
00000160: 8691 a53c 1bb9 8f3d 6eeb 0cbe 4a07 303e
00000170: 8c68 4bbe c07b 7a3d 6d6c 8f3e 3720 96be
00000180: 4ef6 97be 7e7b 91bd 61db 23be 993d c2bd
00000190: e621 6d3e 4b71 72bd 8059 c3bd 1aa2 b0be
000001a0: 62c8 5e3d dde4 ba3d ab3d b5bc be85 1d3e
000001b0: 3600 1abe 0a01 323e e116 2dbe b5b8 163e
000001c0: ae6a c6bd 64f5 4b3e 0a2a 02bd e722 34bb
000001d0: 8c9b b6be af77 133e ad7e d5bd efb0 04bb
000001e0: 9d62 26bd ecc2 85be 59ff 6abe ca26 343c
000001f0: 2861 58bc 9579 7b3e b4c0 ef3d e8ca ed3d
00000200: 695f 833e 74d5 c03d 0bbf 04be 4d00 aa3d
00000210: 9bda 5a3e d5af e33e c481 0d3e 0bb5 26be
00000220: 4abd 553d f80e 943e 0919 cd3d ab20 31be
00000230: 3b77 0cbd 93c1 a5be a452 dcbd 2c5b 213e
00000240: f5ee c93e fd9a fb3d 5f75 213e 1891 2bbe
00000250: 194b d13e e22a 023f aaef 9cbb 1550 64be
00000260: 08e4 453d 170c 9cbd 74dc c8be 9c70 5a3e
00000270: cdba a33d 6492 98bd 01f9 453b 471e 533e
00000280: 9bd0 183e 973c 553c 1da5 113e 9021 ed3e
00000290: ef56 43be 2f2e dabe 3efe a53e c7f0 c9bd
000002a0: dc8a 5c3e 6720 443e 3967 ebbc 481f a23d
000002b0: 2ed7 593e 2bda ed3e dcd3 233f 91aa d63c
000002c0: 93e0 4bbe baca 4fbd 2a86 5a3e e8cb 6b3e
000002d0: d137 783d 5ad4 a5bb 4f32 963e 5f0b 29be
000002e0: 485e abbe 64ee 953d cb05 ad3e 3e73 353e
000002f0: c4a4 893e 1d61 7d3e 8292 693e b517 6d3e
00000300: 658c 843d 0ef2 18be de8c 0ebe 1c5b d53d
00000310: decd 88be 677b 483d 346e af3d 33b1 873e
00000320: 5d6d 7bbe 751b bd3e c08c 5b3e e545 c8be
00000330: e570 60be 1308 37be 452b ca3e 6082 8ebd
00000340: 6b07 64be 1bbc 4bbe b3c5 883e 4dee e23d
00000350: c2c6 3b3e ec44 49be f4fc aabe 464e 973e
00000360: 7cb7 5dbe 757b 873e 677d a63e 8f58 283d
00000370: 040f 0a3e a148 733e 7a23 7cbe d0dd e33b
00000380: 1548 bebe 356e 89be 68de efbe 7282 f2bd
00000390: 4e3e 05bf 1420 2d3f 0884 00bf 23d6 c7be
000003a0: 8e49 eebe 8ed5 02bf 2a4c 2bbe e589 9f3e
000003b0: 1f87 8bbe 6b33 18be 92e8 f7bd 4169 9b3e
000003c0: fb85 3b3f 4e55 14be d98b 8bbe 7d59 a4bc
000003d0: 2d82 8c3e 280d b93e 7a06 c13e 60ea 313f
000003e0: 1701 f23e f3ce 933e cbed 5dbf 302a 063e
000003f0: c0d3 5cbe a5ec 493f 39b2 6fbe 1e31 44be
0.37581855 -0.013602418 0.33591118 -0.32312864 -0.6406847 -0.68666244 0.17274629 -0.4788801
-0.2697304 -0.026462724 0.039839685 0.15833612 -0.8200756 0.46066287 0.23736034 -0.43256932
-0.74799263 0.22033297 -0.6035354 0.7465078 0.5121598 -0.011886732 -0.4919185 -0.19221187
-0.08225271 -0.13034412 0.4272835 -0.40118086 -0.42601827 0.5333477 0.065839455 0.1835585
0.6408422 0.6593252 -0.13351303 0.6553046 0.24837215 0.6517007 0.7490075 0.21118447
-0.06179972 0.48711663 0.16306157 0.002209777 0.5286519 0.15731479 0.32838777 -0.0839717
0.8420084 -0.51190585 0.118414894 -0.18312176 -0.3399738 0.3192005 -0.93917084 0.6446133
0.000100690784 -0.31182215 -0.66820985 -0.41826126 -0.47420916 -0.10441718 -0.1706008 -0.55366546
-0.8437237 -0.29788253 0.6064093 0.124858975 0.15388387 -0.47227007 0.3040231 0.39600578
0.55393696 -0.24837676 -0.5209001 -0.0702942 0.09970117 0.45297524 0.28943345 0.02374575
0.00984683 0.096513845 0.28944162 0.121801384 0.2258248 0.17210369 0.25091743 0.013652723
0.020210993 0.07017728 -0.13761684 0.1719028 -0.198641 0.061153173 0.2801241 -0.29321453
-0.29680103 -0.071036324 -0.16001655 -0.09484405 0.23157462 -0.059190076 -0.09538555 -0.34498674
0.05439032 0.091256835 -0.022124132 0.1538305 -0.15039143 0.17383209 -0.16903259 0.14718898
-0.09688316 0.19917828 -0.031778373 -0.0027486624 -0.35665548 0.14401124 -0.10424552 -0.0020247062
-0.04062139 -0.26125276 -0.2294897 0.010995576 -0.013206758 0.24558099 0.11706677 0.11610967
0.2565873 0.09415713 -0.12963502 0.083008386 0.21372454 0.44470087 0.13819033 -0.1628
0.052182473 0.2891767 0.10014541 -0.17297618 -0.034293395 -0.32374248 -0.1075795 0.15757436
0.39440122 0.12285421 0.1576743 -0.16754568 0.40877607 0.50846684 -0.0047893124 -0.22296174
0.04831317 -0.076194935 -0.39230692 0.2133202 0.07994614 -0.07449797 0.0030208232 0.20617019
0.14923327 0.013014934 0.14223142 0.4631467 -0.19076131 -0.4261336 0.32420534 -0.09860378
0.21537346 0.19152986 -0.028735744 0.07916123 0.21273491 0.4645551 0.63995147 0.02620438
-0.19909887 -0.050730444 0.21340242 0.23027003 0.060600106 -0.0050607147 0.29335257 -0.16508244
-0.33470368 0.0732086 0.33793482 0.17719743 0.2688352 0.24744077 0.22809795 0.23153575
0.06472091 -0.14936087 -0.13920924 0.10417768 -0.26719564 0.04894581 0.085659415 0.2650238
-0.24553438 0.3693501 0.2144041 -0.39115825 -0.21918066 -0.17874174 0.39486137 -0.06958461
-0.22268455 -0.19895975 0.26713333 0.110806085 0.18337539 -0.19655198 -0.33396113 0.29551905
-0.21652025 0.26461378 0.3251755 0.04110008 0.1348229 0.23758174 -0.24622908 0.0069539323
-0.3716437 -0.26841894 -0.4684937 -0.11841287 -0.52048194 0.6762707 -0.50201464 -0.3903056
-0.46540493 -0.5110711 -0.16728273 0.31159893 -0.27251527 -0.14863364 -0.12104906 0.3035374
0.7325131 -0.14485666 -0.27255133 -0.020062203 0.27443066 0.3614285 0.37700254 0.6949825
0.47266456 0.28868827 -0.8669097 0.13102031 -0.21565151 0.78876716 -0.2340783 -0.19159362

36 f4 [8]
00000000: 3670 093e 40f9 c5bf 125c b9bf d0b4 663f
00000010: f58a fc3e 9399 723e 9100 843f 8a5a fd3f
0.13421711 -1.546669 -1.4481223 0.9011965 0.49324766 0.23691396 1.0312673 1.9793255

38 f4 [16, 8, 3, 3]
00000000: bd5b 863e 4e34 21bf 72e3 84bf 0654 d73e
00000010: 956a 9f3f 2278 0dbe 5812 91bf b237 65be
00000020: 5331 aa3f f3fe 1c3f d486 91bf 41d5 153e
00000030: f301 41bf 53f6 813f 38a6 243f cb41 273d
00000040: 02c8 5a3e 5182 33bf f005 ba3d 7416 383f
00000050: f42d 79bc 7fef 85be fe15 17bf fae0 3e3f
00000060: f0f4 b4be 977e d7be bcac 81be 715b 093e
00000070: 6aea b73f 4c8e 263f 3661 e43c 58e9 9d3f
00000080: 8d16 98bf e9cd 84bc f786 023e 288a d93f
00000090: b5f6 d03f 51b0 893f 5a4c c8be 7cd6 173f
000000a0: 14b8 ec3e bec9 0f3f 8b2c 1fbf 9d61 84be
000000b0: 223d 04c0 2fae 3cbf eaf7 3c3f e26d a5bf
000000c0: 705b 6e3f e81b 8ebf 471a 57be cf8b 673f
000000d0: a8c1 8c3e 300f f23e 1033 543f 4034 4cbe
000000e0: f261 a2bd 25c5 ca3f 0b88 3b3f e9b5 3e3f
000000f0: 9cba d4bf 23dc 773e 1c74 ce3d 31c3 00be
00000100: caae 1dbf eeef babf b439 d5be f2ba 86bf
00000110: e5b3 7ebf c685 03bf c1fe 003f ad66 d13f
00000120: c68c 37be 73a2 44bf c564 4bbf 5541 19bf
00000130: c7aa 3abe e3d3 44bf add4 403e 52ce c0be
00000140: 2533 b63e 4057 54bd f2a6 a8be 69ef 323e
00000150: d756 433f b7b1 80be 3d28 a3bf 153d bfbe
00000160: 6ee2 57bf 267c cdbe c08d bebd ccf7 e83e
00000170: 7643 963c 2475 3d3f 9357 1dbf d1df 69be
00000180: b94e d4be 4570 0a3e 3762 d8be 5579 1e3f
00000190: 2cf5 f83e b467 06bf 5594 02be c7c7 523d
000001a0: de3d e9be 8bc4 a73d 1c58 8ebf 5e1a e1bc
000001b0: db85 75bf 2cb8 363f 9429 20be 687a 2fbd
000001c0: a60d cebe ccf3 3abf c8c8 12bf 8346 0f3e
000001d0: 7a03 18bc ed7f a03e e2ee 72be 5646 df3e
000001e0: 3502 efbe 086c bc3e 8377 74bf 9add 6abf
000001f0: ca2a 51bf 7eaa 30be 5422 0f3e e216 03bf
00000200: 3f98 e0be e902 503f 3184 48bf 40f4 d1bd
00000210: 7d73 23bf 5e08 80bf baa4 52bf 7d2a 1d3f
00000220: 8ad2 4d3f 85d2 06bf 376b 9a3e 75c1 873c
00000230: f394 05bf 1941 003e 78ea 20bf 32ac aabe
00000240: d6ee b13f c639 53bf 6efa b53b 4e83 c53e
00000250: 8fa4 9cbf 2d79 f7be 29aa d7be ee80 83bd
00000260: 646a 133e ab7f 243f 8506 523f 971f a1bf
00000270: 61e6 92bf c17c 373f 52a2 7dbf 2a33 76bf
00000280: 15f3 95bf 77d5 aabe ab03 213f 3710 213f
00000290: 51e4 0bbf 4781 a33e e2ad 16bf 8311 ff3e
000002a0: dda3 cabd 8ef1 463f 379d 8c3f d016 1e3d
000002b0: 905b 5ebd 9e03 e33d 7a87 4fbe 68e6 b23f
000002c0: 3a6b 95be bc7b 72be 420e aa3f 80b5 babd
000002d0: 1ad4 813f 5b77 0c3f 3f9e 1b3e 9c93 cb3d
000002e0: 3d7b 293f 3143 093f 5fa5 443f 4f88 73bf
000002f0: 4ab8 b3bf cb31 bebe 10bf 783f 48b1 7dbe
00000300: 104b 6b3f da0a bb3f 202b edbe 6314 32bf
00000310: e346 e4be 24d4 10c0 3057 0a3f 522c 53bf
00000320: c1cb 03be 4f77 5d3f 11d4 3c3e f3ea eabe
00000330: 84d5 9abc 05e5 e1bd f8e8 0dbf 9746 babe
00000340: 6842 223f 33be 50be b750 da3e 5037 18bf
00000350: 3088 2b3e f363 debe b017 4dbf f96c 07bf
00000360: 755b 523f 2d6c bf3f 8b18 c4bd ebcb 0cbf
00000370: 9800 91bf e863 dd3e 3c68 a6be 0fca 983f
00000380: 6ee2 b23e 5bd9 c8be 8a68 273f dffb 31bf
00000390: 7037 05bf fd87 133f a53e 85bf 2749 ee3e
000003a0: 03db 543f a5d6 f23c 9e15 253f 8057 d1bc
000003b0: c516 d63d eb05 633f b91f 953f cecd 20bf
000003c0: 8cce 2dbf 20e5 4c3e 74b7 fabf 90ee 0f3f
000003d0: 5ead 0640 2b31 c2bf 2f3b c93d 1fb5 3a3f
000003e0: 5f59 1dbe 0976 2a3e e784 f9bf 7139 60bf
000003f0: f4b7 7ebf 5f51 a0be 8cd0 633e 7a69 873f
0.26241866 -0.62970436 -1.0381911 0.42056292 1.2454401 -0.13815358 -1.1333723 -0.22384527
1.3296303 0.6132652 -1.1369271 0.14632131 -0.753936 1.0153297 0.6431613 0.04083423
0.2136536 -0.7012072 0.09083164 0.7190926 -0.01520871 -0.26159284 -0.5901793 0.74562037
-0.35343122 -0.42088768 -0.25327098 0.13413788 1.4368412 0.6506088 0.027878385 1.2336836
-1.1881882 -0.016211467 0.12746798 1.6995287 1.6325289 1.0756932 -0.39120752 0.5931165
0.4623419 0.5616721 -0.6217734 -0.25855723 -2.0662313 -0.73703283 0.73815787 -1.2924159
0.9310827 -1.1102266 -0.21006118 0.90447706 0.27491498 0.47277212 0.82890415 -0.19941807
-0.07928838 1.5841414 0.7325446 0.7449632 -1.6619449 0.24205069 0.1008074 -0.1257446
-0.6159483 -1.4604471 -0.41645586 -1.0525801 -0.9949325 -0.51376 0.50388724 1.6359459
-0.17924795 -0.7681038 -0.7945064 -0.59865314 -0.18229209 -0.76885813 0.1883113 -0.3765741
0.35585895 -0.05184102 -0.3293987 0.1747414 0.7630438 -0.25135586 -1.2746655 -0.3735129
-0.8432988 -0.4013378 -0.093043804 0.45501554 0.018342715 0.7400687 -0.6146175 -0.22839285
-0.4146631 0.1351939 -0.42262432 0.6190389 0.4862455 -0.5250199 -0.12751897 0.051460054
-0.45555013 0.081917845 -1.1120639 -0.027478393 -0.9590737 0.71374774 -0.15640861 -0.042841345
-0.40244788 -0.73028255 -0.5733762 0.13991742 -0.009278173 0.313476 -0.23723939 0.4360835
-0.4668137 0.3680117 -0.9549486 -0.9174439 -0.81705916 -0.17252538 0.13977939 -0.5120679
-0.43866155 0.8125444 -0.7832671 -0.10251665 -0.63848096 -1.0002553 -0.822826 0.61392957
0.8039938 -0.5266498 0.30159923 0.01657174 -0.52180403 0.12524833 -0.6285777 -0.333345
1.3901012 -0.8251003 0.005553535 0.3857674 -1.2237719 -0.48334637 -0.4212201 -0.06421076
0.14396054 0.64257306 0.820412 -1.2587765 -1.1476556 0.71674734 -0.99075806 -0.9617182
-1.1714808 -0.33365986 0.6289622 0.62915367 -0.5464526 0.31934568 -0.58859074 0.49818048
-0.09894536 0.77712333 1.0985478 0.038595974 -0.05428654 0.11084674 -0.20266524 1.3976564
-0.2918337 -0.23680013 1.3285601 -0.0911665 1.0142853 0.5486962 0.15197085 0.09940264
0.6620367 0.5361815 0.76814836 -0.95129865 -1.4040616 -0.37147364 0.9716654 -0.24774659
0.9191141 1.4612687 -0.46321964 -0.6956236 -0.44585332 -2.262948 0.5403929 -0.824895
-0.12870695 0.86510175 0.18440272 -0.45882377 -0.01890064 -0.1103001 -0.5543361 -0.3638198
0.6338258 -0.20385055 0.42639706 -0.594594 0.1675117 -0.4343563 -0.8011427 -0.52900654
0.821708 1.4954888 -0.09574994 -0.54998654 -1.1328306 0.43240285 -0.325014 1.1936663
0.34938377 -0.3922833 0.6539389 -0.6952495 -0.52037716 0.57629377 -1.0409743 0.46540186
0.83146685 0.029643366 0.6448611 -0.025554419 0.10453562 0.88680905 1.1650306 -0.62814033
-0.6789329 0.20009279 -1.9587235 0.5622339 2.1043315 -1.5171255 0.098257415 0.7293262
-0.15366124 0.1664659 -1.9493684 -0.8758765 -0.9949944 -0.3131208 0.22247523 1.0579064

39 f4 [16]
00000000: 3b85 8abf 0426 af40 adc8 933f b62b 2bbf
00000010: 194e a63f 9e61 5cbf ca3f 8d3f e276 883e
00000020: b3ed ce3f fbfd 2ec0 3361 8540 741a 18c0
00000030: ea5f 1c40 51bf e13f 0059 00be 2f7c 863f
-1.0821909 5.4733906 1.1545616 -0.6686357 1.2992584 -0.8608645 1.1035092 0.266532
1.616629 -2.7342517 4.168115 -2.3766146 2.4433541 1.763651 -0.12533951 1.0506648

fc.0.bias f4 [446]
00000000: 37ba 6c3d 9740 313d c6cc 3bbc 0f99 25bd
00000010: 934a e03c 9844 2dbd 95a1 31bd 71c7 a03d
00000020: 5520 a93d 07d8 893d e049 21bc 9015 bcbc
00000030: a646 4f3d e279 b03d 43e6 733d 2f0e 9fbd
00000040: 59dc c73b 4d1a 27bc 0fb0 9e3c 4b18 86bc
00000050: eaf2 883c e13f 273d 0ccf 23bd d6a8 923d
00000060: 4b56 e2bc 8b65 48bd 32ce 1e3d 9da0 d2bc
00000070: 464d e33c 5f28 693c c07f df3d 049e 1d3e
00000080: b85d 273d 1d3a 263d 9fe5 f43d 2efe 983d
00000090: 04b1 fb3d 490e 893d 4bc7 053e 6513 c53c
000000a0: c317 1ebd b136 b4bc e5e1 923d 5c38 dc3b
000000b0: c150 fa3d 8d7d a2bd c5ca f5bc 7306 76bd
000000c0: 7fd3 a73d 1038 fc3d a8b1 023d 9fad f73d
000000d0: 9080 f6bc 96a8 d53c 88d5 af3d a789 063e
000000e0: e9fc c83c ae04 813c 1a26 b53d 89a4 363d
000000f0: d9a8 19bd e724 f13d 9dc2 16bc a7db dd3d
00000100: 52ca 2cbd 426a b3bc e229 a9bc c773 c03c
00000110: 0c51 e53d b680 9a3d 67e5 7b3a e7ba 2cbd
00000120: fdc5 a53d 63cc f1bc c8ba 70bc d053 27b9
00000130: c68e 27bd 2138 25bc 4187 1bbd 257f a43d
00000140: bcc6 bf3d 53e6 15bd 5e66 a3bc cbb5 84bc
00000150: b023 d53c 4bbe 613d 814e 573d eb06 eb3d
00000160: 725b 85bd 208d 703d df13 d43d 5244 613d
00000170: c255 2fbd b2cf 013d c530 b33d de8f 003e
00000180: 4be3 493d 6230 e93d bddb cf3d 675e 8cbd
00000190: c3cf c93d 9258 1d3e 0655 ab3d 9fc2 d53d
000001a0: 1849 a63d eb6a 7c3d dcd6 b53d 0180 d83d
000001b0: a4a3 ca3c b72c e43d 2661 40bd 89c1 5c3c
000001c0: c53f 37bc b329 b23d 2723 5cbc 63b0 b63c
000001d0: c1b1 f63d 1b55 9b3d ae27 c53d d12a 2f3d
000001e0: c4cd 253d 7a0f 483d 406c 3bba cbfa df3d
000001f0: 1c03 39bd d250 db3d c3fd 5b3d 6c1d 113e
00000200: 048c ce3d 45d1 c33b 9956 fabc f563 e63d
00000210: cea5 6ebd 0303 183d 6408 fabc 36e8 ad3d
00000220: 6918 a93d cce4 163d 4b3f 973c defc 19bd
00000230: ba0c c33d 3af2 833d 5660 e03d af92 483d
00000240: f11f bc3d 73be 05bd fb39 65bd 9ba8 62bb
00000250: 0820 5abd fb18 543b 347b d83d 9c38 a23d
00000260: eaed 9fbc 1765 71bd 6666 fbbc 4eba ed3d
00000270: 8e75 ec3d f128 eb3d 9662 3c3c 8957 103d
00000280: 8a08 1a3e 739b 533d 0c07 e73c 0997 a4bc
00000290: 587a dc3d 3179 a43d 2022 e03d 421b 73bb
000002a0: 7b4d 803d 8ab2 8c3d db21 5e3c 3a2c 6cbd
000002b0: 65ba f2bc 0cf5 ddbc 9caa 48ba 2171 a63d
000002c0: 9df4 0e3e 1345 7cbd f1f1 3c3d bd9c dc3d
000002d0: 963b 853d b157 adbd 32a8 113d 9d32 11bc
000002e0: 233c c93d d35d b6bc fb11 63ba c92b 163d
000002f0: dc74 7f3d 53fc 163e 0285 15bc 0aec 7b3c
00000300: 182b 2c3d 64e1 1d3d 2632 e63d c606 c73c
00000310: bd39 123d 9f9d 2d3d f617 9a3d 9101 523b
00000320: 33bd 093d b63a 293a d41a 493d b68d 83bd
00000330: 3277 71bd fda7 82bc 4486 653d 125a e93d
00000340: c2c8 093d d15d 73bb 74ec a13c dd8c c53d
00000350: b0b8 d9bc 2d1a ad3c d22b 8d3d fa3b 14bd
00000360: 0c69 cb3c e525 dc3d 5bea 0d3e 00fa 22b9
00000370: 153c 313d 2f1e 903d dd54 ca3c 4859 163e
00000380: 59cd ee3d 7527 2dbd 70a5 44bd 9b78 cdbc
00000390: c560 5ebc fbdb a73d b146 e3bc d568 933d
000003a0: e5ca 5c3d 46fe 863d 6cf9 063d 9bb1 a83d
000003b0: f4e9 693d 02d4 2b3c 4bd5 f23c 95f6 fbbb
000003c0: 074f 2a3c 04d1 e63d e9d5 d739 6213 3bbc
000003d0: ea20 b53c e514 063e 2b90 083d b848 d8bc
000003e0: 2a18 d03d 270f 283d 6bb0 663d c53e dc3d
000003f0: 056d 7d3d 8da7 b6ba c284 d53d 2f59 4bbc
0.057794776 0.04327449 -0.011462396 -0.04042917 0.02737931 -0.042301744 -0.043366987 0.078505404
0.0825812 0.06730657 -0.009844273 -0.0229595 0.050604485 0.08616997 0.059545767 -0.07766377
0.0060992655 -0.010199142 0.01937106 -0.016369006 0.016717393 0.040832404 -0.039992377 0.07161109
-0.027629038 -0.048924964 0.038770862 -0.025711352 0.027746808 0.014230817 0.10913038 0.1539231
0.04086086 0.040582765 0.11957859 0.07470356 0.122896224 0.06692178 0.13064305 0.0240571
-0.03859688 -0.021998735 0.07171992 0.0067205857 0.12222434 -0.07934103 -0.030003915 -0.060064744
0.081946366 0.123153806 0.031907707 0.120936625 -0.0300906 0.026081365 0.0858565 0.13138448
0.02453466 0.015749302 0.08845158 0.044590507 -0.03751454 0.11774617 -0.009201673 0.10832911
-0.042185135 -0.021901254 -0.020649854 0.023492707 0.11197099 0.07544081 0.0009609074 -0.04217043
0.08094404 -0.029516404 -0.01469297 -0.00015957584 -0.040907644 -0.010084183 -0.037970785 0.080320634
0.093640774 -0.036596607 -0.019946273 -0.016199967 0.026017994 0.05511312 0.0525651 0.11475929
-0.065115824 0.058728337 0.103553526 0.054996796 -0.042806394 0.031692214 0.087495364 0.12554881
0.04928903 0.113861814 0.101493336 -0.06853943 0.098540805 0.15365818 0.08365826 0.10437512
0.0811941 0.061625402 0.08878872 0.1057129 0.024736233 0.11141341 -0.046967648 0.013473877
-0.011184637 0.0869936 -0.013436115 0.022300905 0.120456226 0.07584592 0.09626709 0.042765442
0.040479437 0.048842885 -0.00071496144 0.10936507 -0.04516898 0.107087746 0.053708803 0.1417138
0.100852996 0.0059758746 -0.030558871 0.11249534 -0.058263592 0.037112247 -0.03052158 0.08491556
0.08256609 0.03683929 0.018462798 -0.03759467 0.09523912 0.064426854 0.109558746 0.048968013
0.0918578 -0.03265233 -0.055963498 -0.003458536 -0.053253204 0.0032363522 0.10570374 0.07920954
-0.019522626 -0.058934297 -0.030688476 0.116078004 0.11545859 0.11482418 0.011498114 0.03523973
0.1504232 0.05166192 0.028201602 -0.02009155 0.10765523 0.08030928 0.10944009 -0.0037095104
0.06264778 0.06869991 0.013557876 -0.057659365 -0.029629895 -0.027094387 -0.00076548173 0.081270464
0.139605 -0.06158931 0.04612917 0.10772083 0.06505506 -0.084639914 0.035560794 -0.008862165
0.09825923 -0.022261536 -0.0008662042 0.03666285 0.062367305 0.14744692 -0.00912595 0.0153761
0.042033285 0.038545027 0.11240034 0.024295222 0.035699595 0.042386647 0.075241014 0.003204439
0.0336277 0.0006455587 0.04909785 -0.064235136 -0.058951564 -0.015949244 0.05603625 0.11394133
0.033638723 -0.0037134776 0.01976607 0.09646008 -0.026577324 0.021130646 0.06893124 -0.03619001
0.024830364 0.10749415 0.13858931 -0.00015542656 0.04327019 0.07037007 0.02469867 0.14682496
0.11660261 -0.042273957 -0.048009336 -0.025081923 -0.013572876 0.08196255 -0.02774367 0.071977295
0.053904433 0.065914676 0.03295271 0.082370006 0.05710788 0.010487558 0.029642722 -0.007689307
0.010394818 0.11270335 0.0004116737 -0.011418195 0.022110421 0.13093908 0.033340614 -0.026401863
0.10160859 0.041030075 0.05632059 0.1075416 0.061871547 -0.0013935432 0.10425712 -0.0124114

fc.0.weight f4 [446, 64]
00000000: 4ee8 ec3c e6b1 c0bb bfc6 903d d128 5d3e
00000010: 2a6f a93d 011f 203e 012e 243e 2867 adbd
00000020: f818 0bbd 8f06 593d c467 88bd 25e4 933d
00000030: f3fd c5bd 2c85 54bd 67bf 1abd b562 dcbc
00000040: 0f88 fdbc 36a6 1fbd 0b10 47be 8146 f3bd
00000050: 419f a93d 968b 303e 6ae1 963d 1163 3e3e
00000060: 128d a23d f040 373e 1c30 80bc 8b5f cf3d
00000070: 5e25 2f3d 5e96 123e c807 a53d ec87 efbd
00000080: 63a8 bf3c 3ec7 3abe 478e f9bc 813d be3d
00000090: 74bd 0cbd db66 d0bd 3f3d 1cbe 418c c1bc
000000a0: 5a4c 503e ab08 613e 2538 023d 33d9 473e
000000b0: 9e48 18bd 434a f7bd 1168 48bd 8dce 42bd
000000c0: d1e5 84bc 9406 873d 7403 18be a72c 55bd
000000d0: fdd2 b5bc b313 42bd a1c0 023d bbe6 80bc
000000e0: 733f 8abd 6d7c 5c3d 6bcc fe3d a19f ee3d
000000f0: e7cb 313d cbe7 e7bc 1356 85bd 2250 3cbe
00000100: 83d9 f7bc 0bb1 60bc e2cb d03c 27fc 0c3e
00000110: 3422 353e 399d 95bb 6066 a93b 96b5 7abd
00000120: 20d5 35bd cc39 363d 4500 14bd 10b3 8fbd
00000130: f7b0 9fbc 7304 d8bd ffbb a1bd b7ea 09be
00000140: df0a 2d3d c665 ad3d c924 ecbd 35f7 fa3c
00000150: b918 d1bc 5ea2 9bbd ce13 65bd d86f 9d3d
00000160: d176 e63d 0898 81bd 92c5 c83d 0b1f 4cbc
00000170: 45c9 31bc d93e db3d 8c5d bb3d 2345 423e
00000180: 4fa9 1dbd c64c b13d da88 c93d cb5d aabc
00000190: 94c7 debc cc8a 7e3c 2312 0d3d 6767 213d
000001a0: 000b a4bc 8bd5 95bd 87f1 723c ac25 2abe
000001b0: 160e 0dbd 863a ce3d 5275 7c3d e7f5 bc3d
000001c0: b145 d7bd 8b14 ba3d 2a32 23be a3ce afbb
000001d0: 3b50 2f3e d017 c03d 8d57 b63d 0a10 303e
000001e0: 477a 343e 48f9 2b3e 402f f63d 479c 103e
000001f0: 579f 033d c3da 67bd d0d7 0f3d b23c 1bbd
00000200: b5b2 243d c783 f5bd adcb 473d 968c 2e3d
00000210: 4d0b 853d e0f9 c63d 4adf 523d ce5b 913d
00000220: f966 0f3d 3a12 1fbd 6601 2fbe 93d8 723e
00000230: 6a8b e03c 09fa c13d dde7 ccbc f1a7 d13c
00000240: 01c2 023e d777 173e a64b 2ebe eac3 01be
00000250: cc0a c13d fdb3 003e d5e6 a93d 61cc 183d
00000260: 1a83 f2bd 1e11 393e f467 98bc 58c4 8bbd
00000270: 0fed 84bd e371 a73b 3c34 78bd 36df d43d
00000280: 085a 923d 7e60 2abd cde3 c6bd 3f95 fdbd
00000290: a889 3a3b a7e1 373d 675e 03bd ed54 fbbc
000002a0: bbe5 5ebd 791a d1bd 00df 183e 1289 953c
000002b0: f263 95bc d758 153e 3e4d a8bc 7c49 2f3d
000002c0: 46b0 853c 4e24 103e b817 10be 6fa6 d33d
000002d0: 3ed0 a9bd 5c83 323d f8e5 af3d 7fe6 9c3d
000002e0: 72e6 e6bd ae37 423d 28e6 653e 1299 d1bc
000002f0: 545e 64bd 0913 d43c 9cb7 043e 00aa c33d
00000300: 1164 febc e800 efbd dd9a c23d 9c6a a73d
00000310: 18ea b9ba c494 463d e9fa 213d 4b22 eebd
00000320: 5138 02bd c94f 8d3c 2baa b63d 424f c53d
00000330: e2a0 8e3d c7ef f53d 8d74 263c 79e5 4cbd
00000340: 1d71 dd3b b19a 263e da28 8f3d 017e 6ebd
00000350: 1742 ab3c a8d5 96bd 734f 8a3d 408f 323e
00000360: 8171 f7bc 437e 543e 01cc aebc 0b73 8fbc
00000370: 4250 a7bc 5f07 073e 5594 0fbe bfe2 74bd
00000380: 3c7a 2dbd c90e ab3d aa6a ff3c 993c ccbb
00000390: 414e bf3d 63e4 f93c a34d f13d 9377 0a3e
000003a0: e7b3 82bd b1bd 11be d0d4 9a3d a074 9b3d
000003b0: 3a87 d63d c435 30bc 8073 cbba 11c3 5e3d
000003c0: 8eba ed3d 8b1b 3ebb bbb5 50bd d53f 1a3e
000003d0: c5b3 49bd 4949 4d3e d84e 5fbd 8b6f e33c
000003e0: 383b adbd db6b 18bd 88c8 9e3d 649f 7c3d
000003f0: 797d 9a3d 78f5 8bbc 201e 57bd 519e 3abe
0.028919365 -0.005880582 0.07069158 0.21597601 0.08273156 0.15636827 0.16033174 -0.08466941
-0.03395936 0.05298477 -0.06660417 0.072212495 -0.096675776 -0.051884815 -0.03778019 -0.026902536
-0.030948667 -0.03897687 -0.19439714 -0.11878682 0.082823284 0.17240748 0.07367213 0.18592478
0.07937063 0.17895865 -0.01564794 0.10125645 0.042760246 0.14315173 0.08058125 -0.11695847
0.023395723 -0.18240067 -0.030463351 0.09289075 -0.034360364 -0.10175868 -0.15257739 -0.023626449
0.20341626 0.21975963 0.031791825 0.19516449 -0.03717863 -0.12074711 -0.04892737 -0.047560263
-0.016222866 0.065930516 -0.14845067 -0.052044537 -0.022195334 -0.047382068 0.031921986 -0.01573502
-0.06750383 0.0538296 0.124413334 0.116515405 0.043407347 -0.02830877 -0.06510558 -0.18389943
-0.030255085 -0.013714085 0.025487844 0.13768063 0.17688829 -0.0045658615 0.0051696748 -0.06120833
-0.044392705 0.044488713 -0.03613307 -0.07016575 -0.019493563 -0.105477236 -0.078971855 -0.13468443
0.042246696 0.08466677 -0.11530454 0.030635456 -0.025524484 -0.075993285 -0.05592709 0.07687348
0.11253131 -0.06327826 0.098033085 -0.012458573 -0.010851209 0.107053466 0.09148702 0.18971686
-0.038491543 0.086572215 0.098405555 -0.020796677 -0.027194776 0.015536021 0.034441125 0.039405253
-0.020024776 -0.07316121 0.014828092 -0.16615933 -0.03443726 0.10069756 0.061635323 0.0922659
-0.105113395 0.090859495 -0.15937105 -0.005365209 0.17120449 0.09379542 0.08903418 0.17193618
0.1762477 0.16794312 0.12020731 0.14122115 0.03213438 -0.05660511 0.035117924 -0.03789968
0.04020949 -0.11988025 0.048778225 0.042614542 0.06496296 0.097156286 0.051482476 0.070975885
0.03501031 -0.03883574 -0.17090377 0.23715429 0.027410228 0.094715185 -0.025012905 0.025592776
0.12769319 0.14791809 -0.17021045 -0.12672392 0.094258875 0.1256866 0.08295981 0.037304286
-0.11841412 0.18072936 -0.018604256 -0.06824559 -0.06490528 0.005110012 -0.06059669 0.103941366
0.07146078 -0.04159593 -0.09711418 -0.12381982 0.0028463397 0.044892933 -0.03207245 -0.030680144
-0.054418307 -0.102101274 0.14928818 0.018253837 -0.018236134 0.14584671 -0.020544644 0.04279469
0.016319405 0.14076349 -0.14071548 0.10334479 -0.08291672 0.043582305 0.08588785 0.07661151
-0.11274423 0.04741638 0.22451079 -0.025585685 -0.05575402 0.025887983 0.12960666 0.09553909
-0.031053575 -0.11670095 0.09502194 0.08174631 -0.0014184145 0.048481718 0.039545927 -0.116276346
-0.03179199 0.017249959 0.08919176 0.09634258 0.0696428 0.120086245 0.010159624 -0.05002353
0.006757869 0.16269948 0.06990214 -0.058225635 0.020905538 -0.073649704 0.06753435 0.17437458
-0.03020549 0.2075129 -0.021337511 -0.017510911 -0.020424012 0.13186406 -0.14021428 -0.059786554
-0.0423529 0.083524294 0.031178791 -0.0062328097 0.093410976 0.030504411 0.11782386 0.13522176
-0.0638197 -0.14232518 0.07560122 0.07590604 0.10475011 -0.010755006 -0.0015522093 0.05438525
0.11607848 -0.0029008116 -0.05095456 0.15063412 -0.049243707 0.20047487 -0.05451855 0.027763149
-0.08458561 -0.037212234 0.07753092 0.061675444 0.07543463 -0.017084822 -0.052518964 -0.18224455

fc.3.bias f4 [223]
00000000: 928b 92bb 941d eebb 5f2d 2e3b 1c0d c6ba
00000010: 32ca 1d3d 9f55 1ebd f2e7 42bc ebde d43b
00000020: 44fe 0abd d98f 2abd a3fa 18bd 47a5 20bd
00000030: b147 84bc 6e5d 953c 828f 363c 68af 27bc
00000040: 9061 60bc 8bb4 e439 a702 323c 4c76 07bb
00000050: f827 1cbc bd40 0b3c 9392 3ebc 6824 71bb
00000060: 4659 a83c 738a 553c d749 9b3c 81b5 fabb
00000070: 2256 59bb 29ff 9d3c af03 263d 0e02 01bd
00000080: 855c 9fbb ba05 0dbb 2ee1 86bc 397a 64bc
00000090: 2199 09bd 6945 473c 0708 0b3c 0bff cf3c
000000a0: 33fb 8bbb 287d 87ba d40b 8dbd 034e ebbc
000000b0: 993a 073c 58a8 aabb 0977 e63c dad6 e8bc
000000c0: 6759 013c 84a0 ecbc adcd 043d 90dd c6bc
000000d0: 1353 a3bb 43c4 ba3b e913 c4bc 56aa 873d
000000e0: 1139 09bd a94e e6bc c91d 43bc 11da 443d
000000f0: 7f5d 783c b1fb 2ebc 492e 133d 61ea c63c
00000100: 9739 18bd 82d6 50bd 9956 d7bc a5e9 ce3b
00000110: 64f2 0cbc f8c8 69bc e7f5 3fbd ceec 16bd
00000120: 75b2 a7bc a23d 84bc 335d 30bd 41f8 a33a
00000130: 6c13 47bd 22f1 97bd 341a cebb a01e 0f3c
00000140: c2bf 6fbc 4131 5cbc 4203 9a3a cb64 bebb
00000150: 9a5a f4bc 8d49 e6bc 3e1a 87bb 6d54 993d
00000160: 3fb9 5b3c c214 f9bc 40f9 373d 9294 dcbc
00000170: d0a9 dbbc 6f13 83bd c761 a4bb fd99 62bd
00000180: 88ee e53c d327 04bc ff94 e1bc 9a39 18bb
00000190: 4e24 35bd 3f50 debc 86d9 babc 984c e53b
000001a0: 443f 29bc 3856 edba 58ef cabc ad46 d1bc
000001b0: 59c6 68bc e85e eebc 9aee 2e3b b597 20bc
000001c0: 2abe ecba 2d12 943c 6079 903c 9ae1 2dbc
000001d0: b087 e4bc 5ccd fdbc 4e94 ccbc e74e a6bc
000001e0: cd03 243d 56a4 c23c 8827 16bd c14e ee3c
000001f0: 6a76 9fbc 2777 1ebd 16bd 4ebd 7ca3 a2bc
00000200: a8bd a63c dd78 1c3d 1423 79bb de29 dfbb
00000210: 8bf8 e33c b502 ca3b 0b93 6abc b3b7 973c
00000220: 2db4 81bc 7243 eebc 5aeb 9cbc 7cfb 973c
00000230: 89c8 ef3c ac20 ab3b 87db 81bc 0834 39bd
00000240: b911 17bd ef97 3c3d 315a b03c 8d14 72bb
00000250: d6d7 1ebc 4a57 c93c f0d9 4ebb 3a18 133d
00000260: e5f1 32bd a578 84bd 0659 59bc 8b38 1ebc
00000270: 8436 4f3b 3272 a6bb 2c07 25bc 223c 233c
00000280: 555e 1a3d ca08 75bc f8c9 be3c 77b4 c6bb
00000290: 618e 163d 12ad a03c 918d 443c 2e18 b8bc
000002a0: b68a 353c d510 94bc 0f77 db3c e19d aa3c
000002b0: 25f8 53bc 23bd 153d 6edc a43c 4f36 2b3c
000002c0: 11bd 7dbb 9885 c43c e701 1ebc 31dc 18bc
000002d0: 53f3 f93a 60ae 0ebd aefc e2bc 642c e5bc
000002e0: eacd 233c 23bb 13bc e70e 4dbd d126 013d
000002f0: 6a4d 49bb 38b9 acbb 6ba3 1dbb 575e a2bc
00000300: 4311 2f3d e02c 033e 7515 883c f858 823c
00000310: 9816 d1bb f567 06bd ed6b 61bb d71d 923c
00000320: 4806 0f3c 4aa2 963b df5c 9dbc 50c9 cfbc
00000330: f061 0e3d 4e6f 413c bfa2 0fbd eedf abbc
00000340: 3288 2d3d 8f30 f1bb 4202 353c 5075 0d3d
00000350: fa25 7abc e56d 83bd 6c4e 083d 5bcc c63b
00000360: abd4 52bd 4b60 1abd fc24 c3bc 33c0 31bd
00000370: 834f 83bd d7a1 acbc ec35 b13c
-0.0044722045 -0.0072667096 0.0026577336 -0.0015110108 0.038522907 -0.038655873 -0.01189612 0.0064963005
-0.033933893 -0.04164109 -0.0373484 -0.03922012 -0.016147466 0.018233027 0.011142613 -0.010234691
-0.013695136 0.00043622064 0.01086489 -0.0020669876 -0.009531014 0.0084993215 -0.011631626 -0.0036795381
0.020550381 0.013033497 0.018956108 -0.0076510315 -0.0033162911 0.019286709 0.040530857 -0.0314961
-0.004863324 -0.0021518306 -0.016464796 -0.013945156 -0.0335933 0.012162545 0.008485801 0.025390169
-0.0042718886 -0.0010336982 -0.06887022 -0.028723722 0.008253717 -0.0052080564 0.028132932 -0.028422762
0.00789485 -0.028885134 0.03242271 -0.024275571 -0.0049842685 0.0056996658 -0.023935275 0.06624286
-0.03350169 -0.02811368 -0.011908957 0.048059527 0.01515901 -0.010680125 0.035932813 0.024281682
-0.037164297 -0.05098582 -0.02628641 0.0063144737 -0.008602712 -0.014269106 -0.04686537 -0.03684693
-0.020470837 -0.01614267 -0.04305763 0.0012509899 -0.048602507 -0.07419039 -0.0062897447 0.008735329
-0.014633121 -0.013439477 0.0011750238 -0.0058103553 -0.029828358 -0.028111244 -0.0041230014 0.07486806
0.013410865 -0.030405406 0.044915438 -0.026926313 -0.026814371 -0.06400191 -0.005016539 -0.055322636
0.028067842 -0.008066135 -0.027536867 -0.0023227693 -0.044224076 -0.027137874 -0.022808801 0.006997656
-0.010330025 -0.001810736 -0.024772331 -0.025546396 -0.014207446 -0.02909799 0.002669251 -0.009801795
-0.0018062044 0.018075073 0.017636001 -0.01061287 -0.027896732 -0.030981712 -0.024973061 -0.020301295
0.040042687 0.023760002 -0.036658794 0.029090287 -0.019465644 -0.03868785 -0.050473295 -0.019853346
0.020354107 0.0382012 -0.0038015293 -0.006810411 0.027828475 0.0061648735 -0.014317284 0.018520212
-0.015832985 -0.029084895 -0.019155193 0.018552534 0.029270427 0.0052224007 -0.01585175 -0.045215636
-0.036882136 0.046043333 0.021527382 -0.0036938519 -0.009695014 0.024577755 -0.0031563006 0.035911776
-0.04368772 -0.064683236 -0.013265854 -0.009657036 0.0031618187 -0.005079531 -0.010072511 0.009963067
0.03768762 -0.014955709 0.023289666 -0.0060639936 0.036756877 0.019613776 0.011996643 -0.022472467
0.011080435 -0.018074432 0.02679017 0.020827236 -0.01293758 0.036557328 0.02012464 0.01044996
-0.0038717429 0.023989484 -0.009644008 -0.0093298415 0.0019069709 -0.034834266 -0.027708378 -0.027975269
0.009997824 -0.009016785 -0.05006304 0.03153116 -0.0030716308 -0.0052711032 -0.0024053704 -0.019820375
0.04274107 0.12810087 0.016611794 0.015911564 -0.006380867 -0.032813985 -0.0034396604 0.017836494
0.008729525 0.004596983 -0.019209323 -0.025364548 0.03476137 0.011806322 -0.035067316 -0.020980801
0.042366214 -0.007360525 0.011047902 0.034535706 -0.015267843 -0.06417445 0.033277914 0.0060668415
-0.051472347 -0.03768949 -0.023821346 -0.043396186 -0.0641165 -0.021073265 0.021632157

fc.3.weight f4 [223, 446]
00000000: cde3 89bc dec7 643b 6357 443c 2575 87bd
00000010: a639 7f3c 706e 25bd 2149 e0bc 53ac 3a3d
00000020: c324 07bd 85cd 9bbd 8686 083d f6df 50bd
00000030: f18f 103c e585 60bd f8eb 80bd cf20 0b3d
00000040: 5a83 3f3d 72ae 843d c3d7 55bd 3653 323d
00000050: 04d0 663d 19cc 883d 1762 553d 48c8 6c3d
00000060: 56b8 063d 074f 9b3d 87b8 733d eb8e 36bc
00000070: c8f5 8a3c a099 a13c 3307 8bbd b4c1 eb3c
00000080: 2f9e 263d f047 27bc caad d63c 315a fd3c
00000090: b55d 3bbd f252 0a3d 227e 22bd 28e3 033c
000000a0: 42a7 7f3d 922b 43bd dd15 3cbd 64d6 93bc
000000b0: 87ab 253d 2a79 a93d 568b 36bc d0e0 993d
000000c0: 0be4 2abd c993 fcbb 2840 38bd 0a33 4ebd
000000d0: dd29 023d 33f8 f23c 4da9 06bc 3b95 12bd
000000e0: 6442 19bd aab0 4e3c 6ae4 29bd b4b8 05bb
000000f0: d59b f4bc 0721 6cbd e274 0dbd caf3 7fbd
00000100: 5fe0 d7bb 8df6 873d e59b b33c df31 82bb
00000110: 5e83 e1bc 0ccb 343d 1535 23bd d874 9dbd
00000120: 47c7 0dbc bb49 8dbb 131b 0c3d 0552 6c3d
00000130: 9852 6e3d 497e 013d 0f7e 96bd 9991 95bc
00000140: 22dc 9b3c 4e71 f0bb a668 bbbc 8223 bc3c
00000150: 6ab1 0bbc 868e 173d 0b52 763d 340f 3bbd
00000160: 92eb fc3c 47d9 2e3d 200b 3dbd 082c d3bb
00000170: 7720 8c3c a679 01bd f8c8 8c3d e32a bf3b
00000180: 325c b3bd fe3e 8abd 7fc1 a63b 4002 2d3d
00000190: 8e50 50bd f7b2 4e3c bfa6 013d 22a1 603d
000001a0: e779 ddbc effb 283d 9725 a83d 4942 d23c
000001b0: 4158 313d c5f5 a0bd 34e7 113d 7c46 35bd
000001c0: 7d75 df3c c90e 67bd ec20 6dbc 28b7 93bd
000001d0: 05ba af3d dfe6 353c 4364 8fbc b4f9 69bd
000001e0: c256 b23c 5664 e8bb a4ca 0dbe 8718 673d
000001f0: 66fb 513d 84ce 85bd 3240 4dbc 4942 2e3c
00000200: cb75 b9bd 38d6 8dbb bb08 25bd 312d 71bd
00000210: 8c95 6e3c bd0f 7a3d 6746 ae3b 42ac b3bc
00000220: d18c 86bd 6499 803c 4c57 4b3d 5622 833d
00000230: d4bc 713d f53d 2bbd c28b 30bd 04d5 343c
00000240: 2050 943d a25a 80bd ba9e a2bd 872a 79bd
00000250: b000 cc3c 2745 633c 316d 27bc d842 f1bc
00000260: 0b46 853d 42a5 53bc 7fcd 1fbd 4fc9 bb3c
00000270: 32a0 2b3d 4f9d 793d 105f a23c 6e93 203d
00000280: d2d2 9fbc bdf1 20bc be4c 923c e785 e63b
00000290: 0c66 3b3d 2f3d a4bd a9a0 583c c1a2 5239
000002a0: ac19 aabd 5bea 68bc 117d 2f3d c654 9c3c
000002b0: 02e9 e5bc 57b2 573d 26a5 363d 2d01 11bd
000002c0: 1193 633d 26d0 0bbd ff3c 43bd 84f9 66bc
000002d0: 1e0b 053d c10d 7abd 536b 6bbd 0918 93bd
000002e0: 2319 47bd 11c2 33bc c694 57bc 3cd7 953c
000002f0: 0cde a73d e59d 74bd 2495 a6bb d4f3 fdbc
00000300: 06f3 ac39 182c 523d 003e 22bd 494a 8d3d
00000310: 14f2 bf37 f5fc 243d e4d5 9a3a d015 cdbb
00000320: 003c a2bd 0ead 43bd de0f 783d 63e6 873d
00000330: 8676 833b e6c1 ddbc 60b3 79bb eae2 20bd
00000340: c322 533d 39f6 f43c 74b6 7ebd c663 a73c
00000350: 9a34 68bd 337f 4cbd be8d 7abc 14b5 a0bd
00000360: 267d 143d 1b73 49bd 112a 65bd 392d 64bc
00000370: 5c52 0b3c 4a42 363d edba 84bd 5519 4f3c
00000380: fe1c 93bd 671d 68bd 2924 45bd 7939 8c3c
00000390: 1dca 8f3d 27d6 a3bd e59a 3b3d eb8f 86bd
000003a0: 3b98 3c3d 02e4 c93c 6d1a 13bc 75db 0c3d
000003b0: 8771 783c 64b7 8fbd 6388 0ebd 9d2a 8fbd
000003c0: 1c41 54bc 5a83 37bd f977 393d c904 98bc
000003d0: fa8b 0c3d 0385 6fbd 87ff 66bd 33b6 a4bd
000003e0: 0876 7ebc 7231 8e3d 5ad0 33bc c7b9 9f3d
000003f0: c35e 8d3d 8c7f 0bbc e5af afbd d017 4a3d
-0.016832257 0.003490917 0.011983725 -0.066141404 0.015577709 -0.040388525 -0.02737862 0.045574497
-0.032994043 -0.07607559 0.033331417 -0.050994836 0.008823381 -0.05481519 -0.062950075 0.033966836
0.046756126 0.06478585 -0.05220772 0.043536387 0.056350723 0.066795535 0.0520955 0.05780819
0.03289064 0.07583433 0.05950215 -0.011142473 0.0169629 0.019726574 -0.067884825 0.028778888
0.0406782 -0.010210022 0.026205916 0.030926796 -0.045743663 0.03377051 -0.03967107 0.008049764
0.06241537 -0.047648974 -0.045919288 -0.018046565 0.040446784 0.08275063 -0.011141619 0.07513583
-0.041721385 -0.007708047 -0.04498306 -0.050341643 0.031778205 0.029659366 -0.008219075 -0.03578685
-0.03741683 0.012615362 -0.0414776 -0.002040428 -0.029859463 -0.057648685 -0.034535296 -0.062488355
-0.0065880264 0.06638823 0.021924922 -0.0039732303 -0.027528461 0.044138953 -0.039845545 -0.07688302
-0.008653468 -0.004311768 0.034205507 0.057695407 0.058184236 0.031614576 -0.073482625 -0.018257903
0.019025866 -0.0073377257 -0.022877049 0.02296615 -0.0085261855 0.037001155 0.060136836 -0.045668796
0.030874047 0.04268768 -0.046153188 -0.006444458 0.017105324 -0.031610154 0.06874269 0.00583397
-0.08757819 -0.06750296 0.0050889845 0.042238474 -0.050858073 0.012615911 0.031653162 0.05484117
-0.027035667 0.041255888 0.08210295 0.025666373 0.043297056 -0.07859377 0.035620883 -0.044256672
0.027277702 -0.056410585 -0.014473181 -0.07212669 0.08580402 0.011102407 -0.017503863 -0.0571229
0.021769885 -0.007092039 -0.13846833 0.056419875 0.051265143 -0.0653353 -0.012527512 0.010635921
-0.0905567 -0.0043285154 -0.04029153 -0.05888099 0.014562022 0.061050165 0.005318451 -0.021932725
-0.06569827 0.015698142 0.0496438 0.064030334 0.05901797 -0.041807134 -0.043102033 0.011037115
0.07241845 -0.06267287 -0.07940431 -0.060831573 0.024902672 0.013871468 -0.010218904 -0.029450819
0.065075 -0.0129178185 -0.039014336 0.02292314 0.04190082 0.060941037 0.01982072 0.0392031
-0.019509707 -0.00982326 0.01785886 0.0070350054 0.045751616 -0.08019482 0.013221898 0.00020087791
-0.08305678 -0.014216031 0.042843882 0.019083392 -0.028065208 0.052660313 0.04459109 -0.035401512
0.055560175 -0.034134053 -0.047665592 -0.014097575 0.032481305 -0.061048273 -0.0574754 -0.07182319
-0.048607957 -0.010971562 -0.013158029 0.018291108 0.08196649 -0.059720892 -0.005083697 -0.031000055
0.00032987463 0.051311582 -0.03960991 0.068989344 2.28817e-05 0.0402803 0.0011813012 -0.006258704
-0.079216 -0.04777246 0.060562007 0.0663574 0.004011932 -0.027069997 -0.00381013 -0.039278902
0.051546823 0.029902564 -0.06218572 0.020433318 -0.05669079 -0.049925994 -0.015292583 -0.07847038
0.036252163 -0.04918204 -0.05594832 -0.013926798 0.008503523 0.044496812 -0.06480966 0.012640317
-0.07183264 -0.056668665 -0.048130188 0.017117249 0.07020972 -0.07999831 0.045802016 -0.06570419
0.046043616 0.024644855 -0.008978468 0.034388978 0.015163786 -0.07017401 -0.034798037 -0.0699055
-0.012954976 -0.044803 0.04528043 -0.01855697 0.03431318 -0.05847646 -0.056396034 -0.08042564
-0.0155310705 0.06943025 -0.010974968 0.07799106 0.0690284 -0.008514296 -0.08578471 0.049339116
