inventory/ark_material.onnx (onnx, 530699 bytes, 8 tensors)

35 f4 [8, 3, 5, 5]
000000 74 49 35 3f d3 a2 f5 be b7 9e e8 3e 44 66 bd be
       0.70815206 -0.47975788 0.4543359 -0.36992085
000010 d8 81 80 bd 63 ff 10 be 50 36 9a 3e ce a0 a8 be
       -0.06274766 -0.14159922 0.30119562 -0.32935184
000020 db a9 31 bd 3c 5a 1a 3e 5a 75 76 3b 2d 45 7d be
       -0.043374877 0.15073484 0.0037606568 -0.2473342
000030 cc de 25 be db f7 04 bf de 18 dd bd 9e 45 0d bf
       -0.16198272 -0.519407 -0.10795759 -0.5518435
000040 7b a2 a6 3e 6b 1e 42 3d 70 30 f1 be 18 81 ab be
       0.32545838 0.04739229 -0.47107267 -0.33496928
000050 9e 01 f4 3e ae b3 2d bf 06 fd 89 3e 5e 2c 4d 3e
       0.47657484 -0.67852294 0.26950854 0.20036456
000060 b4 f4 27 bf ff 07 e8 3e d5 2c 0c 3f c5 05 df 3e
       -0.6560776 0.453186 0.5475591 0.4355909
000070 b7 32 39 bf 25 46 1e bf a8 99 10 3f 4e a2 a7 3e
       -0.7234301 -0.6182578 0.5648446 0.32741016
000080 91 62 19 bf 80 fe 1e bf 80 6f f7 be a8 57 18 be
       -0.59916025 -0.62107086 -0.48327255 -0.14877188
000090 e3 fb bb 3c 39 ba 04 bf 7b 03 0d 3f b1 f7 76 3d
       0.022947257 -0.51846653 0.55083436 0.06029481
0000a0 e0 70 ff bc 32 0f 3d be e2 36 3f be 56 bf fe 3d
       -0.031181753 -0.18462828 -0.1867328 0.12438838
0000b0 48 0e 96 3e bc 82 ca be dc ca 9e bd 50 99 a0 bd
       0.2930777 -0.39552867 -0.07753536 -0.07841742
0000c0 ae e4 ea bd 57 3b a9 3e 8b 9e 14 3f c4 fd d3 3e
       -0.114693984 0.33053085 0.5805442 0.41404545
0000d0 c3 c1 1a bd 37 57 64 3e 1b a6 3c be 4e 2e 9b be
       -0.03778244 0.22298895 -0.18422739 -0.30308765
0000e0 db ba 59 3d 8a 2b e1 be b1 fa 45 be 30 d9 be bd
       0.053156715 -0.4397853 -0.19333912 -0.09318769
0000f0 e1 21 ef 3d f7 b9 a1 be 28 e7 a7 3e b9 1d c5 3e
       0.11676384 -0.31587192 0.32793546 0.3849924
000100 99 b6 19 3f 36 51 54 be 57 7e fd be ab ef 10 3f
       0.60044247 -0.20734105 -0.49510452 0.56615704
000110 7e e1 1d 3f ab 33 48 bd cd 74 49 3e b3 c6 b2 3e
       0.616722 -0.0488774 0.19673462 0.3491722
000120 3a c8 22 3f d4 8a 33 bd 12 15 d2 3e d9 92 be 3d
       0.6358677 -0.04383357 0.410317 0.09305353
000130 35 94 95 bd 94 8c 29 be 64 5d 83 be 60 b9 72 be
       -0.07303659 -0.16557533 -0.2565719 -0.23703527
000140 7a f8 14 3d b8 7b 09 be dd a3 5f be 86 73 02 3e
       0.03636978 -0.13426101 -0.21839853 0.12739381
000150 bc 05 76 3b f1 c3 2f be f4 b0 8a bd 7c d8 1c 3e
       0.003754004 -0.1716459 -0.067720324 0.15316957
000160 aa 26 c7 be 9c 7c 8b be ce 45 5f 3e c9 c8 70 be
       -0.38896686 -0.27243507 0.21803972 -0.23514093
000170 1f 48 52 3d 54 fe 03 be 10 f5 e7 bd 26 06 78 3e
       0.05133831 -0.12889987 -0.11326039 0.24221095
000180 6d f3 8a be da df 3f bd bd 22 01 bf 36 d2 19 be
       -0.27138844 -0.04684434 -0.5044363 -0.15021595
000190 5b 92 2b 3e d0 52 f1 bd f5 00 3f 3e 82 b3 9a 3e
       0.16755049 -0.11783373 0.18652709 0.3021508
0001a0 33 ec 96 be 6d 6a 12 3f b2 28 67 3e db 81 ca 3c
       -0.2947708 0.5719364 0.22574118 0.024720123
0001b0 e3 91 85 3c 78 08 80 be 62 8f 93 3e e2 98 8c bd
       0.016304916 -0.2500646 0.2882033 -0.068650976
0001c0 a9 15 35 be 61 d5 57 3e 3b cb df 3c 58 d6 a6 3d
       -0.17684044 0.21077491 0.027318588 0.081463516
0001d0 d4 cc f7 3e 15 21 95 be 52 cc 8e be 94 b5 90 3e
       0.4839846 -0.29126802 -0.2789026 0.28263533
0001e0 62 af cb 3c 1c f5 51 bd 44 93 29 3e bc a1 b5 be
       0.024863902 -0.051259145 0.16560084 -0.35474956
0001f0 f8 b1 d5 be 03 59 75 3e 59 f5 8d be bb 87 d8 bd
       -0.41737342 0.23959737 -0.27726248 -0.105727635
000200 48 96 9a be 7d e7 0b bb c1 0b b9 bd 9f 7f dd 3e
       -0.3019278 -0.0021347695 -0.09035445 0.4326143
000210 ef 41 9f be ab 90 f5 bd 00 c8 1c 3d 11 85 fc bd
       -0.3110499 -0.11990484 0.038276672 -0.12330068
000220 e6 87 69 3e e6 5c db bc 02 85 bd be cd f8 dd bc
       0.22805747 -0.026777696 -0.3701554 -0.027096177
000230 96 45 c9 3e a7 ec 72 3e 85 9a cb bc b8 29 c4 b9
       0.39310902 0.23723088 -0.024853954 -0.00037415116
000240 c5 88 ee be b1 66 c8 be e4 ea 54 bd 6f 58 9a bd
       -0.46588722 -0.39140847 -0.05198182 -0.075363986
000250 70 b7 08 be 26 75 a0 be c3 6c f3 be e9 b1 c9 3e
       -0.13351226 -0.31339377 -0.47543916 0.39393547
000260 ce c9 fe 3d d4 d6 f4 3e fb b2 12 3f 62 04 a1 be
       0.12440835 0.4782015 0.5730435 -0.31448656
000270 13 4a ca 3c 2d 9d 90 bd 42 6b cf 3e e8 da f4 be
       0.024693524 -0.07061229 0.4051152 -0.47823262
000280 f4 5a 1a bf a0 e7 18 bf 99 cb 17 3f bf 91 a9 3e
       -0.60295033 -0.5972843 0.5929504 0.33119008
000290 15 6d 3b be 6f a0 3f be bc 69 34 bf 56 31 c8 3d
       -0.1830333 -0.18713544 -0.7047384 0.09775035
0002a0 97 41 33 3e 08 74 23 3f 9f fb fe be e7 9f 80 be
       0.1750549 0.63848925 -0.49801347 -0.25121996
0002b0 37 c2 17 be 93 e6 b0 bb 47 2a 78 bd bf 23 c8 3e
       -0.14820181 -0.0053985803 -0.060587194 0.39089772
0002c0 43 7c 61 be 69 bf 46 3f e7 4e 35 3d d1 10 75 be
       -0.22020058 0.7763582 0.0442647 -0.23932196
0002d0 5c 5f aa be e9 95 51 be 4c fa bf bc 03 c6 4b 3e
       -0.33275878 -0.20467342 -0.02343478 0.19899754
0002e0 a5 ca 51 3f 15 51 1b bf 74 53 23 3f 97 70 b4 3b
       0.81949836 -0.60670596 0.63799214 0.005506586
0002f0 98 32 2f 3f 94 bf a6 3c 85 21 ac be cc c0 00 bf
       0.68436575 0.020355023 -0.33619323 -0.50294185
000300 1a 1c 9f 3d 40 ef 7c bd 11 75 4b 3e 54 f5 b0 3e
       0.07769032 -0.061751604 0.19868876 0.3456217
000310 63 13 61 3e 69 ba c1 3d 15 63 0b 3f 72 cc 43 3f
       0.21980052 0.09459383 0.5444806 0.76483834
000320 11 1f 1a bd 62 1e 2b be 3f c8 06 3d a0 7c 06 bf
       -0.037627283 -0.16710809 0.032905813 -0.5253391
000330 ee 52 9f 3e dc b4 10 bf 17 f7 4c be 33 21 36 3d
       0.31117958 -0.5652597 -0.20016132 0.044465255
000340 5f ab cb 3b 72 41 85 bc 38 08 44 bb e2 01 40 be
       0.0062154974 -0.016266558 -0.0029912125 -0.18750718
000350 fa e9 80 be 5a 63 02 3f cc 15 97 3e 50 1b b9 3e
       -0.2517851 0.5093285 0.29508817 0.3615365
000360 01 8d 02 3f 72 1d 1f bf 5b 42 05 bd a9 c2 37 3e
       0.50996405 -0.62154305 -0.032533985 0.1794535
000370 66 89 e5 3d 40 9d 02 3e 98 41 06 bf 35 bf ac 3d
       0.11207847 0.12755299 -0.5244384 0.08434907
000380 03 a6 d0 be bc d1 9d bd 10 b8 cb 3c 69 79 df be
       -0.40751657 -0.07706019 0.024868041 -0.43647316
000390 dd 91 51 3e f5 6e 48 bd d0 a7 8a bd 00 c0 a5 bd
       0.20465799 -0.048933942 -0.06770289 -0.08093262
0003a0 c2 3f 9b be bc 2d 38 3d 33 14 8f be 41 4b 79 3d
       -0.3032208 0.04496549 -0.27945098 0.060862783
0003b0 6e cb f1 3d bd 5d 3f be b6 9a b9 be 4a 6c ae bc
       0.11806379 -0.18688102 -0.36250848 -0.02129187
0003c0 71 ad 96 bc f1 3d 83 be 27 4c 29 3d 17 fc d5 be
       -0.01839325 -0.25633195 0.04133239 -0.41793892
0003d0 b6 01 a9 be da 5d 40 be 92 f2 8b be 58 84 96 3d
       -0.33009118 -0.18785802 -0.27333504 0.07349461
0003e0 a9 31 cc be 1b 52 9c 3d 70 1d 11 bd 54 94 59 3d
       -0.39881638 0.07632848 -0.035428464 0.053119972
0003f0 f5 b3 9d be 1e 4c 91 be 69 d5 85 be 43 3a 6d 3e
       -0.3080136 -0.28378385 -0.26139382 0.23166756

36 f4 [8]
000000 e2 65 4d bd 3d 6f cf 3f 1f 91 57 bf e6 e8 ed 3f
       -0.05014599 1.6205822 -0.8420581 1.85867
000010 10 d9 cf be c8 42 26 3e 4f d0 bc bf 12 24 e8 3f
       -0.40595293 0.16236413 -1.4751071 1.8136008

38 f4 [16, 8, 3, 3]
000000 69 ad 4e 3f f3 51 c8 be 6f fb 7d bf 76 b9 14 bf
       0.8073335 -0.39125022 -0.9921178 -0.5809549
000010 dc b9 9e be 5b cf b1 3f 59 bc 93 be 30 c9 24 3f
       -0.31001174 1.3891405 -0.28854635 0.6436949
000020 83 8e c7 3f 8b ff b0 3f 9d aa 27 bf b8 9c 86 3f
       1.5590366 1.3827986 -0.6549471 1.0516577
000030 ec 87 36 3f 5d 4c 3c be d1 e6 32 be 45 cb 92 3f
       0.7130115 -0.18388505 -0.17470862 1.1468283
000040 67 d9 ad be 03 2e 47 bf 1d d7 56 bf 9b db 28 bd
       -0.33954927 -0.77804583 -0.83921987 -0.041225057
000050 d4 37 bf bf 65 5a 12 bf 43 04 23 be be 1b 67 3f
       -1.4938912 -0.5716918 -0.15919594 0.90276706
000060 11 41 4b 3f 32 58 0a be 2f 01 e6 be 5a 8a ee bf
       0.7939616 -0.13510206 -0.44922778 -1.8635972
000070 f7 e3 58 3e ba 9c 24 be 66 79 89 3e 4d b1 cb bd
       0.21180712 -0.16075411 0.26850432 -0.09945927
000080 fd 9c be 3e 24 29 45 3f aa 2f 21 bf 7a 6c e2 be
       0.37229148 0.770159 -0.62963355 -0.44223386
000090 f2 40 9b bf 10 1a c4 3f 69 8e 00 bf fe 7c 16 3b
       -1.2129195 1.5320454 -0.502173 0.0022962685
0000a0 99 0b 0e 40 e2 36 ba be 9c bd 4d bf 8d 66 00 3e
       2.2194579 -0.36369997 -0.80367446 0.1253912
0000b0 e6 40 15 3e 48 7f 03 bf 96 85 d2 3f 5d dd bf be
       0.14575538 -0.5136609 1.6447017 -0.37473574
0000c0 ed f7 24 bf e5 44 18 40 a3 8b 29 3f d2 9a 05 bd
       -0.64440805 2.379205 0.66228694 -0.03261835
0000d0 2d 35 98 3f 84 49 48 bf c4 3e 9a 3e 3d 2f de 3f
       1.1891228 -0.78237176 0.3012601 1.7358166
0000e0 bc 84 9d be e1 0c 1e bf d8 9e fd bd be cb 87 3d
       -0.3076533 -0.617384 -0.12383813 0.066306576
0000f0 7a bd 09 3f 35 d7 59 bf 4e 2b f2 3c cf e7 12 3e
       0.53804743 -0.85094005 0.029561665 0.1434624
000100 7d 44 88 3f 1b b8 0d c0 df 96 06 bf c5 e4 90 be
       1.0645901 -2.214362 -0.5257396 -0.28299537
000110 e3 20 f5 3e f3 a2 8c bf f9 c9 92 3f 3e 1f 76 3f
       0.47876653 -1.0987228 1.1467887 0.9614142
000120 49 c6 fc be 89 50 d3 be 71 e5 7f be 90 3d 03 be
       -0.4937003 -0.4127238 -0.24989869 -0.12816453
000130 1f 6f 9d bd 6b 71 1a 3f bb 40 c5 be 11 c8 89 3f
       -0.0768721 0.6032931 -0.38525948 1.076418
000140 9c 1c f8 3e 64 8d 36 3f 6d a2 28 bd 2e 55 a6 be
       0.48459327 0.71309495 -0.041170526 -0.32486862
000150 5d 83 07 bf d5 19 af bf d2 9e fe be e7 9d f3 3d
       -0.5293482 -1.3679758 -0.49730545 0.11895352
000160 cb 40 e1 3e 0b bd cd 3e dc 2e 80 3e 1c 6b a7 3e
       0.43994746 0.4018329 0.2503575 0.32698905
000170 70 5a 8a 3e 2d 2f 2c 3f 21 a6 8c bf 40 9e 48 bf
       0.27022123 0.67259485 -1.0988199 -0.7836647
000180 be 1c 8a be 78 e2 67 bf 4c 37 70 3e b5 0d ff be
       -0.26975054 -0.9057994 0.23458594 -0.49815145
000190 54 6b a9 3e 25 8b 50 be 3a 83 a8 3d 78 8c 3e bf
       0.33089697 -0.2036558 0.082281545 -0.7443309
0001a0 fa f4 93 bf 8c 34 e1 be c1 23 8c bf 64 34 aa 3e
       -1.1559136 -0.43985403 -1.0948411 0.33243096
0001b0 03 6e a9 bd f7 52 22 bb 5d 5d 26 bc e7 b7 29 bf
       -0.08272936 -0.002476869 -0.0101540955 -0.6629624
0001c0 63 3a 19 bf 99 10 47 bf 04 47 a5 be b5 49 a4 bf
       -0.59854716 -0.777597 -0.32280743 -1.2834994
0001d0 44 e3 98 3f 53 a7 b6 bf 31 9f 4c bf e1 80 e6 3e
       1.1944356 -1.4269813 -0.79930407 0.45020202
0001e0 3b cd ae be 0a 12 0a bf 81 62 a9 3e 44 0a d4 3e
       -0.34140953 -0.53933775 0.33082965 0.41414082
0001f0 08 12 d5 3e a8 2f 66 3f fd 7b 94 3e c4 eb 60 3e
       0.4161532 0.8991647 0.29000846 0.21964937
000200 1c 3a 9a 3e fd 47 b1 3e 92 33 cd bf 22 35 6d bf
       0.3012246 0.34625235 -1.6031363 -0.926592
000210 12 c2 54 bb b9 f4 25 3e c7 62 79 3e 95 31 56 bd
       -0.0032464308 0.16206636 0.24354087 -0.05229338
000220 59 39 96 be 63 aa 21 3e f3 d8 14 3f 18 a9 51 bf
       -0.29340628 0.15787654 0.5814354 -0.8189864
000230 51 e1 15 3f a1 9b 6d 3e 57 d8 3d bd 61 dd 59 be
       0.5854693 0.23203899 -0.046348896 -0.21275856
000240 3d 41 90 3f f4 ec 91 3e ca d6 1d 3f 34 1f a8 be
       1.1269909 0.28501093 0.6165587 -0.32836306
000250 20 e2 87 bf 58 df 3c bf b1 48 1c be 44 a6 39 3e
       -1.0615883 -0.73778296 -0.15262105 0.18129832
000260 7e 8e 8f be ba 04 a8 3e ae c1 81 3f bf 5c 21 3e
       -0.280384 0.32816106 1.0137231 0.15758036
000270 fc f3 6e 3f c5 57 55 bf 17 48 23 3e 69 bf 6b 3d
       0.9334104 -0.8333705 0.15945469 0.05755559
000280 b2 84 71 bd c5 e4 58 bc fe 74 5c be e7 01 20 3e
       -0.05896444 -0.013238137 -0.21529004 0.15625726
000290 99 da e0 be f6 c7 c2 be d2 2d 88 3f 9c f4 5c 3f
       -0.43916777 -0.38043183 1.0638983 0.86310744
0002a0 b2 85 b6 be 3e a2 8c be 72 fb 55 bf 00 0d 92 bf
       -0.35648876 -0.2746753 -0.835868 -1.1410217
0002b0 70 7e 2c bf eb ca 9a bf dd 00 38 bf 52 de 22 bf
       -0.6738043 -1.2093176 -0.7187632 -0.63620484
0002c0 3e a5 e6 be 93 a2 3f 3f dc d1 d3 3e 08 01 56 3f
       -0.45047945 0.74857444 0.41371047 0.83595324
0002d0 c9 3c f9 3d 6c ae 83 bf 8e 2f 78 be 31 79 88 bf
       0.12169797 -1.0287604 -0.2423689 -1.0661985
0002e0 7c b8 c9 3e 2a 12 35 bf a1 17 03 bf 60 73 90 3f
       0.39398563 -0.7073084 -0.5120793 1.128521
0002f0 95 72 d0 be f8 8c 54 bf 9a de e2 3c ae b9 58 bf
       -0.4071242 -0.830276 0.027694035 -0.84658325
000300 80 25 0e bf 29 cd d3 bd 49 93 95 bf bc 7e 7b 3d
       -0.5552597 -0.103418656 -1.1685573 0.06140016
000310 c6 eb cb 3f 13 89 38 bf 8c 14 73 3e 62 6b 8f bf
       1.5931327 -0.7208416 0.23738307 -1.1204646
000320 d0 25 9a be 2f 1a 2e 3f b5 da a3 bf bc 4b 2e bf
       -0.30106974 0.68008703 -1.2801119 -0.6808431
000330 9a 09 fc 3d ab 76 df bd 7f ca 0a be e6 b0 62 3f
       0.12306519 -0.10911306 -0.13553809 0.88551176
000340 47 eb 38 3e ac 14 d7 3f 50 d5 e4 3d 09 57 9a bf
       0.18058501 1.6803184 0.11173499 -1.2057811
000350 ff ef ca be f4 28 d7 3e 23 77 9f be 35 05 44 bf
       -0.39636227 0.42023432 -0.31145582 -0.76570445
000360 87 75 2b bf ff 40 92 be df 98 a0 3e e5 26 f9 be
       -0.6697621 -0.28565213 0.3136663 -0.48662487
000370 d7 80 f2 3f ff f7 85 3f 27 d6 b7 3e 45 88 a0 3f
       1.8945569 1.0466307 0.35905573 1.2541586
000380 f7 89 a7 bf 0a 3e 00 3f ef f1 5c be e4 35 8d 3f
       -1.3088979 0.50094664 -0.21576665 1.1032071
000390 4e c3 73 bf 44 b4 ae 3c 4a 0f 89 3f 34 d7 c0 be
       -0.95219886 0.021326192 1.0707791 -0.37664187
0003a0 35 23 15 3f d0 47 49 3f 7e 87 20 3e 3c e8 b7 3e
       0.58256847 0.786252 0.15676686 0.35919368
0003b0 4d 10 95 3f e7 f3 0f bf 6a 53 fb bf d3 ca 34 3f
       1.16456 -0.5623154 -1.9634831 0.70621985
0003c0 5d 55 9a 3e 04 2a 3b bf 5f 37 af bf c7 a5 12 3f
       0.30143252 -0.73110986 -1.3688773 0.57284206
0003d0 c1 be 6a bf f9 c6 c9 3c 87 f9 4c 3e 9d a3 9a bf
       -0.9169732 0.02463101 0.20017062 -1.2081181
0003e0 08 af 49 bf f2 89 91 3e ec 97 4d 3f 7f c8 b2 bf
       -0.787827 0.28425556 0.8030994 -1.3967437
0003f0 8e 13 47 3f d3 0e 24 bf de 75 23 3f f7 c4 cb 3d
       0.77764213 -0.6408512 0.63851726 0.099496774

39 f4 [16]
000000 0e 82 13 c0 b4 1b 5b 40 04 88 42 40 47 d6 96 be
       -2.304813 3.4235659 3.0395517 -0.29460356
000010 8c 0f 08 40 42 3f 3f 3e aa c4 fd bf 50 b1 0f 3c
       2.125949 0.18676475 -1.9825642 0.008770302
000020 5b 26 28 c0 28 30 47 3f 2c 9a 6c 3f cc 95 a2 bd
       -2.627341 0.77807856 0.9242275 -0.07938728
000030 ec 59 da 3f 08 99 56 40 73 fa 22 40 3f 18 82 3f
       1.7058692 3.3530903 2.5465362 1.0163649

fc.0.bias f4 [442]
000000 27 49 e9 3d a2 77 97 3d af 99 aa 3d 20 30 8e 3d
       0.11390906 0.07395865 0.08330094 0.06942773
000010 a8 96 ef bc 68 6d d9 3d ba 27 df bc 28 f3 ab 3d
       -0.029246643 0.10616571 -0.027240623 0.08395988
000020 ec aa 42 3d b6 54 2d bd e3 ef fa 3c 4a c1 a4 3d
       0.047526285 -0.042317115 0.030631965 0.080446795
000030 bd bc f7 bb 97 c5 2b bc 6d 66 a5 3d 18 9c 69 bc
       -0.007560341 -0.010484121 0.08076177 -0.014258407
000040 d3 9d 64 3c a1 d2 6c 3d 69 8b 8a bc 08 5e 25 bd
       0.013953644 0.05781806 -0.016912179 -0.04037288
000050 31 d6 9a bc f6 4b 28 3d 53 69 73 3c 8e 19 96 3d
       -0.018900963 0.041088067 0.014856654 0.07329093
000060 24 70 4a bb 4d 96 07 3c 67 c7 2c 3d 0c a3 12 bd
       -0.0030889595 0.008275581 0.042182352 -0.035800025
000070 27 7a 0c 3e ca 0a 56 bd 1d 80 71 3d 2b fb df 3d
       0.13718472 -0.052256383 0.05896007 0.10936578
000080 23 85 db 3d 38 56 bd bd d7 07 e6 3d 2b d1 e0 3d
       0.10718753 -0.092449605 0.11231964 0.109773956
000090 86 8b 0e 3e 6b da 45 3d cd 89 e0 3d 8e 39 23 bc
       0.13920411 0.048304003 0.109637834 -0.009962453
0000a0 28 58 86 3d 27 84 d6 3c ab 04 fe 3d 4c fc 6d 3d
       0.06559783 0.026186062 0.12403234 0.058101937
0000b0 18 59 d8 3d a1 1d a5 bd 25 d2 c3 3d d7 6b 81 bd
       0.10563868 -0.08062292 0.09561566 -0.06319397
0000c0 f5 0a 8c 3d 1b 9b ca 3d 9b 7c 93 3d 10 b6 45 3c
       0.068380274 0.09892865 0.07201501 0.012067333
0000d0 20 cc 72 ba 07 38 7f bd ac e6 13 3e ac 3e b3 3d
       -0.00092619844 -0.06230929 0.14443463 0.08752188
0000e0 56 c6 90 bc 52 92 b4 3c ac 46 78 bc 64 a6 95 3d
       -0.017672699 0.022042427 -0.015153568 0.07307127
0000f0 ed 1c f1 3d 22 b2 80 bd f8 3b 59 3d 33 46 35 3c
       0.11773095 -0.06283976 0.053035706 0.0110641
000100 f5 00 78 3d d9 cb 0e 3e c4 55 d9 bb 89 81 f4 3d
       0.060547788 0.13944949 -0.0066325385 0.11938769
000110 5a d6 ee 3d 62 1e 18 bd d7 6a c1 bc c2 a9 c5 bd
       0.11661978 -0.03713835 -0.023610516 -0.09651519
000120 de e5 8c 3d 69 00 52 bd 34 be 43 bd a4 8d 4b 3d
       0.06879781 -0.051269922 -0.047788814 0.049695626
000130 90 3d 0d 3e d3 84 65 bd 2c 48 de 3c 36 f9 bf 3d
       0.13793015 -0.056034874 0.027134024 0.09373705
000140 1f 98 30 3d 59 a1 83 bd 8b c8 e6 3a 5a 55 eb 3d
       0.043113824 -0.06427259 0.0017607374 0.11490889
000150 d0 43 0e 3d 53 5c a8 bc 89 66 c3 bd 3c b7 95 3d
       0.03473264 -0.020551836 -0.095410414 0.0731034
000160 85 8d e4 bc 89 82 1e 3d 54 1f b8 3d d9 46 17 3d
       -0.027899513 0.038698707 0.0899035 0.0369328
000170 ac e2 89 3c ae 2d 05 3e 2a e4 d0 3d bc 2c ff bc
       0.016831718 0.13005707 0.10199769 -0.03114926
000180 24 b8 85 3d ec 2a 01 3e 3d bd 46 3d 25 3b be 3d
       0.06529263 0.1261403 0.048520315 0.09288625
000190 0f 2f 4c 3c 61 64 18 3d 9f 0a 03 3d a8 be c4 3d
       0.0124623915 0.037205104 0.03199255 0.09606677
0001a0 8d cd 10 3e 53 0a 9f ba cf a2 f3 bc 5c 3b a7 3d
       0.14140911 -0.0012133814 -0.02974072 0.08165619
0001b0 28 a9 dc 3d 4e c7 9a 3d b5 14 30 3d 01 c2 07 3e
       0.107744515 0.075575456 0.042988498 0.132576
0001c0 d1 39 2a 3b f7 46 11 3e a1 88 95 bc 78 7d 52 3d
       0.0025974403 0.14187227 -0.018253626 0.051389188
0001d0 c3 a5 04 3e 01 c9 d1 3d 8d 72 d1 3d dc 3c c3 3d
       0.12953858 0.102434166 0.10226927 0.095330924
0001e0 a3 bc f3 bc 73 f0 a4 3d d0 07 7c bc c2 fb ac 3d
       -0.029753035 0.080536745 -0.015382722 0.084464565
0001f0 77 2c 0b 3d 12 b6 dc ba 30 15 5d bd 68 0d 60 3d
       0.03397795 -0.0016838929 -0.053975284 0.054700285
000200 fa 3b 01 3d 77 87 17 3d 54 76 10 3d 9d 5b bd 3d
       0.03155134 0.036994424 0.035269096 0.092459895
000210 59 e1 11 3e 9f ed df 3c ab e9 43 3b 55 89 3f 3d
       0.1424612 0.027334986 0.0029893916 0.04676183
000220 fd a8 de 3d 3f 6a 6e bc 72 98 e2 3d 6f 20 8c 3b
       0.10872076 -0.014551698 0.11064233 0.0042763273
000230 a9 be 09 3d 28 fa 00 3e 1d 78 a3 3d a4 fc a0 bb
       0.033629093 0.12595427 0.07981894 -0.0049129296
000240 23 a8 08 3c 66 4f 0e 39 46 26 a8 3d 5e 41 27 3d
       0.008340868 0.00013571754 0.08210425 0.040833823
000250 62 9a 13 bd a3 13 bd 3d 67 83 dc bb f5 14 81 bd
       -0.036035903 0.09232261 -0.0067295316 -0.06302825
000260 83 6a 46 3d 39 61 d2 3c e5 87 73 3d 68 f7 f2 3d
       0.04844142 0.025681125 0.05945577 0.11863595
000270 d6 5a b2 bc e2 ce 71 3d e4 64 6a bd 95 e3 e5 3d
       -0.02177183 0.05903519 -0.057225123 0.112250485
000280 c0 2e 21 bd 8d 2c 03 bc 87 03 c7 3c 08 3a 97 37
       -0.039351225 -0.008006227 0.024293674 1.8027626e-05
000290 7e fa bf 3d fb 13 d6 bc 36 94 44 3d 45 ab 44 3d
       0.093739495 -0.026132574 0.047992907 0.048014898
0002a0 c6 d6 ec 3b 38 c3 21 3d 71 b7 be 3d 80 8e b0 3d
       0.0072277514 0.039492816 0.093123324 0.0862093
0002b0 3e 14 d7 3d 5d 20 ea 3d a7 78 b6 3c 03 41 07 3d
       0.10501908 0.11431954 0.022274328 0.033020984
0002c0 db 37 4b 3d c6 3f 83 3d 48 2b d9 bb 2f cc 56 3c
       0.049613815 0.06408648 -0.006627474 0.013110205
0002d0 8a 74 9c 3d 64 51 9d bd a3 7f f8 3d c7 02 09 bc
       0.076394156 -0.0768154 0.1213372 -0.008362479
0002e0 69 7c 48 3d d8 d6 55 3d 91 54 22 3c ba d6 87 bc
       0.04894677 0.052206844 0.0099078575 -0.016581882
0002f0 56 08 52 3c 14 60 b1 bd 17 1f 82 3d fe 66 c3 3c
       0.01281937 -0.086609036 0.06353586 0.023852821
000300 c4 6e a0 3d c7 31 9f 3d ea 92 40 bd 64 5c b7 3c
       0.07833627 0.07773166 -0.04701511 0.022382922
000310 39 c0 96 3d 0f 04 be bc d2 c6 92 3b 3a 32 f6 3d
       0.07360882 -0.023195295 0.0044792676 0.12021299
000320 54 04 c5 3d 2d d4 ad 3d da c7 00 3e 2c 71 28 bd
       0.09619966 0.08487735 0.12576237 -0.041123554
000330 62 cc 23 3d ae 77 fc 3d 97 8c c8 3c 12 6c 5a 3d
       0.039989837 0.123275146 0.024481101 0.05332572
000340 31 29 e8 3d 6f 13 94 3b f9 e5 b2 3d 17 db 00 3e
       0.11335982 0.004518918 0.0873527 0.12583576
000350 cb e2 b2 bc 93 33 99 3d cd be 23 3e cd 35 2f 3d
       -0.021836659 0.0748054 0.15990753 0.042775918
000360 83 ff b4 bc dc 63 5d bd 95 ce b3 3d e5 59 92 3d
       -0.022094494 -0.05405031 0.08779637 0.07146052
000370 6e f4 78 bc 67 48 08 3d d5 71 23 3d 79 e4 c8 3d
       -0.015194995 0.033272173 0.03990348 0.09809203
000380 73 14 9e 3c 1a 65 54 3c 29 8d 2f 3d a9 a6 5f 3d
       0.01929686 0.012963558 0.04285923 0.0546023
000390 72 3c 3d 3d 83 4f 0d 3e df ae de bc a3 78 a9 3d
       0.046200223 0.13799863 -0.027182994 0.08274963
0003a0 7e 98 6f 3d 50 25 0b 3d 15 9a 6f 3d 1b ce ca 3d
       0.058495037 0.03397113 0.058496553 0.09902593
0003b0 63 6a 68 3d 1c 05 10 3d cd 1f 84 3c 6a ad 45 3d
       0.056742083 0.035161123 0.016128445 0.048261084
0003c0 c2 a6 90 3b 25 3b dc bc 7a 12 90 3d 0c c1 14 3e
       0.0044144103 -0.026883671 0.07034774 0.14526767
0003d0 7c 88 5e 3a cb 6c f8 3b 16 74 0a 3e 3c 6b 09 bd
       0.00084889657 0.0075813285 0.13520846 -0.033549532
0003e0 a6 df 8c 3c 28 b2 37 bc cd 75 9b 3d 15 18 a2 3d
       0.017196488 -0.011211909 0.07590828 0.079147495
0003f0 b8 d2 b7 3d a5 88 b0 3d 12 82 da bb f8 1b b1 3d
       0.08975738 0.08619813 -0.0066683376 0.08647913

fc.0.weight f4 [442, 64]
000000 c2 55 04 be 30 12 4e bd b7 92 32 be 52 90 19 3e
       -0.12923339 -0.050310314 -0.1743878 0.1499646
000010 87 da b8 3c 4b 2d 18 3c e2 a8 42 bd 76 a4 ed bd
       0.02256514 0.009288142 -0.04752434 -0.11603634
000020 19 b7 cb 3d 7c f0 80 3d 9f e8 20 3e 40 3b cc bd
       0.099470325 0.06295869 0.15713738 -0.099722385
000030 c4 7e 44 be 06 59 14 3d f9 80 87 3d 91 b9 4a 3c
       -0.19188982 0.036217712 0.066163965 0.012373344
000040 bb 06 27 3d 13 af 40 3e 0c 95 3e be 96 6c cc 3c
       0.040777903 0.18816786 -0.18611544 0.024954122
000050 21 f9 9a 3d 24 27 be 3d ee 77 1e 3e 02 2e f1 3d
       0.07567049 0.09284809 0.15475437 0.117763534
000060 7c be d2 3c 4f 3e 2d bd 1f 53 c0 bd 50 74 a8 bb
       0.025725596 -0.04229575 -0.09390854 -0.0051408187
000070 8c 65 c8 bd 5f d4 44 3d f8 46 c6 3d 05 e4 0a 3e
       -0.097849935 0.048054095 0.09681505 0.13563545
000080 93 ee a7 bc 66 fd 07 be 57 c8 0c bd 6a ea d9 bd
       -0.020499503 -0.13280258 -0.034370746 -0.10640414
000090 43 16 74 bd 6d ee 0e 3d 21 56 21 3e a6 61 e2 bc
       -0.059591543 0.03489535 0.15755512 -0.027634453
0000a0 4c 90 b8 3d aa 82 00 3e 49 48 ac bc e6 e2 da 3d
       0.090118974 0.12549844 -0.021030562 0.10687809
0000b0 6e 11 7c 3d ea 6f f6 3c bc 65 ba bd 29 e9 eb 3d
       0.06154006 0.030082662 -0.091014355 0.11519081
0000c0 0f 34 22 3e 6a 02 b2 3d 95 3c 1e 3d 94 80 93 3d
       0.15840171 0.08691867 0.038631994 0.07202259
0000d0 d7 7b 66 bd 73 f4 b4 bd 7b 5e c7 bc 00 fb 6c 3d
       -0.056270447 -0.088356875 -0.024337044 0.05785656
0000e0 78 5a 68 3d 9a 6b 43 bd 1f 9a 83 3d 4d 24 4e bc
       0.056726903 -0.04771004 0.06425881 -0.012581897
0000f0 ad de 68 3c a6 a6 0e 3e 6e 26 62 bd a3 15 48 bd
       0.014213246 0.13930759 -0.05521243 -0.04884876
000100 fa e6 ef 3d 38 b2 cc bd 7e d4 e5 3d 69 fb c4 3d
       0.11713977 -0.0999493 0.1122217 0.09618265
000110 3d c5 9f bc ae 9c 00 be a4 58 95 3d 2c c3 6c bc
       -0.01950323 -0.12559769 0.072922975 -0.0144508295
000120 b4 b0 6f bc f9 63 96 bd 90 07 3d bd 08 a2 ea 3c
       -0.014629532 -0.07343287 -0.04614979 0.028641716
000130 79 97 8f bd e1 cb 9c 3c 4e b7 83 3d e6 55 bf bd
       -0.07011313 0.019140186 0.06431447 -0.09342556
000140 42 67 90 3d 86 88 ed bc ab cc ef bc 8a 25 9f bd
       0.07050945 -0.028995764 -0.029272398 -0.07770832
000150 70 32 a6 3d c9 81 6c 3d ce 12 90 3c 11 ac 1c 3d
       0.08115089 0.05774096 0.017587092 0.038250033
000160 1d bd 95 3d 92 9d 31 3d aa f2 99 bd a2 9b c4 3d
       0.07311461 0.04336316 -0.075169876 0.09599997
000170 a2 7e a7 3d 79 cb c6 bc 57 0d cb 3d e8 29 81 3c
       0.0817845 -0.024266945 0.09914654 0.015767053
000180 2a 2c d4 bd eb 5e a0 3d 4e fc f9 3d dc 48 0d 3e
       -0.10359986 0.07830604 0.122063264 0.13797325
000190 11 20 03 3d 7c b4 d5 3d ae 31 26 be bd 58 7a 3a
       0.032013003 0.10434815 -0.16229889 0.0009549966
0001a0 14 11 d3 3d 72 96 89 3c fd 10 25 bd f9 4e fd bc
       0.10305992 0.01679537 -0.040299404 -0.030921446
0001b0 f2 c4 d1 3d ab e3 aa bd 1a a5 07 3d d8 30 87 3d
       0.102426425 -0.083442055 0.033116437 0.06601113
0001c0 1e df fe 3d 51 e1 8f 3b c1 85 ae 3d 67 6b 73 bc
       0.124449 0.0043908735 0.08521605 -0.01485715
0001d0 19 b4 a9 3d 09 43 d1 3c 32 5c 58 3d e3 16 b6 bc
       0.08286304 0.02554466 0.0528223 -0.02222771
0001e0 56 25 4c bd a1 f3 be 3d 75 63 57 3c 9f 81 08 3e
       -0.049840294 0.09323812 0.013146271 0.13330697
0001f0 55 31 79 3d 5f 18 07 be 48 71 ad bd e7 fd c2 bc
       0.060838062 -0.1319289 -0.08468872 -0.02380271
000200 32 83 38 be 9b d7 1e 3d 49 bb f2 3d b5 db 97 bd
       -0.18018797 0.038779836 0.11852128 -0.07414953
000210 58 9a 68 bd bb 22 b5 3d 50 db b8 3a c9 ed 0c 3d
       -0.05678782 0.08844515 0.0014103446 0.034406457
000220 6a d3 1f 3e 7f f4 20 3e 5d 17 9f 3d fd c4 b1 3d
       0.15607992 0.15718268 0.07768128 0.08680151
000230 ef b5 28 be 6d e4 20 bd 09 f7 7f bd 7e 41 d6 3d
       -0.16475652 -0.039280344 -0.06249145 0.104617104
000240 fc d7 3a bd ac 84 a5 3d ea c2 c8 bc 1a 51 f4 3d
       -0.045616135 0.08081946 -0.024507005 0.119295314
000250 49 e7 ec bd b9 98 79 bd 1d 9f c1 3d bc 5d 2a 3e
       -0.11567552 -0.060936663 0.094541766 0.1663732
000260 b2 ab 94 bd e0 be cd bd 1d 67 1d be 82 be aa 3c
       -0.07259311 -0.10046172 -0.15371366 0.020842794
000270 7a c5 d0 bc d4 de c1 bd 27 46 62 ba f9 95 1a 3e
       -0.02548479 -0.09466329 -0.00086316693 0.15096273
000280 f2 24 dd 3c 65 31 10 3d f5 fa da 3c 7d dd 54 be
       0.026995156 0.035203356 0.026730994 -0.20787616
000290 fe ae 72 3d 9d 00 36 3b 4d 7a 01 3d 6e 96 60 be
       0.059248917 0.0027771362 0.031610776 -0.21932384
0002a0 96 bc 32 bd 60 89 27 3c 3d 7f b3 3c 01 3a 49 3e
       -0.04363688 0.010225624 0.021911258 0.19651033
0002b0 14 84 7c 3c db df b0 bd 46 0a f0 3d c0 bc e2 bc
       0.015412349 -0.08636447 0.117207095 -0.027677894
0002c0 2c 81 b9 bd be 0f 19 bd d6 18 fd bd d8 2a 1d be
       -0.09057841 -0.03736853 -0.12358253 -0.15348375
0002d0 4f 05 d5 3d 8c 44 68 3d 63 d4 8a 3c a3 05 56 bd
       0.10401403 0.056705996 0.016946977 -0.05225147
0002e0 1e 46 e6 3d 93 e9 06 3d 14 07 d5 3d dd 10 32 3e
       0.112438425 0.032937597 0.10401741 0.17389245
0002f0 f2 6b 88 3d b2 c3 2b 3e 24 dc c7 3a b2 e3 28 3e
       0.06661214 0.1677387 0.0015248102 0.16493109
000300 a4 c7 d1 bc f5 f6 96 3b c7 e7 3f bc d3 36 f5 3d
       -0.025607891 0.0046070763 -0.011712975 0.119733475
000310 e7 93 0c be 0e 4a 02 be 06 81 43 3d d9 30 04 3e
       -0.13728295 -0.12723562 0.04773047 0.12909259
000320 94 bf 67 bd 9a 3f 51 3d 1d ea 95 3c 42 41 72 bd
       -0.056579188 0.051086046 0.01830011 -0.059144266
000330 7a 9f b4 3c 22 bb 19 bd ec 4e 3d bd 29 03 4f 3e
       0.0220487 -0.03753198 -0.046217844 0.20216049
000340 8e 6b ca 3d 85 1b 4c 3c e7 94 fb bc 41 fd 64 bd
       0.09883796 0.012457733 -0.03071065 -0.055905584
000350 8b ec 0b 3d 75 b6 35 bd f3 b9 09 bd 39 3c e2 3d
       0.03416113 -0.044363458 -0.0336246 0.11046643
000360 a4 2b a2 3d 48 6c be 3c fa 99 ab 3c 6d 1b 2e 3e
       0.0791848 0.023244992 0.020947445 0.1700265
000370 7e 40 38 3e 05 59 89 bd 48 6a fd 3d 12 52 f1 3d
       0.17993352 -0.06706432 0.12373787 0.11783232
000380 a1 1c d9 3b 46 14 3a 3e 95 b6 7f 3d 3a c5 5c 3d
       0.0066257273 0.18171796 0.062429983 0.053899027
000390 82 5f 16 3e b0 d9 ff 3d 31 71 8f bd fe 64 e9 bd
       0.14684871 0.124926925 -0.070040114 -0.11396216
0003a0 ed fc e5 bc 7c c2 fe bd 7d cc a5 3d 4f 65 e9 3d
       -0.028074706 -0.12439439 0.08095644 0.11396276
0003b0 de 33 be 3d 77 32 01 3e 0d aa ac bd a8 60 4c 3e
       0.09287237 0.12616907 -0.08430872 0.19958746
0003c0 44 f1 84 3d 26 5d 7a 39 2a d7 cf 3c a6 bd 0f be
       0.0649133 0.00023876558 0.025371153 -0.14037189
0003d0 4f e9 63 bb fa 0f 8f bd 39 67 b0 3d cb 28 b3 bd
       -0.0034776514 -0.06985469 0.08613438 -0.08748015
0003e0 45 2e a6 3d 04 2f 3b 3c 7c 41 20 bd 76 9d 0e 3d
       0.08114294 0.011424784 -0.03912495 0.034818135
0003f0 4a 1e 13 3e 76 69 5a 3d a4 73 91 bd a2 d7 a3 bc
       0.14367023 0.05332323 -0.07102135 -0.020000283

fc.3.bias f4 [221]
000000 c9 35 23 3d 2a 85 6a bc ad 7d 8c 3c 0b ba bf bb
       0.039846215 -0.014313975 0.01714977 -0.0058510355
000010 3b b3 8e 3c e9 47 5d bd 84 1d a9 bb 52 c5 ad 3b
       0.017419448 -0.054023657 -0.0051609892 0.0053030634
000020 0d fd fa bc cb e1 c8 bc ff e1 18 bd e8 97 25 bd
       -0.030638242 -0.024521729 -0.0373249 -0.040428072
000030 88 ff e1 3b 14 b4 19 bc 7e 0e f9 bc 27 6a 19 bd
       0.006896917 -0.009381313 -0.030402418 -0.03745475
000040 d5 2d 8c 3c a4 9e 28 bd 6d 09 a0 3b ba 37 43 bd
       0.017111698 -0.041166916 0.004883936 -0.047660567
000050 a2 52 3d bd 44 95 16 bd 3d 0b 02 3c f5 7a 66 3c
       -0.046221383 -0.036763445 0.00793725 0.014067401
000060 02 62 12 bc ab 05 43 3b ce 11 a0 3c 2e 87 1c 3c
       -0.0089345 0.0029758017 0.01953974 0.009553714
000070 6a 32 0f bc 51 9c 11 bd 96 3d c0 bc d6 48 d2 bc
       -0.008740047 -0.035549466 -0.023466866 -0.025669497
000080 81 5f 1d bd 0c b9 47 bb e3 81 a9 bc e0 c8 34 bb
       -0.038421158 -0.0030475287 -0.020691818 -0.002758555
000090 3a 5d db bc 76 e7 73 bc f1 35 08 bd 09 cd 25 bd
       -0.026777852 -0.014886728 -0.033254568 -0.04047874
0000a0 32 40 9e bc c3 df e3 bc 7f 21 d1 bc 9f 22 48 bd
       -0.01931772 -0.027816659 -0.025528667 -0.048861142
0000b0 d2 22 14 3d c6 5c eb 3c 96 43 c0 ba f9 78 c1 bc
       0.03616602 0.028730761 -0.001466858 -0.023617255
0000c0 df 22 14 3d 59 0d f2 39 ad 03 e1 3c 68 a6 9e 3c
       0.03616607 0.00046167782 0.027467573 0.019366458
0000d0 5c f8 3c 3c 64 b7 8e bb 81 f6 43 bc 4d 74 3b 3c
       0.011533823 -0.004355358 -0.011960627 0.0114413025
0000e0 63 ca 00 bd 8c 11 83 bd 0b a0 87 bd 23 47 f3 3c
       -0.03144301 -0.06399831 -0.06622323 0.029697007
0000f0 bf 41 02 bd b4 5b cf bc e7 3f 43 3d d7 f0 57 bc
       -0.03180098 -0.025312282 0.047668364 -0.013179979
000100 f5 ad e3 ba 0d 01 a0 bc 04 f1 2c 3c e6 50 ce 3b
       -0.0017370569 -0.019531751 0.0105555095 0.006296265
000110 e9 9c 0b bd 6b 59 8e bc 09 4e a3 3b eb 27 63 bc
       -0.034085188 -0.017376622 0.0049836677 -0.013864498
000120 ca ed 16 bd 0b 16 01 3c 05 8e 07 3c 42 2b 9a ba
       -0.036847867 0.007878791 0.008273606 -0.0011762159
000130 d3 93 cb bc 91 d6 f6 bc a2 ea 95 3c ce 96 7a 3b
       -0.024850762 -0.03013161 0.018300358 0.003823686
000140 3e 77 2b 3d f4 7b 27 3c 05 3d 77 3c ac 27 7a 3d
       0.041861765 0.010222424 0.015090232 0.06107299
000150 b8 3f 2e 3c 64 f8 b4 bc 8f 49 11 bb a2 00 9c 3d
       0.010635309 -0.022091098 -0.0022169088 0.07617308
000160 5e 79 2b bc 40 65 32 bd 98 38 53 3d 8a a0 1f bd
       -0.010465948 -0.04355359 0.051567644 -0.03897146
000170 77 66 e9 bc 7c c2 d6 bc d5 44 15 bd 77 ca d8 3c
       -0.028491242 -0.026215784 -0.036442596 0.02646373
000180 4a 49 ad 3b 4b d4 1e bd e8 a0 52 bc 67 9b 1f bc
       0.0052882778 -0.038776677 -0.012855746 -0.009741641
000190 51 33 2f bc 11 71 a6 bc 1d b9 88 3c 96 19 84 bb
       -0.010693387 -0.020317586 0.016689831 -0.0040313704
0001a0 85 50 2f 3d b3 73 d1 bb 37 41 58 ba 16 61 db 3c
       0.0428014 -0.0063919662 -0.0008249464 0.026779693
0001b0 fd 3a a4 3b 34 b2 9f bc 3a ab de 3b 73 c1 be bc
       0.0050119148 -0.019494154 0.006795314 -0.023285603
0001c0 7f c4 0b 3d c7 e3 da bc 10 3f 3a ba d0 ac 0c bc
       0.03412294 -0.02671994 -0.0007104734 -0.008586124
0001d0 88 78 1a bd 71 db 56 ba 5b 0b 6c bd 27 84 34 bc
       -0.037712604 -0.00081961515 -0.057628017 -0.011017836
0001e0 7a 1d 29 3d 1e 8f ce 3b de 04 47 bc 4d 2f 4e 3d
       0.041287877 0.006303682 -0.0121471565 0.05033808
0001f0 09 dc da 3c d3 50 38 bc a6 5f 8c bc 43 f1 30 bc
       0.026716249 -0.011249739 -0.017135452 -0.010799709
000200 e5 dc 19 3d 12 38 51 3d e2 99 22 3d b6 6e e1 bc
       0.037564177 0.051078863 0.039697535 -0.027518611
000210 dc 13 0b 3d b4 c8 49 bc a8 a6 db bc b3 aa b6 bc
       0.033954486 -0.012315918 -0.026812866 -0.022298193
000220 00 b9 bf bc 07 b5 0b 3d 9d b1 9f bc df 23 b3 bc
       -0.023403645 0.034108188 -0.019493872 -0.02186769
000230 8f ed 48 bc f2 61 2b 3c 08 2f 1a ba 65 fd 49 bd
       -0.01226367 0.010460364 -0.0005881642 -0.04931392
000240 7c 72 79 3b bf dc c9 3c 8f d7 a4 bc 34 8d 01 bc
       0.0038062623 0.024641393 -0.020122318 -0.007907201
000250 31 70 a5 bb 3e fc 97 bd c9 da b1 3b ba 4d 81 bb
       -0.0050487746 -0.07421158 0.0054276926 -0.0039460333
000260 df 9b b8 3c 62 ad 57 bc 20 78 57 bd 39 99 2b 3d
       0.022535263 -0.013163896 -0.052604795 0.04189417
000270 81 33 10 bc 8e a7 d0 bc 39 c3 29 3c f8 06 31 3d
       -0.008801342 -0.025470521 0.010361486 0.043219537
000280 8e bc e4 b9 71 fd 48 bd a4 57 98 3b 0b 5b 36 3c
       -0.00043628033 -0.049069826 0.0046491195 0.011130105
000290 86 0e 2a bc 92 e3 1a bc 2a af 8a b9 d4 eb a7 bc
       -0.010379439 -0.009453671 -0.00026451919 -0.020498194
0002a0 1e dc 38 3b ce 5f b3 3c 69 4c 58 bc de 27 98 bc
       0.0028207372 0.02189627 -0.013201811 -0.018573698
0002b0 55 4c ae bc 43 23 fe 3c 93 de de 3b 55 45 a8 bb
       -0.021276632 0.031022673 0.0068014353 -0.005135218
0002c0 8e 27 d1 3a a2 94 29 3d 62 b7 3f bb 08 54 a3 bd
       0.0015957223 0.041401513 -0.0029253592 -0.07975012
0002d0 11 c7 8e 3c d5 4a 54 3d 11 61 ad 3c b0 06 f9 bb
       0.017428907 0.051829178 0.021164449 -0.007599674
0002e0 4d 43 a4 bd 24 9f f8 3b 22 40 13 3d b8 14 fd bc
       -0.08020649 0.0075873304 0.035949834 -0.030893669
0002f0 24 95 7f b8 97 5f ef bc 0f 28 10 3d dc 12 38 3d
       -6.0935636e-05 -0.029220385 0.035194453 0.04493986
000300 32 84 6d 3d 5d 3c 01 3d 97 81 17 3b 57 60 4c 3d
       0.0579874 0.031551708 0.0023118013 0.049896564
000310 e0 e6 af 3c 08 7d 78 bd c5 6d 09 bd ec f8 73 3c
       0.021472394 -0.060666114 -0.03355195 0.014890891
000320 cd a8 ca bc 01 15 a9 3c ff 79 1b bc 62 02 85 3c
       -0.024738694 0.020639898 -0.009489535 0.016236488
000330 8d 88 59 3c 69 12 76 3b 95 f8 b7 3b 8d 15 32 3b
       0.013277185 0.0037547594 0.00561435 0.002717349
000340 45 0a b3 bc 52 2b 95 3c 86 cb 1b ba 51 19 b2 bc
       -0.021855483 0.018209133 -0.0005943108 -0.021740587
000350 8b 6f a2 bd 3a c2 4d 3d 33 b2 50 bc 25 ae 0b bd
       -0.079314314 0.050234057 -0.0127377985 -0.034101624
000360 a4 57 f1 bb 8b c3 a4 bb aa 08 9e bd 9c 7e 9f bd
       -0.007365184 -0.0050281934 -0.07716496 -0.07787821
000370 36 d2 ec bb
       -0.0072272075

fc.3.weight f4 [221, 442]
000000 36 dc c9 3c 1b a3 96 3d 45 75 ea 3c 48 24 8f 3d
       0.024641138 0.07355329 0.028620372 0.06989342
000010 ac cc 32 bd 58 4b 5a 3c 58 4b 64 3d 97 d4 37 bc
       -0.04365222 0.013323627 0.055735916 -0.011220119
000020 39 44 8a 3b dd 89 6e 3d 97 67 25 bd 34 d0 a4 3c
       0.0042195586 0.058236945 -0.040381994 0.02011881
000030 03 65 41 3d 5e 7b bf 3d 47 e0 51 bc dc c9 4e bc
       0.047215473 0.09349702 -0.01280982 -0.012621369
000040 53 09 7b bc ea ca cc 3b 1c 1e 66 bd ff 56 50 bd
       -0.015322047 0.006249775 -0.05618106 -0.050864216
000050 e0 2d b4 3d 1c c1 8b 3d 9d 75 4e 3d 71 30 a5 3d
       0.087978125 0.06823942 0.050405134 0.0806588
000060 65 4f 02 bc 85 71 93 ba af 59 5d bd 03 3d b3 3c
       -0.007953499 -0.0011249041 -0.054040607 0.021879679
000070 98 02 85 3d 67 c4 55 3d ce 61 0e bd f9 12 0f 3c
       0.06494635 0.052189257 -0.034761243 0.008732551
000080 63 cd 89 3c 89 9a 1d bd cd 9c a2 3d 0b cf 1b bd
       0.016821569 -0.038477454 0.079400636 -0.03803925
000090 e1 e9 a4 3c 74 dc c3 bc 98 b8 37 3c 11 d2 e3 bc
       0.020131053 -0.023908831 0.011213444 -0.027810128
0000a0 3a 03 37 bd d7 1e 05 bc fc 9d 13 3d 27 7a 79 bd
       -0.04468081 -0.008125029 0.036039338 -0.06090751
0000b0 80 cc f2 bc ec 71 d5 bc e6 41 85 3d 12 8b 57 3d
       -0.029638529 -0.026055299 0.0650671 0.052622862
0000c0 33 fd 86 3c b7 2d 93 bc 2c 54 20 bd 11 80 15 bc
       0.016478157 -0.017966134 -0.039142773 -0.009124772
0000d0 77 f9 e3 bc ff 1e 0c bd a9 20 3d 3d c3 88 8b 3d
       -0.027828915 -0.034209248 0.046173725 0.068131946
0000e0 09 f8 6a bd 8c dc 3e bd 18 e0 9a bc 68 55 62 bc
       -0.05736545 -0.04659705 -0.018905684 -0.013814308
0000f0 28 5d 67 3c 6f 2d f8 3b 53 ec 89 bd d4 c7 96 3d
       0.014121331 0.0075737755 -0.067345284 0.07362333
000100 46 75 65 3d 4f 79 92 bc 01 6a 01 bd 66 b5 7a 3d
       0.056020044 -0.01788011 -0.031595234 0.06120815
000110 62 63 0d 3c fe 45 39 bd f6 ba 82 bd 54 a7 a9 bb
       0.008629652 -0.045232765 -0.06383316 -0.005177418
000120 2d 0a ae 3d 50 ae 38 bd 75 7f 7a bd 1f c1 3d bd
       0.084980346 -0.045088112 -0.06115671 -0.046326753
000130 a2 e2 ac bd b9 43 7b 3d d0 e7 68 bb 3f 2a b6 bd
       -0.08441664 0.061343882 -0.0035538562 -0.088947766
000140 08 63 98 bd 91 1c fd bc 0f 2c ed 3b 04 83 ef 3c
       -0.07440764 -0.03089741 0.007237918 0.029237278
000150 5d a3 bb bc 4b 30 4a bd 52 b4 39 3c 27 37 ab 3d
       -0.022905046 -0.049362462 0.011334496 0.08360129
000160 1a 69 c7 3d cf 5b 9a bd 5e 97 62 3d 08 51 bb 3d
       0.097368434 -0.07537042 0.055320136 0.09146315
000170 ff e8 4d bc 8f 9a ea bb 39 28 9c 3d 54 e7 39 bd
       -0.012567758 -0.007159538 0.07624859 -0.045386627
000180 e7 7a ae bd f3 0c 93 3a 8e 7e 56 bd 8c 90 1f 3d
       -0.085195355 0.0011219069 -0.052366786 0.03895621
000190 52 12 42 bd 44 b4 06 3d 8d 4a 9c bb b0 c0 25 bd
       -0.047380753 0.03288676 -0.0047696293 -0.040466964
0001a0 de d2 ac 3d 56 32 f9 bc 90 6d a5 3d ea d7 1a bd
       0.08438657 -0.03041951 0.08077538 -0.037803568
0001b0 47 f5 32 3d 62 86 82 bd 0c e3 ac bd e8 0d a8 bd
       0.043690946 -0.06373288 -0.08441743 -0.082057774
0001c0 62 18 c9 bb b7 e2 ac ba be 93 94 bd c7 61 79 3d
       -0.00613694 -0.0013190125 -0.07254742 0.060884263
0001d0 9c 92 3d bd 5d 48 4a 3c ea 67 c6 3d 39 6a b3 bc
       -0.046282396 0.012346354 0.09687789 -0.021901237
0001e0 43 ec 43 3d c4 e6 23 bd 05 91 b8 3d 4f b6 45 3d
       0.04783274 -0.040014997 0.09012035 0.048269566
0001f0 5c 40 e9 3d 70 63 a1 bb c9 2a 5b 3d 78 35 9f bd
       0.11389229 -0.004925184 0.0535076 -0.0777387
000200 3d 57 6b 3d 0e e2 6d bd 9a 7c 7e 3d 0f dd ec 3b
       0.057456244 -0.05807691 0.062130548 0.0072285007
000210 1f fc 58 bd 35 7c ce bd f0 c0 b2 bd ef e0 9a 3d
       -0.052974816 -0.10082284 -0.08728206 0.07562434
000220 c5 7b 37 bc 14 bf cf 3b 68 fa 8d 3d 41 88 e0 bc
       -0.011198943 0.006339917 0.06932527 -0.02740872
000230 40 ee 3f bd c5 d6 e2 3c 5b 8e 40 bd 75 a3 4d bd
       -0.046858072 0.0276903 -0.04701076 -0.050204713
000240 57 ba e0 bc 64 e1 0d bd 0c fd 80 3d 76 54 37 bd
       -0.027432604 -0.034638777 0.06298265 -0.044758283
000250 14 8d ac bd 97 64 af bc 6f 29 c0 bc b4 24 6e bd
       -0.08425346 -0.02141027 -0.023457257 -0.05814047
000260 10 e2 26 bd b5 a4 ca 3c 5f bc 50 bd be d7 67 3c
       -0.040742934 0.024736742 -0.050960895 0.014150558
000270 f2 d3 29 bd 98 65 b2 bc 77 76 e6 bd 6c e1 29 bc
       -0.041461892 -0.02177696 -0.11253064 -0.010368686
000280 01 bd 0b bd c6 13 c6 bb e8 71 cc 3c 1a 9f 00 3b
       -0.034115795 -0.0060448376 0.024956658 0.0019626082
000290 c6 c2 c0 bc 18 b8 6d 3d 81 ce d8 bd 5c 95 8c bd
       -0.023530375 0.058036894 -0.105862625 -0.068644255
0002a0 20 2d 23 3d de 7c 9b 3d 50 4e 08 bd 1a c3 9e bd
       0.039837956 0.07592176 -0.03327781 -0.077520564
0002b0 92 a4 1b 3c c0 d2 94 bd e9 a6 3b bb 9c c0 bc bc
       0.009499686 -0.0726676 -0.0028633422 -0.023041062
0002c0 5e 97 b4 3c cb 28 a9 3d a4 5f 6e bd 60 8f b3 bc
       0.022044834 0.08259734 -0.05819668 -0.021918952
0002d0 b0 cf 1b 3d 71 19 c8 3c 10 cc 14 bd 3c 56 c6 bd
       0.038039863 0.024426194 -0.03632742 -0.09684417
0002e0 72 76 fc bc 9e 9c a7 bd 98 c9 81 bc f2 ca e5 3b
       -0.030818198 -0.08184169 -0.015843198 0.0070127184
0002f0 a9 ff b8 bd c6 c3 36 bd d7 f8 78 bb b4 37 b5 3d
       -0.09033138 -0.044620298 -0.0037990117 0.08848515
000300 5b 3a 00 bd 55 ab 6b 3c 37 21 15 bd 85 e0 5b 3d
       -0.031305652 0.01438411 -0.03640863 0.053680915
000310 d6 c4 65 3d db 9f 09 3c f6 54 f1 bb 75 b5 e9 bc
       0.05609592 0.008399929 -0.0073648645 -0.028528908
000320 80 8e f5 3c 7a 6f 78 bd b8 64 88 bc 1c f1 b8 bc
       0.029975176 -0.060653187 -0.016649589 -0.022575907
000330 27 db 40 3d 5a 61 27 bb 82 26 d1 bc b9 5a 00 bd
       0.047084 -0.0025540204 -0.025531057 -0.03133652
000340 d2 65 47 bd 0e da 46 bd cc 0b 07 bd 24 62 b5 bd
       -0.048681088 -0.048547797 -0.032970235 -0.088566095
000350 50 b8 bf 3d 70 ca 5e 3c 43 ab 2e bd 0e cb 89 bd
       0.09361327 0.01359807 -0.042643797 -0.06728183
000360 be 57 68 bd 7a 5f 89 3d 9a b6 28 3b 1f 32 35 3b
       -0.056724302 0.06707664 0.0025743605 0.0027648283
000370 6e 4d 49 3c df 94 05 bd 26 6b c6 3c d6 ce 52 bd
       0.012286527 -0.032612678 0.024221014 -0.051466785
000380 aa 09 77 bc 1f 8f 24 3c 05 71 7d 3d 9d 96 56 3d
       -0.015077988 0.010043888 0.061875362 0.05238973
000390 53 c6 b7 3c 13 1d 0e bd 48 26 df bd 7d 73 3e bd
       0.022433436 -0.034695696 -0.108959734 -0.046496857
0003a0 68 ea 86 bd 86 5e d8 bc fd 1d 17 3d 56 2d 01 3d
       -0.06587678 -0.02641226 0.036893833 0.031537376
0003b0 4a fc 05 3e f5 58 67 3d 40 8b 8c 3d 8f bf 0b bd
       0.13084522 0.05648132 0.06862497 -0.03411823
0003c0 ad 31 0d bc a5 eb a5 bd 82 6f 88 bd f2 45 b3 bd
       -0.008617801 -0.08101586 -0.066618934 -0.087535754
0003d0 13 1d cc bc 6e 35 00 3c 9e 5d 0c be a5 5d 64 3b
       -0.024916207 0.007825239 -0.13707587 0.0034845856
0003e0 72 f3 dc bc 56 73 f1 bc 79 38 02 bd 21 ff 7e bb
       -0.026971553 -0.029473942 -0.031792138 -0.0038909393
0003f0 60 8d 05 3d 6d 90 d9 bc 30 4d 1e bd 0d 0e 27 bd
       0.03260553 -0.026558125 -0.03864783 -0.040784884
