inventory/ark_material.onnx (onnx, 788324 bytes, 8 tensors)

35 f4 [8, 3, 5, 5]
00000000: 60be 8ebe 4713 873e 104f ca3e 7182 a93e
00000010: b0c1 713e a016 50be f8ac 993c 0d8a c4be
00000020: ab07 403d f260 773e 24d0 eb3c 31e6 f9bd
00000030: d9c9 8abe 8a2d ecbd c26d 803e dad6 3c3e
00000040: 3798 7cbe 9092 84be a4fc 233e 269b 0a3e
00000050: 4877 58be 324d d23d e125 bcbd 5e7b 4cbe
00000060: 5265 eb3c ee92 d8be 7491 bdbd deb9 e6bb
00000070: 75bd c13e 4424 1a3e 2646 3d3d 747e cdbc
00000080: c1af 303e d311 8c3e 3846 833e 56f1 c03d
00000090: 7247 8dbe 034f 863e 3857 3f3e 6457 5b3e
000000a0: 0e23 fe3d 0df8 86be 05ff 62be f2bf 42be
000000b0: 9acf 04bd 70c3 303e 7618 663e 4469 fd3d
000000c0: e371 2d3d bbb2 483e bf5b a9be 3fe1 ce3c
000000d0: a0b7 62be 6efc 843e 6a87 8e3d 6d00 d43d
000000e0: 17a2 1ebd cd09 203e 73d2 37be 18e2 713e
000000f0: 0d61 80be 6b79 58bb feef 1b3d 0b87 b4bd
00000100: ae01 0c3f 9eb7 ed3d 61bc 023c b97e 843e
00000110: 5a9b f43d 86d8 853e b8b0 8a3e 6332 87be
00000120: 1618 943e a21e 383c 9439 d23e 8b9f 153e
00000130: 00c9 833e aca4 0fbc a194 babd 472e 813e
00000140: 73fa 443e 0ea5 6cbe 7a38 113e c7a3 e33d
00000150: 5aa7 3a3e eb93 253e 2785 343d 1763 ba3e
00000160: 8383 bf3e b0a0 d23e 97ac 7ebe a1ff 393e
00000170: 6749 f83d 3396 98be 3a2d 8e3e 1825 9d3e
00000180: b64c b6be cdc1 b3be cdde 50be 9665 b93e
00000190: a53a b13e d5d2 54bc 59a7 cd3e 33fb 593e
000001a0: 556e 873e 5e8a f9bd 3e36 3cbd 3b92 16bd
000001b0: c969 6c3e 3d6c 873c b4c3 86be 98ad 3c3e
000001c0: 5a26 30be a613 e8bc 72c2 45bd 86bd 07be
000001d0: 2ed7 81bd bdb6 6c3e 6131 3d3b 84f3 3a3e
000001e0: 77e9 1ebe 3051 f1be 0c4e dbbe f109 bbbe
000001f0: 2415 343e b12e cc3e cc7a 7cbe 37b1 9e3d
00000200: 4702 96bd cb33 b7be 404f 9ebc 7616 f93e
00000210: 28df 9ebe 2b4d dc3c 3f05 f7be 873a 8b3d
00000220: eda3 8ebe 8cf3 d8bd 243e 033c ba79 d8be
00000230: 1d6e 1dbe 8d1d 9abe b707 13bf 8073 60be
00000240: f96f 45be ef4e cfbe bdb3 6e3e d6a2 48bd
00000250: f56d f0be 6bf6 68be ee6a ab3d f065 8c3e
00000260: edc5 dc3e f6c9 a73e 71b1 8d3d 02b9 5dbe
00000270: 9650 333e fdf5 0c3b 850f 13be 03b6 5e3e
00000280: f1ee 0abe fe98 96be 0fc4 043f 5fc4 493e
00000290: 2cf1 823c d894 0abf 1db1 88bd 5260 4cbe
000002a0: ad45 abbd 719d 963e 13a3 313e 8e40 8fbe
000002b0: b4e3 833e 5467 94be 2289 c03d ce48 923e
000002c0: 3816 f23c 4cd8 f13e f37f df3e 68dd 2fbe
000002d0: 3ce8 0f3d 055e 23bd 34f3 c73e 6aee 6c3e
000002e0: bf18 1d3e 90d9 aa3e f92a 9bbe 6852 973e
000002f0: d25e 2f3d bc7d ae3c 9ff1 96be 1162 29bd
00000300: 72d7 17be 2f94 853e 5b67 4a3d 4e90 543d
00000310: f69d 8bbe 0101 753e 1962 7cbd 9bdd 24be
00000320: 0eee 8abe e07e 083e 1d50 7ebe b9a0 9f3e
00000330: 3216 583e ad27 773e 8814 3dbe 5ac6 afbd
00000340: cb05 903e c720 66be b59d 8fbe e30e 063e
00000350: 65e4 9c3d 683f aabd 11bd 4cbe d675 993d
00000360: 3157 0f3e 7873 d5bd 92a8 a43e 67f8 f73d
00000370: 111e 58be ab4d 91be 3595 903e 6790 0e3e
00000380: 730a c2be e856 9b3e c093 a7bd 68b2 863e
00000390: 1c37 d7be 1331 14bf bde5 e03d 27a6 8bbe
000003a0: 5ec9 843e 4620 363e c65f 923d 8e20 c03e
000003b0: 161a 1f3f 0e68 4f3d c694 2bbe 390f 1e3d
000003c0: c754 0f3f e7e6 333e d9f0 a7bd 8059 c1be
000003d0: 0bfb c7be 333c 2d3f 79f6 083f 9a8c 653e
000003e0: 4e63 abbe 1aba e7bd 32d0 60be eda0 adbe
000003f0: c486 013e 2720 3bbe 02bc dc3d 5c5a d3bd
-0.2787962 0.26381895 0.39513445 0.3310733 0.23609042 -0.20321131 0.018759236 -0.38386574
0.046882313 0.24158075 0.028785773 -0.12202109 -0.27107123 -0.115321234 0.2508374 0.18441334
-0.2466744 -0.25893068 0.16014344 0.13535747 -0.21139252 0.1026863 -0.09186912 -0.19968936
0.028734837 -0.42299598 -0.092562586 -0.0070412 0.37839857 0.15052897 0.046209477 -0.025084712
0.17254545 0.2735735 0.2563951 0.09421031 -0.2759357 0.26232156 0.18685615 0.21420056
0.1240903 -0.26361123 -0.22167595 -0.19018534 -0.032424547 0.17262053 0.22470269 0.123735934
0.04234494 0.1959943 -0.3307781 0.02525389 -0.2214036 0.2597384 0.06959422 0.10351644
-0.0387288 0.15628739 -0.17951374 0.23621404 -0.25074044 -0.0033031355 0.03807067 -0.0881482
0.54690063 0.11607288 0.007979483 0.25877932 0.119436935 0.26141757 0.2708795 -0.2640563
0.28924626 0.011237772 0.41059554 0.14611642 0.25739288 -0.008767288 -0.0911038 0.2523062
0.19236164 -0.23109838 0.141817 0.111152224 0.18227902 0.16169707 0.044072296 0.36403725
0.37405023 0.4113822 -0.24870525 0.18163921 0.121233754 -0.29802093 0.2776888 0.30692363
-0.356054 -0.35108796 -0.20397492 0.36210316 0.34615055 -0.012989719 0.4016674 0.21287231
0.26451364 -0.121845946 -0.045950167 -0.03676055 0.23087229 0.016531104 -0.26321185 0.18425596
-0.1720213 -0.028329682 -0.04828114 -0.13255891 -0.063398704 0.23116584 0.0028868543 0.18256956
-0.15518747 -0.47132254 -0.42832983 -0.36531022 0.1758619 0.39879373 -0.24656218 0.07748645
-0.07324653 -0.35781702 -0.019324899 0.4864995 -0.3102963 0.026892265 -0.4824619 0.067982726
-0.2785944 -0.10593328 0.008010421 -0.4228037 -0.15374036 -0.3010067 -0.57433647 -0.2191906
-0.19280995 -0.4048991 0.23310752 -0.048983417 -0.4695889 -0.22750251 0.083700046 0.27421522
0.43119755 0.3277127 0.0691861 -0.21652606 0.1751121 0.0021508925 -0.14361389 0.2174912
-0.13567711 -0.294136 0.5186166 0.19703816 0.01598414 -0.5413337 -0.06674407 -0.19958618
-0.08362899 0.29416993 0.17347364 -0.2797894 0.2575966 -0.28985083 0.09401156 0.2857117
0.02955161 0.47235334 0.43652305 -0.17174304 0.035133585 -0.039884586 0.39052737 0.23137823
0.15341471 0.33369112 -0.30306223 0.29555058 0.042815037 0.02130019 -0.29481217 -0.04135329
-0.1482828 0.26089618 0.049414974 0.051895432 -0.27268952 0.23926164 -0.06161699 -0.16100161
-0.27134746 0.13329649 -0.24835248 0.3117731 0.21102217 0.24136229 -0.18464863 -0.085827544
0.2812942 -0.22473441 -0.28050008 0.13091616 0.0766075 -0.08312875 -0.19993998 0.074931785
0.13998105 -0.104224145 0.3215986 0.12107926 -0.2110522 -0.28379568 0.28238836 0.13922273
-0.37898597 0.30339742 -0.08182478 0.26307988 -0.42034233 -0.5788738 0.10981319 -0.27275202
0.2593488 0.17785749 0.071471736 0.37524837 0.6214918 0.050636344 -0.16755971 0.038588736
0.55988735 0.17568551 -0.08200235 -0.37763596 -0.39058718 0.6766998 0.5350109 0.22416916
-0.334742 -0.11314793 -0.2195442 -0.3391184 0.12649065 -0.18273984 0.10778047 -0.10319969

36 f4 [8]
00000000: 235a cabf a4d3 823f c7f5 92bf 3215 56bd
00000010: 8353 a9be ae0e f63f 46df c2be 9245 cd3d
-1.5808758 1.0220838 -1.1481255 -0.052266307 -0.33071527 1.922323 -0.3806097 0.10023035

38 f4 [16, 8, 3, 3]
00000000: 5ce1 73be 3ddd d33e 02aa b73e 3df2 9f3f
00000010: b2cd 503f af32 3fbf 26dd 8dbc 2d4e e03d
00000020: 76d4 1fbf cd45 443f 1de3 843f 7738 8abe
00000030: 6cec 3bbe fee5 5e3f 23fd 423e 1439 d23e
00000040: 4bcd 42bf 07ef 55bf f274 f33e 2dd2 c7be
00000050: 4dd0 37bf 18a9 0bbf 2e31 0cbf 0bdd 43bf
00000060: a892 fcbd 7ba6 1c3e 87cc c33e 4790 1e3f
00000070: 4379 e1bd 7421 5abf 9f89 cb3e 2ad6 f1be
00000080: d260 50bf 4763 973e 1ec0 13bf ae06 8fbe
00000090: 90a8 213f be8b 0d3c 1afe debd 8c3b f2be
000000a0: 6932 32be 0c16 29bf f9f5 3cbe 74af cd3e
000000b0: b660 3bbf f54a c7be 3235 b7bd 4f4f 853e
000000c0: 7d0e d63e 7585 dc3e 4c3a 0e3f c834 b7be
000000d0: f809 673e 9bee 4f3e f4c7 7c3d 8cbd 2b3e
000000e0: 98af 4e3f 9f83 50bf 71ca 59be ee40 a83e
000000f0: 936e c03c 344d 333f 30ee 893f 6db6 08bf
00000100: 5c60 bbbe 9615 46be 227d 07bf 2e32 b8bd
00000110: 4f71 dfbc df3b 5e3f 6abf 9e3f 69b3 ac3f
00000120: 992a 893e 929e 7abe 562d 2a3f 9a78 e6be
00000130: c695 af3e eaa8 4cbe 0f58 683f be7f dfbc
00000140: 2a27 e33e c1df ce3e 8328 8e3d 69af 2fbf
00000150: ca25 503f 4f40 7cbe 79b3 2abf b3ee 913f
00000160: 2832 3d3e 6cef 383f ac4b b4bd f1ec 1abf
00000170: bc9d 1bbf c705 2cbf 4235 a73e a3ed bc3e
00000180: a4ae 3dbd 3a2a 643e 1ec5 c73f afe1 993e
00000190: 6c12 97bf c3f1 33bf accf 8bbf b6c1 b43f
000001a0: c861 5a3f 5b77 773e 6dea d03e 1788 9e3e
000001b0: 7cfd 09be d503 553f 5cb7 64be dd31 cbbd
000001c0: d0c0 993c 5f39 5bbf 5d72 043e 0464 c23f
000001d0: ca39 ea3e 7b60 52bf c045 4abf d816 e03e
000001e0: 48f4 e43e 82bc 19bf d8b1 e1be 04c0 1b3f
000001f0: 3a15 993f cf53 fc3f ed0c 7d3f 0237 efbe
00000200: 1968 193f 4c0a 85bf 7f83 7b3d a222 9e3e
00000210: d9d7 12bf 0a22 433e e28b 1a3f 996f 413f
00000220: 5eec 8cbe d629 e93e 445a 11bf 5e74 d5bd
00000230: e750 cd3c 5121 b2bf 5ca1 babf 7aa8 913e
00000240: 4aea e23e b4e0 5ebf 5a58 b53e 7389 8dbd
00000250: 1435 a7bf 074d 50bf 6d6a 5a3e 0fbe 96bf
00000260: e0b9 ee3d 4351 e2bd a3ad 51bf fed1 103f
00000270: 0c3c 0dbf 93e2 82bf a872 9a3e fae3 083f
00000280: 2630 e03f b6f0 a0bf 8311 0f3f 2a27 453f
00000290: a3ab f5bc 4ec3 023f 9372 593f 6341 403e
000002a0: 6dab 1cbd 1b4f 053f ab7c 043f 9c8a 71bd
000002b0: a021 83bf 1732 59bf ea38 e6be 01f4 6d3f
000002c0: d6ad babe 2d2b 9bbf e8a2 8dbf 63b6 b4be
000002d0: b5f2 b5be 1474 563f ef6b 07bf be0b cbbd
000002e0: f8d4 1d3e f8a6 55be 65e5 1a3f cbc1 53bf
000002f0: 7899 43bf 9c6c 6e3e 89f9 b43d b179 813f
00000300: 98f8 67be 14de 7dbf 79cf 633f 0742 dcbd
00000310: bbdc 77bf d5c9 70bf 6f73 95be 7ef4 a5bf
00000320: dc77 0b3f abb2 aa3d 5288 3cbf 374d aa3d
00000330: f6a7 32bf dbee 81bd c13e 833f f2b0 7fbe
00000340: f851 84be 3bfe 7e3f 063c e33e 4931 77be
00000350: 87e9 513d 4d24 4d3f 13e5 953f 5c4e 99bd
00000360: f6d5 133f c61d bc3f 4615 2dbe 0c77 903d
00000370: 7fa1 91bf 68f1 8cbe 37da 2cbf e9a8 8ebf
00000380: cf8f 093e 01d8 1cbd faac 953f 3b58 53bf
00000390: ef99 97bf 748a 9bbe 3567 7ebf b013 ef3d
000003a0: 7136 563f ecda 703f 25c4 28be 056b 22bf
000003b0: 33da b0be c6d6 c6be 33af 60bf acf7 bdbf
000003c0: d8d1 09be 56f5 473f c7b1 bf3c 74c4 b3bd
000003d0: 441a c13f 39c2 ae3e 64f5 ba3c b7d7 a4be
000003e0: 5ef7 a93e ddcf 383e ff61 6c3f 2c76 b73f
000003f0: e48c 6cbf ea68 123f 9300 9bbf 48fb d93c
-0.23816437 0.4137973 0.35871893 1.24958 0.81563866 -0.7468671 -0.017317366 0.10952411
-0.62433565 0.7666901 1.038181 -0.26996204 -0.18351907 0.8706969 0.19041876 0.41059172
-0.760945 -0.8356785 0.4755016 -0.3902754 -0.71802217 -0.5455489 -0.5476254 -0.7650916
-0.1233266 0.15297882 0.3824198 0.619389 -0.11009457 -0.85207295 0.39753434 -0.47233707
-0.81397736 0.2956793 -0.5771502 -0.27934784 0.6314783 0.008639274 -0.1088831 -0.47311056
-0.17402042 -0.66049266 -0.18453206 0.40172923 -0.73194444 -0.38924375 -0.08945693 0.2603707
0.4180793 0.4307057 0.55557704 -0.35782456 0.22562397 0.20305865 0.061714128 0.16771525
0.80736685 -0.8145084 -0.21268632 0.32862037 0.023490226 0.7003968 1.0775814 -0.5340336
-0.36596954 -0.19344172 -0.5292531 -0.08993946 -0.02727571 0.86810106 1.2402165 1.3492252
0.26790312 -0.24474552 0.6647543 -0.45013887 0.34293956 -0.1998631 0.90759367 -0.027282592
0.44365817 0.40405086 0.06941321 -0.6862703 0.8130766 -0.24633907 -0.66680104 1.140097
0.18476164 0.7224033 -0.08803496 -0.60517794 -0.6078756 -0.67196316 0.3265782 0.36900052
-0.04630913 0.22281733 1.560703 0.30054995 -1.1802497 -0.70290774 -1.0922751 1.4121616
0.8530545 0.24166624 0.40803853 0.30963203 -0.13475603 0.8320897 -0.22335571 -0.0992162
0.018768698 -0.85634416 0.12934251 1.5186772 0.45747215 -0.8217847 -0.7901268 0.43767428
0.44717622 -0.60053265 -0.44080997 0.6083987 1.1959603 1.9713076 0.9884785 -0.46721655
0.59924465 -1.0393767 0.0614047 0.30885798 -0.5736061 0.19055954 0.60369694 0.7556091
-0.27524084 0.4553973 -0.5677836 -0.10422586 0.025062991 -1.3916417 -1.4580493 0.2844885
0.44319373 -0.8706162 0.3541897 -0.06910982 -1.3063073 -0.81367534 0.2132966 -1.1776751
0.116565466 -0.11050656 -0.81905574 0.5657042 -0.5516975 -1.0225395 0.301656 0.53472865
1.7514694 -1.2573459 0.55886096 0.77012885 -0.02998907 0.5107926 0.8494045 0.18774943
-0.038249422 0.5207383 0.5175273 -0.05897008 -1.0244637 -0.84842056 -0.44965297 0.92950445
-0.3646075 -1.2122551 -1.106534 -0.352954 -0.35536733 0.8377087 -0.5289907 -0.09914349
0.15413272 -0.20864475 0.6050628 -0.8271758 -0.7640605 0.23283619 0.088366576 1.0115262
-0.22653425 -0.9916699 0.88988453 -0.10754781 -0.9682118 -0.9405797 -0.2918963 -1.2965238
0.54479766 0.083348595 -0.7364551 0.08315509 -0.6978754 -0.06344386 1.0253526 -0.24969843
-0.25843787 0.99606675 0.44381732 -0.24139895 0.0512481 0.80133516 1.1710533 -0.07485649
0.57748353 1.4696586 -0.16902646 0.070539564 -1.137741 -0.27527928 -0.6752047 -1.1145297
0.13433765 -0.038291935 1.1693413 -0.82556504 -1.1843852 -0.3037907 -0.9937623 0.11673677
0.8367682 0.9408405 -0.16481073 -0.6344455 -0.34541473 -0.38835734 -0.8776733 -1.4841208
-0.13458955 0.7810873 0.0234002 -0.08777705 1.5086141 0.34132555 0.02282209 -0.32195827
0.3319654 0.18048044 0.9233703 1.4332938 -0.9240248 0.57191336 -1.210955 0.026609078

39 f4 [16]
00000000: 304d 04bf 4067 12c0 e1d7 ea3f 1e44 983f
00000010: df3d 013e 3519 e03f b52c 41c0 1c42 a8be
00000020: aa7e 7f40 7eca 9f40 d6ac cdbf 76e3 aabd
00000030: c187 4840 8fd0 e13f d382 953f ebfc 333f
-0.5168028 -2.2875519 1.8347131 1.1895788 0.12621258 1.7507693 -3.0183537 -0.32862937
3.992106 4.9934683 -1.606837 -0.08344166 3.1332858 1.7641772 1.1680549 0.703078

fc.0.bias f4 [554]
00000000: fb85 65bd ead4 5ebd 5cc6 6f3d 153d 8a3d
00000010: c4e2 553c 78c9 323d 145f 253d 910f 33bd
00000020: 9999 9d3d 628a ffbc 3cec 3b3d 48fb ca3d
00000030: dc04 bebc 314b 613d 5ea1 523d 8dca 143e
00000040: a43d 9b3d 3b1d babc e1c6 69bd aecf 43bd
00000050: 5dea 92bd 4006 17bc c311 59ba 7c25 da3d
00000060: 3899 18bc f985 c83d 05ab 1bbc 1bdf 16bb
00000070: 91d0 c63d 0a2c 8ebc 0ea7 9a3d 9b97 cdbc
00000080: 9cf6 f53d d5d3 9e3d ad08 e53c 60f6 b33d
00000090: 31a4 f83d 1707 073e 015d 48bd bb0c 24bd
000000a0: da5a 823d 3849 02bd 8991 0abd 9e05 963b
000000b0: da7e 3b3d be7f e23a 20f0 e8ba d737 5fbd
000000c0: 229e 4a3d e716 b53c 4a4f 0c3d a7d4 15bd
000000d0: c413 b13d 13f8 0a3d a62b 963d 9161 0cbd
000000e0: 96f7 b63c 5b94 8dbc bb08 f43d fda9 8d3d
000000f0: 18b6 8a3d 7dd2 2a3d 0dae dc3c ad50 f9bc
00000100: db83 d13c c188 06bd dc24 563d 859e 133c
00000110: fcea 57bd 392e c63c 175c b5bc db20 893d
00000120: 8970 e13c 429f 8b3d d624 8f3d 5846 593d
00000130: 6b06 8b3d f5fe 36bd dd8b 5abd 094d e23d
00000140: 3423 ff3c e1f6 17bd c1e6 14bd 03ea b93d
00000150: 2cb8 de3c 33a3 82bc 7c30 c53d 3761 333d
00000160: 42e0 7dbd e109 ffbc 21d8 d83d 544c fd3d
00000170: 8787 3bbb 3b00 ff3c cc5d 023e da0e 09bc
00000180: 075d f03c d7b1 773d 3f28 af3d da35 fcbb
00000190: 37a5 b43d b00d 0bbd 429b c73a 0c3e 41bd
000001a0: a481 bdbb 8ba5 9bbd 9412 b63a fc80 263d
000001b0: cbe7 f9bc 8dec e73c 456c 2c3d 086b 4b3c
000001c0: 8ba1 65bd 516e f7ba c13e 79bb 25d1 50bd
000001d0: 9ea4 deb9 9a27 b43d f80d db3d 9525 90bc
000001e0: 44f2 9bbd c8fb 243d 94cb 5e3d f6c0 223c
000001f0: 29a7 be3d 1b91 9cbd 19c8 dc3d 6444 253d
00000200: 560f c73d 4c8e 6cbd d047 13bd defd 553c
00000210: 3014 a2bb 68ac be3d 12b8 7e3c 2c7b b03d
00000220: d3e2 223d 1175 22bb d8d9 1ebd 161c 63bc
00000230: 13cf 8fbd 996d 81bb 617d b73c 960f 6fbc
00000240: 5147 2abd 707e 5dbd f79b 55bd 2df0 94bd
00000250: 00d5 54bc 8e03 4c3d d3c7 da3d c599 ae3c
00000260: d22b 533d f1f1 123e b288 843d dafe 1b3d
00000270: b2b9 ffbc aa88 9f3d 3b4e b03d 28e8 a43c
00000280: 005a 873d 9076 1f3e e5d0 ef3d 4c73 a53d
00000290: 8649 78bd a576 043d 93de dbbc 5cdf 81bd
000002a0: 40b0 c5bc af61 983d fb61 ea3a bbc2 a9bb
000002b0: 96dd d93c fee2 d7bc 93ec 643d fb1f 1e3e
000002c0: 5409 f73c 9fe4 0cbd e544 543c b57c 963d
000002d0: c249 0dbd 4b8b 6f3c d6c4 02bc bdaf b53d
000002e0: bcaf fd3d b9e4 c1bc d8fa 5a3d f338 e53d
000002f0: c5bd 5b3c 6475 4cbd d1fb c4bc cb40 19bd
00000300: 29a2 da3c 1617 07bd 42a5 473d 20e3 ff3d
00000310: d1f7 843d 838e ff3d 105d e73d c6ce f23c
00000320: a994 ef3d 513f b2bc 24b9 74bd a0cb 73bd
00000330: 4857 e8bb 1b8e 57bd a1e7 ed3d 9cf3 32bd
00000340: 172b e63d 7946 013e 7143 1b3e 52bd 50bb
00000350: 9b6d a83d b200 07bd 4c18 b13d 497b 813d
00000360: e5b9 dcbc 3ac2 063d 4739 293d 7471 823c
00000370: 0af5 abbb e68c 7d3d 8a8b 163d a9e5 903d
00000380: 6643 dc3d f3af f63d a9cf b53d 3024 a33c
00000390: 2157 9cbd 8d72 db3d 330a 41bd bc66 b03d
000003a0: 69b6 f53c f991 c33c 794a 113d 1792 033d
000003b0: c9ab 0a3c a239 9f3c e992 aabc 0bbd 893d
000003c0: 6c76 a73d 0dee a73d e5af 203d a665 043e
000003d0: 7afe 3ebc cfce a83d 2a22 4f3d a19e 043e
000003e0: 2b4f 943d 8d66 0f3d 1a4a 623d 4897 993b
000003f0: f55f f33d 257d be3d 0d67 ed3d a3c9 043e
-0.056035977 -0.05440227 0.05853878 0.06749932 0.013054553 0.043649167 0.040373877 -0.043716017
0.07695312 -0.031193916 0.045879588 0.09911209 -0.023195677 0.05500335 0.051423423 0.14530392
0.075801164 -0.022719016 -0.05707443 -0.04780548 -0.071736075 -0.009217799 -0.000828054 0.10651681
-0.009313874 0.09791178 -0.009501223 -0.0023021165 0.0970775 -0.017354984 0.075513944 -0.025096705
0.12009928 0.077552475 0.027958238 0.08787227 0.12140692 0.13186298 -0.04891682 -0.040051203
0.06364985 -0.031808108 -0.0338302 0.0045783063 0.045775272 0.0017280502 -0.0017771758 -0.054496612
0.049467213 0.022105647 0.034255303 -0.036579754 0.08646348 0.03392799 0.07332544 -0.034272734
0.022334855 -0.017282655 0.11915728 0.06917188 0.06773013 0.041704644 0.026938463 -0.030433977
0.025575569 -0.032845262 0.052281246 0.009009962 -0.052714333 0.024191963 -0.022138638 0.0669572
0.027519481 0.068174854 0.06989448 0.0530456 0.067883335 -0.04467674 -0.05335604 0.110498495
0.031144716 -0.037100676 -0.036352877 0.09077837 0.02718743 -0.01594696 0.09628388 0.043793883
-0.061981447 -0.03113264 0.10588098 0.12368074 -0.0028614716 0.03112804 0.12731093 -0.008365357
0.029341234 0.060472336 0.08552598 -0.0076968493 0.08820575 -0.0339486 0.0015228766 -0.047178313
-0.0057832766 -0.07599934 0.0013891035 0.040650353 -0.030506035 0.028311038 0.04209544 0.012415655
-0.056062263 -0.0018877481 -0.003803179 -0.050980706 -0.0004246579 0.08796616 0.10696024 -0.017596046
-0.07614568 0.04027918 0.054393366 0.009933701 0.09309227 -0.07644864 0.10780353 0.040348426
0.09719722 -0.057752892 -0.035957158 0.013061015 -0.004946254 0.09310228 0.0155468155 0.08617243
0.039767098 -0.0024789015 -0.03878197 -0.013861677 -0.07021918 -0.0039498326 0.022398653 -0.014591118
-0.04157192 -0.05407566 -0.052150693 -0.072723724 -0.012990236 0.049808078 0.10682645 0.021313557
0.051555462 0.14350106 0.06471385 0.038084842 -0.031216476 0.077897385 0.08608671 0.020130232
0.06608963 0.15572572 0.11709765 0.08078632 -0.060616992 0.03233971 -0.02683953 -0.063414305
-0.024131894 0.07440507 0.0017881984 -0.0051806844 0.026594918 -0.026353355 0.055889677 0.15441887
0.030155815 -0.034397718 0.012955879 0.07348005 -0.03449417 0.014620612 -0.0079815 0.0887141
0.12387034 -0.023668634 0.05346188 0.11192503 0.013411944 -0.04991664 -0.024045857 -0.037415307
0.026688652 -0.032981 0.048741587 0.124944925 0.0649258 0.12478354 0.11297047 0.029639613
0.116982765 -0.021758707 -0.059746876 -0.059520364 -0.007090483 -0.052625757 0.11616445 -0.043689355
0.112386875 0.1262454 0.15162446 -0.0031851125 0.082240306 -0.032959647 0.086472124 0.06322343
-0.02694411 0.032900073 0.04131439 0.01592324 -0.005247717 0.06190195 0.03675417 0.07075054
0.10755043 0.120452784 0.08877499 0.019914716 -0.07633806 0.10715208 -0.047128867 0.08613345
0.029994207 0.023873316 0.035471413 0.032121744 0.008463808 0.019436661 -0.020822005 0.0672551
0.08176884 0.081997015 0.039230246 0.12929401 -0.011657352 0.082425706 0.05056969 0.12951137
0.072416626 0.03500991 0.05524645 0.0046872236 0.11883537 0.09301213 0.11591921 0.12967543

fc.0.weight f4 [554, 64]
00000000: 8293 083b 9c15 2e3e dccd 933d a13f 97bd
00000010: 41cc 073e 1701 253c 6983 0d3e 34b2 6b3c
00000020: b3aa ee3c 43ff 39bd ebfb 0dbd 8264 c03d
00000030: b473 51bd 493b e8bc 1d84 133e a28b d83d
00000040: 7877 03bb 72c5 81bc 124b 73bd fd8d 593b
00000050: 5b44 fb3c 3b0e 193d 4165 143e e07c e53c
00000060: 31e8 fcbb 695d 5f3c bccb 233e 8ea7 16bd
00000070: d5de 47bd 224f 95bd bb83 d43c 7049 a23d
00000080: df62 32bd 8a73 28bd 7b8f b93d e7a0 71bd
00000090: e4e0 ff3d 1258 763d c1b9 1a3d 6702 04be
000000a0: 4818 1dbc 49eb a73d 23c0 b9bd 0877 fb3d
000000b0: 6714 8a3d f3ab d7bb 6547 0ebd e38f 6dba
000000c0: 0928 943d b9e1 a33d 7573 8c3d 3744 ffbd
000000d0: 4103 0d3e f80b 433d ceb0 0c3d 6755 d8bd
000000e0: 5c20 f93c 7713 e83d 687b 6cbd c899 f4bb
000000f0: d92b 2abd d998 88bc 2b36 a93a bdda cfbd
00000100: 46f8 873b e451 d53b 320a da3d 175a 243e
00000110: b4a0 49bd 05f4 e03d f98e 0b3e 2ea4 bf3d
00000120: 1741 86bd c28b e53d f7c8 8abd e594 09be
00000130: a0cc 2a3e 1dcd 7ebd 7a50 4bbe b48a 9cbd
00000140: 9a4f b7bd f290 93bd 7056 e5bc e263 d1bb
00000150: 1fdc f93d dbe3 293d a075 70bd 067b ab3c
00000160: b3bc b23d 4f81 33bc 51a7 213e 3d02 4a3c
00000170: dd94 383d bbad 9c3d 95ac 773d 9fdd 65bd
00000180: e9da 673d cdc3 0bbd 1d64 b0bd d0b1 bc3c
00000190: dcda b6bd c027 0bbe 6d1f d13d 647f 123e
000001a0: 0d4b 163d 7abe 1e3d 411e 843d ab8b 303e
000001b0: 6958 033e 1a73 01bc 5dda f1bb 50de 6a3c
000001c0: fb43 85bd 6725 323e cbe5 34bd 332f 3f3e
000001d0: f3bc 98ba 9b65 3f3e 88a7 0c3e 1274 2d3e
000001e0: 21d8 21bc b4b0 f7bd 2248 9abb 30cf 4dbd
000001f0: 11bf a5bd bcbe 923c fa51 b9bb d675 933d
00000200: ca53 18bd 11be a4bd 8e0d 363c 038d e3bd
00000210: 878e 59bc 9d6e ac3d c764 85bd bc17 bbbc
00000220: a253 38bd 9513 a23d a43e 76bd dec6 883c
00000230: 3541 903d 3d1c c83d ebe7 c83c 5688 2bbd
00000240: a24c ad3b df88 c93b acc9 153d dba6 b43d
00000250: b5db 2dbd b85f 5cbd 8e22 0d3e a3dc 96bd
00000260: 3359 4dbd 6a79 23bd 4bec 8cbc 8242 f8bd
00000270: 7e8f c7bd 9e0a ad3d 762b a23c 020c 0b3e
00000280: 9c29 f0bc 3f37 743c 1c08 943d bd50 2e3d
00000290: 2285 e63d da81 773d 2a92 49bd 2e4c 3a3d
000002a0: ea47 3d3d a365 9dbd 1f0b d1bd bcc7 99bd
000002b0: cf32 95bc 107f c3bd 60b9 9b3d feea 273a
000002c0: 2445 143d de10 43bd 9933 8abd 3aff 083e
000002d0: 641f a5bc b55a ce3b f600 92bd 78f0 653d
000002e0: 30c7 34bc bed0 1dbd 932f 1e3e 741f c9bc
000002f0: 6e42 983d 7991 8bbb 106a b73d db40 83bc
00000300: 98aa a63d 5a72 e53d 3f4d 9fbc 992a 003e
00000310: 1f0a fa3c 787e 153e c10b 7d3c edbb 1abe
00000320: 7182 2bbd 71b4 f43d 97e6 18bb f459 673d
00000330: 908d 3fbc 4c14 1a3e 9fb6 74bd 9c6f f83c
00000340: b417 ce3d 9aaf 9abd 024a 95bd dc7a d5bc
00000350: 4006 e03d ee70 c33d 9818 5d3d e16c a4bd
00000360: 5ffe ce3c ff0b 673c a1a2 88bd 383c fa3d
00000370: 6038 a53d b534 ef3d 2cbe 213c 73ac 593d
00000380: fabf 48bc 990a 89bc fec5 d7bc 2ccb b3bd
00000390: b298 bdbd 7301 f6bd 4462 b53d aafe 97bd
000003a0: 66e6 5cba 6d66 dcbc f917 843d be47 81bd
000003b0: ed01 3c3d 6a6e 9e3d dd27 a23c 1416 82bd
000003c0: 04ef ed3d 8cd2 9a3b 10ef ccbb d3db be3d
000003d0: c311 8b3d 29c0 223d 219f d43c 9656 83bd
000003e0: 8105 84bd 84d1 8ebc a1e4 9b3d 8597 9e3d
000003f0: 5687 adbd cbc8 9c3d b903 943d 3965 88bd
0.0020839875 0.17000431 0.07216999 -0.07385183 0.1326151 0.010071061 0.1381966 0.014385749
0.02913413 -0.045409452 -0.034664076 0.0939417 -0.051135734 -0.028348582 0.14405866 0.10573508
-0.0020060223 -0.01584122 -0.059397765 0.0033196204 0.030672243 0.037367087 0.1449175 0.028013647
-0.007718109 0.013633111 0.15995687 -0.036780886 -0.048796494 -0.07290484 0.02594172 0.07924163
-0.043551322 -0.04112581 0.0906057 -0.05899134 0.12494066 0.060142584 0.037774805 -0.12891541
-0.009588309 0.08199174 -0.0906985 0.12278563 0.06742173 -0.0065817772 -0.034736056 -0.00090622733
0.072341986 0.080020376 0.06857959 -0.12464183 0.13770773 0.047618836 0.0343483 -0.10563164
0.030410938 0.113318376 -0.057734877 -0.007464621 -0.041545723 -0.016674446 0.001290982 -0.10149143
0.0041494695 0.0065100063 0.10646476 0.16049992 -0.049225524 0.10984043 0.13628758 0.09357487
-0.06555384 0.11208297 -0.06776612 -0.13435705 0.1667962 -0.06220733 -0.19854918 -0.07643643
-0.0895073 -0.072053805 -0.027995318 -0.006390081 0.12200188 0.041477066 -0.058705926 0.020932686
0.08727398 -0.010956123 0.15786482 0.012329635 0.045063842 0.07650324 0.06046732 -0.056119557
0.056605253 -0.034122277 -0.08612845 0.023034006 -0.08928463 -0.13589382 0.10211072 0.14306408
0.036692668 0.03875587 0.06451083 0.17240779 0.12826695 -0.0079009775 -0.0073807673 0.01433523
-0.06507107 0.1739708 -0.04416446 0.18670349 -0.0011652991 0.18691103 0.13735783 0.16938809
-0.009878189 -0.1209425 -0.004708306 -0.050246418 -0.08093084 0.017913215 -0.0056555243 0.0720021
-0.037189282 -0.08044065 0.01111163 -0.1111088 -0.01327861 0.08419535 -0.065133624 -0.022838466
-0.045001633 0.07913891 -0.060118333 0.01669639 0.07043687 0.09771011 0.02452465 -0.041878067
0.0052886764 0.0061503495 0.036569282 0.08820888 -0.042445857 -0.053802222 0.13782713 -0.07366302
-0.050133895 -0.03991071 -0.017202517 -0.1212206 -0.09744166 0.08449291 0.019796114 0.135788
-0.029316716 0.01490575 0.07228109 0.042557467 0.11255862 0.06042657 -0.04921166 0.045482807
0.04621116 -0.07685401 -0.10207199 -0.075087994 -0.018212704 -0.095457196 0.07603717 0.0006405561
0.03619875 -0.047623508 -0.06748123 0.13378611 -0.02015657 0.006297434 -0.071290895 0.056137532
-0.011033818 -0.03852915 0.15447836 -0.02455113 0.074345455 -0.004259285 0.08955777 -0.016022136
0.08138007 0.112034515 -0.019446013 0.1251625 0.030522404 0.14599025 0.015444697 -0.1511075
-0.041872445 0.11948479 -0.0023330802 0.05648227 -0.011691466 0.15046805 -0.059744474 0.030326657
0.10063115 -0.075530246 -0.072895065 -0.02605956 0.10938692 0.09543024 0.053978533 -0.080285795
0.025267778 0.014101981 -0.06671644 0.12218517 0.08067393 0.11679975 0.009872001 0.053142976
-0.012252802 -0.016728686 -0.026339527 -0.08778986 -0.0925764 -0.12011995 0.08856633 -0.0742162
-0.0008426666 -0.02690431 0.06449885 -0.06312512 0.045900274 0.077359036 0.019794399 -0.06351867
0.11617854 0.004724806 -0.0062540844 0.09319272 0.06790497 0.03973404 0.025954785 -0.06412999
-0.06446362 -0.01743389 0.07611967 0.07743744 -0.08473079 0.07655486 0.072272725 -0.06659932

fc.3.bias f4 [277]
00000000: b9eb bcbb a14b 3cbc dd7f 5fbd 2ae4 bcbc
00000010: 9548 9ebb 9a09 ccbc 0d01 3d3c 22d2 dbbc
00000020: 9eca e1bc bbca e7bc 3a81 4bbd 4068 8bbc
00000030: e7d8 083b aed0 a23c 1ee7 2c3c 568a 32bc
00000040: 6cbd 6fbc 2931 3abb 29ec e0bc cf81 093c
00000050: 6f1b f1bc a880 42bc c2ce ce3c ccd0 163d
00000060: 269c 86bb dd2c 843c 2904 dfbb 08c6 39bc
00000070: 9eb8 26bd c6f3 9e3c b359 03bd 2855 38bc
00000080: 93ac c93c 56d5 283c 60e3 f839 8267 b53c
00000090: c757 0ebd ae06 1dbc 72b1 cebc 1485 6f3c
000000a0: 1390 fbbc 226a 55bd cdab 71bd 7e2d 52bd
000000b0: d1be a13c e329 913c a000 393b aa04 d0bb
000000c0: 9908 fe3c d4b6 a4bc 367e 003c 180a f7bc
000000d0: 5764 8c3c a424 6bbd 906e c53b 4ad3 fd3c
000000e0: e830 733d c5d4 b43c 7f93 88bc 605d 68bb
000000f0: e85b 91bc 97ad 9dbd 1f2c 02bc 18a8 933b
00000100: b25e c5bc 3e91 cfbc c3b8 713d 0e09 fcbb
00000110: 2d27 62bc ace1 51bd d98c 6dbb f4c8 f2bc
00000120: 45c5 bbbc 7dfe 553c f848 dbbc e255 3fbc
00000130: 437c 87bc 75fa 233c 1875 143a 979e fdbc
00000140: 61da 61bd 02da c5bc a859 f93c f1fb 323c
00000150: fa5b 7f3d cd29 323d b923 85bc 38fd 833b
00000160: 7e94 40bc a85a d4bb 4e9e 85bc 0dc1 9e3c
00000170: f663 7e3c 5891 42bd 6960 c93c e110 90bc
00000180: ef59 39bc a059 5dbd 8c53 cfbb 6c00 47bc
00000190: 2434 8cbc b5c4 bdbc b0dd 1a3d f375 72bb
000001a0: 6d25 a2bb 57fe 86bd 0c55 8d3c 568c 923b
000001b0: 3f60 083d e134 65bb 5214 da3c f898 84bc
000001c0: 5a25 c8bc 6e62 77bc cc64 92bb 8927 c6bc
000001d0: 1a5e a8bc a30d 1abd 7693 34bb 0916 153c
000001e0: d789 463b 54e7 63bd acf5 1bbd d884 90bb
000001f0: e345 c73c 9241 38bc 08ec 93bb 3845 9e3b
00000200: 197d e3bc fb44 1c3c a065 eabc 85af 8fbc
00000210: 38ef 86bd 2bd4 7e3c 6186 09bc 7a6b 33bd
00000220: d4f4 533c d9aa b6bb f1be 843c 80cb b13c
00000230: 298e d4bb 5b65 de3b 5c46 f1bc ac3b babc
00000240: 0dd1 15ba b992 6bbc eb03 91ba 5c97 053c
00000250: 4231 693c 6858 6b3d 7cf9 003d 332d 77bc
00000260: 25cb 16bc d9d2 833b 40d3 813c 8554 54bd
00000270: cbe0 e13c a42a 0cbc 9fdb 28bd b5a5 bcbc
00000280: 3560 c7bb 16ef 7a3d 317b a93c be21 2e3d
00000290: 02ac 063c 95d3 88bd f313 0a3b f47c 8e3c
000002a0: accc fa3c b82e afbc ccad 2abc d59e d83b
000002b0: a060 08bd 586b 113d 8e4a e5ba d01d 673c
000002c0: 7d75 c6bc 234d 8ebc 4383 8fbb f61a 103c
000002d0: 198d 82bc ab3d 793b fac0 53bd 4f3d 8f3c
000002e0: 6c8b e3bc c010 d9ba 461c 1c3b 564a edbc
000002f0: de40 dd3b d3cf 89bc 159e ffbc f6be 9e3c
00000300: 3877 d5ba c63e 85bc d155 dbbb 6a16 083d
00000310: 748e 053c 19b2 09bb 10e3 96bb b59f 11bd
00000320: 8c4a c2bc 5379 3f3c 3545 db3a ac77 353c
00000330: ecd9 953c 1aec 2b3c e753 003b 6aa3 99bc
00000340: 5eb0 dd3c c7b2 d1bc 195e 7c3c 3328 bf3a
00000350: ca62 e43b 2a8a f43a cf31 6fbd d9c0 013b
00000360: e1e8 b6bc 30ee 46bc 5d6a a7bc 5895 9bbb
00000370: 78ad b2bc c79b 7ebc d858 803c 469e e03c
00000380: af5f 8d3c 0f08 38bc 3625 60bd 0c1b 4ebc
00000390: 58af 83bc a9c0 1b3a a991 47bd 2cc7 91bc
000003a0: f91c dd3b 4ada 39bd f1e6 f4bc 8669 2cbc
000003b0: b222 b23b d290 bdbc 5f88 66bc 0455 0cbb
000003c0: fade 703d 248c 8b3b ff89 013b 32ba 433d
000003d0: 48ae 23bc 8c9b 28bd 6ef3 d9ba 73be 1a3c
000003e0: 4da3 84bb 033d c93c 9b2d 973c df6d 12bc
000003f0: f51a fa3c 565c a4bc b997 00bd 76fa 39bc
-0.005765405 -0.011492641 -0.0545653 -0.023058016 -0.00483043 -0.024906922 0.011535895 -0.026833598
-0.027562436 -0.028294912 -0.049683787 -0.017017484 0.0020881237 0.019874897 0.0105531495 -0.01089724
-0.014632564 -0.002841065 -0.02745636 0.008392765 -0.029432027 -0.011871494 0.025245074 0.036820218
-0.00410797 0.016134674 -0.006805916 -0.011338718 -0.04070341 0.01940335 -0.032067966 -0.011250772
0.024618423 0.0103047695 0.00047471654 0.022144083 -0.03475168 -0.009584112 -0.025231097 0.014619131
-0.030708348 -0.05210317 -0.059001733 -0.051312916 0.019744309 0.017720168 0.0028229132 -0.0063482122
0.031009959 -0.02010671 0.007842591 -0.03015618 0.01713769 -0.05740799 0.006025143 0.03098454
0.059372813 0.022074113 -0.016671894 -0.0035456046 -0.01774402 -0.07699125 -0.00794509 0.0045061223
-0.024093006 -0.025337812 0.059014093 -0.007691509 -0.013803286 -0.051240608 -0.0036247282 -0.029636838
-0.022921214 0.013061163 -0.026768193 -0.011678191 -0.016538745 0.010008444 0.00056632 -0.03095941
-0.055139903 -0.024151806 0.03043826 0.010924325 0.062343575 0.043496896 -0.016252385 0.0040279888
-0.011754153 -0.0064805336 -0.016310837 0.019379163 0.015526762 -0.04750189 0.024582105 -0.017586173
-0.011312946 -0.05404055 -0.0063270982 -0.012146097 -0.017114706 -0.023165086 0.037809074 -0.0036996573
-0.004948309 -0.0659148 0.017252468 0.0044722958 0.033294912 -0.0034974145 0.026621018 -0.016186222
-0.024431873 -0.015099151 -0.0044675823 -0.024188774 -0.020552684 -0.03761066 -0.0027553714 0.009099492
0.0030294561 -0.055640534 -0.038076088 -0.0044103675 0.024325317 -0.011246102 -0.004514221 0.004830029
-0.027769612 0.009537931 -0.028612912 -0.017539749 -0.06588596 0.0155535145 -0.008393855 -0.04380367
0.01293679 -0.005574566 0.01620433 0.021703482 -0.0064866734 0.006786985 -0.029452495 -0.022733532
-0.000571505 -0.014378243 -0.001106379 0.008153763 0.014232935 0.057457358 0.031487927 -0.01508646
-0.009203707 0.0040229377 0.015847802 -0.051838417 0.02757301 -0.008555088 -0.041225072 -0.023028234
-0.006084467 0.061263166 0.020688625 0.042512648 0.008219721 -0.06680981 0.002106902 0.017393567
0.030615173 -0.021384582 -0.010417413 0.006610731 -0.033295274 0.03550276 -0.0017493533 0.014106229
-0.024225945 -0.017370766 -0.0043796613 0.0087954905 -0.015936421 0.0038031142 -0.05169771 0.017485289
-0.027776442 -0.0016560778 0.0023820563 -0.02896611 0.0067521175 -0.016822731 -0.03120331 0.019378167
-0.001628614 -0.016265284 -0.0066935797 0.0332245 0.008151639 -0.0021010695 -0.0046047047 -0.0355527
-0.023717187 0.011686641 0.0016728999 0.011075895 0.01829239 0.010493303 0.001958126 -0.01875468
0.027061637 -0.025597943 0.015403294 0.0014584124 0.0069697844 0.0018656899 -0.05839711 0.0019798784
-0.022327842 -0.012141749 -0.02043646 -0.004748028 -0.021811232 -0.01554007 0.015667364 0.02741922
0.01725754 -0.01123239 -0.054722987 -0.012579691 -0.016074821 0.00059414894 -0.048722897 -0.017795168
0.0067478386 -0.045374192 -0.029895278 -0.010523206 0.005436265 -0.023140345 -0.014070599 -0.0021412978
0.058806397 0.0042586494 0.001976609 0.04778499 -0.009990282 -0.041163966 -0.0016628334 0.009444821
-0.0040477873 0.024565225 0.018454364 -0.008937328 0.030530432 -0.02006356 -0.031394694 -0.011351218

fc.3.weight f4 [277, 554]
00000000: cb09 173d 54eb c8bc 103a f63c 3326 b33c
00000010: 2dd3 92bd 8de5 dcbc a618 573c 9557 b1bc
00000020: 3de8 353c e5a7 3ebd 7f3d 1abd 314d 4bbd
00000030: ee47 0fbd 930b 32bd a2b9 0ebd 8b48 54bd
00000040: a990 f6bc ac54 1ebd 4518 80bc f4f6 a7bc
00000050: e895 243d 7013 883d caba a63c 083b cebc
00000060: eb0c 01bd aab1 40bd 1db9 863d 82d6 133d
00000070: 3eff 023d 3ec0 603d 0359 0dbd c424 453d
00000080: 410f 843d d640 463d 5360 3bbd 6236 153d
00000090: a9dc 12bd 595a 6cbb 10e4 063d 69ee 47bd
000000a0: 0430 0a3c 28ab 283d 6287 20bd 9957 cd3c
000000b0: b217 d43c d996 bcbd 5c29 143d b99b 33bd
000000c0: c38c f43c a1af 8fbd ccfc 0e3d c44c 893c
000000d0: fd57 23bd fb0e 60bc 69f9 0f3d 62af 18bc
000000e0: a99d 4a3c 86f0 7cbd 1e45 2dbd 1a16 48bd
000000f0: 6064 89bd 0a67 a83c 21d1 193d 8696 3dbc
00000100: ee43 9c3c 8850 bb3c 13d4 623d 7e5a 963c
00000110: ffd1 81bc 81c2 383d 93c0 b43a dd77 1a3d
00000120: 29ee 2d3d edf5 24bd e344 09bd ff2c ddbc
00000130: fa22 b2bc 4684 1abd 4109 113d bca7 8c3d
00000140: 8590 fdbb d4d8 013d cb4d f9bc c492 2ebd
00000150: 6bd8 403d 2483 0e3d c05d c9bd 9e46 2bbd
00000160: a841 b0bc 2fb7 313c 137d 053d aa58 0dbd
00000170: d9bd 813d 84b5 84bc 0b81 08bd ede1 b03c
00000180: 6a24 8e3d b42f d13c a4dc 0cbd 6f5c c33c
00000190: 716b ad3d 0fe6 833c 90d6 3bbc 8fdb 933c
000001a0: ceb6 5cbd b21c 95bc 02d5 e43c 47ee 203d
000001b0: f074 90bd 19ce f73c d67c 973d 6fda debb
000001c0: f4a0 2e3d 0e25 c4bb 79e2 d53c 6eef 0bbc
000001d0: 00fc 62bb 3679 a53c 061e 64bd 7d0a 8b3d
000001e0: 2433 61bd 0905 8dbd 7f03 3abd 8432 9c3c
000001f0: b0d1 d93c 677b b83c 1d92 5bbb 5224 383c
00000200: 00dc 09b6 18f8 893b ed13 90bc 7df0 133d
00000210: 7b8d 34bd 6bc2 483d 4972 c6bc 6be0 823d
00000220: 95af 19bd 00a1 50bd 201a 4ebd 9451 3ebd
00000230: ca47 183d eb7e b4bc 123b 333d 8456 2d3c
00000240: a21b 48bd a41d 7c3c 91a3 05bd ddb3 003d
00000250: 5912 123d 872a 253d 45f3 55bd c6a8 9bbd
00000260: 04c1 cdbc 25dc 533d d659 43bd 35f0 113d
00000270: 4f31 20bd ff14 a43c d474 62bd dfc0 473c
00000280: 4f01 853d 46ab 8b3d ddf8 e6bc 86c3 f53b
00000290: bed0 98bb 60af 083c ba64 af3d c340 97bd
000002a0: 9ccc d1bc 708d 39bd c59f 333d bca6 5ebd
000002b0: 5f64 ee3c e928 6b3c b43d 6dbc 7a66 fcbc
000002c0: 6495 0f3d db87 ad3c c3e4 9cbd 869c 973c
000002d0: 8bff e8ba a2c5 a23b 1284 ee3c 0f5a a6bc
000002e0: 46d1 033d daee 7e3c 5fe9 14ba 48fb 483d
000002f0: 2ebf f13c 8c77 963c 680a f8bc a1fc 6dbd
00000300: c7ea 3c3d 1cb4 31bd 7b1e 12bd 78d1 833d
00000310: c997 5b3b 188d a8bc 6ba8 d1bc 620f 0fbd
00000320: dbaa 823c ca9d d0bc e201 263d ef4f 79bd
00000330: 4197 3e3d 6a60 89bd 65d2 30bd e395 41bc
00000340: 7b1f 88bd 88db 9dbc 6b37 85bc 17a8 983d
00000350: 5277 94bd 4d14 53bd 02f7 193b 2eba 413d
00000360: 0a78 03bd a254 413c d7c7 b73c 74f9 133d
00000370: 4f2f 153b c18f 22bd 1da7 a7bc 6b6a 06bd
00000380: 895f 013d e50f 45bd 59e4 88bc 1984 1cbd
00000390: 4b93 8dbc 2d07 a7bc 564b 30bd 0169 a3bc
000003a0: a402 fabc 6aa7 293d bd62 3c3d 8f10 2fbd
000003b0: 33b1 1fbd 84bc 423d b8b6 a23c 5022 1c3c
000003c0: a794 253d ef17 3a3d 2f67 7e3c 7dd2 2e3d
000003d0: 6532 33bd 2ac1 43bd ff58 1abd 6f3a 12bd
000003e0: 8a05 303d 5fcc 793d cd54 103d 0d6a 473d
000003f0: 1d8b b93a 5cd5 393b d250 59ba 7627 14bd
0.036874574 -0.024526276 0.030056983 0.0218688 -0.07169185 -0.026964927 0.013128435 -0.021648208
0.011102733 -0.046546835 -0.037656303 -0.049634162 -0.034980707 -0.04346807 -0.034845002 -0.051826995
-0.030098276 -0.03865497 -0.015636573 -0.020503499 0.040182024 0.066443324 0.02035274 -0.025174633
-0.03150646 -0.047044434 0.06578276 0.036093242 0.0319817 0.054870836 -0.034508716 0.048130766
0.06448222 0.048401676 -0.04574616 0.036428817 -0.03585497 -0.0036064594 0.03293234 -0.04881135
0.008434299 0.041178852 -0.03919161 0.025066184 0.025890205 -0.092084594 0.036172256 -0.04384968
0.029852277 -0.070159204 0.034909055 0.016760238 -0.039878834 -0.013675447 0.035149965 -0.009319158
0.012366691 -0.06175282 -0.042302243 -0.048849203 -0.06708598 0.020556945 0.037552956 -0.011571532
0.01907536 0.022865549 0.05537803 0.018353697 -0.015847204 0.04510737 0.0013790302 0.037711967
0.042463455 -0.040273596 -0.03351296 -0.026998995 -0.021745194 -0.037723802 0.035409216 0.0686793
-0.0077381753 0.031700924 -0.030432602 -0.042620435 0.047081392 0.034793034 -0.098323345 -0.041815393
-0.021515682 0.010846897 0.032589983 -0.034508385 0.06335039 -0.016199835 -0.03332619 0.021592105
0.06940539 0.025535442 -0.034390107 0.023847787 0.084677584 0.016100911 -0.01146473 0.01804903
-0.053885274 -0.01820216 0.027933601 0.03928974 -0.07053554 0.030249642 0.073968574 -0.0068009417
0.042633966 -0.0059858626 0.026108967 -0.008540971 -0.0034635067 0.0201994 -0.055692695 0.0678911
-0.054980412 -0.06885726 -0.04541349 0.019067056 0.026589245 0.02251978 -0.0033503838 0.011239128
-2.0542648e-06 0.0042104833 -0.017587626 0.03611802 -0.04408024 0.049013536 -0.024224417 0.063904606
-0.037520964 -0.05093479 -0.050317883 -0.046464518 0.03717784 -0.022033175 0.043757506 0.010579709
-0.048854478 0.015387926 -0.032626692 0.03142153 0.03566203 0.04032376 -0.052233953 -0.0760055
-0.025116451 0.051723618 -0.047693096 0.03562947 -0.039109524 0.020029543 -0.055287197 0.01219198
0.0649439 0.06819777 -0.02819484 0.007500115 -0.004663556 0.008342594 0.08564134 -0.07385399
-0.02561026 -0.0453009 0.04385354 -0.05435823 0.029100595 0.014353015 -0.014480043 -0.030810583
0.03505458 0.021182945 -0.0766082 0.018507253 -0.0017776353 0.0049674073 0.02911571 -0.020306615
0.032182 0.015559876 -0.0005680527 0.049067765 0.029510107 0.018367551 -0.0302784 -0.058102254
0.04612234 -0.043384656 -0.0356736 0.06436437 0.003350722 -0.020575091 -0.025593003 -0.03492678
0.01595061 -0.025465865 0.04052914 -0.060867246 0.046530966 -0.06707843 -0.043169398 -0.011815521
-0.066466294 -0.01926972 -0.016261777 0.074539356 -0.07249321 -0.051533032 0.0023493175 0.047296695
-0.0320969 0.011799963 0.022434158 0.03612657 0.0022763794 -0.039687876 -0.020465428 -0.03281633
0.03158525 -0.04811086 -0.016710447 -0.038211916 -0.017282149 -0.020389164 -0.043040596 -0.01994753
-0.030518837 0.041419424 0.0459926 -0.0427404 -0.03898735 0.047543064 0.019862518 0.009529665
0.04042497 0.04543298 0.015527531 0.042681206 -0.04374923 -0.047791637 -0.03768253 -0.035700258
0.042974032 0.06098592 0.035237122 0.048685122 0.0014155839 0.0028355932 -0.0008289936 -0.036170445
