inventory/ark_material.onnx (onnx, 709474 bytes, 8 tensors)

35 f4 [8, 3, 5, 5]
00000000: e814 4b3f 9674 183f 4b9c dbbe 7698 093f
00000010: cb89 c5be fe84 cbbe e1b1 893f 0ae8 443d
00000020: abf1 073f b967 30bf ebcd b1bd 1253 e6be
00000030: 8435 733f ac22 333f f58d 1ebe 3ae3 6a3d
00000040: 48b6 833d 75c8 42bf 965d 07be 65e0 613f
00000050: 810b 08bf bb92 acbe 35de 453e 0647 103f
00000060: ee03 d83c d2c3 063f eb1d 8cbe 0b81 1abe
00000070: a1b8 53bf af49 fabe 8e6b af3e 6b5d 343f
00000080: 8f9e d33e 877e 96be cde8 55bf 002f 66be
00000090: cb33 abbe a6c9 e1bd e19c ea3e 6ba5 9b3e
000000a0: 69bd 2a3d 53c8 dc3e fc56 f73e ca03 dbbe
000000b0: 19ba 3ebe 3cc4 fabe 4509 ccbe 894e 13bf
000000c0: ab3f 26bf 8cdd e83e 7c77 8b3f a0d7 93be
000000d0: 85d2 ee3e d142 41bf c4e6 51bf 3a1b 823d
000000e0: 3c36 a33d f872 22be 698f 233f 0efa 193f
000000f0: 2e4a 383e 27c9 a63e b8f9 4b3e 067f fbbd
00000100: 61bf 0e3d 00fe 3dbf 5c07 3dbe 133e 0a3f
00000110: b6ee b3be 852b bfbd 8915 a7be 3236 44bf
00000120: fb88 c83e 1fac 02be 9004 883d c990 28be
00000130: 1212 8f3e 472e cd3d 73a8 973e 7b80 243c
00000140: 4dc2 bbbd 46d1 8f3d dc52 abbd da49 0d3e
00000150: e507 593e 1c83 20be 949b 5f3e 419b 58bd
00000160: 5e5c 333d d111 853e 3930 763e c0cd 6c3e
00000170: 7dc6 813d 3225 973e b4a3 d33d d508 ca3e
00000180: 2c5d a03e bf5a 6b3d 975c 293e 14ed d03d
00000190: 7ee5 733e 4e55 86bd 61b5 ef3c e2de a6bd
000001a0: a000 43be 4c40 a3bd 2e00 ec3d e9f6 863d
000001b0: 7367 d0be 32d2 5abe aa50 98be 0150 953d
000001c0: 5904 08be 96eb 963d 9afc 9c3c 783f 86bd
000001d0: 2e14 05be c6fd ffbc 7c02 41be fad0 45bd
000001e0: 62f4 a43e 2b5e 65be 4c8e 143d adbc da3d
000001f0: 8c8a 583e e679 3ebe 2293 4abd 5f41 5fbd
00000200: 1355 40be d095 1bbe 2b03 a13c e05e 0abe
00000210: a2d8 9b3e 34f3 1cbd 6127 2d3d 2f7b 4f3e
00000220: 084e a3bd 1fe8 6c3e a6d7 5b3e 8f01 d33e
00000230: c702 013e b001 bb3e 24db 3dbe a466 b8bd
00000240: 2c79 2a3d f150 df3e c2fb d13d 96a9 313d
00000250: ff8b 2bbc 4558 b03e cf73 ef3d f7c3 6abe
00000260: 9806 833c e92c 5fbe bc87 78be f82a debd
00000270: de6d 983e 93fd f73c 4b11 2f3e 927b f5bd
00000280: 5a0f cb3e 8f03 dc3e 21c5 a73e bda8 21be
00000290: d39e b2be 8922 6f3e bde9 663d 7c6e 713e
000002a0: c228 593e 8619 b33e 23b8 bdbd 600b 51bd
000002b0: 7a82 453e 8bdd 663e 9f48 afbd c222 c73d
000002c0: 371c dcbd f15d 2d3e 2eae 02be b98c f03c
000002d0: 9b76 863e 102c b13d 3789 12be 865c edbd
000002e0: 33ba dcbd 7540 363e fa7f 8a3e 3932 0bbe
000002f0: 2e41 67be 94f2 753e de78 5abd 91a1 c93e
00000300: 1a07 b33c 9361 f03d ee4e 7d3e 1b50 b73e
00000310: ad29 a93e 96ff b63d 0dbf ba3e 910c ddbd
00000320: 5300 783e 9e22 42be e89f bfbc ae61 54be
00000330: 0634 583d cb28 8abe d9fc 9d3d d758 723e
00000340: 027e f0bd 9098 49bd 2c32 553d d2de 0dbe
00000350: 1d1a 153d 4a9d 253d 8ac2 57be 3edb 09be
00000360: 6a3c 9b3d be35 993e 82d5 1ebe b013 b1be
00000370: 7c3b 1a3e 6629 20be caca 1fbd c98f 80bd
00000380: f9c8 973e 7b94 61be 3a03 f5bd e1db 203e
00000390: d866 b5bd 0136 d73e 630d a7be e735 5dbe
000003a0: acc5 c6bd eb1b 8b3e 075d 653e 7064 703e
000003b0: b911 eebd b63e a4bd 9588 09be 89fe 733b
000003c0: 79c4 3dbd 8a5c f0bd deae b73e ff03 923e
000003d0: 73d5 b5bd a76e 493e b07c 0a3e 2716 a33e
000003e0: 6d44 e4bd 30da d5be 7a7a 58be 2bf7 19bd
000003f0: 95a3 5ebd 7196 513e d06a b2bc 8df1 6ebe
0.79328775 0.59552896 -0.4289268 0.5374826 -0.3858169 -0.39749902 1.0757409 0.048072852
0.5310313 -0.6890827 -0.08681854 -0.44985253 0.95003533 0.6997478 -0.1548384 0.057345606
0.06431252 -0.76087123 -0.13219294 0.88233024 -0.53142554 -0.33705696 0.19323047 0.56358373
0.026369061 0.5264255 -0.27366576 -0.15088288 -0.82703596 -0.4888434 0.34261745 0.70455045
0.41331908 -0.29393408 -0.8355835 -0.22478867 -0.33437952 -0.110247895 0.45822814 0.3039964
0.04168454 0.43121585 0.4830855 -0.42776328 -0.18625678 -0.4897784 -0.39850822 -0.5754171
-0.649409 0.45481527 1.0895839 -0.28875446 0.4664499 -0.7549258 -0.81992745 0.06352849
0.07969329 -0.1586417 0.638907 0.6014718 0.17997047 0.32575342 0.19919479 -0.12280087
0.034850482 -0.742157 -0.18459839 0.5400097 -0.3514306 -0.093344726 -0.32633618 -0.76645195
0.39167008 -0.12760971 0.06641495 -0.16461481 0.27943474 0.10018592 0.29620704 0.010040398
-0.09167919 0.070223376 -0.083654135 0.13797703 0.21194418 -0.15675014 0.21836692 -0.052882437
0.04378926 0.25990155 0.24041833 0.23125362 0.06336687 0.29520565 0.10333958 0.39459863
0.31321084 0.05745959 0.16539226 0.10201469 0.23818013 -0.06559239 0.029261293 -0.0814798
-0.19043207 -0.07971248 0.11523472 0.06590063 -0.40703925 -0.21369246 -0.29749042 0.0729065
-0.13282908 0.07369153 0.019163419 -0.065550745 -0.12995979 -0.031248938 -0.18848604 -0.048295
0.322177 -0.22399203 0.036268517 0.10680518 0.21146601 -0.18601188 -0.049456723 -0.054505702
-0.18782453 -0.15193868 0.01965483 -0.13512754 0.30438715 -0.038317874 0.042273883 0.20261835
-0.07973868 0.23135422 0.21468982 0.41212127 0.12598716 0.36524725 -0.18540627 -0.09003952
0.041619465 0.4361644 0.10253097 0.04337462 -0.010470389 0.34442344 0.116920106 -0.22926317
0.015994355 -0.21794476 -0.24270529 -0.108480394 0.29771322 0.03027228 0.1709644 -0.1198646
0.3966015 0.42971465 0.32767585 -0.15787025 -0.34886798 0.23353018 0.056375254 0.23577303
0.21206954 0.3498041 -0.09263637 -0.05103624 0.19288054 0.2254545 -0.08558773 0.097234264
-0.10747569 0.16930367 -0.12761757 0.029363977 0.26262364 0.086509824 -0.14310156 -0.11589913
-0.10777702 0.17798026 0.27050763 -0.13593377 -0.22583458 0.24018317 -0.053337924 0.39381078
0.021853972 0.11737361 0.2473714 0.35803303 0.3303961 0.08935468 0.36473885 -0.107934125
0.24218874 -0.18958518 -0.023391679 -0.20740387 0.05278399 -0.26984248 0.077142425 0.23666702
-0.11742784 -0.04921776 0.0520498 -0.1385453 0.036401857 0.040433206 -0.21070305 -0.1346254
0.075798824 0.29923815 -0.15511134 -0.34585333 0.15061754 -0.15640792 -0.039011754 -0.06277425
0.29645517 -0.22029297 -0.11963506 0.15708877 -0.088575065 0.4203339 -0.326274 -0.21602593
-0.09705672 0.27169737 0.22398768 0.23475814 -0.11624474 -0.08019774 -0.13431008 0.0037230572
-0.04632995 -0.117364004 0.358756 0.28518674 -0.08878603 0.19671117 0.13524127 0.31852838
-0.11145864 -0.41768026 -0.21140471 -0.037589233 -0.054355223 0.20467545 -0.021779448 -0.23334332

36 f4 [8]
00000000: 649f 9fbe a8ea d9bf 729a abbf 330e dcbf
00000010: 983e c43f 58ee e73f 81de ccbf f669 fe3f
-0.31176293 -1.7024736 -1.3406508 -1.7191833 1.5331602 1.8119612 -1.6005403 1.9876087

38 f4 [16, 8, 3, 3]
00000000: 637d 45bf 9263 003f 4e3d 9abf 8390 0cbe
00000010: 27c3 843f 81db c1bf ee46 b6bf fbed 743f
00000020: bcf2 863f 8398 e43e fdbd d4be a5e2 043e
00000030: 0607 99be 7d66 55bf fb1c aebc ee09 cabf
00000040: c3d9 b73f 1c61 8dbf f1e0 573f e82a b1be
00000050: 6c27 fdbe 0b20 a93f 1d7e 52bf 0a5c 03be
00000060: 769d c7be 4308 06bf c256 b13f a0a5 19bd
00000070: dae6 2abf a21d f93e fa6c dc3f a1b1 0dbf
00000080: 6056 7dbe 7168 6e3f e327 db3e a4d1 813e
00000090: 940c 343f fe41 3f3e 9314 6c3e 4125 7b3f
000000a0: 3a52 86bf 633b 723f 2d7b 70bf 6717 d5bf
000000b0: d297 ac3f 84c5 59be 2d33 93bf f188 95bf
000000c0: 808b aa3f 037e 17bf 1edd 53be 512f 53bf
000000d0: ab2f 3fbe 2700 84bf 26b5 5dbe b85e 46bd
000000e0: 951b 9c3f 2581 54be c849 b43d 4ec9 35bf
000000f0: 9256 8dbf f70c 3fbd 0ec6 d0bf d043 3dbe
00000100: d4d7 ba3f 9158 cd3f 9732 bdbf 63d1 a73d
00000110: 136b 93bf c28b 443f c5dc 713f ac89 87bf
00000120: f951 853e 376a 93be 979d 283f b01c 7bbe
00000130: 34c7 ab3f bda9 b6be 6535 a43e f175 423f
00000140: 4c39 ac3e 0da0 8c3f 8fdf e8be 7907 ee3e
00000150: 8636 22bf 7d92 a3bf 0057 92bf c745 b9bf
00000160: 4563 18bf eee2 9cbe 3d40 44be d0de 153e
00000170: 3cda b8be cd89 8b3e 8b4f 5f3f 6400 013f
00000180: 0f1a 24bf 2752 5dbf 8792 193c 6470 a33c
00000190: 27cf fbbe 2367 0c3e 523a d33f 8200 f23f
000001a0: 1b4e 253f c5ce 893f f2db ae3e d04c 533f
000001b0: 2e8c 12bf 6c20 433f 631e 9e3f 4798 a73f
000001c0: 871a d8bf cf84 32bf f1e9 f4bd f8a7 2240
000001d0: 6c77 91bf ba0e 18bf 16af 9c3e ca6f 16c0
000001e0: 3eb2 d73e 421c fb3f 2fb9 553f d072 d13e
000001f0: 1bbf f1bf 4861 983f b41a 0d3e 4aa2 6ebf
00000200: 1f55 343e 3ad4 28bf 7c50 3d3f 60b9 0ec0
00000210: 61a0 9d3e be8d 8f3f ff0e cfbe 13d3 7b3f
00000220: 2cba 89bf 4a18 ae3f 0e94 2d3f 86a8 293e
00000230: b299 e7bf dc5b d0bf bcb0 62bf 5db4 d73e
00000240: 917f 433e f945 8a3b e2ba 8e3d 26a6 023d
00000250: 43cb 30be 52de 3abf 88d0 4c3f 2664 833f
00000260: ed64 183f 3062 2e3e 4406 2fbe a0bd 213f
00000270: 3d50 2cbe 929b 3cbf 2ad6 de3e 3cfd 08bf
00000280: 5d10 df3e 7705 40be 2569 eebe c01f 4a3f
00000290: b211 85be 440c 1a3f 4841 75be dbb9 153f
000002a0: ebbd ffbe e942 38bf a490 b43e 5d56 103e
000002b0: 8c26 653f 7680 1bbf dcca 5f3f 022b 47bf
000002c0: 0174 773f 8a27 ba3e 3b43 193e 4086 993e
000002d0: 7aa7 433f 6d2a 1d3f 475f d1bf 9407 a4be
000002e0: b5b1 7d3e 1cb6 423f a0d6 4cbe 965a 3d3e
000002f0: 0e6e 183f 87ed f0be 3299 a53d 16f8 953f
00000300: 0e38 8cbf 0bdd 5d3e 6261 7d3f 3e2c a93e
00000310: 7766 3abf 0376 fb3e 5178 113f 55f3 aebd
00000320: 5287 dabe 62eb 2d3f 39c7 5f3f a0af 3c3f
00000330: e617 263e 02e7 73bf f0cd 09bf 5886 3abe
00000340: e38b cc3d c417 a0bf 2410 8fbe 64d7 773f
00000350: cfa1 b63d e722 1c3f fd91 b1bd 0e08 083f
00000360: 3269 0e3f ea9e 893e 325c 923e 5115 49bf
00000370: 41d0 4d3f 7bc2 9bbf e30f d83d e4a2 313c
00000380: 4e05 b1bf f45f 05bf 4274 08bf 5b80 343f
00000390: 6004 9abe 7c82 113e 0561 693f 3572 cbbd
000003a0: ad77 a63e 480a 97bf d4fb 5f3e 1deb 9bbd
000003b0: f611 fabe c42c 253f 4a6b cb3f e8d0 2abd
000003c0: ac89 76be cd48 083f ce5f aebf 84d9 8d3d
000003d0: 523b b8be 5b7c 0a3f 9641 0b3f 6054 a2bf
000003e0: 6903 86bc 43b5 3ebf 4f65 963f 040e c23e
000003f0: 8523 53bf 56f2 56bf 4093 81be fd16 853e
-0.7714445 0.5015193 -1.2049959 -0.13727002 1.0372056 -1.5145112 -1.4240396 0.9567563
1.0542827 0.44647607 -0.415512 0.12977083 -0.2988817 -0.8335951 -0.021254053 -1.578428
1.4363331 -1.104526 0.8432761 -0.34603047 -0.4944414 1.3212904 -0.82223684 -0.12828079
-0.3898732 -0.52356356 1.3854601 -0.037511468 -0.667585 0.4865542 1.7220757 -0.55349165
-0.2473998 0.93128115 0.4280387 0.25355256 0.7033169 0.18677518 0.23054723 0.9810372
-1.0493844 0.94621867 -0.9393795 -1.6647767 1.3483832 -0.21266752 -1.1499993 -1.1682416
1.3323822 -0.59176654 -0.20689818 -0.82494074 -0.18670528 -1.0312546 -0.21651134 -0.048430175
1.2195917 -0.2075239 0.08803135 -0.7101029 -1.1042044 -0.046643224 -1.6310441 -0.184829
1.4597116 1.6042653 -1.4781064 0.08194234 -1.1517051 0.76775753 0.9447749 -1.0588889
0.26039103 -0.28791973 0.65865463 -0.24522662 1.3420167 -0.35676375 0.32071987 0.75961214
0.33637464 1.0986344 -0.45483062 0.46490076 -0.63364446 -1.277908 -1.14328 -1.4474419
-0.59526473 -0.30641884 -0.1916513 0.14635777 -0.36104 0.2725357 0.8723075 0.5039122
-0.6410226 -0.8645348 0.009373314 0.019951053 -0.49181482 0.13711219 1.6502173 1.8906405
0.64572304 1.0766226 0.3415218 0.8253908 -0.5724515 0.76221347 1.2353023 1.3093346
-1.6883096 -0.697339 -0.11958683 2.541502 -1.136457 -0.5939747 0.3060233 -2.350573
0.42128175 1.9617999 0.8348569 0.40907907 -1.8886446 1.1904688 0.13779718 -0.93216383
0.17610596 -0.6594883 0.73950934 -2.2300644 0.30786422 1.1215131 -0.4044113 0.9836895
-1.075994 1.3601162 0.6780404 0.16568193 -1.8093779 -1.6278033 -0.88550925 0.42129794
0.19091631 0.004219767 0.06969239 0.031896733 -0.17265038 -0.72995484 0.80005693 1.0264938
0.59529 0.17029643 -0.17092234 0.6317997 -0.16827483 -0.7367488 0.4352277 -0.53511405
0.43567172 -0.18752085 -0.46564594 0.78954697 -0.25990063 0.60174966 -0.23950684 0.5848672
-0.49949583 -0.71977097 0.35266602 0.14095445 0.8951194 -0.6074289 0.87418914 -0.778
0.9666138 0.3635829 0.14967053 0.29985237 0.76427424 0.6139286 -1.6357201 -0.32037032
0.24774821 0.76059127 -0.20003748 0.18491587 0.5954293 -0.4705622 0.0808586 1.1716335
-1.0954607 0.21666352 0.9897672 0.33041567 -0.728126 0.49113473 0.56824213 -0.08542506
-0.42681366 0.6793729 0.87413365 0.7370548 0.16220054 -0.95274365 -0.5382986 -0.1821531
0.09987619 -1.2507253 -0.27942002 0.96813035 0.08917581 0.60990757 -0.08670423 0.5313729
0.55629265 0.26879054 0.28585964 -0.7854815 0.80395895 -1.2168726 0.10549905 0.010842059
-1.3829744 -0.5209954 -0.53302395 0.70508355 -0.30081463 0.14209932 0.91163665 -0.09933893
0.3251318 -1.1800013 0.21873409 -0.07613204 -0.48841828 0.6452143 1.5892117 -0.041703135
-0.24075955 0.53236085 -1.3622987 0.069262534 -0.35982758 0.54096 0.5439695 -1.2681999
-0.016359048 -0.74495333 1.1749667 0.37901318 -0.82476074 -0.83963525 -0.25307655 0.259941

39 f4 [16]
00000000: c974 2640 50f7 cc3c 3a57 13c0 fa91 4c3f
00000010: 04d4 8940 0205 7f40 f395 1240 f217 82be
00000020: e655 0bbf c892 1340 6cbb abbf 208c abbf
00000030: 2e5a 0b40 b230 1340 c4bd 3bc0 437d e73f
2.600878 0.025020272 -2.302199 0.7991024 4.307131 3.9846807 2.2904022 -0.25408894
-0.54427946 2.3058338 -1.3416572 -1.3402138 2.1773791 2.2998471 -2.9334574 1.8085102

fc.0.bias f4 [522]
00000000: 7a29 ae3d f4f1 6d3d 2894 a73c 94cb 893c
00000010: 7ff4 753d 7992 6bbd 9760 e93c c6f4 bdbc
00000020: a73d a53d 4a28 24bd a4b1 b23b 72a0 af3c
00000030: 9d96 b73d bcbc 323d b493 82bc ec90 973d
00000040: 672a b23d f9e6 7f3d ec82 413d d73b 793d
00000050: 5862 be3c 7417 f63d 3c2b 6fbc 5992 553d
00000060: dff9 2dbc c2ba 3b3d 5c6b d1bc 1ac2 123d
00000070: 0baa c53c 83fc 11bd f556 553d 4780 053c
00000080: 0954 7a3d 7ca7 903d 4d3b 323c 8290 c43d
00000090: 94fc 853c 3caf 623d 5ea8 c23d 8253 813d
000000a0: efbb 43bd 314f c83d 1cee 153c b566 033e
000000b0: e3a0 aa3c b580 38bd 4147 baba adc1 753c
000000c0: 2a84 b83c d2f9 d83d 33a0 433d c6fb 6c3d
000000d0: 212a d73d c321 263d bb7d 8a3d d27d c4bc
000000e0: afb6 743d ef82 f8bb 76bc f8bc 1b84 4c3c
000000f0: f251 f63b 43a0 ce3d 9b06 003d 7df7 ff3d
00000100: e4a3 36bd 0d68 413d f368 d53d e58d 01bd
00000110: 1417 753d f48a 29bd 0526 463c 3ee2 e1bb
00000120: 5d5d 83bd b92a 32bc 0e40 533d 8c30 ebbc
00000130: 7a23 983d 664f b2bc 0a61 a53d 48c6 1abc
00000140: 8db0 fb3d 126b ac3d d79f 4a3d f340 8f3d
00000150: e584 733d ed15 aa3d 43dd ce3d 084b c83c
00000160: 3c0f a23d 8f82 023e 0816 a8bd fe57 6eba
00000170: c492 1e3d 20b1 2e3b 9932 763d ae74 883d
00000180: 6e1c 6b3d dea4 99bc 117e 723d 7c62 0d3d
00000190: a1f4 ed3c a731 e03d 5ca4 243d 0e9f 55bc
000001a0: dfe6 993d 9728 883c b5af 123d 3389 a4bc
000001b0: 447b c53d 9166 e13d 344a 2fbd 3405 1c3d
000001c0: 0ca0 253d 4ef5 683d 8b6d 963d 7d8f d83b
000001d0: 2742 f73c 8a78 49bc 72ea 2d3d b752 babc
000001e0: b736 453c 4523 0bbd c191 f8bc 9331 26bd
000001f0: 8c48 0fba c8ad c13d 2931 ea3d 0c45 9c3d
00000200: 40ac 8d3d 748b cc3d 2466 9ebc a7bf c53c
00000210: 5512 9f3d 99d7 933d 1b50 193d 1ad7 7ebb
00000220: 85c8 603c 0595 493d 70cd 033e 61e2 a3bb
00000230: b54e 003d 7758 ef3c 50f5 c53d a332 c93d
00000240: 2f0e 04bc ad69 5c3c c3d9 c33d 7da5 a63d
00000250: 5be1 5a3d 5bd9 4c3d 409d a03d 2593 ce3d
00000260: eb6c 623d e0cb 673d ff09 323d 5e40 a8bc
00000270: f7b0 c43d e0a7 a63d 20d5 83bd f374 a33d
00000280: 2474 c73d 228c e33d 3ca8 cbbc 92d1 92bc
00000290: 6853 e93d ce06 063e 307a 0e3c 1a14 fe3d
000002a0: ce0f 913b ccae 57bd c050 f83d 57a8 05bd
000002b0: f084 aa3a cf0c 9d3d 45ad 62bd b5ce 4a3d
000002c0: 06df a33d fc7b c5b9 f5cd edbc 98be b33b
000002d0: 9fed 703c 5974 253d c0a3 583c 2289 653d
000002e0: af3e c3bc 6e50 6d3d c1ee 18bd 241e 03bc
000002f0: dbe4 d93d 511b b8bc 3ba6 803b 3c84 fc3b
00000300: e45c b03d a00b e73d c065 2b3d 08e3 8dbc
00000310: be24 003e cf86 67bd 94fb e43d ccc0 fb3d
00000320: 67e8 213c 4c33 8f3c 339b e73c 531e 493d
00000330: 5b2a 55bc 997c 2abc 5da4 fe3c c12c dc3d
00000340: c0f7 a23d a621 023d 295e af3c 207a b3bc
00000350: 51f9 b33d 55ac 4f3d 2feb b63d 509f af3d
00000360: dbde 5dbd 3386 22bd 4266 06bd e6b8 d63d
00000370: 3cac fe3d 37d8 ca3d 36b9 9e3d 7d3b 993d
00000380: 0e49 803d 839c 523d 8102 31bd 76ed 833d
00000390: 93e7 883c ab33 f23d 4d71 903d 1237 41bc
000003a0: 0ac0 063d 95ac 683d 1af4 c13b e1b9 7cbd
000003b0: 69bc 583c c1cc b53d 24c8 06bc f6ea a53d
000003c0: a775 a93d bc88 90bd d99e 9fbb a494 b03d
000003d0: ffdc c53d b62e 91ba e24c 7a3d c5bd 083c
000003e0: e882 c53c 8372 ad3b 4d43 273d dbe2 de3c
000003f0: 2b77 463d a777 743c 9f4f 4c3d 4ad5 16bd
0.08504005 0.058092073 0.020456389 0.016820706 0.060047623 -0.057512734 0.02848844 -0.023188006
0.080684 -0.040077485 0.0054533053 0.021438811 0.08964274 0.043637022 -0.015939571 0.074006885
0.08699494 0.062476132 0.047243997 0.060848083 0.023240253 0.12016192 -0.01459771 0.05214152
-0.010618656 0.045832403 -0.025563888 0.03582964 0.024128934 -0.035641205 0.05208488 0.0081482595
0.0611153 0.07063195 0.010878396 0.09597875 0.01635579 0.055342898 0.0950477 0.06314756
-0.04778665 0.097807296 0.009151008 0.12832148 0.02082867 -0.04504462 -0.0014211909 0.014999789
0.022523958 0.105945244 0.0477602 0.057857297 0.10506082 0.04055954 0.067622624 -0.023985777
0.059744533 -0.007583968 -0.030363303 0.012482668 0.007517093 0.10089161 0.0312563 0.124983765
-0.044589892 0.04721837 0.10420408 -0.03162946 0.059836462 -0.04139228 0.0120940255 -0.0068934252
-0.06414292 -0.010874444 0.05157476 -0.028709672 0.074286416 -0.021766376 0.08075149 -0.009446688
0.12289534 0.084188595 0.04946884 0.0699481 0.05945291 0.08304963 0.10100796 0.02444984
0.07913062 0.12745117 -0.08207327 -0.00090920913 0.038714185 0.0026655868 0.060106847 0.0666288
0.05740016 -0.018755373 0.059202258 0.03451775 0.029047312 0.109469704 0.040195808 -0.01303841
0.07514738 0.016620917 0.0358121 -0.020084953 0.09642652 0.11005891 -0.042795375 0.0380909
0.040435836 0.056874566 0.073451124 0.006608902 0.030182911 -0.012296805 0.042459913 -0.02274452
0.012036971 -0.033969183 -0.030342938 -0.04057462 -0.00054658274 0.09456974 0.11435158 0.07630357
0.0691762 0.09987536 -0.019335814 0.024139239 0.077671684 0.07218856 0.03742991 -0.0038885535
0.013719683 0.04921438 0.12871337 -0.0050013517 0.03132506 0.029216988 0.0966593 0.09824111
-0.008060022 0.013452929 0.09563019 0.08137033 0.053437572 0.050011974 0.07842493 0.10086659
0.055279654 0.056590915 0.043466564 -0.020538505 0.09604066 0.08137488 -0.06437135 0.07981291
0.09738949 0.111107126 -0.024860494 -0.017922197 0.113928616 0.13088533 0.008696124 0.12406178
0.004426933 -0.052656934 0.12124777 -0.032631245 0.0013009589 0.07668459 -0.055341024 0.049513537
0.08001523 -0.00037667144 -0.029028872 0.005485367 0.014705091 0.04039416 0.013222635 0.056038983
-0.0238336 0.05793803 -0.03733707 -0.008002792 0.10639354 -0.022473963 0.003926066 0.0077061933
0.086114675 0.11281514 0.041845083 -0.017320171 0.12514016 -0.056525048 0.11180797 0.122926325
0.009882069 0.017480515 0.028272247 0.049101185 -0.013010587 -0.010405683 0.031084234 0.10750724
0.07957411 0.03177037 0.021407204 -0.02190882 0.08787788 0.050701458 0.089315765 0.08575308
-0.05416761 -0.039678764 -0.032812364 0.10484485 0.12435195 0.09904521 0.0775017 0.074820496
0.06263934 0.051418792 -0.04321528 0.064417765 0.016711986 0.11826261 0.070528604 -0.011792915
0.032897986 0.056805212 0.0059189918 -0.061700705 0.013228514 0.08876944 -0.008226428 0.08101456
0.082743935 -0.0705733 -0.004871231 0.08622101 0.09661292 -0.0011076543 0.061108477 0.008346026
0.024110273 0.005293192 0.040835667 0.027207782 0.04845349 0.0149211055 0.04988062 -0.036824502

fc.0.weight f4 [522, 64]
00000000: 05f0 5e3c 2638 243c 78f2 cd3d e349 9d3b
00000010: 701e 9dbd be58 2f3e eab0 553d 8aa8 4cbd
00000020: 6bc8 0c39 6aab 9e3c 70b6 85bd d3cf fd3d
00000030: d959 023d 2172 01bc 999e 42be ccb6 edbd
00000040: 1a01 db3c 1f69 4dbd cc7e 163e 374e 673d
00000050: 3f1b 8a3d 85fc 193c 4805 5e3d d8d4 e1bc
00000060: 73cc bcbd 6dbc 90bd c110 51bd 9f56 7c3d
00000070: 5f93 743d 6f4e 9e3c 54d7 1bbe 666e f6bd
00000080: dae7 76bc 840a 483d 4387 7c3d 2ba0 583e
00000090: 8ab8 cd3d 0d33 14be 7fc0 453e f840 febd
000000a0: cfd0 d13b 540a 483d f1d4 a93d 6c0e 923d
000000b0: f9c1 b13d 5236 a23d 7858 dfbc 0adf eb3d
000000c0: 1f65 a43d 8ca3 e1bd 422e 743e 7480 ddbd
000000d0: c492 a13d 82af 093e 0e51 0ebe 673a 523e
000000e0: cbd2 81bc 00bf 813d 9d31 7ebd f89a 66bd
000000f0: 1e4b a33d 6a30 143d e7f7 c23d 030b 51bd
00000100: 2829 ec3d 4cf8 a23d 3b82 cf3d 8420 aebd
00000110: 5097 a1bc b06f a5bd 1d9d bf3d cfbf 28bd
00000120: 7d76 4c3d 8eee 513d eb74 4b3d abe4 573e
00000130: 5778 90bb d5b8 2ebe d836 2db9 7de8 423d
00000140: a9ee 1c3d 769a c83b cded 983d a9fd 9d3b
00000150: c213 8a3d 7683 26bd 59a7 313e 8680 7d3c
00000160: 63ad 953d cb08 5a3e 586c 1a3d 078c 203e
00000170: c8ee ae3d 17d5 7dbd d85a 0c3c 738f 5abd
00000180: ba95 fc3b bfda d53c 391a a6bd a4f2 723d
00000190: 26b9 663c 008f cebd 89d5 c43c aeda 05be
000001a0: 5faa 0bbe 7499 523c b5b2 d4bc 5288 a4bd
000001b0: 5e28 883d 8830 093e fe19 12bd e936 373e
000001c0: 979c 12be e8e1 1ebd 51a5 113e 9393 563e
000001d0: c89b 03ba 7649 493d 8ce3 073e 72f5 7abc
000001e0: 39d0 7fbd ea81 9d3d 5f4a 5a3e 3230 e9bd
000001f0: f96a 99bd 81da 7ebd 5742 b0bc 6eb9 0abd
00000200: 9554 70bd 4cae 62bd c69b e6bd 5c14 753d
00000210: bb92 e9bd 3417 89bd 8b3a 173d d595 cdbd
00000220: 3c40 f8bc 3d28 223e fcd9 923d 49f4 aebd
00000230: c1ff 90bd 3693 b73d eb92 09bd db97 37bd
00000240: 053f e03c 884b ac3d 4461 5ebb f2a8 cc3d
00000250: 9cb9 8bbd b4e0 87bd 5206 853d afb1 5cb9
00000260: 6019 86bd c8e8 64bd 889b 8abd 58fa 643d
00000270: ead1 743d e2d7 05bd 7daf aa3c af89 cd3d
00000280: f5df c1bd b86e 0e3d 86c1 e13d 7620 143e
00000290: 88b6 44bc a64c 913d 5235 b63b b2db 00bd
000002a0: a80a 07bd bc2b eebd b40f dc3d 382b 763d
000002b0: 813c 493d 03eb 043e 9ccd aa3d 191b 263e
000002c0: 8bcb ea3d b0cb cc3d 11d2 443e 34de bf3d
000002d0: 297d e1bd 269e d4bd 82fe ddbc 473b f7bc
000002e0: eca3 2d3d 03b4 ccbc 9199 c23b fa15 ac3d
000002f0: e11c 5e3d 0d80 90bc 0ef3 633d 1703 8f3d
00000300: 118c 3cbd b14b 493d e190 133e 2144 d13d
00000310: 4185 e2bd bdd2 adbd 9b28 ec3c ce69 9d3d
00000320: 5f04 f13d 7d21 b83c 5390 f73d 562c d33b
00000330: 5dd6 5ebd 81fa ff3d d924 cd3d 4c63 423d
00000340: c0f0 fd3c 99ec cc3d 8c71 fcbc bb89 eebb
00000350: 86cd 41bd 41d9 2fbe 8b01 963c bbc1 e7bd
00000360: e171 5abd 6834 173e 1829 ae3d 74fc 973d
00000370: f8f5 c93d 1aac 293e 1d14 e33d 051c 3e3b
00000380: e0f2 a13d ed86 0cbe 112b cdbd 9fe2 0cbd
00000390: ebfb 55bc fada f1ba 1af4 793c 77a5 66bc
000003a0: 4df6 b9bd 7504 053e b683 c2ba c449 5f3c
000003b0: fb14 8f3d b2e9 b8bc aaac d53c 4208 fabd
000003c0: 3dca 173c 2c61 9d3d 557d 853d 7fdc f13c
000003d0: 8f4b 4dbd 4bf6 09be af67 e63d 5a8a ee3d
000003e0: e0a7 a4bc ba5c 4f3d 914f 913b 8d06 233d
000003f0: 2c53 983d 455b 023e 3267 a4bc 74f8 993c
0.01360703 0.010023152 0.10056013 0.0048000677 -0.07671821 0.17123696 0.05217067 -0.04996542
0.00013426102 0.019368846 -0.06528938 0.12393155 0.031823967 -0.007900746 -0.19005813 -0.11607131
0.026733924 -0.05014908 0.14696807 0.056471076 0.06743478 0.009398584 0.054204255 -0.027567312
-0.09218683 -0.07067189 -0.05104137 0.061606046 0.059710857 0.01932451 -0.1521886 -0.120327756
-0.015069926 0.048838153 0.061652433 0.21154849 0.10044964 -0.144726 0.19311713 -0.124147356
0.0064030658 0.048837975 0.082925685 0.07131657 0.086795755 0.07920517 -0.027263865 0.11517151
0.080271 -0.11017522 0.23845771 -0.10815516 0.078893214 0.13445857 -0.13898107 0.20530091
-0.015847584 0.063352585 -0.062059034 -0.056300133 0.07973312 0.036178984 0.0951994 -0.051035892
0.115312874 0.07957515 0.10132261 -0.085022956 -0.019725472 -0.08077943 0.09356139 -0.041198548
0.049917687 0.051252894 0.04967205 0.21083324 -0.004408877 -0.17062695 -0.00016518997 0.047585
0.03831354 0.006121929 0.07467232 0.0048214984 0.0674205 -0.040652715 0.17348994 0.015472537
0.073084615 0.21292417 0.03770098 0.15678416 0.08541638 -0.061970796 0.008566581 -0.05335946
0.0077082785 0.026105283 -0.0811047 0.05931343 0.014082229 -0.10085869 0.024027603 -0.13071701
-0.1363921 0.012853969 -0.02596412 -0.080338135 0.066483244 0.1339742 -0.03566932 0.1789204
-0.14317547 -0.03878966 0.1422322 0.20954733 -0.00050204666 0.049142323 0.13270396 -0.015317308
-0.062454436 0.07690795 0.21317433 -0.11386146 -0.074911065 -0.0622201 -0.021516008 -0.033868246
-0.058674414 -0.055342004 -0.1126018 0.05983387 -0.1140494 -0.06693879 0.036921065 -0.10038344
-0.030304067 0.15835662 0.071704835 -0.085426874 -0.07080031 0.08963625 -0.033587378 -0.044822555
0.0273738 0.08412844 -0.0033932487 0.09993161 -0.068225116 -0.066346556 0.06495346 -0.00021047027
-0.06547809 -0.05588606 -0.067679465 0.05590281 0.059770502 -0.032676585 0.020835632 0.10036027
-0.094665445 0.03477356 0.1102324 0.14465508 -0.0120064095 0.07094698 0.0055605555 -0.031459518
-0.032969147 -0.116294354 0.10745183 0.06009981 0.049129967 0.12980275 0.08339998 0.16221274
0.11464604 0.09999788 0.19220759 0.09368554 -0.110102005 -0.10381727 -0.027098898 -0.030179633
0.042392656 -0.02498818 0.0059387167 0.08402629 0.05422676 -0.017639184 0.055651717 0.06983011
-0.046032015 0.04914445 0.14410736 0.10218073 -0.110605724 -0.08487461 0.028827956 0.07686196
0.11768412 0.022476906 0.120880745 0.0064444942 -0.05440365 0.12498952 0.10016794 0.047457978
0.030998588 0.10006065 -0.030815862 -0.0072796023 -0.047315143 -0.1717272 0.018311283 -0.11316248
-0.05333126 0.14766085 0.08503932 0.074211985 0.09861368 0.16569558 0.11087821 0.00290084
0.07907653 -0.13723345 -0.1001798 -0.03439581 -0.01306055 -0.0018452101 0.015255952 -0.014077536
-0.09080181 0.12989981 -0.0014840278 0.013628427 0.069864236 -0.022572372 0.02608331 -0.12208606
0.009264526 0.0768455 0.06518046 0.029524086 -0.050120886 -0.1347286 0.11250245 0.11647482
-0.02009958 0.05062554 0.004434534 0.03980117 0.07437739 0.12730129 -0.020068739 0.01879523

fc.3.bias f4 [261]
00000000: ed48 fdbb 5c75 8abc 89ac 40bc aa16 dfbb
00000010: e9c9 a5ba 4bce 61bc 2073 e73b c219 2c3c
00000020: f8ae 06bd 43cd 13bc c06b 20bd 331f 07bd
00000030: 6ff1 863c f803 03bc 1c05 943c 6eec 4fbc
00000040: 84e0 e63b 7d49 a6bc eb86 9b3a 0802 cebc
00000050: 33db 9dbc fa31 b2bb c2a1 cfbb f93a 813c
00000060: c777 433b e763 183d d67e 813c 3003 a93c
00000070: 5227 16bc c065 bbbb b017 ee3a 4bff fa3b
00000080: 79d4 b0bc 5aac a63b 22ca 063d 7e8c 1ebb
00000090: d872 e8bc cc16 a03c 0a3d 103c 028c d4bc
000000a0: b618 b9bc 788f 67bd 5df8 4abd 536f 34bd
000000b0: 435c ab3c c053 053d 6503 8bbc e0c2 17bd
000000c0: 1bae 17bc a991 8bbc 2be1 d93a d5b4 a43c
000000d0: 4972 ab3b 7ee1 4abd 14a7 07bc f48b db3c
000000e0: 17df c73c bacc d13b c4d2 0339 6159 eb3b
000000f0: 1812 8bba 2792 9bbd a318 9ebc 2913 4dbc
00000100: 1e69 27ba b683 df3a ed00 7a3c fa8e 9bbc
00000110: f1ab 0ebc 69e9 56bc ab05 96bc cb24 5ebc
00000120: 6727 edbb d4a8 cc39 eefd 08bd 467d 04bd
00000130: 5972 cfbb 2478 b3bb 86d9 19bc 08ef f3bb
00000140: 5b88 e8bc a2cc 13bd 18e2 36bb 3ea8 2e3c
00000150: f509 313d 6df5 683c 913f cabb ce2b 2d3c
00000160: c22f 79bc 3481 23bd df6b b2bb f4d2 373d
00000170: 1a48 a3bb d9e3 30bd 2fce 7a3d 9452 13bc
00000180: 2c63 69bc ae0a cdbc 4c38 b1bc dd24 f1bb
00000190: 351f 553b 023f c7bc faff 9fbc 521f adbc
000001a0: 7e35 5d3c a433 69bc 562c 503a 921e ca3c
000001b0: 158e 933d c280 d43b ad47 4ebc 0e07 e13c
000001c0: f3ad 18bc 2f12 5a3a 5752 3cbc eec8 6e3c
000001d0: 2cc2 7ebc 37dc 69bc f02d cebb 8f99 4b3c
000001e0: a321 a7bc ee15 91ba 1bab f5bc 2ab2 313c
000001f0: a257 3f3c e529 1dbc cdc3 90bc 126d 56bc
00000200: 5e2d 603c 3ad9 51bb a277 35bd 062a 3b3c
00000210: 19e3 56bd 5010 463c c961 02bc e7c4 89bb
00000220: da0f 2c3c 02b7 0dbd 5e0d 7abc 64d0 173c
00000230: 2e0b f6ba 1487 1ebd cbf8 b1bc a00e cbbc
00000240: a6f9 10bc 001a eb3b 0e39 ca3c 19a9 3f3d
00000250: 5631 e83a 17cb 28bc 4c6a 22bd dda5 20bd
00000260: 3e37 db3c b689 2cbb be00 8fbc 34fc 1f3b
00000270: d36f 873b 9e54 4b3d c61d 5a3c 2a45 f03b
00000280: b5a5 863c ae64 19bd cdc0 063d 6e2d d23c
00000290: dd66 2e3c e978 56bd 72fc 70bc e8ca 2bbc
000002a0: a015 7bbc 2ac7 b1bc 63d9 8f3b 7616 9b3c
000002b0: cb82 88bc ad88 0abc 7749 aaba 5b02 acbc
000002c0: 587b a4bc ce6b 4fba 31e7 793b 65f6 853b
000002d0: 44ae 10bb 58c8 bc3a ab1c b93c 3c51 1f3c
000002e0: 1440 433b 8ba4 74bc 1a9b 893c 7036 59bc
000002f0: c357 a83b e2e6 fcbb b0be 78ba 1683 dcbc
00000300: a955 7ebc ddec 72bb 32e2 3a3c f3f8 7c3c
00000310: dd70 e6bb bac5 923c 1a07 cb3b 8044 4ebc
00000320: 4a69 54bd 61cb 97bc e811 793c 6422 76bc
00000330: 805b 993c ad3c a8bc 814c 50bc eddf 983c
00000340: 2b2d 70bc ee2d 173d 9750 583c fbb1 b6bc
00000350: 4000 d03b ffed 5fbc e249 aebc fa31 9fbc
00000360: 94c8 88bc 2c21 d03c 56bc 47bc 8b54 9fbc
00000370: d900 0c3d 7eac 9abc 108e 083c 645c e9bc
00000380: 6b1e 803c 58b4 bbbc a61d 923d e403 383a
00000390: c52c 093d efaf 3f3d 1dfd 4cbc 566f 8dbc
000003a0: 0a2c 843c de75 793b 7ffe d13c 6a19 71bb
000003b0: d5cd 223c 7435 a33d 81f8 e33c 6d38 e7bc
000003c0: 5223 3fbc fdb1 563b a4c2 bc3c bbf3 4e3c
000003d0: 3847 eb3c c3b5 513b 0edd 5a3c c0a1 82bd
000003e0: 3ffd 943c 87f8 00bd e5c4 8cbb f9c1 57bb
000003f0: 485c 10bd 48b2 f8bc 3452 06bd 32c3 b93b
-0.0077296407 -0.016901664 -0.011759886 -0.0068081217 -0.0012648675 -0.013782094 0.0070632845 0.010504188
-0.032881707 -0.009021106 -0.03916526 -0.03298874 0.016472546 -0.007996552 0.018068843 -0.012690647
0.0070458073 -0.020298714 0.001186577 -0.025147453 -0.019269561 -0.0054380866 -0.0063364217 0.01577519
0.0029826032 0.03720465 0.01580755 0.020631403 -0.009164648 -0.0057189167 0.0018165018 0.007659828
-0.02158569 0.005086464 0.032907613 -0.0024192627 -0.028375074 0.01954212 0.008803615 -0.025945667
-0.02259479 -0.056533307 -0.049553264 -0.04405148 0.020918017 0.032550573 -0.016969392 -0.03705108
-0.009257819 -0.01703723 0.0016622891 0.020105759 0.0052321297 -0.049531452 -0.008279581 0.026800133
0.02439837 0.006402579 0.0001257165 0.0071822857 -0.0010610251 -0.07596236 -0.019298857 -0.012516775
-0.0006386208 0.0017052803 0.01525901 -0.018989075 -0.008707986 -0.013117173 -0.01831325 -0.013558577
-0.007237363 0.000390357 -0.03344529 -0.032346033 -0.00633077 -0.0054769684 -0.009390241 -0.007444266
-0.028385332 -0.036083825 -0.0027905758 0.010660229 0.043222386 0.01421867 -0.0061721285 0.010569526
-0.01520914 -0.03991814 -0.005444988 0.044878915 -0.0049829604 -0.043186042 0.06123179 -0.008991856
-0.014244836 -0.025029507 -0.02163329 -0.007359131 0.0032519822 -0.024322037 -0.019531239 -0.021133099
0.013501523 -0.0142335035 0.0007941177 0.02467278 0.07204834 0.0064850757 -0.012590331 0.027469184
-0.0093188165 0.00083187496 -0.011494241 0.014574273 -0.015549224 -0.014273695 -0.0062920973 0.012426748
-0.020401781 -0.0011069158 -0.029988816 0.0108457 0.011678608 -0.009592508 -0.01767149 -0.013087528
0.013682691 -0.0032020346 -0.044303544 0.011423593 -0.05246267 0.01208885 -0.007957884 -0.004204381
0.010501826 -0.034598358 -0.015261976 0.009265993 -0.0018771642 -0.03870304 -0.021725079 -0.024787247
-0.008848583 0.0071747303 0.024685409 0.046792123 0.0017714899 -0.010302327 -0.039652154 -0.03922068
0.02675974 -0.00263272 -0.017456409 0.00244118 0.0041332035 0.049641244 0.013312763 0.0073324637
0.016436437 -0.03744953 0.032898713 0.025656428 0.010644642 -0.052361403 -0.014708625 -0.010485388
-0.01532498 -0.021701414 0.004389928 0.018931609 -0.01666393 -0.008455438 -0.0012991865 -0.020997217
-0.020078346 -0.00079124875 0.0038132186 0.0040882104 -0.0022076527 0.0014402969 0.022596678 0.009723958
0.0029792832 -0.014931808 0.016797591 -0.013257608 0.005137415 -0.007717953 -0.0009488864 -0.026917975
-0.015523353 -0.003706745 0.011406468 0.0154402135 -0.0070324973 0.017916549 0.006195915 -0.012589574
-0.051858224 -0.018529596 0.015202023 -0.015022848 0.018720388 -0.020536745 -0.012713552 0.018661464
-0.014659206 0.036909036 0.013202808 -0.022301665 0.006347686 -0.0136675825 -0.021275464 -0.01943301
-0.016697206 0.025406443 -0.012190899 -0.019449493 0.034180496 -0.018881079 0.008334652 -0.028486438
0.015639504 -0.022913143 0.07134561 0.0007019623 0.03348996 0.046798643 -0.012511519 -0.017265003
0.01613428 0.003806464 0.025634049 -0.003678883 0.0099367695 0.0796918 0.027828457 -0.028225148
-0.011666136 0.0032759898 0.02304203 0.012631352 0.028720483 0.0031999208 0.013358368 -0.063785076
0.018187163 -0.031487014 -0.0042959326 -0.0032922013 -0.035244256 -0.030358449 -0.03279324 0.005669021

fc.3.weight f4 [261, 522]
00000000: b312 583d 2b72 643d b2ed 733d d747 2a3c
00000010: c6da 1cbd d013 95ba 3fc7 71bd c342 72bd
00000020: 7972 b9bc 6937 32bd 60ad 10bc b493 37bd
00000030: f35a 813d 918d f0bc aa7d 20bd fa4f 11bc
00000040: 57cb b0bc 6714 a8bc 7edc 903c d89d 62bd
00000050: 20a1 913d 50ed dd3c bbcc 8f3d e6ac a63c
00000060: acd6 973d 6b04 28bd 591c 623d 908e 68bc
00000070: 7f5f fabc 939d 263d d008 43bd ffb0 c73c
00000080: bc0f 9e3b 27bc 88bc 1895 dc3c 3c6b 42bd
00000090: 6e50 373d b784 b13d c996 f5bc f476 e1bc
000000a0: d7bc 353d 0269 20bd fa02 363d e1d1 33bd
000000b0: e2bc b639 7a5c 44bc 73b2 4cbb 1c77 92bc
000000c0: c72e 86bc a063 183d 8903 52bd a1a9 613d
000000d0: 5267 a7bc d8d5 7a3c e34f 14bc 56eb e4bc
000000e0: 7c44 783c ff00 95bd 3529 07bd b3c0 2cbd
000000f0: fda0 ce3c 5e31 69bd 2d53 9b3c 2bfd 8cbc
00000100: cfd4 b1ba 9504 fe3c 036b 22bd 721e 0d3a
00000110: 0607 3fbd fab2 83bc 2495 1dbd 5a25 46bd
00000120: 7a74 83bd e707 f2bc bb10 1b3d 0e82 63bd
00000130: edd6 e9bb d0d4 b43d 86cd 003d fc91 26bd
00000140: 1826 553a 8de4 863b a3e6 c0bb 9eda 15bd
00000150: 14cf 553d 50f4 0f3c 77b8 26bc cdcd 053d
00000160: e939 213c 013d c63c 77f0 39bc 3f29 363d
00000170: bfe1 a8bc 9909 4e3d a3be 34bd 283a 333d
00000180: 5c34 4b3c a99c 183d 4e5e 4b3d ce26 1f3c
00000190: b965 803c 6fa1 68bd dd58 013d 869e 833c
000001a0: 43eb b7bc 0255 d43c c67a 3b3d 9142 5a3d
000001b0: 7e06 7ebc 2e55 28bd bac7 3abd d2c3 423d
000001c0: 83e4 20bd 8ed3 0f3d 8ba5 c63c 5092 063d
000001d0: 04ca 8fbb df67 003d 15db 383d b2de e4bc
000001e0: 2bb2 313d 44a3 8bbc 023e 92bd c28b c0bd
000001f0: 7c0a ec3c e691 593b 0569 4f3a 30e4 c03c
00000200: 01b1 47bd 3a25 843d 3a80 303d e6f7 11bd
00000210: 3f69 b1bc 90e0 933d f0e7 0db9 e48c 3dbd
00000220: ab74 b03d 0517 c6bc e711 313c 6e9f c1ba
00000230: 86e5 bb3c d7cc 363c f362 453d 3832 3bbd
00000240: eb01 9cbc e36d 6e3c 51c9 b3ba aaee 833c
00000250: 275a a03d 621a c93c 99f3 2c3d 83c3 9d3d
00000260: 4ce0 f0bc e979 273d 5809 15bd 71c6 aebb
00000270: c217 97bc c82e d3bc 119c 1b3c 8178 0bbd
00000280: d53e a7bd 1ebc 443d c99f cdbc 4930 363d
00000290: acce 2a3d ebf6 5d3b 784f 84bb 3f30 afbc
000002a0: a329 583c 6f1d 91bc c580 ac3c d28d 3c3c
000002b0: ab48 0e3d 05b1 b13a d820 f43b d1b8 0dba
000002c0: 91d8 5abd 6213 113d 6b97 c0bb c4d1 b5bb
000002d0: eeea c93c cee5 f13c cc99 15bc 3bad d53d
000002e0: 0622 d4bc 197e 56bd fe4b b63c 00b1 2dbd
000002f0: a2b6 92bd cfc2 59bd d220 79bc 8586 853b
00000300: 13d5 eabc 076a 64bd a84c f8bc b213 4bbd
00000310: 6bf5 773d 9b30 2f3c b79b 4dbd 24c1 1b3d
00000320: 58af 09bd 46df 8f3c d63a a33c 5336 243d
00000330: 23a8 15bd df55 653d c40f a2bd 0a8d 11bd
00000340: 0ded 30bd 732e 58bd 923e 2cbd 380d a53c
00000350: 8dbf c33c 1852 573d 6396 ed3c 6f6e 0abd
00000360: 6836 2dbd 4b98 083d 9762 903c 8f0c 2dbc
00000370: d624 2ebd c770 22bc 759f 40bd 0259 f93c
00000380: 75c6 e63c 437d b93c 2757 4f3d 6f1c b2bc
00000390: 6aba 253b 505a 8fbd 0459 29bc 30c8 10bd
000003a0: 071e 9abc 8c3c 963b 4a58 56bd 4f74 68bc
000003b0: aa68 783d 4515 da3c f6e2 16bd 2c61 57bd
000003c0: 6923 5c3d 2e65 26bd c3ef 393d fee9 a1bc
000003d0: e6f1 5bbd 2372 2cbd 8a9a 29bd 44f4 59bb
000003e0: 3fab 4b3d 82b6 f4bc ada9 5a3d 5cfe 723d
000003f0: 31f6 c13c 1b6b 0b3d 7c03 49bd cee2 ae3c
0.052752208 0.05577294 0.059552856 0.0103931045 -0.038294576 -0.0011373702 -0.059027907 -0.0591457
-0.022637593 -0.043509874 -0.008830398 -0.044818595 0.06316175 -0.02936438 -0.039182343 -0.008869166
-0.021581335 -0.020517541 0.017683264 -0.055326313 0.0711081 0.027090698 0.07021471 0.020346116
0.07413992 -0.04101984 0.055202816 -0.014194146 -0.030563114 0.04067762 -0.047615826 0.02437639
0.004823653 -0.01669128 0.026926562 -0.047465548 0.044754438 0.086678915 -0.029979127 -0.027522542
0.044369545 -0.039162643 0.044436432 -0.043901328 0.00034854474 -0.011984939 -0.0031234294 -0.017879061
-0.016379727 0.037204385 -0.051272903 0.05509341 -0.02043501 0.015309773 -0.00905225 -0.027944248
0.015153047 -0.072755806 -0.032998282 -0.04217596 0.02522325 -0.056931846 0.01896056 -0.017210564
-0.001356745 0.031008044 -0.039652836 0.000538326 -0.046637557 -0.016076554 -0.03847231 -0.048375465
-0.064187005 -0.029544784 0.037857752 -0.05554395 -0.007136217 0.08829653 0.031446002 -0.040666565
0.00081309816 0.004116601 -0.005886869 -0.036585443 0.05219944 0.008786276 -0.010175816 0.03266697
0.009840467 0.02419901 -0.011348835 0.04447293 -0.020615457 0.05030212 -0.044127118 0.043756634
0.01240262 0.037258778 0.049650483 0.009713842 0.015673505 -0.05679458 0.031578887 0.0160668
-0.022451049 0.025919441 0.045771383 0.05328614 -0.015504478 -0.04109686 -0.04560063 0.04755003
-0.039280426 0.035113864 0.024248859 0.03285438 -0.004388096 0.03134906 0.045130808 -0.02793822
0.043382805 -0.017045625 -0.07140733 -0.09401657 0.028813593 0.0033198535 0.00079120725 0.023546308
-0.04875279 0.06452413 0.043091036 -0.035636805 -0.02165663 0.07220566 -0.00013533211 -0.046276942
0.08616003 -0.024180898 0.010807491 -0.0014772245 0.022936594 0.011157236 0.04819007 -0.04570219
-0.019043883 0.014552566 -0.0013716613 0.016105015 0.07829695 0.024548713 0.0422245 0.077033065
-0.029403828 0.040887747 -0.036385864 -0.0053337147 -0.018443946 -0.025779143 0.009497658 -0.03405047
-0.08166281 0.048030965 -0.025100606 0.044479642 0.041701004 0.0033869098 -0.0040377937 -0.02138531
0.013193521 -0.01771423 0.021057496 0.011508422 0.03473727 0.0013556784 0.0074502043 -0.0005406263
-0.05342919 0.035418876 -0.0058774254 -0.0055486877 0.024648156 0.029528525 -0.009130906 0.10433432
-0.02589513 -0.05236635 0.022253033 -0.04240513 -0.07163741 -0.0531643 -0.015205579 0.004074874
-0.028666055 -0.055765178 -0.03030999 -0.04957933 0.060536783 0.010692741 -0.05019733 0.03802599
-0.033614486 0.01756252 0.019925516 0.04009087 -0.0365373 0.055990096 -0.07913163 -0.035534896
-0.04319482 -0.052778672 -0.04205186 0.020147905 0.02389505 0.052568525 0.029002374 -0.033796724
-0.042288214 0.033348363 0.017625136 -0.010562076 -0.0425156 -0.0099145835 -0.04702707 0.03043795
0.028170804 0.022642737 0.050620224 -0.021742074 0.0025288113 -0.069996476 -0.010336164 -0.035347164
-0.018813146 0.0045848545 -0.052330293 -0.014187886 0.06064669 0.02662147 -0.03683754 -0.052582905
0.053744707 -0.040623836 0.04539467 -0.019764896 -0.05369749 -0.042101037 -0.041407146 -0.0033257166
0.04972386 -0.029872183 0.05338447 0.059324607 0.023676964 0.03403769 -0.04907559 0.021348383
