inventory/ark_material.onnx (onnx, 728793 bytes, 8 tensors)

35 f4 [8, 3, 5, 5]
0.27693108 -0.015602656 0.28494132 0.28695828 0.19818006 0.11639674 0.3451608 0.45622078
0.001780441 -0.17444651 0.20399906 0.22176686 -0.01062902 0.3233233 0.4549632 -0.014283992
0.1752024 -0.19094147 -0.005370812 0.19052961 0.032042712 -0.28563944 0.4141269 0.39894438
0.15894149 0.040511418 -0.09638637 0.49267817 0.008576482 0.26467845 -0.22848108 0.20335719
-0.11714076 0.24233317 -0.13243042 -0.06793034 -0.012824598 -0.04380321 -0.10273841 -0.23150223
-0.15307176 0.049672104 -0.30263764 -0.18651195 -0.28218892 -0.40152642 0.16035943 -0.16065145
-0.4031207 -0.119109236 0.21894234 0.03790038 -0.12585169 0.45112842 -0.06906681 0.011541368
-0.30492526 -0.17567313 0.18158586 0.3009595 -0.13069339 -0.27811024 -0.09589946 0.20612618
0.36925974 -0.06364646 0.052642927 0.3427303 -0.03812049 0.040895127 -0.012160363 -0.16649619
0.22889207 -0.17325903 0.05209512 -0.3270748 -0.020575877 -0.43623087 0.20274556 -0.39816916
-0.2691583 0.18898888 -0.5774822 -0.3934211 -0.17054217 0.27305296 0.04554172 0.011562154
-0.2558574 0.20805971 0.3096942 -0.26600394 -0.06575989 0.08401745 0.53567237 -0.41118273
0.07577863 0.38763386 -0.0039082775 0.13698928 -0.29073542 -0.18214227 -0.12774839 -0.045350235
0.19083752 0.067595795 -0.27276257 0.15559012 0.26757193 0.03404125 0.42765844 -0.22334212
0.2737135 -0.0731875 -0.074646115 0.53947026 0.56758994 -0.009733663 0.32414767 -0.027906006
0.23479296 0.25184894 0.09874893 0.1841514 0.27491504 -0.5209279 0.05014409 -0.11506656
-0.40334764 -0.35968888 -0.21618234 0.02268429 -0.4780907 -0.2108909 0.009645104 -0.24239929
-0.3716227 0.22061644 -0.20915195 0.12913166 0.11118455 -0.21634112 0.49508893 0.15225339
0.25940478 0.49615443 0.43864077 0.40427497 0.412448 0.11048235 0.052839544 -0.10521973
-0.43103316 -0.042853408 -0.20824768 -0.38586605 0.020981627 -0.31447163 -0.118591875 0.29822984
-0.25169197 -0.28005204 -0.28939626 -0.10057771 0.2664197 -0.059150364 -0.26542857 -0.19426292
-0.18427825 -0.027638512 0.023466486 -0.2577876 -0.0071733035 0.26277 0.50804394 0.15086968
-0.14486869 0.28151497 -0.2775138 -0.34655118 0.1318731 0.2359897 -0.20579343 -0.3294884
-0.17752312 0.4446407 0.13018315 -0.42540103 -0.40399548 -0.593916 -0.017903132 0.24940023
0.112394534 0.28789863 -0.1664616 -0.04942225 0.15239318 -0.6006348 -0.61890495 -0.37622535
-0.16560003 0.10331313 -0.42978537 0.40202084 0.25299418 0.18028888 -0.41853088 0.20596807
0.19519997 0.021880051 -0.28345177 -0.25136694 0.18798609 0.39840427 0.41489723 -0.005116942
0.036835544 -0.22800487 -0.12625557 0.07327072 -0.0996243 0.021429136 0.19696656 0.26725087
-0.15478581 0.17151803 -0.16646224 0.5455551 0.39673823 0.034376185 -0.4029919 -0.19566172
-0.13939422 0.29272357 -0.481662 -0.029854763 0.011003764 -0.1760656 -0.35606018 -0.06893613
-0.111085236 -0.6021815 -0.096617475 -0.19590555 -0.64475304 -0.63556856 -0.4187845 -0.12332239
0.36466032 0.116930194 0.08599962 0.31761858 0.545955 -0.32136056 0.21645877 0.47903082
00000000: e9c9 8d3e 48a2 7fbc d4e3 913e 32ec 923e
00000010: b7ef 4a3e 6a61 ee3d ebb8 b03e c595 e93e
00000020: b05d e93a 1ba2 32be 21e5 503e da16 633e
00000030: 5725 2ebc a28a a53e f0f0 e83e 6807 6abc
00000040: 4268 333e 2986 43be a3fd afbb 321a 433e
00000050: 383f 033d 553f 92be 7108 d43e 7042 cc3e
00000060: 8fc1 223e 4def 253d 3866 c5bd 5040 fc3e
00000070: 5f84 0c3c ef83 873e f2f6 69be de3c 503e
00000080: 7fe7 efbd 3026 783e d79b 07be 101f 8bbd
00000090: 431e 52bc ff6a 33bd 8468 d2bd ec0e 6dbe
000000a0: d8be 1cbe fa74 4b3d 52f3 9abe fdfc 3ebe
000000b0: 117b 90be df94 cdbe 4335 243e d081 24be
000000c0: d665 cebe 8bef f3bd 6c32 603e 6e3d 1b3d
000000d0: 44df 00be 4efa e63e e672 8dbd 0218 3d3c
000000e0: 2a1f 9cbe a8e3 33be a5f1 393e 5d17 9a3e
000000f0: 7dd4 05be 7764 8ebe f066 c4bd be12 533e
00000100: 9d0f bd3e 1359 82bd 1ca0 573d 597a af3e
00000110: 3b24 1cbd a681 273d 423c 47bc fa7d 2abe
00000120: af62 6a3e d16a 31be b161 553d 5976 a7be
00000130: be8e a8bc a759 dfbe 889c 4f3e d4dc cbbe
00000140: 1ecf 89be 4d86 413e e0d5 13bf 7e6e c9be
00000150: 9ba2 2ebe 99cd 8b3e f489 3a3d 306f 3d3c
00000160: beff 82be 9b0d 553e 3d90 9e3e ab31 88be
00000170: 1fad 86bd 5711 ac3d d321 093f 8b86 d2be
00000180: d431 9b3d f277 c63e 0211 80bb eb46 0c3e
00000190: 46db 94be 8183 3abe 79d0 02be 2bc1 39bd
000001a0: e96a 433e aa6f 8a3d 89a7 8bbe 0453 1f3e
000001b0: 30ff 883e d66e 0b3d 0cf6 da3e ccb3 64be
000001c0: 2d24 8c3e 54e3 95bd 10e0 98bd b91a 0a3f
000001d0: 934d 113f f179 1fbc aff6 a53e 239b e4bc
000001e0: 916d 703e 58f2 803e e13c ca3d 2f92 3c3e
000001f0: aac1 8c3e 885b 05bf e463 4d3d 04a8 ebbd
00000200: 9583 cebe 2429 b8be e75e 5dbe 67d4 b93c
00000210: 4ec8 f4be c9f3 57be 8006 1e3c 8537 78be
00000220: 5545 bebe 47e9 613e ee2b 56be 173b 043e
00000230: bab4 e33d 8788 5dbe 4c7c fd3e 50e8 1b3e
00000240: b4d0 843e f407 fe3e 8695 e03e 21fd ce3e
00000250: 622c d33e 9244 e23d 476e 583d 717d d7bd
00000260: 61b0 dcbe 0e87 2fbd e13e 55be 3c90 c5be
00000270: a9e1 ab3c 6d02 a1be 4ce0 f2bd 95b1 983e
00000280: c5dd 80be fb62 8fbe bf2b 94be b0fb cdbd
00000290: 2a68 883e a747 72bd 41e6 87be dcec 46be
000002a0: 70b3 3cbe 296a e2bc ca3c c03c bcfc 83be
000002b0: 080e ebbb ca89 863e 2b0f 023f 957d 1a3e
000002c0: 7558 14be bb22 903e 4a16 8ebe 286f b1be
000002d0: be09 073e 49a7 713e 83bb 52be b4b2 a8be
000002e0: 9fc8 35be f2a7 e33e bb4e 053e 2ace d9be
000002f0: 7fd8 cebe e10a 18bf 97a9 92bc c662 7f3e
00000300: 1b2f e63d 7367 933e e974 2abe fc6e 4abd
00000310: f50c 1c3e 34c3 19bf 8e70 1ebf 9ca0 c0be
00000320: 0e93 29be d695 d33d d40c dcbe add5 cd3e
00000330: 7488 813e a69d 383e ae49 d6be 4be9 523e
00000340: 80e2 473e cb3d b33c 9720 91be 2bb3 80be
00000350: 6d7f 403e a5fb cb3e 696d d43e 05ac a7bb
00000360: dee0 163d 1c7a 69be 2449 01be f60e 963d
00000370: d307 ccbd 288c af3c 9ab1 493e 1bd5 883e
00000380: 2c80 1ebe 6ca2 2f3e 1475 2abe 80a9 0b3f
00000390: 4621 cb3e 0bce 0c3d f454 cebe 8c5b 48be
000003a0: 5cbd 0ebe dddf 953e 679c f6be fa91 f4bc
000003b0: 2249 343c 8a4a 34be 854d b6be 632e 8dbd
000003c0: a880 e3bd 9128 1abf 62df c5bd 779b 48be
000003d0: 890e 25bf 9fb4 22bf ec6a d6be 7390 fcbd
000003e0: c2b4 ba3e 1979 ef3d 9220 b03d e79e a23e
000003f0: b5c3 0b3f 5f89 a4be 5ea7 5d3e 8743 f53e

36 f4 [8]
-1.219358 -0.76620656 1.7123455 0.53757656 -0.66835827 1.2050025 1.0961607 1.1227784
00000000: ec13 9cbf 1d26 44bf 232e db3f 9e9e 093f
00000010: 8719 2bbf 863d 9a3f fe4e 8c3f 34b7 8f3f

38 f4 [16, 8, 3, 3]
-0.5778464 0.6561056 -0.59214145 0.5807063 -0.43292645 -1.2429309 -0.09914332 -1.2334839
-0.9041281 -0.019482002 0.100050144 -0.412424 -0.09362982 0.12753934 -0.96630794 0.88204455
-1.0522044 -0.41324958 -0.09952952 0.009856665 -0.14198254 0.123823136 0.60518944 0.04875127
0.25137904 -0.5679696 0.9015113 -0.11803163 0.2407796 -0.2375948 0.044164784 -1.232422
-1.1247492 -0.39206713 -1.0372567 0.40240288 0.3737803 0.32741934 0.7079396 -0.38570604
0.5614457 -0.0022457398 -0.43634167 0.041861784 -0.47451568 -0.41519153 -0.40020034 -0.08650047
0.87680215 0.6272233 -0.9924687 -0.6821758 -1.1403079 -0.58470595 -0.32719874 -0.4775126
1.1374878 -0.5515227 -0.4458821 0.028328285 0.38125125 -0.4021112 -1.004265 0.21219231
0.30449405 -0.5140054 0.30199218 0.0089509655 -0.7164375 0.26501492 -0.008894282 -0.23201476
0.74914247 -1.1957437 -0.5326537 -1.2006372 1.1279742 -0.512531 0.16531846 -1.0546857
-0.018804336 0.3471121 -0.09532282 -0.34823406 -0.502814 -0.9805789 -0.7646569 0.93247175
-1.2427124 -0.48385528 0.23452812 -0.3829489 -0.4465056 -0.2856976 0.37758836 -1.1302049
1.2635239 0.6572819 1.6825793 -0.29023927 0.78824306 0.34554434 -0.3564309 -0.23880216
-0.33194482 -0.8230892 0.29544955 -1.1735767 0.6405127 -1.7019083 0.8630785 1.4163728
2.3196757 0.36051887 0.5015755 1.2710539 1.1507967 -0.7503516 1.0068449 0.513509
-0.22768976 -1.4728311 0.6168877 0.8242228 -0.71321535 -1.1865047 0.13650961 1.4918028
-0.17979012 0.35645407 -0.16654442 0.15973072 0.07338842 0.11832265 -0.3449761 -0.33474115
-1.6384441 0.6539524 1.9775172 1.2552625 -0.8530148 -2.1748068 -2.3528588 -0.85885066
0.4392235 0.1396187 0.3294726 0.59507537 0.9756875 0.18078433 0.87156284 -0.63847095
-0.07398584 0.5448595 1.6735648 -0.16656384 1.0839121 1.5372031 0.45201218 0.8664337
-2.2905333 -1.0279677 0.013849702 0.37308022 -0.80073994 -0.46593407 0.13831963 1.3327726
0.10541299 -0.6026349 0.69536096 -0.7416187 0.49846587 -0.46146238 -0.5596185 0.20185792
1.2237732 0.86921203 -1.3786232 -0.27179527 0.48456928 0.38552737 0.08157481 -1.5962311
-0.73826355 -0.12540756 0.7176545 1.3048058 -1.8138534 0.62580544 0.37615228 -1.0403756
1.5073537 1.9356667 0.39723238 0.21751249 0.11226307 -1.2510984 -0.49779877 0.84685445
0.022881487 -0.78280866 0.8370008 -0.49887484 -0.5986151 1.1156119 -1.0006218 0.013670426
0.51182103 -0.25649327 -1.2020316 1.0273696 0.013543808 -0.44452524 0.82183266 -0.710522
0.7343153 -0.12179513 -1.3662944 0.21031848 -0.4537929 -0.9454587 -0.41027725 1.2120247
-0.29027882 -0.10626293 -2.144315 0.0007176085 0.67130643 -1.4644864 1.035126 0.9619654
-0.16429184 1.833318 -1.7373596 1.436429 -0.06287236 0.10104788 -0.30473006 1.0686426
-0.9100689 0.67645544 0.6211565 0.6184436 0.6607493 -0.98636985 0.587908 -0.47424504
-0.43540958 0.48269156 -0.98390746 0.17067258 0.72477245 1.3839862 1.4641715 0.37570712
00000000: beed 13bf 89f6 273f 9596 17bf 2ba9 143f
00000010: 89a8 ddbe 5c18 9fbf a70b cbbd cde2 9dbf
00000020: f074 67bf b898 9fbc 17e7 cc3d 3d29 d3be
00000030: fec0 bfbd ac99 023e f55f 77bf accd 613f
00000040: a2ae 86bf 7395 d3be 22d6 cbbd d97d 213c
00000050: df63 11be fc96 fd3d b2ed 1a3f 69af 473d
00000060: c1b4 803e 7566 11bf 72c9 663f 91ba f1bd
00000070: ed8e 763e 0d4c 73be 22e6 343d 01c0 9dbf
00000080: c8f7 8fbf 06bd c8be d4c4 84bf c007 ce3e
00000090: 2260 bf3e 82a3 a73e 883b 353f 437b c5be
000000a0: e8ba 0f3f 432d 13bb 2d68 dfbe 4377 2b3d
000000b0: b8f3 f2be fc93 d4be 0fe7 ccbe 2927 b1bd
000000c0: 1b76 603f b591 203f 6e12 7ebf 13a3 2ebf
000000d0: 9cf5 91bf 4aaf 15bf 9886 a7be 887c f4be
000000e0: 3399 913f 9730 0dbf a94a e4be b810 e83c
000000f0: 5d33 c33e 85e1 cdbe c18b 80bf f148 593e
00000100: a5e6 9b3e dc95 03bf b89e 9a3e 12a7 123c
00000110: 7368 37bf 09b0 873e 53b9 11bc 4795 6dbe
00000120: cdc7 3f3f 210e 99bf fe5b 08bf 7bae 99bf
00000130: 7561 903f 3b35 03bf 3e49 293e f1ff 86bf
00000140: 8d0b 9abc adb8 b13e 9c38 c3bd bc4b b2be
00000150: 6bb8 00bf 3807 7bbf 8ec0 43bf 78b6 6e3f
00000160: 3311 9fbf e1bb f7be 2428 703e e111 c4be
00000170: 629c e4be f546 92be 4353 c13e 8eaa 90bf
00000180: 27bb a13f a043 283f c25e d73f 3e9a 94be
00000190: 4cca 493f 30eb b03e 1c7e b6be 8e88 74be
000001a0: acf4 a9be f9b5 52bf 2a45 973e c337 96bf
000001b0: a4f8 233f 22d8 d9bf b6f2 5c3f b44b b53f
000001c0: 9175 1440 ee95 b83e 4167 003f e5b1 a23f
000001d0: 4e4d 933f 0b17 40bf 4be0 803f 5375 033f
000001e0: 8127 69be bb85 bcbf 5aec 1d3f 4400 533f
000001f0: 4895 36bf 63df 97bf 2dc9 0b3e 65f3 be3f
00000200: e71a 38be 2681 b63e 9f8a 2abe 7390 233e
00000210: ab4c 963d 2553 f23d b5a0 b0be 3163 abbe
00000220: 89b8 d1bf 6d69 273f 491f fd3f 71ac a03f
00000230: 2e5f 5abf 0930 0bc0 3d95 16c0 a3dd 5bbf
00000240: e7e1 e03e 34f8 0e3e a2b0 a83e dc56 183f
00000250: a8c6 793f 871f 393e be1e 5f3f d572 23bf
00000260: e385 97bd ea7b 0b3f 5f37 d63f b68f 2abe
00000270: a2bd 8a3f 12c3 c43f 246e e73e 99ce 5d3f
00000280: 1998 12c0 7294 83bf dce9 623c 5f04 bf3e
00000290: 4bfd 4cbf e98e eebe a9a3 0d3e 4b98 aa3f
000002a0: c4e2 d73d 4846 1abf 2d03 323f b9da 3dbf
000002b0: eb36 ff3e cc44 ecbe 2843 0fbf d8b3 4e3e
000002c0: 9aa4 9c3f ae84 5e3f ba76 b0bf c028 8bbe
000002d0: 7719 f83e d863 c53e b210 a73d 4d51 ccbf
000002e0: d7fe 3cbf d76a 00be 35b8 373f e003 a73f
000002f0: 592c e8bf c934 203f 0897 c03e 072b 85bf
00000300: f7f0 c03f edc3 f73f 0b62 cb3e 98bb 5e3e
00000310: 2eea e53d fe23 a0bf 7bdf febe 74cb 583f
00000320: f571 bb3c 2666 48bf af45 563f 866c ffbe
00000330: d73e 19bf 5fcc 8e3f 6014 80bf ecf9 5f3c
00000340: b406 033f 1653 83be 2cdc 99bf d980 833f
00000350: d9e6 5d3c d098 e3be a063 523f c5e4 35bf
00000360: 16fc 3b3f ba6f f9bd bce2 aebf ba5d 573e
00000370: 8b57 e8be 9509 72bf dc0f d2be a023 9b3f
00000380: 6d9f 94be 61a0 d9bd 753c 09c0 e41d 3c3a
00000390: bdda 2b3f 4a74 bbbf 027f 843f 5d43 763f
000003a0: 1f3c 28be 2aaa ea3f cd61 debf e8dc b73f
000003b0: 39c3 80bd 31f2 ce3d 9405 9cbe 48c9 883f
000003c0: 47fa 68bf 2f2c 2d3f 1d04 1f3f 5252 1e3f
000003d0: de26 293f bc82 7cbf 2481 163f 3fd0 f2be
000003e0: 01ee debe 5923 f73e 5ce1 7bbf cbc4 2e3e
000003f0: b08a 393f 7626 b13f f969 bb3f af5c c03e

39 f4 [16]
4.5720067 1.6933334 -1.9261395 -1.3988657 -1.1940373 3.3275728 2.2240283 -0.70083046
-1.5372102 1.2016344 0.6617001 -2.708254 1.2538518 3.164185 -1.4417397 1.052007
00000000: e14d 9240 26bf d83f bd8b f6bf 080e b3bf
00000010: 37d6 98bf f4f6 5440 7b56 0e40 a069 33bf
00000020: 4ec3 c4bf 28cf 993f 2e65 293f 0954 2dc0
00000030: 377e a03f 0282 4a40 ed8a b8bf 2aa8 863f

fc.0.bias f4 [530]
-0.04174873 0.096272334 -0.014340569 -0.04002481 0.018480439 -0.0091031855 0.12088109 0.045726616
0.11997446 0.06807528 0.051466126 0.060854547 0.034252007 0.013958702 0.04702954 0.13935919
0.07514768 0.01494634 0.12252912 0.09006121 0.00019717924 -0.01850611 0.05389457 0.077277906
0.055265315 0.14235589 0.006162512 0.0145469885 0.11828405 0.070073195 0.10453154 0.01325873
0.034445085 -0.0020852536 0.051506225 0.08464702 0.078532234 0.057054177 -0.07349333 0.07120382
0.050404616 -0.047974624 -0.06581226 -0.027120797 0.010758615 0.0028528422 0.061923433 -0.00591536
0.09336941 0.0435578 -0.053601075 0.021171961 -0.04386033 0.118449606 0.151479 0.039840583
0.036098868 -0.03696307 0.057100184 0.09245879 0.083328635 -0.03409159 0.0739238 0.09968283
0.024676116 -0.023806868 0.0011825865 -0.02668142 0.05835738 0.051763974 0.058709048 0.032825246
0.008766208 0.057248726 0.10441132 -0.07170714 0.120568454 0.041630562 -0.035390794 0.121340476
0.010493491 0.012307271 0.091060646 0.010836724 0.030393364 0.016242577 -0.030580522 0.050049387
0.13433053 0.046933476 0.06786549 0.09578385 0.06546517 -0.055433773 0.06182651 -0.0035796375
0.008404951 0.05407959 -0.026835674 0.019348394 0.124295056 0.021714205 -0.04893551 -0.006411263
-0.016834503 0.08624746 0.11138072 0.012521826 0.11383987 -0.07779626 0.049079753 0.032599553
0.01748748 0.017093586 0.1332121 0.09708246 -0.03223787 0.09179802 -0.053748727 0.12803237
-0.04649393 -0.017334623 0.07392426 0.025987715 -0.009749257 0.07642136 0.047522347 -0.01653228
-0.059823297 0.032135952 -0.06983725 -0.042482875 -0.06705344 0.07399523 0.020056147 0.123145774
0.07124844 0.05898224 0.12828797 0.0036224467 0.017269006 -0.037914824 0.09380289 0.025435282
0.028346453 0.095263764 0.036342498 0.04818355 0.03525897 -0.045402482 -0.074462436 0.08511415
0.08727603 0.06613108 0.023078006 0.039742272 -0.025618466 0.011662605 -0.027813269 0.031295452
0.074861646 0.099499404 0.0700411 0.10317825 0.08660882 0.08748858 0.07713428 -0.048187677
-0.042362608 0.09679281 0.039910205 0.07698716 0.035423532 0.046373997 0.13541183 0.06481423
0.10051142 -0.029681778 -0.02248221 0.016862636 0.10991707 0.07314644 0.07804442 -0.037925288
0.054925896 -0.038234133 0.03861663 0.095640264 0.04404783 0.0015789918 -0.008822502 0.030366944
-0.04393474 0.12021087 0.031506084 -0.023118248 -0.051080655 0.05361613 0.01985825 0.09831533
0.06824911 0.045283124 -0.002266149 0.13588648 0.068360314 -0.004878821 0.11317653 0.14503963
0.11466663 0.051338878 0.06906872 0.10100134 0.05177687 0.030091397 0.037536994 0.14814834
0.030525 0.09925426 -0.031773765 0.11147457 0.13147902 -0.013148175 0.10667101 0.1255022
-0.08121492 0.14555483 0.06388604 0.058540594 0.0917314 0.038469657 0.024947265 -0.03992001
0.082587175 0.050221995 0.0005332305 0.018302614 -0.04130734 0.093768135 0.07491685 0.12883753
0.09532867 0.0037095984 0.038774915 -0.09002668 -0.0076093674 0.04706843 0.05297421 0.05968598
-0.059187975 -0.062989704 0.11103522 -0.0634577 0.06931259 0.045076225 -0.07744507 0.13895571
00000000: b700 2bbd 6e2a c53d b5f4 6abc 0ef1 23bd
00000010: 4a64 973c 8725 15bc 8190 f73d d54b 3b3d
00000020: 2bb5 f53d 0d6b 8b3d 25ce 523d 9e42 793d
00000030: d54b 0c3d 0ab3 643c 0ca2 403d 2db4 0e3e
00000040: 07e7 993d 7ee1 743c 8cf0 fa3d 0372 b83d
00000050: e6c1 4e39 209a 97bc 8dc0 5c3d e143 9e3d
00000060: e25d 623d bec5 113e e6ee c93b 7e56 6e3c
00000070: e83e f23d 8982 8f3d a214 d63d 253b 593c
00000080: 4a16 0d3d c0a8 08bb 31f8 523d 6b5b ad3d
00000090: 82d5 a03d a4b1 693d ac83 96bd 4fd3 913d
000000a0: 1275 4e3d 0a81 44bd 94c8 86bd 6f2c debc
000000b0: e744 303c c0f6 3a3b 6da3 7d3d a3d5 c1bb
000000c0: 7638 bf3d aa69 323d cd8c 5bbd d270 ad3c
000000d0: e4a6 33bd b595 f23d 501d 1b3e e12f 233d
000000e0: 68dc 133d 9766 17bd e2e1 693d 095b bd3d
000000f0: 34a8 aa3d a0a3 0bbd 5c65 973d 8326 cc3d
00000100: 9125 ca3c 9f06 c3bc 0501 9b3a fe92 dabc
00000110: 2608 6f3d 7606 543d e678 703d c473 063d
00000120: 24a0 0f3c a47d 6a3d 9ad5 d53d 31db 92bd
00000130: 98ec f63d cf84 2a3d f0f5 10bd 5b81 f83d
00000140: e4ec 2b3c 70a4 493c 017e ba3d 848c 313c
00000150: 81fb f83c 270f 853c 0184 fabc 9600 4d3d
00000160: f18d 093e 513d 403d 10fd 8a3d 532a c43d
00000170: 9a12 863d 860e 63bd cb3d 7d3d 5a98 6abb
00000180: ebb4 093c 8f82 5d3d 7dd6 dbbc 8680 9e3c
00000190: 688e fe3d fde1 b13c 9a70 48bd 9215 d2bb
000001a0: 83e8 89bc 82a2 b03d 931b e43d 5828 4d3c
000001b0: e124 e93d a553 9fbd da07 493d 1c87 053d
000001c0: e741 8f3c d907 8c3c c168 083e 2bd3 c63d
000001d0: db0b 04bd 9a00 bc3d a027 5cbd eb1a 033e
000001e0: 6b70 3ebd 5701 8ebc 9a65 973d 30e4 d43c
000001f0: 59bb 1fbc cd82 9c3d cba6 423d b46e 87bc
00000200: 4609 75bd fda0 033d d506 8fbd 8602 2ebd
00000210: 5053 89bd d08a 973d ca4c a43c da33 fc3d
00000220: b4ea 913d 5c97 713d ec5d 033e 9266 6d3b
00000230: bb77 8d3c 934c 1bbd bb1b c03d a75d d03c
00000240: d236 e83c a619 c33d dfdb 143d 1d5c 453d
00000250: b66b 103d f4f7 39bd c37f 98bd 5450 ae3d
00000260: c6bd b23d bb6f 873d 160e bd3c cbc8 223d
00000270: d1dd d1bc 8314 3f3c a7d8 e3bc a92f 003d
00000280: 1051 993d 58c6 cb3d b571 8f3d 1e4f d33d
00000290: f75f b13d 362d b33d 94f8 9d3d 7160 45bd
000002a0: 6a84 2dbd 4f3b c63d e278 233d 72ab 9d3d
000002b0: 4418 113d a9f2 3d3d 66a9 0a3e 53bd 843d
000002c0: eed8 cd3d 3327 f3bc 9d2c b8bc 8323 8a3c
000002d0: 331c e13d cdcd 953d c1d5 9f3d 8c57 1bbd
000002e0: faf9 603d 659b 1cbd 792c 1e3d 0bdf c33d
000002f0: 7f6b 343d 2cf6 ce3a 418c 10bc 19c4 f83c
00000300: eaf4 33bd 1e31 f63d 860c 013d 7b62 bdbc
00000310: f339 51bd 969c 5b3d c5ad a23c 8c59 c93d
00000320: 30c6 8b3d cc7a 393d ac83 14bb d325 0b3e
00000330: 7e00 8c3d 84de 9fbb 19c9 e73d 4585 143e
00000340: 57d6 ea3d b748 523d e773 8d3d cad9 ce3d
00000350: fc13 543d 3c82 f63c 64c0 193d 33b4 173e
00000360: 910f fa3c d145 cb3d 3525 02bd c84c e43d
00000370: 70a2 063e 716b 57bc 5576 da3d a683 003e
00000380: 0254 a6bd 530c 153e afd6 823d 43c8 6f3d
00000390: acdd bb3d 5c92 1d3d 355e cc3c 2a83 23bd
000003a0: 7723 a93d 94b5 4d3d 7ec8 0b3a 5def 953c
000003b0: e331 29bd 8209 c03d 016e 993d fced 033e
000003c0: ae3b c33d bc1c 733b 72d2 1e3d e85f b8bd
000003d0: 0058 f9bb d3ca 403d 7cfb 583d 4979 743d
000003e0: 176f 72bd bf00 81bd 6f66 e33d 1cf6 81bd
000003f0: c2f3 8d3d d9a1 383d 859b 9ebd 684a 0e3e

fc.0.weight f4 [530, 64]
0.014060764 0.047648046 0.060611356 0.023505993 -0.033824127 0.083208136 0.027516624 0.18057871
0.11883219 -0.066892646 -0.049606435 0.009240548 -0.03548296 -0.0581818 0.00664076 0.1326999
-0.04785329 0.020526394 0.052600604 0.17894831 0.105722554 0.12551954 -0.15434173 0.12252576
0.016558375 0.12075392 0.16392295 -0.12561698 0.0035082495 0.09929231 0.06489997 -0.02611511
0.060972925 0.16573901 -0.01304438 0.036893304 0.032188363 0.071015656 -0.16206862 0.08895291
-0.028783018 -0.010525031 -0.07496336 0.029542934 -0.13652308 -0.060158923 0.01982918 -0.08425101
-0.0007242989 -0.14259101 0.040004842 0.07259841 0.030754713 -0.059008677 -0.12004076 0.005558294
0.0676879 0.12456676 -0.026806526 -0.082621776 -0.0898999 0.087025724 0.028339658 0.0009017493
0.14693877 0.02845135 -0.033505134 -0.13961379 -0.04290312 0.14924718 0.19689877 0.06842641
0.023969602 -0.12880598 -0.077678874 -0.023497157 -0.0827712 0.028355105 0.009541821 0.02746505
-0.008803731 -0.0043427665 -0.013507382 0.17780313 0.06192697 0.0690527 -0.074626334 0.041684102
-0.058151677 0.035074603 -0.1309096 -0.023930464 0.01033862 0.013738686 0.12977363 0.16761234
7.244968e-05 -0.018968644 -0.024110867 0.046308074 0.08054773 -0.04921333 -0.001367923 -0.14314994
0.028984131 0.058219165 0.024566475 -0.047593046 0.052891247 0.09959307 0.064850196 0.13818182
0.0038065212 -0.1393204 -0.058509063 0.18312183 -0.04057776 0.13473001 0.05277739 0.07391475
-0.011631037 0.0041330582 -0.052274246 -0.06645079 -0.039736167 0.038553912 -0.0010481182 0.067324445
0.034899615 0.04071599 -0.046909977 0.058186963 0.101999156 -0.056169804 0.16518857 -0.06444751
-0.07861181 0.050655857 -0.10703871 -0.031846866 -0.011206375 0.09120812 0.070571624 0.10281016
0.015511806 0.08621966 -0.10712848 -0.11967285 0.018919552 -0.06708622 -0.057265505 0.0610869
-0.07444712 -0.11893512 -0.022765385 0.13109384 0.098847225 0.063528 0.015271257 0.06781387
-0.08226172 -0.029835636 0.08569061 0.09921805 -0.014953337 -0.007815073 0.061444253 0.06459113
0.13711414 -0.0714649 0.15305893 0.12746952 -0.041490465 0.014503475 -0.032833718 0.0952526
-0.12343791 0.13082254 -0.051812623 0.110849604 -0.009118077 0.09350997 0.10428277 -0.15101539
0.08360226 0.07146086 -0.07166247 0.12390511 0.14558713 0.11106061 -0.029085962 -0.051618572
-0.020850064 0.10767626 0.10179851 -0.09344188 0.06530207 0.0403755 -0.11214099 0.012966171
0.13532937 -0.0648231 -0.039769508 -0.10425518 0.18243702 0.061394937 0.14219731 0.18448968
-0.049384385 0.04136967 -0.04320964 0.21374469 0.019150434 -0.05209977 0.06614848 -0.035860427
0.09366991 0.07238866 -0.19208887 0.11228885 0.055828054 -0.06154963 0.12707052 -0.11168561
-0.058031484 0.12274726 0.041194387 0.12956244 0.02343031 0.018019322 0.16140296 -0.12857144
0.08953052 0.015987923 -0.025447937 0.14293437 0.055533666 -0.053213425 0.034645192 0.08807587
-0.043027926 0.10943422 0.05419102 -0.037478883 -0.10864817 0.10816569 -0.07850706 -0.037892036
-0.021882882 0.026975976 -0.06809872 -0.09310802 -0.046186056 -0.06857405 -0.0039127283 -0.03195122
00000000: 1e5f 663c 992a 433d 9d43 783d a48f c03c
00000010: 2b8b 0abd 0769 aa3d 8b6a e13c a0e9 383e
00000020: 4b5e f33d 03ff 88bd 1e30 4bbd ab65 173c
00000030: 9556 11bd 0a50 6ebd bc9a d93b 7ce2 073e
00000040: d001 44bd f826 a83c bb73 573d 3a3e 373e
00000050: 1185 d83d 3288 003e c20b 1ebe c9ee fa3d
00000060: 6ea5 873c d54d f73d 6bdb 273e bda1 00be
00000070: a9ea 653b c459 cb3d 47ea 843d 5bef d5bc
00000080: bfbe 793d 7db7 293e 18b8 55bc 6f1d 173d
00000090: f2d7 033d a870 913d 51f5 25be f12c b63d
000000a0: 5dca ebbc 2e71 2cbc 6486 99bd 0604 f23c
000000b0: b5cc 0bbe 3469 76bd ce70 a23c cb8b acbd
000000c0: e0de 3dba 6103 12be 1edc 233d 7aae 943d
000000d0: 4ff1 fb3c 15b3 71bd eed7 f5bd 5922 b63b
000000e0: f49f 8a3d dc1c ff3d 5c99 dbbc 9b35 a9bd
000000f0: 701d b8bd 8b3a b23d 9228 e83c 5f63 6c3a
00000100: 1e77 163e ce12 e93c ae3c 09bd ebf6 0ebe
00000110: 2fbb 2fbd 41d4 183e d59f 493e 2523 8c3d
00000120: e65b c43c b7e5 03be 1a16 9fbd 1c7d c0bc
00000130: f283 a9bd f748 e83c 4c55 1c3c 62fe e03c
00000140: 863d 10bc c44d 8ebb 114e 5dbc 0612 363e
00000150: 22a7 7d3d 816b 8d3d b1d5 98bd f3bc 2a3d
00000160: 7430 6ebd 63aa 0f3d 2b0d 06be d209 c4bc
00000170: 5163 293c 3a18 613c 61e3 043e 92a2 2b3e
00000180: 20f0 9738 2164 9bbc 2784 c5bc 89ad 3d3d
00000190: 35f6 a43d eb93 49bd e14b b3ba e695 12be
000001a0: 2170 ed3c 3877 6e3d a23f c93c edf0 42bd
000001b0: 7ea4 583d 74f7 cb3d 2ed0 843d 897f 0d3e
000001c0: d476 793b 02aa 0ebe 33a7 6fbd 4a84 3b3e
000001d0: de34 26bd aaf6 093e 1b2d 583d 9e60 973d
000001e0: 1b90 3ebc 9b6e 873b 851d 56bd 5a17 88bd
000001f0: 64c2 22bd b5ea 1d3d 0361 89ba 66e1 893d
00000200: e6f2 0e3d cfc5 263d ad24 40bd 7455 6e3d
00000210: efe4 d03d 4f12 66bd 3127 293e 0efd 83bd
00000220: 3bff a0bd 847c 4f3d 1c37 dbbd dc71 02bd
00000230: f29a 37bc 53cb ba3d db87 903d 228e d23d
00000240: 3b25 7e3c ef93 b03d 2d66 dbbd 0a17 f5bd
00000250: 2dfd 9a3c 8064 89bd 3c8f 6abd 4236 7a3d
00000260: bb77 98bd 4294 f3bd 797e babc 773d 063e
00000270: 6a70 ca3d f81a 823d 4b34 7a3c 00e2 8a3d
00000280: d578 a8bd dd69 f4bc 8f7e af3d d532 cb3d
00000290: d7fe 74bc cb0a 00bc f8ac 7b3d 5b48 843d
000002a0: a667 0c3e 315c 92bd 7bbb 1c3e 5f87 023e
000002b0: e8f1 29bd fc9f 6d3c a67c 06bd cc13 c33d
000002c0: 04cd fcbd 58f6 053e 7939 54bd 1e05 e33d
000002d0: fd63 15bc 2882 bf3d 3492 d53d c7a3 1abe
000002e0: a937 ab3d 125a 923d c6c3 92bd f6c1 fd3d
000002f0: cb14 153e bf73 e33d af45 eebc ff6d 53bd
00000300: c1cd aabc 5f85 dc3d bd7b d03d 755e bfbd
00000310: 17bd 853d c860 253d 2daa e5bd 1070 543c
00000320: c893 0a3e f9c1 84bd 5ae5 22bd bd83 d5bd
00000330: c5d0 3a3e 4279 7b3d 2c9c 113e ddea 3c3e
00000340: 4847 4abd 3e73 293d 97fc 30bd e3df 5a3e
00000350: 5fe1 9c3c 9266 55bd db78 873d 62e2 12bd
00000360: 03d6 bf3d 8140 943d f2b2 44be b2f7 e53d
00000370: f5ab 643d 771b 7cbd c61e 023e 6dbb e4bd
00000380: 6cb2 6dbd ea62 fb3d 72bb 283d 04ac 043e
00000390: ecf0 bf3c 429d 933c d146 253e 3ba8 03be
000003a0: c75b b73d 1bf9 823c 3178 d0bc 635d 123e
000003b0: 4577 633d 52f6 59bd 1ee8 0d3d 1f61 b43d
000003c0: 0d3e 30bd 0c1f e03d 67f7 5d3d 7583 19bd
000003d0: ef82 debd f985 dd3d 4fc8 a0bd ae34 1bbd
000003e0: bb43 b3bc b9fc dc3c 5777 8bbd 6baf bebd
000003f0: 972d 3dbd 8d70 8cbd 5836 80bb 48df 02bd

fc.3.bias f4 [265]
-0.01844944 -0.049709246 -0.033506688 -0.021729872 -0.00087468943 0.0012740319 0.009295477 0.0090686325
-0.02659598 -0.013359418 -0.010658323 -0.034864854 0.0012021929 0.023860672 0.00022492751 -0.005421601
-0.0011634359 -0.029834535 -0.033470422 -0.03388521 -0.0046508084 -0.017585265 -0.0070720213 0.05768213
-0.0046395217 0.029875305 0.0067758164 -0.036873728 -0.020574264 -0.005504239 -0.036440406 0.0045170058
-0.012443813 0.035983875 0.008936076 0.009653704 -0.036256302 0.012463148 -0.037218083 -0.007026767
-0.043293696 -0.0775653 -0.014153339 -0.024373448 0.040773656 0.017794292 -0.0054836273 -0.016165372
-0.0064272266 -0.009328444 0.0066661984 -0.0026287425 0.008119539 -0.034151267 -0.010381674 0.011267739
0.06266518 0.010530035 -0.009280498 -0.0059574274 0.010413862 -0.049854532 -0.038825452 0.042130765
-0.0332076 -0.006190973 -0.004498502 -0.003924954 -0.008126597 0.0056586415 -0.021728046 -0.031657014
-0.032195304 -0.039839562 -0.05934553 -0.033258017 0.0076227672 0.018326564 0.0404514 -0.025171984
-0.050188214 -0.030364292 0.005987506 0.0037550768 0.034765106 -0.010907073 -0.023727672 -0.0064897332
0.0068908148 0.011044835 -0.009293502 0.026836103 0.002964801 -0.032569654 0.04580091 -0.024078568
-0.03470321 -0.030119441 -0.005453644 -0.018869737 -0.0024435956 -0.0154138515 0.0062221494 -0.014651204
0.0018141468 -0.036757823 0.012946926 0.029211117 0.018605046 -0.0008695331 -0.027855532 -0.028307691
-0.04138843 -0.012972644 -0.021458946 0.022476314 0.0014015241 -0.018933015 -0.02492726 -0.0052768835
-0.018503524 -0.020131148 -0.024603296 -0.024929915 0.08353111 -0.020390918 -0.010281668 -0.012167623
0.011389619 -0.022698099 -0.008299032 0.015737826 -0.032102652 0.008932443 0.015003663 -0.021000545
0.013687556 -0.043358725 0.031675525 0.03970219 -0.024101086 0.028337007 -0.02539818 -0.000970642
-0.02632901 -0.012383497 0.0038269544 -0.0125729265 -0.008012834 0.012100287 0.017734302 0.010028559
-0.011541584 -0.018729277 0.048295323 0.020305846 -0.035346214 0.016499214 -0.04124396 0.027563315
-0.0055963215 0.01197176 -0.0019351539 -0.052976653 -0.010662421 0.008135656 0.023215586 -0.014040473
-0.038688667 -0.016211325 -0.017725654 -0.0030399486 0.018373875 0.04599319 -0.03091 -0.042721394
-0.04124633 -0.023899756 -0.0039703995 -0.0073297694 -0.033063397 -0.046119925 -0.027508216 0.02069941
-0.00578007 -0.0054762834 0.0008778556 0.003947208 0.027410213 -0.01579503 0.0058882684 0.014828485
0.0053014667 -0.01667745 -0.012826201 -0.013778464 0.0019480152 -0.024505768 -0.009991051 0.017165901
0.026478361 0.027334461 -0.04433817 -0.028696148 -0.015331444 -0.002823404 -0.0019299504 -0.0038003516
0.019692013 -0.038265876 0.024101177 -0.020082265 0.04443866 0.004067604 0.025731452 -0.022501517
0.0052596163 -0.00433829 -0.049930066 -0.061401572 0.0019724339 -0.0009055748 -0.005656805 5.860495e-05
-0.006398645 -0.0037223266 0.05104625 -0.012987245 -0.021992674 -0.03312911 0.04199685 0.00078606483
0.027597826 0.010062369 -0.026234627 0.0005983799 0.022691019 0.012393356 -0.008892657 -0.021035036
-0.02775807 0.046630654 -0.012083645 -0.028704612 -0.005850451 0.010162081 0.0005973816 -0.010824227
0.055012576 -0.037805256 0.021873962 -0.051875804 0.029771782 0.014574707 -0.01658911 -0.0077753896
00000000: 4823 97bc ec9b 4bbd 4f3e 09bd d802 b2bc
00000010: 6a4b 65ba 6bfd a63a 0e4c 183c 9a94 143c
00000020: d0df d9bc 76e1 5abc 3fa0 2ebc 73ce 0ebd
00000030: e692 9d3a 7577 c33c 85da 6b39 afa7 b1bb
00000040: 6e7e 98ba 8e67 f4bc 4818 09bd 38cb 0abd
00000050: cf65 98bb f90e 90bc 6abc e7bb 1944 6c3d
00000060: 2107 98bb 0ebd f43c ab07 de3b e808 17bd
00000070: 5c8b a8bc e75c b4bb 8942 15bd 6403 943b
00000080: 22e1 4bbc d463 133d 9f68 123c 922a 1e3c
00000090: 7d81 14bd 3b32 4c3c fd71 18bd cb40 e6bb
000000a0: bb54 31bd 8eda 9ebd 68e3 67bc d3aa c7bc
000000b0: 4702 273d 56c5 913c 00b0 b3bb 3e6d 84bc
000000c0: 7c9b d2bb 54d6 18bc 2070 da3b fb46 2cbb
000000d0: d107 053c 33e2 0bbd e617 2abc 539c 383c
000000e0: 9a56 803d 2b86 2c3c 3b0d 18bc 8636 c3bb
000000f0: e79e 2a3c 4434 4cbd 7007 1fbd 4f91 2c3d
00000100: b104 08bd a5dd cabb 2b68 93bb e79c 80bb
00000110: 6b25 05bc 206c b93b 04ff b1bc c9aa 01bd
00000120: 39df 03bd cf2e 23bd 4c14 73bd 8f39 08bd
00000130: 68c8 f93b 9721 963c 5eb0 253d 7a35 cebc
00000140: 2892 4dbd 89be f8bc d732 c43b bc17 763b
00000150: db65 0e3d 94b3 32bc 8960 c2bc d4a7 d4bb
00000160: 58cc e13b 65f5 343c c643 18bc 63d7 db3c
00000170: 1b4d 423b c267 05bd bc99 3b3d 6b40 c5bc
00000180: f424 0ebd 0cbd f6bc 7bb4 b2bb b594 9abc
00000190: bb24 20bb 618a 7cbc 2ce3 cb3b 9b0b 70bc
000001a0: aac8 ed3a 5f8f 16bd 581f 543c 274c ef3c
000001b0: 9c69 983c 61f1 63ba 4931 e4bc 88e5 e7bc
000001c0: ea86 29bd 368b 54bc acca afbc 3f20 b83c
000001d0: 58b3 b73a 6919 9bbc 4134 ccbc b5e9 acbb
000001e0: b494 97bc 14ea a4bc da8c c9bc d239 ccbc
000001f0: 5c12 ab3d db0a a7bc 7174 28bc b65a 47bc
00000200: 869b 3a3c 5df1 b9bc aaf8 07bc 9dec 803c
00000210: 127e 03bd 6259 123c ecd1 753c 5609 acbc
00000220: c541 603c eb98 31bd 32be 013d c39e 223d
00000230: a46f c5bc 0323 e83c d80f d0bc af72 7eba
00000240: f0af d7bc 27e4 4abc a4cd 7a3b adfe 4dbc
00000250: 4348 03bc 4840 463c 8747 913c d34e 243c
00000260: e918 3dbc 246e 99bc 51d1 453d 7258 a63c
00000270: 31c7 10bd 5c29 873c 6def 28bd 76cc e13c
00000280: 5961 b7bb 3325 443c fda4 fdba 0cfe 58bd
00000290: 6fb1 2ebc 6a4b 053c 9d2e be3c 030a 66bc
000002a0: 0278 1ebd 9dcd 84bc 6435 91bc e039 47bb
000002b0: cf84 963c 5b63 3c3d f836 fdbc a1fc 2ebd
000002c0: e9f1 28bd 6cc9 c3bc 201a 82bb 902e f0bb
000002d0: 7c6d 07bd 3fe8 3cbd e958 e1bc cf91 a93c
000002e0: be66 bdbb 6572 b3bb e41f 663a 9557 813b
000002f0: 628b e03c 9464 81bc 60f2 c03b 2df3 723c
00000300: edb7 ad3b 269f 88bc fc24 52bc 11bf 61bc
00000310: 8b54 ff3a 52c0 c8bc 81b1 23bc 819f 8c3c
00000320: 26e9 d83c 85ec df3c f19b 35bd 2f14 ebbc
00000330: bd30 7bbc dc08 39bb 64f6 fcba 520f 79bb
00000340: 2551 a13c aebc 1cbd d56f c53c 9083 a4bc
00000350: 5005 363d 8949 853b c4ca d23c 1a55 b8bc
00000360: dc58 ac3b 3728 8ebb 7883 4cbd 3780 7bbd
00000370: f343 013b 1964 6dba b85c b9bb 96ce 7538
00000380: baab d1bb 47f2 73bb df15 513d 74c8 54bc
00000390: fb29 b4bc 64b2 07bd e404 2c3d eb0f 4e3a
000003a0: d614 e23c a2dc 243c 00ea d6bc 98dc 1c3a
000003b0: 84e2 b93c 810d 4b3c 82b2 11bc ab51 acbc
000003c0: e464 e3bc c9ff 3e3d 7bfa 45bc ef25 ebbc
000003d0: 24b5 bfbb db7e 263c 9a99 1c3a 1958 31bc
000003e0: de54 613d afd9 1abd 0631 b33c b97b 54bd
000003f0: f4e3 f33c c0ca 6e3c e3e5 87bc b2c8 febb

fc.3.weight f4 [265, 530]
-0.004760577 0.023332255 0.012569588 0.01036276 0.06217158 -0.019913211 -0.03912196 0.017232448
0.040434383 -0.050968766 0.049760282 -0.05966033 -0.04199154 -0.0065628085 0.010013986 0.0014408166
-0.00032755814 -0.021785706 -0.041462112 0.06739658 0.030336125 0.0635662 0.028511293 -0.0451518
0.012802263 -0.035833478 0.012917523 -0.03040153 0.03824681 0.0796395 -0.05180201 4.630784e-05
-0.0005759607 -0.03917579 -0.040868636 -0.0392257 0.028323125 0.038445808 -0.015104882 0.014269021
0.05518829 -0.038765553 -0.046191167 0.04035001 -0.0034226694 0.026659612 -0.03491033 -0.045785476
-0.0021686335 -0.0962132 0.019089084 0.04189156 -0.031012896 0.014548376 0.037942164 -0.014237723
0.05817438 -0.00038446937 -0.03970872 0.05890638 -0.017518569 0.0062637464 0.0132963685 0.013027152
0.025438631 -0.042290922 -0.028479857 0.0066544567 -0.039113443 -0.03628359 -0.05277057 -0.029334672
0.0085664755 0.024237707 -0.046007972 0.0200355 -0.043882005 0.010030814 0.029097764 0.03157753
-0.03059489 -0.053961467 0.06386582 -0.07272764 0.032866538 0.050958607 0.055069275 0.041497562
0.013351155 0.043697577 -0.0037375286 -0.03751643 -0.03879601 0.005271091 0.013244812 0.04933153
-0.045456268 0.0306953 -0.0038368085 -0.024220426 -0.040878013 -0.022751022 -0.05066892 -0.0486529
-0.06732817 -0.049668137 -0.026660277 0.082180746 -0.08427589 0.012873748 0.010101348 -0.074697435
-0.04615602 -0.025289522 -0.0033583539 0.02206141 -0.03397992 -0.035476543 -0.029652068 -0.082526766
0.041336678 -0.08195871 0.068074465 0.060272325 -0.004610156 -0.020634724 0.02143778 -0.03224756
-0.014243773 0.07906465 -0.0041422574 0.0052347 0.01622959 -0.03086762 -0.042606708 0.015286417
0.03523841 -0.06101729 -0.04313471 -0.045136437 0.017267758 0.002306277 -0.04185582 -0.043572087
-0.028525455 -0.07077685 0.026009755 -0.036757875 -0.02611796 -0.041781165 0.020395895 0.059405595
-0.038771603 -0.039046556 0.02773261 -0.039554197 0.018779768 -0.05252873 -0.041165404 -0.03874192
-0.0019298485 0.04198004 0.01714416 -0.042691994 0.06717727 0.044708848 0.0177887 -0.017651051
-0.060409397 -0.055980366 -0.0293173 -0.009222 0.04431641 0.027246865 -0.062686436 0.022694057
-0.029482942 -0.07575805 -0.004815414 -0.063551225 -0.04115635 0.044975664 0.035365075 -0.010850631
-0.052761648 -0.029338386 -0.04989944 0.026788844 -0.072625235 -0.062250372 -0.04410225 0.047588605
-0.0033362678 -0.007861639 0.017923431 0.0010335664 0.049385965 -0.030965468 -0.013638348 -0.012991734
-0.060406994 -0.00298682 -0.05999898 -0.0031307212 -0.06027791 0.03836584 0.010206408 -0.049286544
-0.03118414 -0.06738933 -0.03235738 0.024388183 -0.036306936 -0.019878916 0.03209737 -0.056262832
0.017165896 -0.001650053 0.06717879 0.04556439 0.055918366 0.038387608 -0.006507957 0.01986227
-0.006057217 0.02346373 0.022462409 -0.06079266 -0.044323836 -0.039264094 -0.016700987 0.00365447
0.06708931 -0.018645504 0.061048247 0.05686353 0.050134692 0.047382545 0.038033906 0.0038525686
-0.03802228 0.04207496 -0.026585279 0.01583981 -0.012546165 -0.001037462 -0.041441653 0.051268697
0.0040212735 0.067048125 -0.048714757 0.060953718 0.043382492 0.005759305 0.028838329 -0.03331608
00000000: 9dfe 9bbb 4923 bf3c acf0 4d3c 91c8 293c
00000010: a0a7 7e3d 0821 a3bc 593e 20bd 102b 8d3c
00000020: 869e 253d a0c4 50bd 70d1 4b3d 645e 74bd
00000030: 52ff 2bbd d40c d7bb b411 243c c8d9 bc3a
00000040: 1cbc abb9 f077 b2bc 2dd4 29bd 3807 8a3d
00000050: 7783 f83c ff2e 823d 8490 e93c 18f1 38bd
00000060: 95c0 513c 20c6 12bd 05a4 533c a10c f9bc
00000070: b0a8 1c3d 091a a33d 582e 54bd aa3a 4238
00000080: 11fc 16ba cb76 20bd df65 27bd 21ab 20bd
00000090: e605 e83c 5a79 1d3d 787a 77bc 9dc8 693c
000000a0: 1e0d 623d a1c8 1ebd f332 3dbd 0d46 253d
000000b0: dd4e 60bb 4265 da3c 22fe 0ebd 8d89 3bbd
000000c0: a21f 0ebb 6d0b c5bd b660 9c3c 7c96 2b3d
000000d0: c20e febc 505c 6e3c 3e69 1b3d 5745 69bc
000000e0: 4248 6e3d 9b92 c9b9 9ca5 22bd d147 713d
000000f0: 1a83 8fbc 1d40 cd3b 03d9 593c d66f 553c
00000100: ad64 d03c 3f39 2dbd 974e e9bc a10d da3b
00000110: 6b35 20bd 1a9e 14bd f425 58bd 444f f0bc
00000120: 675a 0c3c 288e c63c db72 3cbd 7d21 a43c
00000130: 9ebd 33bd 4958 243c 6f5e ee3c 7157 013d
00000140: 22a2 fabc b306 5dbd 15cc 823d 3bf2 94bd
00000150: 109f 063d f9b9 503d 5290 613d 59f9 293d
00000160: cebe 5a3c 3bfc 323d 53f1 74bb d4aa 19bd
00000170: 91e8 1ebd 1eb9 ac3b c500 593c dc0f 4a3d
00000180: 5a30 3abd b674 fb3c f772 7bbb ea69 c6bc
00000190: b46f 27bd 5a60 babc 378a 4fbd 4348 47bd
000001a0: 5ae3 89bd d170 4bbd a766 dabc 614e a83d
000001b0: d698 acbd 6aec 523c 2080 253c f8fa 98bd
000001c0: 180e 3dbd f92b cfbc d417 5cbb 21ba b43c
000001d0: 872e 0bbd da4f 11bd e5e8 f2bc cb03 a9bd
000001e0: a650 293d f8d9 a7bd a06a 8b3d 1de0 763d
000001f0: cb10 97bb 270a a9bc 489e af3c 0416 04bd
00000200: b75e 69bc a6ec a13d c6bb 87bb d987 ab3b
00000210: ebf3 843c 17de fcbc 5f84 2ebd e173 7a3c
00000220: 2756 103d 44ed 79bd 06ae 30bd fce0 38bd
00000230: 1d75 8d3c e824 173b 0271 2bbd a578 32bd
00000240: 37ae e9bc 74f3 90bd 6912 d53c 6d8f 16bd
00000250: 55f5 d5bc ba22 2bbd 4b15 a73c 4853 733d
00000260: f9ce 1ebd 48ef 1fbd 802f e33c 9503 22bd
00000270: 07d8 993c 5e28 57bd 0e9d 28bd d9af 1ebd
00000280: f8f2 fcba 43f3 2b3d e971 8c3c cddd 2ebd
00000290: 3d94 893d a020 373d 9cb9 913c f098 90bc
000002a0: d86f 77bd ab4b 65bd d62a f0bc df17 17bc
000002b0: 2085 353d d134 df3c bf61 80bd e3e8 b93c
000002c0: 3686 f1bc 0927 9bbd 9fca 9dbb 2527 82bd
000002d0: 9093 28bd 6738 383d f8da 103d d8c6 31bc
000002e0: 991c 58bd 0e57 f0bc 5b63 4cbd 4774 db3c
000002f0: 8abc 94bd 3ffa 7ebd 90a4 34bd 45ec 423d
00000300: 49a5 5abb 1bce 00bc 29d4 923c bc78 873a
00000310: f048 4a3d 4bab fdbc 6173 5fbc 48db 54bc
00000320: 536d 77bd 86be 43bb 7ec1 75bd c92c 4dbb
00000330: f8e5 76bd 8025 1d3d c738 273c b0e0 49bd
00000340: e275 ffbc 6b03 8abd 2c89 04bd bac9 c73c
00000350: 95b6 14bd 1cd9 a2bc 8878 033d db73 66bd
00000360: 7e9f 8c3c 9746 d8ba 0995 893d baa1 3a3d
00000370: a80a 653d 533c 1d3d b340 d5bb 33b6 a23c
00000380: 9e7b c6bb 0237 c03c 1603 b83c b901 79bd
00000390: e98c 35bd 63d3 20bd 82d0 88bc d57f 6f3b
000003a0: 1f66 893d 75be 98bc ba0d 7a3d bce9 683d
000003b0: 095a 4d3d 3314 423d 71c9 1b3d 607b 7c3b
000003c0: 40bd 1bbd cb56 2c3d 5fc9 d9bc 7dc2 813c
000003d0: 6e8e 4dbc 73fb 87ba b9be 29bd 20ff 513d
000003e0: e3c4 833b 8750 893d 2089 47bd 9baa 793d
000003f0: d7b1 313d 8db8 bc3b 5c3e ec3c 7176 08bd
