inventory/ark_material.onnx (onnx, 497980 bytes, 8 tensors)

35 f4 [8, 3, 5, 5]
00000000: 8f8b ff3e 6898 5e3e af2d 613d 8bad b43e
00000010: 8e84 9fbe 9c8a 0c3e 7284 a7be e326 1f3e
00000020: ba3e 013e 4792 3c3d e022 75bd 7963 413e
00000030: 29c2 0a3f 0519 af3e 0620 f43c 6b7d b2be
00000040: 2db0 d73e 39e6 d33e fd91 063f 4f4f 923e
00000050: 6c14 963e e95d a13e 0801 cd3e 4b41 223f
00000060: d432 103f 46f9 2cbe f16a 7dbb 7c57 cfbd
00000070: 7073 4a3c 65f2 553d 5a87 21be b1a4 e0bd
00000080: fe31 12be b9e7 68be 4a7b e3be 7474 ce3d
00000090: 4db1 103e e22a 85be 9909 bc3d e5e9 8abe
000000a0: def0 4ebd dba2 e1bc eba9 a2be 9a85 28be
000000b0: a5b7 c3be a5de 95bd 50c4 a5bc ea49 6a3d
000000c0: af86 36be 29ce a6bd e927 46be adb6 583e
000000d0: b56e 623e 8eb4 b8bd 3255 7dbd 8413 c83c
000000e0: 71f5 76bc cca4 c53d 8c48 96be 142d 253e
000000f0: e7de 3f3e 1849 543e 2f32 94be a9a3 f7bd
00000100: f0bf 17bd 4ac5 5dbe 14f8 8bbe a95f 2ebe
00000110: 5895 a53e b0ed a1be cfaa 88bd 9482 94ba
00000120: f09a 8e3e 7c69 8b3e b30f b73d 79ef 6ebd
00000130: d3a2 cc3d 5393 763e 1c48 e5be d4d6 653e
00000140: 7c2c 07bf be3a 7a3e 6614 a4bd b46b 2f3d
00000150: f8c6 a2be 2d99 3e3e 7fc1 babe f7df 98be
00000160: 3009 34be 88d5 f43e 91fc dd3e fbc8 743e
00000170: c4ae 903e 9979 90bd d27f 913e b8f3 d43e
00000180: 849b d53e 45c9 6a3e e968 003f 7b8c 6a3e
00000190: 17aa 8b3c f4ff 7fbe 0fe5 05bf 19de d93d
000001a0: f4fc 2e3e 26c0 19be 8f22 01bf 399b 83be
000001b0: a1a1 c4bd 8557 7a3b 031e 52be a2df 463e
000001c0: c9f4 b23d 2fec 65ba 87cc e5be a234 0b3e
000001d0: 2bfc 83be 85a3 7fbe 1b0e fe3d 0a11 a9bc
000001e0: 099d ea3d 0c3e b93e a40c c43e a1a1 db3e
000001f0: a073 7bbd 7345 143d c872 ecbe b76c 3cbe
00000200: bc0a e73d 11c0 4fbe 475f 02bf 94d7 cfbe
00000210: db4c 0cbf 77f7 d4be 5e51 d33c ad7c f33d
00000220: ab31 663e 053b 6bbd f48e c9be 1b6d 8dbe
00000230: b4c3 d23e f525 b0bd f1a5 e33e c63e 40bc
00000240: 8e6c a8be f80d 99be 309a cc3e 0e92 233f
00000250: bae1 8c3e d93b 68bd e385 ec3e 18ae 9e3e
00000260: 125e d53e ec0f cebd 3403 04bf 06de eb3e
00000270: 99d0 4fbe 3f23 f03c 417f b1be 87eb 1fbf
00000280: 95b9 abbd 74e0 7ebb db3d 233e 48c2 b3be
00000290: 842a 67be 6025 e83e 1d72 703e 2b04 923e
000002a0: 2305 1ebf fd23 1cbd 6b71 9abe 825c 783e
000002b0: bec2 a1bd 27de 853e 5722 5eba bb26 b33d
000002c0: d486 24bd 6740 88be 665d b33e 512a f2be
000002d0: 72dd 27be 8aa8 8d3e 904a 263e d712 84be
000002e0: 0146 fbbe e45c 99be a87c d6be 76ed fcbd
000002f0: 958f 70be 9cf0 8bbd 480c 6f3e b6e3 01be
00000300: 64f0 87be 03b0 fabe 9094 f0be 7461 ac3e
00000310: 20eb 5d3e c937 a5be 6ec0 03be 9b76 20be
00000320: acca c8be abd6 aebe dd88 c33e 9e21 5ebd
00000330: 0449 ba3e 7972 26be fa9e 433e cdbc 5cbe
00000340: a215 f03c 72aa cabe c9e5 13be b345 ea3e
00000350: 6948 bd3e 6657 293e 44f0 473e 102e e23e
00000360: 1731 d53e 5915 01bd e0c9 163e 6f14 dbbe
00000370: 4181 853e ca17 d93e d437 8ebe 6cee b2be
00000380: 28b5 5f3e 42a9 283e 7f63 e3be 8dc5 11bd
00000390: 7170 5bbe 552c b4bd 21a3 813e 83d4 c93e
000003a0: 3802 da3e 4e84 1dbf 5450 313e 262a 8a3e
000003b0: 72e7 ac3e b239 50be f463 54be eee1 15bc
000003c0: 4616 66bd 7503 d73e 66b8 153f 80f8 bd3e
000003d0: 7f54 0d3e 992c 693d ad70 823e 2963 1fbe
000003e0: 819a 8c3d 70b8 b4be 92e9 113d d8de 05bf
000003f0: 136a 4a39 a527 abbe 5b95 12bf 4590 d43d
0.49911162 0.21737826 0.054975208 0.35288653 -0.3115582 0.1372475 -0.32718235 0.15542178
0.12621585 0.04603794 -0.059847713 0.18885602 0.54202515 0.34198776 0.029800426 -0.3486131
0.421266 0.41386583 0.5256651 0.28576133 0.29312456 0.3151696 0.4003985 0.6338088
0.5632756 -0.16891965 -0.0038668478 -0.10124108 0.012356624 0.05223312 -0.15774289 -0.109689124
-0.14276883 -0.22744645 -0.4443 0.100808054 0.14130135 -0.2600928 0.09181518 -0.27131572
-0.050522678 -0.027543476 -0.31770262 -0.16457215 -0.38226047 -0.07317857 -0.02023521 0.057199396
-0.17824815 -0.08144791 -0.19351162 0.21163435 0.22112544 -0.09018813 -0.061848827 0.024423368
-0.015073166 0.09650573 -0.29352224 0.16130477 0.18737374 0.20731008 -0.28944537 -0.120917626
-0.03704828 -0.21657291 -0.27337706 -0.17028679 0.32340503 -0.31626654 -0.06673204 -0.0011330419
0.27852583 0.27228916 0.08938541 -0.058333848 0.09991994 0.24079637 -0.44781578 0.22445232
-0.5280225 0.24436471 -0.08011703 0.042827323 -0.31792426 0.1861312 -0.3647575 -0.29858372
-0.1758163 0.4781916 0.43356755 0.23904793 0.28258336 -0.07054443 0.28417832 0.41592193
0.41720212 0.2292834 0.5016008 0.22905152 0.017048879 -0.24999982 -0.5230264 0.10638065
0.17088681 -0.15014705 -0.5044336 -0.25704363 -0.09601141 0.0038199138 -0.20519261 0.19421247
0.08738095 -0.0008770851 -0.44882604 0.13594297 -0.25778326 -0.24964722 0.12405034 -0.020638008
0.11455733 0.3618015 0.38290894 0.4289675 -0.061389565 0.036199044 -0.4618132 -0.18400846
0.11281344 -0.20288111 -0.5092663 -0.4059416 -0.5480477 -0.4159505 0.025795635 0.118890144
0.22479884 -0.057429332 -0.39366877 -0.27622303 0.41164935 -0.0860099 0.4446254 -0.011733716
-0.3289532 -0.2989347 0.39961386 0.63894737 0.27515966 -0.0566977 0.46195897 0.30992198
0.41673332 -0.100616306 -0.5156739 0.46067828 -0.20294417 0.029313682 -0.346674 -0.6246876
-0.08385006 -0.0038891109 0.15941565 -0.35109162 -0.22574812 0.45341015 0.23481031 0.28518805
-0.6172659 -0.03812026 -0.30164656 0.24254039 -0.07898472 0.2614605 -0.0008473745 0.087476216
-0.040167645 -0.26611635 0.35032195 -0.4729791 -0.16393068 0.27667648 0.16239381 -0.25795624
-0.49076846 -0.29953682 -0.4189198 -0.123499796 -0.23492272 -0.06833002 0.23344529 -0.12684521
-0.2655059 -0.4896241 -0.46988344 0.336681 0.21671724 -0.32269123 -0.12866375 -0.15670244
-0.39217126 -0.34148154 0.38190356 -0.05423128 0.36383832 -0.16254605 0.19103613 -0.21556397
0.02930719 -0.39583164 -0.14443125 0.457563 0.36969307 0.16537246 0.19525248 0.44175768
0.41639015 -0.0315145 0.14725447 -0.42789027 0.26075175 0.42400962 -0.27776968 -0.34947526
0.2184645 0.16470817 -0.44411847 -0.03558879 -0.21429612 -0.08797518 0.2531977 0.39419946
0.42579818 -0.61530006 0.17315799 0.26985282 0.3377033 -0.20334509 -0.20741254 -0.009148104
-0.056173585 0.41994825 0.58484495 0.37103653 0.13801764 0.056927297 0.2547659 -0.1556517
0.06865407 -0.35296965 0.03562314 -0.5229316 0.00019303737 -0.33428684 -0.5725915 0.1037908

36 f4 [8]
00000000: fbf6 84bf 404b 693e f70f 713f 4abd eabd
00000010: fe48 a73f 1dd3 ebbf b466 a03f 7dc7 e13f
-1.0387872 0.22782612 0.94164985 -0.11461885 1.306915 -1.8423802 1.2531343 1.7639004

38 f4 [16, 8, 3, 3]
00000000: 323d a8be f113 733f 7d09 743e e322 03be
00000010: 6fdf e63d 1317 b0be 8634 0dbf ae3c 77bf
00000020: 8488 0b3f 1066 3c3f 873b febe 2c8d 44bf
00000030: d3a7 093f 74c1 bd3e d96b 9a3e 8ce1 66be
00000040: c360 07bf cdef a13f e5a5 b2bc 10d0 b03f
00000050: e85b 733f 6b03 8ebe b951 403f 9463 e03e
00000060: 79c3 c83e afa7 a4bf 0ccd 98bf 592f 403f
00000070: 9196 883e a242 7fbe 6195 9b3c e1a0 aabe
00000080: 22d9 a2be 212a 443f 729a 18bf b059 463e
00000090: c3f9 e13e a50d f33e f6e2 1ebf 487d 063f
000000a0: 1eae d6bd 74f8 d53f 390d 5ebf 9a8a 35bf
000000b0: a014 acbf 263c 093e 9260 853e ffdf 21be
000000c0: 48a5 bcbe 16f6 1bbf d810 4b3f 9557 133f
000000d0: 0245 31bf 4286 8ebf 3c46 b2be 37bf b0be
000000e0: 0d7c 4ebf d7ff 183d b165 3abf 56fb 953e
000000f0: 3af7 7ebf 8c37 843f 869f 8d3f a972 b53e
00000100: 0378 acbe fbba 803e 5b5d 483f 92d3 1dbf
00000110: 41c6 973f d68c c4be 6c19 fbbe 76dc a33d
00000120: 0f32 4fbf 83d6 24bf 028d cbbd 52aa 283f
00000130: 0678 97bf ab5e 9e3f 829b 5fbf e836 91bf
00000140: 6ac2 2b3f dbe0 8b3f 9e34 ef3f f5a3 9dbe
00000150: 671f a13e ccd4 2540 8542 abbf 1f0e fabe
00000160: 8b5c f43d 9e5a f73e 1f88 acbe 258c 00bd
00000170: 9c22 2e3f d72b 463f 0d1e e5bf 0c1e 143f
00000180: 9761 70bd 07b0 a73e bc7c d5be f43f b83e
00000190: 4627 f8be 49fb 523f 4def c8bf f75b 01c0
000001a0: 9146 933f 6b7a 84be c533 903f 8964 9a3f
000001b0: 919a d73f 8dd9 fbbf 6b2a 273d 3f6c 59bf
000001c0: 9ef5 053f 921d 82bf dcfd a7bd 1d1d be3e
000001d0: 95ab 423c a280 74be 1fa7 e5bd 5d1b dd3e
000001e0: cb27 5b3c b161 97bf d291 913f b6a1 f93e
000001f0: 5a9b 0d3f 22f5 08bf f638 60bf e0ef 623f
00000200: b2a5 32be d486 3d3f 93c4 5fbf 2ea2 613d
00000210: f6f3 a8bd 594e 773e 8d13 58be 75e4 e7bd
00000220: e900 1d3f df02 96bf e4f9 423f f5c2 50bf
00000230: ce57 4c3e 3252 123f 9bca 0b3f 30ba 5abf
00000240: fcfa f3be 5847 86bf 7418 5b3f 862f 81be
00000250: b4eb 823f 458e 90bf 1ffa 92be 6db5 dfbe
00000260: 31dc c63f b263 4d3f 74d8 93bf c589 9fbe
00000270: ae9e 3ebe 92f1 1ec0 a291 893e 4f23 143f
00000280: e850 b9bf 789f 8f3f 3a39 4b3f 315d 7f3e
00000290: df4c 7c3e f8d4 193e 78b4 8c3f 113c 363f
000002a0: 9f18 ca3e 287e 063f 0884 68bf 0c95 8f3f
000002b0: d043 e83e 1896 343e 055f b6bd 9488 063f
000002c0: 4171 173f 9233 abbe 8317 3bbe 3e23 4b3f
000002d0: 1b8a 473f 3997 c6be 64f9 133f f25c 4abe
000002e0: 2467 c8bf 56e9 793f 8ca3 a73d 6f0c 18bf
000002f0: 699b 4c3f 7cb4 c1be ec14 38be 5c43 6fbe
00000300: b6a1 e43e fcde 8abf 44bd 3f3e f0a0 4bbe
00000310: 828f 0dbf 4668 65bf 0f29 f5be 929c 3bbf
00000320: 46e1 d43d 4708 a93e 0039 10bf 19d8 99bf
00000330: 35d8 063f 0195 edbd 03bd 65bf b207 a3bf
00000340: dd89 91be a95e f5be 560c 8abe 5a93 0abf
00000350: 65bb 5ebf 14e9 39be 446d aa3e 3a52 313f
00000360: d4da b3bf c3c5 c2be 0acf 15bf 058b 8bbf
00000370: 792f a43f b9c5 163f 688e ccbe c21c cfbe
00000380: 0e49 be3e 690f 9a3e 996d 1940 8914 3b3e
00000390: b676 493f 4b93 c8be da65 d6be e325 91be
000003a0: a869 33bf cc49 f6be 89dc e6be 7422 b23d
000003b0: 21af 94bf 03cc 0dbd 2f3a ad3e f5b2 523f
000003c0: 2104 653f 0d4b 393f 8eb3 213f 2b43 e4be
000003d0: 4c76 3f3e 8d69 b73e 08f7 ce3e 38bf 4840
000003e0: 5ba3 0a3f 5586 cf3e 6045 75bf ca5b 663e
000003f0: 4312 86be 8e88 cfbf c4a7 aa3f 3306 233f
-0.32859188 0.94952303 0.23831744 -0.12806277 0.11273085 -0.34392604 -0.5515827 -0.96576965
0.5450518 0.73593235 -0.4965479 -0.7677791 0.53771704 0.37061656 0.30160406 -0.22546977
-0.5288202 1.2651306 -0.02180762 1.3813496 0.9506211 -0.27736983 0.751247 0.43825972
0.39211634 -1.2863673 -1.1937575 0.75072247 0.26677373 -0.24927762 0.018992128 -0.33325866
-0.31806284 0.76626784 -0.59610665 0.1937015 0.44135866 0.47471347 -0.62065065 0.52534914
-0.10482429 1.6716447 -0.86738926 -0.70914614 -1.3443794 0.13401851 0.2605024 -0.15808104
-0.3684485 -0.6092237 0.79322577 0.57555515 -0.6924592 -1.1134722 -0.3481921 -0.34520885
-0.80658036 0.037353363 -0.7281142 0.29293317 -0.9959599 1.0329452 1.1064308 0.3543904
-0.33685312 0.25142655 0.7826745 -0.61650956 1.1857377 -0.383887 -0.49042833 0.08001034
-0.8093576 -0.6438982 -0.099390045 0.6588489 -1.1833503 1.237264 -0.8734666 -1.1344881
0.6709353 1.0927995 1.8687932 -0.30789152 0.3146927 2.591113 -1.3379675 -0.488389
0.11931714 0.48311323 -0.33697602 -0.031383652 0.6802156 0.77410644 -1.7899796 0.5785835
-0.05868682 0.32751486 -0.41696727 0.35986292 -0.48467463 0.8241468 -1.5698029 -2.021238
1.150591 -0.25874647 1.1265799 1.2061931 1.6844045 -1.9675766 0.040811937 -0.84930795
0.5232791 -1.0165274 -0.08202717 0.37131587 0.011881729 -0.23877195 -0.112135164 0.4318494
0.013376187 -1.1826688 1.1372626 0.48756188 0.5531517 -0.53499043 -0.87586915 0.8864727
-0.1744602 0.74033856 -0.87409323 0.055086307 -0.08249657 0.24150981 -0.21101208 -0.113228716
0.61329514 -1.1719626 0.7616255 -0.8154748 0.1995537 0.5715667 0.54606026 -0.8544035
-0.47652423 -1.0490522 0.8558419 -0.2523157 1.0228181 -1.1293417 -0.28706452 -0.43693104
1.5535947 0.8023025 -1.1550431 -0.31159797 -0.18615219 -2.4834943 0.26868922 0.57866377
-1.4477816 1.1220541 0.79384196 0.24937893 0.24638699 0.15022647 1.0992575 0.71185404
0.3947191 0.5253625 -0.90826464 1.121736 0.45364237 0.17635381 -0.08904842 0.5255215
0.59157187 -0.33437783 -0.18270688 0.7935065 0.7794511 -0.3878725 0.57802415 -0.19762018
-1.5656476 0.9762167 0.08185491 -0.5939397 0.7992464 -0.3783301 -0.17976731 -0.2336554
0.44654626 -1.08493 0.18724543 -0.19885612 -0.552971 -0.89612234 -0.47882888 -0.7328578
0.1039453 0.33014128 -0.56336975 -1.2019073 0.52673656 -0.11600686 -0.89741534 -1.2736723
-0.28425494 -0.47923782 -0.26962537 -0.5413109 -0.8700469 -0.18155318 0.33286488 0.6926609
-1.4051156 -0.38041505 -0.5851904 -1.09018 1.2826988 0.5889545 -0.39952397 -0.40451628
0.3716511 0.30089882 2.3973143 0.18269552 0.78696764 -0.39174876 -0.41874582 -0.28349218
-0.70083094 -0.48103178 -0.4509013 0.08697978 -1.1615945 -0.03461839 0.33833453 0.82304317
0.89459425 0.72380143 0.63164604 -0.44582495 0.1869747 0.35822716 0.40422845 3.136671
0.5415551 0.40532175 -0.9580898 0.22495952 -0.26185808 -1.6213548 1.3332448 0.63681334

39 f4 [16]
00000000: e1ab 903e 44f9 0c3e d681 2e40 f7c0 25c0
00000010: c060 23bf 36c0 253e 51a5 7cbf 3868 873f
00000020: e114 eebf c85b 923f 50ed 8840 bacc 14bf
00000030: 297d 59bf b45c 903f 4303 1540 d220 6140
0.28256133 0.13766962 2.7266746 -2.5899026 -0.63819504 0.16186604 -0.9868975 1.057868
-1.8600122 1.143426 4.278969 -0.5812489 -0.84956604 1.1278291 2.328324 3.5176282

fc.0.bias f4 [426]
00000000: 9607 fc3c 9f6d e63d 8494 503d 2be7 7c3d
00000010: 2256 adbc 6a8f 433d e15c 6cbd 384e dc3d
00000020: ee7c c33d 960a 5d3b df3a 633d 0e20 183e
00000030: 8875 e33d f848 5c3d 0140 ea3d cb57 753b
00000040: 9ad3 05bd 26b7 133e fb01 3c3d 629c 00bc
00000050: ba84 52bc cfcc 9e3d 7ac0 c13d ec97 b33d
00000060: 8330 ef3d 9449 973d db8b 083d 2348 083d
00000070: 1248 083d e230 4abd ac9e 913d 27a4 833c
00000080: be99 2a3d 5ea6 633d d2dd 063e 6057 8fbd
00000090: 60cc 153d f604 f63d f073 53bd c016 db3d
000000a0: bf96 d03d 07af c23d a1d3 7abd 8a21 533d
000000b0: a195 cc3d d6dc da3d 055c 633d 25ec e1bb
000000c0: 73d7 0d3d 9774 9abc dd4d 123e 7b2f 33bd
000000d0: e9ad 08bc 2f07 813d d248 a53d 2a88 f33d
000000e0: 8a83 bc3c 68d6 8d3d 06a7 4b3a 099b b7bc
000000f0: c643 223d f7b5 243d 2afa 583d f3ad 6dbc
00000100: 90a8 a83d bdca 3bbd 04e2 91bd 725b 5d3d
00000110: 3dc1 273d e7ad f03d a295 17bd 8008 78bc
00000120: 4e01 34bd cf31 7c3d e8f2 983d 18ca 29bd
00000130: 19e4 d63d 20ea 33ba 47be 973d 16f4 f93d
00000140: ca4b b53d 779f 82bd 8a3c 07bd 6479 893b
00000150: b45d 0bbd 6591 b83d edbd d33d b8d2 613d
00000160: 5cb1 bc3d 4dc2 a93d e41d d33d c95a dc3c
00000170: e691 ea3d f28c dc3d 77a3 2c3d 480d 4ebd
00000180: 46cd 1bbd 6fec 743b 2609 06bc 56ad cf3d
00000190: 04bc bdbd 982b e53c a15a 83bc b494 ba3d
000001a0: eee2 e73c 7b85 223c 16b5 ea3d 4385 043e
000001b0: 9d5b 80ba 510b 45bb 9669 023d ba1d 0f3e
000001c0: 602a f73d 06fa 9d3d 71b2 713a 0422 9d3d
000001d0: 3055 3fbc c37d f1bb 1305 533d 115f ad3d
000001e0: f1a1 d13c 278e 1a3d 9823 cb3c f57b bd3c
000001f0: 9926 d3bb bd54 113c a058 f2bb 7fa7 8e3d
00000200: e07c 933d 3ee9 5a3c e6a1 7bbd 35bc ce3d
00000210: 6f53 323d 2621 0e3d b524 c33d 81e8 11bd
00000220: 373a 633d 0f08 9dbd e528 863c 7e3a 963d
00000230: 3ffd 8c39 7865 c73d ebe5 f3bc 23f5 97bd
00000240: d0dd a23d b959 6c3c fa00 583d 4e13 f33d
00000250: 923c 0b3e 4dca 8bbd 214b 723d 0397 ca3d
00000260: e545 e7b9 7ab7 f03d 9a42 87bd c662 393d
00000270: 5222 2e3d 5c05 1c3e d048 53bd e4b9 2f3d
00000280: 27c0 583d f4d7 33bd f855 d53d 2986 153e
00000290: b9c1 52bc fe7c d6bb a5c6 b93d 3794 89b9
000002a0: 6f09 953d 2bea 033e f464 d33c 44f3 923d
000002b0: a003 373c 5e74 dd3d 4112 ad3d d0be 3d3d
000002c0: 9f2a c83d 4ef7 f53c 9e94 14bd bd0b 53bd
000002d0: adbd 0b3d 8799 833c 03cc 03bd 5f36 e03d
000002e0: 0e69 21bd 972d b73d 9870 923d 3059 31bd
000002f0: b361 fbbb a3de ebbc bf3d d73d 2fac 2b3c
00000300: 4303 7c3c dc91 bc3d 13f2 d53d 2f00 ce3d
00000310: 604b 4f3d db94 ae3d f594 9c3d ea30 f33c
00000320: d0a3 9c3c aaca e53d 1c37 20bd a4f5 e33d
00000330: be3d 093d d787 ba3d 2b40 633c d68c 123e
00000340: fdb7 2a3e 23f4 c43d 6773 4abc b6b5 9cbc
00000350: 260a 9d3c e8b9 c93c b796 6abc 1607 8f3d
00000360: 649b cf3d a037 93bd f3a5 f3bc d981 543d
00000370: b424 f23d dd68 e73d 5777 f83d 3f97 b53d
00000380: adf5 3b3d e148 123d d68d c83c 7ea7 eb3c
00000390: 1c63 8bbb 9018 4cbc 275c 133d b2cf 813d
000003a0: ef6e 1d3e e641 b73d f37a 93bd e82c 983d
000003b0: 441c fbbc a0f7 05bc 36d0 a9bb 16e5 18bd
000003c0: a7f4 2abd 9f17 a8bb e271 e53c 7503 dc3d
000003d0: cb73 b23d 3c3b ef3d b305 64bc 8ff3 31bd
000003e0: e4d5 93bd f125 07bd abca 3fbc ac3b 41bd
000003f0: 5f8d eb3c 5bd3 0a3d 0b35 083e e2d0 cc3d
0.030765336 0.11251377 0.050922886 0.061743896 -0.021159235 0.047744192 -0.057705764 0.107571065
0.09545313 0.0033728234 0.055476066 0.14855978 0.11106402 0.053780526 0.11437989 0.0037436362
-0.032672502 0.14425334 0.045900326 -0.007849785 -0.012849027 0.07753908 0.0946054 0.08769211
0.11679175 0.07387081 0.0333365 0.03327192 0.033271857 -0.049363025 0.071103424 0.016069485
0.041650526 0.055578582 0.13170555 -0.06999087 0.03657186 0.12012665 -0.05162424 0.106976986
0.101850025 0.0950604 -0.06123698 0.051545657 0.09989477 0.10686652 0.05550768 -0.0068946057
0.034629297 -0.018854422 0.14287515 -0.043746453 -0.008342245 0.06300198 0.0807053 0.118912056
0.023011941 0.0692566 0.0007768724 -0.022412794 0.039615415 0.040212598 0.05297295 -0.014506805
0.08235276 -0.045847643 -0.07123187 0.054042287 0.04095577 0.11751919 -0.037007935 -0.015138745
-0.043946557 0.06157094 0.07468206 -0.041452497 0.10492725 -0.00068631954 0.074093394 0.12204759
0.08852346 -0.06378072 -0.03301672 0.004195379 -0.03402491 0.09012107 0.1033896 0.055132598
0.09213516 0.08289013 0.103084356 0.026898758 0.11453609 0.10769071 0.04214808 -0.050305635
-0.03803756 0.003737237 -0.008180892 0.10140483 -0.09264377 0.027974889 -0.016034426 0.09110394
0.02830645 0.00991952 0.11460321 0.1294146 -0.0009792928 -0.003006656 0.031838976 0.13976184
0.12068629 0.07713704 0.000922001 0.076725036 -0.011678025 -0.0073697283 0.05151851 0.08465398
0.025589915 0.037733223 0.024797246 0.023130396 -0.00644381 0.008870301 -0.007395819 0.06965541
0.072015524 0.013361273 -0.061433695 0.100944914 0.0435366 0.03469958 0.09528486 -0.035622124
0.05547544 -0.07667553 0.016376922 0.07335375 0.00026891564 0.097361505 -0.02977272 -0.07419803
0.079524636 0.014425688 0.052735306 0.118689165 0.13597324 -0.06825695 0.05915368 0.098920844
-0.0004411183 0.117537454 -0.066045 0.045260213 0.0425132 0.1523642 -0.05158311 0.04290189
0.052917626 -0.04390712 0.10416788 0.1460196 -0.01286357 -0.006545662 0.090710916 -0.00026241105
0.0727719 0.12882297 0.025804974 0.071753055 0.011170298 0.10813211 0.08450747 0.04632455
0.09773754 0.03002515 -0.036274545 -0.051524866 0.034116436 0.016064418 -0.032176983 0.109478705
-0.03940683 0.089442424 0.07150382 -0.043297946 -0.0076715588 -0.028792685 0.10509824 0.0104780635
0.015381637 0.09207508 0.104465626 0.10058629 0.050608993 0.08524486 0.07645599 0.02968641
0.01912108 0.11220296 -0.039115056 0.111308366 0.033506148 0.09107941 0.013870279 0.14311537
0.16671748 0.09616878 -0.012356616 -0.019129615 0.019169878 0.02462478 -0.01431816 0.069837734
0.1013706 -0.07188344 -0.029742217 0.051881645 0.11823407 0.11299298 0.12132137 0.088667385
0.04588859 0.035714034 0.024481695 0.02876639 -0.004253758 -0.012457028 0.035976555 0.06338443
0.15374349 0.08948116 -0.07201185 0.0743044 -0.030653127 -0.008176714 -0.0051822914 -0.03732785
-0.041737225 -0.005129769 0.028008405 0.10742847 0.08713492 0.1168122 -0.013917374 -0.043445166
-0.07218531 -0.032995168 -0.011706035 -0.04717605 0.028753934 0.03389297 0.13301484 0.10000779

fc.0.weight f4 [426, 64]
00000000: 3378 333e b0d8 0c3e 76f6 efbd ca25 8d3d
00000010: 3c1b bc3c 06f5 db3c 885c 8fba bed5 203e
00000020: 665d adbb 683c 3fbd 3caa 663b 17de d83d
00000030: ca17 063e dc5e 183e e642 103e b1db ce3d
00000040: 36b0 ca3d 2da3 083d fcc9 103d 34a3 11be
00000050: 7eb6 153e a3a3 063e 3047 d93c b18b d8bd
00000060: b55a 083e 0259 5e3d 507e c83b bbbc 7c3d
00000070: e059 cc3c 3578 2d3c ae97 15be c1e1 b7bd
00000080: d47c 5b3d c796 d5bc 837f 063e 5463 853c
00000090: c154 cbbd e17c 80bd 4ec3 5abd 2c39 54bd
000000a0: 4aa3 8b3d 0135 9f3c dd17 63bd 8447 19bd
000000b0: 9f46 05be 49a1 04bc 9c21 153e b2db 333e
000000c0: d6c0 843d b8ae a33d fa7a 9b3d b0a4 f43c
000000d0: 03fe c8bd 4c39 58bd 5acb 15bc b93c 563d
000000e0: d332 063d c4d3 46bd 326c a2bd e25e 8cbd
000000f0: 59df 04bd 964c 07bd 3196 1c3c 7c7a 643c
00000100: f11a 59bd 7f45 fdbc 9d7d fd3d d27c 543e
00000110: 554f 8139 3972 e83d 6db0 4a3e 6eb3 5f3c
00000120: 8059 c63d e9b6 e4bd 93fa 263e cd4d 483b
00000130: b3cc 803d fc93 bcbd 71bd 9ebe 3192 13bc
00000140: ddfd ebbd 55cd 5e3e 41cb 0e3e 50c3 893d
00000150: b27c 32bd ffc0 c2bc 054c 0dbe a4e2 0d3e
00000160: 869f e63c ada5 a7bc 73cc 173e ee08 48bb
00000170: c800 98bd 16de 043e 0a5b ccbc 80c8 b3bd
00000180: 7b3b b3bd f848 94bd 1345 54be 40f2 213e
00000190: f324 d53d 3cdd 8dbd af69 89bd a2da 75bd
000001a0: 944e efbc 87a0 91bd 3178 003e 5656 bbbd
000001b0: e22e 093e 5b97 053e df28 d33d c30d 223e
000001c0: aac4 7cbd d0b8 aebd f6b6 40be 4f50 7a3d
000001d0: 8e59 713d 8e90 1fbd f458 fdbd 5e29 f53c
000001e0: fd95 cabd 120b 183e ac41 e8bc 2ad2 d9bb
000001f0: f32d 1c3e b707 a13d 850e e7bc a6db dc3d
00000200: cab0 e23d 47a0 ac3b 33b5 163e 3bc8 2c3e
00000210: 05fe 6bbd 8305 f13b 0c21 593d f48b b23a
00000220: a7a8 683e 5730 a73d 4b64 213e 5d6c 0dbe
00000230: d5be d2bc 8fb6 f0bd 19f8 49be 9e88 43be
00000240: d97d f9bc 3e6c 1e3e 56a1 a7bc 2c7a 13bd
00000250: 61bd 003d b27c 863d 8c23 ef3d a9af 813d
00000260: c2ef bfbc 4fe9 ea3d b1e3 06be 3ef1 24be
00000270: 52a9 fc3d fc87 843c 2630 203e 5771 7e3d
00000280: 197f 46be b67f dabd 5e8a 243b fa6c 2fbe
00000290: 2c29 da3c 3ed9 ec3d b61b 753d b1f2 38be
000002a0: 9864 ed3d 07c6 d2bb d258 723d d441 3e3e
000002b0: 0e2f 19be 90b5 cf3c e3de 823d b6ae 7abc
000002c0: aff1 93bd 95a7 0f3d 9bd4 163d 379f 223e
000002d0: c1ce b13c 44ae be3d 566d 3ebe 483f babd
000002e0: 3a5f 283e c85c ed3d 182a 8f3b e616 89bd
000002f0: 2467 6f3d c397 c13d 0731 983d e7ab 953d
00000300: 048d 40bd 94d1 3abe 8260 99bd 3248 8f3d
00000310: 47c7 be3d 266a 103d 0a8a 2c3e d1fe b23d
00000320: 6181 033e 8c77 173d 91df aebd 5221 95bd
00000330: 4e78 39bd d833 1c3e 5860 653d bf50 0f3d
00000340: fc4e 3cbe e497 31bd ac5c ae3d ad62 8cbd
00000350: 0f10 a3bd 61ad 9fbd cd9d 8239 0612 a73d
00000360: a6ce 4f3e 52eb 133e a155 933d 2074 5ebd
00000370: c940 9ebb 6e55 2cbd 3116 1c3d 1165 d03c
00000380: d1cc 7c3d ce74 1ebd 5146 6f3d 1f75 a83d
00000390: 0363 d2bd 4576 1a3d d682 a03c 3136 cd3d
000003a0: 9b54 f03d 204f 3fbe e451 c7bd 17eb 52b9
000003b0: 9495 a43c f043 2a3e 4bef 393d 0112 3a3d
000003c0: 9395 6fbb 35ac 4e3e 29c5 633d 25c2 13bd
000003d0: 8e15 843c 63a5 4a3e e2fe 08bd 0809 e4bd
000003e0: 5836 aa3d a456 46bc 2d0f b6bc e720 183e
000003f0: 4f88 0c3e 972d 85bc 1f45 023e 6fde 10bd
0.17526321 0.13754535 -0.117169306 0.06891973 0.022962205 0.026850235 -0.0010937611 0.15706536
-0.005290675 -0.046688467 0.0035196682 0.10589235 0.13095012 0.14879936 0.1408802 0.101004966
0.09896891 0.03335874 0.035348877 -0.14222413 0.14620396 0.1314836 0.026523203 -0.10573519
0.13315852 0.054284103 0.0061185732 0.061703425 0.0249452 0.010587742 -0.14608642 -0.08978606
0.053585842 -0.026072873 0.1313458 0.016282715 -0.09928275 -0.06273819 -0.053408913 -0.051812336
0.06818254 0.019434454 -0.05544268 -0.03742172 -0.13015221 -0.008095094 0.14563602 0.17564276
0.06482093 0.07992309 0.07591815 0.029863685 -0.09814074 -0.052789018 -0.009142721 0.052304003
0.032763314 -0.0485418 -0.07930793 -0.06854035 -0.032439563 -0.033032022 0.009557293 0.013945218
-0.05300421 -0.030916927 0.123774745 0.2075074 0.00024663904 0.11349911 0.19793864 0.013653619
0.096850395 -0.111677 0.16306524 0.003056395 0.06289043 -0.09207913 -0.31003907 -0.009007023
-0.1152303 0.21758015 0.13944723 0.06726706 -0.04357595 -0.023773668 -0.1379853 0.13855988
0.028152239 -0.020464743 0.14824085 -0.00305229 -0.07422024 0.12975344 -0.024945755 -0.08778477
-0.087515794 -0.0724048 -0.20729475 0.15815067 0.10407438 -0.06926963 -0.06709611 -0.060022958
-0.029212274 -0.07110696 0.1254585 -0.09147327 0.1339679 0.13046019 0.1031053 0.15825562
-0.06171099 -0.08531344 -0.18819794 0.061111744 0.058923297 -0.038956217 -0.12370482 0.029926952
-0.09891889 0.14847973 -0.028351627 -0.006647368 0.15251903 0.078627996 -0.028205166 0.10784082
0.11068876 0.00526813 0.1471756 0.16873257 -0.0576153 0.0073553934 0.05301003 0.0013622032
0.22720586 0.08163517 0.15760915 -0.13810869 -0.025725761 -0.1175357 -0.19723548 -0.19095084
-0.030455517 0.15470979 -0.020462673 -0.036005184 0.031430606 0.065667525 0.11676702 0.06332333
-0.023429755 0.11470281 -0.13172795 -0.16107652 0.12336983 0.016178124 0.15643367 0.062119808
-0.19384421 -0.1066889 0.0025106887 -0.17131415 0.02663096 0.11564873 0.05984088 -0.1806133
0.11591452 -0.006432298 0.059166737 0.18579799 -0.14959356 0.02535513 0.063901685 -0.015300443
-0.07223832 0.035071928 0.03682385 0.15881048 0.021705033 0.09310582 -0.18596396 -0.09094101
0.16442576 0.11589962 0.0043690316 -0.06693821 0.058447972 0.094527744 0.07431226 0.073081784
-0.047009483 -0.1824401 -0.074891105 0.06996192 0.09315353 0.03525748 0.16849533 0.087400086
0.12842323 0.036979243 -0.08538736 -0.07281746 -0.045280747 0.15254152 0.056000084 0.034989115
-0.18389505 -0.043357745 0.085137695 -0.068547584 -0.07962047 -0.07796741 0.00024913103 0.081577346
0.20293674 0.14445236 0.07194067 -0.054309964 -0.0048295003 -0.04207366 0.0381071 0.025438817
0.061718766 -0.038685612 0.05841667 0.08225464 -0.10272791 0.037710447 0.019593637 0.10020102
0.11734887 -0.18682528 -0.09732416 -0.00020114738 0.020090856 0.16627479 0.045394223 0.045427326
-0.003655766 0.2018288 0.05560795 -0.036073823 0.01612356 0.19789653 -0.0334462 -0.11134535
0.083111465 -0.012105618 -0.022224033 0.14856301 0.13723873 -0.01625709 0.1272168 -0.03536838

fc.3.bias f4 [213]
00000000: e7ab 96bb a0d3 873c b8c9 dfbc 05d1 c0bc
00000010: 5c31 593c 7ccc 303c e392 ddbb 6cc6 be3c
00000020: 3e49 613b 5073 31bd 90ec 32bd 9d1e b4bc
00000030: 644c ea3c 7f6b d8ba bd68 dc3c 161e fa3a
00000040: 9f69 05bc e377 81bc 346a f4bc 55f8 10bd
00000050: b87d ac3a 571a ba3c f925 0e3c df9a ea3c
00000060: 8f75 4f3c 3e23 2e3b 6ef1 6d3c d10c a33c
00000070: 387a 8cbb e418 643c 678b eeba 9f47 86bb
00000080: 4192 2cbd c5b1 9f3c 6072 953c dddd 91bc
00000090: 9321 4ebc e96c da3b 295d 68bd 3a83 01bc
000000a0: ace2 173b 5fec 44bd f9e1 2cbd 73d8 d7bc
000000b0: f711 c23c 4223 eb3c 1c10 693c 03ac 16bd
000000c0: 6562 4b3c 3e93 00bd 7642 af3c ad77 cb3c
000000d0: c87d f03c eccd 71bd d550 f43c 7cd2 f83a
000000e0: e4b1 89bc 0879 7ebd e3f5 bcbc c872 3ebb
000000f0: d607 4fbd e3ca 253c d1ed 9d3c 4548 15bd
00000100: 1637 7dbd 18b1 61bc 211e 8bbb e629 243c
00000110: 2d5d d03b 8bde 81bd 9a36 5abd f94b 87bd
00000120: 5c36 163d 59ad a23c 2a18 01bb acd4 28bc
00000130: 7661 eaba 4c1d cbbc ae91 53bc bd30 fe3c
00000140: c67a 123c a308 383d e69d 253a bc62 bf3c
00000150: 9ad5 763c c902 f7b9 8376 1abd 1e4f 893c
00000160: b7d5 463c 4141 cdbc ec52 563d 4379 09bd
00000170: 7ce6 eebc 52db 22bd 55e5 88bc 56f0 d0bb
00000180: 55a0 09bd db23 fcbc 6d0a edbb a4a8 40bd
00000190: 2467 30bd b5f4 4b3b 6fcd 013a 4988 2abc
000001a0: d12a f63c 21ae 71bc ca31 dabc 459a c1bc
000001b0: f484 57bd 6b36 9ebc e58f 32bc fb34 a03b
000001c0: 2d60 1d3d 8d1c 62bc bb56 b73c b0ee 2f3d
000001d0: 941a fb3b a12c f6bc 2668 8fbd 42f0 d6bc
000001e0: 34bd 1b3d bfea 99bc dd08 57bc 9823 d03c
000001f0: 4ce8 82bc e80c 15bd 7bb1 573d b7c2 9a3c
00000200: 76c8 063d b648 b53c 5f05 ea3b 4654 b93c
00000210: 6861 14bd 0b33 6a3b 850c 67bd d69b ac3c
00000220: 913b 643c 25ca 16bc 36b3 98bc bda3 123d
00000230: 78b2 62bd 5682 bfbb a6dd 95bc 8434 06bd
00000240: ead6 c43c 9387 f5bc c642 2ebd 776f 673d
00000250: df5c cabc 3bc0 2dbc 99c3 22bd 304a 8cbc
00000260: 1a4f 8a3c 113c 5dbc bb84 d33c 6f61 d03b
00000270: 9dd8 a23c 53e6 813c c432 36bc 7e2c 5d3d
00000280: 09b3 2f3c 55de 343d fd1e a13b 9b3a 1cbc
00000290: 6603 e4bc fde9 233c 9df6 b4bb baa5 6d3d
000002a0: 361e f13a fca2 24bc 42c9 19bd f96d 3dbd
000002b0: 1d4d 0cbc ffa4 38bd 73c6 2cbd 3f39 b5bc
000002c0: 6da8 8ebc 6903 a4bc 2c44 debc 4e45 31bd
000002d0: 89e4 503b 8a53 f2bc dadc 7dbc 516c c3bb
000002e0: afbb 96bc 2ece 043d 8940 e63c a3d3 0c3d
000002f0: c259 c1bb 6fc3 c4bc 2097 0bbd a6a6 fb3a
00000300: 7ceb c53b 30ec 0bbd 451e 0d3d 3054 7e3c
00000310: 124c be39 01ef 0bba cafd c3bc 32a8 01bd
00000320: 923c 193d 8b4f d9bb 250d 573d f3f9 27bd
00000330: 2aa0 3ebd 17f1 c63c 7bd5 62bd 9783 273c
00000340: fcc0 b6bc b0f4 23bd 1f64 68bd f909 a8bc
00000350: 917d 753c
-0.004598129 0.016580403 -0.027317867 -0.023537168 0.013256397 0.01079094 -0.006761895 0.023287974
0.003437593 -0.04332286 -0.043682635 -0.021987254 0.028600879 -0.0016511529 0.026905412 0.0019082453
-0.008142858 -0.015804237 -0.029835798 -0.035393078 0.0013160026 0.022717638 0.008676046 0.028638301
0.0126623055 0.00265713 0.014522893 0.019903572 -0.0042870305 0.01392195 -0.0018199504 -0.0040978934
-0.042131666 0.019493947 0.018243015 -0.017805988 -0.012581247 0.006665815 -0.05672947 -0.007904822
0.0023175878 -0.048076984 -0.04220769 -0.026348328 0.023690207 0.028703336 0.014225032 -0.036785137
0.012413596 -0.03139042 0.021393996 0.02483734 0.029356852 -0.059034273 0.0298237 0.0018983628
-0.016808458 -0.062127143 -0.023066467 -0.0029060114 -0.050544582 0.010119173 0.019278439 -0.036445875
-0.061820112 -0.013775133 -0.004245535 0.010019755 0.0063587637 -0.06341275 -0.05327473 -0.066062875
0.036672935 0.01985805 -0.001969824 -0.010304611 -0.0017881829 -0.024794243 -0.012913151 0.0310291
0.008940404 0.04493011 0.0006317779 0.02336251 0.015065575 -0.00047113586 -0.037710678 0.016761359
0.0121359145 -0.02505553 0.052325174 -0.03356291 -0.029162638 -0.03975994 -0.016710917 -0.0063763065
-0.03360017 -0.030778816 -0.007233909 -0.04703583 -0.043067113 0.0031121199 0.00049515715 -0.0104084695
0.030049713 -0.014750988 -0.02663507 -0.023633132 -0.05261703 -0.019313058 -0.010898565 0.0048891283
0.0384218 -0.013800752 0.022380223 0.04295224 0.0076630805 -0.030050578 -0.070022866 -0.02623761
0.038022235 -0.018788693 -0.013124672 0.025407597 -0.015979908 -0.03638926 0.052659493 0.018891675
0.03290602 0.022129398 0.0071417536 0.022623193 -0.036225706 0.003573599 -0.056408424 0.021070402
0.013930217 -0.009203468 -0.018640142 0.035800684 -0.055345982 -0.0058443947 -0.018294167 -0.032764927
0.02402826 -0.029971873 -0.04254415 0.056502786 -0.024702488 -0.010604913 -0.039737318 -0.01712522
0.016883422 -0.0135030905 0.025820127 0.0063592712 0.01987868 0.015856897 -0.011120502 0.05399751
0.010723838 0.044157345 0.004917024 -0.009535457 -0.027833652 0.010004518 -0.0055225627 0.058019377
0.0018395844 -0.010048624 -0.03754545 -0.046247456 -0.008563307 -0.045079228 -0.042181443 -0.022122024
-0.017414296 -0.020021157 -0.027132116 -0.043278985 0.0031874499 -0.02958085 -0.01549455 -0.00596384
-0.018400041 0.03242319 0.028106945 0.03438152 -0.0059005925 -0.024018971 -0.03407967 0.0019199445
0.006040035 -0.034160793 0.034452695 0.015523002 0.000362963 -0.00053380436 -0.023924727 -0.031654544
0.03741128 -0.0066317967 0.05250277 -0.041009855 -0.046539463 0.024284882 -0.055379372 0.010224245
-0.022308819 -0.040028274 -0.056736108 -0.020512568 0.014983551

fc.3.weight f4 [213, 426]
00000000: 825a 3abd 9573 433d fefa 1ebd db3d bb3c
00000010: 81f6 803d d1b6 ac3d bdf5 ddbb 889e cb3c
00000020: 757c b13d 5609 f539 677e a1bd 32e2 59bd
00000030: f8c4 16bd 9935 78bd 4c59 8dbd 94af a73c
00000040: b154 863d 273b 363d 8f4e e93d 5dd0 d0bc
00000050: df59 653d 561a 333d 5fa1 963d f835 d93d
00000060: cffb 623d 39f2 4ebc ffc0 3cbd c472 e03d
00000070: 59ac 26bc 2d2e dbbc 657d 5d3d 8a11 8abc
00000080: 563b 073d 45d7 d93c 569d 103d ad43 ea3c
00000090: 86f1 25bd 272e 5ebd 3945 93bd c7dd 8a3b
000000a0: 6684 46bd 3b13 c7bc 8a5a 29bd 80b5 c7bb
000000b0: 5239 45bd b722 84bd 768f e4bc 0852 053d
000000c0: 78cf 6dbc 018a 86bd 560a 6bbd 85ba 0bbd
000000d0: 85d6 153c e440 fcbd 45a6 b8bd 0231 4d3c
000000e0: df23 293d 56fd 2c3a efb6 f63c aba3 a73d
000000f0: f45f 5c3c 4462 f0bd 308e 973c c2e3 5fbc
00000100: f73d be3b 76c2 97bd 703c b6bc 73eb d0bd
00000110: b46d 2f3d 09ff 0f3d 8b16 3cbd caa9 ab3c
00000120: 74b6 f43c 5154 d43a 8dd7 503b 1516 f6bc
00000130: a000 31bd d208 093d be7a 43bd d40e 86bc
00000140: 8108 803d 3c19 b13d b92e 6d3d e1e4 253d
00000150: 55bd 82bd ace5 87bd 8553 ebbc f212 2bbd
00000160: b83a 5a3d c9e3 3a3d 9498 15bb f168 c93b
00000170: 8d4f f4bc ce5f 29bd be05 9dbc 2f0a af3d
00000180: 41e3 97bc 3782 6cbb 6bb6 9dbd 9aa5 193d
00000190: d3aa a9bd 8e40 3abb a9e3 6f3d 40e8 9c3a
000001a0: a6bf a63d a019 803d a588 1c3d 8d58 65bd
000001b0: 9fc4 94bd a378 19bd 1a62 983d a709 043d
000001c0: 457e 873d 7081 9d3b c414 6c3d 6468 61bd
000001d0: 0187 6dbc 8312 ebbc cac9 56bd 2133 66bd
000001e0: f25a 933d 0d44 a7bc 3949 4bbd 2540 783c
000001f0: a815 6c3d 5a0f 703c 4e07 a5bd 747e 48bc
00000200: b276 f8bc fc60 993d e6fb e4bd 661c e73c
00000210: 630f 5aba 3d2f d6bc 7fc9 413d 5410 18bd
00000220: 0af6 28bd da78 443d dbe8 a43d 861d 383d
00000230: 4802 cd3a fdfa 4ebd a00b 863d 5a83 bdbc
00000240: ec1c 633d 7fb8 c8bd 7b81 243d 94a5 7dbd
00000250: a332 5a3d 7915 98bc 0903 e33c 9949 8abd
00000260: cb4e ce3a 48dc 8c3b bce2 eabd ff78 1cbd
00000270: 29cb 50bc bb46 dcbc d6ac 75bd 9b27 2f3d
00000280: 10dd a7bd 7a1b 9fbd 661f 343d a0c0 3dbd
00000290: c0ba 37bd f1e6 fe3c 85d8 3a3d e8b1 86bd
000002a0: ba4a 903d 8a3c 88bd b9ac b83d 2934 55bd
000002b0: 5c41 47bd b71e efbb 5023 203d f87a 043d
000002c0: 8394 76bd 74b6 98bd 1784 52bc 279f 6ebd
000002d0: 6c3f 163d a92e 78bc 9a68 cd3c fe0e 8fbd
000002e0: c16e 84bc 48b6 b3bd 802e 1fbb 69eb c2bd
000002f0: 9658 66bd 230d f03c 15c1 283d 1de6 c43c
00000300: b439 5a3d 797c 48bb f4f1 3ebd acf0 273d
00000310: a029 3abd 1a06 3ebc 8ccd 203c eb09 74bd
00000320: ae64 53bd fbe8 73bd 4199 67bd 0f1c eabd
00000330: 4e70 0f3d 2bcb 0e3d f992 9d3b c465 803a
00000340: cb1a 47bd 4aa2 b93d 3d2a 49bd 23b6 10bd
00000350: fca7 9ebc 122e 1ebd 81d6 14bd b4b7 73bd
00000360: 1592 223d 9704 3cbd 4b29 75bd 715a 503c
00000370: d6a4 4cbd 6b33 ccbc e757 df3c 2043 a03c
00000380: ab56 cd3c 3e39 19bd 79da 2dbb 0908 1bbd
00000390: 0691 8c3d 38c5 58bd 1c4d 68bd 4e36 2abd
000003a0: 9948 b83d b559 583d cb46 8abd 95c0 9c3c
000003b0: 168e 0bbd fd64 9f3d 649e 49bd 37bd 523d
000003c0: 663a ebbb 4973 70bc 0cb3 f83c f92a 2f3b
000003d0: 6ebb 373c f21a 78bc 1cf4 6a3d 81f8 9fbd
000003e0: 5c35 bcbd e470 76bd 7ebf 34bd 2562 9cbd
000003f0: 281d d6bd 5828 20be caef f9bc 3ec3 913d
-0.04549647 0.04771765 -0.038813584 0.022856643 0.06297017 0.08433307 -0.006773679 0.024855867
0.086663164 0.00046736997 -0.078854375 -0.053194232 -0.036808938 -0.06059799 -0.06901798 0.020469464
0.06559122 0.044490006 0.11391937 -0.02548998 0.05599391 0.043726288 0.07354998 0.10605997
0.055415925 -0.012630993 -0.046082493 0.1095939 -0.010172927 -0.026755417 0.054074664 -0.016854066
0.03301557 0.026591906 0.035306297 0.028596723 -0.040513538 -0.054243233 -0.071909375 0.0042378637
-0.04846611 -0.024301162 -0.04134611 -0.0060946345 -0.048150368 -0.06451934 -0.027900439 0.032548934
-0.014514796 -0.06569291 -0.057382904 -0.034113426 0.009145384 -0.123170644 -0.090160884 0.012523891
0.041293975 0.00065990293 0.030116526 0.08185514 0.013450611 -0.11737493 0.018500417 -0.013665142
0.0058057266 -0.07410137 -0.022245616 -0.102011584 0.04282923 0.03515533 -0.045919936 0.020954985
0.029872157 0.0016199445 0.003186676 -0.030039826 -0.043213487 0.033455677 -0.047724478 -0.016364492
0.06251622 0.08647391 0.057905886 0.04050148 -0.063837685 -0.06635603 -0.028726349 -0.041766115
0.053278655 0.04562739 -0.002282654 0.006146543 -0.029823089 -0.041351132 -0.019167777 0.08546864
-0.01854098 -0.0036088356 -0.07700809 0.037511446 -0.08284535 -0.0028419825 0.058566723 0.0011971071
0.08142023 0.062548876 0.038216252 -0.05599265 -0.07264065 -0.037468564 0.074405864 0.032235768
0.06615881 0.00480669 0.05763699 -0.055031195 -0.0144975195 -0.02869535 -0.052438535 -0.056201104
0.07195081 -0.020418191 -0.049630377 0.015152012 0.05763784 0.014652098 -0.08058034 -0.01223718
-0.030330036 0.074892014 -0.11180858 0.028211784 -0.0008318333 -0.026145572 0.047311302 -0.037124947
-0.041250266 0.047966816 0.08052226 0.04495003 0.0015640939 -0.05053233 0.06545186 -0.023133922
0.055447504 -0.09800815 0.040162545 -0.061925486 0.053270947 -0.018564926 0.027711408 -0.06752319
0.0015740035 0.0042987205 -0.114690274 -0.03820133 -0.01274375 -0.026889196 -0.059979282 0.04276238
-0.08196461 -0.077689126 0.043975256 -0.04632628 -0.044855833 0.03111598 0.045616645 -0.06576902
0.07045503 -0.06652172 0.09017319 -0.052051697 -0.048646316 -0.0072973627 0.039096177 0.032343835
-0.060200226 -0.07456675 -0.0128488755 -0.05825725 0.036681578 -0.015147843 0.025074292 -0.069852814
-0.016166093 -0.08775002 -0.002428919 -0.09517557 -0.056236826 0.02930314 0.041199762 0.024035508
0.053277686 -0.003059177 -0.046617463 0.041001007 -0.045449853 -0.011598134 0.009814631 -0.05957977
-0.051609688 -0.05954836 -0.05654264 -0.11431133 0.03501921 0.034861725 0.0048087803 0.0009795954
-0.048609536 0.09064157 -0.049112547 -0.03532995 -0.01936721 -0.038618155 -0.03633738 -0.059501365
0.039690096 -0.045902815 -0.059853833 0.012716875 -0.049961887 -0.024926862 0.027263595 0.019563258
0.02506574 -0.037408106 -0.0026527925 -0.03784946 0.068635985 -0.052922457 -0.056714162 -0.041555695
0.08998222 0.052819926 -0.06751784 0.019134799 -0.03407105 0.07782934 -0.04922332 0.05144998
-0.0071785925 -0.014675924 0.030358814 0.0026728495 0.01121412 -0.015143143 0.057361707 -0.0781107
-0.09189865 -0.060166255 -0.044127934 -0.07635907 -0.1045478 -0.1564039 -0.030509848 0.071173176
