inventory/ark_material.onnx (onnx, 778181 bytes, 8 tensors)

35 f4 [8, 3, 5, 5]
00000000: bd6a 12bf df98 563f ea6f aabe d944 dc3c
00000010: 2303 54bf 04d0 cf3d a721 debc 93f2 f13e
00000020: 12ee f03e a530 6a3e c52f 49bf 631a 11bf
00000030: f58d aa3e 3086 c33e d6cd dc3e 7f51 63bd
00000040: 51d3 993e 8be1 553e 261b 8c3e 9070 6fbe
00000050: 3702 8d3d 1345 063f 4496 86bd d015 293f
00000060: 99f5 d4be 43ca bf3e c908 3d3f 0476 623f
00000070: ef0e 05bf c477 5ebe 688e 9ebe 9604 dcbc
00000080: 5e81 ddbb 7b78 963c db4b 8b3e 75f8 9d3d
00000090: a5ee fb3e 4f8d bc3e e041 cfbe 7cd8 b7be
000000a0: 981d 83be ef3b bfbe b867 03bf edf5 f03e
000000b0: 4c7c 093f 89e5 e4bc d6a3 f7bc 6f69 2abe
000000c0: 52a9 e4be afbe b9bd d947 fa3e d38a 68be
000000d0: 6c90 8d3e 809e f83e bad7 643e ee41 1d3d
000000e0: 507b 9e3d 9f24 c3bd 6850 b13e c140 3b3e
000000f0: bd59 7abe 2626 03bf 2320 07bf 6f32 263f
00000100: acab 4b3e 6d38 1fbf 54cf f9be f757 9dbd
00000110: e90c 0a3f 4258 bdbd b045 e939 7857 b0be
00000120: 65d2 21bf b992 16bf b26c 0a3f fcc8 0bbf
00000130: f789 833e 5393 54bd 1b66 e8bd 85b6 16bf
00000140: 3e6c b8be a8b3 7ebe 99ae e53d 282e 973e
00000150: 0c3f eb3e d19f 5c3e 0a2d 893e 7145 b5be
00000160: 4c0f 3dbe c142 a8be 1d35 cbbe 6056 4b3e
00000170: 5bce 923e a1e4 0a3f 47e1 00be e609 07be
00000180: 82cf 91be 60d5 273f a1d2 c33e 98b5 a93e
00000190: 5799 fb3c c847 bb3d bc7c b33d 02b7 a53d
000001a0: d629 b6be ff62 cb3e 372c 0d3c b360 05bf
000001b0: f3ab fc3d d33e afbe 0c51 d93e 130d 0e3e
000001c0: 3e2e cd3e 7754 e9be d5c6 b3bd 588e 333e
000001d0: 190f 31be 3a1d 22be 8266 8ebe 50fa 863e
000001e0: 47ca b3be 67f4 3c3e a970 073e 1c8b ae3c
000001f0: 4924 a3be b981 80be ab2b 0abf 1aba 88be
00000200: 324e 09bd b41a 78bd 7010 103f 64b5 f6be
00000210: 576c ad3e 4895 fcbe 6eac d63d 8066 72be
00000220: abbe de3e 342b 493e 2932 e73c 588a 99be
00000230: de0d 003f 1f57 2c3e 13d8 f23e 4dd0 443f
00000240: e146 033f 5c14 bf3e 21cc 023f a866 86be
00000250: 1326 65bd a459 543f e63c fd3e de2d 3d3e
00000260: a21e e13e 1877 d8bd b12b 5fbd 5d47 75be
00000270: d539 e33e 25b1 0dbf 7954 cebe 4a9a aa3d
00000280: 74c1 e13e 2591 35be 5b3c 1cbf 95df 9bbe
00000290: 8692 33bd 9747 83be 135e 2bbf 9489 8d3e
000002a0: 991c 06bf 8a3b 293e 605a ce3c 5f3b 8cbe
000002b0: 3be9 5a3e 7524 063d b50a 18bf 4758 fd3e
000002c0: 977c 09bf 2e2b 34bf bcfc 23bf 9b53 9abe
000002d0: e7c5 d73e 6488 ccbe d21e c4be b2e7 de3e
000002e0: f0d4 e8be 64d3 08bf 9916 c6be 5973 5f3c
000002f0: 5ce5 033e a4f2 5c3e 10f8 eabd 5578 ef3e
00000300: e259 e9bd e7e7 0d3f 6f00 8bbe eea7 d0be
00000310: 15f7 1f3e ba24 c4be 7aa4 103f 85ee 913e
00000320: 7e7a bcbe de44 8cbd 3327 693e 74fc 84be
00000330: 1e0f 90be 6a6d 08bf 1a31 5b3e 6b12 9e3e
00000340: ae0b 65be acec ebbe c544 33be 22f9 1a3e
00000350: 35cb 593e 1fe6 ac3e 9ea8 80be 265c 8d3e
00000360: ee63 da3e 5a3c c1be dcfb 11bd cd49 0a3f
00000370: 6fb8 6ebe 4986 bb3e fffb 0d3f 1174 01bd
00000380: 59de e23e 3e20 ab3e e1eb 153d a6c4 6e3e
00000390: af59 b13c 4a31 e43e e5e0 1ebe 1f29 70be
000003a0: 20fc fe3d 0c1c 3e3c d496 cdbd 1658 2dbd
000003b0: 3aab 733e 1692 46be 70b0 cfbd 5d39 323e
000003c0: 3799 c0be 40f2 abbe 228a 3f3e 01f4 6bbd
000003d0: 035c ac3e 3d2f 853e 7565 283e 6895 0abe
000003e0: 0d77 023f cdf5 a0bd 96f4 f63e 9a3f 24bd
000003f0: 0617 4bbe 9eaf 07bd b807 b4be a504 10be
-0.5719412 0.8382701 -0.3328851 0.026888298 -0.82817286 0.10147098 -0.027115656 0.47255382
0.47056633 0.22870119 -0.78588516 -0.5668089 0.3331143 0.38188314 0.4312579 -0.055497643
0.30044034 0.20886819 0.27364463 -0.23382783 0.06885188 0.5244915 -0.0657163 0.6604891
-0.41593626 0.37459 0.7384153 0.8846133 -0.5197591 -0.21725374 -0.30968022 -0.026857655
-0.0067598065 0.018367996 0.2720631 0.07713405 0.4920551 0.3682656 -0.40479946 -0.35907352
-0.25608516 -0.37350413 -0.5133014 0.47062626 0.53705287 -0.027941482 -0.03022949 -0.16641782
-0.4466043 -0.09069573 0.4888294 -0.22709207 0.27649248 0.48558426 0.22347918 0.038392954
0.07738364 -0.09528469 0.34631658 0.1828642 -0.24448295 -0.51230085 -0.5278341 0.64920706
0.19889706 -0.62195474 -0.4879099 -0.076827936 0.5392595 -0.092453495 0.00044493144 -0.34441733
-0.6321166 -0.5881763 0.54072106 -0.5460355 0.25691196 -0.05189831 -0.113476 -0.5887225
-0.36020082 -0.24873221 0.112149425 0.29527402 0.45946538 0.2154534 0.26792175 -0.35404542
-0.18462867 -0.3286343 -0.3968896 0.19857168 0.28673062 0.5425511 -0.12585936 -0.1318737
-0.28478628 0.6555996 0.38246635 0.33146358 0.030712767 0.091445506 0.087640256 0.080915466
-0.35578793 0.39723966 0.008616499 -0.52100676 0.12337484 -0.3422762 0.42444646 0.13872175
0.40074342 -0.45572254 -0.087781586 0.17534769 -0.17290916 -0.15831462 -0.27812582 0.26362848
-0.35115263 0.18452607 0.1322657 0.021306567 -0.3186362 -0.2509897 -0.5397288 -0.26704484
-0.03352184 -0.06057234 0.5627508 -0.48185265 0.3387172 -0.49332643 0.10482107 -0.23671913
0.43504843 0.19645387 0.02822216 -0.2998836 0.5002116 0.16830109 0.47430477 0.7688034
0.5128003 0.3732022 0.51092726 -0.26250196 -0.055944514 0.8294928 0.49460524 0.18474528
0.43968683 -0.1056959 -0.054485027 -0.23953004 0.4438006 -0.55348426 -0.40298823 0.083302096
0.44092906 -0.1773115 -0.61029595 -0.30444017 -0.043840908 -0.25640556 -0.6694042 0.27644026
-0.52387387 0.16526619 0.025189579 -0.27389047 0.21378033 0.032749612 -0.5939134 0.49481413
-0.53705734 -0.70378387 -0.6405752 -0.3014191 0.42143175 -0.39947808 -0.38304764 0.43536144
-0.45474958 -0.53447556 -0.38689116 0.013638341 0.12880462 0.21576935 -0.114730954 0.46771494
-0.11394097 0.5543198 -0.27148768 -0.4075312 0.15621598 -0.3830927 0.5650097 0.28502288
-0.36812204 -0.06849073 0.2276886 -0.25973856 -0.28136533 -0.5329195 0.2140545 0.30873427
-0.22367737 -0.46079004 -0.17506702 0.15134099 0.21268924 0.33769318 -0.25128645 0.27609366
0.42654365 -0.37741357 -0.035640582 0.5401886 -0.23312543 0.3662589 0.5546264 -0.03160483
0.44310263 0.33423036 0.036601905 0.23317203 0.02164921 0.44568855 -0.15515478 -0.23453186
0.12450433 0.011603367 -0.10038534 -0.042320333 0.23795786 -0.19391665 -0.10141075 0.17404695
-0.37616894 -0.3358326 0.18705037 -0.057605747 0.3366395 0.26012602 0.16444953 -0.13533556
0.5096291 -0.07859383 0.4823348 -0.040099718 -0.19833001 -0.033126466 -0.3516214 -0.14064272

36 f4 [8]
00000000: b77c 30bf 9ddf b4bf 45e7 ab3f fbf0 e7bf
00000010: e712 d93e cecd 1f3e 468f 053f 6ba6 0640
-0.689403 -1.4130741 1.3429953 -1.8120416 0.42397234 0.15605852 0.5217174 2.1039073

38 f4 [16, 8, 3, 3]
00000000: 9110 1a3f 4d34 39bf d632 613f f14a b23f
00000010: b8e0 6c3f 5e04 0bbf cafd 153f abde 403f
00000020: 83b3 7bbe 321f bebe 1fae 96bf b03f 86bf
00000030: 032a bb3e 4b98 8a3f 1b61 b53e bb1b d23e
00000040: 6ed9 4ebf c544 393e e4ad 093f 475b 7d3f
00000050: 7c24 45be 2791 333f ad78 283f 5ad3 9abe
00000060: 44ae 063f 9d62 8bbe 64e1 b1bf 84af ac3e
00000070: 689e d53e 0dca 38be c064 bcbe 4667 1c3f
00000080: 429b f6be 5f79 78bf afb7 503e 922d dfbf
00000090: 2126 593f 4fce 653e 506b 543e d252 22bf
000000a0: 6a82 e4be 9690 bbbe 481d a83e 200a 9bbf
000000b0: 8085 37bc b837 bd3e d08a 74be 5b98 28be
000000c0: 5328 aabf 4a7c e43f 45f2 8ebf c992 cdbf
000000d0: 1332 863f 5d0b acbf af2a 60bf 0468 203f
000000e0: ea09 d4be cb98 5bbf 2c17 84be aa3c acbe
000000f0: 8a89 69bf 55b4 10be efa7 80bf a4c6 153d
00000100: 78d8 fbbd 7a9c 1dbf fb2e f03e fac1 92bf
00000110: d06d 07bf ebaa 1cbf 4f61 9c3d 0a53 533f
00000120: f566 46bf 1482 003f 0470 033f 8df0 693f
00000130: 2f28 253f bcef 82bb 1844 2cbf 9131 9d3d
00000140: 4642 05be c0d9 92be 3f2f e03e 943e 6bbf
00000150: be65 cd3e a757 3c3e e715 8839 04dd d23e
00000160: 4d76 e8bf fd5e 6abf c86e 10bf a08d 85be
00000170: 0198 ddbe 174c 28be dd32 b43f 4204 38bf
00000180: e46f f33e b5ee d03f ea35 9bbf 0599 7abd
00000190: a472 893f 2301 9b3e 223a 4fbf 1a21 103f
000001a0: 8cf3 28bf 2840 b13e 139c b7bf ec3b 99be
000001b0: f36e b0be 8254 9cbf 2a28 28bf d2e1 143e
000001c0: 57ba bebf 24c6 78be 3bd3 a03e f547 efbf
000001d0: 4a75 afbf a8f2 48be 8f3a 8b3f d393 453e
000001e0: e3ba da3e 234c dc3c c7b0 f43e 572c 303f
000001f0: d719 01bd 7ffb 1ebe 02ae 60be 70e3 353f
00000200: 2344 ec3e 03d7 16bf d8f4 6f3f fef7 103f
00000210: 5f97 30bf 4c8b 893e 1c0c e4be 9f64 7c3f
00000220: df22 f6be 67cc 103f 6739 d83e 3154 173f
00000230: 321c 9cbe db01 a8bd 0725 e4bf 00be 4fbd
00000240: e5a2 493f a020 fbbe 6edf 0dbf 3d9e 81bd
00000250: 2dcf 2e3e 384d 223f 5486 debe 658f 43bf
00000260: f99f ba3e fbb2 7fbf cddc 93bf 4b4a 813f
00000270: f19a 33be 8fa1 ab3f df7e 65bf e369 5bbf
00000280: 0323 aa3f 48b0 5bbf 8848 fb3d 1cbb b13e
00000290: 3656 57be 3d32 debd 4a2b 023f 6426 3cbf
000002a0: ee06 2c3f 2e60 4fbf b854 fdbf 4674 353f
000002b0: fbd2 d93e f4b3 34bf 8d5b 53bf 51c5 c4bf
000002c0: 28e8 75bf dc32 293f 0570 ac3e 0d9f bdbe
000002d0: 651d 46be e666 e5be b14f 503f a1b4 523f
000002e0: 6b82 a23c 2f54 203f b5de 753f c5aa cfbd
000002f0: 916a 893c 9ac3 243e aba6 81be a4e9 753f
00000300: d343 11bf 1e43 32bf d60b 8cbe 0c93 803f
00000310: 91c5 223f 8f12 e53e 6430 abbf 52ba 02bf
00000320: 4f32 0c3f 939d a93e 9b40 0d3c 5140 a0be
00000330: c4dd 90be da1b 303f e4f8 aa3f 6813 bf3e
00000340: 5a57 8abe f841 763f 0a78 33bf 9e5a 42bf
00000350: d7b7 87be de10 43be 07d5 86bf cbbf 14be
00000360: 87a4 b5be b3d3 6d3c 5583 393f 6bb9 43bd
00000370: 3c7e 933d 69ca 0b3e b215 1abf 0c13 413f
00000380: 80f1 263f 2892 113f 1403 12bf fd44 0c3f
00000390: 6207 273f 28d7 9ebf 16fd 73be c439 f53d
000003a0: 2279 3cbf d86b 963e 69b7 813e 27e4 53bf
000003b0: d0e3 ddbe 3981 2b3f 8d36 99bd 0690 853f
000003c0: 41ac d23e 4787 e13e 7461 bc3e d511 8f3e
000003d0: abec 883d 47ff 11bf 2652 12bf 5806 853d
000003e0: b537 803f 4227 33bf a756 4a3f 08d1 9d3f
000003f0: bed8 bebe f9a5 10bf 20e3 253f 3fbf b53e
0.6018153 -0.7234543 0.87968194 1.392912 0.92530394 -0.5430354 0.58590376 0.75339764
-0.24580197 -0.37133175 -1.1771888 -1.0488186 0.3655549 1.0827726 0.35425648 0.41036782
-0.8080052 0.1809264 0.5378096 0.98967403 -0.19252199 0.7014336 0.65809137 -0.30239373
0.5260966 -0.27223673 -1.3896909 0.33727658 0.41722417 -0.18045826 -0.36795616 0.6109508
-0.48165327 -0.970602 0.2038257 -1.7435782 0.84823805 0.22441982 0.20744061 -0.63407624
-0.44630748 -0.36633748 0.3283484 -1.2112465 -0.0112012625 0.36956573 -0.23881078 -0.16464369
-1.3293556 1.785043 -1.1167685 -1.606042 1.0484031 -1.3440968 -0.8756513 0.62658715
-0.41413814 -0.8578002 -0.2579893 -0.33640033 -0.9122549 -0.14131291 -1.0051249 0.03656639
-0.122971475 -0.6156689 0.46910843 -1.1465447 -0.52901936 -0.611983 0.07635748 0.8254858
-0.7750085 0.50198483 0.513428 0.91382676 0.6451444 -0.0039958637 -0.672914 0.0767547
-0.13013563 -0.28681755 0.43786046 -0.9189236 0.40116686 0.18392812 0.0002595626 0.41184247
-1.8161103 -0.9155119 -0.5641904 -0.26084614 -0.43280032 -0.16435276 1.4078022 -0.71881497
0.47546303 1.6322848 -1.2125828 -0.061181087 1.073811 0.30274305 -0.8094808 0.5630051
-0.65996623 0.3461926 -1.4344505 -0.2992853 -0.34459648 -1.221329 -0.65686285 0.14539269
-1.4900616 -0.24294335 0.31411156 -1.8693835 -1.3707669 -0.19623816 1.0877246 0.19294672
0.42720708 0.026891774 0.4779112 0.6881766 -0.031518783 -0.15525626 -0.21941379 0.7105017
0.46145734 -0.5892183 0.93732977 0.56628406 -0.68980974 0.26864088 -0.4454049 0.98591036
-0.4807348 0.56561893 0.42231295 0.5911284 -0.3049026 -0.08203479 -1.78238 -0.050718307
0.7876418 -0.49048328 -0.5541905 -0.0632901 0.17071219 0.63399076 -0.4346186 -0.7639068
0.36450174 -0.9988248 -1.1551758 1.0100797 -0.17539574 1.3408679 -0.89646715 -0.85708445
1.3291935 -0.8581586 0.122696936 0.34713066 -0.2102898 -0.10849426 0.50847304 -0.7349608
0.67198074 -0.81006134 -1.9791479 0.70880544 0.42543778 -0.70587087 -0.8256157 -1.5372716
-0.9605737 0.6609323 0.33679214 -0.3703541 -0.1934715 -0.44805068 0.813716 0.8230687
0.019837579 0.62628454 0.9604295 -0.101399936 0.016774448 0.16090241 -0.2532247 0.9605963
-0.56744117 -0.6963366 -0.2735278 1.0044875 0.6358271 0.44740722 -1.3374143 -0.5106555
0.54764265 0.33128032 0.00862136 -0.3129907 -0.28294194 0.687925 1.3357205 0.37319493
-0.2701977 0.9619441 -0.7010504 -0.7591952 -0.26507446 -0.19049403 -1.0533761 -0.14526288
-0.35477087 0.014515805 0.7246602 -0.04778425 0.07201812 0.13651432 -0.60189354 0.7541969
0.6521225 0.5686364 -0.57035947 0.5479277 0.6524564 -1.240941 -0.23827013 0.119739085
-0.73622334 0.29379153 0.25335243 -0.8277001 -0.4333787 0.66994053 -0.07481108 1.0434577
0.41147044 0.4404852 0.367931 0.27943292 0.06685766 -0.5703015 -0.571566 0.064953506
1.0017 -0.6998178 0.7903847 1.2329416 -0.37274736 -0.56503254 0.6479969 0.35497472

39 f4 [16]
00000000: 36e5 3140 2473 0640 4928 0f40 3881 183f
00000010: 98ff 72bf 5cd4 7740 6628 0a40 681e 1ebf
00000020: 7b8e 66c0 02cf 12bf 0de4 4740 fa41 42bf
00000030: bc7c d13f bc69 dcbe 468c 1340 42fb 88bf
2.779615 2.1007776 2.2368338 0.5957217 -0.94921255 3.8723364 2.1587157 -0.61765146
-3.6024463 -0.5734712 3.123294 -0.7588192 1.6366191 -0.4304942 2.3054366 -1.0701678

fc.0.bias f4 [550]
00000000: 1b6c fa3d dd03 ab3d a573 eebc 1a3b 38ba
00000010: 334d 0d3a 1880 813d aa2b 383d 90ee d63d
00000020: 1165 ce3c f0b8 213d ac65 f13d 6437 67bd
00000030: 940f 82bc 1b65 4f3c 62fd 86bc 7dc7 b03d
00000040: f01f 03bd b224 433c dbfc 093e 8b75 0a3e
00000050: e1bb 99bd f56f 093d 5e51 8dbc 262a 023e
00000060: 993a e73c aa7a 163d 7a64 c23d f1d4 ef3d
00000070: 74b3 9a3d 1110 d03d 9ada 733d df19 0f3e
00000080: fb23 953d 9ff2 72bc 6d61 f23d 7ffe 173e
00000090: b088 f33d b48f 7e3c cca5 32bd c031 f53d
000000a0: da8d 89bd a67e d13d e027 98bb 5a53 363b
000000b0: 4365 103e 42f6 753d 4dc2 79bc 2dc0 19bd
000000c0: 2168 9fbb 6224 133e 05c6 883d 2636 493d
000000d0: dc6c be3d d0f9 23bc 443f 93bc 69a9 83bd
000000e0: 3459 7abd 9125 c83b c40f 973d 95c7 41bd
000000f0: b075 d13d 8024 28bc 6cd2 0b3d 2406 9d3d
00000100: 1480 34bc 5808 993b 1a9d b73c 7c9f 8cbd
00000110: 6abe c0bd b4ac 7cbc 0110 123d e6ac 833d
00000120: ef1b 3ebd 4edb 523b a22b b13d a946 1cbd
00000130: 1807 023e a166 b8bc 6c03 5b3c 451a ea3d
00000140: 634f c33d 34a9 95bc 8ee9 4e3d 1a21 383d
00000150: c447 593d 139e 7cbc 0456 223d 31e2 24bd
00000160: 7c05 73ba a2b9 503d 0bad 14bd 8313 e5bc
00000170: 9348 3f3d ee24 ccbc a6e1 cd3d 6e17 673b
00000180: ae15 d33c b033 9f3d 6d59 123d 0416 583d
00000190: f206 b03d 87cb d83d 21e7 23bd 0b1b d13d
000001a0: ed91 59bd 45c2 66bc cb35 443d 8e88 57bc
000001b0: 45c2 9bbc 0dd1 8d3d a57e ccbc 6805 adbc
000001c0: e962 2cbd cc2a af3d e12a cbbc 0f19 1f3d
000001d0: 8d97 883d 7cdc 1abd e6d6 af3d 0b03 623b
000001e0: 4d31 e33d f880 9a3d 4fed 08bd 4d43 533c
000001f0: a9f3 d93d edaa 8abd 95cd 6f3c 2f71 003e
00000200: 2774 833d e3e8 6cbd 2230 3abd bb0a 4fbd
00000210: 48f9 c63d 8c60 423c 9ca4 e53d 7f44 0bbb
00000220: 21a8 44bd 5e96 66bc 2081 e5ba 03aa 413d
00000230: e8b0 453d 44c2 a63d a7ed 973b df32 28bd
00000240: 7bca c4bc eaca d3bc ba0f bcbc 1386 083c
00000250: 6f8c 5b3d 2e8d ba3d 5b61 b73d 3592 a03c
00000260: 3b70 2b3d 392a 273e 928e 0f3c bf18 993d
00000270: e235 ab3c 9bf8 b0bc ff33 9b3d b8e6 053e
00000280: 5044 f63d ba37 bb3d cc0c 32bd aaa3 8439
00000290: ec7e df3c aa90 21bc 4005 323d bbb5 be3d
000002a0: 6d95 99ba ba56 2dbc 4a9a ad3c d75e 23bd
000002b0: 557d 8c3d de73 82bd 32e1 b33d cfc0 0e3e
000002c0: 6a5c ee3d 6987 d93d 628a 0f3d fb11 143d
000002d0: d414 a4bc d5e0 263d a629 f33c 5f01 9c3d
000002e0: 60d1 95bb 4ad5 95bc acdc 25bd 58df 3b3d
000002f0: 8ea7 85bd ad60 043e 54aa 6f3c d301 9e3d
00000300: cd5a eabc f8e2 c53c 9a47 9fbc 468b 693d
00000310: 9030 d43c b287 203e 5711 843d ad19 183e
00000320: 2d3b 8f3d 3697 3f3d a866 f43d 8e7b f03c
00000330: aa73 f5bc 8d47 87bc e1f8 b7bc 5c2c eb3b
00000340: bf26 cf3d d752 ba3d 97b5 27bd 0bf1 90bd
00000350: 31be bc3c 655d db3d ec5a 9c3d f439 c23c
00000360: de35 e53d d14e e93d 7819 4fbc 4d83 13bb
00000370: 7a8f 83bd 4565 c0ba 0e59 333c c1db c23d
00000380: 5ebd 5a3d 9a4f 70bc f750 9c3d 568e f63d
00000390: db09 053e 6392 0ebd c080 363d 7ca2 2e3d
000003a0: 8c35 833d 8011 073e aca9 91bc 1178 ff3b
000003b0: c42c 4cbc 5b8f 093e dd05 26bc f806 15ba
000003c0: 3e69 c43d 63a8 973d 200b cc3d 545c 763d
000003d0: adfd 9c3d 86a7 e83b a07d 503c 2b73 9f3d
000003e0: f777 f1bc 883d 78bd b154 be3d c5b7 f239
000003f0: aae2 e03d a77d ff3d a6eb 54bc 9466 ef3d
0.12227651 0.08350346 -0.029107878 -0.000702785 0.0005390227 0.0632326 0.044963516 0.10494721
0.025194677 0.03948301 0.117869705 -0.05644931 -0.015876569 0.012658383 -0.016478244 0.08631799
-0.03201288 0.011910604 0.13475363 0.13521402 -0.07506538 0.033554036 -0.017250713 0.12711391
0.028226184 0.036738075 0.09491821 0.11710537 0.07553759 0.101593144 0.059534647 0.13974713
0.07282253 -0.014828353 0.11834989 0.14843176 0.118913054 0.015537191 -0.043615147 0.1197238
-0.06716509 0.102292344 -0.0046434253 0.0027820677 0.14101128 0.060049303 -0.015244079 -0.03753679
-0.004864708 0.14369348 0.06678394 0.049123906 0.09298107 -0.01000829 -0.017974503 -0.06428797
-0.061120227 0.006107994 0.07376054 -0.047309477 0.10227525 -0.0102626085 0.03413622 0.07667187
-0.011016864 0.004670184 0.022413779 -0.06866357 -0.094113186 -0.015422035 0.035659794 0.06429462
-0.04641336 0.0032174173 0.086509004 -0.038153324 0.12698019 -0.022509875 0.013367515 0.11430792
0.09536626 -0.018269159 0.050515704 0.044953443 0.053046957 -0.015418547 0.039632812 -0.040254775
-0.00092705316 0.050958283 -0.03629784 -0.027963405 0.04670007 -0.024919953 0.10052805 0.0035261768
0.025767174 0.077735305 0.035729814 0.05275537 0.08595075 0.10585695 -0.040015344 0.10210236
-0.05311768 -0.014084403 0.047902863 -0.013155116 -0.019013533 0.06924639 -0.024962733 -0.021120742
-0.042086516 0.08553085 -0.02480072 0.038842257 0.06669531 -0.037807927 0.085859105 0.0034486677
0.11093388 0.0754413 -0.03342944 0.012894464 0.106421776 -0.06770883 0.014636417 0.12543176
0.06418639 -0.057839286 -0.04545606 -0.050547343 0.097155154 0.011863839 0.11213037 -0.0021250544
-0.048011903 -0.014073936 -0.0017509796 0.047281276 0.048264414 0.08142522 0.0046364847 -0.04106414
-0.024022331 -0.025853593 -0.022956718 0.008332747 0.053600725 0.09108959 0.08954116 0.019600967
0.04185508 0.163247 0.008762019 0.07475423 0.020899717 -0.02160292 0.07578277 0.13076293
0.12024748 0.091414884 -0.043469235 0.0002529894 0.0272822 -0.009861151 0.043462038 0.09312006
-0.0011717506 -0.010579759 0.021191735 -0.03988537 0.06859843 -0.06369756 0.08783187 0.13940738
0.1163872 0.106215306 0.03504408 0.03614996 -0.020029463 0.04074176 0.029682945 0.07617449
-0.0045720786 -0.01829018 -0.040493652 0.045867294 -0.06526099 0.12927504 0.014628012 0.07715192
-0.02860775 0.024156079 -0.019443322 0.057017587 0.025902063 0.15676764 0.0644862 0.14853545
0.06993709 0.046775065 0.119336426 0.02935579 -0.02996238 -0.01651361 -0.022457542 0.007176919
0.10114812 0.09097832 -0.040944662 -0.07077225 0.02303991 0.10711173 0.076345295 0.023709275
0.11191915 0.11391986 -0.01264035 -0.0022508681 -0.0642385 -0.0014678618 0.010946525 0.09514571
0.05340325 -0.014667416 0.0763263 0.12038867 0.12992041 -0.034807574 0.04455638 0.042635426
0.06406698 0.1319027 -0.017781101 0.0077962955 -0.012461845 0.13433592 -0.010133234 -0.00056849374
0.09590386 0.07405164 0.099630594 0.060146645 0.07665572 0.0071000485 0.012725264 0.077856384
-0.029476149 -0.060605556 0.09293497 0.00046294756 0.10980733 0.12475138 -0.012995636 0.11689487

fc.0.weight f4 [550, 64]
00000000: 12b7 e4bc 7a97 9abd c316 943d e67e 90bc
00000010: 5f5b 5f3d 21ba 08be e77f f6bd 1c7e 95bc
00000020: 40b3 9d3d 8362 2e3d a2f1 cfb8 0ee4 b0bc
00000030: 3aa5 033d 8e8c dabc 6644 013d 957e 023c
00000040: 781a 62bd 9cba 9ebd 4d5a 6f3d 2f39 043e
00000050: b941 103d 5dbf 153e 0304 e03d a4b9 b73d
00000060: f312 643c 9a17 d9bd 2b1c 113d ba7b 06bc
00000070: f941 aa3d 6be8 74bd 381c 913c de0b dfbb
00000080: dc5b e93c dfba fa3d e865 9f3d 7e4d ad3d
00000090: d53a ff3c 2310 1cbe 2401 c5bd 5391 5e3c
000000a0: d000 d03d 7763 a23c 2274 04bd b9b1 1ebd
000000b0: 5e47 423c be00 aebd 2c69 f03d 1c34 debc
000000c0: ab40 5ebd 2f89 493d 000d 2cbd 9cc7 773d
000000d0: 5147 023e d7f8 943c 4132 12bd f49b a63c
000000e0: 223c 0f3e 0e77 66bb df32 af3c 76e7 e7bb
000000f0: a8ca 253a 7616 9dbc fa5c c73d a7dd c33d
00000100: f6d1 293d ad1a 4b3e 1372 c13d f914 7d3d
00000110: dc66 04bd 2b24 213e bf6e 113e 51cb 80bd
00000120: 8d0a 813d 46a7 843d b5ee fdbb c7c6 7dbc
00000130: bccf c03c 0f64 c93d 9df3 0bbe 8cab 933d
00000140: f4cd 9e3d 52e0 e0bc c39a 693d 33b2 e9bd
00000150: fe7a d1bd 22eb f93c 1c91 d13d 854c 3d3e
00000160: a86d ecbd c05f 5abd 3ade 86bd 6176 21be
00000170: fd43 223d 4a8d 9f3d 8447 c3bc 2fa8 203b
00000180: bd92 49bd bdb7 823c 6332 093e d17b b33c
00000190: 047d 85bd a708 8abd 74db 29be 59be 32be
000001a0: a9d6 10bd 7c85 6bbd fefa 78bd 02d9 54bc
000001b0: f0bd 2fbd d92b 57bd ead4 eebd 087b 9abd
000001c0: 526e 0d3e 9ea7 103e 58b0 583c a43c 4c3e
000001d0: e36b 0ebd 9b42 4abe e49a adbc f71a cdbd
000001e0: 093a 3a3d 690f 373e ad50 253d 740e 853d
000001f0: e705 233d 4cae c63d e124 353d cbb3 433d
00000200: 302f b7bd 1345 76bd 8815 db3d 0bd5 aabd
00000210: b1fe dabd e44d b53d bf9f 063e cfa3 debb
00000220: d082 643d f39b 463d a19f ad3d bf60 93bd
00000230: 6102 5f3d f9fd 02be 5046 babc 970d 71bd
00000240: da9e 633d a391 65bc 92d9 2f3e 7fa6 e93d
00000250: 17d5 cbbd ae46 253d 86e2 3a3e c731 33bd
00000260: ba4f d2bd 9adb af3d e539 003d 8e92 7f3e
00000270: 059d 1e3d dbd9 e23c 1b56 06be d89b 213e
00000280: 3c5c 9ebc 4986 a2bd 1067 9f3c 64d8 3b3e
00000290: 39b5 973d 95db 1e3e dca6 e3bd bbbe 163e
000002a0: 4d23 9fbd 5b9a fcbd 623d 15be cc1c 763d
000002b0: 9cc7 44bc be4b 01be e1ec 943d d437 273d
000002c0: f611 10bd e385 e0bd 44b4 5d3e 1b55 073e
000002d0: b336 d1bc b9b7 7c3d c2c4 30bc a297 8ebd
000002e0: f0d0 1bbc 4375 e03d dfa2 f73d d608 60bd
000002f0: 134c 653d b780 473c 9375 f33d 599c d9bd
00000300: fd2c b43c c5c5 1abc 942f 79bd 129c 3abd
00000310: cbd9 37bd 1148 4a3e e347 02bc 509f 01bd
00000320: 345d 93bd c426 41be 835c bcbd 007c c73d
00000330: 49b9 e53c c580 063e dcb5 253c 92c5 2f3e
00000340: f840 06be 7af6 0cbd d5bb 51bd 060a d73d
00000350: 7e1d a3bd 51b0 8ebc c02c 12bd e390 093e
00000360: 10d4 68bd ab7a 023e 444b 0d3e 22cf 9abc
00000370: e2cf 8d3d f825 f33d 73b7 163e ffd9 423e
00000380: aa33 1fbc 716a bfbc acca 493d 8557 31bd
00000390: b10d b33d ff16 fd3c 04d3 e23d 543b e9bd
000003a0: 5434 adbd b898 54bb cfb5 693d 153b 933c
000003b0: 5b9d 9ebd 7435 8ebd 5f32 efbc c58d 143e
000003c0: a076 48bb 959a 6e3b 530e 7d3d 5047 0b3e
000003d0: 7cf7 95bd 8abb 223e 1043 903d 5f6d f83d
000003e0: 3877 afbc 59dd 513d 08f0 c53d 7002 75bd
000003f0: de2e 203d f02a 62bd 3b46 853b ca4b cfbd
-0.027919326 -0.07548423 0.07230904 -0.017638635 0.054530498 -0.13352253 -0.12036114 -0.01824861
0.07700205 0.042574417 -9.915537e-05 -0.02159312 0.032139994 -0.02667835 0.03155937 0.00796475
-0.055201024 -0.07750437 0.058435727 0.12912439 0.035218928 0.1462378 0.10938265 0.08970955
0.0139205335 -0.10600205 0.035427254 -0.00820821 0.083133645 -0.059791964 0.017713651 -0.0068068346
0.028486185 0.12242674 0.07783109 0.08462046 0.031155983 -0.1524053 -0.09619358 0.013584453
0.10156405 0.01982282 -0.032337315 -0.03874371 0.011857836 -0.08496235 0.1173881 -0.027124457
-0.05426089 0.049203094 -0.042004585 0.060493097 0.12722518 0.018185062 -0.035692457 0.020338036
0.13987783 -0.0035166177 0.021386562 -0.007077153 0.00063244486 -0.01917575 0.09734531 0.09563761
0.04146 0.19834395 0.09445586 0.06178758 -0.032324657 0.15736453 0.14202403 -0.062887795
0.063008405 0.064772174 -0.0077494034 -0.015489287 0.023536555 0.09833538 -0.1366715 0.07210454
0.07754126 -0.027450714 0.057032358 -0.11410942 -0.10228537 0.030507628 0.102327555 0.18486221
-0.11544353 -0.05331397 -0.06585355 -0.15767814 0.03961562 0.077906206 -0.023837812 0.0024514308
-0.049212206 0.015956754 0.13398127 0.021909626 -0.065179855 -0.067399316 -0.16587621 -0.17455424
-0.035360966 -0.057500347 -0.06078624 -0.012991192 -0.042905748 -0.05253205 -0.11661704 -0.075429976
0.13811615 0.14126441 0.013225637 0.19945008 -0.034770858 -0.1975197 -0.021192022 -0.10014909
0.045465503 0.17876972 0.04036014 0.06496897 0.03980055 0.09701213 0.044224624 0.047778886
-0.08944547 -0.060124468 0.10697466 -0.08341416 -0.1069311 0.08852747 0.13146876 -0.00679443
0.055788815 0.04848857 0.084777124 -0.07196187 0.054445628 -0.12792195 -0.022738606 -0.05885085
0.055571415 -0.014011773 0.1717284 0.1140871 -0.09952753 0.04035061 0.18250474 -0.043748643
-0.10269113 0.085868075 0.031305213 0.2495825 0.038723964 0.027691772 -0.13118784 0.15782106
-0.01933109 -0.07935769 0.019458324 0.18344265 0.07407612 0.15513451 -0.1111581 0.14721195
-0.07770405 -0.123341285 -0.14574197 0.060086057 -0.012010481 -0.1262655 0.072717436 0.040824726
-0.03517338 -0.10963037 0.21650797 0.13216059 -0.025538778 0.06169865 -0.010789098 -0.069625154
-0.009510264 0.10959866 0.12091612 -0.054695927 0.055980753 0.012176684 0.1188766 -0.10625524
0.021994108 -0.009446566 -0.06083639 -0.045558996 -0.044885438 0.19754054 -0.007951709 -0.031646073
-0.071955115 -0.18862444 -0.09197333 0.09740448 0.028042452 0.13135059 0.010114159 0.17165211
-0.13110721 -0.034414746 -0.05120452 0.10499959 -0.079646096 -0.017418059 -0.03568721 0.13434176
-0.056842864 0.12742107 0.13798243 -0.018897597 0.06924416 0.11872476 0.14718418 0.19028471
-0.0097169075 -0.023366185 0.04926555 -0.043296356 0.08742846 0.030894754 0.11075404 -0.11388269
-0.084572464 -0.003243966 0.05705815 0.017972508 -0.07744857 -0.06943789 -0.029198823 0.14507206
-0.0030588284 0.0036408056 0.06178124 0.13601422 -0.073225945 0.15891853 0.07044041 0.12130236
-0.021419153 0.051236484 0.09664923 -0.059816778 0.039107196 -0.05521673 0.00406721 -0.101218775

fc.3.bias f4 [275]
00000000: 7f89 1abb fb85 c939 b77e 0ebc e846 2bbc
00000010: 8d3b 1ebc 607f ee3b 4a8c a0bc 91b1 52bc
00000020: c6a8 af3c d035 6b3c b0aa 42bd 2707 29bd
00000030: 2803 c73b e911 debc 8dc5 093c 6eb3 aebb
00000040: 72ce b6bc 3f14 48bb 4162 513c d646 14bc
00000050: 2b74 2dbc c7b2 3d3c a07f b53b d409 f33c
00000060: 5b39 743b 0726 393d 7fe7 bdbc 6a54 d4bc
00000070: b3f5 2cbd 46c5 4bbc d341 dfbc 3869 f2bc
00000080: 5d1f e6bc 0259 b8b8 f7fd 6ebc 2b6c d3bc
00000090: 6846 48bd 5442 11bc 2e6b 01bb e320 99bc
000000a0: e13b d9bc 8528 03bd 2233 39bd 9eb0 17bd
000000b0: 0d01 2b3c 00b9 b93c e2db 4d3c d85c dabc
000000c0: e5e7 c3bb eb9f 0cbc 0ad8 923c 7b88 383b
000000d0: 1c1a 2bbd 07a5 56bc 1c99 d4bc 8bf8 983c
000000e0: 97bd 893c c04c 913c d5c2 d33b 997d 8d3c
000000f0: 712d 8d3b 7428 4dbd ec4a 06bd 0b1d 953c
00000100: 781b 15ba e5b7 2bbb fa23 313c 9d0b a6bc
00000110: 48fc b9bb ff8c a0bc fed0 81bb 337a 36bd
00000120: 8c6a babc 3ba0 29bc 44a9 23bd f73a 8bbc
00000130: c657 4f3c e496 28bd 536d 1b3c 8d74 423d
00000140: 5be3 c43b 197f 0fbd 01d1 b3bc c248 b4bc
00000150: 5b8b 7a3d 0766 90bc 662e 05bd eeab 8d3c
00000160: 7c82 26bd 04dd e8bc 273a afbc ae75 983c
00000170: dab3 763b 6878 8bbc 4776 a63c 480f 61bd
00000180: dfc6 24bd 9304 1fbd 30e5 80bc 0ba0 debc
00000190: 33ca db3c 8015 39bd 67c4 48bc 11d3 7ebc
000001a0: aad2 30bd 7df6 c7bc 2508 e6bb 701d a93b
000001b0: 7300 913d 0bd8 88bc f3bd 943b e32f e1bc
000001c0: 8426 0bbd 51cc 8c3c f526 80bc e205 d93c
000001d0: 1053 0d3b 95ec afbc 8598 ebbb a2df 6e3d
000001e0: 9688 17bd 5d1c 26bd 4f9f 48bd cbaf 1dbd
000001f0: 992c e33c 7e7c 52bd 1ea5 6b3b fdda 2fbb
00000200: bbdd 873c 62a8 ec3c a2de a2bc 49ff edbb
00000210: 07b9 64bc 4611 98bb f4d8 793d b6bb f3ba
00000220: 8123 b0bc b4a8 733c 41cb 853b 0c79 d13b
00000230: dc47 f83c 9f9d a0bc fbc9 59bd 9475 c23b
00000240: 73f1 16bd 460d 6bbd 74ca 6cbb 833c 51bd
00000250: 7748 9f3b 4760 5b3d a7c9 b1bb 0e1c 26bd
00000260: f0d5 edbc bcf9 163d 4b6e 92bb 80f3 12bd
00000270: 898f 273d f8da af3c bbcd 75bd cc8a d0bb
00000280: 9ae0 4d3b 6880 013d 4204 9e3b 854d 1a3d
00000290: 4f26 b4bc c3db 7ebd c37c d93b 8b3f e83c
000002a0: 13c5 3bbc fcaf 3abd 95bb bfbc 99e3 d9bc
000002b0: 213c 0abb b61a 2c3d 0dab 54bc 4e77 79bb
000002c0: f857 41bb 9fc0 e63c 5138 64bd 90ed 7e38
000002d0: 6525 48bc 347d 25bd 729e e03c 333d b1bc
000002e0: 3c5c 2dbc 00a8 2dbd 73ec c9bb ace0 8b3c
000002f0: 239b 23bc f676 5dbc 6b18 6abc 4cd1 143c
00000300: ac82 51bc 3687 42bd 8039 893c 49b5 0abc
00000310: c31a b53c 7ad3 9137 8f86 7abc 076d ecbc
00000320: 9cfa 3bbc 074d a4bc 2db5 afbc c036 593c
00000330: 9749 b63b 2633 893c 396a 94bc 6284 17bc
00000340: 45ca 5ebd d41d 2b3c dd9b 853c ddb7 f9bc
00000350: 23d5 733c 45ea 86bb b750 25bb 51c7 b5bc
00000360: 26f7 8cbc 1dfb 87bc 3ff4 d0bc 3bd7 2cbc
00000370: 5af2 b0bc ecaf cd3c 72d2 493c 605a 99bc
00000380: 6adf 073d 7b79 ffba 071e 8bbc 0120 a23c
00000390: fbcb 28bc a3d7 01bd 9d1d c43c 45c4 62bd
000003a0: f20b f0bb 3fb3 443c 7891 3d3d 560b 3dbc
000003b0: 4219 a9bc 3a3f 4d3c 1b1c 193d 39a9 47bc
000003c0: 0664 393d c842 653d 831c 36bd 0790 f6bc
000003d0: 226a 58bb 39e6 bcbb b049 b9bc fac6 3c3b
000003e0: df73 e13c 0adf 1e3d b71f 333d c7bd 083c
000003f0: e642 023d 3208 d23c 69fc 973b 181c fdb9
-0.002358049 0.0003843753 -0.008697203 -0.010453917 -0.009657753 0.007278368 -0.019598145 -0.012859718
0.021442782 0.014356092 -0.04752606 -0.041266587 0.0060733743 -0.02710815 0.008408916 -0.0053314483
-0.022315238 -0.0030529646 0.012779773 -0.009050092 -0.010586779 0.011578268 0.0055388957 0.029667772
0.0037265632 0.04520228 -0.023181675 -0.025919158 -0.042226505 -0.01243717 -0.027253067 -0.029591188
-0.028091127 -8.790383e-05 -0.014586917 -0.025808414 -0.04889527 -0.0088659115 -0.0019747722 -0.01869244
-0.02651781 -0.032021064 -0.04521478 -0.03703367 0.010437262 0.022671223 0.012564631 -0.0266556
-0.0059785717 -0.008583049 0.017925281 0.002815752 -0.041772947 -0.013100869 -0.025951914 0.018673202
0.016814036 0.017736793 0.006462435 0.017271804 0.0043083956 -0.050087407 -0.032786295 0.018202325
-0.0005687992 -0.002620214 0.0108118 -0.02026921 -0.005675826 -0.019598482 -0.0039616814 -0.044550132
-0.022755884 -0.010353143 -0.039956346 -0.01699589 0.012655204 -0.041159526 0.009486514 0.047474433
0.006008548 -0.03503332 -0.021950247 -0.02200735 0.061168056 -0.017626775 -0.032514952 0.017293897
-0.040651783 -0.028425701 -0.021390034 0.018610802 0.003764382 -0.017025188 0.02032007 -0.054946214
-0.04022872 -0.03882272 -0.015734285 -0.027175924 0.026829815 -0.04518652 -0.012253857 -0.015553252
-0.043169655 -0.024409527 -0.007020014 0.00516098 0.07080164 -0.01670458 0.0045392453 -0.027488654
-0.03397228 0.01718727 -0.015643576 0.026492063 0.0021564402 -0.021475116 -0.0071898126 0.05831874
-0.036995493 -0.040554393 -0.048980054 -0.038497727 0.027731227 -0.051388256 0.0035956572 -0.0026833408
0.016585222 0.028888885 -0.01988155 -0.0072630984 -0.01396013 -0.004640731 0.06099792 -0.0018595371
-0.021501305 0.014871765 0.0040830676 0.0063926037 0.030307703 -0.01960641 -0.05317114 0.0059344266
-0.036851358 -0.057385705 -0.0036131414 -0.0510831 0.0048609334 0.053558614 -0.00542565 -0.0405541
-0.029032677 0.03685926 -0.0044687144 -0.03587675 0.04090837 0.021466717 -0.060010653 -0.006364202
0.003141439 0.0316166 0.004822285 0.037671585 -0.021990923 -0.0622213 0.006637187 0.028350612
-0.01146056 -0.045577988 -0.023404876 -0.026597785 -0.0021092969 0.04201766 -0.012980235 -0.0038065496
-0.0029501896 0.02816802 -0.05571777 6.0779566e-05 -0.012215947 -0.040402606 0.027419303 -0.021635627
-0.010581072 -0.042396545 -0.00616222 0.017074905 -0.009985718 -0.013517132 -0.014288048 0.009083103
-0.012787502 -0.04749223 0.016751051 -0.008466073 0.022107488 1.7383823e-05 -0.01529087 -0.028860582
-0.011473324 -0.02005626 -0.021448696 0.013257682 0.005562972 0.016748022 -0.018117057 -0.009247871
-0.054392118 0.010444123 0.016309673 -0.03048318 0.014882359 -0.0041172826 -0.0025225112 -0.022189768
-0.017207693 -0.016599232 -0.02550709 -0.010549362 -0.021599937 0.0251083 0.0123182405 -0.018719852
0.03317205 -0.001949116 -0.016982092 0.019790651 -0.010302539 -0.031699788 0.023939902 -0.05536296
-0.0073256427 0.012005626 0.046281308 -0.011538347 -0.020641927 0.012527281 0.03738032 -0.012186342
0.045261405 0.05597189 -0.044460785 -0.030097974 -0.0033022244 -0.0057647494 -0.022618145 0.0028805123
0.027521072 0.038786925 0.043731418 0.008346028 0.03180208 0.025638673 0.004638244 -0.00048276852

fc.3.weight f4 [275, 550]
00000000: f7ba 273d b3f8 62bc b1af 973d 3b19 83bd
00000010: 0c18 d43b 0632 0ebd 2490 753c 3a81 3c3d
00000020: cb61 48bd 4f5f d33b ddfb 553c 5b4f 1d3d
00000030: 3914 cbbc acc2 8bbd 031f 4ebd 1952 023d
00000040: c3b9 25bd 3fc1 ef3c 58ec 473c 1dab b33d
00000050: 1891 143c e319 59bd 3342 aebc 82bb 823c
00000060: ddbb 3bbc e8cf 293d 887c d03b 3e5e 9b3d
00000070: 7248 6b3a d11d bb3c 62a5 c23d cd6a 47bd
00000080: 9955 f9bc 781f 66bd 3894 f63c b926 1cbc
00000090: 469d 65bd a538 613c 05d5 bbbc d004 b23b
000000a0: 7f47 8ebd 7d97 493d e5d7 703d 2dd1 113c
000000b0: 5de5 35bd 833a 023d 74f3 083d a3c6 abba
000000c0: fc2a 3abd e93c 32bd 0cbb 53bd c15d 48bd
000000d0: e977 1f3d f002 893d 7831 f9bc 0f26 6dbd
000000e0: 13d6 57bb 8da3 b03c b229 ca3b c9f2 9cbc
000000f0: a1d8 7cbc 785e c23a 82a8 aabc 5385 893d
00000100: feaa 4f3c 6fb4 323d 7d1b 833c 55e9 c2bc
00000110: 62d0 d73b 4277 bb3c 8824 563d 0546 e93c
00000120: af80 993b 5226 6b3c 0d6e 30bd 4d70 143d
00000130: 2a6b 79bc 4ec8 943c 19ba 8e3c 0755 3a3b
00000140: deb3 82bd e61a 713c 611b bc3a 2842 60bd
00000150: 9b92 0e3d 282c bcbb f94e 91bd c899 6fbc
00000160: 52ca 923d a10a 5d3d 70c6 4dbb 15b1 ea3c
00000170: 7c4e 3d3d 8bca 4a3c 22ba 673d a66f 613d
00000180: 316a 22bd a818 34bd a4ec d2bb 7a5f 00bd
00000190: 0693 853d 56d2 7e3d bccf 1e3c ab98 82bb
000001a0: 60ad 2ebd f92a e0bc 56b4 3cbc 3edd 9e3d
000001b0: fa43 183d a18a 91bc 013d 893d e8d6 20bd
000001c0: acb0 02bc 3934 55bd 436b 763d 2d0e 7abd
000001d0: 192b bc3c fa3f 0abd 2e03 2c3d bb19 3bbd
000001e0: 4bd5 e13c 25e8 80bb 10e4 29bb 56e4 92bd
000001f0: 82ea a0bb 11d8 4c3c cd9f d53c 1833 12bd
00000200: 3e64 8fbc 30c7 85bd 8eb5 e23c b462 64bd
00000210: d379 4bbd fb6c 09bb ca2e 993c 83e0 f43c
00000220: efd2 ebbc 4f92 c83a a845 703d 7f78 a93c
00000230: a980 14bd ecd4 92bb 62b8 b7bc e327 6dbd
00000240: f18b aa3d e50d 003d 9913 cebc 351f 4c3d
00000250: c23e 143c 3728 1dbd 26a3 54bd ed09 593d
00000260: 1e57 803b 615c 86bd ad76 b03d a32f bfbb
00000270: 520e b43c 86ba 63bd d038 18bd acad 93bc
00000280: 3797 2cbc 2ffa 90bc cc04 8cbd 801a 943c
00000290: e360 113d cbc2 67bd 4edb 8bbd f10d 61bd
000002a0: 4e91 2c3d 9092 94bc 350a 16bd 191a 9cbc
000002b0: 4eb9 87bd 6faa d7bc 6f42 3fbd 5997 573d
000002c0: e52f 13bc d58b 6e3c cceb ec3c 5bd3 debc
000002d0: 924d ecbc 6f5e b03c c32b 09bd 6aad 1fbd
000002e0: f32c e13c ef5d ab3b dde4 c8bb dad2 42bd
000002f0: 7f1a 02bc 0077 6ebd 5a9f c33c c445 b7bc
00000300: 9f1c eb3c c712 e23c 775b c2bc 25fa 033d
00000310: 80a4 aabb 07a3 2fbd d381 bebc 0350 58bd
00000320: 82e7 dcbc 7ce1 61bd b9d9 ddbc af3f 8b3b
00000330: 7101 2c3c 74b3 6dbc d48e 55bd ee1a 003d
00000340: 9f9e b43b 0ada f138 82c4 34bc 9540 cabc
00000350: d71f 3d3b 7807 233d 06f4 48bd 8b82 0bbd
00000360: 3062 813b 2832 babc a8bd d23c 7911 69bd
00000370: 20ac 17bd f984 c339 b9e8 69bd 8a8b ffbc
00000380: 2317 85bd fcf6 d13c 4991 2e3b b43c 8cbc
00000390: 13ba da3c 92e8 b7bd bca5 2c3c f665 2e3c
000003a0: 01a4 2c3d e966 ca3c 53a3 2dbd 3bd1 6abd
000003b0: 0aba 023d 7e35 f63b 8305 3cbd 3ebd ffbc
000003c0: 4aae 7d3c b4a4 ffbc 2e77 b1bc 75d3 d03c
000003d0: 1dbc 8cbd f72b e83c abc7 febc 91e5 2cbd
000003e0: 5321 bfbc 84fd 463c 6072 193d 7e9b da3b
000003f0: 75a5 65bd 9489 ddbb 25c3 67bd 8f5b bc3c
0.040949788 -0.01385324 0.07406557 -0.06401297 0.006472593 -0.034715675 0.014987979 0.046021678
-0.048921388 0.0064505707 0.013060537 0.038405757 -0.024789916 -0.0682424 -0.050322544 0.031816576
-0.04046036 0.029266952 0.012202345 0.08772872 0.009067796 -0.053003203 -0.0212718 0.015958551
-0.011458364 0.04145804 0.0063625015 0.07586335 0.0008975334 0.022841366 0.095042005 -0.048685838
-0.030436324 -0.056182355 0.030099973 -0.009530717 -0.05605819 0.013746415 -0.022928724 0.0054327026
-0.069472305 0.049216736 0.058799643 0.008899969 -0.04440819 0.031794082 0.0334353 -0.0013105463
-0.04545115 -0.04351512 -0.051692054 -0.048917536 0.038932715 0.066900134 -0.030419096 -0.057897624
-0.0032933995 0.021562362 0.0061695212 -0.019158738 -0.015432508 0.0014829179 -0.020832304 0.06714883
0.012675045 0.043629106 0.016004318 -0.023792902 0.0065861205 0.022884015 0.052280933 0.02847577
0.0046845297 0.014352398 -0.043073703 0.03623991 -0.015223304 0.018161919 0.017422723 0.0028432028
-0.06381963 0.014715886 0.0014351421 -0.05475059 0.034807783 -0.0057425685 -0.07095141 -0.014624067
0.07167496 0.053965215 -0.0031398796 0.028648892 0.046217427 0.012377392 0.056573994 0.055038117
-0.039652053 -0.043968827 -0.006436901 -0.031341054 0.06522183 0.06221231 0.009693082 -0.0039854846
-0.042645812 -0.027364241 -0.011517605 0.07757042 0.037174203 -0.017766299 0.06701089 -0.03926745
-0.007976692 -0.052051757 0.060160886 -0.061048675 0.02296977 -0.03375242 0.04199522 -0.045678835
0.027567526 -0.003933924 -0.002592329 -0.07172458 -0.004910768 0.012502686 0.026077176 -0.035693258
-0.017503854 -0.065321326 0.027674463 -0.055758193 -0.049676728 -0.0020969498 0.018699069 0.029892212
-0.028787104 0.0015302392 0.05866018 0.02068734 -0.036255512 -0.0044809487 -0.022426788 -0.057899367
0.08327473 0.03126325 -0.02515583 0.04983445 0.009048166 -0.03836843 -0.051913403 0.05298798
0.003916635 -0.06560589 0.086163856 -0.005834536 0.021979485 -0.055597804 -0.037163556 -0.01802715
-0.010534099 -0.017697422 -0.068368524 0.018079042 0.03549279 -0.056582253 -0.068289384 -0.054944936
0.04213076 -0.018136293 -0.036630828 -0.019055413 -0.06627141 -0.026326386 -0.046694215 0.05263457
-0.008983587 0.014559706 0.02892103 -0.027200392 -0.028845582 0.021529404 -0.033489 -0.03898374
0.027487254 0.0052297036 -0.0061307983 -0.047564365 -0.0079408875 -0.058218956 0.023879696 -0.022372134
0.028700171 0.027596844 -0.023725254 0.03222098 -0.005207598 -0.042880084 -0.023255264 -0.05281068
-0.02696586 -0.05514668 -0.027081357 0.004249535 0.0104983905 -0.014508117 -0.052138165 0.031275682
0.005512073 0.000115323885 -0.011033179 -0.024688998 0.002885809 0.039802045 -0.049060844 -0.034060042
0.0039484724 -0.022728994 0.0257252 -0.05690143 -0.037029386 0.0003729237 -0.057106707 -0.031194467
-0.064985536 0.025630467 0.002663689 -0.01711879 0.026700055 -0.08979906 0.010537561 0.010644427
0.042148594 0.024707275 -0.042392086 -0.057328444 0.031915702 0.007513701 -0.045903694 -0.031218167
0.015483448 -0.031206466 -0.021663275 0.025491456 -0.06871817 0.028341277 -0.031101068 -0.04221112
-0.02333132 0.012145404 0.037462592 0.006671368 -0.056065995 -0.0067607854 -0.05658259 0.022992877
