inventory/ark_material.onnx (onnx, 803545 bytes, 8 tensors)

35 f4 [8, 3, 5, 5]
00000000: a535 c03d 8047 b9be f8c0 2cbd 3a18 c0be
00000010: e057 b3be d17b 963e 614e 96be c342 2bbe
00000020: 0308 43be 39e7 0fbe 9eef f53d f437 32be
00000030: d0cc bd3e 28c4 883d 263f 163e 2c8c 7fbe
00000040: fbc4 923e 7cdd f03d a52d d83e f565 573e
00000050: acb4 97be 23c6 823e 714a 7a3d 9fa5 ad3e
00000060: 3b88 ec3e 7ffb ae3d 722c d73d 5d0d a73d
00000070: b74c 83bc 7865 9abd 5062 2fbe 3ef1 73be
00000080: 7817 da3d 67b6 783e 708e 47be 8f13 983e
00000090: 8f52 a93e 5e80 973d 5850 b7be 7d7f 66be
000000a0: 287f 083f 8808 863e b381 e63e b255 76be
000000b0: b960 4d3e fa44 6f3d d8ae 893e aac6 083f
000000c0: bdbd 403d d6a7 09bd 8e49 febe e9f2 b1be
000000d0: 13a8 d7be a764 a1be ae11 11be 2334 b9bc
000000e0: f82d 783e 247e a03e 435f a6be f62e d4bc
000000f0: ad8c 003d f91f 543d b5ed 39be 4e3b cbbd
00000100: 3fa7 3bbe 88ca 413e 2ca8 b53d eede 95bd
00000110: 7d8f 8e3c 497d e7bc b678 ad3e a868 5bbe
00000120: facd 4c3c 91f5 a53e 8125 973e 8d71 07be
00000130: 959a 893d aeb5 0a3f ab60 913e d38d 0ebf
00000140: f0d7 c53e 125a 8abe dfef fabd 3575 47be
00000150: b639 07be c13c 5a3e d4a7 023e 8a3c f13e
00000160: a26b 6f3e 4c07 dd3e ea7e c83d 8a15 df3d
00000170: b58b 26be 6b81 b53e 8009 ec3e 777b 19be
00000180: 14dc d63e af1a 87bd 9202 6f3e c59b 7a3e
00000190: 6523 b23e 4b5c 49be d4b0 bdbc 5924 05bf
000001a0: 4b7d 373c dec4 c9be 3ec6 973d 16de 133e
000001b0: cc72 233e b43f 3c3e d9c1 8cbd 9a27 e5bd
000001c0: a05a 1a3d ad1b 473d b666 7dbe 7baf 0dbf
000001d0: c57f 35bd e869 d03d 5869 1abd 29b3 f93d
000001e0: 0b23 d73e 9842 c8be c3e8 083d 4fcc afbd
000001f0: a9e5 74be 60d7 c33e 39ea d63e 1e6e 9cbd
00000200: 3dbc 8cbe c91e a5bd 1ca9 20be a648 95be
00000210: 7210 ae3e 5e1d ea3d 27f9 9f3e 75c4 12be
00000220: 1507 79be dfa8 78be 5f42 32be 8e00 063f
00000230: 3f06 dbbc 9153 abbe 9f12 113e bb91 b23e
00000240: a67f a23e e393 8b3d 03d2 4a3e fbfc c93e
00000250: 7238 843e bd35 cc3e ede0 293e bdc2 b6be
00000260: f6f5 863e d5d2 ab3e 2a8f 0fbe c27e 96be
00000270: 22fc db3c 1526 8ebe b1b0 473e 78d4 a83d
00000280: 4a0f bb3d 3382 5cbe 3911 8b3e b9ab 813e
00000290: 34a1 3bbe 53b4 76be 91f1 a3bd 7d1c a23e
000002a0: 69f8 123e 2cc9 8dbe 5532 953d 5f03 283d
000002b0: 53c6 4fbe 0eaa 983d be7a 623d 37c9 bf3d
000002c0: e0c8 af3e 8602 21be 3a8d 313e 2448 923e
000002d0: 9309 953e fc8e 673e 57be 153d ed59 86be
000002e0: 155c e3be 2c56 d0bd 3a0f 793e 0b13 18be
000002f0: 9377 71bd c011 efbe f890 f8bd 03df 7b3e
00000300: 8151 e5be 6227 56be dae8 25be 8e87 1b3e
00000310: b002 ecbc d41a 553c 03dc 91be 7a0b 2a3e
00000320: ca37 5b3c 447d cabd 93d7 f03b 2f94 743d
00000330: 9d66 de3d 99c4 d9bd 2ef7 a73d 418b b53d
00000340: 2267 c7bd d5c0 6bbe 3b42 2cbe b5eb 293e
00000350: 2a86 7abe 8976 b6be 35c4 69be 49d4 f4be
00000360: 5fa1 b6be 2476 1dbf 7011 c5be 822e 1c3d
00000370: c590 bdbe 417c 8abe 463f 6ebd 8ec5 103e
00000380: 208e 0dbd f0fd 823e 787e 5ebe d919 9ebd
00000390: c732 763d e340 633c ca02 bfbd 1189 9ebc
000003a0: d5c8 11bd 5989 b2bd b8b2 993d 4be8 7f3d
000003b0: aa43 9bbe 6ff8 813e 690c bdbd 502a 97be
000003c0: 3be0 a9be bede d8be 1e6b 2abe adbd 9e3d
000003d0: 23db 21bb c7c5 f2bd 9093 5dbe e768 fdbd
000003e0: e068 b03e cc48 01be 2b23 003f da16 0e3e
000003f0: b2bd 0f3e cdbf 4cbe 2159 15bf 8f53 573e
0.09385232 -0.36187363 -0.042176217 -0.37518483 -0.3502798 0.2939134 -0.29356673 -0.16724686
-0.19046025 -0.14053048 0.12008594 -0.17404157 0.37070322 0.06678039 0.14672527 -0.24955815
0.2866591 0.11760995 0.42222324 0.21034987 -0.2963003 0.2554179 0.06110615 0.3391542
0.46197686 0.08544063 0.10506524 0.08156846 -0.016027791 -0.07538885 -0.17127347 -0.23822495
0.106490076 0.24288331 -0.1948793 0.29702422 0.330708 0.07397531 -0.35803485 -0.2250957
0.53319025 0.26178384 0.45020828 -0.24056128 0.20056428 0.05841539 0.26891208 0.5342814
0.04705595 -0.033607326 -0.49665493 -0.34755638 -0.42120418 -0.31522104 -0.141669 -0.022607869
0.24236286 0.31346238 -0.32494554 -0.025901299 0.03138416 0.051788304 -0.18157084 -0.09923421
-0.18325518 0.18924916 0.08869967 -0.07317911 0.017402405 -0.028257983 0.33881158 -0.21426642
0.0125002805 0.32413915 0.295208 -0.1322691 0.06718937 0.5418347 0.28394064 -0.55685157
0.3864131 -0.27021843 -0.12252783 -0.19478305 -0.13205609 0.21312238 0.12759334 0.471165
0.23380902 0.4316963 0.09789832 0.1089278 -0.16264232 0.354503 0.46100998 -0.14988504
0.4196478 -0.06596886 0.23340824 0.24473484 0.3479263 -0.19664113 -0.023155607 -0.5200859
0.011199306 -0.3940801 0.074108586 0.14440188 0.1596176 0.18383676 -0.06872911 -0.11189194
0.037684083 0.048610378 -0.24746212 -0.55345887 -0.044311304 0.1017645 -0.03769812 0.12192375
0.42018923 -0.39113307 0.033425104 -0.08583891 -0.23915733 0.38250256 0.41975573 -0.07638191
-0.27487364 -0.080625124 -0.1568951 -0.2915699 0.33996922 0.114313826 0.31244776 -0.14332755
-0.24319108 -0.24283169 -0.17408131 0.52344596 -0.026736377 -0.33462194 0.1416726 0.3487681
0.31738013 0.068153165 0.19806676 0.3945082 0.25824314 0.3988475 0.16589709 -0.3569545
0.26359528 0.3355929 -0.14019457 -0.29393584 0.026853625 -0.2776343 0.19500996 0.0824365
0.091337755 -0.21534042 0.27161577 0.25326326 -0.18323213 -0.24092226 -0.080050595 0.3166236
0.14352573 -0.27692544 0.07284991 0.04101884 -0.20290498 0.0745431 0.055292837 0.093645506
0.34332943 -0.15723619 0.1733903 0.28570664 0.29108867 0.22613138 0.036558475 -0.26240483
-0.4440619 -0.10172686 0.24322215 -0.14851014 -0.058951925 -0.4669323 -0.121370256 0.24596791
-0.44788745 -0.20913461 -0.16202107 0.15188429 -0.028809875 0.013006885 -0.28488168 0.1660594
0.01338 -0.09887174 0.007349917 0.05971163 0.10859416 -0.10633201 0.08201443 0.08864451
-0.09736468 -0.23022778 -0.1682214 0.16593821 -0.24465242 -0.3563731 -0.22828753 -0.4781821
-0.3566999 -0.61508393 -0.38489866 0.03813029 -0.37024513 -0.27047923 -0.05816581 0.14137861
-0.03455937 0.25584364 -0.21727931 -0.07719774 0.06010702 0.013870451 -0.09326704 -0.019352468
-0.03559192 -0.08717603 0.07504791 0.06247739 -0.3032506 0.25384852 -0.09230883 -0.2952447
-0.33178887 -0.4235744 -0.16642424 0.077510215 -0.0024697266 -0.11854129 -0.21638322 -0.12373524
0.34455013 -0.12625426 0.5005366 0.13875905 0.14037207 -0.19995041 -0.58339125 0.21027969

36 f4 [8]
00000000: c1b1 55bf 8b73 debf 649b 0040 6a24 bebf
00000010: 40d5 8a3f 0c9e f23f 0f5e 4fbf 0890 26be
-0.83474356 -1.7379011 2.0094843 -1.4854863 1.0846329 1.8954482 -0.810029 -0.16265881

38 f4 [16, 8, 3, 3]
00000000: 4b2b d0bd bf4a b73d c800 22bf 35ba c13e
00000010: 0ae3 823e 9abf afbe 2c4f e0be ed38 b6bf
00000020: 14d1 25bf cfc3 153f e019 443e 3ffd 47bf
00000030: 7716 c9bc 1bb0 413f 8373 573e 116d 08bf
00000040: 10d4 313d e66d 3dbf fee0 99be 4624 3c3f
00000050: 6a99 363e 32d1 333f 3f6a b2bf f703 7bbe
00000060: b704 afbe 77d9 02bf f61a 253f e613 d03e
00000070: b3c7 e9bd 7100 513e 738a e3be cc2d b83f
00000080: 582f 52bf 638f 36be 972f 22bf a8c2 2cbf
00000090: 5176 013f 0efc 2abf b8d2 e2be 3a3a cbbd
000000a0: cf4b f73e de7b 27bf c429 57bf ab68 77bf
000000b0: 66aa 55bf 6d17 593e cfbc 123f 65ef 3dbf
000000c0: 9e9a 173f fc4e 973f b66d 2d3e 9510 d4be
000000d0: c464 2abf d9e1 863e 835f 003f 8a1b 17bf
000000e0: 4346 dfbd 62af 4e3e ea28 df3f c763 5c3f
000000f0: ba2c 203e 5d79 6a3f ee88 c6be 03a7 17bf
00000100: b73f 3f3f 4e24 c6be cd38 353d ad8b 25be
00000110: c260 33bf 1aac 15be e4ed b43e f54c ee3e
00000120: 2f52 123e 7df9 c43c 310b 08bf 3d33 0cbf
00000130: 1891 65bf ddd6 533f 9c09 45be b710 d33e
00000140: 7109 813d 2c59 533f 7afa 1c3f c94d 8f3d
00000150: 8d04 a13f 0701 05c0 0207 4cbf 4954 babe
00000160: 592c a23e 9e65 c73f 4d3b f93e 4d4a 933e
00000170: d901 25be 175b 77be 3776 733f 2216 81bf
00000180: 7c5b c43e a86d cdbe 8efa 9bbf 1af6 70be
00000190: d16e f23e eed3 44bf dc0d a5bf 4221 1fbf
000001a0: 61eb 923e 2f5d 143f 28ae af3e b4fb ef3d
000001b0: 2461 183f 1bdb 41bd 634e e53d 30f1 80bf
000001c0: 68b6 0fc0 e7a4 4abf 914e 29be f962 31bf
000001d0: 204f 8dbe 0fbf 65be b849 083f 54c1 91be
000001e0: 7a4c cc3f de96 0ec0 60f2 833f 3424 7d3e
000001f0: 8cdf b73f f313 c13e 3295 3cbf 3ec4 a2bf
00000200: 8022 1c3f e8c6 13bf 8156 04bf 9acf 9bbd
00000210: f092 bbbb fb79 553f 9643 e33c 7327 2dbf
00000220: cddc e43f 81e7 2ebf 0b3c 8f3e f089 453f
00000230: 5ff0 97be 419a cf3d 9255 de3f fd7c a5bf
00000240: aab0 d3be 45af 0dbf 4663 283f c1c8 6bbf
00000250: 17f8 033f e33a 50bf e9fd 103f 0752 943e
00000260: 51dd 7cbf e366 803e 5dea aebe 2f11 a4bf
00000270: 449d 4f3e cc85 9ebe 025c 8fbe 50f8 94be
00000280: 30bd 813f c835 8e3f 3ac1 fe3e 8050 f03d
00000290: 329b c9be 36b9 4fbe f47f 373e af63 f33f
000002a0: 1bfe 29bf 6f0d 9fbf a66d f13e 217b edbe
000002b0: a3aa d93d c380 51be 82ac 22bf a04c 34bf
000002c0: 7ab8 3bbc 90d5 e4be 2bdc a3bf 58be 4b3e
000002d0: e13b 573f dd4f 3b3f 3650 b3bf 43b2 873f
000002e0: 5306 4b3e 1a38 2dbf 6c76 e83e 5fe0 9d3f
000002f0: 8bd2 353f d218 6abf 51ef 1d3e 3991 06bf
00000300: 3bfc 6d3e 05e3 4fbe ad5e 953e 117d 87bf
00000310: d6bb 453d 72cd c2be aa1b 823f 5531 473f
00000320: cee8 093e f361 6b3f 2064 9a3f f4f4 5dbe
00000330: 4f4c 343e 0617 713f 4391 48bf dccd 8e3f
00000340: 03fa ec3e 9c0d 0e3f e265 833e da33 363f
00000350: 834b 643e 2d49 023f 24ae 913e 78d6 8a3f
00000360: c50a d8be a405 53bd 52aa c4bf 5160 033f
00000370: cd30 bebe 0817 03bf d554 69be 9985 21be
00000380: 4d32 0d3f 97e2 fcbe a24e 33bf 5f61 263f
00000390: 2d4a 223f f81d f83e fe53 4f3f 318b 803e
000003a0: 3448 7abe 14dc 88bf 0bfd f53e dc23 b13f
000003b0: 3fd3 ce3e 1640 fd3d e881 743f dd66 ba3e
000003c0: 4461 493f 682e 93bf b419 9e3e 69aa 503f
000003d0: dffa 813f 211e 9fbb ddc3 493f 469f 20be
000003e0: eb92 17be 1ef1 743e 46a6 3dbf 38fe 3a3e
000003f0: 70f9 323f f87e 54be 805e 17bf de97 6bbf
-0.101645075 0.089498036 -0.6328244 0.37837377 0.25563842 -0.34325868 -0.43810403 -1.4236122
-0.6477215 0.58501905 0.19150496 -0.781208 -0.024546845 0.7565934 0.21040158 -0.5329142
0.04341513 -0.73995817 -0.30054468 0.7349285 0.1783196 0.7024108 -1.3938674 -0.24513231
-0.34183285 -0.51113075 0.64494264 0.4064018 -0.11415043 0.20410325 -0.44441566 1.4388976
-0.8210349 -0.17828135 -0.63353866 -0.6748452 0.5057116 -0.66790855 -0.4430139 -0.09923215
0.48300025 -0.6542338 -0.84048104 -0.96644086 -0.8346313 0.21200342 0.5731935 -0.7419341
0.592203 1.1820979 0.16936383 -0.414189 -0.66560006 0.26344183 0.5014574 -0.59026396
-0.10902073 0.2018409 1.7434361 0.8608975 0.15642062 0.91591436 -0.38776344 -0.59239215
0.74706596 -0.38699573 0.044243623 -0.16166563 -0.70069516 -0.14616433 0.35337746 0.4654309
0.14289163 0.024044747 -0.53142077 -0.54765683 -0.8967452 0.8274973 -0.19241947 0.4122369
0.06300629 0.8255794 0.61319697 0.06997258 1.2579514 -2.0781877 -0.79698193 -0.3639243
0.3167446 1.5577886 0.48678055 0.28767624 -0.16113986 -0.24155842 0.95102257 -1.0084879
0.38351047 -0.40122724 -1.2185838 -0.2353138 0.4735017 -0.7688588 -1.2894855 -0.6216012
0.28695205 0.57954687 0.34312558 0.117179304 0.59523225 -0.047328096 0.11196592 -1.0073605
-2.2455082 -0.7915787 -0.16533877 -0.69291645 -0.2759943 -0.22436164 0.53237486 -0.2846781
1.5960839 -2.2279582 1.0308342 0.24720842 1.4365096 0.37710533 -0.73665154 -1.2716138
0.6099014 -0.5772538 -0.51694494 -0.07607956 -0.0057243034 0.8338925 0.027742188 -0.6763832
1.7879883 -0.68321997 0.27975497 0.771636 -0.29675576 0.101368435 1.7369864 -1.2928768
-0.4134572 -0.55345565 0.6577648 -0.921032 0.5155043 -0.81339854 0.56637436 0.28968832
-0.987752 0.25078496 -0.3416318 -1.2817744 0.20274836 -0.30961454 -0.27999884 -0.29095697
1.013586 1.1110163 0.49756795 0.11734104 -0.39376217 -0.20285496 0.17919904 1.9014796
-0.6640336 -1.2425975 0.47153968 -0.46383002 0.106282495 -0.20459275 -0.63544476 -0.7042942
-0.011457557 -0.44694185 -1.2801565 0.19896829 0.8407574 0.73168737 -1.4008853 1.0601276
0.19826631 -0.6766373 0.4540285 1.2334098 0.7102439 -0.9144412 0.15423323 -0.5256534
0.2324075 -0.20301445 0.29173794 -1.0585042 0.048274837 -0.38047367 1.0164692 0.7780965
0.13467714 0.91946334 1.2061806 -0.21675473 0.17607234 0.94175756 -0.7834665 1.1156573
0.46284494 0.55489516 0.25663668 0.7117287 0.2229443 0.5089291 0.2845317 1.0846701
-0.42195717 -0.05151905 -1.5364478 0.5131884 -0.37146607 -0.5120702 -0.22786267 -0.1577362
0.5515488 -0.49391624 -0.7004186 0.64992326 0.63394433 0.48460364 0.80987537 0.25106195
-0.24441606 -1.0692163 0.4804462 1.3839068 0.40395543 0.12365739 0.9551072 0.36406603
0.7866404 -1.1498537 0.30878985 0.81510025 1.0154685 -0.0048558866 0.7881449 -0.15685758
-0.14802139 0.23920104 -0.7408184 0.1826104 0.6991186 -0.2075156 -0.5912857 -0.92028606

39 f4 [16]
00000000: 44d1 b43f eef3 cb3f 8435 8abf 040d 2fbf
00000010: 53dc 27bf a279 3c3f 3e17 82bf 4f48 bd3f
00000020: 055c 45c0 48ae abbf 1048 0740 125d 0740
00000030: acd1 08c0 4a6b 3340 385b 5a40 cd4a 6040
1.4126363 1.5933816 -1.0797582 -0.68379235 -0.65570563 0.73623097 -1.0163343 1.4787692
-3.0837414 -1.3412561 2.1137733 2.1150556 -2.1377974 2.8034234 3.4118176 3.5045655

fc.0.bias f4 [560]
00000000: 2917 e5bc 4835 1b3d 68d1 263e d986 b73c
00000010: 9dc7 0b3c 4d0b 80bd e872 4b3d 0a0b 953d
00000020: 0594 f43c 9166 c63b 5d7b 973d 2ab4 ea3c
00000030: e3aa aa3c 057d 18bd 5718 683b e28f fbbc
00000040: 1a72 833d 3020 063e ff0b 3c3a d007 b73d
00000050: b601 793d f781 633d 218b dd3c 09b5 e03d
00000060: 6adb 173c 70a0 42bd 6466 e9bc d18d 3ebd
00000070: f40b b83d 5632 03bd 85dd e2bc 073a b13d
00000080: 62be 823d a9a0 e63c 1c0c db3c 9d51 853d
00000090: 0b77 6c3d 4b0e 273d 59ba 933c 273d cc3d
000000a0: e529 273c 666a 133d c615 013e 8ec6 aa3c
000000b0: a278 1f3d 4054 ddbc 8c01 e53d edd1 633c
000000c0: a34d 043d 0550 483d 2d3b ff3c 9786 92bb
000000d0: ac0a e83d c790 363d fa6e c23b c429 523d
000000e0: 104e fdbc 6201 1d3d 192d 3a3c 78f9 d63d
000000f0: a187 003e a5fa c83d 1901 933c 2874 b5bc
00000100: 0563 023e e2e1 e23d 5ea8 9a3c 781c b53d
00000110: 746c 9cbb fbae c73d bfc4 8c3d 79e8 523d
00000120: 4522 45bd 017d 7e3d c738 5a3d 8c5d 973d
00000130: 47ca 713d a56d 3a3d ed48 c13c acf9 ba3d
00000140: 85db 8ebb 60f1 ef3b d7fc 333d 945a c13d
00000150: 4a46 843d 5036 023d acae 2b3c 2033 e83d
00000160: 2a13 b53c 9a94 d53d 2480 f13a aad7 f0ba
00000170: 1b9d 073e 759f 2a3c fcbb 543d 148b ba3d
00000180: 0976 b93d b3fb c83c 0234 973d 3ca8 b03d
00000190: 8fcb 933d eae7 30bc 3461 913c 67a3 8dbd
000001a0: 45df 993b ac87 5fbd 6d37 91bc 7718 c83d
000001b0: b79c 8c3c ba7d 56bd ddb5 d63d 20da 803d
000001c0: 2455 503d a4b0 d03d e18a 823c 295b e5bc
000001d0: b71c e23d 89ef 733d 4192 003e 7dd2 373d
000001e0: fedb d4bc 9430 12bb 6791 ba3d 1566 f4bc
000001f0: ffab 85bd 08bf d43d e0ad 5b3d 0738 d03c
00000200: a66d bebc a75f 3e3d 7b65 b83a 4014 febc
00000210: aa34 923d 95a0 fd3d b951 873d 2725 1cbc
00000220: 5ff8 aa3d 41d6 283d b8dc f23c 212e 4dbd
00000230: 8ae0 713c 05bc fc3d 21db 863c d3cd 2bbd
00000240: f510 903c 36ce 883d 3eb5 59bc d98b 21bc
00000250: 8e48 5f3d 9f84 903d 93cf e83c b859 3b3d
00000260: ada2 e23d 96d7 9b3d 8d3f 9e3a ebc1 8dbb
00000270: 102d f33c 3e44 80bd dd7d 913d ad3a abbb
00000280: 3cfe e73d 0376 5a3c 014d 293d a335 913d
00000290: 34dc 8c3c 0c3c e43c 74b9 bc3d acbe 77bd
000002a0: a9bf 143c d426 143d 42d1 8d3c 299c ea3d
000002b0: e48c 783c 7b05 d93d d7f4 523d b66a 8cbc
000002c0: f698 c23d c3ae 08bc 8c54 fb3c 5cb2 45bd
000002d0: 98e2 ea3d 12f3 e73c cdd0 933d c644 183d
000002e0: 1bfb b73d 5cb8 753c 493c 9b3d 5ae6 553c
000002f0: cbb2 f93d c59f 9ebc 701a 793d 28af df3d
00000300: 03e0 06bd 4cc8 813d fbb2 0b3e d5d9 afbd
00000310: 0464 f33a aae3 2d3c c55d a73d 2ef6 173d
00000320: f30d 603d 5032 17bd ae1a 32bd 0dfc c73d
00000330: 7519 2dbc 28e6 5c3c 091f 63bd 281c 393d
00000340: 5f4b 943d 0fbf c93d 8fbc ff3d 040a ad3c
00000350: 53ff 013a 5cbd 08bd 0196 403d 9d35 c63d
00000360: 5dc1 5fbd 8c42 f13c 42da 7e3d f690 15bd
00000370: 164e cf3d 48f6 2a3d 746a 3cbd 880b d73c
00000380: 4d1d 01bd b2ab e63c cfa0 b03d fdc4 333d
00000390: 2b21 f93d 62ec 383d e1b4 5dbc 7399 cabb
000003a0: bc9c f2bc 3f18 15bd c923 333d 8a10 fa3d
000003b0: 6e23 703d 26f2 37bd a040 69bc 0320 1a3d
000003c0: 483c 21bd 10c6 f83d 9096 083e ec4f a33d
000003d0: 00d6 f33d a8d2 b73d ef6e bb3d a1f1 f93d
000003e0: c52e 0a3d b29b 9e3d 9131 2b3d f6c7 91bb
000003f0: a357 30bd 7814 1a3c fd19 6c3d 5241 1cbd
-0.027965145 0.03789261 0.1629082 0.022403168 0.008531478 -0.062521555 0.04967013 0.07277496
0.029855737 0.0060547073 0.073965766 0.028650362 0.020833438 -0.037228603 0.0035414898 -0.030708257
0.064182475 0.13098216 0.00071734184 0.08937037 0.060792647 0.055543866 0.02704388 0.1097203
0.009268621 -0.047516286 -0.028491206 -0.046521965 0.08986655 -0.032030426 -0.02769352 0.08653646
0.06383969 0.02815278 0.026739173 0.06509707 0.057730716 0.040785115 0.018033193 0.099726014
0.0102028595 0.03599014 0.12605962 0.020846631 0.038933404 -0.027017713 0.11181936 0.013905031
0.032300603 0.048904438 0.031156147 -0.0044716108 0.113301605 0.044571664 0.0059336396 0.051309362
-0.030921012 0.038331397 0.011363291 0.10496801 0.12551738 0.09813432 0.01794486 -0.022150114
0.12733085 0.1107824 0.018879112 0.088433206 -0.004773671 0.09750172 0.06873464 0.051491234
-0.048128385 0.06213093 0.053276803 0.073908895 0.059030797 0.04551472 0.023594344 0.091296524
-0.004359665 0.0073224753 0.0439423 0.094411045 0.06458719 0.031790078 0.010478657 0.11337876
0.022103865 0.10428734 0.001842503 -0.001837482 0.13243525 0.010413994 0.05193709 0.09108558
0.090557165 0.024534082 0.073829666 0.08625838 0.0721656 -0.01079748 0.017746545 -0.06915932
0.0046958053 -0.054572746 -0.017726624 0.09770291 0.017164571 -0.052365996 0.104839064 0.06291604
0.050862446 0.101899415 0.015935363 -0.02799757 0.11040633 0.05955461 0.12555791 0.04487847
-0.025983807 -0.0022306787 0.091097645 -0.029833833 -0.06526946 0.10387999 0.053632617 0.02541734
-0.023245644 0.04647794 0.001406833 -0.031015515 0.07138951 0.12384144 0.06607384 -0.009530342
0.08348154 0.041219953 0.029646263 -0.05009282 0.014763007 0.123405494 0.01646191 -0.041944336
0.01758621 0.066799566 -0.01328784 -0.009860002 0.054512553 0.070565455 0.028419292 0.04573986
0.11066184 0.07609479 0.0012073383 -0.0043260953 0.029684573 -0.06263016 0.07104085 -0.0052255006
0.11327788 0.0133338 0.041333202 0.070903085 0.017194845 0.027860664 0.0921506 -0.060484573
0.0090788985 0.036169842 0.017311696 0.114555664 0.01517031 0.105967484 0.05150303 -0.017140727
0.09501831 -0.008342448 0.030679964 -0.0482658 0.114690006 0.028314147 0.0721756 0.037174962
0.089834414 0.014997568 0.07579858 0.013055408 0.12192305 -0.019363293 0.06081623 0.1092208
-0.032928478 0.06337032 0.13642494 -0.0858647 0.0018569236 0.010613361 0.08172182 0.03710001
0.054700803 -0.036913216 -0.043482475 0.09764872 -0.010565151 0.013482608 -0.05544952 0.045192868
0.072409384 0.09850895 0.124871366 0.02112294 0.0004959006 -0.033383712 0.047018055 0.09678195
-0.054627765 0.029450677 0.062219866 -0.0365152 0.101223156 0.04173878 -0.04599996 0.026250616
-0.031522084 0.028158043 0.08624422 0.043889035 0.121645294 0.045147307 -0.013531894 -0.0061828434
-0.029615752 -0.036400076 0.0437353 0.12210186 0.05862754 -0.044908665 -0.014236599 0.037628185
-0.03936413 0.121471524 0.13338685 0.07974228 0.11906052 0.08975726 0.09152018 0.1220429
0.03373601 0.0774454 0.041795317 -0.004448886 -0.043052327 0.009404294 0.05764197 -0.03814823

fc.0.weight f4 [560, 64]
00000000: 0518 143d 3b79 9ebd 1583 293d 7771 343e
00000010: 5e41 363e 5178 4b3d 6679 963c d3c9 fdbd
00000020: 581e 813c 6076 b23d b182 f5bc fb94 01be
00000030: 892f bcbd f65d ec3b c3d4 003d 2d35 5ebb
00000040: 40a9 013e 082d 673d ee08 093e f03e 943d
00000050: 4073 103e 73f3 933d 2ed0 fc3d f853 23bd
00000060: f3c3 a2bd d0a1 233d c200 c13d c035 05be
00000070: 9efd 143e cd36 2d3e 56bc 273e cf7e d93d
00000080: df33 b23c 3953 62bd 80aa 5cbd 6076 b2bd
00000090: b326 25be 1a40 ebbd 87db 09be 4d02 ef3d
000000a0: aa56 2a3e 466d c73d 0fde 0f3d 7329 573e
000000b0: 6888 ddbd 7d48 12be f1ca 5b3d 8964 19bd
000000c0: 566e bf3d 33b0 a33c 0f74 0c3e a127 4fbb
000000d0: 91e6 1f3c 5862 3a3c 2099 cf3c d1b5 1abd
000000e0: 5451 5dbd 8e74 1c3d 97ba 03bb 9452 2abc
000000f0: e4c1 953d 1290 f1bd 47ed b93d 3bd9 fc3d
00000100: 5c37 31bd f055 98bd 0eaa bdbc 64b6 74bc
00000110: 02ff b83d 6a19 5abc 39d6 073e ef42 cfbc
00000120: f27f 483c a70e 373d 56be 903b 0589 0e3e
00000130: 529a 813c 0122 bebd 6327 c2bd ed2e 55bd
00000140: d907 773b 4b31 93bd 1f8a cf3b fe24 c9bc
00000150: 4bec 4abd 91a6 fabc d5f9 593e 4050 323e
00000160: 70b4 483d c524 c5bc ec1b d43c b12e d7bc
00000170: b83c 21bd 520b 1cbd 8a87 d73c 8303 3dbb
00000180: 75a6 e73c 6003 bd3b a92d 093e 470c 0a3e
00000190: c4d4 683d 853c 543d 870b d73d 02a2 c33d
000001a0: fa93 383b e269 b9bd e539 133e c172 2bbe
000001b0: 301d 183d 22fa 8d3b 6696 223e b3aa b4bd
000001c0: 807a d5bd 4f5b 82bd c36a 8bbd 65fc 42bc
000001d0: 7dc7 e83d 0172 753d 36af c53d b516 26be
000001e0: 5f1a eb3d 4f3f 073e 04e0 fd3d b884 1f3c
000001f0: 9f74 993d a4e3 233e 7175 2b3e a2f5 42be
00000200: 3c31 803d 49be d73d 6fc8 60bd 6084 df3c
00000210: 87e0 83bd c101 ae3d 5278 12be 5898 aa3d
00000220: ab34 e5bd 2608 80bd ac11 39bd 5341 eb3d
00000230: 036d babb 913b 5cbb 190e 073e 4dfe e2bd
00000240: 3aac 743d e9f9 a8bd 6b8f bd3d addf 153d
00000250: f17c c7bd a3da b9bd 0238 c33d 6184 86bd
00000260: 4c89 bcbc 6dd6 d7bd fa94 f3bd ac66 3f3d
00000270: 356b e4bb 3460 ddba 2010 ccbd 52fc 45bd
00000280: 8435 fbbc 9f8d a63d 8961 08bc 2c9a 493d
00000290: f3b4 f13c 3036 d6bd cd60 403d a4e6 1f3e
000002a0: 140a 443e a236 c53d 8e3a 7f3d 4105 46be
000002b0: 1753 c3bd 457e 183d b33f dd3b 7a6c 4a3d
000002c0: db39 c9bd 4e6f f23d 3fdd babd 044e a83d
000002d0: 9ec4 5dbb 0f64 373e bbfa 533e 127a 7bbd
000002e0: dd14 c7bc f6c9 183e babd a33d 405b 7c3d
000002f0: c791 fc3d 1c77 233e 4308 373d 667f 673d
00000300: 8a9f 993c 2d87 b83d 44d4 aa3c 3164 9cbc
00000310: d924 86bd 2c69 9e3d b77d c33d 4c83 513c
00000320: 8ce7 27be 0ae8 48bd 1c98 cb3c 4f77 5b3d
00000330: 8d6d a13d 1d46 53bd 8aad d93d f5b6 8c3d
00000340: e820 c03d f86e 233d b75c c5bd 02a1 b5bc
00000350: 9b5c 113e 171f 81bd b6e1 513d 1ce0 333e
00000360: c0d1 0e3d 983b 40bd 5740 4ebd cead 053d
00000370: 18ef afbd c0b0 963d c881 1a3d 187e 023e
00000380: f0f1 32bc f0cb 7a3c 8092 023d 47a3 763d
00000390: 0412 1b3d 30e9 a0bc df7c 1dbe e2fd e4bc
000003a0: 6e69 313e 1876 a43d 0037 9fbc cb26 fb3c
000003b0: 404b 48b9 b512 92bd c31c a7bd c622 ed3c
000003c0: 2905 e7bd 094f 0bbd a405 04be 8c0d c03b
000003d0: 3b1e bcbb f8be aebc 02fd edbc fc7c b23c
000003e0: b9fa d43b 2025 063e e918 b93b ca2f 7abd
000003f0: c765 d83d c793 c93d aeae b23d 4df4 1b3e
0.03615572 -0.077379666 0.041384775 0.17621408 0.17798373 0.04967529 0.018368434 -0.123920105
0.01576154 0.087139845 -0.029969545 -0.12654488 -0.09188754 0.0072133495 0.031452905 -0.0033906207
0.1266222 0.05643943 0.13382313 0.07238567 0.14106464 0.07224169 0.123443946 -0.039875
-0.079475306 0.03994924 0.09423973 -0.13008785 0.14549872 0.16915436 0.16380438 0.1061989
0.02175325 -0.05525515 -0.05387354 -0.087139845 -0.16128044 -0.11486836 -0.1346265 0.11670361
0.16634622 0.09737639 0.03512388 0.21011905 -0.10817033 -0.14285465 0.053660337 -0.037449393
0.09347217 0.01998148 0.13716148 -0.0031609314 0.009759561 0.011375986 0.02534157 -0.03777105
-0.05403264 0.038197093 -0.002010023 -0.010395665 0.07312372 -0.11795057 0.0907846 0.12346121
-0.043265685 -0.07438266 -0.023152377 -0.014936063 0.09033014 -0.013311723 0.13265313 -0.025300471
0.012237536 0.044691708 0.004417221 0.13919456 0.015820656 -0.092838295 -0.09480169 -0.052046705
0.0037693887 -0.07187136 0.006333604 -0.024553772 -0.049541753 -0.030597003 0.2128671 0.17413425
0.049000204 -0.024065385 0.02589222 -0.026267381 -0.039364547 -0.038096733 0.026309747 -0.0028841204
0.028277615 0.0057682246 0.13396324 0.13481246 0.056843534 0.05181553 0.105002455 0.09552385
0.0028164373 -0.09053399 0.14377554 -0.16742994 0.03713721 0.0043327967 0.15877685 -0.08821621
-0.10423756 -0.06365072 -0.068074726 -0.011900996 0.11366174 0.059923176 0.096525595 -0.162196
0.11479639 0.13207744 0.12396243 0.009736232 0.07492947 0.16004807 0.16744019 -0.19039014
0.06259391 0.10534341 -0.05487865 0.027284801 -0.064393096 0.08496428 -0.14303711 0.083298385
-0.11191686 -0.06251554 -0.04518287 0.11487069 -0.0056892647 -0.003360484 0.13188972 -0.1108366
0.05973456 -0.082507916 0.092558704 0.036590267 -0.097406276 -0.09074905 0.09532167 -0.06568218
-0.023014687 -0.10538945 -0.118936494 0.046728775 -0.006970788 -0.0016889633 -0.09964013 -0.048336335
-0.030665167 0.08132481 -0.008324035 0.049219295 0.029505229 -0.10459554 0.046967316 0.15615326
0.1914447 0.09629561 0.0623117 -0.19337942 -0.095373325 0.037229795 0.0067519783 0.049419858
-0.09825488 0.11837636 -0.091242306 0.08218005 -0.0033839117 0.17909263 0.20701115 -0.061395712
-0.02430194 0.14920792 0.07995172 0.06161046 0.12332492 0.15963405 0.044685613 0.05651798
0.018752832 0.09010158 0.02085317 -0.019090744 -0.06549997 0.07734904 0.095454626 0.012787651
-0.16396922 -0.049049415 0.024852805 0.05358058 0.07882223 -0.051580537 0.10628803 0.06870834
0.09381276 0.03990075 -0.096368246 -0.022171501 0.14195482 -0.06304758 0.051240645 0.1756596
0.034868002 -0.046931833 -0.050354328 0.032636456 -0.085905254 0.07357931 0.037721425 0.12743413
-0.01092194 0.015307412 0.031877995 0.060214307 0.037858978 -0.019642442 -0.15379666 -0.027953092
0.17325374 0.08030337 -0.019435406 0.030658146 -0.00019101519 -0.07132474 -0.08159783 0.028947245
-0.11280281 -0.03401092 -0.12892777 0.00586099 -0.0057409084 -0.021331295 -0.029051308 0.021788113
0.006499615 0.131001 0.0056487215 -0.06108073 0.105662875 0.098426394 0.08724724 0.15229912

fc.3.bias f4 [280]
00000000: 405c ebbc 6fbc 8abc 3eb4 d3ba 1f89 f9bb
00000010: 61d6 11bc 6afb b33a 0240 b13b eb47 f9bb
00000020: b329 40bc f2a2 dabc 24c4 b3bc 394e 78bc
00000030: c4bd cabb ffb9 8bbb 3971 76bb 4b9b bfbb
00000040: a7a4 90bb 36bd 8ebc 83b4 80bc fc75 efbc
00000050: 3f60 84bc f38b 6cbb a155 ddbc fc13 a03c
00000060: 651c 0dbb d4df 423a c8fb feba d294 103c
00000070: 8f55 d13c be6b d03a dadd 5c3c 46cd e73a
00000080: 0a17 cfbc dc69 cebc c111 c3b9 ce0a 9bbb
00000090: ecc1 2fbd 61ef 023d 8f8f 98bc 703a 7e3c
000000a0: 5a4d 8ebc cf19 0abd 8430 c8bc d9a3 abbc
000000b0: 35ab 893c a485 033b 14ef 39bc 802c 1fbd
000000c0: 0ecd 96bc 79ea 60bc eb38 26bd 2fcd 92ba
000000d0: 0bb4 ccbb 2656 16bd d12e a2bc 23d8 333c
000000e0: cab1 233c 9615 973c 0413 bfbc 5cb2 abbc
000000f0: 9a3f 3abd 7148 62bd b056 d5bc ff99 40bc
00000100: 3497 54bc 5a8b b93c aa25 0b3d 6fc7 a1bc
00000110: 48a2 31bc 94d3 f5bc ca81 7ebc 2158 e4bc
00000120: acff 54bd 8881 b53a a57d 25bd a0d1 28bd
00000130: ca00 673a 4130 82bc e84c 863b 83a3 99bc
00000140: 6c2b dbbc e9be 07bd 062a 1c3c 2de6 1cbc
00000150: 0b86 4dba 05e6 963c 1dcc a23c 240c ad3c
00000160: d350 12bd 4b40 50bd 5006 0ebc e135 ef3c
00000170: c70b dd3b ec61 37bd 8f62 423c 842d 8ebb
00000180: 5f91 79bc 9373 cdbc d461 d4bc 87ed a13c
00000190: cf63 293a d0a3 8bbb 2205 03bc 52aa 85bb
000001a0: a61f 9fbc 19fc 05bd c875 aebc 9041 fb3b
000001b0: dc52 cb3c f938 433c 4695 d93c c9be b03c
000001c0: 5baa 1bba 9231 0fbd d080 8c3a d0d2 8abc
000001d0: 7e66 623c 2e22 403c d772 dcbb 5aa7 96bb
000001e0: 445e 4fbc c7a7 8dbc 2b22 d3bb f48d 0c3b
000001f0: d0c2 61bc c220 423a 9adb ddbb 3f4f 223d
00000200: 9357 cd3c 8ee3 c5bc 057d 6abc 2d63 69bc
00000210: e085 12bd d07a 9c3c 0f72 4dbc e788 113c
00000220: 6fbe 443c b95e eb3a 9351 283c d774 b83c
00000230: 8c95 2a3b a559 bebb 5fbc d5bc acca d2bc
00000240: 9351 a23b 329b aebc 5bbc e33b fb35 623a
00000250: c9a5 29bb d3bd d43c a31b 213d 25eb 513c
00000260: d65d 20bd 4498 073c 25af 7dbc 0796 de3a
00000270: aba6 01bd dbb7 adbc 18f6 27bc d6ae 0abd
00000280: 65f2 d1bb faaf c93c 98ef ed3c 94c2 9e3c
00000290: de9d ac3c 9960 fcb9 abd6 a6bc 7b21 8c3c
000002a0: 46ab 08bc be5f 09ba a26f b1bc f682 adbc
000002b0: 58a5 923c a6e9 52bd a66d 3c3d b708 9dbc
000002c0: 8fc6 afbc 6792 f8bc 0a4d b6bb 063f c5bb
000002d0: 6c09 3abc 31d5 bb3c a554 043d 2d67 433b
000002e0: ad14 103b d942 87bc 893a c0bc 3da8 aabc
000002f0: e77d 67bb ffff e13c cc0d 3dbb 66c2 3abc
00000300: 3d29 843c 57b6 593c 5ad3 d03c 774e 04bd
00000310: fd65 b03b 18c4 83bc 439f 8c3b acda 52bc
00000320: 65f0 a43c cda4 c23c e25f 6abc 0e13 6dba
00000330: 2068 903c 53ec 053d f102 2cbc b459 2b3c
00000340: d61d 1ebc d7a0 b7bc 8552 813c 38b2 33bd
00000350: 92bb 863c ed52 3539 4461 9eba 1037 193d
00000360: b0fb 01bd fa32 9e3a bacc 323b 26c6 1a3d
00000370: 2777 56bc 6c38 2dbc 19c9 bfbc 73eb 84bc
00000380: e60a 113b 9916 393c f7cb 623c 0595 0cbb
00000390: a131 05bc 04f1 283b 4204 3f3c 1ec2 b23c
000003a0: d02a 813a a086 bdb9 7ec3 bf3b 5c0f bdbb
000003b0: 6bfb 1abc a386 eb3c c91b 793c 880d 9e3c
000003c0: 414c bc3c e382 273b 51db 593c b590 603c
000003d0: 4ff5 823c cef9 5b3c c79a 3d3b 9465 363c
000003e0: 8fb5 193b 7b6c c43c fee2 a7bc bfa0 38bd
000003f0: d215 9e3b db8e 163b 31ef 013b 96a8 023d
-0.028730512 -0.016935555 -0.0016151739 -0.007615223 -0.00890121 0.0013731543 0.0054092417 -0.0076074502
-0.011728692 -0.026689027 -0.021944113 -0.0151553685 -0.0061871726 -0.004264116 -0.0037604107 -0.00584737
-0.0044141593 -0.017424207 -0.015711075 -0.029231064 -0.016159175 -0.0036094158 -0.02701837 0.01954078
-0.0021531817 0.00074338657 -0.0019453699 0.008824544 0.025553493 0.001590125 0.013480628 0.0017685078
-0.02527954 -0.025196962 -0.00037206526 -0.0047315126 -0.042909548 0.03196657 -0.018623142 0.015516862
-0.017370868 -0.03371602 -0.024437197 -0.020952152 0.01680527 0.002006867 -0.011348505 -0.038860798
-0.018408325 -0.013727778 -0.040581625 -0.0011200065 -0.0062470487 -0.03670325 -0.019797714 0.010976824
0.009991119 0.01844291 -0.023324497 -0.020959072 -0.04547081 -0.055244867 -0.026042312 -0.0117554655
-0.012975503 0.022649456 0.033971466 -0.019748418 -0.0108419135 -0.030008115 -0.015533874 -0.027874054
-0.05200164 0.0013847807 -0.040403027 -0.04121554 0.0008812068 -0.01589215 0.0040985234 -0.018754726
-0.026754104 -0.03314105 0.009531504 -0.009576363 -0.00078401034 0.018420229 0.01987272 0.021123953
-0.03572161 -0.050842565 -0.008668497 0.029200496 0.0067457887 -0.04477112 0.0118643185 -0.004338922
-0.015232413 -0.025079524 -0.025925554 0.019766582 0.0006461711 -0.0042614713 -0.007996829 -0.0040791417
-0.01942427 -0.032711122 -0.021296397 0.007667728 0.024819784 0.011915439 0.026560437 0.021575348
-0.00059381657 -0.034959383 0.0010719541 -0.016946226 0.013818381 0.011726899 -0.006727557 -0.0045975866
-0.012656752 -0.017291917 -0.006443282 0.0021446915 -0.013779357 0.0007405394 -0.0067705633 0.039626356
0.025066173 -0.024156358 -0.014312034 -0.014244837 -0.035772204 0.01910153 -0.012539401 0.008882738
0.0120082935 0.0017957307 0.010273355 0.022516651 0.0026029078 -0.0058090263 -0.026090799 -0.025731407
0.004953572 -0.021314237 0.006949944 0.00086292595 -0.002588617 0.025969421 0.039332997 0.0128124105
-0.03915199 0.008276049 -0.015483652 0.0016981967 -0.031653088 -0.021205833 -0.010251544 -0.033858143
-0.0064070695 0.024620045 0.029044911 0.019379891 0.02107137 -0.00048137156 -0.020366034 0.017105808
-0.008341616 -0.0005240402 -0.021659676 -0.021180611 0.017901108 -0.051492356 0.046003006 -0.019169195
-0.021456985 -0.030343248 -0.005563383 -0.006019476 -0.011354785 0.022928806 0.032307286 0.0029816136
0.002198498 -0.016511368 -0.023465412 -0.020832175 -0.0035322846 0.027587889 -0.0028847335 -0.011398887
0.016132945 0.013288102 0.025491405 -0.032301392 0.0053832517 -0.016084716 0.0042914464 -0.012869518
0.02013416 0.023760224 -0.014305087 -0.0009043672 0.017627776 0.03269608 -0.010498748 0.010458399
-0.009650668 -0.022415562 0.015786419 -0.043871135 0.016446862 0.00017292397 -0.0012083431 0.037406027
-0.03173417 0.0012069636 0.002728267 0.037786625 -0.013089932 -0.010572534 -0.02341132 -0.016225552
0.002213174 0.011296892 0.013842574 -0.0021451127 -0.008129508 0.0025778422 0.01165873 0.021821078
0.0009854678 -0.00036149193 0.005852162 -0.0057696532 -0.009459357 0.028750723 0.015204378 0.019293562
0.02298558 0.0025560192 0.013296918 0.013706376 0.015986113 0.013426257 0.0028931366 0.011132617
0.0023454165 0.023977509 -0.02049398 -0.045075174 0.0048243785 0.0022973332 0.0019826407 0.031899057

fc.3.weight f4 [280, 560]
00000000: 4f37 82bd 66ad 523d 98bd 863d d6df f8bc
00000010: 3a0b 413d f9aa cc3c a395 663d 9c7d 513d
00000020: 34b2 66bc e016 dbbc ad8b 40bc 3e21 43bd
00000030: 0290 393d aa70 67ba 456d 823d d572 24bd
00000040: 341e 2b3d 5c32 4c3c e437 99bd 436c 0a3d
00000050: f829 2f3d 7ead 813d 9c98 4bbd e1f0 81bd
00000060: ccf4 423d 1602 de3c 8fce 0c3d 06de 7abd
00000070: 4130 353d 000e 893c 687a 23bd 1d2a 943d
00000080: 7d02 073c dcbf 81bb 1d84 6f3c 65eb 17bc
00000090: 34f3 3d3d d921 5abd a04f a8bc 7048 92bc
000000a0: 6b39 ffbc dca5 5cbd e5c4 953c 54a1 e1bc
000000b0: 7532 1ebd a734 8d3d 48e0 103d 2f81 1bbc
000000c0: 25c2 483d 3ab9 80bc ace0 0c3d 23e6 5fbd
000000d0: 231a 243d 5da4 9d3a d5c5 543d 4989 47bd
000000e0: 90d1 a2bc 4cc7 c43c 0a1c 19bd a845 cc3c
000000f0: d405 e93b 5880 0ebd 8e6b 053d 1a20 94bd
00000100: 5e4c ea3c 2ae0 ccbd df6d f9bc f17a e93c
00000110: e14f b93c 9a15 f1bb 95c8 94bd 110b a03b
00000120: 22df df3c 4e42 14bc d407 84bd c27c 663d
00000130: 4d1b 083d 2c09 44bd 8c4b 913d c3f3 9f3c
00000140: 2f33 16bd ea2e 3e3c dd62 8e3d 63fa c43c
00000150: 323c 3c3d 4b7a 77bb 6791 3cbd ea96 6cbd
00000160: 2356 e03c cd1f 81bc 33e0 3cbc e35a 9a3c
00000170: ac76 273b 0cce 863c 291d 0f3d 4cb1 f13c
00000180: 66fe 393d d1f8 763b 6317 b8bd ddf4 a2bd
00000190: 0dee 35bd 0800 263b ed01 9cbd 430f e73c
000001a0: 2d69 26bc 0730 75bd eec5 943c 3a44 82bd
000001b0: 474b 0a3d 9fd9 f73c 1f71 bc3c 9790 d03c
000001c0: 1ead a53d f371 4d3b ed6b 16bc 148a 073d
000001d0: f388 703c 0964 2dbd b6d8 b8bc 28de 1bbd
000001e0: 9b31 29bd afff c0bc ee2a b13c 4760 41bc
000001f0: 6acd 17bd 9bef 513d a94a 183d 126a 553d
00000200: a0a5 aa3a 4183 a83c c03b 8a3c 405d 09bd
00000210: a8a0 013d 082e 73bd 774e f4bb 925a a4bc
00000220: 335c 8bbd c943 15bd 60b0 8a39 0068 cbbc
00000230: 5b7e 273c 0f73 5d3d f286 f33c ceb3 eb3c
00000240: 044f 493d f84f 76bc e7a2 133d 19c9 85bd
00000250: f984 f83c 9859 053c f6a4 073c c004 5ebd
00000260: cc49 30bd 2b5e efbc c042 36bd 9aaf 51bd
00000270: bfad d33c a0e2 613d a5a6 58bd 33e0 eebc
00000280: 716e ecbc fc98 98bd 339f 463d 833a 2abd
00000290: dac4 683d 245d fcbc 6932 62bc 0f6c 28bd
000002a0: 9897 023d b31f 1d3d f2d3 29bd 71a7 ed3c
000002b0: 553c 2b3d 138e 45bd 0fc3 d83c 2e11 1f3d
000002c0: 6dcd 8f3d 16ee 74bc 1a43 a23c 7dcf 8c3d
000002d0: 2d82 bc3c 9006 85bc d99b c8bc 7ffd 96bd
000002e0: f75c 4dbc d2c2 423d fa70 99bc 634f 57bd
000002f0: 4115 81bc a5a1 77bc 16b8 0abd 4829 a3bc
00000300: 1e9f 91bd 1291 cbbd 3b19 603d 0f84 3c3d
00000310: 2806 b93c a1d1 a6bd 1522 223d 258b 463d
00000320: a4b8 1c3d fb25 373d 8e17 38bc 00ea 50bc
00000330: 7c97 5abd 351a c1bb 7bcd 2dbd 5675 ff3c
00000340: 6e26 4fbc 6ea4 9cbd c4fe bbbb 821d 06bc
00000350: 1761 8a3c 5b4a 98bc e070 9bbd d468 68bd
00000360: 35d4 50bc d100 343d 5987 dabc 99ca 7dbc
00000370: c737 24bd af44 9dbd ac8d 3d3b 2565 dc3b
00000380: 99b3 f23a 3cda 7bbc d4ba 51bd 4867 f7bc
00000390: bd7b 1bbd e574 0ebc d075 60bd 1d5f adba
000003a0: 3805 1ebd 7d25 3a3d ccaf 89bb 28d4 e73c
000003b0: acb4 a1bd 3e88 373d bbae 35bd 68d3 20bd
000003c0: c69e 7e3d 44ea 07bd 11d0 63bd 31f0 163d
000003d0: efed 85bd 094c ef3c 572b 0c3d d8c6 083d
000003e0: c646 433d 6d0a 413d bd43 9abc fc0e 46bb
000003f0: 41dd 15bd f6f1 3abd a9c3 12bd f52e f13c
-0.063582055 0.051434897 0.06579131 -0.03038017 0.047129847 0.02498387 0.05629505 0.05114518
-0.014080573 -0.026744306 -0.011752051 -0.047639124 0.045303352 -0.0008828739 0.06368498 -0.040148575
0.04177685 0.0124631785 -0.074813634 0.033794653 0.042764634 0.06331919 -0.049706087 -0.06344772
0.047596738 0.027100604 0.034376677 -0.061246894 0.04423547 0.016730309 -0.039911658 0.07234595
0.008240339 -0.003959639 0.014618901 -0.009272431 0.046374515 -0.053254936 -0.02054578 -0.017856807
-0.031155309 -0.053869113 0.018282363 -0.027542748 -0.03862234 0.06894808 0.03537014 -0.009491249
0.049013276 -0.015713323 0.03439395 -0.054662835 0.04006399 0.0012027133 0.05194648 -0.04871491
-0.019875318 0.024020813 -0.037380256 0.024935558 0.0071112905 -0.034790367 0.032573275 -0.072326854
0.028600868 -0.100036934 -0.030447898 0.028501006 0.022621097 -0.0073573114 -0.072648205 0.0048841317
0.027328078 -0.009049011 -0.064468056 0.056271322 0.03322916 -0.04786031 0.070944875 0.019525414
-0.036669906 0.011607865 0.069524504 0.024045175 0.045955844 -0.0037762101 -0.046037104 -0.05776111
0.027384823 -0.015762234 -0.011528063 0.018842166 0.0025552912 0.016455673 0.03493992 0.029503487
0.04540863 0.0037684927 -0.08988836 -0.0795686 -0.044416476 0.0025329608 -0.07617555 0.02820552
-0.010156912 -0.059860256 0.018160786 -0.063606694 0.033763196 0.030255137 0.02300316 0.02545957
0.0808966 0.0031348437 -0.009181005 0.033090666 0.014681089 -0.04233173 -0.022564273 -0.03805366
-0.041307073 -0.02355942 0.021626916 -0.011802739 -0.037061132 0.051253896 0.037180576 0.05210311
0.0013019331 0.0205704 0.016874194 -0.033536196 0.031647354 -0.05937007 -0.007455643 -0.020062719
-0.06804695 -0.036441598 0.0002645282 -0.024829865 0.010222997 0.054064807 0.029727433 0.028772261
0.04914762 -0.0150337145 0.036044028 -0.06532497 0.030336844 0.008139037 0.008279076 -0.05420375
-0.04303913 -0.029219707 -0.04449725 -0.051192857 0.025839685 0.055147767 -0.0528933 -0.02915964
-0.028861256 -0.074510545 0.048491668 -0.041559707 0.056828357 -0.030806132 -0.013805964 -0.041118678
0.031882852 0.03836031 -0.041461892 0.029010506 0.041805584 -0.048231196 0.026460199 0.038834743
0.07021604 -0.014949342 0.019807387 0.06875513 0.023011291 -0.01623848 -0.024488376 -0.07372569
-0.012534372 0.047549076 -0.01873063 -0.052565943 -0.015757205 -0.015114223 -0.033866964 -0.019917145
-0.07110427 -0.09939779 0.05471156 0.04602438 0.022585943 -0.08145452 0.039583284 0.048472542
0.038262025 0.044713955 -0.011236085 -0.012751102 -0.053367123 -0.0058930167 -0.04243229 0.03118388
-0.01264344 -0.0764855 -0.0057371575 -0.008185746 0.016892 -0.018590143 -0.075898886 -0.056740597
-0.012745907 0.04394609 -0.026675867 -0.015490198 -0.040092256 -0.07679116 0.0028923554 0.0067259246
0.0018516659 -0.015371855 -0.051203564 -0.030200616 -0.037959803 -0.008694862 -0.054799855 -0.0013227199
-0.038579196 0.045445908 -0.004201865 0.028299406 -0.078957886 0.044807665 -0.04435609 -0.039264113
0.062163137 -0.033182397 -0.05561835 0.036850158 -0.06539523 0.029211061 0.03422102 0.033392757
0.047674917 0.047129083 -0.018831128 -0.0030221334 -0.036587957 -0.04564091 -0.035831127 0.029441336
