inventory/ark_material.onnx (onnx, 753283 bytes, 8 tensors)

35 f4 [8, 3, 5, 5]
0.42936358 -0.009626148 0.65938824 0.24905832 -0.05061297 -0.08474055 0.32320255 0.19378906
-0.072077274 0.14894037 -0.37846622 0.09669551 0.20743713 0.010638092 0.16565867 0.23630929
-0.14898786 -0.19174957 -0.21725348 0.24948284 -0.10580044 -0.40262768 -0.13350223 -0.11756379
0.10532782 0.2291134 0.4208713 -0.62647104 -0.47825444 -0.18984462 -0.345339 -0.69735265
-0.2882736 0.06563109 -0.47177085 0.18169029 -0.27843392 0.25140515 0.4657891 -0.09262292
-0.024048554 0.2953266 -0.21898383 0.4446624 0.36862698 0.7012313 0.14946486 -0.007622912
0.37403128 0.38360977 -0.6318784 -0.12064708 0.33179787 -0.65733534 -0.6670658 -0.7870223
0.125304 -0.72037274 0.31936416 -0.562195 -0.56563765 0.1674906 -0.34312338 0.3580493
0.47312525 0.2630338 -0.26068306 0.10226252 0.17819516 -0.12886877 0.89195764 0.7077451
0.6892542 -0.20690946 0.55317706 0.3809271 -0.31830195 -0.5671989 0.016799262 -0.15696765
0.23328567 -0.5003183 0.21868257 0.33394146 0.30563903 -0.023464808 0.33973414 0.17413333
-0.18744798 -0.16900991 -0.06258824 -0.19541164 -0.1464974 -0.210794 -0.15280277 -0.18240653
0.30890244 0.2700052 -0.2338552 -0.24350528 -0.103768736 0.22413206 -0.028516617 -0.32012242
0.25004548 -0.2337982 0.13779457 -0.27726543 -0.36744842 -0.17363203 0.122106224 0.19072242
-0.123475656 0.09055698 -0.4456321 -0.5300578 -0.27290103 0.2323423 0.27088642 0.11662488
-0.04934937 0.30088133 -0.098200694 -0.05471054 -0.36510295 0.34450352 -0.32351452 0.106515825
0.12746894 -0.17380956 -0.053102333 -0.5135712 -0.010389536 0.0043660696 0.04639077 0.0697146
-0.19715343 0.35328344 0.44401345 0.12608191 0.12562186 0.33085597 0.38176286 0.4093032
0.40050846 0.05448643 0.43183112 0.20699038 0.68443793 0.527881 0.104778215 -0.21371612
0.10818408 0.07201311 0.013661787 -0.061215635 -0.087066054 0.094834186 0.089323245 -0.008930128
0.010315723 -0.023743005 0.12025211 0.0477902 -0.0049570026 -0.124677 -0.091786206 0.008247398
0.06666581 0.10389875 -0.0068148845 -0.054844163 0.141998 0.19688067 0.25136647 0.31826103
-0.026091438 0.022382788 -0.03309579 0.0747807 0.15416457 0.08414244 0.029492978 0.07076895
0.046751022 0.22181351 -0.12433677 0.25903726 0.13490215 0.037387885 0.06311357 0.052711066
-0.080709465 0.22427142 0.13516058 0.047190517 -0.0120908655 0.13254702 0.2571198 0.10902099
-0.078230076 -0.0916166 0.06290223 0.0954867 0.060491577 0.014996464 -0.047147773 -0.10003244
-0.17451134 0.020945368 0.17178653 0.073303945 -0.148549 0.21030092 0.08312459 0.052239455
0.020881405 0.20055652 -0.04170746 0.04076315 0.102044314 -0.18245558 0.20430383 0.03567105
0.22701345 0.77854073 -0.17766774 -1.2657738 -0.9497885 -0.30226132 0.13738395 0.68756497
0.2535229 0.39094844 -0.89309067 -0.5523602 0.25129798 -0.048827756 0.5758077 0.6687042
0.20306803 -0.18968146 0.4419762 -0.5429296 0.14990743 -0.7902086 -1.1741128 -0.7698133
-0.38008204 1.048943 0.50585383 0.6024901 0.10471581 -0.54455805 -0.19382185 -0.203589
00000000: 8bd5 db3e feb6 1dbc abcd 283f 2509 7f3e
00000010: 8c4f 4fbd 748c adbd ce7a a53e a470 463e
00000020: 409d 93bd d383 183e 53c6 c1be 4c08 c63d
00000030: 666a 543e 644b 2e3c 6da2 293e 10fb 713e
00000040: 4690 18be 005a 44be b277 5ebe 6e78 7f3e
00000050: e7ad d8bd 3725 cebe cfb4 08be 49c5 f0bd
00000060: 1db6 d73d b49c 6a3e 717c d73e 6860 20bf
00000070: c4dd f4be a166 42be 46d0 b0be b485 32bf
00000080: 9998 93be 9869 863d f38b f1be 050d 3a3e
00000090: e48e 8ebe 2db8 803e e97b ee3e 16b1 bdbd
000000a0: 7901 c5bc 0c35 973e 4c3d 60be caaa e33e
000000b0: adbc bc3e e583 333f 510d 193e 9fc9 f9bb
000000c0: 0781 bf3e 8068 c43e c8c2 21bf d115 f7bd
000000d0: 69e1 a93e 2147 28bf d3c4 2abf 4b7a 49bf
000000e0: b14f 003e 596a 38bf b383 a33e 03ec 0fbf
000000f0: a1cd 10bf a882 2b3e dead afbe 3d52 b73e
00000100: 793d f23e 5eac 863e 4078 85be 036f d13d
00000110: cb78 363e 2df6 03be 5657 643f c82e 353f
00000120: f772 303f 13e0 53be 039d 0d3f e008 c33e
00000130: 79f8 a2be f233 11bf 9b9e 893c 21bc 20be
00000140: 70e2 6e3e dc14 00bf 53ee 5f3e 60fa aa3e
00000150: b87c 9c3e 4539 c0bc a2f1 ad3e 0250 323e
00000160: 5df2 3fbe ef10 2dbe 432e 80bd fd19 48be
00000170: 6a03 16be 62da 57be 5478 1cbe c7c8 3abe
00000180: 7628 9e3e 1f3e 8a3e bd77 6fbe 7359 79be
00000190: b484 d4bd e082 653e ae9b e9bc 16e7 a3be
000001a0: f605 803e cc68 6fbe 051a 0d3e bcf5 8dbe
000001b0: 3322 bcbe 98cc 31be d412 fa3d bd4c 433e
000001c0: cee0 fcbd f075 b93d e429 e4be deb1 07bf
000001d0: afb9 8bbe 24eb 6d3e a0b1 8a3e 06d9 ee3d
000001e0: 9122 4abd 1e0d 9a3e 721d c9bd 2918 60bd
000001f0: c6ee babe c462 b03e b2a3 a5be f824 da3d
00000200: 3887 023e 22fb 31be d581 59bd 6779 03bf
00000210: df38 2abc 3f11 8f3b 3f04 3e3d 87c6 8e3d
00000220: 97e2 49be 91e1 b43e bb55 e33e 9e1b 013e
00000230: 04a3 003e f465 a93e 6c76 c33e 3090 d13e
00000240: 720f cd3e 2a2d 5f3d f818 dd3e 49f5 533e
00000250: 5337 2f3f 3623 073f f695 d63d 66d8 5abe
00000260: 9d8f dd3d 9c7b 933d b0d5 5f3c 3fbd 7abd
00000270: b04f b2bd 6d38 c23d 1bef b63d ac4f 12bc
00000280: 4703 293c b180 c2bc bd46 f63d a8bf 433d
00000290: 5a6e a2bb a856 ffbd 68fa bbbd 1820 073c
000002a0: 1688 883d dec8 d43d 654f dfbb 46a4 60bd
000002b0: ec67 113e 169b 493e 1bb3 803e 1cf3 a23e
000002c0: b6bd d5bc 1c5c b73c 738f 07bd a026 993d
000002d0: 51dd 1d3e df52 ac3d 429b f13c 50ef 903d
000002e0: 007e 3f3d 1523 633e 47a4 febd 88a0 843e
000002f0: ca23 0a3e 0a24 193d b041 813d 8fe7 573d
00000300: 014b a5bd 68a7 653e 8967 0a3e d84a 413d
00000310: c418 46bc 68ba 073e 35a5 833e 6646 df3d
00000320: 1737 a0bd 7ca1 bbbd e2d2 803d 888e c33d
00000330: 04c6 773d bbb3 753c 061e 41bd cfdd ccbd
00000340: 1ab3 32be 9f95 ab3c cfe8 2f3e 6120 963d
00000350: 3b1d 18be 2059 573e 3a3d aa3d 0af9 553d
00000360: 7b0f ab3c b05e 4d3e 71d5 2abd 43f7 263d
00000370: 9cfc d03d a3d5 3abe 0635 513e cf1b 123d
00000380: 3776 683e 724e 473f 88ee 35be e004 a2bf
00000390: 5725 73bf ffc1 9abe 61ae 0c3e 4204 303f
000003a0: c1cd 813e 652a c83e 97a1 64bf 7a67 0dbf
000003b0: 21aa 803e 9dff 47bd 2268 133f 3330 2b3f
000003c0: 11f1 4f3e db3b 42be b44a e23e 6ffd 0abf
000003d0: 5581 193e 1c4b 4abf 5449 96bf 7c12 45bf
000003e0: 1d9a c2be c443 863f a37f 013f cb3c 1a3f
000003f0: 3e75 d63d 2868 0bbf 3c79 46be a379 50be

36 f4 [8]
-0.63128465 -0.83044386 -1.7376218 -0.02322356 -0.66946185 0.10253945 0.4068879 1.2919816
00000000: df9b 21bf f897 54bf 646a debf 563f bebc
00000010: da61 2bbf 3400 d23d 9c53 d03e a75f a53f

38 f4 [16, 8, 3, 3]
0.17787664 0.6071241 1.2583883 -0.5408426 0.34744224 1.0195202 0.47035915 -0.16273214
-0.6456374 0.15749606 -1.2647076 0.47655034 0.88841444 0.111549474 0.06997846 0.66195244
1.3943447 -1.3634908 0.6898246 -0.7520111 0.49830553 -0.257025 -1.5171521 -0.94956553
-0.7410828 -1.0102681 0.5385995 1.4665394 -1.2779456 0.5524791 -2.1105227 -0.10481104
-0.43445125 -0.14087577 3.0578756 -0.38873082 0.9152679 1.083149 0.5162002 -1.5099235
1.7054467 -1.0807412 -0.27551892 2.245298 -0.4615837 -1.3405018 1.3934776 -0.5728811
0.86123514 1.0866863 -0.16513647 -0.40790874 -0.54383135 -0.6667478 -0.05512996 0.7968684
-0.8505524 2.997165 0.15692714 -0.6982494 0.2414855 0.10398331 0.8527952 1.2936299
-1.2744638 0.007323251 -1.1903809 0.38421983 1.3104523 0.25287375 0.6714735 0.5891024
1.3980919 1.3712186 0.9241003 1.204199 -0.4100454 0.836993 -0.08229415 0.04414552
-1.0147194 0.2527072 -0.6781183 -0.8976281 0.02647374 0.5585999 -0.17805019 -0.7911957
-1.3974319 0.85532135 -0.5302884 0.830741 -0.279498 -1.4503672 0.26510748 1.3576344
-1.2658541 1.061684 -0.46952736 -0.09585239 -0.7094968 1.1342689 -0.024256522 -1.0271888
-0.2100692 0.5635363 -0.16675648 1.2577851 -0.8998571 -1.1633657 0.8181013 -0.427677
-0.08795751 0.66439736 0.30344042 -0.040093385 -1.0305971 0.10604158 0.8161575 -0.09616947
-0.37713647 -0.07321794 -1.0111555 -0.48947805 -0.44144908 0.028491957 1.3155347 -0.018908435
-0.01033096 -0.1498066 -1.7338629 0.73503613 0.43691254 -0.82935095 0.1712825 0.42732826
-0.77957743 -1.250333 -0.050115824 -0.7749697 -0.5723341 -0.49573827 -1.1707835 0.33681637
0.35068905 -0.5404715 0.31677178 -0.68885666 -0.206198 2.3040884 0.2713102 -1.909437
-1.5034082 0.0029039474 1.2839913 0.027061814 0.25188553 0.23853205 -1.4823357 -0.037924614
0.5324712 0.035671864 0.4527434 -0.021480741 -0.6224786 0.34350678 0.17143653 -0.24083517
0.48460105 -0.62595266 0.45177165 0.81931967 1.4243165 -0.25193477 -0.085551314 -0.44534034
-0.69084334 0.5668063 -1.4471216 -0.6122228 0.1777601 -0.34084123 -0.4308458 -0.23402274
0.962427 0.9777889 -0.86663324 -0.8968616 -1.0781856 -0.07417357 -2.4791477 -0.37933382
-0.85036904 0.33789036 1.4087714 1.8929677 3.1903872 1.451506 0.19940959 0.97689205
0.69220877 -1.0561546 1.1926948 1.5273287 0.292633 -0.22812393 -2.184476 0.64194757
0.8010446 -1.3536059 1.1410093 1.0239607 -1.239694 0.06319331 -1.3959229 0.40080565
-0.3006296 0.59186816 -0.8273882 0.55817324 -0.9299488 -1.030993 0.52395844 -0.77650017
0.9624321 0.9029298 -0.13911879 -0.9002085 0.37242797 -0.42875525 0.65443087 -0.6898833
-0.47917128 0.70850104 -0.03072809 -0.551074 0.62199867 -0.89425164 0.9795789 0.40612644
-0.40065408 0.6496394 -0.13080956 -0.44737136 -0.28038996 0.21393764 0.995721 -0.20613858
-0.5562517 0.92299795 -1.531189 -1.2770721 0.3277245 -0.23823854 0.5823752 -0.3135285
00000000: 4b25 363e 7c6c 1b3f de12 a13f a974 0abf
00000010: f3e3 b13e a37f 823f ead2 f03e 41a3 26be
00000020: 7e48 25bf a646 213e f0e1 a1bf 68fe f33e
00000030: 216f 633f 0d74 e43d de50 8f3d b775 293f
00000040: e379 b23f de86 aebf 5898 303f cd83 40bf
00000050: e721 ff3e c898 83be 0a32 c2bf ba16 73bf
00000060: 9ab7 3dbf 7750 81bf a8e1 093f 90b7 bb3f
00000070: b993 a3bf 456f 0d3f ce12 07c0 2ca7 d6bd
00000080: 6570 debe bd41 10be 3cb4 4340 ba07 c7be
00000090: ff4e 6a3f a0a4 8a3f b225 043f 2c45 c1bf
000000a0: 144c da3f ba55 8abf d110 8dbe f6b2 0f40
000000b0: b354 ecbe 9095 abbf 795d b23f 56a8 12bf
000000c0: e879 5c3f 8918 8b3f 8919 29be 6ad9 d0be
000000d0: 8838 0bbf fcaf 2abf f4cf 61bd 91ff 4b3f
000000e0: cdbd 59bf 8dd1 3f40 82b1 203e 79c0 32bf
000000f0: fa47 773e 34f5 d43d c950 5a3f aa95 a53f
00000100: a121 a3bf e2f7 ef3b 675e 98bf 76b8 c43e
00000110: e7bc a73f ab78 813e b0e5 2b3f 6acf 163f
00000120: adf4 b23f 1784 af3f d691 6c3f 3123 9a3f
00000130: 78f1 d1be 2c45 563f d689 a8bd efd1 343d
00000140: 53e2 81bf d762 813e 2999 2dbf f5ca 65bf
00000150: 75df d83c 6700 0f3f ca52 36be cd8b 4abf
00000160: 0cdf b2bf 57f6 5a3f fbc0 07bf 71ab 543f
00000170: 5d1a 8fbe a2a5 b9bf 2bbc 873e f7c6 ad3f
00000180: 8207 a2bf 43e5 873f e465 f0be 424e c4bd
00000190: 95a1 35bf b92f 913f 9db5 c6bc ec7a 83bf
000001a0: 611c 57be ea43 103f 36c2 2abe 1aff a03f
000001b0: 095d 66bf 2be9 94bf 166f 513f 7bf8 dabe
000001c0: 1123 b4bd f215 2a3f 8b5c 9b3e f638 24bd
000001d0: 9bea 83bf 542c d93d b3ef 503f 80f4 c4bd
000001e0: 0818 c1be 4af3 95bd 8b6d 81bf de9c fabe
000001f0: 9d05 e2be f767 e93c 7163 a83f dde5 9abc
00000200: 3043 29bc e766 19be 38ef ddbf 542b 3c3f
00000210: 00b3 df3e 5850 54bf ae64 2f3e c5ca da3e
00000220: 6392 47bf e90a a0bf 4046 4dbd 6a64 46bf
00000230: 7d84 12bf 68d1 fdbe 3cdc 95bf 3273 ac3e
00000240: 848d b33e 575c 0abf e92f a23e e958 30bf
00000250: 9225 53be 2f76 1340 2ce9 8a3e 6e68 f4bf
00000260: ae6f c0bf 2750 3e3b d459 a43f bdb0 dd3c
00000270: 24f7 803e bf41 743e 2dbd bdbf d756 1bbd
00000280: 0850 083f a91c 123d fccd e73e 61f8 afbc
00000290: c25a 1fbf 1fe0 af3e 0f8d 2f3e 7f9d 76be
000002a0: a11d f83e 6f3e 20bf 9d4e e73e efbe 513f
000002b0: 0150 b63f 98fd 80be 8735 afbd a603 e4be
000002c0: 1cdb 30bf 381a 113f 483b b9bf a2ba 1cbf
000002d0: be06 363e be82 aebe d297 dcbe a8a3 6fbe
000002e0: 9e61 763f 6050 7a3f addb 5dbf b998 65bf
000002f0: fc01 8abf 50e8 97bd 5baa 1ec0 0b38 c2be
00000300: c9b1 59bf f7ff ac3e 9f52 b43f c44c f23f
00000310: 4e2f 4c40 f3ca b93f 0732 4c3e 9915 7a3f
00000320: 9834 313f 1330 87bf 39aa 983f 827f c33f
00000330: fed3 953e 5299 69be 74ce 0bc0 ad56 243f
00000340: 4211 4d3f f542 adbf 980c 923f 2511 833f
00000350: 4bae 9ebf 7e6b 813d 9aad b2bf 6636 cd3e
00000360: 1fec 99be ac84 173f b7cf 53bf 71e4 0e3f
00000370: 2011 6ebf 94f7 83bf 2422 063f b7c8 46bf
00000380: f361 763f 6826 673f 2875 0ebe 1074 66bf
00000390: e1ae be3e cf85 dbbe c888 273f 319c 30bf
000003a0: f055 f5be 5360 353f 7ab9 fbbc 3013 0dbf
000003b0: 4e3b 1f3f aded 64bf afc5 7a3f ceef cf3e
000003c0: 8822 cdbe c54e 263f f1f2 05be dc0d e5be
000003d0: 468f 8fbe 7812 5b3e 92e7 7e3f fe15 53be
000003e0: 8366 0ebf 9849 6c3f 00fe c3bf 1977 a3bf
000003f0: 81cb a73e cef4 73be 8b16 153f cf86 a0be

39 f4 [16]
-2.231091 2.5744958 -0.24813554 3.0448656 2.8255963 3.6072252 0.6419419 -0.61619145
0.67254436 4.003604 -0.39309648 -0.05536744 0.16227877 -0.4084908 -2.585869 2.5299318
00000000: 32ca 0ec0 8ac4 2440 3e17 7ebe 14df 4240
00000010: 92d6 3440 c7dc 6640 4e56 243f b9be 1dbf
00000020: de2b 2c3f 861d 8040 f143 c9be f8c8 62bd
00000030: 682c 263e b525 d1be e17e 25c0 67ea 2140

fc.0.bias f4 [540]
-0.06531991 -0.051871244 -0.018387651 0.0112847 0.098136865 0.065341964 0.019633705 -0.030980881
0.06467696 0.08048263 0.115725845 0.022890152 -0.078441985 0.060284868 0.020374557 0.044868518
-0.004429561 0.120334275 0.037169665 0.060328186 0.0066365045 -0.009471741 0.12059951 -0.022870142
0.023051642 0.0764228 0.013632157 0.022341387 0.0051170513 -0.010621501 0.030004812 0.028140662
0.021588536 -0.0072057988 0.0920727 -0.010147122 -0.0058900965 0.02241499 0.091651656 0.089516394
0.039733123 0.050265867 -0.010975902 0.027155755 -0.027978 0.10005586 0.028328499 -0.054956347
0.09986021 -0.00383828 0.07007852 -0.006305668 -0.019263243 0.0042405967 0.069521144 0.09568171
0.019742295 0.013181037 0.041146483 -0.029620623 0.08034108 0.026062835 -0.0059158816 0.04730609
0.010287134 0.06583402 -0.023513976 0.033698086 0.010790647 0.008370459 0.012746932 0.009290942
0.11142006 -0.008215362 0.06018893 -0.039806508 0.05061703 0.023181794 0.047479216 0.056576077
0.040451963 0.009574476 0.022779517 0.040484376 -0.010213656 0.059834804 0.11620238 -0.033702128
0.06774407 0.024877127 0.020876052 -0.0032173477 0.07016378 -0.013682478 0.0724167 0.038423173
0.028674388 0.054264605 0.027550543 0.038818184 0.08142498 0.07046136 0.09202208 0.02894096
0.0870356 0.023540102 -0.064918645 0.10084459 0.117741525 -0.0019370439 -0.018119369 0.029529674
0.049274873 0.13197227 -0.00979551 0.047518518 0.0937228 0.025586378 0.04798079 0.10114524
0.015014442 -0.024474842 0.029147565 0.08438046 0.024049047 0.01647568 0.038464293 0.039682083
0.032328136 0.096302465 0.10811935 0.07164566 0.111572474 -0.016129866 -0.0009014355 0.015056704
0.017796284 0.0049883495 0.034221835 0.05385212 0.081403814 -0.024284676 0.088252634 -0.026789656
0.051512547 -0.0027460672 0.04540566 0.05974799 -0.03474295 0.077159785 0.10234576 0.040351264
0.018001456 0.070216335 0.10442539 0.0035316546 0.039117932 -0.026563691 0.09579679 -0.00055866974
0.05973506 0.05896755 -0.012483849 0.020560196 0.053488474 0.07667813 0.08334202 0.008248096
0.12270212 0.06267649 0.08663739 0.040174425 0.013790231 0.069796465 -0.030432256 0.077069476
0.098738134 -0.036969334 0.068966895 0.019008515 -0.076774254 0.030338041 0.027343586 -0.017392276
-0.016460119 0.012305516 -0.009555857 0.09700202 0.08485468 0.030312518 0.07479245 0.03803621
-0.0075199767 -0.0009907195 -0.0068572797 0.075600326 0.07874519 0.05123252 0.028012667 0.08892803
-0.038217723 0.024975624 0.03930189 0.08583424 -0.014105421 0.025304625 0.016244553 0.008804528
-0.027379166 0.015522502 0.0071993233 0.046407796 0.09335175 0.055610165 0.062135752 0.082342155
0.08765543 0.037016977 0.0980135 0.065942414 0.055102147 -0.054182827 -0.0011412005 0.0028172485
0.06000928 0.056055002 -0.043482322 0.07639807 0.081940815 0.022819329 -0.023169087 0.0758642
0.035791174 0.0045235557 0.070193864 0.021845104 -0.042827424 0.02755621 0.0034602669 0.1281524
0.10482888 -0.004848904 -0.032166205 0.0672017 0.057181314 0.10923936 0.031228514 0.058598053
0.01879767 0.049597364 0.053103004 0.06461299 -0.003524522 0.018995496 0.084889 0.0057972097
00000000: 72c6 85bd f176 54bd b3a1 96bc 76e3 383c
00000010: fbfb c83d 02d2 853d ddd6 a03c 9ecb fdbc
00000020: 5b75 843d 14d4 a43d ac01 ed3d 2184 bb3c
00000030: 31a6 a0bd 44ed 763d 8be8 a63c 0dc8 373d
00000040: da25 91bb d171 f63d 383f 183d b01a 773d
00000050: 0977 d93b 5c2f 1bbc e0fc f63d 2a5a bbbc
00000060: ccd6 bc3c 8f83 9c3d 6959 5f3c 4905 b73c
00000070: f0ac a73b ce05 2ebc a7cc f53c 3f87 e63c
00000080: 71da b03c 9f1e ecbb 9d90 bc3d 1d40 26bc
00000090: b601 c1bb a49f b73c ddb3 bb3d 5f54 b73d
000000a0: 33bf 223d 95e3 4d3d 45d4 33bc bf75 de3c
000000b0: 1e32 e5bc 16ea cc3d 2b11 e83c e819 61bd
000000c0: 8383 cc3d a78b 7bbb 5485 8f3d c79f cebb
000000d0: f3cd 9dbc b4f4 8a3b 1a61 8e3d c6f4 c33d
000000e0: 98ba a13c 47f5 573c 3789 283d f3a6 f2bc
000000f0: dd89 a43d ba81 d53c 03da c1bb 08c4 413d
00000100: 5e8b 283c fdd3 863d 62a0 c0bc 0107 0a3d
00000110: 41cb 303c 4024 093c 82d8 503c 0939 183c
00000120: 3330 e43d ba99 06bc ab88 763d 260c 23bd
00000130: ce53 4f3d bfe7 bd3c 9179 423d 51bc 673d
00000140: f5b0 253d 43de 1c3c 1c9c ba3c f2d2 253d
00000150: 2e57 27bc 5715 753d 83fb ed3d 3e0b 0abd
00000160: 67bd 8a3d 1ecb cb3c 4104 ab3c 23da 52bb
00000170: 07b2 8f3d 792c 60bc 354f 943d 9e61 1d3d
00000180: 8de6 ea3c 9044 5e3d adb1 e13c d1ff 1e3d
00000190: 24c2 a63d 0c4e 903d 1376 bc3d 9815 ed3c
000001a0: b83f b23d 2cd7 c03c 11f4 84bd 9c87 ce3d
000001b0: 7822 f13d 68e4 fdba 126f 94bc 37e8 f13c
000001c0: 73d4 493d bd23 073e 597d 20bc c7a2 423d
000001d0: bdf1 bf3d 869a d13c 8187 443d 3c25 cf3d
000001e0: 22ff 753c 777f c8bc e0c6 ee3c aacf ac3d
000001f0: 8202 c53c 01f8 863c bc8c 1d3d ae89 223d
00000200: 826a 043d 3a3a c53d ae6d dd3d f6ba 923d
00000210: 1c80 e43d c822 84bc 504e 6cba 65b0 763c
00000220: 83c9 913c 4f75 a33b 322c 0c3d 0a94 5c3d
00000230: 0bb7 a63d a8f0 c6bc ccbd b43d fb75 dbbc
00000240: d2fe 523d 5df7 33bb 49fb 393d 4fba 743d
00000250: a04e 0ebd f305 9e3d a79a d13d 5e47 253d
00000260: ca77 933c 95cd 8f3d fbdc d53d 5573 673b
00000270: 203a 203d 199c d9bc 1c31 c43d b173 12ba
00000280: c0ac 743d f587 713d 0f89 4cbc db6d a83c
00000290: bb16 5b3d 6c09 9d3d 39af aa3d 0623 073c
000002a0: 404b fb3d 885c 803d f26e b13d f08d 243d
000002b0: 6cf0 613c 73f1 8e3d 114d f9bc 9ad6 9d3d
000002c0: 3837 ca3d 286d 17bd 843e 8d3d bfb7 9b3c
000002d0: d23b 9dbd 7c87 f83c a8ff df3c 3f7a 8ebc
000002e0: 5fd7 86bc 139d 493c 2b90 1cbc ffa8 c63d
000002f0: 4ac8 ad3d f551 f83c c92c 993d dbcb 1b3d
00000300: 236a f6bb 08db 81ba 08b3 e0bb 58d4 9a3d
00000310: 2845 a13d 31d9 513d d27a e53c e61f b63d
00000320: 308a 1cbd ae99 cc3c 05fb 203d ddc9 af3d
00000330: 6c1a 67bc a54b cf3c 4c13 853c de40 103c
00000340: 464a e0bc 1852 7e3c 4de8 eb3b 1a16 3e3d
00000350: 342f bf3d 7cc7 633d 0f82 7e3d 01a3 a83d
00000360: b184 b33d 1d9f 173d 4dbb c83d d10c 873d
00000370: cab2 613d d0ee 5dbd 5694 95ba 96a1 383b
00000380: 4acc 753d ee99 653d 851a 32bd 9776 9c3d
00000390: 96d0 a73d 9aef ba3c 19cd bdbc b15e 9b3d
000003a0: c499 123d 563a 943b cdc1 8f3d 81f4 b23c
000003b0: cf6b 2fbd 90bd e13c a5c5 623b 623a 033e
000003c0: 86b0 d63d 8ee3 9ebb b6c0 03bd 0ba1 893d
000003d0: f436 6a3d e3b8 df3d f1d2 ff3c 8304 703d
000003e0: 92fd 993c 9b26 4b3d 8982 593d d153 843d
000003f0: abfb 66bb 719c 9b3c 49da ad3d 85f6 bd3b

fc.0.weight f4 [540, 64]
0.071210645 -0.03199341 0.013479371 -0.06990842 0.08337972 0.010009586 0.06330266 0.039760597
-0.1113971 -0.02657436 -0.022046566 0.07561826 -0.052721683 -0.09685406 0.05905642 -0.0043676845
0.04933402 -0.07726412 0.022197112 -0.1277026 -0.026318738 -0.06147498 0.07309371 -0.03371482
0.09672322 0.042074144 0.0014187469 -0.05024047 -0.0163675 0.011384496 -0.023370663 0.08396667
-0.07968403 -0.044089835 0.09303733 0.090907454 0.031590257 0.0150602795 0.14363998 0.018255008
0.08562531 -0.07385646 -0.09491445 0.08821602 0.11225761 0.050397158 0.04461744 0.09276369
0.016202353 0.058392286 0.078977965 0.056450564 0.077358454 0.04682909 -0.04013689 -0.14250132
0.11912643 0.019413734 0.09223587 0.05680195 0.069612265 0.12786238 -0.02200639 -0.094025314
0.018625623 0.004340725 -0.07755431 0.013530186 0.0052158525 -0.0572083 0.106290385 -0.057398837
-0.07998111 0.15308814 0.10721086 -0.03348396 -0.061327048 -0.019913225 -0.018016122 0.022231614
0.06281485 0.07176426 0.07481972 0.04752885 -0.00750383 0.032887097 0.019232208 -0.090854056
0.0032288614 0.04373419 -0.013821714 -0.07151725 0.03952179 0.15553549 -0.029321186 -0.010708794
-0.074017614 -0.0030343856 -0.046052605 0.035669323 0.015115925 -0.11591156 0.12279942 -0.11422203
-0.035619225 -0.006959406 0.04401194 0.14241718 0.021752782 -0.0019960655 0.14536811 0.10284871
0.07921616 0.00595603 0.06860987 0.003500421 0.064346574 0.08951701 0.024850667 -0.13779843
0.09301513 0.056275345 -0.031048486 -0.034368176 0.0674799 -0.036334757 0.16953196 0.12474458
-0.07437163 0.04187185 0.04701841 -0.05330858 0.12477655 -0.019250125 0.035257295 -0.07180009
0.18154998 0.13022605 0.08351767 0.07931567 0.029205391 0.16555165 0.10290777 0.030690445
0.10768628 0.040423233 0.118375815 0.07885051 0.01716061 -0.1086335 -0.077558234 -0.13647364
-0.104071945 0.089352965 0.07998475 0.02487443 0.085245825 -0.030549899 0.0199495 -0.053024475
0.0065414663 0.112589546 0.040132117 0.047690243 0.09651116 0.16147305 0.19657123 -0.08936786
-0.051415887 0.07942603 0.18411453 0.03518985 0.02539523 -0.08114554 -0.18134266 -0.066488445
0.0025711642 -0.14114329 0.04791886 0.07411837 -0.09440293 -0.04678789 -0.003736654 0.054561157
-0.072635405 -0.05292588 -0.039109893 -0.055854782 0.08016867 -0.05210943 0.14081427 -0.01695202
0.042196363 -0.06436618 0.019758038 -0.13131823 -0.06823668 0.118115135 0.092116885 0.107639566
0.05280991 0.053840782 -0.055798158 -0.055075925 0.05548189 -0.014287636 0.08165923 0.0049344776
-0.09592706 -0.036411136 0.051010713 0.00019011751 -0.112326406 -0.054871254 0.047900934 0.0071306257
-0.08437266 -0.074933395 -0.012960178 0.08082529 0.014364742 0.009984378 -0.12796988 0.033848062
-0.01254336 0.08798336 0.13591434 0.05212587 0.09982626 0.09794159 0.009039164 0.12022888
0.09452057 -0.0489444 0.04964985 0.017498937 -0.019018555 -0.07475425 0.07016382 0.10135057
-0.0028936276 -0.028009463 0.022592606 0.03783316 0.05158211 0.047527283 0.05661018 0.1283834
0.046225343 -0.011553087 0.07780007 -0.048602067 0.013701285 -0.08204968 -0.05677253 0.14175981
00000000: e3d6 913d 860b 03bd 94d8 5c3c 252c 8fbd
00000010: fdc2 aa3d 3fff 233c d3a4 813d 02dc 223d
00000020: 2a24 e4bd 79b2 d9bc 009b b4bc bfdd 9a3d
00000030: b1f2 57bd 6c5b c6bd 25e5 713d cb1e 8fbb
00000040: 7812 4a3d a73c 9ebd b8d6 b53c 78c4 02be
00000050: 659a d7bc 30cd 7bbd 28b2 953d 8d18 0abd
00000060: d316 c63d f055 2c3d 3ff5 b93a f3c8 4dbd
00000070: 2315 86bc 0a86 3a3c d573 bfbc b8f6 ab3d
00000080: 6131 a3bd 8b97 34bd 5b8a be3d b02d ba3d
00000090: c964 013d 64bf 763c 5c16 133e 878b 953c
000000a0: 535c af3d 0e42 97bd 8262 c2bd 9aaa b43d
000000b0: 51e7 e53d 406d 4e3d c7c0 363d e4fa bd3d
000000c0: ccba 843c c02c 6f3d 33bf a13d b538 673d
000000d0: 1c6e 9e3d dccf 3f3d 9466 24bd deeb 11be
000000e0: 8ff8 f33d 8d09 9f3c 29e6 bc3d 29a9 683d
000000f0: e090 8e3d 5bee 023e bf46 b4bc 5890 c0bd
00000100: c394 983c a43c 8e3b cbd4 9ebd b7ad 5d3c
00000110: bee9 aa3b 4053 6abd c6ae d93d 0b1b 6bbd
00000120: 23cd a3bd 23c3 1c3e 5e91 db3d 7a26 09bd
00000130: 1232 7bbd 0f21 a3bc 8c96 93bc 131f b63c
00000140: 12a5 803d 24f9 923d 153b 993d 9dad 423d
00000150: b0e2 f5bb 9fb4 063d dd8c 9d3c b111 babd
00000160: 4e9b 533b 9f22 333d 7874 62bc a377 92bd
00000170: 9ae1 213d b244 1f3e fc32 f0bc f073 2fbc
00000180: 8c96 97bd 8bdc 46bb a8a1 3cbd ff19 123d
00000190: c9a8 773c 0a63 edbd 437e fb3d 3ded e9bd
000001a0: 77e5 11bd bb0b e4bb dd45 343d cfd5 113e
000001b0: e432 b23c 6cd0 02bb 61db 143e 58a2 d23d
000001c0: 153c a23d cd2a c33b 5583 8c3d 5267 653b
000001d0: 23c8 833d b254 b73d a093 cb3c 081b 0dbe
000001e0: b77e be3d fa80 663d 6559 febc a5c5 0cbd
000001f0: e732 8a3d c1d3 14bd c999 2d3e 167a ff3d
00000200: 2750 98bd d181 2b3d 6096 403d 195a 5abd
00000210: d98a ff3d 70b2 9dbc f469 103d ed0b 93bd
00000220: 3de8 393e fa59 053e 500b ab3d 4170 a23d
00000230: 2540 ef3c 5f86 293e 4fc1 d23d 876a fb3c
00000240: a08a dc3d d592 253d 056f f23d 607c a13d
00000250: 6894 8c3c 3e7b debd dad6 9ebd bfbf 0bbe
00000260: ac23 d5bd b0fe b63d 0bcf a33d 76c5 cb3c
00000270: 5d95 ae3d c843 fabc 226d a33c 3130 59bd
00000280: cc59 d63b 5995 e63d 9361 243d d856 433d
00000290: a5a7 c53d 3159 253e f849 493e 7f06 b7bd
000002a0: 7799 52bd 1daa a23d 8588 3c3e 3b23 103d
000002b0: a809 d03c a22f a6bd e4b1 39be 182b 88bd
000002c0: fa80 283b de87 10be 9146 443d 5fcb 973d
000002d0: 5356 c1bd a9a4 3fbd a7e2 74bb 857b 5f3d
000002e0: dfc1 94bd cfc8 58bd b231 20bd fcc7 64bd
000002f0: 792f a43d b370 55bd 9e31 103e f6de 8abc
00000300: 18d6 2c3d 6ad2 83bd 9cdb a13c 4978 06be
00000310: acbf 8bbd 59e6 f13d c7a7 bc3d 2272 dc3d
00000320: 344f 583d 2788 5c3d 9c8c 64bd 4b97 61bd
00000330: fa40 633d b016 6abc f43c a73d 66b1 a13b
00000340: 6875 c4bd d823 15bd 9cf0 503d 485a 4739
00000350: 630b e6bd aec0 60bd c533 443d 06a8 e93b
00000360: 93cb acbd ae76 99bd ed56 54bc bb87 a53d
00000370: 185a 6b3c 8495 233c 890a 03be 44a4 0a3d
00000380: aa82 4dbc 9f30 b43d 212d 0b3e f081 553d
00000390: b671 cc3d 9a95 c83d 0019 143c 8f3a f63d
000003a0: 0094 c13d ec79 48bd a45d 4b3d ee59 8f3c
000003b0: cdcc 9bbc c218 99bd 0db2 8f3d e390 cf3d
000003c0: 04a3 3dbb 1a74 e5bc 2114 b93c f2f6 1a3d
000003d0: c347 533d f8ab 423d 13e0 673d f076 033e
000003e0: c956 3d3d 2949 3dbc a555 9f3d f612 47bd
000003f0: 5b7b 603c aa09 a8bd 508a 68bd 7c29 113e

fc.3.bias f4 [270]
-0.02026958 -0.0061662677 -0.015675303 -0.0369705 0.008379137 -0.026283987 -0.012882787 0.0037564265
-0.0033714855 -0.017257947 -0.0031322886 -0.013563893 0.0003483516 -0.00018601661 -0.0131751355 -0.017561585
0.015245928 -0.015027865 -0.015358417 -0.0058805863 0.0023297349 0.012034969 0.018159682 0.020257073
0.005636584 0.01045669 -0.027957939 0.002124854 -0.034125857 0.011197025 -0.004327382 -0.027451668
0.0017846948 0.017058795 0.0038318688 -0.004875689 -0.01476102 0.012044875 -0.01625175 0.012250411
-0.034622338 -0.020740919 -0.0054032854 -0.04003336 0.023885265 0.015342929 0.025585108 0.0013840584
-0.0011309551 -0.015386491 0.032800104 -0.023246763 0.031000003 -0.018103344 0.0068320734 0.051336955
-0.0046338667 0.028739477 -0.010885803 0.033347238 -0.0113063175 -0.027397621 -0.031634364 0.004737045
0.0018338653 0.025957545 0.0072768745 0.0042923125 -0.016170127 0.0035137774 -0.010489738 -0.0028363178
0.0064067277 -0.029157532 -0.03175264 -0.011615327 0.0077871243 -0.023682015 -0.014541832 -0.019251881
-0.01685978 -0.032248966 -0.008653533 -0.006855305 0.01817006 0.015701942 -0.0039776666 0.015329291
-0.009269797 -0.012432889 -0.003129714 0.048055235 0.0024040677 0.002322073 0.011999367 -0.006813424
-0.011193847 -0.009435636 -0.009452907 -0.0013650425 0.004549712 -0.0075421985 -0.020068957 -0.029809736
-0.035634384 -0.03087791 0.028574023 0.0118406005 0.024663359 -0.0026778942 -0.046740036 -0.017640127
0.006762008 -0.0070895855 -0.016922312 -0.0058411816 0.030128963 -0.02446151 -0.013146878 0.0015657485
0.0019933053 -0.023507187 -0.034450743 0.003333927 0.0305921 -0.013947634 -0.0010490251 -0.023525683
-0.010830734 -0.010618189 -0.021039978 0.024329282 -0.028893868 0.0108174 -0.008126827 -0.00738443
0.02537958 -0.025297044 -0.0025267778 0.055567496 0.0052138143 -0.008342715 0.009508178 -0.015308271
-0.013865933 -0.0024776554 -0.011812877 0.0003472243 -0.00526952 0.024501342 -0.03093719 0.0070609776
-0.0068960604 0.008595003 -0.0037982124 0.0041996986 -0.0017554464 -0.023357144 0.016954156 0.0018742753
0.043008465 0.010426591 0.036534842 0.020598033 -0.04266467 0.0141568845 -0.0048569115 0.002608647
-0.0108858235 -0.0057435175 -0.002338797 -0.013444038 0.017165719 -0.020099659 0.01802078 -0.0007927175
-0.009172835 -0.012205762 -0.054042947 0.024719756 -0.015913546 -0.013749432 -0.018422866 0.006065236
0.031068448 -0.0063249865 0.002583484 -0.003824 0.016746527 -0.0020638874 -0.017076768 0.001189888
-0.007244807 -0.000982513 0.02107999 -0.002988069 0.017383995 -0.008001111 -0.0052086944 -0.0032081269
0.0024365939 0.02204643 0.0038199378 -0.006144887 -0.006826145 -0.027772231 0.0056513487 0.031126281
-0.039454866 0.042321302 -0.025492191 -0.017374568 0.024416672 0.017708333 0.015511888 -0.009266915
-0.027143698 0.0026720036 -0.007865336 0.01836596 -0.019654313 -0.0120372735 -0.021928683 -0.04702856
0.020251663 0.0025278972 -0.0066318335 -0.005087809 -0.04113459 0.0391677 -0.00018142212 0.015526558
0.01717414 0.00025829294 0.021436859 -0.0002666998 0.013414766 0.01754828 0.02758439 -0.015119762
-0.02410452 0.0019015067 0.003575439 -0.009766624 -0.017262641 0.0015912396 -0.01547416 -0.011308742
-0.0019915062 0.015235022 -0.0012233539 -0.010614795 -0.016765079 0.0014116892 -0.009250551 0.010042246
00000000: 640c a6bc 670e cabb 7e69 80bc 616e 17bd
00000010: a648 093c 8451 d7bc 5312 53bc 612e 763b
00000020: 24f4 5cbb 8a60 8dbc 1547 4dbb 173b 5ebc
00000030: f6a2 b639 740d 43b9 86dc 57bc 50dd 8fbc
00000040: 0fca 793c 6f37 76bc dfa1 7bbc efb1 c0bb
00000050: 77ae 183b 522e 453c 9dc3 943c 29f2 a53c
00000060: 18b3 b83b 8952 2b3c 0c08 e5bc 2241 0b3b
00000070: 8ec7 0bbd ba73 373c b6cc 8dbb 52e2 e0bc
00000080: 6cec e93a e3be 8b3c 1720 7b3b 3ec4 9fbb
00000090: 35d8 71bc de57 453c 6422 85bc f3b5 483c
000000a0: 27d0 0dbd dce8 a9bc 0b0e b1bb 05fa 23bd
000000b0: 08ab c33c e960 7b3c dc97 d13c 4b69 b53a
000000c0: 8e3c 94ba 9f17 7cbc 6759 063d ff6f bebc
000000d0: b8f3 fd3c 774d 94bc 96df df3b b346 523d
000000e0: b1d7 97bb 0d6f eb3c 5e5a 32bc 1d97 083d
000000f0: 223e 39bc fa70 e0bc 0993 01bd 3739 9b3b
00000100: 4f5e f03a eba4 d43c d972 ee3b 87a6 8c3b
00000110: 3777 84bc 6747 663b 26dd 2bbc 84e1 39bb
00000120: 87ef d13b c7db eebc 0e0f 02bd 364e 3ebc
00000130: 222b ff3b c900 c2bc dd40 6ebc 1fb6 9dbc
00000140: 851d 8abc 7e17 04bd 8cc7 0dbc 77a2 e0bb
00000150: 61d9 943c 5ca1 803c 1657 82bb b527 7b3c
00000160: 59e0 17bc 51b3 4bbc e31b 4dbb 91d5 443d
00000170: 908d 1d3b ec2d 183b fe98 443c 2543 dfbb
00000180: 6666 37bc ed97 1abc 5ee0 1abc 3aeb b2ba
00000190: c015 953b 8c24 f7bb a767 a4bc 8c33 f4bc
000001a0: 5cf5 11bd acf3 fcbc 1214 ea3c 14ff 413c
000001b0: d00a ca3c 9c7f 2fbb 7b72 3fbd 0782 90bc
000001c0: d693 dd3b c14f e8bb a9a0 8abc 6267 bfbb
000001d0: 04d1 f63c 8163 c8bc 0166 57bc cd39 cd3a
000001e0: 1da2 023b 2592 c0bc 391c 0dbd 037e 5a3b
000001f0: 499c fa3c 9e84 64bc 717f 89ba efb8 c0bc
00000200: 6473 31bc eaf7 2dbc 085c acbc 344e c73c
00000210: d5b2 ecbc 773b 313c 6226 05bc 17f9 f1bb
00000220: d6e8 cf3c bf3b cfbc 4c98 25bb be9a 633d
00000230: a5d8 aa3b e2af 08bc 30c8 1b3c 8bcf 7abc
00000240: f02d 63bc 2960 22bb cc8a 41bc a80b b639
00000250: f0ab acbb 0ab7 c83c fd6f fdbc c65f e73b
00000260: 59f8 e1bb 0ed2 0c3c 6eeb 78bb a09d 893b
00000270: 0217 e6ba 7b57 bfbc 71e3 8a3c 3eaa f53a
00000280: a529 303d 4bd4 2a3c 8fa5 153d 35bd a83c
00000290: 26c1 2ebd 47f2 673c ba26 9fbb d6f5 2a3b
000002a0: 745a 32bc 1e34 bcbb 8146 19bb 6244 5cbc
000002b0: 1f9f 8c3c 0aa8 a4bc 51a0 933c 5fce 4fba
000002c0: a949 16bc adfa 47bc 235c 5dbd 1681 ca3c
000002d0: 205d 82bc 4c45 61bc 8deb 96bc e3be c63b
000002e0: 4283 fe3c d541 cfbb ab4f 293b 139c 7abb
000002f0: 0330 893c 4942 07bb 94e4 8bbc 04f6 9b3a
00000300: d965 edbb aac7 80ba f1af ac3c 7bd3 43bb
00000310: e168 8e3c 1817 03bc b2ad aabb 703f 52bb
00000320: 43af 1f3b b79a b43c ec57 7a3b 0c5b c9bb
00000330: dbad dfbb 9782 e3bc f32e b93b 8bfc fe3c
00000340: 6d9b 21bd 1a59 2d3d 00d5 d0bc 1c55 8ebc
00000350: 7905 c83c 1111 913c 9325 7e3c 42d4 17bc
00000360: 765c debc c81c 2f3b 9cdd 00bc 3674 963c
00000370: 1502 a1bc fc37 45bc c8a3 b3bc 05a1 40bd
00000380: d1e6 a53c 14ab 253b da4f d9bb a3b7 a6bb
00000390: be7c 28bd 4f6e 203d 213c 3eb9 1b63 7e3c
000003a0: c8b0 8c3c 7e6b 8739 5a9c af3c d7d3 8bb9
000003b0: 9bc9 5b3c 69c1 8f3c a9f8 e13c e1b8 77bc
000003c0: d876 c5bc fa3b f93a ea51 6a3b 3104 20bc
000003d0: 626a 8dbc 2491 d03a 5587 7dbc 4d48 39bc
000003e0: ee83 02bb 509c 793c f258 a0ba ade9 2dbc
000003f0: eb56 89bc 6e08 b93a a08f 17bc 3c88 243c

fc.3.weight f4 [270, 540]
0.05161673 0.036833797 -0.0205846 0.04659191 0.020531846 0.055239707 -0.029783385 -0.01653731
0.023974322 -0.001260054 0.015282158 0.004979247 0.06113023 -0.027541287 -0.054004524 -0.00042416446
0.05306881 0.04921003 0.027724622 0.010536941 -0.02250769 -0.018571313 0.010767037 0.028505614
-0.028054407 4.0835585e-06 -0.028232971 -0.030425822 -0.025807738 0.060647678 0.006532636 0.049511813
-0.04093283 -0.012226731 0.002883533 -0.056287076 0.044735316 0.05797293 0.026322426 0.0372273
-0.03898196 0.015412357 -0.0470946 -0.08246013 -0.025973933 0.07389749 0.07328971 0.03836382
-0.053416666 -0.036176406 0.024353763 0.049584243 0.07294511 0.08103152 -0.051285185 0.012708995
0.015168372 0.015182378 -0.020767007 -0.013452685 0.06861788 -0.0020937973 0.019844282 0.042455994
0.0059771095 0.026927106 -0.04589976 -0.040642977 -0.0074069807 -0.009862741 -0.003631281 0.0004974979
-0.008762552 -0.07735385 -0.008592755 0.041953187 -0.031199384 0.047281954 -0.021356994 -0.016652485
0.0082980385 0.0317576 -0.0235376 -0.007981244 0.036124427 -0.0046970295 -0.021015184 0.004578418
-0.04810899 0.008343005 -0.0115543185 0.07975691 0.036620885 0.045117054 -0.045316998 0.05016377
-0.04122714 -0.017046494 0.046398897 -0.036985055 -0.021470107 -0.031793725 -0.04892082 0.045877285
0.06980008 -0.053087648 -0.030278645 0.0037707158 -0.02304428 0.013560431 -0.029889882 -0.0271391
-0.0113023035 -0.011948131 -0.020231904 -0.034268256 -0.0533779 -0.045971867 0.05378394 0.031725593
0.04501837 -0.046104614 -0.005838628 0.036708876 -0.03614211 0.045424882 0.007161508 -0.04761638
0.03318533 -0.03363948 0.029280614 -0.03645032 -0.042270184 0.018700158 -0.025224274 0.055205014
-0.034528088 0.017109597 0.007400319 0.04587719 -0.020884736 0.028873991 -0.019226009 -0.025976732
-0.04835725 0.07515664 0.029269017 -0.036881607 -0.0046214126 0.039890803 0.010920102 -0.02881729
-0.010066836 0.02136083 -0.039739538 -0.010004485 0.03497979 -0.012688388 -0.023098355 0.06351464
0.010231372 0.00075199734 -0.029603649 0.035649803 -0.006757157 0.032996643 -0.025648208 0.06469584
0.061121475 -0.03343736 -0.035098635 0.05724295 -0.00764536 -0.02777092 -0.023046862 -0.039998904
-0.059000105 0.026229989 0.038812317 0.060910605 0.0068529947 -0.0002218773 -0.04026723 -0.030673342
0.03160267 -0.0016439575 0.034726106 0.012686135 -0.0013679323 -0.015510565 0.034913287 -0.050175365
0.08225503 0.024819065 -0.04194824 0.009367371 -0.04455702 -0.0058683283 -0.017050399 0.049564976
0.014204287 -0.028232222 -0.034884814 -0.0070710476 -0.029332653 -0.035912003 0.05115748 -0.035294384
-0.03083297 0.022820793 -0.013751402 0.029241769 -0.045899384 0.047217093 0.040996447 -0.054320693
-0.026730455 0.015554407 0.030244203 -0.04786504 -0.019333735 -0.003389122 0.018726125 -0.038094327
-0.027117614 -0.04162039 0.065956175 0.023759533 -0.07085284 -0.018803459 0.060170263 0.052002147
-0.05016341 0.0016213226 0.013925575 0.010159154 0.024448937 0.026955726 0.04714812 0.0035207216
-0.05790658 -0.020058248 0.006463408 0.06300818 -0.016593121 -0.026415437 0.061569482 -0.032362457
-0.020357735 0.042828087 0.042468682 0.026505953 -0.03326543 0.057324942 -0.015472815 -0.03642831
00000000: 106c 533d 09df 163d 09a1 a8bc 29d7 3e3d
00000010: 6732 a83c 0843 623d 49fc f3bc 4179 87bc
00000020: cc65 c43c 6528 a5ba 0462 7a3c f428 a33b
00000030: b163 7a3d 449e e1bc d933 5dbd 6462 deb9
00000040: ae5e 593d 7590 493d bf1e e33c 22a3 2c3c
00000050: 0c62 b8bc de22 98bc 3a68 303c 9b84 e93c
00000060: 5bd2 e5bc 8005 8936 d548 e7bc 933f f9bc
00000070: c06a d3bc b369 783d b90f d63b e6cc 4a3d
00000080: 2fa9 27bd a052 48bc a8f9 3c3b 478d 66bd
00000090: 613c 373d 0675 6d3d 21a2 d73c a77b 183d
000000a0: 8cab 1fbd 1c84 7c3c 44e6 40bd dbe0 a8bd
000000b0: 49c7 d4bc 9157 973d ea18 963d 6223 1d3d
000000c0: 6fcb 5abd b62d 14bd 8b81 c73c d918 4b3d
000000d0: 3f64 953d dbf3 a53d 6a10 52bd 6339 503c
000000e0: c384 783c 82bf 783c 921f aabc a768 5cbc
000000f0: 8887 8c3d 1738 09bb 7a90 a23c 56e6 2d3d
00000100: a1db c33b 3c96 dc3c 6301 3cbd 4079 26bd
00000110: 42b6 f2bb 5697 21bc c9fa 6dbb 856a 023a
00000120: cf90 0fbc b26b 9ebd a0c8 0cbc 1bd7 2b3d
00000130: da95 ffbc b9aa 413d ddf4 aebc cb6a 88bc
00000140: 7ff4 073c 4214 023d edd1 c0bc c3c3 02bc
00000150: 35f7 133d 8ae9 99bb 0928 acbc 8e06 963b
00000160: ef0d 45bd 19b1 083c 534e 3dbc 9757 a33d
00000170: c8ff 153d a9cc 383d 519e 39bd 8678 4d3d
00000180: cadd 28bd 17a5 8bbc c50c 3e3d a47d 17bd
00000190: 14e2 afbc 233a 02bd 3361 48bd d2e9 3b3d
000001a0: 58f3 8e3d 6f72 59bd ec0a f8bc 1d1e 773b
000001b0: 5cc7 bcbc 922c 5e3c a0db f4bc d152 debc
000001c0: 4c2d 39bc 18c2 43bc 61bd a5bc df5c 0cbd
000001d0: c9a2 5abd ff4c 3cbd 8c4c 5c3d b2f2 013d
000001e0: 2f65 383d 31d8 3cbd f651 bfbb 0c5c 163d
000001f0: c009 14bd 710f 3a3d 15ab ea3b 6509 43bd
00000200: 57ed 073d 8dc9 09bd e6dd ef3c ee4c 15bd
00000210: 8023 2dbd 1331 993c 23a3 cebc a71e 623d
00000220: 536d 0dbd 6d29 8c3c 607e f23b b8e9 3b3d
00000230: 7716 abbc 2689 ec3c dd7f 9dbc 28cd d4bc
00000240: 4012 46bd b9eb 993d 94c5 ef3c 2b11 17bd
00000250: 386f 97bb 8a64 233d 3aea 323c 3d12 ecbc
00000260: 5fef 24bc e8fc ae3c edc5 22bd dae9 23bc
00000270: f846 0f3d f5e2 4fbc c338 bdbc f713 823d
00000280: 7ca1 273c b021 453a 5a83 f2bc 8705 123d
00000290: 246b ddbb 7d27 073d 311c d2bc 417f 843d
000002a0: 835a 7a3d 9df5 08bd 96c3 0fbd 9577 6a3d
000002b0: ee85 fabb d77f e3bc c6cc bcbc e4d5 23bd
000002c0: 18aa 71bd 46e0 d63c aaf9 1e3d 667d 793d
000002d0: 168f e03b bca7 68b9 40ef 24bd a946 fbbc
000002e0: cd71 013d 0f7a d7ba f63c 0e3d 82d9 4f3c
000002f0: 314c b3ba 0620 7ebc 3c01 0f3d af84 4dbd
00000300: 5375 a83d 5a51 cb3c ebd1 2bbd 9a79 193c
00000310: 6c81 36bd 1b4b c0bb 47ad 8bbc a504 4b3d
00000320: 19b9 683c 4347 e7bc 61e3 0ebd 3fb4 e7bb
00000330: 084b f0bc 7718 13bd 818a 513d d890 10bd
00000340: 6d95 fcbc acf2 ba3c 8f4d 61bc 6f8c ef3c
00000350: fe00 3cbd b666 413d e4eb 273d 607f 5ebd
00000360: d4f9 dabc e9d7 7e3c b1c2 f73c 220e 44bd
00000370: c861 9ebc 081c 5ebb 8867 993c cc08 1cbd
00000380: c225 debc 247a 2abd 0814 873d 5aa3 c23c
00000390: 4b1b 91bd b609 9abc 1875 763d 3400 553d
000003a0: 2678 4dbd 8f82 d43a 1828 643c 9572 263c
000003b0: 2349 c83c 41d2 dc3c 631e 413d e8bb 663b
000003c0: 732f 6dbd 3251 a4bc ffca d33b 6f0a 813d
000003d0: 4cee 87bc 3065 d8bc 4830 7c3d 7f8e 04bd
000003e0: 44c5 a6bc 816c 2f3d a4f3 2d3d 0323 d93c
000003f0: 5541 08bd 8fcd 6a3d b181 7dbc da35 15bd
