inventory/ark_material.onnx (onnx, 714272 bytes, 8 tensors)

35 f4 [8, 3, 5, 5]
0	0x3f04e00c	0.5190437
1	0x3e6c32eb	0.23066299
2	0xbee2a939	-0.44269732
3	0xbe411ba4	-0.188582
4	0xbec46f6a	-0.38366252
5	0x3f06feb8	0.5273242
6	0x3ec8dfdd	0.39233294
7	0x3e47536a	0.19465414
8	0x3f004edf	0.5012035
9	0xbe8ea53e	-0.27860445
10	0x3e9f7108	0.31140924
11	0x3ebd7dd5	0.37010065
12	0x3efa56a2	0.4889422
13	0x3f24303b	0.64136094
14	0xbcbae7b5	-0.022815565
15	0xbf07d410	-0.53057957
16	0x394a0802	0.00019267204
17	0x3e2551a4	0.16144425
18	0x3f31a0f5	0.69386226
19	0xbd135f7a	-0.035979725
20	0xbdfb6864	-0.1227577
21	0xbdbb1fe6	-0.091369435
22	0x3eb77927	0.3583462
23	0xbf23698d	-0.6383293
24	0xbe64fd64	-0.22362286
25	0x3e91f7d6	0.28509396
26	0x3ea216d4	0.3165804
27	0x3e69629e	0.22791526
28	0xbecaab7b	-0.39583954
29	0xbf443f95	-0.7665952
30	0x3f0ef17e	0.5583724
31	0xbf0577cb	-0.52135915
32	0x3e4f6d32	0.20256498
33	0xbed996e1	-0.42497924
34	0x3f01beb8	0.5068164
35	0xbeb03955	-0.3441874
36	0xbe171712	-0.14754894
37	0x3e197cf8	0.14989078
38	0x3ed2083f	0.41021916
39	0xbd653409	-0.055957828
40	0xbf2f891c	-0.6856859
41	0xbed9b3e1	-0.4252005
42	0x3a5ff0c6	0.0008542653
43	0xbed0e809	-0.4080203
44	0xbe2223d0	-0.15833974
45	0xbe13b71c	-0.1442532
46	0xbf3b4ffb	-0.73168916
47	0xbf002bc4	-0.5006678
48	0xbeb487ac	-0.3525976
49	0x3ed9c230	0.42530966
50	0x3eea2d3a	0.4573763
51	0x3ed93f3d	0.4243106
52	0xbe75a260	-0.23987722
53	0xbe39b62a	-0.18135896
54	0xbf1b36d2	-0.60630524
55	0x3c5bfbbe	0.013426719
56	0xbeb4b1ed	-0.35291997
57	0x3e9c1615	0.30485597
58	0x3e9fa277	0.31178638
59	0x3f2fd299	0.6868072
60	0x3ec4d40c	0.3844303
61	0x3f047cb3	0.51752776
62	0x3ea7da35	0.32783666
63	0xbe7e6ec1	-0.24846937
64	0x3eec47f5	0.4614865
65	0xbf0e0179	-0.55471
66	0x3e77325d	0.24140306
67	0x3c79e236	0.015251687
68	0x3f321af2	0.69572365
69	0xbde50187	-0.11181932
70	0xbeceb0dd	-0.4036931
71	0xbed2921e	-0.41127104
72	0xbf23e32d	-0.6401852
73	0xbeb81c13	-0.3595892
74	0xbe9d1cb4	-0.3068596
75	0x3e925d93	0.28587016
76	0xbdae6605	-0.085155524
77	0xbeac7faf	-0.33691165
78	0xbe8084c4	-0.25101292
79	0xbf02f849	-0.51160103
80	0x3eee7a44	0.46577656
81	0xbc1cf5ad	-0.009580058
82	0xbcd9f074	-0.026603915
83	0xbebbad29	-0.36655548
84	0xbea5815f	-0.32325265
85	0x3f114f0d	0.56761247
86	0x3e9e977e	0.30974954
87	0x3d77899c	0.06043397
88	0x3d67b4da	0.056568958
89	0xbedf20d8	-0.43579745
90	0x3eb51e4e	0.35374683
91	0xbe80a962	-0.2512923
92	0xbdfdcde2	-0.12392785
93	0xbee96916	-0.45587987
94	0x3cf9a2c6	0.030473124
95	0x3e6b2145	0.2296191
96	0xbf0e7dc4	-0.55660653
97	0xbec09c6e	-0.37619346
98	0xbf1f6ca3	-0.6227514
99	0xbd8f76b0	-0.0700506
100	0xbd3d9403	-0.046283733
101	0x3ecb9bc9	0.39767292
102	0x3ee61b33	0.44942626
103	0x3d5fb5a1	0.054616574
104	0xbf0c7cc4	-0.5487788
105	0x3eb7ab10	0.35872698
106	0xbe2fae2e	-0.17156288
107	0x3ed71b98	0.4201324
108	0x3d7a8a7d	0.06116723
109	0x3d5b78ea	0.05358211
110	0x3ec3c420	0.3823557
111	0x3b8588fc	0.0040751677
112	0x3e3abe4b	0.18236654
113	0xbeaecbc9	-0.3413985
114	0x3e9ed1e8	0.3101952
115	0x3dcd30a6	0.100190446
116	0x3eb65c4c	0.35617292
117	0xbe90022c	-0.28126657
118	0xbe5abd79	-0.2136134
119	0xbea78218	-0.3271644
120	0x3ea77bc2	0.32711607
121	0xbdbb1670	-0.09135139
122	0x3e8c920b	0.27455172
123	0xbefc9f58	-0.4934032
124	0x3e54f16a	0.20795217
125	0x3e595f87	0.21227847
126	0xbe070802	-0.13186648
127	0xbef1409b	-0.47119603
128	0xbd899bc4	-0.06719163
129	0xbe37e432	-0.17958143
130	0x3ee396a3	0.44450864
131	0xbe72625c	-0.23670334
132	0xbf0fdf2c	-0.5619991
133	0x3df9a87f	0.12190341
134	0xbe328649	-0.17434038
135	0x3d8c2141	0.0684228
136	0xbe29004a	-0.16504017
137	0x3ea15756	0.31511945
138	0xbecb303d	-0.3968524
139	0xbede680f	-0.43438765
140	0x3c41fd82	0.011840226
141	0xbdae69dc	-0.08516285
142	0x3eaff336	0.34365243
143	0x3dc8c809	0.09803779
144	0xbd9a4c33	-0.07534065
145	0x3e771efb	0.24132912
146	0x3eb631b3	0.35584792
147	0x3e70a959	0.23502101
148	0xbeb36a90	-0.35042238
149	0xbd6c2086	-0.057648204
150	0xbeb0c4c2	-0.34525114
151	0x3e9e45a4	0.30912507
152	0x3dd3b84c	0.10337886
153	0xbb6701b2	-0.0035248813
154	0xbebfd2c1	-0.3746548
155	0xbeb6887f	-0.35651013
156	0xbe30fc34	-0.17283708
157	0xbe5d0a56	-0.21585974
158	0xbbcb58a3	-0.0062056347
159	0xbeba7c39	-0.364229
160	0x3e2340d0	0.15942693
161	0x3ea99f84	0.33129513
162	0xbe1aab11	-0.15104319
163	0xbe3736d1	-0.17892005
164	0xbe68ce86	-0.22735032
165	0xbc9cb110	-0.019127399
166	0x3eafa3e7	0.34304735
167	0x3e2dafca	0.1696159
168	0x3e685830	0.22689891
169	0xbdf4153a	-0.11918111
170	0x3e8aec83	0.2713357
171	0x3ead87fd	0.33892813
172	0xbce5fa0b	-0.028073331
173	0x3f002c02	0.5006715
174	0xbe2c1d8e	-0.16808149
175	0x3ef8a0a9	0.48560074
176	0x3ebc9a2f	0.36836383
177	0x3e1fb92c	0.15597981
178	0xbe8b6429	-0.27224854
179	0x3d87bbb7	0.06627601
180	0x3e34ae7e	0.17644688
181	0x3ef47d4b	0.4775184
182	0xbdda892c	-0.10670695
183	0xbee03661	-0.43791488
184	0xbf024d0d	-0.5089882
185	0xbd1ea8f6	-0.038735352
186	0x3dcf9787	0.101363234
187	0xbe8be036	-0.27319497
188	0xbec09a06	-0.3761751
189	0xbf0db54f	-0.5535478
190	0x3e282c07	0.16423045
191	0xbca9e164	-0.020737357
192	0xbe679196	-0.2261413
193	0x3ea70249	0.3261893
194	0x3e2f2eac	0.17107648
195	0xbe53e910	-0.20694375
196	0xbdf6fb50	-0.12059653
197	0x3d81e557	0.06342571
198	0xbe93fe22	-0.28904825
199	0xbe1250b2	-0.14288595
200	0xbee83f5e	-0.45360845
201	0xbd33cf02	-0.04389859
202	0xbed6f0a9	-0.41980484
203	0x3ebb8985	0.36628357
204	0xbdfe1727	-0.1240676
205	0x3d5813f7	0.052753415
206	0xbe597e84	-0.21239668
207	0xbe7463ce	-0.23866197
208	0x3ebce981	0.368969
209	0x3ebb4a9f	0.3658037
210	0xbeea8c68	-0.45810246
211	0xbe6bc92a	-0.23025957
212	0x3e990ba2	0.29891688
213	0xbe7406f8	-0.23830783
214	0xbe4bf874	-0.19918996
215	0xbec67059	-0.3875759
216	0xbe0e0520	-0.13869143
217	0xbebdba88	-0.37056375
218	0x3cb69eb5	0.022292474
219	0xbec57b7e	-0.3857078
220	0xbc70085e	-0.014650432
221	0x3dc54051	0.09631408
222	0xbe13b465	-0.14424284
223	0xbde1597a	-0.110033944
224	0xbdf1b8ab	-0.11802801
225	0xbe4fadbe	-0.20281121
226	0xbdaf802d	-0.085693695
227	0x3e8a3671	0.2699466
228	0xbd77c9b2	-0.060495086
229	0x3e8d8062	0.2763701
230	0x3e9edc70	0.31027555
231	0xbdd72d78	-0.10506719
232	0x3e1faf08	0.15594113
233	0x3dcff05c	0.10153267
234	0x3e43c040	0.19116306
235	0x3df98021	0.12182642
236	0x3b9dfc3a	0.0048213275
237	0x3d04f03d	0.03245567
238	0xbdb61242	-0.08890201
239	0x3d5b0437	0.053470816
240	0xbe8c26e5	-0.27373424
241	0x3e27e77e	0.16396901
242	0xbd04c7d1	-0.032417122
243	0x3e698490	0.22804475
244	0xbe1f92f0	-0.15583396
245	0xbe10a52a	-0.14125505
246	0x3e2bde0c	0.16783923
247	0x3e98637d	0.29763404
248	0xbdc1d3e9	-0.09464247
249	0x3e7de5cc	0.24794692
250	0x3c966abe	0.018361446
251	0xbeae5d21	-0.34055427
252	0x3e9205ac	0.28519952
253	0xbb5b7ffa	-0.0033493028
254	0xbe9dc1a5	-0.30811802
255	0xbea85f41	-0.32885173

36 f4 [8]
0	0x3e47c3cc	0.19508284
1	0x3f716c7b	0.94306153
2	0x3fef69cc	1.8704162
3	0xbfdd47ab	-1.7287496
4	0x3f80f193	1.0073723
5	0x3ef25793	0.4733244
6	0x3e66c670	0.22536635
7	0x3f9fdf87	1.249009

38 f4 [16, 8, 3, 3]
0	0xbe405a1b	-0.18784373
1	0x3f957723	1.1676983
2	0xbf0584bb	-0.52155656
3	0x3f094f42	0.5363656
4	0x3e28abe9	0.16471829
5	0xbd975fdb	-0.0739133
6	0x3e5ac887	0.21365558
7	0x3f69a2cc	0.91264033
8	0x3f053793	0.52037925
9	0xbf451026	-0.76977766
10	0xbf8a840a	-1.0821545
11	0xbe2287fc	-0.15872186
12	0x3f3b094e	0.7306107
13	0xbf83e060	-1.0302849
14	0xbf702d24	-0.9381888
15	0xbf5fac85	-0.8737262
16	0xbfad83c3	-1.3555835
17	0x3f9a3b21	1.2049295
18	0x3e5ecbd4	0.21757442
19	0xbc17e011	-0.00926973
20	0xbf87dda0	-1.061451
21	0xbdf233ae	-0.11826263
22	0xbf871fd6	-1.055659
23	0xbdc4d3e0	-0.096107244
24	0xbdaeb908	-0.08531386
25	0x3eca8cf9	0.3956068
26	0x3f3078d4	0.6893437
27	0x3f604460	0.8760433
28	0x3f835889	1.0261394
29	0xbfbed42a	-1.4908497
30	0x3eb11188	0.34583688
31	0xbff14e79	-1.8852073
32	0xbf8cdba0	-1.1004524
33	0xbf7b94d2	-0.98273957
34	0xbf062bda	-0.5241066
35	0xbea37685	-0.3192636
36	0x3eacf0ab	0.33777365
37	0x3f6c9a38	0.9242282
38	0x3e756d7d	0.23967548
39	0xbf37c8aa	-0.71790564
40	0xbf676e25	-0.9040244
41	0x3ea9c4bd	0.33157912
42	0xbc7990f1	-0.015232311
43	0xbef1237e	-0.4709739
44	0xbfb88614	-1.4415917
45	0xbeb9e838	-0.3630998
46	0x3fa8a745	1.3176047
47	0x3e7c5f6e	0.24645779
48	0xbf6ada33	-0.91739196
49	0xbf76debf	-0.96433634
50	0xbf9e2747	-1.2355736
51	0xbe9d7ef9	-0.30760935
52	0xbec2ec3f	-0.38070866
53	0x3f3f132e	0.7463864
54	0x3f790637	0.9727511
55	0x3f1d0395	0.6133359
56	0xbf693dd2	-0.91109955
57	0x3f2d4bf5	0.67694026
58	0x3f916bb0	1.1360989
59	0xbf228d80	-0.6349716
60	0x3f021a04	0.50820947
61	0x3f89948f	1.0748461
62	0xbf3b21fd	-0.73098737
63	0xbe9298f2	-0.28632313
64	0xbf0ff5d1	-0.5623446
65	0x3f3f6667	0.7476563
66	0x3eca0b35	0.39461675
67	0xbf24572e	-0.64195526
68	0xbf4e5432	-0.8059722
69	0xbed45187	-0.4146845
70	0xbf16f4b3	-0.5896713
71	0xbef0cc2c	-0.4703077
72	0x3f7df754	0.9920552
73	0x3f515c25	0.81781226
74	0x3f36bf40	0.71385574
75	0x3e26e704	0.16299063
76	0x3f3733d7	0.71563476
77	0xbdb7ecbd	-0.08980701
78	0xbf3f589b	-0.74744576
79	0xbebd2884	-0.36944973
80	0x3eaadfca	0.33373863
81	0x3f268cb2	0.65058434
82	0xbd10c8ad	-0.03534763
83	0xbf42e752	-0.76134217
84	0xbf26ecf0	-0.6520529
85	0x3e0f3637	0.13985525
86	0xbeaa77a5	-0.33294407
87	0x3f1cd936	0.6126894
88	0xbd3981c9	-0.04528979
89	0xbd7bc574	-0.061467603
90	0xbf11d6ec	-0.5696857
91	0x3e2e34cb	0.17012326
92	0xbf5a0e14	-0.8517773
93	0x3eb94482	0.3618508
94	0x3f8a2aa8	1.0794268
95	0x3fb6a9c2	1.4270556
96	0xbf2256dc	-0.63413787
97	0x3f6cee9a	0.9255158
98	0xbe639091	-0.22223116
99	0xbd79bb48	-0.06096962
100	0xbf1aae03	-0.6042177
101	0x3f5dd09f	0.86646456
102	0x3f39ead1	0.72623926
103	0xbe91bf71	-0.2846637
104	0x3f05862f	0.5215787
105	0x3f2b6b69	0.6696077
106	0x3e053477	0.13008295
107	0x3ebc731f	0.3680658
108	0xbebfa6ad	-0.3743185
109	0xbe34bb0d	-0.17649479
110	0x3efd8546	0.49515742
111	0x3e88f798	0.267514
112	0x3d0da7ce	0.03458386
113	0x3f3f3295	0.7468656
114	0x3f34ec88	0.7067342
115	0x3dd0445e	0.1016929
116	0xbf359e7b	-0.70944947
117	0x3e9246fa	0.28569776
118	0xbec0f099	-0.3768356
119	0xbdb5fefe	-0.088865265
120	0xbf2bb936	-0.67079484
121	0xbeb665ae	-0.3562445
122	0xbf6b03dc	-0.91802764
123	0xbe9e7a62	-0.30952746
124	0xbea2f506	-0.31827563
125	0x3e9cd488	0.30630898
126	0xbf0a7921	-0.5409108
127	0x3f326966	0.69692075
128	0x3f11dd61	0.5697842
129	0x3f28eb97	0.6598448
130	0x3f520a2f	0.8204679
131	0xbd0e1320	-0.034686208
132	0x3edcd559	0.4313152
133	0xbd8977e8	-0.067123234
134	0x3f4f3e8c	0.80954814
135	0xbdd25775	-0.10270587
136	0x3cfb3c1d	0.030668313
137	0x3ebf5b58	0.37374377
138	0xbedabe02	-0.4272309
139	0xbed06ff5	-0.40710416
140	0x3f5b0b99	0.8556457
141	0xbe5f8183	-0.21826749
142	0xbec34a40	-0.38142586
143	0x3e9dd00e	0.30822796
144	0xbf0bc60a	-0.5459906
145	0x3d766306	0.06015303
146	0x3f30c72c	0.6905391
147	0xbfc0e8bc	-1.5071025
148	0xbd945717	-0.072431736
149	0xbf2d8e9f	-0.6779575
150	0x3ca3fbbc	0.020017497
151	0x3f9f5e3a	1.2450631
152	0x3eb187a8	0.3467381
153	0xbf5df7ab	-0.86706036
154	0xbef1b59a	-0.47208863
155	0x3e9675d5	0.29386774
156	0x3cb9ac4d	0.022665167
157	0x3e0427ca	0.12905803
158	0xbf670c16	-0.90252817
159	0x3df9885f	0.12184214
160	0x3f6d2a33	0.92642516
161	0xbeb3849d	-0.35062113
162	0x3f8a0ae7	1.0784577
163	0xbe158b43	-0.14603905
164	0x3e4ead65	0.20183332
165	0xbf8ce255	-1.1006571
166	0xbf928ecc	-1.1449828
167	0x3da74897	0.08168142
168	0x3e346f22	0.17620519
169	0x3eefe110	0.46851397
170	0xbcf82b7c	-0.030294172
171	0x3ebdd7f4	0.37078822
172	0x3e1df320	0.15424776
173	0xbec8a51a	-0.39188462
174	0xbe40871a	-0.18801537
175	0xbf2f029b	-0.6836335
176	0xbef0e846	-0.4705221
177	0xbc35e0d2	-0.011100965
178	0x3f185bfe	0.5951537
179	0x3eb7a9f6	0.35871857
180	0xbef85787	-0.48504278
181	0xbe9b52ed	-0.30336705
182	0x3e81d5a1	0.25358298
183	0x3ea1ff87	0.31640264
184	0xbfb34878	-1.4006491
185	0x3ec4e6d0	0.38457346
186	0x3f036881	0.51331335
187	0x3f3ead16	0.7448286
188	0x3e3a403b	0.18188564
189	0xbeba9904	-0.36444867
190	0x3e11f7df	0.14254712
191	0x3f9010b7	1.1255101
192	0xbeeb4254	-0.45949042
193	0x3e93b030	0.28845358
194	0xbf071dc7	-0.5277981
195	0x3e6f6313	0.23377638
196	0xbe379a56	-0.17929968
197	0xbef00409	-0.4687808
198	0xbd3e8663	-0.04651488
199	0x3df8ae6b	0.121426426
200	0xbf4001eb	-0.75002927
201	0x3e7f6bdd	0.2494349
202	0x3ea8f1de	0.3299703
203	0x3e6697d9	0.22518863
204	0xbe38b924	-0.18039376
205	0xbebae5d1	-0.3650346
206	0x3e42ee76	0.19036278
207	0x3e04a5d7	0.12953888
208	0x3f559b6b	0.83440274
209	0xbf5c664f	-0.8609361
210	0x3fa20fd7	1.2661084
211	0x40125f92	2.2870831
212	0xbef4d3f4	-0.47817957
213	0x3ea40340	0.3203373
214	0xbf9707f2	-1.17993
215	0xbf37f8d5	-0.7186406
216	0xbe9c2c08	-0.30502343
217	0x3dd50a48	0.104023516
218	0xbf44b155	-0.7683309
219	0x3f372a6f	0.71549124
220	0xbf1fba72	-0.6239387
221	0xbf6ca241	-0.9243508
222	0x3daf7082	0.08566381
223	0xbf1bcd93	-0.60860556
224	0xbf8c14dc	-1.0943866
225	0x3ded9308	0.116003096
226	0x3eac5e4d	0.33665696
227	0xbe5b2995	-0.21402581
228	0x3e8815f1	0.2657924
229	0x3e3b0e6d	0.18267222
230	0x3f226f39	0.6345096
231	0xbe30a52a	-0.17250505
232	0x3ed5dda8	0.41770673
233	0x3e252ef6	0.16131195
234	0x3f326f96	0.69701517
235	0x3f5f7e52	0.87302125
236	0x3eff3b28	0.4984982
237	0x3f0a4461	0.5401059
238	0xbf1e72ab	-0.6189372
239	0xbef4e023	-0.47827253
240	0xbf2858f1	-0.65760714
241	0xbf63ff1b	-0.89061135
242	0xbf958f9c	-1.1684451
243	0x3e896e76	0.26842088
244	0xbe813beb	-0.25241026
245	0x3db4e65d	0.08833001
246	0xbe564c48	-0.20927536
247	0xbe37e36f	-0.17957853
248	0x3ed795af	0.42106387
249	0xbf85057b	-1.0392298
250	0xbf18034c	-0.5938003
251	0xbea57d47	-0.32322142
252	0xbf34576e	-0.7044591
253	0x3ef2a83e	0.47393984
254	0x3f001aa9	0.5004068
255	0x3f7b3ec9	0.9814268

39 f4 [16]
0	0x408a764d	4.326941
1	0xc0273685	-2.6127026
2	0x3eda574e	0.42644733
3	0x405f3f12	3.4882245
4	0x40133d81	2.300629
5	0x3fcc1c52	1.5946143
6	0x3fcc31fb	1.5952753
7	0x3f10111d	0.5627611
8	0x3ea9a958	0.33137012
9	0xbf7f6cc2	-0.99775326
10	0x406dc927	3.7154024
11	0xbf94e0d8	-1.1631117
12	0x3f988fa6	1.1918838
13	0xc0579a08	-3.3687763
14	0x3ed93a18	0.42427135
15	0x3ed06034	0.40698397

fc.0.bias f4 [524]
0	0xbcbb43b8	-0.02285944
1	0x3c18f1e6	0.009335017
2	0x3db2a936	0.08723681
3	0x3bb4740d	0.0055069984
4	0x3d65a987	0.056069877
5	0x3d68bed4	0.056822613
6	0xbcdf81e4	-0.027283616
7	0x3dd22466	0.10260849
8	0x3dafcf60	0.085844755
9	0xba39c40d	-0.0007086404
10	0xbcd60fad	-0.026130522
11	0x3cb59f25	0.022170613
12	0x3db37e2f	0.08764302
13	0x3dd27401	0.10276032
14	0x3dcaba88	0.09898859
15	0x3d321d53	0.043484997
16	0x3b2d2502	0.0026419763
17	0x3d1b35e6	0.0378932
18	0x3dce09df	0.100604765
19	0x3dedcd08	0.11611372
20	0x3daca559	0.08429975
21	0x3dfe776c	0.12425122
22	0x3cab28ef	0.020893542
23	0x3d7e2b68	0.062053114
24	0x3c154088	0.009109624
25	0xbd33a513	-0.0438586
26	0x3de5d973	0.11223116
27	0x3d98830e	0.07446872
28	0x3cfba96b	0.030720433
29	0x3e0d2d91	0.13786913
30	0xbd217e9f	-0.039427396
31	0xb9db56d2	-0.0004183562
32	0xbd182669	-0.037146006
33	0x3c0221f7	0.007942668
34	0x3d5312ea	0.05153171
35	0x3cfa4685	0.030551204
36	0x3d4c9919	0.049950693
37	0x3e09ad2e	0.13444969
38	0xbcd12b5c	-0.02553337
39	0xbd61deaf	-0.05514401
40	0xbca90ca3	-0.020635908
41	0xbc868272	-0.016419623
42	0xbc42f067	-0.011898137
43	0x3c42a5ea	0.011880377
44	0x3da1ec44	0.07906392
45	0x3cca81f4	0.02472017
46	0x3cee2335	0.029069522
47	0x3d703ad8	0.058649868
48	0x3cda6605	0.026659975
49	0x3dd93b1f	0.106069796
50	0xbc6159a2	-0.01375428
51	0x3d8db285	0.069188155
52	0x3d2cdf03	0.042204868
53	0x3c45deac	0.012077015
54	0x3dcadd97	0.09905546
55	0x3d57de9d	0.052702535
56	0x3da563e2	0.08075692
57	0x3dd40f87	0.10354524
58	0x3db327f9	0.087478586
59	0xbd350aaf	-0.04419964
60	0x3be4da25	0.0069840127
61	0x3dbb6aea	0.091512516
62	0xbc9f3daa	-0.019438583
63	0x3d7884f3	0.060673665
64	0x3da4c22d	0.080448486
65	0x3d26059c	0.040532693
66	0x3c9d6e94	0.019217767
67	0xbd2f4a14	-0.042795256
68	0x3c00cdb4	0.007861543
69	0x3d9cae76	0.07650463
70	0xbb1c1394	-0.002381538
71	0x3ddec5c9	0.10877568
72	0xbb7bbcd4	-0.003841211
73	0x3cdafdea	0.026732404
74	0x3ba8b7e7	0.005148876
75	0x3dd9695d	0.106157996
76	0x3cfb6965	0.030689904
77	0xbcfd7df8	-0.030943856
78	0x3d7c86b6	0.061651908
79	0xbd9bcb39	-0.07607121
80	0x3da244fe	0.079233155
81	0x3de3c6e1	0.111219175
82	0x3d7ad2ed	0.06123631
83	0xbd51dedb	-0.051237922
84	0xbc4ff92d	-0.0126936855
85	0x3dcdb2e7	0.100438885
86	0xbcd8df90	-0.02647379
87	0x3da316ea	0.07963355
88	0x3df0fa25	0.11766461
89	0x3d27f295	0.04100283
90	0x3d21ab8a	0.039470233
91	0xbb58ed07	-0.0033100264
92	0x3d8a68a7	0.06758242
93	0xbcb72313	-0.022355592
94	0x3beafa2d	0.0071709366
95	0xbacb1b44	-0.0015495797
96	0x3bca607c	0.0061760526
97	0xbce3cf78	-0.02780889
98	0xbd8c52bb	-0.06851717
99	0x3d9a75c0	0.0754199
100	0xbccfdcee	-0.025373902
101	0x3dddc98c	0.10829458
102	0xbb0ea348	-0.0021764804
103	0x3dad89d8	0.08473557
104	0x3d603fc9	0.05474833
105	0x3dea575b	0.11442443
106	0xbd3f2381	-0.04666472
107	0x3d9b6969	0.07588465
108	0xbcb0487d	-0.02151894
109	0x3d9f4011	0.077758916
110	0x3db1d7e9	0.0868376
111	0xbcb6ac73	-0.022299027
112	0x3d74db40	0.059779406
113	0x3e03fa4c	0.1288845
114	0xbd1271e3	-0.035753142
115	0xbd5fb65f	-0.054617282
116	0x3d16f113	0.036851
117	0x3dbb8e7b	0.09158035
118	0xbbd4d82d	-0.0064954967
119	0xbd79adcb	-0.060956758
120	0x3c09d695	0.008412977
121	0x3e052492	0.13002232
122	0xbda92541	-0.08259059
123	0xbda54f04	-0.08071712
124	0xbd0b5ba6	-0.03402295
125	0xbd4ff784	-0.05077316
126	0x3cb80324	0.022462435
127	0x3db3f366	0.08786659
128	0x3d0c0935	0.034188468
129	0x3d1c9596	0.038228594
130	0xbbd23668	-0.006415177
131	0x3d039841	0.032127623
132	0x3d4ca7df	0.04996478
133	0x3dfa9702	0.12235834
134	0x3ca9e279	0.020737873
135	0xbcb62078	-0.02223228
136	0x3d888c82	0.06667425
137	0x3d83c22f	0.06433522
138	0x3b0b2b0a	0.002123537
139	0xbd3424b9	-0.043980334
140	0x3cde7f8d	0.02716043
141	0x3d570deb	0.052503508
142	0x3d292d38	0.04130289
143	0xbd904699	-0.070447154
144	0xbd3d47b6	-0.046210967
145	0x3de7edb4	0.11324635
146	0xbcf6a5a0	-0.030108273
147	0x3d5fcf4f	0.054641064
148	0x3dbbbf93	0.09167399
149	0x3c90b517	0.017664475
150	0x3dcfb642	0.10142185
151	0xbb4be77a	-0.0031113313
152	0x3d3d7b65	0.046260256
153	0x3bef26c4	0.0072983224
154	0x3dd387be	0.10328625
155	0xbcc00485	-0.023439655
156	0x3dd4119f	0.103549235
157	0xbd2d83b7	-0.04236194
158	0x3cb09804	0.021556862
159	0x3da047eb	0.07826217
160	0x3db5c60c	0.08875665
161	0x3c88d42b	0.016702732
162	0x3deccf53	0.115629815
163	0x3d33f7df	0.04393756
164	0x3d0b86d2	0.03406412
165	0x3ca23ec1	0.019805314
166	0xbd2c0cb6	-0.04200431
167	0x3da590a3	0.08084228
168	0xbcfdfc0b	-0.031003973
169	0x3cd127f4	0.025531746
170	0x3c3dd743	0.011586967
171	0x3db08e66	0.0862091
172	0x3d147e70	0.036253393
173	0x3c8e80d7	0.01739542
174	0x3d5e1fc4	0.054229513
175	0x3d8af04b	0.067841135
176	0x3cbce83a	0.023059953
177	0xbd1ffb74	-0.039058164
178	0xbbff1aee	-0.0077851927
179	0x3d138c45	0.036022443
180	0x3c6498a4	0.013952408
181	0x3d703adc	0.058649883
182	0x3dc090bf	0.09402608
183	0x3deadec7	0.11468273
184	0xbdc7cc71	-0.09755791
185	0x3d8d259a	0.068919376
186	0xbd5c285c	-0.053749427
187	0x3ddfe309	0.109319754
188	0x3d991fe1	0.074767835
189	0x3e031824	0.12802178
190	0x3db7d8f2	0.08976926
191	0xbccec922	-0.025242392
192	0x3dde557d	0.10856149
193	0x3dee8342	0.11646129
194	0x3d8a47af	0.06751954
195	0x3b6ae632	0.0035842774
196	0x3c1a8418	0.009430908
197	0x3d8ca2da	0.06866999
198	0x3d9c11e6	0.07620601
199	0x3d113bc1	0.035457376
200	0x3d465c0e	0.048427634
201	0x3d8bf4d2	0.06833805
202	0x3de7144e	0.1128317
203	0x3d9b57b9	0.07585091
204	0x3db28c51	0.087181695
205	0x3df23a19	0.118274875
206	0x3d98d971	0.07463349
207	0x3c42d538	0.011891656
208	0x3dac8101	0.08423043
209	0xbd2a3ae1	-0.041560058
210	0x3cb8bf5e	0.022552188
211	0x3d8ab8a2	0.06773497
212	0x3ac9a933	0.0015385508
213	0xbd1ff98a	-0.03905634
214	0x3dec2783	0.11530974
215	0x3e082e34	0.13298875
216	0x3d9edff5	0.0775756
217	0x3a8d778f	0.0010793078
218	0x3d35be52	0.044370957
219	0x3d931195	0.07181088
220	0xbc50dc82	-0.012747886
221	0xbc376564	-0.011193607
222	0x3d56a7b4	0.052406028
223	0x3dadea12	0.08491911
224	0x3c74532a	0.014912406
225	0xbd979612	-0.074016705
226	0xbb946dcb	-0.00452969
227	0x3dbcc070	0.09216392
228	0x3d8026db	0.06257411
229	0x3d4c4ac0	0.049875975
230	0x3dacc394	0.08435741
231	0x3db2f55f	0.08738207
232	0xbd3a01f0	-0.045412004
233	0x3d83e842	0.06440784
234	0xbc60bd56	-0.013717016
235	0xbbc76695	-0.006085227
236	0x3bd76909	0.0065738005
237	0x3e0a9867	0.135347
238	0x3d0b20b3	0.03396673
239	0x3d9344bf	0.07190847
240	0xbd0dbe9b	-0.034605604
241	0x3de80b3e	0.11330269
242	0x3da381d2	0.07983746
243	0x3d9b099e	0.07570194
244	0xbcea0efa	-0.028571595
245	0xbd81027f	-0.06299304
246	0x3dd7706f	0.10519492
247	0x3dcca33d	0.09992073
248	0x3d89ae65	0.06722716
249	0xbb57ab05	-0.0032908332
250	0xbd4f3c17	-0.050594416
251	0x3bdec63e	0.0067985347
252	0xbd5252c6	-0.05134847
253	0x3d22bb2d	0.039729286
254	0xbc25a336	-0.010109713
255	0x3d9bb92f	0.0760368

fc.0.weight f4 [524, 64]
0	0x3e3ede75	0.18639548
1	0xbcad0e78	-0.021125063
2	0x3e71392b	0.23556964
3	0x3dc38389	0.09546573
4	0x3cd39a3b	0.025830379
5	0x3e1055cf	0.14095233
6	0xbdb3858e	-0.08765708
7	0x3dff296b	0.12459072
8	0xbdd12fc5	-0.102141894
9	0xbe049c9e	-0.1295037
10	0x3d1be11e	0.038056485
11	0x3e2da00d	0.16955586
12	0x3bf2de95	0.0074117878
13	0xbd98baef	-0.0745753
14	0xbc1dc4b3	-0.009629416
15	0xbc1dd7c1	-0.009633959
16	0xbc7742d7	-0.015091619
17	0x3d982d6e	0.0743054
18	0xbdbe7cf7	-0.09301179
19	0x3ca5e984	0.02025295
20	0xbc6faa79	-0.014628046
21	0x3d92a29f	0.07159924
22	0xbd8b7274	-0.068089396
23	0x3d91a2ed	0.07111154
24	0xbd4db668	-0.050222784
25	0x3c6163d2	0.013756709
26	0x3bb0a3b9	0.005390611
27	0x3d483d8f	0.04888683
28	0xbcd64cbd	-0.026159639
29	0x3dd6a872	0.10481347
30	0x3d12a23b	0.035799246
31	0x3d52f3c8	0.05150202
32	0x3e1c3265	0.15253599
33	0x3e10a249	0.14124407
34	0xbc09a021	-0.008399994
35	0x3d2b749b	0.04185925
36	0x3c55268c	0.013009679
37	0x3e10b09a	0.14129868
38	0x3e014ec1	0.12627698
39	0xbd91fb73	-0.07128038
40	0xbcb84e31	-0.022498222
41	0xbddacb9d	-0.106833674
42	0xbd296e9b	-0.041365247
43	0xbd4e65a1	-0.05038989
44	0xbca7e64d	-0.020495558
45	0x3e141f7b	0.14465134
46	0x3dec384e	0.11534177
47	0xbdb29b90	-0.087210774
48	0xbde98a4c	-0.11403331
49	0x3d3a24cd	0.045445252
50	0x3a7ee3d0	0.0009723278
51	0x3e2155fc	0.15755457
52	0x3d101f38	0.035186023
53	0xbc3ff2fe	-0.011715649
54	0x3cd31fef	0.025772063
55	0x3c57ee4c	0.013179373
56	0x3c64e8aa	0.013971487
57	0x3d9850fe	0.07437323
58	0x3d69fb2a	0.057124294
59	0xbe4acc6a	-0.1980454
60	0xbd6322c8	-0.05545309
61	0xbcb09218	-0.021554038
62	0xbd8934c3	-0.066995166
63	0xbd2b2475	-0.041782815
64	0xbcbbdc95	-0.02293233
65	0x3d2f636a	0.042819418
66	0x3ce92c5e	0.028463539
67	0xbc4ce2f1	-0.012505279
68	0x3da33bb8	0.07970375
69	0x3db38dbd	0.08767269
70	0xbd4626a8	-0.04837671
71	0x3d69cf50	0.057082474
72	0x3d5717e4	0.05251302
73	0xbd547960	-0.051873565
74	0x3d3fee12	0.0468579
75	0x3e3aa7f5	0.18228133
76	0x3d9c1734	0.07621613
77	0xbd05a31e	-0.032626264
78	0x3c8d17b7	0.017223222
79	0xbe11d6b3	-0.14242058
80	0xbc6908a5	-0.014223252
81	0x3d8dc50d	0.0692235
82	0xbdf235a4	-0.118266374
83	0xbc81f4d2	-0.01586381
84	0x3da629f9	0.081134744
85	0xbdba2485	-0.09088997
86	0x3ca0d359	0.019632028
87	0xbe3abacb	-0.18235318
88	0x3bc26b2b	0.0059331856
89	0xbd9c37d7	-0.07627838
90	0x3d736610	0.059423506
91	0xbd94ad97	-0.07259672
92	0x3d449d14	0.048001364
93	0x3dedad18	0.11605281
94	0x3d96adde	0.07357381
95	0x3e195078	0.14972103
96	0x3e290f07	0.16509639
97	0xbe2a17a2	-0.16610578
98	0x3e2cb460	0.16865683
99	0x3e1b9073	0.15191822
100	0xbe28941c	-0.16462749
101	0x3dec7c56	0.11547153
102	0x3d930e04	0.07180408
103	0x3e2359fe	0.15952298
104	0x3d7ac889	0.0612264
105	0xbacff00d	-0.0015864387
106	0x3dd659c8	0.10466343
107	0xbde7e596	-0.11323087
108	0xbe182164	-0.14856488
109	0x3e264bc3	0.16239838
110	0xbe3bf460	-0.1835494
111	0x3d701c7f	0.058620926
112	0xbdcbeb4b	-0.09956988
113	0xbd3fd405	-0.046833057
114	0xbb4210a9	-0.002961198
115	0xbd973c84	-0.07384589
116	0x3cfbe0ec	0.0307469
117	0xbc71c856	-0.0147572365
118	0xbe2d9c2a	-0.16954103
119	0x3dd67502	0.10471536
120	0x3e283f36	0.16430363
121	0xbcddf754	-0.027095474
122	0x3da01aaf	0.078175895
123	0xbce9a8ed	-0.028522933
124	0x3d545189	0.05183557
125	0x3e0d0bd1	0.13774039
126	0x3dcb87bb	0.09937998
127	0x3d9eaf77	0.07748311
128	0x3c6d3144	0.014477078
129	0xbd9b60da	-0.07586832
130	0x3d35916c	0.04432814
131	0x3dab5f21	0.08367754
132	0x3d0f222a	0.03494469
133	0xbd0b3343	-0.033984434
134	0x3d9713ad	0.073768
135	0x3e13f387	0.14448367
136	0x3d7a5db2	0.06112451
137	0x3b9d8c44	0.0048079807
138	0xbd05e777	-0.032691445
139	0xbdbab706	-0.0911694
140	0x3b53b1a6	0.0032301932
141	0xbdd6f32d	-0.10495601
142	0xbc9243ac	-0.017854534
143	0xbdb88868	-0.090103924
144	0x3d365d4f	0.04452258
145	0x3b1ca4d1	0.002390195
146	0xbdb39e21	-0.08770395
147	0x3dedf953	0.116198204
148	0xbd64291d	-0.05570327
149	0x3d9cb58c	0.07651815
150	0xbe22cefa	-0.15899268
151	0xbccd7f83	-0.025085216
152	0xbcede904	-0.029041775
153	0x3da8b407	0.082374625
154	0x3cdd6552	0.027025852
155	0x3d120d02	0.035656936
156	0x3d1a5f4d	0.037688542
157	0xbd774565	-0.060368914
158	0x3c52592e	0.012838645
159	0x3e014223	0.12622885
160	0xbcf469a8	-0.029835537
161	0x3d8f8895	0.07008473
162	0x3df4147a	0.11917968
163	0x3de61394	0.11234203
164	0x3e0d2500	0.13783646
165	0xbd8d5e09	-0.069027014
166	0x3df9cfd4	0.12197843
167	0x3df796ec	0.12089333
168	0xbce9f924	-0.028561182
169	0xbc55bbe1	-0.013045282
170	0xbe12ba24	-0.1432882
171	0xbd6f895e	-0.058480613
172	0x3d69cae0	0.057078242
173	0xbc15c4a7	-0.009141124
174	0x3e270489	0.16310324
175	0x3db41f81	0.087950714
176	0x3d6fbe6b	0.058531206
177	0x3dced181	0.100985534
178	0xbdbca5f3	-0.0921134
179	0x3dacd193	0.084384106
180	0x3ba4671c	0.0050171744
181	0xbc827b15	-0.01592783
182	0x3e24be9c	0.16088337
183	0x3d9498c4	0.072557
184	0xbd051832	-0.032493778
185	0x3d0e71c9	0.034776483
186	0xbe0dd9a8	-0.1385256
187	0xbd89e0c5	-0.067323245
188	0xbde10ecd	-0.10989151
189	0xbcca332f	-0.02468261
190	0x3d68bb40	0.0568192
191	0x3dcc6034	0.09979287
192	0xbd186437	-0.037204947
193	0x3dba83fd	0.09107206
194	0xbe0dcd2a	-0.13847795
195	0x3d03758e	0.03209453
196	0x3d2988bd	0.04139017
197	0xbd41425f	-0.047182437
198	0x3d14ecb7	0.03635856
199	0xbdf5f4e4	-0.120096
200	0x3e22c02f	0.15893625
201	0x3cf80168	0.030274108
202	0xbc5df4f5	-0.013547172
203	0x3cb93bc2	0.022611503
204	0xbd5186e7	-0.051154044
205	0x3d72c755	0.05927213
206	0xbcfad19e	-0.030617531
207	0x3da48cea	0.0803469
208	0xbd03dcf8	-0.032193154
209	0x3c0fdfb9	0.008781367
210	0x3c3a97bd	0.011388716
211	0x3dacbf6f	0.084349506
212	0xbdcf6bf4	-0.10128012
213	0xbd575dc6	-0.052579664
214	0x3e1762fc	0.14783853
215	0x3e05d879	0.13070859
216	0xbde70cb1	-0.112817176
217	0x3c91a91e	0.017780837
218	0x3e0816b9	0.13289918
219	0x3d2a5f20	0.041594625
220	0xbd8e9907	-0.069627814
221	0x3cb2b604	0.021815307
222	0xbd11b7f7	-0.035575833
223	0x3dd1ee7d	0.10250566
224	0xbc886c60	-0.01665324
225	0x3d836aea	0.064168766
226	0xbd814721	-0.06312395
227	0x3d004dde	0.03132426
228	0xbd8dcb8a	-0.069235876
229	0x3df58ab3	0.119893454
230	0xbd1d4482	-0.038395412
231	0x3cfeffee	0.031127896
232	0x3cc2f72a	0.023799498
233	0x3d352203	0.04422189
234	0xbdb35046	-0.08755545
235	0x3bc6525a	0.0060522975
236	0xbc1a52e7	-0.0094191795
237	0xbd2370d6	-0.03990253
238	0xbe231fa4	-0.15930039
239	0x3db48b42	0.08815624
240	0x3dada906	0.08479504
241	0xbdcb5497	-0.099282436
242	0x3d92fae6	0.07176761
243	0xbda6e67f	-0.081494324
244	0xbcf51b5a	-0.029920269
245	0x3d22ced7	0.03974804
246	0x3c243956	0.010023436
247	0x3db42831	0.087967284
248	0xbc668af6	-0.014071217
249	0x3b2e21e7	0.00265705
250	0x3d2bb8a4	0.041924134
251	0x3e179e16	0.14806399
252	0x3ddd5607	0.10807424
253	0xbdd8edd1	-0.10592235
254	0x3c4eea8c	0.0126291625
255	0x3df7d916	0.12101953

fc.3.bias f4 [262]
0	0xbc6ec0fc	-0.014572378
1	0xbd88dd15	-0.06682793
2	0xbd3f012d	-0.04663198
3	0xbc6e5a00	-0.014547825
4	0xbc79bea8	-0.01524321
5	0xbc26e1c2	-0.010185661
6	0x3c7a521c	0.015278365
7	0xbc9f1e2a	-0.019423563
8	0xbd0e8e40	-0.03480363
9	0x3ba8e63c	0.005154399
10	0xbc49fa90	-0.012327805
11	0xbd182348	-0.03714302
12	0x3c62b8fc	0.013838049
13	0xbcaf9dd8	-0.02143757
14	0xbc084731	-0.008317755
15	0xbc4f3f77	-0.012649409
16	0x3c26663b	0.01015621
17	0xb99b16a9	-0.00029580787
18	0xbc8a75ff	-0.016901968
19	0xbb400ea5	-0.0029305604
20	0xbd09694c	-0.033547685
21	0xbc190b6a	-0.0093411
22	0xbc758fc5	-0.014987891
23	0x3cb74ddb	0.022375992
24	0xbccbd5b2	-0.024882171
25	0x3c7ab249	0.015301296
26	0xbade0daa	-0.0016941328
27	0x3ce373b9	0.027765142
28	0xbd25cb6d	-0.040477205
29	0x3b57027e	0.0032807882
30	0xbd3dbc18	-0.04632196
31	0xbbd70274	-0.0065615717
32	0x3c9234e2	0.017847482
33	0x3b681cf4	0.0035417648
34	0xbb2433b3	-0.002505523
35	0xbc318c3f	-0.01083666
36	0xbc9aad38	-0.018881425
37	0x3c94143f	0.01807606
38	0x3b915f35	0.0044363984
39	0x3cfc811b	0.030823281
40	0xbceba62d	-0.028765762
41	0xbc8d6f5e	-0.017265018
42	0xbd2e7d23	-0.04259981
43	0xbd5aff9e	-0.05346643
44	0xba80f729	-0.0009839284
45	0x3ce40c08	0.027837768
46	0xbc7794da	-0.015111173
47	0x3bc7d150	0.00609795
48	0x3c505bd3	0.012717205
49	0xbc9c0837	-0.019046886
50	0xbb39c616	-0.0028346828
51	0xbd05757f	-0.032582756
52	0xbd043613	-0.03227813
53	0xbd1cbd83	-0.03826667
54	0xbaf0b387	-0.001836405
55	0x3d822402	0.06354524
56	0x3bc95dfb	0.0061452365
57	0xbc026a78	-0.007959954
58	0x3c42e3e9	0.011895158
59	0xbc5fa51b	-0.013650204
60	0xbcbf48ab	-0.02335008
61	0xbcde06e8	-0.027102903
62	0xbc1ce7af	-0.009576722
63	0x3b323ceb	0.0027196954
64	0xbc8522ad	-0.016251886
65	0x3c0ec6a4	0.008714352
66	0x3d15c0e1	0.036560897
67	0xbcd2751f	-0.025690613
68	0xbd583b9a	-0.052791215
69	0xbcdc75ef	-0.026911704
70	0xbcc9aa01	-0.024617197
71	0xbb829baf	-0.003985844
72	0xbd381d60	-0.04494989
73	0xbd1c558a	-0.038167514
74	0xbc9c2740	-0.019061685
75	0xbd6cd6a2	-0.057821877
76	0x3c05ffea	0.00817869
77	0xbbe56e2a	-0.007001658
78	0xbcb87f5d	-0.022521669
79	0x3ba5bc0b	0.005057817
80	0xbd4ff581	-0.05077124
81	0xbd5e36fd	-0.05425166
82	0xb904e17e	-0.00012672503
83	0xbcc9b136	-0.024620634
84	0xba387ec2	-0.00070379314
85	0x3ca54d42	0.020178441
86	0xbc69f327	-0.014279163
87	0xbcf291b6	-0.029610496
88	0xbbf6c0ac	-0.0075302925
89	0xbc9ec1ec	-0.019379579
90	0xbd4d8f74	-0.050185636
91	0x3d049067	0.032364275
92	0xbbaf318e	-0.0053464836
93	0xbd2e36f4	-0.042532876
94	0x3d139827	0.036033776
95	0xbcd20900	-0.025639057
96	0xbd02af32	-0.03190536
97	0xbca347f6	-0.019931775
98	0xbd2892e6	-0.04115572
99	0xbb620f3b	-0.0034493941
100	0xba21fbbe	-0.0006179175
101	0xbd174298	-0.036928743
102	0x3cafdc8a	0.021467466
103	0x3bc01546	0.005861911
104	0xbcee5ce4	-0.029097028
105	0xbd5caa16	-0.053873144
106	0xbc65e37f	-0.01403129
107	0xbcb659e4	-0.02225966
108	0x3c9d337c	0.019189589
109	0x3ce34c15	0.02774624
110	0x3d457125	0.048203606
111	0xbc60bde8	-0.013717152
112	0x3c087ac7	0.008330054
113	0x3ceae6cd	0.028674508
114	0xbc911f68	-0.017715171
115	0x3c0a47af	0.008439942
116	0x3c7944a0	0.015214115
117	0xbc101e05	-0.00879622
118	0x3c9026a5	0.017596552
119	0x3d038e90	0.03211838
120	0xbcdfd223	-0.02732188
121	0xbb6de893	-0.0036301955
122	0xbbddd896	-0.006770204
123	0x3c00b92a	0.007856647
124	0xbca5acb1	-0.020223947
125	0xbabd9d3e	-0.0014466417
126	0x3c08c4cd	0.008347702
127	0x3d41cc84	0.047314182
128	0x3d252535	0.040318687
129	0x3c5c5f1c	0.01345041
130	0xbc825a67	-0.015912248
131	0x3be4a9ac	0.0069782343
132	0xbaca30e8	-0.0015425952
133	0x3b42b5eb	0.0029710482
134	0xbc36625e	-0.011131851
135	0xbc2a1b32	-0.01038246
136	0x3bf1443a	0.0073628696
137	0xbc8aca29	-0.0169421
138	0x3cad500a	0.02115633
139	0x3cc2093e	0.023686048
140	0x3bf05e50	0.0073354617
141	0xbc010799	-0.007875347
142	0xbc98de85	-0.018660793
143	0xbca6e9dc	-0.020375185
144	0xbc61b8dd	-0.013776985
145	0xbc874808	-0.01651384
146	0x3b406e32	0.0029362557
147	0xbc2f8c59	-0.010714614
148	0xbbda7abc	-0.006667463
149	0xbc63a0f3	-0.013893354
150	0x3cd29e21	0.025710167
151	0xbce560b2	-0.02800021
152	0xbc6b5581	-0.014363647
153	0x3cbe98fc	0.023266308
154	0x3bdb5eef	0.0066946666
155	0xbd2181dd	-0.039430488
156	0x3cfe15a2	0.031016175
157	0xbc8e1284	-0.017342813
158	0x3cb27b07	0.02178718
159	0xbb91cf1b	-0.0044497377
160	0x3b5d7b49	0.0033795408
161	0x3b96b7f5	0.004599566
162	0xbd6db632	-0.058035083
163	0xbce69f46	-0.02815212
164	0x3c644136	0.013931563
165	0xbc301a05	-0.010748391
166	0xbbc59119	-0.00602926
167	0x3c7e7c37	0.015532545
168	0xbc79a93e	-0.015238104
169	0xbbe24c7f	-0.0069060917
170	0x3c8ba1e4	0.017044969
171	0xbc9281ca	-0.017884154
172	0xbcca38c0	-0.024685264
173	0xbc6fdd57	-0.014640174
174	0xbd49b1fe	-0.049242012
175	0x3c136e45	0.008998458
176	0x3cde7ceb	0.027159175
177	0xbc0de121	-0.008659632
178	0xbd4c598f	-0.049890097
179	0xbc27bf2c	-0.01023845
180	0x3d8553f9	0.06510157
181	0xbbad2b7a	-0.005284724
182	0xbcb047ee	-0.021518674
183	0x3c149633	0.009069013
184	0xbba401c0	-0.0050050914
185	0x3c534d25	0.012896811
186	0x3ace3356	0.0015731852
187	0x3cadbe36	0.021208864
188	0xbc1920cc	-0.009346198
189	0x3c28f822	0.010313066
190	0xbc2c1992	-0.010504143
191	0xbca6049c	-0.02026587
192	0x3c0c73f4	0.008572567
193	0x3c033ac7	0.008009619
194	0xbc2d883a	-0.010591561
195	0x3c9faf5f	0.019492803
196	0x3bb01f26	0.005374807
197	0x3d47acb1	0.048748676
198	0x3cc7e8c3	0.024402982
199	0xbd01c414	-0.031681135
200	0xbcf1d65a	-0.029521156
201	0xbcd5087a	-0.026005019
202	0xbc03a500	-0.0080349445
203	0x3c47252b	0.012154858
204	0xbcfb054c	-0.030642174
205	0xbcb3f5d6	-0.02196781
206	0xbc8da34a	-0.017289776
207	0xbcb849b3	-0.02249608
208	0xbbccfab5	-0.0062554725
209	0xbd0774fd	-0.033070553
210	0x3ca75b04	0.020429142
211	0xbbd5c378	-0.006523546
212	0xbd0892b4	-0.033343032
213	0xbc3228c3	-0.010873976
214	0xbbed67a1	-0.0072450195
215	0xbcff1cde	-0.031141695
216	0x3b6404dc	0.0034792935
217	0xbcada4eb	-0.021196803
218	0x3c94170b	0.018077394
219	0x3b3ed9a8	0.0029121432
220	0x3c0212e8	0.007939078
221	0x3c3d5a89	0.01155723
222	0x3c8dc8d2	0.017307673
223	0x3acf2560	0.0015803985
224	0x37e3817a	2.7120801e-05
225	0xbc4daa54	-0.012552816
226	0x3ce44f42	0.027869824
227	0x3d0aa6a4	0.033850327
228	0x3c8bc73d	0.017062778
229	0x3d3cf8a5	0.046135563
230	0x3caf9603	0.021433836
231	0xbc43a810	-0.011941925
232	0xbcb8c1e3	-0.02255339
233	0x3d480d60	0.04884088
234	0x3c8b76b3	0.017024374
235	0xbcf4f6a5	-0.029902766
236	0xbc3f15b0	-0.011662886
237	0x3cca4f78	0.024696097
238	0x3d581f22	0.052764066
239	0xbbed7983	-0.0072471513
240	0xbcb63aa6	-0.022244763
241	0xbcbc6e6c	-0.023001872
242	0x3aad06bf	0.0013200863
243	0x3c8a545f	0.016885934
244	0xbc1586a7	-0.009126342
245	0x3d574471	0.052555505
246	0xbc444604	-0.011979584
247	0x3b1d010a	0.0023956918
248	0xbd602c2a	-0.054729618
249	0xbc14fe46	-0.009093827
250	0x3a1121bc	0.0005536338
251	0xbd0a1784	-0.033713832
252	0xbc98f523	-0.018671578
253	0xbd16c8d3	-0.036812615
254	0xbd0738c8	-0.033013135
255	0xbcec40a9	-0.028839426

fc.3.weight f4 [262, 524]
0	0xbcaa00e5	-0.02075238
1	0xbd908918	-0.070573986
2	0x3d591aad	0.053003956
3	0x3d2fd2b7	0.042925563
4	0xbdb0da0f	-0.086353414
5	0x3ca85157	0.020546598
6	0x3b39f308	0.0028373618
7	0xbc703f7c	-0.014663573
8	0xbd9cb5f2	-0.07651891
9	0x3d2d192f	0.042260345
10	0xbd1e5c63	-0.038662326
11	0xbc9815f0	-0.018565148
12	0x3c839dac	0.016066395
13	0x3d76298c	0.060098216
14	0x3d460115	0.048340876
15	0xbccb4f86	-0.024818193
16	0xbda686a3	-0.08131149
17	0x3ccd01a9	0.025025206
18	0xbd4611dc	-0.048356876
19	0xbc27b313	-0.010235566
20	0xbd70135f	-0.058612224
21	0xbc9624ff	-0.018328188
22	0xbd120cd0	-0.03565675
23	0x3d956082	0.07293798
24	0xbd3c68c4	-0.04599835
25	0xbd0fa202	-0.035066612
26	0x3d77f97d	0.060540665
27	0x3d7dcc24	0.06196226
28	0x3c83eef1	0.016105147
29	0x3cb77ce6	0.022398423
30	0x3d25d132	0.040482707
31	0x3d83dc56	0.0643851
32	0xbd39b9b5	-0.04534312
33	0xbc9f63bb	-0.019456735
34	0x3d1daec3	0.038496744
35	0xbd30b6ce	-0.043143086
36	0xbcd3a909	-0.025837438
37	0x39adec9c	0.0003317342
38	0xbcdf016e	-0.027222361
39	0x3d027bff	0.031856533
40	0xbd9313f2	-0.07181539
41	0xbc42fada	-0.011900628
42	0x3d219235	0.039446075
43	0x3cafc377	0.02145551
44	0x3c331e89	0.010932573
45	0x3bef99f2	0.007312053
46	0x3c84df1b	0.016219666
47	0x3b64b02a	0.003489504
48	0xbbe45777	-0.0069684344
49	0xbd1f7bd2	-0.038936444
50	0x3d934b32	0.07192077
51	0x3d48345d	0.048878063
52	0xbdcfcfba	-0.101470426
53	0xbcac7210	-0.021050483
54	0xbd835cc4	-0.06414178
55	0xbcbf4b95	-0.02335147
56	0x3cc7c55f	0.024386106
57	0xbd1d5f9b	-0.038421255
58	0xb9cf4125	-0.00039530653
59	0xb8b51116	-8.633935e-05
60	0x3d8653e6	0.06558971
61	0xbd3aa922	-0.045571454
62	0xbd93205a	-0.07183905
63	0x3cc13ce2	0.023588601
64	0xbd94e669	-0.0727051
65	0xbd44d0ac	-0.048050568
66	0x3c9b397c	0.01894831
67	0x3c78f3d8	0.015194856
68	0xbd9e6850	-0.0773474
69	0x3ab99490	0.0014158655
70	0xbd7a8206	-0.061159156
71	0xbd878b57	-0.06618374
72	0xbc8ece7b	-0.017432442
73	0x3d3bcc18	0.045848936
74	0xbd4637cd	-0.04839306
75	0xbc867a5e	-0.016415771
76	0x3cc15776	0.023601275
77	0xbc84c140	-0.01620543
78	0xbccdfef4	-0.025145985
79	0xbd1ab7b7	-0.03777286
80	0x3d5c0621	0.053716782
81	0xbd3e6c52	-0.04649002
82	0xbcd3f7b3	-0.025874948
83	0x3d758071	0.059936944
84	0xbce896bc	-0.028392188
85	0x3d7bb72f	0.061453994
86	0xbd6f4f38	-0.05842516
87	0xbd0d01b6	-0.03442546
88	0xbbdd45de	-0.0067527136
89	0xbcedd7a4	-0.02903349
90	0x3d135628	0.035970837
91	0x3d28b65f	0.041189548
92	0x3991934f	0.0002776631
93	0xbcffd31a	-0.03122859
94	0x3b36ac69	0.002787376
95	0x3ced1fe4	0.02894587
96	0xbcd03496	-0.0254157
97	0xbd4292ba	-0.04750321
98	0xbc266b20	-0.0101573765
99	0xbcf9721b	-0.030449918
100	0x3b30fd13	0.0027006313
101	0x3c9864bf	0.018602727
102	0x3d0f73b6	0.03502246
103	0x3d1dee22	0.03855718
104	0xbd8e8e81	-0.06960774
105	0xbd371ed6	-0.04470714
106	0xbd4dfacd	-0.05028801
107	0x3d5e158a	0.05421976
108	0xbcc18d2c	-0.023626886
109	0xb8c42c82	-9.3542985e-05
110	0xbd36929d	-0.044573415
111	0xbd1a4c02	-0.037670143
112	0xbc0b4111	-0.0084994
113	0xbd2eb5f7	-0.042654004
114	0xbc9e3b01	-0.019315245
115	0xba913c3d	-0.0011080574
116	0x3d722c8e	0.059124522
117	0xbccf6cd9	-0.025320457
118	0x3bdb272b	0.006688019
119	0xbd479393	-0.048724722
120	0x3cfb345f	0.03066462
121	0xbcdf30a4	-0.027244873
122	0xbd1c4f19	-0.03816137
123	0xbbfb7bea	-0.007674684
124	0x3d24fe1d	0.040281404
125	0xbc2a02c6	-0.010376638
126	0x3be77b7d	0.0070642815
127	0x3d4fcf0d	0.05073457
128	0x3cc135e9	0.023585277
129	0xbd6bdcc7	-0.057583597
130	0xbd8e583f	-0.06950425
131	0xbdc3b5fa	-0.09556194
132	0x3c8a08f8	0.01684998
133	0xbd3661cb	-0.044526856
134	0x3d3a4eef	0.045485433
135	0x3d1e7d9b	0.038694005
136	0xbc16aa36	-0.009195855
137	0xbd154854	-0.03644593
138	0x3caa1165	0.020760247
139	0xbd2cfe67	-0.042234804
140	0x3d9e9bbd	0.077445485
141	0x3cbd3ad3	0.023099339
142	0x3d90faef	0.07079112
143	0xbc521d8f	-0.01282443
144	0xbd98a1bb	-0.07452723
145	0x3b99fc5d	0.0046992735
146	0x3b552cea	0.0032527992
147	0xbd571dac	-0.05251853
148	0x3cb53ba4	0.022123165
149	0xbc9d78f8	-0.019222721
150	0x3c6c48be	0.01442164
151	0xbd289e0c	-0.04116635
152	0xbc99f67b	-0.018794289
153	0x3d705063	0.058670413
154	0xbddf91ee	-0.10916506
155	0xbd1f582e	-0.038902454
156	0xbc91a49b	-0.017778685
157	0x3d2b5222	0.041826375
158	0xbd422255	-0.047396023
159	0x3c4b97c8	0.012426324
160	0xbd59caba	-0.05317185
161	0x3b015c01	0.0019738676
162	0xbd37b0c2	-0.044846304
163	0xbce9f307	-0.028558267
164	0x3cab1121	0.020882191
165	0x3d8a6c51	0.06758941
166	0x3b85ab64	0.0040792692
167	0x3d3aa55f	0.045567866
168	0x3c06d5b8	0.008229665
169	0x3c8985d3	0.016787445
170	0x3d9e2e74	0.07723704
171	0xbc95a857	-0.018268747
172	0xbc70f94e	-0.014707876
173	0x3c8ecdd0	0.017432123
174	0xbd6c0d6a	-0.05762998
175	0x3cc00454	0.023439564
176	0x3daa5bde	0.083183035
177	0x3d6bd7f5	0.057579
178	0x3d8770a5	0.06613282
179	0x3cb5951d	0.02216583
180	0xbd5ad205	-0.053422946
181	0xbd4eff2f	-0.05053633
182	0x3c990138	0.018677339
183	0xbd360526	-0.044438504
184	0x3c34924b	0.011021207
185	0x3c626108	0.013817079
186	0x3da3ca74	0.07997599
187	0xbd3c3416	-0.04594811
188	0xbd70cf63	-0.05879153
189	0x3d3fff44	0.0468743
190	0xbd4c7928	-0.04992023
191	0x3c57f1cb	0.0131802065
192	0xbd32c66b	-0.043646257
193	0xbd622cbd	-0.055218447
194	0xbd0c8e79	-0.03431556
195	0xbc94ccbb	-0.01816403
196	0xbd21d411	-0.039508883
197	0x3c065640	0.008199275
198	0x3d8a44fd	0.0675144
199	0x3d655f8e	0.05599933
200	0xbd09812b	-0.03357045
201	0x3d1306a0	0.03589499
202	0xbd753ca6	-0.059872292
203	0x3c802a5a	0.015645195
204	0x3cbb399d	0.02285462
205	0x3cf904df	0.03039783
206	0xbcee6649	-0.029101508
207	0xbd8259a4	-0.06364754
208	0x3bbf1ed9	0.0058325347
209	0x3d0e600a	0.03475956
210	0xbd28b7b1	-0.041190807
211	0xbd9a0c81	-0.07521916
212	0xbc981c8d	-0.018568302
213	0xbc34bf70	-0.01103197
214	0xbcfd2867	-0.030903054
215	0x3c7c28ba	0.015390569
216	0x3c2ee17f	0.01067388
217	0xbcb7239d	-0.022355849
218	0x3d67a6b3	0.05655546
219	0xbd9b264f	-0.07575666
220	0xbd169d72	-0.036771245
221	0x3d5178d5	0.051140625
222	0x3d893fd6	0.06701629
223	0x3d12d18b	0.035844367
224	0xbd3a3b10	-0.045466483
225	0xbcd22eea	-0.025657136
226	0x3cacb9d2	0.0210847
227	0xbb42434a	-0.0029642158
228	0x3c8830ab	0.01662477
229	0x3d44bf3a	0.04803393
230	0x3bacea35	0.005276943
231	0x3d429ea4	0.047514573
232	0x3cced99a	0.025250245
233	0xbd692825	-0.05692305
234	0xbd7b3bce	-0.06133633
235	0xbd65ddf6	-0.05611988
236	0x3d0f26a2	0.034948952
237	0x3c905b04	0.017621525
238	0xbcc6efe4	-0.02428431
239	0x3ca49062	0.020088378
240	0x3d882ac7	0.06648784
241	0x3b38bfa8	0.0028190408
242	0x3d4c94c3	0.049946558
243	0xbda24f42	-0.079252735
244	0xbcb4db39	-0.02207719
245	0xbc5d97b5	-0.013524939
246	0x3da8f07f	0.08248996
247	0xbb821ae3	-0.0039704903
248	0x3d8103cc	0.06299552
249	0x3c42b9af	0.011885091
250	0x3d8a143c	0.06742141
251	0x3c9991fa	0.018746365
252	0x3d275b85	0.040858764
253	0x3d02fda4	0.03198017
254	0x39d20f3d	0.00040065675
255	0xbd48f0cc	-0.049057767
