inventory/ark_material.onnx (onnx, 748341 bytes, 8 tensors)

35 f4 [8, 3, 5, 5]
00000000: 3e82 4e3d 79cf 7f3d ce3e 33bf 156f 8d3e
00000010: 822e 0fbf 41c1 b73e a8a6 0a3f 5516 673d
00000020: 16d1 ad3e d70d bdbe 8b9b 05bf eb92 1e3f
00000030: 9048 54be 4946 2d3f 340b b63e 4f22 efbe
00000040: 4779 403f dc72 4e3f f810 b73e 94bd b1be
00000050: 0570 ee3e fa4f 16bf 5465 043f da5e 04bf
00000060: 6499 053f 511a 823f d927 c9be 2d4e 1ebf
00000070: 84dc 7dbf 3b73 90be 79a2 1b3e 831c f03d
00000080: 1a59 ddbe dfb0 093e df89 c1be 8a73 07bf
00000090: ebf0 ccbe 02ec 17bf 3d55 093e b297 b73d
000000a0: 6dd2 f9be 5363 dbbe 2304 adbd bf75 e53e
000000b0: 27d1 df3e 0178 21be b632 4fbc f426 94bc
000000c0: 4e6f 9b3e ff42 f23e dc22 483f 3527 c83e
000000d0: 421a 9bbe 0f12 e9be 9c1c 11bf 0bfb a7be
000000e0: e769 ffbe 314e cebd 67d2 27bf 143a 36bd
000000f0: 4e9b a7be 89f3 32bf f47c 3a3f 8f97 513e
00000100: 2df1 fc3e 951a 053f 061b 48be 0278 2b3f
00000110: b0dd e9be 6e94 f23e d0e9 e5be 1841 223f
00000120: 5177 80be ec8f 083e 37f2 2c3e 6a9b 9fbe
00000130: 99b8 9a3e 22c1 52be f066 683e 3b77 63be
00000140: 180c 623c ba21 b3bd 252e 4b3e 1fbf e93c
00000150: cbf6 cfbd 8058 aabe 7f58 3cbd 7b4b 8c3e
00000160: e93a 723e 88b9 c23e cba1 0cbf 0ff3 b6be
00000170: 505a 9a3e 366d 053e 14de 773e bc07 9ebe
00000180: d149 17bf 0479 f0bd 0bfb d9be 4e6a 3bbe
00000190: 0b72 99bd 81a3 fa3c b869 c3be 01b9 8bbc
000001a0: 4e9c fdbe f31f f6be 87ab da3e 1e38 503d
000001b0: aadf 083e 3469 48bb 2444 e83d 8399 02bf
000001c0: 636f da3e 20b8 a03e f49e 58be 13b7 fd3d
000001d0: 5ffd ccbe 2887 383d 5b59 b8bd 9b57 3cbe
000001e0: 92e0 91be 62dd 0ebc 41c0 ae3d 8a45 00be
000001f0: 0871 c7be 9a06 a63e a314 853d 28ab e93e
00000200: 3ee0 ed3e 3c3f 013f 2335 1cbe 288c ec3d
00000210: 58d9 103f 34f4 fd3e 26dc 743e 1da6 9b3e
00000220: f4e9 193e 778c 9bbe cc1c 19be 7699 243d
00000230: 6d97 c3be 3967 b0be d739 033e 0b31 903d
00000240: f2e9 e13e 466a bdbe c43a 823e 93c4 47be
00000250: addd af3e e4be 363c 7b0b 18be e5f3 863d
00000260: 3f54 97be 827a d4be df3c 10be f6a1 563e
00000270: eed3 45be 36a8 09bd affa 1f3e 00e7 79be
00000280: 5e3b 023f a433 0a3e 572c 32be 6804 d6bc
00000290: 0a35 bb3c 90b4 b33e 725e 57bd 4bca d13e
000002a0: 4c69 9b3e 94eb 81bc 1bf5 973e e98e d13c
000002b0: 773f 0ebe ad55 a0be 2470 1d3b 530e 783e
000002c0: 981a 853e 16eb 1b3e a461 b43e 5d00 bdbe
000002d0: 7afa b6bd bb24 55bc 0114 ae3d 9249 ecbe
000002e0: f233 7abe 6c49 913e 8911 5fbe 62d1 b5bd
000002f0: 9253 c9be 68b7 40bd 0be8 75be 4fa2 383e
00000300: 1228 93bd fc7c 0dbe 4b90 abbe 125e 2f3e
00000310: 6621 afbe 0082 9dbe aabf e9be f7b4 90be
00000320: c7e2 453e ad05 9f3e 9044 6cbe d8ec c5be
00000330: 4c10 b1bc 35c9 a73d dbd8 7bbe fed9 1c3e
00000340: 9bc4 8a3e a8cc 483e e3fc 1b3e 6017 b1be
00000350: b452 f63d 8c04 00be 177d fbbe 5d11 533e
00000360: dc8f 163e d402 c3bd 5bf6 f2be 2651 0dbe
00000370: b33d ddbb b8e2 913e 883a 0abe ae67 ba3d
00000380: 3041 0ebf 7238 883e 0ecc d13e b8f8 9c3d
00000390: 2e9e b9bd 241f eabe 7d79 25bf 540f cebd
000003a0: 9297 3ebe 9e82 4e3f 84dd f43e f401 143e
000003b0: 23db 89be f2ed aa3d fa8c 8c3e 8a73 aa3f
000003c0: f365 7d3e 95ee e23d 06a9 7abf 3ce2 9a3e
000003d0: af5f b6bd c72e 33be ea41 673d e199 3ebf
000003e0: 6513 193f 275a 4b3f 93ec 12bf 74f3 183f
000003f0: 760e cbbe 2015 3b3e 282a b2be e963 66be
0.050417177 0.06245372 -0.7001771 0.2762381 -0.5593034 0.3588963 0.5416055 0.05641778
0.33948582 -0.3692462 -0.52190465 0.6194293 -0.20730805 0.6768537 0.35555422 -0.46705863
0.75185055 0.8064401 0.35755134 -0.3471495 0.4656984 -0.58715785 0.51717114 -0.5170723
0.5218718 1.0164281 -0.39288214 -0.61838037 -0.99164605 -0.28212914 0.15198697 0.11724188
-0.43232042 0.13446377 -0.378005 -0.52910674 -0.40027556 -0.59344494 0.13411422 0.089644805
-0.48793355 -0.42849216 -0.08448055 0.44816396 0.43714258 -0.15768434 -0.012646368 -0.01808498
0.30358356 0.4731674 0.7817819 0.39092413 -0.3029347 -0.4552159 -0.5668428 -0.32808718
-0.49885485 -0.100735076 -0.65555423 -0.04448898 -0.32735676 -0.69902855 0.72846913 0.20467971
0.49402753 0.51993686 -0.19541559 0.6697999 -0.45676947 0.47378868 -0.44904947 0.63380575
-0.2509103 0.13336152 0.16889273 -0.3117326 0.30218962 -0.20581487 0.22695518 -0.22213452
0.013796829 -0.08746667 0.19841821 0.028533516 -0.10154494 -0.33270645 -0.045982834 0.27401337
0.23655285 0.38032174 -0.54934376 -0.35732314 0.30147028 0.13029942 0.2420581 -0.30865276
-0.5909701 -0.11741832 -0.42574343 -0.18302271 -0.07492455 0.030595543 -0.38166595 -0.01705599
-0.49533314 -0.4807125 0.4270899 0.050834768 0.13366571 -0.0030580284 0.11341122 -0.5101549
0.42663106 0.31390476 -0.21154386 0.12388434 -0.40037057 0.04505077 -0.09001418 -0.18392794
-0.28491646 -0.008719774 0.08532763 -0.12526527 -0.38953424 0.32426912 0.06498077 0.45638394
0.46460146 0.50487113 -0.15254645 0.1155017 0.5658164 0.49600375 0.23912105 0.30400172
0.15030652 -0.30380604 -0.14952391 0.040185414 -0.38201466 -0.34453753 0.12815033 0.07040604
0.441238 -0.36995143 0.2543546 -0.19508581 0.34348813 0.01115391 -0.1484813 0.06589488
-0.29556462 -0.41499716 -0.1408572 0.2096022 -0.19319126 -0.033607684 0.15622972 -0.24404526
0.5087184 0.13496262 -0.17399727 -0.026125148 0.02285244 0.35098696 -0.052580304 0.4097465
0.30353773 -0.015859403 0.29679188 0.02558084 -0.13891397 -0.31315365 0.002402314 0.24224214
0.25996852 0.15226397 0.35230744 -0.3691434 -0.08934493 -0.0130092455 0.08499909 -0.4614988
-0.24433878 0.2837633 -0.21784033 -0.08877827 -0.39321572 -0.04704991 -0.24014299 0.18030666
-0.07185377 -0.13817209 -0.33508524 0.17125729 -0.34205168 -0.30763245 -0.4565404 -0.28263065
0.1932479 0.31059018 -0.2307303 -0.3865726 -0.021614216 0.08192674 -0.24594443 0.15317532
0.27103123 0.1960932 0.15233187 -0.34588146 0.12027493 -0.12501734 -0.49118873 0.20612092
0.14703315 -0.09522024 -0.4745358 -0.13800487 -0.00675174 0.28493285 -0.1349889 0.091018066
-0.5556822 0.26605564 0.40975994 0.07664627 -0.090633735 -0.45726883 -0.646385 -0.10061517
-0.18612507 0.80668056 0.47825253 0.1445387 -0.26925 0.08346166 0.27451307 1.331651
0.24745922 0.11080662 -0.9791416 0.30250728 -0.08904969 -0.17498313 0.056459345 -0.7445355
0.5979522 0.79434437 -0.57392234 0.5974648 -0.3965947 0.18269777 -0.34797788 -0.2249905

36 f4 [8]
00000000: b9df 0e3e c7a6 eebd 04a2 c33f 92b3 053e
00000010: f7fc d4bf 0e09 da3f 8977 df3f 1584 eebf
0.13952531 -0.11652904 1.5283818 0.13056782 -1.6639699 1.7034013 1.7458354 -1.8634058

38 f4 [16, 8, 3, 3]
00000000: bfd4 2e3e 6190 ecbe b06f dbbe 7dc2 6bbd
00000010: acde 4f3e b27f 7f3d ed5b d3bd ba68 633e
00000020: 1ef0 363f f061 773d 71a5 36be 6304 283f
00000030: 333b e93e a296 ebbd d9c3 4cbe 8569 723e
00000040: 00f0 c1be ec00 0dbe dae5 90be e94f 123f
00000050: 30b1 dc3e 2df2 38bf 4373 e53e def1 8e3f
00000060: c673 11bf dcab a33e 91b3 a43e 71e7 713e
00000070: e679 0dbf 48a6 e43e 26da 343f bed4 22be
00000080: 6982 083f c20a a7be 407c 7dbf 3acd f13e
00000090: 31b4 6fbd cd42 f13e 4144 033e f776 553f
000000a0: bd4a d0be 40a1 883d 0abf 433e 434b fb3d
000000b0: 17e5 8b3e 92cd 613e 8e48 cebe b13d 3ebf
000000c0: 0b85 493b 76cc 043f 92ab fc3e 06f6 ccbe
000000d0: 48b8 dfbe 3bf8 c63e 7df8 efbd 87d2 013e
000000e0: 079c a53e f9e6 1c3f f7d5 2e3f 7a42 723f
000000f0: cd88 033f 82da 77be da4d 7cbe 6bb1 033d
00000100: 549e 8f3e 474e 98be c6ed 2bbe 864c fc3e
00000110: 3254 663f bbc4 c7bc dc6f 64bf 922f 0c3f
00000120: 590c 1fbf 99b2 fabe 44ee 293e 8f97 4ebd
00000130: 3991 80bf 5e95 d4bb e375 323f f2ca 3bbf
00000140: b08d b3be 7130 783f 27aa 253e 0f82 72bf
00000150: 9845 a83e 6650 9c3f ee67 ef3e 40c7 64bf
00000160: 73a8 b3bf d2c2 383f ce99 f53b 9f3a 813c
00000170: 523a 78bf 556a 0abf 8884 4040 2ac5 adbe
00000180: 84fe 76bf 054a cfbe 9f12 5d3f ec75 683f
00000190: 9fa9 3ebe 0266 19bf 5389 7e3e a910 f43f
000001a0: bc91 cd3e 58a3 dcbe d049 0f3f 7b78 89be
000001b0: d40f 953c ba68 a33d 46e9 86bf e144 adbc
000001c0: ddeb b93f 98bb b83e 0d9f f13d 6f65 553e
000001d0: 129a febe 2059 833f 270c 75bf 1735 7b3f
000001e0: beb7 d13f a1dc a1bf ab02 b5be 3ffc f3be
000001f0: 60f7 763e 3e13 2a3e 6f6a 67bf 79e3 983f
00000200: 0bd0 debe f507 20bf b166 84be a08e 153f
00000210: 0bfc d33e 5278 d8be f259 903e ca1c 6b3f
00000220: 3b38 bebf 0174 903e 95eb 18bf 6105 0440
00000230: d256 8a3d 957a 933e a64d 5a3e 227d 323f
00000240: 4199 01be 07f1 c13c e7e5 5a3f c41c 0c3f
00000250: 7486 f03e 9317 b53f cb97 38be 373d 04be
00000260: fdb2 2a3f 406b 083e 2d38 34bf 61c8 443f
00000270: ec76 9f3e 8bef 1e3f 9ee5 8bbf f6ff 05be
00000280: 5837 93be 821d 29bf 57f1 7c3e fc24 b33e
00000290: c3fc dcbd cd41 313f 6a58 71bf 63b8 9f3c
000002a0: 41ad 443d 7d61 efbc 75d5 033f b4ca 873c
000002b0: ac97 3bbe 8a0a 04bf a90c 9c3e 2e0d b63e
000002c0: 8247 8d3e ffec 6e3e ae48 303f ab7a 7a3f
000002d0: 8a30 503f b10b 39bf c48c 823e f801 19be
000002e0: 7f34 5abf ff4f 6ebc 230b 53bf 9ae6 c2be
000002f0: 59a6 e53e 7b3e 3ebf 2dcc 7cbe 3710 b43e
00000300: 0467 153e b73f 0cbf d7c0 08bf 0467 18bf
00000310: e9f5 003f a34c 06bf e827 043f b795 063f
00000320: 7acd 2d3f bbec ef3e dcc3 2cbf 51df 4ebf
00000330: bb27 07bf d6a0 ecbd cabe f53e de7d 98be
00000340: 9673 ebbe 19f5 9cbe b6a2 3d3f f04c 57be
00000350: aba2 51be 5394 323e 0481 4a3f 7d0a 71bf
00000360: d81b ab3e f3a8 df3e 1b9e 00be 3194 3dbf
00000370: 89f9 a83f cdb8 a6be b81b 0abc d279 a63f
00000380: b416 8bbf 763b 683e 40e2 cb3e 4da6 0ebe
00000390: fa73 973e 625e 8dbf 9d42 363d 9d47 673e
000003a0: 91ca 87bf 21af 6bbf 90e2 6f3e 8f5e 583f
000003b0: 6f28 5bbd 91aa 3c3e a303 4a3f 2e55 8fbe
000003c0: c912 e8bc e036 afbf 7190 1bbf 1c15 e4bc
000003d0: 4e94 183f e74a 983e e2dd 9e3f 0d40 7dbe
000003e0: b190 86bf 1c42 08bf d763 cdbf fef4 1cbf
000003f0: a0c5 5ebf 89c2 483f a2c5 96bf 001f b5be
0.17073344 -0.46203902 -0.42858648 -0.057558525 0.20299786 0.06237764 -0.10320268 0.22207919
0.7146014 0.060396135 -0.17836548 0.65631694 0.45552978 -0.1150334 -0.19996585 0.23673065
-0.37878418 -0.13769883 -0.28300363 0.57153183 0.43103933 -0.7224453 0.448145 1.1167562
-0.5681728 0.31967056 0.32168248 0.23623444 -0.5526413 0.44658113 0.7064537 -0.15901467
0.5332399 -0.32625395 -0.99017715 0.47226888 -0.058521453 0.47121277 0.12819006 0.8338465
-0.4068202 0.06671381 0.19115844 0.122702144 0.2732322 0.22051075 -0.4028973 -0.74312884
0.0030749466 0.5187448 0.49349648 -0.4003145 -0.43695283 0.3886126 -0.11717317 0.12677966
0.32345602 0.61289936 0.68295234 0.94632685 0.51380616 -0.24204448 -0.24639073 0.03215162
0.28050482 -0.2974722 -0.16789922 0.49277133 0.8997222 -0.0243858 -0.89233184 0.54760087
-0.62128216 -0.48964384 0.16594797 -0.050437506 -1.0044318 -0.0064875325 0.6971113 -0.73356545
-0.35069036 0.96948916 0.16178189 -0.94729704 0.32865596 1.2212036 0.4675898 -0.8936653
-1.4035782 0.7217227 0.0074951416 0.015775023 -0.9696399 -0.540685 3.008089 -0.33939487
-0.9648211 -0.4048616 0.8635654 0.90804935 -0.18619393 -0.59921277 0.24857073 1.9067584
0.4015025 -0.4309337 0.55972004 -0.26849732 0.018196024 0.079789594 -1.0539939 -0.021151008
1.4525105 0.36080623 0.11797915 0.20839475 -0.4972692 1.0261574 -0.9572167 0.98127884
1.6384199 -1.2645456 -0.35353598 -0.47653386 0.24117804 0.16608903 -0.9039678 1.1944419
-0.435181 -0.6251214 -0.25859597 0.58420753 0.4140323 -0.42279297 0.28193623 0.91840804
-1.486091 0.28213504 -0.5973447 2.0628283 0.06754841 0.2880446 0.21318683 0.6972219
-0.12656118 0.023674501 0.85507053 0.5473139 0.4697758 1.4147819 -0.18026654 -0.12913977
0.66679364 0.13322163 -0.7039822 0.76868254 0.31145418 0.62084264 -1.0929449 -0.13085923
-0.2875316 -0.6606065 0.24701439 0.34989154 -0.10790398 0.6924103 -0.94275534 0.019497102
0.04801679 -0.02922129 0.51497585 0.016576149 -0.18319577 -0.5157858 0.3047841 0.3555693
0.2759362 0.23332594 0.688609 0.97843426 0.81324065 -0.72283465 0.2549802 -0.14942157
-0.8523635 -0.01454544 -0.8243887 -0.3806656 0.44853476 -0.7431409 -0.24687262 0.3516862
0.14590079 -0.5478472 -0.5341925 -0.5953219 0.5037523 -0.5246069 0.5162339 0.52572197
0.6789166 0.468603 -0.6748636 -0.80809504 -0.52795 -0.115541145 0.47997123 -0.2978353
-0.45986623 -0.30655745 0.740764 -0.21025443 -0.20472209 0.17439394 0.7910311 -0.9415663
0.3341968 0.43683586 -0.12560312 -0.7405425 1.3201152 -0.32562867 -0.00842946 1.3005927
-1.0866303 0.22678933 0.39821053 -0.13930626 0.2958067 -1.1044428 0.04449712 0.22585912
-1.0608693 -0.920641 0.2342627 0.84519285 -0.053505357 0.18424441 0.789118 -0.27994674
-0.02832927 -1.3688622 -0.60767275 -0.027842097 0.59601295 0.29744646 1.2411463 -0.24731465
-1.0512906 -0.53225875 -1.6046094 -0.6131133 -0.870203 0.7842184 -1.1779063 -0.35375214

39 f4 [16]
00000000: fdb6 0fc0 3d62 e3bf f837 863e 46ff 1e40
00000010: b63d fabf 8b18 0240 81fa 3d40 3615 64bf
00000020: 58b6 423d daf3 2d40 94db 2a3d 6cdd 0ebe
00000030: b41f b43d 3181 b73f 6673 8640 537f b7bf
-2.2455437 -1.7764355 0.26214576 2.4843307 -1.9550083 2.032748 2.9684145 -0.89094865
0.047537178 2.7180085 0.041713312 -0.13951653 0.087951094 1.4336301 4.2015867 -1.4335731

fc.0.bias f4 [538]
00000000: 4741 973d 5784 603d 5419 08bc 7a13 0f3e
00000010: 4779 1abd 76a1 4b3d 87f5 a4bd 1642 1fbb
00000020: 9259 8bbb 97c6 71bc 94c5 253e 54d3 72bc
00000030: 9589 e3bc 19c7 a83c 2cab f83d 3c16 bcbd
00000040: 5e62 a53d 59f9 573d 1dfb 903d 2e21 403d
00000050: cccc 5ebd bd18 fe3d 9573 373d c7e1 d23c
00000060: 0e01 3f3d c7ce 883b 0700 153e 2870 8f3d
00000070: 09ff 163d 3a5f 02bc dd0e c33d d2bd e43d
00000080: f8a5 0a3e f2e4 ef3d 0ea3 02bd 8b0b 953c
00000090: c340 2cbd a542 b9bc bc9f 6f3d c160 a23d
000000a0: 0994 51bd 107b 703d 0476 803d f06a c1bc
000000b0: af39 1f3d a0f2 da3d 5ae3 0d3d 4e8b dbbb
000000c0: 8651 003e 3bd6 03bd 9071 863d 23e0 a13c
000000d0: 9d9c 173d d6c8 84bc fabd 0abc f97b 46bd
000000e0: cb69 043d 0778 9e3d 4b1b dc3d c4df d53d
000000f0: 960e de3d 6be2 e2ba cf25 563d 2f8a 82bd
00000100: 7414 f83d 9230 543d 6544 1ebd b9cd 073d
00000110: 02a5 013e 5cf6 883d 4856 32bd 06a5 553d
00000120: ed76 bd3c 962f dc3d 4e86 663c 561b 0bbd
00000130: ab25 ff3b 40a7 adbd 8d1b 34bd 056d b43d
00000140: 463f 3d3d e81d 043e 9ba1 253d 697a 2a3d
00000150: 58c4 173e 4571 003c a74a f93d f61c 053c
00000160: f10e d43d fa65 143e 80af a63d c0fb 1cbd
00000170: 3b14 243e 1fa7 b1bc ebf8 453d bfcf 91bc
00000180: 2c6a 93bc ab0e 223d 2f5a 483d e304 d2bb
00000190: 17ab e53d 374d 003d 2e27 f0bc 9e4c f43d
000001a0: 6fd5 273d cdec 233e b034 9cba 272a 6dbc
000001b0: b38d c23d a12e 343e b9fc dc3d e075 903d
000001c0: cc5b eb3d fdf4 f73a 2f7d 023e 38dc 283d
000001d0: cac7 043d 2a9c ebbc 51a1 4cbc 360e 263d
000001e0: 9c1c aebc 0335 88bd 1e28 c33d fa50 adbc
000001f0: 011c c7bd b75a 8fbd 17b6 74bc 6c6b 943d
00000200: a754 a63c b248 24bd 5517 cdbc 0c6b 0cbd
00000210: 85de 26bd 47ce 9ebd e6cb 983b cad8 ad3d
00000220: 7989 643d 55bb d1bc 83cd 183e 49dc a4bc
00000230: 3128 133d 2dc4 dd3d 51d9 603b fc53 153d
00000240: af73 0e3e 0c3b c23d 061c f83c 0d19 423d
00000250: 540b 3d3d fe01 76bd 06ee e7ba 6691 3fbd
00000260: eb07 9f3b bd5c b13d 78de 7b3b 64ca d73c
00000270: f73e 223d 2932 853d 8fc5 e3bc a619 24bd
00000280: 3d9b 09bd d1cb f5bc 6421 873d 877f 153e
00000290: b0e4 0a3e 7696 5f3d 1837 443c 365f 3f3d
000002a0: 092b 443c c819 88bc 0e6d 0e3e 899c c63d
000002b0: c50a 54bd c50b 4cbd 5f69 c53d f730 383b
000002c0: 37fe 143e cd06 52bb b8dd be3d 392d d43c
000002d0: d935 d33d 5354 113d 6071 f63d f640 3a3d
000002e0: 409a a03d 775a 4f3c 7e1e 333d 1a97 6e3c
000002f0: 8872 8abc 2403 58bd 19a3 58bd 952a 083e
00000300: 9da6 83bc 9d3d 0c3d 81de 6e3d 8ffa 843d
00000310: 0200 943d 91fe b53d 9bcf e93d a7c6 c13d
00000320: 4f47 fc3d 8503 273d 20a8 8c3b 0851 a63d
00000330: 3884 593d 8e24 123d 10dd a43c 8532 f1bc
00000340: f011 2c3c dbc6 8c3d 7034 7e3d 3afb d83b
00000350: 7312 053c e09f 60bd 3dc4 9f3d 3b3e 4cbd
00000360: 3b7c 7bbd 6431 22bc 82bc 853d 5f62 98bd
00000370: bf3a f1bb d41e ec3c 810c 473d 0690 4e3a
00000380: 9bb2 58bd 8e1b 78bd 1f7c 94bc 56ab e03c
00000390: 7fb8 e13d f296 113e 681f 103b ef82 e13d
000003a0: bd6f 6f3d f43f b83d 9ac9 5a3d 749e 51bc
000003b0: fd42 033d 46d0 bfbd 890a 673b 4ace 013e
000003c0: 20ca 943d df0f ce3d 3799 ab3b a07f 0e3e
000003d0: 3f7f bcbc 7e91 b83d 40fc bdbc 8712 49bd
000003e0: dd0b 4fbd eab9 723d ddc0 59bc 027a 313d
000003f0: 820f 9e3c 1330 c13d 13e0 ffbc f5b7 0b3e
0.073854975 0.05481371 -0.00830682 0.13972273 -0.037713315 0.049714528 -0.08054643 -0.0024300865
-0.004252621 -0.01475682 0.16188651 -0.014820892 -0.027775565 0.02060275 0.121420234 -0.09183928
0.08075403 0.05272803 0.07079146 0.046906643 -0.05439453 0.12407062 0.044787962 0.025742425
0.046631865 0.0041750404 0.14550792 0.07003814 0.036864314 -0.007957274 0.09524319 0.11169018
0.13539875 0.1171359 -0.031893782 0.01819398 -0.04205395 -0.022614786 0.058501944 0.079286106
-0.051166568 0.05871111 0.0627251 -0.023610562 0.03887337 0.10690808 0.034640647 -0.006699956
0.12531099 -0.032186728 0.06564629 0.019760197 0.037014592 -0.016209047 -0.0084681455 -0.048458073
0.032327455 0.07737737 0.10747393 0.104430705 0.10842626 -0.001730991 0.05228215 -0.06374013
0.12113276 0.051804133 -0.038639445 0.033155177 0.12660602 0.06687614 -0.043539315 0.05215933
0.023127997 0.10751264 0.014070107 -0.033961616 0.007786473 -0.08479166 -0.043971587 0.08809856
0.04620292 0.12902033 0.040437322 0.041620646 0.14820993 0.007839506 0.12172442 0.008124581
0.10354412 0.14492026 0.08138943 -0.038326025 0.16023342 -0.021686135 0.04833309 -0.017799256
-0.017994963 0.03956477 0.04891413 -0.006409274 0.112142734 0.031323638 -0.029315557 0.11928676
0.04097503 0.16008301 -0.0011917558 -0.014475382 0.09499683 0.17595913 0.107903905 0.07053733
0.11492118 0.0018917617 0.12743066 0.041225642 0.032417096 -0.028760988 -0.012489633 0.040540896
-0.021253876 -0.06650736 0.09529136 -0.021156777 -0.09722138 -0.06999724 -0.014935992 0.072470516
0.020304037 -0.04010839 -0.02503554 -0.034281775 -0.040739555 -0.07754188 0.0046629785 0.08488615
0.055795167 -0.025602022 0.14922146 -0.020124571 0.035927 0.10828433 0.0034309218 0.036457047
0.13911317 0.094839185 0.0302868 0.04738717 0.04615338 -0.060060494 -0.0017694838 -0.046769522
0.004853239 0.086602665 0.0038432162 0.026341625 0.03961083 0.06503708 -0.027804164 -0.040063523
-0.033595312 -0.030004414 0.06598166 0.14599429 0.135638 0.05458685 0.011976026 0.04672166
0.011973151 -0.016613856 0.13908789 0.096978255 -0.051768083 -0.04981591 0.096392386 0.0028105357
0.145501 -0.003204751 0.09319633 0.02590047 0.10313005 0.03548081 0.12033343 0.045472108
0.07841921 0.012655846 0.04373025 0.014562393 -0.016900316 -0.05273737 -0.052889917 0.13297494
-0.016070658 0.034238447 0.058317665 0.06493103 0.07226564 0.08886445 0.11416551 0.09461718
0.123182885 0.04077484 0.004292503 0.08120924 0.05310461 0.035679393 0.020124942 -0.029443035
0.0105023235 0.06873866 0.062061727 0.0066217454 0.008122074 -0.05483997 0.07801101 -0.049864035
-0.061397772 -0.009899471 0.06530096 -0.07440638 -0.0073617394 0.028823294 0.04859591 0.00078797375
-0.052904706 -0.060573153 -0.018125592 0.02742545 0.11021518 0.14217737 0.0021991376 0.11011302
0.05845617 0.08996573 0.05341492 -0.012794126 0.032046307 -0.09365897 0.0035254082 0.1267635
0.07265115 0.10061621 0.0052367705 0.13915873 -0.023009894 0.090121254 -0.023191571 -0.049089935
-0.050548423 0.059259333 -0.013290611 0.043329246 0.019294504 0.094329976 -0.031234777 0.13644393

fc.0.weight f4 [538, 64]
00000000: a9ea 513d beaa 9ebc 0878 903d 5a67 55bc
00000010: 2fff ec3d f1b2 a43d 3318 fdbd 089d 1bbe
00000020: 1c0c 733c 42cf 933d 5b1b 9abd 7e19 043e
00000030: 98a8 a1bd 348c ef3d f064 0bbe 1436 99bd
00000040: 0a9a 6d3d 3260 6e3d 9f9d d3bd b4ee 4cbb
00000050: af3c 643d 378b 423d 7e61 363e f109 7dbc
00000060: d7f1 a8bc 55a8 a53d df9a 633d 32d0 293e
00000070: 1fce b43d 479b eabd 614b 93bc 6d85 85bb
00000080: 6d32 ff3d 606e 663d ad2e ca3d 2374 b9bd
00000090: 1e70 7a3d 1130 173c f56c da3d 8730 b03d
000000a0: 3da6 023e b230 313e db1b 12bd 7ac7 5f3d
000000b0: 0019 e6bc 6c1a f5bd e859 993d 86f5 9fbb
000000c0: 8f65 7c3d c0b9 eabc a559 d5bd 9591 e9bd
000000d0: 0a30 883d ebca 513d 20c3 223d 225b a1bd
000000e0: 82ca babc 092d 94bd 959e ca3d 6ab0 febc
000000f0: f26f 0a3d 130f dbbb 5a75 fb3d f7e2 cfbd
00000100: 5700 4a3c 197d e7bd 5230 28bc 2c72 bdbd
00000110: 3ef7 d5bd 4823 57bd 0624 a7bd 2499 6ebd
00000120: 39f0 cebc 2fae d83c a445 343e f8bf c8bc
00000130: db7b ac3d 1a2d 4ebd 81e2 613d 0fae fb3d
00000140: 3b17 093d df61 d33d 9ddb a6bd 6dce 313e
00000150: 70fd da3d 1897 873d eb60 8c3e f437 203e
00000160: 4d80 b53d b9d8 50bd 376b 6f3d 8094 7dbd
00000170: e389 b3bd 3366 a63c df24 96bd 158d febd
00000180: a565 bf3b d2ab b73b c062 053d 4cd0 b93d
00000190: cd1f 08be c394 0fbd da3f fe3b 9209 2d3e
000001a0: 76ae 873d ec6b 433e be0f ec3d 1add 8cbd
000001b0: 9880 f1bd 7886 55bc aeaa a03d 7b65 8e3d
000001c0: 5125 9abd 02ef b8bd 25ec 023e 5cb4 9abd
000001d0: a8e6 89bd 7f9e 373e 4301 043c 70af 41bd
000001e0: c3cd 00bd 57ac e03c 37f9 9d3d 5f58 eabd
000001f0: b15e 4f3d 382f fe3d 36dc 673a c426 acbd
00000200: 1049 ff3d 34a3 963d 201f 99bd d7c5 003e
00000210: 32de 373c 65a7 0b3e d4bb 043e 4c30 823d
00000220: 2c04 a33d 0728 a43d eb1b 1fbd 40da d03c
00000230: fed3 bb3c 6ec0 c43d f5cd d93c 2d9e 52bd
00000240: 9241 e93c 3179 0c3e 2a16 983d 88c8 adbd
00000250: 4d53 6fbd 9e94 013e 58cd 5ebd 8a41 f13d
00000260: fd96 273c 3a7e 9dbd 9840 bcba 7373 873d
00000270: 1caf 65bd 2c6d 7abd 4903 c03c 88a7 c6bb
00000280: 8253 9bbc d44c 97bd 09c7 b9bc 281d 1a3c
00000290: 10c0 253c 8faa 8dbd d8d0 ae3d d8d0 e3bc
000002a0: ffc6 843c 4e6d 973d 98b2 dc3c cc3f 893d
000002b0: 7a62 1e3d e57f fa3d f396 cabd 9430 ab3d
000002c0: 2c11 1d3d 4889 12bc 9fec 3a3d 1b52 cd3d
000002d0: 7733 fe3d a42b a53d 764d 903d 8ce2 c7bd
000002e0: 987a cdbd e640 edbd 8e7d cabc df91 643d
000002f0: eb9c 123c 0519 a4bc b2f3 2fbd f434 68bd
00000300: ef1c d13d e7bb 033e 0018 d9bd b74a b1bd
00000310: 0c7f 053e 29d7 1abd 81c2 173e 115d b03d
00000320: 88e1 b1bd 9e55 22be b5d0 15bd 75cd 01bd
00000330: 25c1 c03d 9992 183e 6e0c e03d 40f5 b23d
00000340: 1661 283d 7862 2d3e a806 e83d ae43 f8bd
00000350: fc87 a4bd 9c98 c73d bc01 24be 0b05 be3c
00000360: 31e7 b93d 93a1 ecbd 6573 5d3d fa54 b93d
00000370: 3a75 acbd 6b5d 583e 81d7 af3c 258d 913d
00000380: 6b8d e2bd a868 66bc efb4 08bd 5e8b 90bd
00000390: df23 4cbd 7538 aebd 4f30 e53d a885 f93b
000003a0: 8d3f d6bc e52d f3bd e6e9 093e 57cb 59bc
000003b0: c5bc 473a 956a 9e3d cdaf 3a3e 061b 21bc
000003c0: 0736 003e 5299 133b 406c c03d 0bb3 88bd
000003d0: c8d1 0b3e 8dd0 d1bc 1e38 ee3d 3737 dabd
000003e0: 7bea 2cbd 972d bcbd e668 013e 8d8a 4d3e
000003f0: d146 e6bd d8b3 e03c 7e66 f5bb 5d45 35be
0.05124918 -0.019368526 0.07054144 -0.013025129 0.1157211 0.08041943 -0.12358131 -0.15196621
0.01483443 0.07217266 -0.07524749 0.1290035 -0.07893485 0.116966635 -0.13612723 -0.07481018
0.05800823 0.058197208 -0.10332798 -0.0031270208 0.055721935 0.047496047 0.17810628 -0.015444265
-0.02062313 0.080887474 0.05556762 0.16583326 0.08828377 -0.11455398 -0.01798028 -0.0040747435
0.1246079 0.056257606 0.09872184 -0.090553544 0.06114208 0.0092277685 0.10665313 0.08603006
0.12758727 0.17303732 -0.035671096 0.054633595 -0.028088093 -0.1196793 0.074878514 -0.0048815636
0.06162029 -0.028653026 -0.10417489 -0.11404721 0.06649788 0.05121891 0.039736867 -0.0787871
-0.022801641 -0.07235152 0.09893528 -0.03108998 0.033798166 -0.0066851466 0.122782424 -0.10150712
0.012329183 -0.11303157 -0.010265427 -0.09250292 -0.10447548 -0.05252388 -0.08161168 -0.058251515
-0.025261031 0.026450245 0.17604691 -0.0245056 0.08422061 -0.05033598 0.05514765 0.122890584
0.03346942 0.10321402 -0.08147357 0.17363901 0.106928706 0.06620616 0.27417693 0.15646344
0.08862362 -0.050987933 0.058451857 -0.0619092 -0.08766534 0.020312404 -0.07331251 -0.12429253
0.0058409744 0.0056051994 0.03256488 0.090729326 -0.13293381 -0.03505398 0.0077590765 0.16898182
0.06625073 0.19084138 0.1152644 -0.06878109 -0.117921054 -0.013032548 0.078450546 0.069529496
-0.07526649 -0.09029962 0.12785394 -0.07553932 -0.06733447 0.17931555 0.008056941 -0.04728645
-0.03144623 0.027425928 0.077135496 -0.11442637 0.050627414 0.1241135 0.00088447647 -0.084058315
0.124651074 0.07355347 -0.0747664 0.1257547 0.011222409 0.13638075 0.12962276 0.06356868
0.0795978 0.08015447 -0.038844984 0.025494695 0.022928234 0.096070156 0.026587466 -0.05142038
0.02847365 0.13718106 0.074261025 -0.08485514 -0.05842905 0.12654349 -0.05439505 0.11780079
0.0102288695 -0.076900914 -0.0014362512 0.06613817 -0.0560752 -0.06113927 0.023439066 -0.0060624518
-0.018960718 -0.07387701 -0.022677915 0.009406365 0.010116592 -0.06917297 0.085359275 -0.027809545
0.01620817 0.07393895 0.026940629 0.067016214 0.038668133 0.12231425 -0.098920725 0.08358875
0.038346455 -0.008943863 0.045635816 0.10025426 0.1241216 0.080649644 0.070460245 -0.09760007
-0.100331485 -0.11584644 -0.024718072 0.055803176 0.008948545 -0.020031461 -0.042957015 -0.056691125
0.10210597 0.12864648 -0.10600281 -0.08656829 0.13036746 -0.03780285 0.14820291 0.08611501
-0.08685595 -0.15852973 -0.03657599 -0.03169008 0.094118394 0.14899673 0.10939871 0.08738184
0.041108213 0.16932094 0.113293946 -0.12122284 -0.080337495 0.09745905 -0.16016287 0.023195764
0.090772994 -0.11554255 0.054065127 0.09049411 -0.08420797 0.21129386 0.021465065 0.07106999
-0.110621296 -0.014063038 -0.033375677 -0.07057832 -0.049838897 -0.08506862 0.11190855 0.00761481
-0.02615335 -0.11873988 0.13468131 -0.013293109 0.00076193764 0.07735173 0.18231125 -0.009833103
0.1252061 0.0022521806 0.09395647 -0.06674775 0.13654244 -0.02561214 0.11631797 -0.10655063
-0.042215806 -0.09188383 0.12637672 0.20072384 -0.11243976 0.027429506 -0.0074890247 -0.17702241

fc.3.bias f4 [269]
00000000: b8d4 26bd d9a1 2cbd 8f6c 0abc 4ba8 3ebd
00000010: fb73 7c3a 8da9 f6bc 2c2a 47bc 9040 1d3b
00000020: 037f 13bc 8b38 79bc deed b3bc 8d91 32bd
00000030: a6b8 01bc ced8 8eba 987e 123b 54a4 0cbb
00000040: 2a66 113d fff5 24bb 7cd1 82bc 4299 5b3c
00000050: ba28 1fbc c4aa 34bd 6886 803c 4746 e63c
00000060: 725a d1bc d0e8 513c 4093 c33c 146f 3c3b
00000070: a83f 31bd 4166 673c 398c 473d 97d2 fb3b
00000080: 4832 b43c ebec 8e3b 102b 183c e67b 58bc
00000090: 7847 94bd 9f5c 913a a7fb b4bc 3425 233b
000000a0: 0c90 f1bb e363 90bd 8daa 7cbd d7ad c3bc
000000b0: 60ce 423c 3f22 9d3b d4f7 973c daa8 d1bb
000000c0: a36a dabc 47c8 23bc 95f7 0a3d 9aa7 92bc
000000d0: 59a5 d0bc bf05 7ebc 945e aabc deaf 313d
000000e0: e7a9 42bb 1b11 04bb df3d b9bc c44a efbc
000000f0: 28a0 45bd dc66 9abd 773d 29bd 652e 5ebc
00000100: 5424 b4bb 35e1 28bd 2a24 0a3d 2c6c d7bc
00000110: 79fe a4ba f173 05bb 7a15 5c3b 8d37 8fbb
00000120: 5f48 123c 1d3e 17bd b56e b3bc e60d c839
00000130: aff0 2dbd 2c60 febc e8bf 49bb f08d a8bc
00000140: ba09 b2bc d342 8f3c b6d3 9ebc 3fe6 fa3a
00000150: 1b04 de3b 6cf7 d0bc adc1 a5bc c9f2 043b
00000160: f7b0 2dbc d043 b5bc c04d 803c 4041 533a
00000170: 804c 023c a0b6 b8bc 6199 d43c 77f7 06bd
00000180: 1e6a 08bd 3d53 06bd 5afc 683c e309 f1bb
00000190: f69d b8bc e530 a23c 8cae f3bb dc65 86bc
000001a0: a99c fabc 97f0 58bc 17ec 4cbc 8a5c 8f3c
000001b0: 58eb 9a3c ebb4 753c 2c5b dabc 32b0 87bc
000001c0: a13a edba 13fa 113d 73a6 adbc 8e0b 683d
000001d0: 3223 063d f8c1 31ba 3573 16bc 9e06 923c
000001e0: a559 ccbc 1fa9 eabc b1a8 49bd acfa 8a3b
000001f0: 11fa c7ba 636b bbbb ac9b 92bb 17d2 3cbc
00000200: 7f02 623d 2448 9dbc 72d2 cbbc d273 6f3c
00000210: 4a04 d0bc 42a2 713c 1ffa 8ebc fad3 bcbc
00000220: c22b e93c 1967 92bd 086d 5b3c 22b1 f33c
00000230: 6de9 e5bc db99 0ebc f6ee 25bd 8ff9 3abd
00000240: 344d 5cbc a665 40bc a55f 4dbc 03f1 3b3b
00000250: f468 293c f948 fb3c a9f1 29bb 211b 523d
00000260: b651 97bc ed6a efbc 1842 223d 66db 8f3b
00000270: 6538 08bd d45d 523b 2784 94bc ff51 543d
00000280: 532f 28bd f743 e23c 71cc 823c cc6d b2bc
00000290: 4544 1fbc 90c7 323c da33 0f3b 9a9a 76bd
000002a0: 4345 c3bc 5baa 25bc bc32 8bbc 92fb 91bc
000002b0: f91e d4bb e297 db3b f434 80bc bbe9 87bc
000002c0: 131c ecbc 788a 03bd e6e8 613c 5d69 4bbc
000002d0: 2dfb 373b b88b 3abd 9e14 8a3c 5ac8 7e3c
000002e0: 97b7 14bd a528 12bd 1f8a c43c 796a 73bc
000002f0: 5dce 943c a2fd c4bc 985b 46bb 80d1 673c
00000300: ebe7 3cbd 2c25 d339 2261 6f3c f737 6b3c
00000310: ea9b 92bc e448 bfb9 9f8f 5b3c 60bf 803d
00000320: ce54 413c dbc5 aa3b 057d c43b 37a7 2d3c
00000330: bab3 8bbc 0785 9c3c dea5 5f3b 5a0e 66bc
00000340: f268 eb3c b793 68bc 376b c53b 0b96 453c
00000350: 6116 423d 9656 703a 8c77 04bb 1996 9fbc
00000360: 3073 e7bc 4beb 193d a359 0d3c e090 3fbc
00000370: 2b03 b93c 440a 993c 4841 d9bc 7c95 8b3c
00000380: b4d6 79bb 16ef d73c 87cd 1f3d 5255 62bd
00000390: 3e45 f43c 4eff b03c af3c 4d3d 66d7 4a3c
000003a0: c97e 36bd 51c7 913c cef0 653d 0ce4 193d
000003b0: bb37 443d 97a5 523b 7fd7 d6bc 61b9 59bd
000003c0: 0d9c 1a3c 7e6c 373c f1e5 05bd 4171 d93c
000003d0: fdd0 d83c 718f e73c ff3d 463d 36c1 4abd
000003e0: 6ebf a4bc 1b57 1c3c b0e9 9e3c 4854 0c3b
000003f0: 5c4d 6d3b 75b7 3abd bd06 0c3d 02bd 2fbd
-0.04073021 -0.042146537 -0.008448734 -0.046547215 0.00096303195 -0.030110145 -0.012156051 0.002399478
-0.00900245 -0.015211235 -0.02196401 -0.04359584 -0.007917559 -0.0010898353 0.0022353288 -0.0021460252
0.035497822 -0.002517104 -0.01596903 0.013403239 -0.0097143 -0.044108167 0.01568909 0.028109683
-0.025555823 0.0128118545 0.023873925 0.002875273 -0.043273598 0.0141235 0.04871771 0.0076850164
0.021996632 0.004361739 0.009287611 -0.013213133 -0.07240194 0.0011090225 -0.022092653 0.0024894
-0.007371908 -0.07050302 -0.061686087 -0.023886604 0.011890024 0.004795342 0.01855079 -0.0063983025
-0.026662176 -0.00999648 0.03392752 -0.017902184 -0.025469469 -0.0155043 -0.020797051 0.04338061
-0.002970332 -0.0020151797 -0.02261251 -0.029210456 -0.04824844 -0.0753915 -0.041318383 -0.013560866
-0.0054974947 -0.0412304 0.033725895 -0.026296698 -0.0012588046 -0.0020363296 0.0033582137 -0.004370636
0.008928387 -0.03692447 -0.021903375 0.00038157328 -0.042465862 -0.031051718 -0.003078455 -0.020575494
-0.021733154 0.017487919 -0.019388061 0.0019142105 0.0067753918 -0.025508605 -0.020233953 0.0020286313
-0.010601274 -0.022127062 0.015662074 0.0008058734 0.007952809 -0.02254802 0.025952043 -0.032950845
-0.033304326 -0.032794226 0.014220322 -0.007355915 -0.02253626 0.019798705 -0.007436579 -0.016405992
-0.03059228 -0.013240955 -0.01250746 0.01750018 0.018911049 0.0149967475 -0.026654802 -0.016563509
-0.0018099138 0.03563888 -0.021197533 0.056651644 0.03274841 -0.0006780918 -0.009182741 0.017825421
-0.02494509 -0.028645096 -0.049233142 0.004241308 -0.0015257021 -0.0057195886 -0.004474124 -0.011524699
0.05517816 -0.019199438 -0.024880622 0.014615016 -0.02539267 0.014748158 -0.017453251 -0.023050297
0.028463248 -0.071485706 0.013392694 0.02974755 -0.028065408 -0.008703674 -0.040511094 -0.045648154
-0.013446141 -0.011742985 -0.01253501 0.002867759 0.010339964 0.030674445 -0.0025931394 0.051295403
-0.01847158 -0.02922579 0.039613813 0.004390168 -0.033256907 0.0032099383 -0.018129421 0.05183601
-0.041060757 0.027620299 0.015966626 -0.02178087 -0.009720867 0.010911837 0.0021850974 -0.060206033
-0.023836737 -0.010111417 -0.016991965 -0.017820153 -0.006473419 0.0067014555 -0.01565025 -0.016590944
-0.02882198 -0.032114476 0.0137884375 -0.012415257 0.0028073296 -0.045543402 0.016855534 0.015550697
-0.036307897 -0.035683293 0.023991643 -0.014856928 0.018164808 -0.024046723 -0.0030266996 0.01414907
-0.04611961 0.0004027275 0.014610561 0.014356605 -0.017896611 -0.00036484667 0.013400941 0.06286502
0.011800004 0.0052115745 0.005996349 0.010598949 -0.017053474 0.019106401 0.0034125964 -0.014041508
0.028736565 -0.014195374 0.006024744 0.012059699 0.047384623 0.0009168176 -0.0020212857 -0.019480752
-0.028253168 0.03757791 0.008627328 -0.011692256 0.022584518 0.018681653 -0.026520386 0.017039053
-0.0038122358 0.026359122 0.039014366 -0.05525715 0.029818173 0.021606114 0.0501067 0.012380457
-0.044554505 0.017795237 0.056137852 0.037570998 0.04790471 0.0032142156 -0.026225803 -0.053155307
0.0094366195 0.0111953 -0.032689992 0.026543261 0.02646684 0.02826664 0.048398968 -0.049500667
-0.020110812 0.009542252 0.01939854 0.002141254 0.003620944 -0.045585115 0.034186114 -0.04290486

fc.3.weight f4 [269, 538]
00000000: 182a 473d 2c8d 2d3d f93d 673b cf10 e3bb
00000010: bf94 413d 7f78 5bbd 005f 22bd 0d29 0a3d
00000020: 1b7b aabb c7b9 2d3d 3c58 83bd 5e2f 093d
00000030: 0348 31bd 21ab da3c abf9 00bd acf2 cdbc
00000040: 75e9 3c3c 1ef2 413b 3ae1 aa3c 73ff 4e3d
00000050: 5ccc 1cbd 9d4d 37bd 499f 3bbd 9093 833c
00000060: b994 e73c 8d3a 253b e2db 5dbd 12f6 64bc
00000070: 48ca 82bd 8003 d5bc fcb9 523d aa4c ee3b
00000080: b454 26bd 63ef abbb 82ca 5b3d a8cb 36bd
00000090: 1c26 6c3d 4cb4 7f3c b181 ebbc c6af 503d
000000a0: 821f 90bd 738f c03b d791 98bc 8685 933d
000000b0: 1628 3f3b 6d5a e73c 06db 66bd 8a3b 28bc
000000c0: 6b93 e2bc 6bbf 803d d7fe 403d 3033 323d
000000d0: e347 50bd 9f49 36bd 16fc 8d3c eaab 013d
000000e0: 7e7a 37ba c904 b43c 433e 723d 9209 15bd
000000f0: 4b77 80bc 59ce f5bc 818e 833d 444e 633d
00000100: 72d0 3cbd b138 b33d be44 8abd 1963 abbc
00000110: 7599 45bc 6bbe a73d c99b 973d cd41 593d
00000120: 10f3 18bd 6d23 d7bc 7e90 25bd 25ec cdbc
00000130: 8a60 f23c e467 2bbc 5d0c 4bbd 0f3d a33d
00000140: 6bce 373b 948b 9d3d 8326 7a3c 24d7 a8b9
00000150: b319 88bd cff0 6bbd 8513 953c 389a 80bd
00000160: c5cf 4a3d b615 7c3d 7dba 613d 2c8a acbd
00000170: f8ce 10bd 812e 21bd 809a fbbc eb98 2f3d
00000180: ed3f bcbc a28a 9d3c 9944 783d e9d8 eebb
00000190: 6935 95bc 2102 653d dd9f 4f3c ffb1 21bb
000001a0: fed9 1cbd 200b 1b3d 45e4 3cbd 4dc1 91bc
000001b0: 9ada 433d 943d 3f3d 0516 38bd 9cc0 2bbc
000001c0: b372 96bc 9800 243d a9cd 253c d42d 85bd
000001d0: 3869 2abd 94e1 98bc 6a49 5bbd 62f1 21bd
000001e0: 98a4 563d e9c0 283d 8a9d 6f3c 0ce4 23bd
000001f0: 2097 3bbd c04b 64bd a804 0cbd cb6c a5bc
00000200: 8e12 e3bb 81d5 30bd 4218 43bd 72ce 163c
00000210: 9e1d 87bc c610 223b d20a 50bd 90f4 323d
00000220: b0d5 6f3c e78a a6bc 5150 8dbc 77f3 d8bc
00000230: 0f37 36bc 0f9c 033d 145c cd3d 390c 383a
00000240: ea10 933c da2a 09bd a5f1 8c3c 10c2 e3bc
00000250: f12e 1b3d fda5 823d a60e 10bd 5912 98bd
00000260: 4a22 51bd c93c b13d 0f83 87bd df44 28bd
00000270: b9aa 96bc 06dd 81bd f7ef 79bd 023a 42bd
00000280: 26ce 1dbb 356e 45bc 148d 1ebc 1342 523c
00000290: 4cb4 4abd b096 1b3c 39fe 25bb 3a99 433d
000002a0: 5d3c 2b3b fe96 aabc 8896 91bc aea8 023d
000002b0: 97a3 16bb 1d46 22bd 1f80 c439 3a6e 853b
000002c0: af57 cb3d 62e3 ae3a 9c4f 7f3d 6cdc 083d
000002d0: c94b 803d 2d2a b5bc c7d3 82bc 410d 793d
000002e0: 7625 5f3d fdd1 963d e135 ae3c cd48 1e3d
000002f0: 9026 e33b 7541 9dbc e42f 2e3d 16fe c03b
00000300: 642e c03c 59a6 c83c 32fc babb e443 ff3c
00000310: 7a33 0a3c 92ec 713d 6a87 96bc d42a 0c3d
00000320: 1213 81bd f26d a63d 42ea 833c b638 1a3d
00000330: a681 0e3d 5d1a 5dbd 290d 3d3d 45da 59bd
00000340: 8bb1 a2ba 9b63 813c bb4a 3a3d 4e4e c73c
00000350: 1823 33bd 10b8 0b3d 996b ab3d 1d01 373c
00000360: 0f0f e03c f64f 0b3d e940 093d 2b2a ebbc
00000370: cbf3 84bd c922 07bd e99b a8bc 7f5b 973d
00000380: 3b84 253d 1116 01bd 7a79 12bd 8af1 1dbd
00000390: 3f12 fcbc a481 72bd d414 81bd 70c4 35bd
000003a0: c8f6 483d c56e 04bd 0df4 2ebd 602f 80bc
000003b0: 5af9 c5bc a996 1ebd f605 91bd d131 83bd
000003c0: 77b7 c9bc 20ab 01bc ed4e 4bbd c732 a43c
000003d0: 1333 653c 9914 99bd bd6d 743c cd30 3c3d
000003e0: 28bf 82bd 2e6c 803a cec2 53bd 4c77 48bd
000003f0: dd90 133d aa9e 613d 45cb de3c 83d9 30bd
0.048624128 0.04237096 0.0035284741 -0.006929494 0.047260996 -0.05358171 -0.03964138 0.033730555
-0.0052026636 0.0424135 -0.06413314 0.03349244 -0.043281566 0.026692929 -0.031488102 -0.025140129
0.01153027 0.0029593776 0.02085935 0.050536584 -0.03828083 -0.044751752 -0.045806203 0.016061574
0.028269159 0.00252119 -0.054164775 -0.013974683 -0.06386238 -0.026002645 0.0514469 0.0072723227
-0.040608123 -0.005247043 0.053659923 -0.044627815 0.05765353 0.015606951 -0.028748365 0.05094888
-0.0703726 0.0058764755 -0.01862423 0.07203202 0.002916818 0.02824136 -0.05636122 -0.0102681015
-0.027658185 0.0628651 0.047118034 0.043505847 -0.050849807 -0.044503804 0.017332118 0.03165809
-0.0006999149 0.021974938 0.05914141 -0.03638608 -0.015681883 -0.03000562 0.06423665 0.05549456
-0.046097226 0.087510474 -0.06751393 -0.020921277 -0.012060513 0.08190616 0.074027605 0.05304127
-0.037341177 -0.02626201 -0.040421 -0.025137017 0.029587049 -0.010461781 -0.049572337 0.079706304
0.0028046619 0.07692638 0.015267971 -0.0003220375 -0.06645527 -0.0576027 0.018197784 -0.06279415
0.04951455 0.061544143 0.05510949 -0.08424792 -0.03535363 -0.03935099 -0.03071332 0.042870443
-0.022979701 0.019231144 0.060612295 -0.0072890413 -0.018213945 0.055910233 0.012672392 -0.0024672744
-0.03829383 0.037852407 -0.046116132 -0.017792368 0.047815897 0.046689585 -0.044942874 -0.010482933
-0.01836524 0.04003963 0.010119834 -0.06502882 -0.04160425 -0.018662252 -0.05353681 -0.03953684
0.052403063 0.0411996 0.014624963 -0.040012404 -0.04579842 -0.055736303 -0.034184128 -0.020193478
-0.006929702 -0.043172363 -0.047630556 0.009204494 -0.016493615 0.0024729236 -0.05079157 0.043690264
0.014638349 -0.020329906 -0.017250212 -0.02648328 -0.011121525 0.03213125 0.10027328 0.0007020864
0.017952401 -0.033488132 0.017205069 -0.027802497 0.037886564 0.06379316 -0.03517022 -0.074253745
-0.05105809 0.08654172 -0.06616794 -0.041081306 -0.018391954 -0.06340985 -0.061019864 -0.0474186
-0.0024079173 -0.012050201 -0.00967719 0.012833136 -0.04948835 0.009496376 -0.002532853 0.04775355
0.0026128509 -0.020823952 -0.017771974 0.031899147 -0.002298569 -0.039617646 0.0003747949 0.004071978
0.09928834 0.0013342912 0.06233178 0.033413336 0.06264455 -0.022114838 -0.015970124 0.060803656
0.054479085 0.07364271 0.021265926 0.038643647 0.0069320872 -0.019196251 0.04252614 0.0058896644
0.02345962 0.024493383 -0.0057063336 0.031160302 0.0084351245 0.0590635 -0.018375117 0.03422053
-0.063024655 0.08126439 0.016102914 0.03765174 0.03479161 -0.05398022 0.04615513 -0.053186674
-0.0012412531 0.015794566 0.045481425 0.02432933 -0.04373464 0.034111083 0.08370132 0.011169699
0.02735093 0.034011804 0.03350917 -0.02870663 -0.06491812 -0.032992158 -0.020582156 0.07390498
0.040409308 -0.031515185 -0.03576038 -0.038560428 -0.03077042 -0.059205666 -0.06302801 -0.04437679
0.049063474 -0.0323322 -0.042713214 -0.01564759 -0.024166752 -0.0387179 -0.07081215 -0.06405986
-0.024623616 -0.007914335 -0.049635816 0.020043744 0.013989228 -0.07474632 0.014918742 0.045944978
-0.063841164 0.0009797865 -0.051699452 -0.048941895 0.036026824 0.055082954 0.027196536 -0.043176185
