inventory/ark_material.onnx (onnx, 497980 bytes, 8 tensors)

35 f4 [8, 3, 5, 5]
00000000: f15c 57be 32cd ddbd f029 1c3f 76ac 01bc
00000010: 0c08 a0be e9cb dabe 8bd8 d0be 89e2 0b3e
00000020: 022a 303f 3e49 7ebe 114e 1fbf 3718 a73e
00000030: ecd7 02bd b8ad d5bd 8801 c13e 2b0f 433e
00000040: 068f 333e ec32 e5be 497e 983c ce34 88be
00000050: cacb 773e 1b1a 96be bf7b fdbe 6a5a 453e
00000060: d0c1 06bf 6b45 4b3e 5e90 023f fe8e 0c3f
00000070: 4318 de3d 9b6c 8f3e 69e5 003e f044 ff3c
00000080: 7347 633d d7eb 003f 05c0 1a3f b1eb fdbe
00000090: 342a 1abf 6976 24be 91fe 173d a9ae 0e3f
000000a0: ba17 8b3e 2295 d4bd 967b 01bf 028d 04bf
000000b0: 12dc 333e 424f fb3e fc04 e53e 34f7 353e
000000c0: 379e 08bf 0b9a 25bf 83d7 113f ec23 123f
000000d0: 768a 313f b6b2 92bd 9d51 b6be 7d09 d1be
000000e0: b001 d83e be47 a03e b837 57be d684 cd3c
000000f0: 8d82 11bf b3e2 773e cf16 e4be f224 cb3e
00000100: 1f17 c83e 29bb a73e a362 46bf 1f80 10be
00000110: a4d5 54be 3cb5 913e 3b2c eb3d 07a0 34be
00000120: af84 9cbe e533 f7be 6634 003e 1db3 063e
00000130: 7d9c 6d3e 3a9c dd3d 9bfc 3fbe 9e51 ad3d
00000140: 11db 99bd 462a 1c3e 3915 c33e 97af af3e
00000150: 8c3b 913e 2095 8abe eb04 ae3d 2fed 243d
00000160: 449d 493e 0782 a53e 4eff d5be e42f 86bc
00000170: f9a7 a2bd 8482 253e bad6 923e 50b0 fcbd
00000180: 6c96 dbbd 6291 e5bd f94a aa3c ee72 8c3e
00000190: ebbf 9c3e 15d6 ce3d b02e b23e 0abb bebc
000001a0: 364d abbe a817 51be e85c 223c 7f82 0b3e
000001b0: 2729 adbd 573c 75be c3df 403e d489 babe
000001c0: 823f 113e dede ae3d adc1 d0bd 5f20 453e
000001d0: 4729 57be 63c0 d8be 74fb e3be 2337 9ebe
000001e0: 25d2 ce3d 1412 863e 16bc 8bbe a930 9d3d
000001f0: 1af8 cf3b 85b9 083f ad4c ac3e ee9b b73c
00000200: 16fb b93d acbb d4bd f9bf 803d 75f5 a5be
00000210: 27fd 0ebc d64d 74be 59d9 2f3e 3f54 02be
00000220: f08f 293d ad88 98be 2855 a33e 81c2 d83e
00000230: dc7e af3e 71ee 023d 5535 8d3c a441 903e
00000240: 34da fe3e a166 0b3f 0f42 953e b7b0 783e
00000250: a10a 9bbd 6879 a43d b3da 183e a87a dc3c
00000260: aa18 c53c 06d3 94be 8411 8b3e e9cb 293f
00000270: 468f 0c3f fb8a 493e a84e 80be ab54 fc3d
00000280: ec9d bc3e d5b9 813e 4d9e 97bd d114 633e
00000290: 82ae 03be 64d9 053f 5b97 f73b 8a39 cc3d
000002a0: 2b9f 9cbe 4d84 9bbe a3be df3d 3a8a f9bd
000002b0: 4730 80be f22f afbe 651f acbe 76e7 ad3e
000002c0: e467 a3be 5ac8 05be 0b9f d83e ee52 473c
000002d0: 89c8 f0be 33e5 8cbe 11fa 12bf 7eb0 833e
000002e0: 1eb7 c8be 0dfa 17be b0ad 8fbe e3a1 373e
000002f0: ec35 11be 074c 063e 2830 08bf cb9b 0ebe
00000300: 7027 8fbe c6df d0be 14a0 08bf c663 5fbe
00000310: 4e17 e93d 9ae6 31bd 003f 0abe 7335 1cbe
00000320: a2b6 e3bc 4caa 683e 9188 0c3e 08ad 20bd
00000330: 0b1b f93a 6b5e 5e3d 905d 5e3e 4fdd 203e
00000340: 1de3 50be 2b50 ca3e aedf c73d 9358 e1bd
00000350: e888 993e 3b7b 0fbe a51e 7e3e 4d6f b1be
00000360: 375a 8bbe e41a 1abe 0eaa ce3e 29d2 05bf
00000370: a659 06bf 2022 b8be 80e7 a23c 9309 2a3e
00000380: 1ab3 e4be 7ee8 9c3e f705 e63d 2d67 93bc
00000390: ed1a 68be 687c 2dbd c28f 0f3e c1e4 a73c
000003a0: a2e1 f4bd 7add 97be ecd8 17be 6a6a b93e
000003b0: d143 c53c 2952 8c3e 8071 5d3e b5cd 583e
000003c0: dcd9 40bc af6f 473e 4785 963e 7e03 9cbc
000003d0: 5888 853e ae00 ed3d 8542 763e 34ed 1ebe
000003e0: 04fd 963e 2639 1e3e 086a 223d 44ee 093e
000003f0: afd7 8bbc 1ec8 c13d dc20 44be b7bf 763d
-0.21031548 -0.108301535 0.6100149 -0.007914653 -0.3125614 -0.42733696 -0.4079021 0.13660635
0.688141 -0.24832627 -0.62228495 0.32635662 -0.0319442 -0.10433525 0.3769648 0.19048755
0.17535028 -0.44765413 0.018614905 -0.26602787 0.24198833 -0.29316792 -0.49508473 0.19272771
-0.52639484 0.198507 0.51001537 0.5490569 0.10844471 0.28012547 0.12587513 0.031160802
0.05548806 0.50359863 0.6044925 -0.4959388 -0.60220647 -0.16060795 0.037108008 0.5573526
0.2716654 -0.10380007 -0.505792 -0.5177766 0.17564419 0.49083906 0.44730365 0.17770082
-0.53366417 -0.64688176 0.5696947 0.5708606 0.693519 -0.07162993 -0.3560914 -0.4082755
0.42188787 0.31304735 -0.21017349 0.025087755 -0.5683983 0.24207573 -0.44548652 0.39676625
0.3908014 0.3275998 -0.7749426 -0.14111374 -0.20784622 0.28458583 0.11483046 -0.1763917
-0.3056998 -0.4828178 0.12519988 0.13154264 0.23204227 0.108208135 -0.18748705 0.08462833
-0.07512487 0.15250501 0.3810213 0.34313652 0.28365743 -0.27066898 0.08497032 0.04026526
0.19688898 0.32325765 -0.41796345 -0.016380258 -0.079421945 0.16163069 0.28679448 -0.123383164
-0.1072205 -0.1120937 0.020787703 0.27431434 0.30615172 0.10099427 0.34801245 -0.023282547
-0.33457345 -0.2041918 0.009909846 0.13623999 -0.08455115 -0.23948799 0.18835358 -0.3643328
0.14184383 0.08538602 -0.10193191 0.1925063 -0.2101184 -0.4233428 -0.4452778 -0.3090144
0.10098676 0.26185668 -0.27291936 0.07675297 0.0063467147 0.5340808 0.3365225 0.02241322
0.09081094 -0.10387358 0.06286616 -0.3241383 -0.008727348 -0.23857817 0.17172755 -0.1272745
0.041397035 -0.29791775 0.31900907 0.42335895 0.34276474 0.031965677 0.017237345 0.2817508
0.4977585 0.54453474 0.2915196 0.24286161 -0.07570387 0.08030969 0.14927177 0.026913956
0.024059612 -0.29067248 0.271618 0.6632677 0.5490612 0.19681923 -0.2506001 0.12320837
0.36839235 0.2533709 -0.0740324 0.2217591 -0.12859538 0.52284837 0.007555885 0.09971912
-0.30590186 -0.30374375 0.10925033 -0.12184568 -0.25036833 -0.34216267 -0.33617702 0.33965653
-0.319152 -0.1306471 0.4230884 0.012165768 -0.47027996 -0.27518615 -0.5741282 0.2572059
-0.39202207 -0.1484148 -0.280622 0.17932849 -0.14180726 0.1311494 -0.5319848 -0.13926618
-0.27959776 -0.40795726 -0.5336926 -0.21815404 0.11381398 -0.04343281 -0.13500595 -0.15254764
-0.027797047 0.22721213 0.13723971 -0.039227515 0.0019005252 0.054289263 0.21715379 0.15709423
-0.20399137 0.39514288 0.097594604 -0.11003222 0.29987264 -0.14011852 0.24816377 -0.34655228
-0.27217266 -0.1504932 0.40364116 -0.52273804 -0.5248054 -0.35963535 0.019885778 0.16605215
-0.44667894 0.30646127 0.112316065 -0.017993534 -0.22666521 -0.04235497 0.14019683 0.02049482
-0.119570985 -0.2966116 -0.14828843 0.36214 0.024080189 0.27406433 0.21625328 0.21172221
-0.011770692 0.19476198 0.29398558 -0.019044634 0.26080585 0.11572395 0.24048813 -0.15520173
0.2948991 0.15451488 0.0396519 0.13469797 -0.01707062 0.094619974 -0.1915316 0.060241427

36 f4 [8]
00000000: 7c32 15be 2cda e1bf 79d0 c03f 7ff3 b1bf
00000010: f28b e03f 45f4 98bf e30e 22bf 4f53 bc3f
-0.1457004 -1.7644706 1.5063621 -1.3902434 1.7542708 -1.1949545 -0.63303965 1.4712924

38 f4 [16, 8, 3, 3]
00000000: 081a 4f3f 128e a03e 82a2 293f 1491 613e
00000010: 2496 9abe 69d9 bfbe dc2c 1abf 9f0e be3f
00000020: 3d92 3c3e ab7d c8bd 63d9 6dbf d8b8 bbbe
00000030: 2b41 063f 396d 74bf 0690 553f 9c3a 67bf
00000040: b35a e63e e2eb d53e 9d54 10bf 66f2 d7be
00000050: f24d 3dbf 1bf2 943f 66d0 6abf 9b64 98bf
00000060: 2aa5 1abf 764e 2f3f ab91 6dbe 29c1 803f
00000070: 4256 febd e5a7 973e ffb2 633f 0170 a2bf
00000080: 6624 8ebf 13f3 94be 5718 573f 4930 873e
00000090: 55a4 f5bd 7be0 b03f ba14 b33e 2dc3 07bc
000000a0: 0125 10be 34ee 8bbe 690b 5f3e 67d9 36bf
000000b0: 2542 b3bf c44b f83e fd56 063f b7a5 bf3d
000000c0: 889b f1bd afc9 20be 0a92 aabf 00e5 07bf
000000d0: d86a 45bf fcd9 bebf ff95 3f3f ba90 0cbf
000000e0: fb5b 073e 5f87 bb3e 83a9 43bf fd4c a3be
000000f0: 4e64 2abf e092 adbe 1ce0 ab3f 3390 5cbd
00000100: aca8 04bf 0a25 70bf 9f8b 30bf 4c90 17bf
00000110: 6369 12bf c73a 62bf 767f a63f 9c08 a53f
00000120: 98c3 c2be fd14 35be 7bd9 2fbf 14f2 e0be
00000130: 9e37 d43f 3b83 c03e 1a44 e73e 873a d53f
00000140: c155 18bf f2ff 843e 8cc1 60bf 3781 11bd
00000150: 55d2 ebbe 35d9 74bf 08e4 34bf e01c 6bbe
00000160: 3284 5a3f 88ce 2ebf daa6 1d3f e561 0abf
00000170: dc6b 543e ecd4 ebbe 5716 61bf 8d80 dfbf
00000180: 25fb 7dbd df27 b43e 7c7c d4be 0461 0abe
00000190: 903c ecbe 9445 263f 4607 2d3e ebf1 51bf
000001a0: abdc c83e caab 5cbe 7eba a0bd 7c3a 9ebe
000001b0: adac 3d3e 1df2 f03d 7ba6 143f 4bc5 5ebf
000001c0: 1705 a1bd bb96 44be bf65 b73f fe9b 9dbf
000001d0: d74f cd3d 89cd 84bf 2e95 073f c586 9fbe
000001e0: 004c 263e 0236 a23f d71f b9bf 7b8c f43e
000001f0: d2b6 593f 8950 cabe 8968 be3f 5c53 423f
00000200: 1ca7 993e 9847 21be 5333 5fbe 2d13 3fbf
00000210: d9b6 1a3f fbfa d7be 86c3 cd3e e5ca 0dbf
00000220: 2908 c23d dc4b 3cbf 33e1 1dbf 7efa 43be
00000230: ac60 413f 5d46 18bf 0dfe 633f c4f0 5ebd
00000240: b5d4 1b3f d27b 7c3e 5869 1cbf f024 5cbe
00000250: b13b 253f 1dda 833e 6ac5 0abf ed8a aabe
00000260: 8fcd 1e3f 0452 81be 455e d0bd 6b2c 243d
00000270: 23a2 013f d728 9cbe 5057 683f db00 8dbe
00000280: faab 82be 1d2c 8bbe a8db c63e e380 b33e
00000290: cdc2 9cbc 6f75 293d 93d8 083f 5d47 87be
000002a0: 4771 5c3f cd25 d63f f207 0f3f 84ed 463e
000002b0: 1e19 dbbc 60f8 09bf 8f8d 3a3f 8bc1 74be
000002c0: c78b 683f c22a 8dbd ad03 0e3b d0b1 a3be
000002d0: 1f05 a1bd 2a2e cb3e 7a17 0cbf d4bf 49be
000002e0: d643 1ebf cbc9 e23e db80 d53e 983b ca3e
000002f0: c105 9cbe b03b e13e 4a84 323e 908d ad3e
00000300: bfa1 e03d 462f 62be a777 233f d152 393f
00000310: e2eb fb3e 5afd 94be c856 25be 2ce7 cdbe
00000320: 6cca 823e 9ba3 e23e f1a5 12bf 3e3c af3f
00000330: 8c44 8d3f c7fa 86bd 5594 67be 3e94 2fbf
00000340: b5c5 273f ce4b 103e f591 4f3e 7022 cfbe
00000350: edef 853f 9204 abbf 32da 03bf 624c e0bd
00000360: 4aea 0b3f 58ab 3c3e ab6a dc3e a8c1 f83e
00000370: 457a b7bf 0c99 543d f685 b73d 2151 07c0
00000380: f387 133f d286 71be 84ac 22bf cafb bdbe
00000390: 646a 8a3f f5df 5a3f 6fb7 bdbe 719d 283f
000003a0: d8cb 6cbf baac 8dbe 4018 48bf 46d2 c93e
000003b0: 24ec 6bbf e41e 5e3f 2faa efbe f9df 6ebe
000003c0: 68a1 1d3f de53 e33c b2c3 883f ebd9 393e
000003d0: d518 273f cce4 e13e 911c d53e 32f0 b33f
000003e0: c798 dbbc bd5c babf f714 733f 32f5 b8bf
000003f0: 28d7 8cbf ca9d 69bf a7ec 023f 6e22 d8bd
0.80899096 0.3135839 0.6626359 0.22027999 -0.30192673 -0.37470558 -0.602247 1.4848212
0.1841516 -0.09789594 -0.9290983 -0.36664462 0.5244319 -0.9547916 0.8342289 -0.90323806
0.44991073 0.41781527 -0.5637911 -0.42177123 -0.7394706 1.1636385 -0.9172424 -1.1905702
-0.6040827 0.68479097 -0.23200099 1.0058948 -0.12418796 0.2962028 0.88945 -1.2690431
-1.1104858 -0.290917 0.84021515 0.26404026 -0.119942345 1.3818506 0.3497675 -0.00828628
-0.14076616 -0.27330172 0.21781696 -0.7142548 -1.4004561 0.48495305 0.52476484 0.093577795
-0.11797243 -0.15701936 -1.3325818 -0.530838 -0.77116156 -1.4910274 0.7483825 -0.54908335
0.13218682 0.36626717 -0.7643053 -0.31894675 -0.665593 -0.3390112 1.3427768 -0.053848457
-0.5181987 -0.9380652 -0.68963045 -0.59204555 -0.5719206 -0.8837094 1.3007648 1.2893252
-0.3803985 -0.17683788 -0.68691224 -0.4393469 1.6579473 0.3760012 0.45169145 1.6658486
-0.5950585 0.2597652 -0.8779533 -0.03552362 -0.46058908 -0.9564393 -0.7066045 -0.22960234
0.85357964 -0.6828389 0.6158272 -0.54055625 0.2074427 -0.46060884 -0.8792471 -1.7461106
-0.06200709 0.3518667 -0.41501224 -0.13513571 -0.46139956 0.6494992 0.16897306 -0.8200976
0.39230856 -0.21549907 -0.078480706 -0.30903995 0.18522902 0.117649294 0.5806653 -0.87019795
-0.07862299 -0.19198124 1.4327925 -1.231323 0.10024994 -1.0375224 0.52962005 -0.31157508
0.16239929 1.2672732 -1.4462842 0.47763428 0.85044587 -0.39514568 1.4875652 0.75908446
0.30010307 -0.15749967 -0.21796922 -0.74638635 0.60435253 -0.4218367 0.40188235 -0.5538772
0.09474213 -0.7355325 -0.6167175 -0.19138524 0.75538135 -0.59482366 0.89059526 -0.05442883
0.6087144 0.24656609 -0.6109824 -0.21498466 0.64544207 0.25752345 -0.5420748 -0.33309117
0.6203241 -0.25257885 -0.101742305 0.040081423 0.50638026 -0.30499908 0.9075823 -0.27539715
-0.25521833 -0.27182093 0.3883946 0.3505927 -0.019135857 0.04137176 0.53455466 -0.26421633
0.8611035 1.6730286 0.558715 0.19426543 -0.026745375 -0.53894615 0.7287225 -0.23901956
0.90838283 -0.06892921 0.0021669671 -0.31971598 -0.07862305 0.39683658 -0.5472332 -0.19702083
-0.6182226 0.4429458 0.4169987 0.3949859 -0.3047314 0.4399085 0.17433277 0.33897066
0.109683506 -0.22088346 0.6385445 0.7239199 0.49203402 -0.29099542 -0.16146386 -0.40215433
0.2554506 0.44265446 -0.57284456 1.369026 1.1036544 -0.06590801 -0.22615178 -0.68585575
0.6553605 0.14091417 0.20270522 -0.4045596 1.0463845 -1.336077 -0.51504815 -0.10952069
0.5465437 0.18424737 0.4305013 0.48585248 -1.4334189 0.05190377 0.08961098 -2.1143267
0.5762932 -0.23586586 -0.6354449 -0.37106162 1.0813718 0.8549798 -0.3705401 0.65865237
-0.9249854 -0.27670842 -0.78162 0.39418238 -0.92157197 0.86765885 -0.46809527 -0.23327626
0.6157441 0.027749952 1.0684721 0.18149535 0.65272266 0.4411987 0.41623357 1.4057677
-0.026806248 -1.4559551 0.94953865 -1.4449828 -1.100316 -0.9125639 0.5114235 -0.10553442

39 f4 [16]
00000000: be2b 2e40 94aa c43f 8c6a 00c0 7c3c 653f
00000010: 0214 22bf 37d7 73bf 4871 c4bf acc1 22bf
00000020: 9370 da3f d663 1f40 74fa 0f40 c1ea 1c3e
00000030: 8d32 febf dd1a 06c0 b9be 1940 b153 4740
2.7214198 1.5364556 -2.006503 0.89545417 -0.6331178 -0.95250267 -1.5347071 -0.6357677
1.7065605 2.4904685 2.2496614 0.15323927 -1.9859177 -2.0953896 2.4022658 3.114483

fc.0.bias f4 [426]
00000000: 6c38 e73d fbae 94bc dd6f eb3d 029f 223c
00000010: 9ea7 3ebc 1e93 a33c 4529 14bd 7252 e43d
00000020: 9c4a 893d 7710 c83d 4615 883d 37f2 c03b
00000030: 2cd4 b53d cd95 013d ec27 cbbc c6e9 2fbd
00000040: 6672 4f3c 8c24 1e3e 9413 023e 86ad 673c
00000050: 5a05 b23c 60cc 9c3d aa4b 9c3c 6a91 87bd
00000060: b75a eb3d 81e9 10bc f583 883d 539a c43d
00000070: 04a8 d5bb 1bca 1d3d 300d ff3d 3da4 f93c
00000080: 86fb 263c 5a97 b739 db33 0c3e f388 8bbc
00000090: b7e4 cebb aea5 26bc 7bea ae3b 3394 ee3d
000000a0: a2cc 893d 1d26 013e 82f7 733d 6d52 a03c
000000b0: 1b83 863d 1dc8 d53d c372 da3d 8d32 423d
000000c0: 06f4 f93d 7c04 6bba d84b 7bbd 8963 d43d
000000d0: 2c28 f53c 47d8 323c 1cac ef3d bdad a43d
000000e0: 8bdd a93d b30a 8a3d e762 e63d e957 453c
000000f0: 808d 03bc eb28 993d 4ed5 0a3e 9b7f de3d
00000100: 7a36 543d 1746 6cbd b114 833a 3f40 793d
00000110: 74ca 0c3e 5e05 5e3d 67de 013d 02c8 c3ba
00000120: 95a2 9c3c 84c6 f43d 0a49 703b 0f15 023e
00000130: efbc 15bd df0c 2f3d 6dba 1f3d 5813 f8bc
00000140: d1cf b53c 469f 5f3d f75e fd3c e719 cd3d
00000150: 9658 d83c 7aaa 9d3d c8cf 783b 3dc2 06bd
00000160: 392c 79bb 018b 213d b15c 01bd c98e ec3c
00000170: 8a7a 703c d952 a03d c058 063e c455 4e3d
00000180: fd92 003e a873 afbd f5fb 173d 5309 593d
00000190: bff5 943d 8780 8d3d cd60 933d 846c 7bbd
000001a0: a492 943d 4c5d bcbc 9acf d13d ffc7 633d
000001b0: 601e 8f3d 4240 ab3d 0d1c cf3d 91d2 c93d
000001c0: 42f3 0c3e e1c8 933d 9048 6c3d 4475 b53d
000001d0: 293e 0ebd f74d 99bb d925 003e 2edb 3abd
000001e0: c9e0 e23d 1bf4 61bd a33a 083e b8b4 c53d
000001f0: 567e ab3d b579 f43d 4fe4 df3d fb89 b23d
00000200: d43a 5b3d 1ea3 27bd 24e4 b03d e35e b23c
00000210: 4439 08bc 9089 8f3d 31bd 493d c4f0 183d
00000220: 3de9 16bd a786 63bd 7675 8dbc 0052 fc3d
00000230: 94e2 be3d bdc4 863d 0b3e 943d 5ee8 013e
00000240: fa2e c13d 0c83 fe3c 7121 a6bc 1079 053e
00000250: 092d 13bc ecd2 debb 7e43 b63c ffb1 c43d
00000260: 593b 453d b17c ba3a 1ed6 f4bc 6566 7b3d
00000270: f17e 07bd 5ff9 c03d 6f83 dc3d 53f5 5b3d
00000280: 3d18 fe3c dd6c 88bd 07f6 5e3c 1719 213e
00000290: b0e8 283d 951c 803c 5d30 0f3c 2010 a03d
000002a0: 7be2 fb3c a4d4 73bd f4e7 40bc b914 543a
000002b0: 2f64 e23c acfd ee3d 4edd 323d e311 d0bc
000002c0: d32b b03d 0aa6 e43d b423 2dbc e635 64bc
000002d0: ab2f b03d c8a7 d93c 88d6 6a3d 0c0d 623d
000002e0: 0192 c33d c171 5d3d 793a 093c 3490 093e
000002f0: 6079 0c3e 6532 83bd 64d9 ccbc 4393 ed3d
00000300: 00a1 f4ba 473a ea3d bb02 c23d 4520 8abd
00000310: 77c2 253d 65a8 4fbd 5e16 aa3b 46a2 fd3d
00000320: bbe6 87bd 5b16 8b3d 12d8 af3d 7c4d be3d
00000330: 675e d3bc 6e1c c03d f983 cc3d fd9b dd3d
00000340: 4283 613c 76ee ca3c 9c1a ba3c 5cce 3f3b
00000350: a352 953d 51ae 62bd 7778 c23d f024 823c
00000360: 99a3 7abb fe35 28bd 929e df3d 3331 f93d
00000370: b8db 2bbd 2596 01bd 76df 5d3c 99f2 a5bc
00000380: efaf 2f3d 1120 b93c daf9 0e3e 4a6d 9c3c
00000390: 2b28 343e 51b8 ac3d 07cc a73c c8aa df3d
000003a0: e0e1 5bbd 5b13 953c ad20 d93d bed5 90bd
000003b0: a830 6d3d a892 a33a d54d 6d3d 4062 d63d
000003c0: b667 ea3c f0d8 d63d 532c 183d 5fff 0ebd
000003d0: 7edd 02bc 645b 023d 4a6f 7d3c e34e eb3d
000003e0: 77d1 083e 3e94 e53b d256 913d 7030 0fbc
000003f0: 8e21 223b 1a56 55bd 6018 f53c 26b6 b0bb
0.112900585 -0.018149843 0.114959456 0.009925606 -0.011636643 0.019967612 -0.03617217 0.11148538
0.06703684 0.097687654 0.066446826 0.0058882493 0.08878359 0.031637 -0.02479931 -0.042947553
0.012661552 0.15443629 0.12702781 0.014140492 0.021731067 0.07656169 0.019079048 -0.066195324
0.11491912 -0.008844734 0.06665794 0.095997475 -0.006520273 0.03852282 0.12453687 0.030473823
0.010191804 0.00035017246 0.13691656 -0.017033076 -0.006313886 -0.010171337 0.005338011 0.116493605
0.06728484 0.12612195 0.059562214 0.019570554 0.06567975 0.10438559 0.1066642 0.04741149
0.12204747 -0.0008965207 -0.061351627 0.10370547 0.029926382 0.010915822 0.11702749 0.080409504
0.08294209 0.06740322 0.11249333 0.012044885 -0.008029342 0.074785076 0.13557932 0.108641826
0.051809765 -0.05768403 0.0010000673 0.060852285 0.13749105 0.054204337 0.03170624 -0.0014936926
0.019120494 0.11951926 0.0036664628 0.12703346 -0.036557134 0.042736884 0.03899615 -0.030282661
0.022193821 0.054595254 0.030929072 0.10014706 0.026409429 0.076985314 0.0037965644 -0.032900084
-0.0038020744 0.039439205 -0.031582538 0.028876679 0.014677653 0.07828302 0.13119793 0.05037476
0.12556072 -0.085669816 0.03710552 0.052987408 0.07273435 0.0690928 0.07196198 -0.061382785
0.07254532 -0.022993706 0.10244675 0.055610653 0.069882154 0.083618656 0.10112772 0.098546155
0.1376467 0.07216049 0.05768639 0.08860257 -0.03472725 -0.0046784836 0.12514438 -0.045619182
0.110780306 -0.055164438 0.13303618 0.0965361 0.08373706 0.11937276 0.10932218 0.08717724
0.0535229 -0.040927045 0.08637264 0.021773761 -0.008314434 0.0700866 0.049252693 0.037338987
-0.036843527 -0.055548336 -0.017267924 0.12320328 0.0932056 0.065804936 0.07238396 0.12686297
0.09432788 0.031068347 -0.020279618 0.13034463 -0.008982905 -0.006800046 0.02224898 0.096042626
0.0481523 0.0014227835 -0.029887255 0.061376948 -0.033080045 0.09422564 0.107672565 0.053700756
0.031017417 -0.06661389 0.013608462 0.15732227 0.041237533 0.015638629 0.008739558 0.078155756
0.030747643 -0.05952896 -0.011774052 0.0008090246 0.027635662 0.11669478 0.043668084 -0.025399154
0.08602109 0.11164482 -0.010567594 -0.013928866 0.08602842 0.026569262 0.0573335 0.055188224
0.095493324 0.054063562 0.008375757 0.13433915 0.13718176 -0.06406096 -0.025006004 0.116003536
-0.0018663704 0.11436897 0.09473177 -0.06744436 0.04046866 -0.050697703 0.0051906547 0.12384467
-0.06635805 0.06791373 0.08586134 0.09292123 -0.02580185 0.093804225 0.09986109 0.10820768
0.013764204 0.02477191 0.022717766 0.0029267287 0.07291152 -0.055342022 0.09495633 0.015886754
-0.0038244484 -0.041067116 0.10918917 0.12167587 -0.041957587 -0.03163733 0.013542047 -0.020257281
0.042892393 0.022598298 0.13962498 0.019095082 0.17593448 0.08433593 0.02048303 0.10921246
-0.053682208 0.018197706 0.106019355 -0.07072018 0.05790773 0.001247962 0.057935555 0.104679585
0.028613906 0.10490596 0.037151646 -0.03491151 -0.007987378 0.03182544 0.015468428 0.11489656
0.13361154 0.0070061972 0.07096638 -0.008739576 0.0024739238 -0.052084066 0.02991885 -0.0053928075

fc.0.weight f4 [426, 64]
00000000: b794 043d 79c6 c0bb 40a2 a2bd c0ff 003e
00000010: 75df 903d 10ac e1bd 5830 0e3d 6abb 20bd
00000020: 4bfb 1bbd 3653 33be 5ee9 d9bc 655c b83b
00000030: 114d 63bd 7248 81bd 546d 8ebd 6885 cf3c
00000040: 9ad2 183e 78ae e9bc fc76 a73d f70d 86bd
00000050: 4f53 003e 69c1 71bd 0a56 26be ba2b efbb
00000060: 39a4 a53b 13d3 1fbe 92dc 313e 67c4 82bd
00000070: 7ba9 823d 6500 49bd 4a38 0b3d 8b9e f5bc
00000080: 8b8b d4bd 1987 453c c730 d2bd 21fe 0f3e
00000090: 4377 993d d769 023e fd3a 8abc 0a0a a7bc
000000a0: dd94 59bd 92c0 983b bf33 a1bd d0c1 0dbe
000000b0: 587f 0e3e 16dc 053e 9bbd 6a3e 24e0 b83c
000000c0: d174 99bc 39ba 94bd 4aa2 183e 436a a63c
000000d0: 6827 c83d 8e73 15be da7c 993d aa4c 9abd
000000e0: 8a8b 8abd ae51 713d fb59 b13d 7608 ab3d
000000f0: b761 463e 3e37 483e a34b d7bc adce a43d
00000100: b269 023e c38f 2f3e 0647 1e3e 8674 df3d
00000110: 55bc 313e 81ce 0b3e f66a bf3d 1ca4 223e
00000120: b7d9 823d 6a4e dc3c af24 003e ca08 5e3d
00000130: f958 d5bd f2e8 94bc 5266 9c3c 543f 05be
00000140: 95cc a33d 4bc8 dd3a 1773 a4bd e287 5e3c
00000150: e32e 0a3e f249 34bb b393 53be 8bf4 073e
00000160: 9b0b 5c3d 034f 123d af25 863d 3d9a dcbb
00000170: 1fe7 013d 738e 1a3e 2e37 7a3d b0e5 15bd
00000180: 88a7 0bbd b23e fdbd b476 9ebd b00e 1c3e
00000190: a090 08be d309 75bc 925e 65be 3dc2 f8bd
000001a0: d6c9 bebd 8e52 fb3c 8247 9b3c 2bdb 8b3d
000001b0: 0373 b0bd 72ce 94bb cea3 c7bd ccbb 15be
000001c0: 8265 f23d 6a02 d43c 4718 bf3d cb97 5fbd
000001d0: eded cd3d 203f e83d e35f 3d3c 64eb c53d
000001e0: 9ff5 b3bd a443 8ebd f5b3 923d 9255 12bc
000001f0: 7661 4bbd 8498 6ebd e56d 3fbc f0a9 d63d
00000200: 0800 3f3d 5619 bcbc 3a88 a2bd e65d a13c
00000210: 74d1 4a3e 5d92 0a3e 8286 e53d 87a1 2c3e
00000220: eb72 ba3b 07d5 95bd 35a3 2539 7ef5 123e
00000230: bd3f 9a3d 05a8 b83c 55c5 7cba 56f1 b83d
00000240: bc23 333d 3abe 05bd 4688 acbd cc51 853d
00000250: 7de5 2bbd 40f0 103b 581d 5d3c 0f96 8b3d
00000260: e662 b73c e274 153e 26eb acbb 4606 12be
00000270: 3b80 513d 9256 123e 46df 82bd eb07 ecbb
00000280: 7d18 22bd 6aee 9a3d 1115 9cbd 10f0 b03c
00000290: b03c 0ebe b26b 973d 0404 f8bd 1263 113c
000002a0: f758 06bd 9170 203d 0e1d 0a3d 6061 5dbd
000002b0: a944 f9bc d695 f53c b046 0dbe 0fd3 cf3c
000002c0: a400 b33d 8e8b 5abd 4de5 ca3c ca8e e43d
000002d0: 2118 b33c 1c22 d23d 9a43 8ebd 7875 84bd
000002e0: 2614 5e3c ccc5 2d3d 5531 52bd a997 bc3d
000002f0: 0cde 05be fa8c 693d 429b 1f3d 882d 3d3d
00000300: a780 8bbc ec1a 8abd 1f44 ef3c 214c e13c
00000310: 7341 873d 1383 ad3b 72f9 403d 6107 93bd
00000320: a8c4 05bd 41a5 013e 9e3c a43d e4d9 1b3e
00000330: f47e f03d 3444 f63d 00f9 f53d 66d5 303d
00000340: a2a7 953c 1173 183e 2a56 e9bd cd42 a2bd
00000350: 2cbd b43c fc4e 5f3d b234 55bd f9d3 883d
00000360: b236 7d3d 8c64 ef3d 4f58 bfbd e2dd cbbd
00000370: e3a0 0e39 f718 14bd 94bb 5f3d 343a 81bc
00000380: 4036 023e 9b14 01bd 91c8 0c3d 57d3 8c3d
00000390: aca7 973d 1df0 93bd 2d01 11be e159 0bbe
000003a0: 20f7 23bd 7d41 bcbd d42b 6fbc 4d1b f1bd
000003b0: 5461 4dbd 93b9 9bbd 3aa3 e03c 0a6c f53d
000003c0: 3313 f0bb 0cf2 403d 9227 fb3c 8d10 d43d
000003d0: bedc 033e c520 293e 60db b93d c5e3 cf3d
000003e0: c6c6 cf3d bf3a 0abd efe2 d43d 310d f33d
000003f0: ae7b 4c3c 3e7b db3c 06f6 08bd 43e3 4abc
0.032368388 -0.005883035 -0.07941103 0.12597561 0.07073871 -0.110191464 0.034714073 -0.039241232
-0.03808145 -0.17512211 -0.026600536 0.0056262487 -0.055493418 -0.06312646 -0.069544464 0.025332168
0.14924088 -0.028525576 0.08176991 -0.06545632 0.1253178 -0.05902234 -0.16243759 -0.007298914
0.0050549773 -0.15607862 0.17369297 -0.06385117 0.06379982 -0.049072642 0.03398923 -0.029982826
-0.10378178 0.012056136 -0.1026321 0.14061786 0.074934505 0.12735687 -0.01687383 -0.02039053
-0.053120483 0.004661628 -0.07871198 -0.13843465 0.13915765 0.13072237 0.22923891 0.022567816
-0.01873246 -0.07262082 0.14905658 0.020314341 0.09773141 -0.14594862 0.07494517 -0.07534154
-0.06764896 0.058915786 0.086597405 0.08351223 0.19373213 0.19552323 -0.026281184 0.08047233
0.12735632 0.17144684 0.15456781 0.10910897 0.17356999 0.13652994 0.09346573 0.15882915
0.06389182 0.02689286 0.12513994 0.0542076 -0.10417361 -0.018177483 0.019091759 -0.13012439
0.07998005 0.0016920654 -0.08029764 0.013582202 0.13494448 -0.0027509895 -0.20661812 0.1327688
0.053722005 0.035719883 0.06550156 -0.006732254 0.031714555 0.15093403 0.06108778 -0.036596
-0.034095317 -0.12365474 -0.077374846 0.15239978 -0.1333642 -0.014955956 -0.22399357 -0.12146423
-0.09315841 0.030679014 0.018954996 0.06828912 -0.08615687 -0.0045412118 -0.0974804 -0.1462242
0.11835767 0.025880057 0.093308024 -0.05458812 0.10055146 0.11340165 0.011558506 0.09664038
-0.08787083 -0.06946495 0.0716323 -0.008931534 -0.049653493 -0.05825092 -0.011683916 0.10481632
0.04663089 -0.0229613 -0.079361394 0.019698095 0.19806463 0.13532396 0.11207296 0.16858493
0.005689969 -0.07316022 0.00015796426 0.1435146 0.07531688 0.022541055 -0.0009642442 0.09030406
0.04373525 -0.032652117 -0.084244296 0.06509742 -0.041966904 0.0022115856 0.013495766 0.06815731
0.022386026 0.14595369 -0.0052770553 -0.14260206 0.05114768 0.14290836 -0.06390242 -0.0072030923
-0.039574135 0.07565005 -0.076212056 0.021598846 -0.13890338 0.07393588 -0.12110141 0.008873718
-0.032799687 0.03916985 0.033719115 -0.054047942 -0.030428248 0.029978674 -0.13796496 0.025369195
0.087403566 -0.053355746 0.024767542 0.11160047 0.021862091 0.10260412 -0.06946488 -0.06467718
0.013554608 0.042424962 -0.051316578 0.092086144 -0.13072985 0.05701921 0.038966425 0.046186
-0.01702912 -0.06743416 0.029207287 0.027502121 0.0660428 0.0052951663 0.04711289 -0.07179142
-0.03265825 0.12660696 0.08019374 0.15219837 0.117429644 0.120247275 0.120103836 0.043172263
0.01826841 0.14887644 -0.113933876 -0.079228975 0.02206286 0.054518685 -0.052052207 0.066810556
0.06181974 0.116891 -0.093430154 -0.0995443 0.0001360211 -0.03615662 0.054622248 -0.015774824
0.12716007 -0.03151379 0.034370963 0.068762474 0.07405028 -0.07223532 -0.14160605 -0.13608505
-0.0400306 -0.091921784 -0.014597852 -0.11772785 -0.050141647 -0.07603755 0.027421582 0.119834974
-0.0073265075 0.047105834 0.030658517 0.10354719 0.12877175 0.16516407 0.090750456 0.101508655
0.10145335 -0.03374743 0.10394847 0.118677504 0.012480659 0.026792165 -0.03343775 -0.012383285

fc.3.bias f4 [213]
00000000: 8bdc 843a 706c fb39 67b4 9fbc 4fda 2cbd
00000010: 73c2 bc3b 825f 2d3c 0917 a5bc 0114 b13c
00000020: 6ea6 a4bc b1d7 69bc 2fe0 96bd 7388 85bc
00000030: 127f 23bd 3b67 9fbb 97e5 a9bc 813d e3bc
00000040: d4da 2a3c 2f4b c4bb 92a8 c2bc 4793 78bb
00000050: 6e37 36bd a191 4e3d 5cf6 5b3d ab98 123d
00000060: 5798 2b3c 85d0 a43c bac8 6ebc d8d9 0abd
00000070: c5e2 e3bc 6be6 a43b 86f8 d63c 1a50 773a
00000080: c0ee cabb 64d3 dc3c 926b 2dbc 78a2 37bd
00000090: 02ec 94bd 72ad cdbc 73b4 29bd 8c9b 64bc
000000a0: b5ba 80bd c547 bbbd 5f5d 3fbd 4e8f fdbc
000000b0: 6500 ad3c 0eda 2a3d 3437 0f3c 1054 a6bc
000000c0: b88a 243c 11a6 8cbd 2012 c43c 19dc b8b9
000000d0: 6b1b fabc 8bd2 a9bb 5d44 66bc 0019 883c
000000e0: ae52 44bc 5f20 c4bd 8622 26bd 9055 243d
000000f0: 32ae 59bd 064b aabc a8ac 803c 1e7b 483c
00000100: 5250 54bc 007b cbbc de0d fcbc f034 31bd
00000110: 4b5a 35bd 8e81 16bd 98b7 a2bd eac7 013b
00000120: 731b d3bb fde0 6cbd 0156 08bd 855e e1bc
00000130: f940 30bb a7b8 91bd 9f89 c13c 789c 233d
00000140: 6b09 7d3d 6cb3 25bd 3e9c c3bc 6729 00bd
00000150: d11d f93b b63a 4fbc 4623 cebb 8623 7d3d
00000160: 69c5 93bc 15f4 55bd 9b9d 473d ec58 16bd
00000170: f658 82bd 4168 4dbd 19fe 9f3a ca89 86bc
00000180: ac60 303b e402 f2bc ab78 1fbd 56ad e73b
00000190: 0208 2dbd 8361 a3bd 337e 51bc 2879 aa3c
000001a0: 530a 1b3d a310 87bd 66ed a53c 541f 403d
000001b0: fa10 bbbc 663a 023b 017c c63b b3e5 16bb
000001c0: 9eef 873c 0c32 3f3c 2c03 bebc c262 113b
000001d0: bff5 e1bb 717f b7bc e45a 72bd 5ce7 2ebd
000001e0: ee02 3f3d a8cc 2fbd fdaa 51bd 2aea fcbc
000001f0: 82db 14bc badd 263c b8d3 46bd 597d 043d
00000200: 1249 393d e63f 0fbd f86d 50bd 4ba7 9b3b
00000210: e466 cb3c c13a 0abd a594 97bd d442 393b
00000220: 9454 12bd 3b4e f63b 5293 25bd 12cd 20bd
00000230: 934f 4cb8 398d ef3c 4825 be3b 5393 e33c
00000240: d416 66bc 004a 49ba 9cd3 29bd b39a d8bb
00000250: e4da 5cbd 8d23 07bd b69a 2abd 66b5 afbc
00000260: 1527 453d 4ad1 c7bc 9f9d 7dbd 3576 f53a
00000270: b157 e33c 289d bc3c f070 68bb 494c a93c
00000280: 516a 8ebc 63cd 583d 01d9 de3c 88b6 76bc
00000290: 31e6 7fbd f732 34bd b1b5 613c 41cb 45bc
000002a0: 3a8b 953c 07e2 1d3d ed0a f8bc 097d 863d
000002b0: c2a6 0e3d c065 b0bc 57d4 313c 14dc a73c
000002c0: fc21 083d 9f15 a63c 5b1d c93c 537f c83c
000002d0: c71f 4c3c 332a e93a 8030 953d 53bc a33c
000002e0: 5a37 8c3b 541c 613d 2db1 b03c a302 ae3d
000002f0: e2e9 813d ae84 abbc 7cde dabb 8937 01bb
00000300: 8248 da3c 3b11 353c 75d2 3bbc 0733 0e3d
00000310: adb8 493d 7cb4 5ebc 58d1 cdba 0ad5 0c3d
00000320: 40d7 9bba 1371 4ab9 b7a3 383d b916 20bc
00000330: 142b 37bd 3e1c e6bc b862 aebc 25a4 57bd
00000340: 6b9a e6bc 24f2 183b 96fc 8abd 05a3 79bd
00000350: 4fc6 06bd
0.0010136528 0.00047955243 -0.019495202 -0.042200383 0.005760485 0.010581853 -0.020152586 0.021615984
-0.020098891 -0.014272616 -0.073669784 -0.016300416 -0.039916106 -0.004864601 -0.02073936 -0.027739288
0.010428149 -0.005990408 -0.023762021 -0.003792958 -0.044486456 0.05043185 0.053701743 0.035790127
0.010473332 0.020118961 -0.014574224 -0.03389916 -0.027818093 0.005032351 0.026241552 0.00094342383
-0.006193012 0.026956268 -0.010584729 -0.044832677 -0.072715774 -0.02510712 -0.041431855 -0.013953101
-0.062856115 -0.09144548 -0.046719905 -0.030952122 0.021118352 0.04171186 0.008741189 -0.020303756
0.010042839 -0.06867612 0.023934424 -0.000352592 -0.030530652 -0.0051825694 -0.014054385 0.016613483
-0.011982603 -0.09576487 -0.040560268 0.04012066 -0.05314464 -0.020787727 0.015707329 0.012236385
-0.012958603 -0.024838924 -0.030768331 -0.043263376 -0.044275563 -0.036744647 -0.07945174 0.0019802996
-0.006442481 -0.057831753 -0.033285145 -0.02751089 -0.0026894195 -0.07115298 0.023625193 0.039944142
0.06177656 -0.040454313 -0.023878213 -0.031289484 0.0076024313 -0.012648275 -0.006290826 0.061801456
-0.018038468 -0.052234728 0.04873429 -0.036705896 -0.06364624 -0.050148252 0.0012206464 -0.016423125
0.002691309 -0.029542394 -0.038933437 0.007070224 -0.042243965 -0.07977583 -0.012786436 0.020809725
0.037851643 -0.0659497 0.020254802 0.046904877 -0.022835243 0.0019871234 0.006057263 -0.0023025095
0.01659375 0.011669647 -0.023194872 0.0022184108 -0.0068957503 -0.022399636 -0.05916871 -0.04270111
0.046633653 -0.042919785 -0.051188458 -0.030873377 -0.009085538 0.0101847 -0.048541754 0.032346103
0.0452357 -0.034973048 -0.050886124 0.0047501675 0.024829336 -0.03374744 -0.074013986 0.0028268592
-0.03572519 0.00751665 -0.0404237 -0.03925807 -4.87115e-05 0.029242145 0.005802784 0.02778021
-0.014043529 -0.00076785684 -0.041461572 -0.0066102385 -0.053919688 -0.03299289 -0.04165145 -0.021448802
0.048132975 -0.024391789 -0.061917897 0.0018727245 0.027751775 0.023024157 -0.0035467707 0.020666258
-0.01738468 0.052930247 0.027203085 -0.015058167 -0.062475387 -0.043993916 0.013776229 -0.012072385
0.018254865 0.038545635 -0.030278647 0.06566817 0.034827 -0.021532893 0.010853848 0.020490684
0.033235535 0.020273982 0.02455013 0.024474775 0.012458748 0.0017789066 0.07284641 0.01998726
0.0042790594 0.054958656 0.021568859 0.08496597 0.06343438 -0.02093729 -0.0066793542 -0.001971694
0.026645903 0.011051471 -0.011463751 0.034716632 0.049248386 -0.0135928355 -0.0015702648 0.034382857
-0.0011889711 -0.00019306345 0.045078006 -0.0097710425 -0.044718817 -0.028089639 -0.021287307 -0.052646775
-0.028149804 0.0023337686 -0.06786458 -0.060946483 -0.032903966

fc.3.weight f4 [213, 426]
00000000: 8ed0 23bd 4e08 8f3d d2cb a9bc 9fe8 96bc
00000010: 0eff b23c 828e c1bc 0cc9 813d 1cee 29bc
00000020: 2e59 733d 6f1f 73bd 1055 613b 9ed0 853c
00000030: f0d1 6ebd 1609 b9b7 ff27 863d 6116 b5bd
00000040: 04cb 583d c833 593d 1569 193b 6025 a4bc
00000050: cc38 dabd cc85 80bb 69c1 08bd fb93 a5bc
00000060: 8c9f 893d 7a6b bebc 5c4f 7cbc 0651 b8bd
00000070: 4d6d 67bd d591 8d3d a4a6 c23b 1c9c 263d
00000080: 5525 3bbd 553f 5bbd a173 88bd 7a7d 6ebd
00000090: 2dbd d2bd ac4f 54bd fa13 d3bd 92cc 62bd
000000a0: 09f3 cb39 c967 8a3d bcd0 ba3c 9311 a4bd
000000b0: 5835 573d 6e1a 53bc d557 88bd c4c5 c8bd
000000c0: f449 683c bdbd 2e3d 2f2e 5c3b efe6 17bb
000000d0: 895a 75bd 3cd0 603c cdd8 39bd a212 bf3c
000000e0: 2cef 3bbd 3449 09bd 96ab e23c 4b5f e33c
000000f0: 0a89 4abd 8d64 a23d 128b c3bc 0b44 97bd
00000100: 1a3b 7c3d efe6 e23b f448 33bd 1ec4 833d
00000110: ae52 d1bc dc52 193d 6b5f 853d 3f30 283d
00000120: e7e9 303d 3bb4 92bd 2c06 cfbc 596e 013d
00000130: 70e2 7ebd 4c23 21bd c2e6 863d 40f0 81bd
00000140: b979 263d d162 0f3c 537a 83bd 87f5 793c
00000150: 3012 a9bd a13c 33bd c711 5cbd 8d2d 06bd
00000160: 3b40 4c3d aae3 00bd add0 cdbd 0a56 92bd
00000170: 31bf a23d e2b5 893d 2ed8 9b3d 6ed1 39bd
00000180: 246b 59bd e564 4e3a 09d2 cb3b 9230 b0bc
00000190: 89ab d43d e0a6 8d3d 1dbf dc3b 9f7b da3d
000001a0: c73e c1bd 91b2 64bd 2380 7c3d 0f98 a63c
000001b0: b4ef 14bd 606b 113c bc28 1a3d a2fb 1fbd
000001c0: ac32 66bd d56d b33c b780 71bd e3be f9bc
000001d0: f977 fd3c 0ea6 c13d 0514 9b3d c361 f73c
000001e0: 808d 85bd 97d1 e1bd a93e 95bd 1a3b 993d
000001f0: 24c0 c23c a2c7 04bd c864 adbc ad67 d9bc
00000200: be40 803d 5d8c 87bc 2a2d 3e3d 19fb f13d
00000210: e535 14bd 53b3 6ebd b17c fcbc da7c ae3d
00000220: d3cb 7cbd 4462 95bd ee05 1e3d 142f 33bc
00000230: d586 453d 3746 ccbd d1a6 423c d79b 033c
00000240: a418 4abd 0b7a 76bc b5af 193d eb97 a9bc
00000250: d497 853d 7f61 5b3d 6131 17be fdc6 923d
00000260: 3282 163d d296 55bd 0cd5 fabc e868 193d
00000270: 312b 1dbd c644 263d 7c68 8fbd 994e 463d
00000280: 27e6 fabd c386 47bd 4470 3b3d 41a6 28bd
00000290: 40f0 d1bc d004 a439 cef3 9cbd 11cc 973c
000002a0: b544 8e3d 9ce8 8cbd 0aed 993d 835b d73c
000002b0: 5e28 03bd 9cb2 5d3d 13cb 18bc 7e88 1ebd
000002c0: 7491 4fbd c177 2f3c b934 1bbe 1048 32bd
000002d0: da46 f73b 6920 98bd 5f7a 1a3d 1f32 e7bc
000002e0: 5bd4 c8bc 6ae6 963c 0766 3d3d 2d60 ffbd
000002f0: d3d7 3abd 692e 1dbd 94e1 a5bd 820a 02be
00000300: 86db 933d 5414 cdbd e541 2fbd f207 1cbd
00000310: 3870 b3bd b345 30ba eada 85bd 26b8 9e3d
00000320: 6894 033d 22fa 23bd f848 23bd 6f99 f23c
00000330: b5e7 833a 1b47 89bd dc84 1a3d e22c 48bd
00000340: a74c 59bd e755 a9bd f27a 853d aeb5 d83c
00000350: 11aa 543d 6cf6 d2bd a895 dbbc 5016 a5bc
00000360: febb 87bd e7b6 00bd fb09 60bd 5654 2d3b
00000370: 669b 99bd 1d76 24bb 5979 04bc 73f4 c1bc
00000380: 538f 763d ed24 ce3c daee 48bc 2435 98bc
00000390: 81bb 9fbb ec70 8dbd 8b46 83bc d436 d63c
000003a0: 7653 6ebd e033 503d d9bd c1bd 615c e2bc
000003b0: 1ffa 06bd b2ad 5a3d e3e9 58bd cba0 3a3d
000003c0: b4e4 453d dd8d 703d 08e0 bd3c 82f0 9bbd
000003d0: d155 07bd e73b a03d 8552 29bd 994d 72bd
000003e0: ac59 acbd 9956 c6bd 060b 5abd f27a 023d
000003f0: b9ef 513d 8355 64bb ea8b 07bd 27cb a7bd
-0.039993815 0.06984006 -0.020727072 -0.01842147 0.021850135 -0.023627523 0.06337175 -0.010371711
0.05941122 -0.05935615 0.0034382977 0.016334828 -0.05830568 -2.205795e-05 0.065505974 -0.08842159
0.052927986 0.053027898 0.002340858 -0.020037353 -0.106553644 -0.0039222 -0.033387575 -0.020212164
0.06719884 -0.023244608 -0.01539978 -0.08999829 -0.05650072 0.06912581 0.0059402753 0.04067622
-0.0456899 -0.053527195 -0.066626795 -0.058225133 -0.10289989 -0.051833794 -0.103065446 -0.055370875
0.00038900253 0.06758077 0.02280461 -0.080111645 0.052541107 -0.012884719 -0.06657378 -0.09803346
0.014177788 0.042661417 0.0033596864 -0.0023178419 -0.059900794 0.013721522 -0.045372773 0.023324315
-0.04588239 -0.033517078 0.02766971 0.0277554 -0.049447097 0.07929335 -0.023870025 -0.07386025
0.0615798 0.006924502 -0.043770745 0.06433891 -0.02555212 0.037432536 0.0651234 0.041061636
0.043191817 -0.071632825 -0.025271498 0.031599376 -0.062227666 -0.039340302 0.06586982 -0.06344652
0.040643428 0.008751587 -0.06419816 0.015256292 -0.08255422 -0.043758992 -0.05372789 -0.032758284
0.049865942 -0.031467117 -0.10049567 -0.07145317 0.07946623 0.067241445 0.076095924 -0.045365743
-0.053080693 0.0007873311 0.0062201065 -0.021507535 0.1038428 0.069165945 0.0067366497 0.1066811
-0.09435802 -0.055834357 0.06164564 0.020336179 -0.03636141 0.008875698 0.037636504 -0.039058335
-0.05620067 0.021902958 -0.058960643 -0.03048653 0.030940996 0.094555005 0.07572178 0.030197984
-0.065211296 -0.11026304 -0.07287342 0.07481976 0.02377326 -0.032416947 -0.02116622 -0.026538694
0.062623486 -0.016546423 0.04642979 0.11815471 -0.03618421 -0.058276486 -0.030821176 0.08519907
-0.06171782 -0.07294133 0.038579874 -0.010936517 0.04822429 -0.0997433 0.011880592 0.008032761
-0.049339905 -0.015043746 0.037521083 -0.020702323 0.065230995 0.053559776 -0.1476493 0.0716686
0.036745258 -0.052145787 -0.030619167 0.037453562 -0.03837127 0.04059293 -0.07002351 0.0484148
-0.12250929 -0.048712503 0.04576136 -0.041174177 -0.025627255 0.00031284103 -0.076636896 0.018529924
0.069466986 -0.06880304 0.07515915 0.026288753 -0.03202092 0.054125413 -0.00932576 -0.038704388
-0.050675824 0.010709704 -0.15156831 -0.043525755 0.007546288 -0.07428057 0.03771436 -0.028222142
-0.024515321 0.018420417 0.04623988 -0.12469516 -0.045615982 -0.03837434 -0.08099666 -0.12699321
0.07219605 -0.10013643 -0.04278745 -0.038093515 -0.087616384 -0.0006724253 -0.06535895 0.07749967
0.032123953 -0.040033467 -0.03986451 0.029614178 0.0010063561 -0.067030154 0.03772436 -0.04887093
-0.053051617 -0.08268338 0.065175906 0.02645382 0.05192 -0.103009075 -0.02680476 -0.020152241
-0.066276535 -0.03142443 -0.054697018 0.0026447973 -0.07500343 -0.0025094815 -0.008085572 -0.023676133
0.06019528 0.025164092 -0.012263978 -0.018580027 -0.004874647 -0.06906304 -0.016024848 0.026149191
-0.058185063 0.05083072 -0.09460039 -0.02763194 -0.032953378 0.053388305 -0.052957427 0.0455635
0.04831381 0.05872904 0.023178115 -0.076142326 -0.033040825 0.078239255 -0.041338462 -0.059156034
-0.08415541 -0.09684486 -0.05323317 0.03185553 0.051254008 -0.0034841008 -0.033092417 -0.08193045
