inventory/ark_material.onnx (onnx, 534868 bytes, 8 tensors)

35 f4 [8, 3, 5, 5]
-0.56899035 0.11033636 0.31836316 0.17227916 0.64892054 -0.21451043 -0.80903697 -0.5481379
-0.3760105 0.6216606 -0.5513569 0.2005549 -0.45182803 -0.60384184 -0.057373203 0.0813883
0.18011054 -0.3668142 -0.35691077 -0.30118906 0.118241504 0.42092398 -0.22568867 0.16737582
0.68056214 -0.4294831 0.36628652 -0.25992033 -0.0017889927 0.26908228 0.18810047 -0.5233809
-0.47339725 0.37532666 -0.542262 0.20015433 -0.5482019 -0.13577154 -0.3198169 0.44640455
0.51882946 0.30079612 -0.21427569 -0.08591206 0.009955466 0.684554 0.5709474 -0.28337806
0.59739405 0.31066316 -0.5368088 0.14819391 0.41294014 -0.25800055 -0.32339695 -0.5549787
0.024386868 0.11154695 -0.6005423 -0.08193086 -0.07288309 -0.46212286 -0.2586331 0.21654524
0.33896494 -0.06235769 0.2770958 -0.08313891 0.16902407 -0.5223234 0.48715925 0.26078707
0.77323407 0.13538004 -0.3070507 0.3165429 0.50949174 -0.24560827 -0.017541042 -0.27705342
-0.4665374 0.06257897 -0.002033487 0.19457795 -0.03300225 0.46756557 0.07817423 0.2387517
-0.32403168 -0.53865355 -0.15864208 -0.078918226 -0.26617226 0.020285934 0.21015613 -0.32890305
-0.308664 0.43224052 -0.1652687 -0.50375694 0.50110143 -0.14811058 -0.20578375 -0.053823348
-0.49201736 0.3582793 0.17507872 0.12587047 0.11513628 -0.16536981 0.25550526 -0.089957744
-0.306209 -0.5551933 0.20015976 0.008702082 0.41703 0.37637177 -0.11066205 -0.34789693
0.64249754 -0.2029154 -0.120231 -0.56958485 -0.24952865 0.52024424 0.098648615 -0.19860817
-0.29608646 0.23804617 0.40076834 0.3751938 0.24167375 -0.4884432 -0.20896882 0.5076465
0.12610018 0.16523345 0.16396701 0.03468459 0.26016718 -0.056163285 0.18650585 -0.27782783
-0.53278255 0.26967427 0.35907862 -0.45387414 0.07821928 -0.5687712 0.4708518 0.5115827
-0.018869413 -0.5828078 -0.67770386 -0.44524464 0.4595533 0.26030797 0.05893006 -0.22276838
0.029598592 -0.07429467 0.22121103 0.15555927 0.56578743 -0.73492324 -0.021487154 0.010940661
0.12844324 -0.48486626 -0.51871765 -0.2769297 0.34922466 0.07963289 -0.11860408 0.7604096
0.8792818 0.21848907 -0.0033156262 -0.084105104 -0.16208939 -0.26944268 0.3852949 0.22883582
-0.6160262 -0.30109212 -0.41444346 -0.23130018 0.0707206 0.27366433 -0.66312754 0.038088635
0.24319015 -0.5035471 0.63882774 0.49292594 -0.3580531 -0.70808864 -0.13310693 0.11719571
0.49069107 -0.72498584 -0.841926 0.37563515 -0.960988 0.015805906 0.06091978 -0.045669414
-0.0029984491 0.615937 0.36966416 0.21081525 0.63895404 0.30510792 -0.0016446507 -0.07527729
0.30988014 0.5882155 0.52842426 0.8340532 0.37587622 0.57263756 -0.86992264 0.3235147
-0.09462433 -0.7299265 0.401444 -0.5040558 0.7280514 -0.6209918 0.84260315 -0.20003673
-0.5540512 0.21058832 -0.31174338 -0.27174452 0.72020686 -0.13644242 0.7542291 0.062378313
0.46761554 0.4360271 0.8830495 -0.08381233 0.5389158 -0.20189083 0.15777802 0.94884205
-0.055615734 0.28091997 0.35909095 -0.8164759 -0.79526925 -0.04173183 -0.8241679 0.02084527
00000000: 5aa9 11bf 08f8 e13d 7f00 a33e f369 303e
00000010: a81f 263f 9fa8 5bbe 0c1d 4fbf c452 0cbf
00000020: 7384 c0be 2625 1f3f ba25 0dbf 445e 4d3e
00000030: 0156 e7be 6195 1abf 2a00 6bbd e9ae a63d
00000040: e66e 383e 12cf bbbe 02bd b6be 7435 9abe
00000050: 9a28 f23d 5983 d73e ee1a 67be 9164 2b3e
00000060: 5239 2e3f 35e5 dbbe e889 bb3e 4714 85be
00000070: a27c eaba 27c5 893e 699d 403e 4afc 05bf
00000080: 2061 f2be d12a c03e afd1 0abf 42f5 4c3e
00000090: f656 0cbf b207 0bbe 0abf a3be 238f e43e
000000a0: 02d2 043f f301 9a3e 166b 5bbe aaf2 afbd
000000b0: 401c 233c ee3e 2f3f 9c29 123f ee16 91be
000000c0: d1ee 183f 3e0f 9f3e 4d6c 09bf 25c0 173e
000000d0: e46c d33e a618 84be 4994 a5be 1613 0ebf
000000e0: f8c6 c73c ba72 e43d 24bd 19bf 5ecb a7bd
000000f0: bb43 95bd 5e9b ecbe 8f6b 84be 09be 5d3e
00000100: d08c ad3e c76a 7fbd 80df 8d3e bc44 aabd
00000110: a514 2d3e fdb6 05bf f06c f93e e285 853e
00000120: abf2 453f 11a1 0a3e c035 9dbe e911 a23e
00000130: 0d6e 023f bc80 7bbe 3bb2 8fbc f2d9 8dbe
00000140: fddd eebe 6729 803d 4044 05bb 713f 473e
00000150: 5e2d 07bd c164 ef3e d019 a03d 537b 743e
00000160: 7be7 a5be 33e5 09bf 1273 22be e19f a1bd
00000170: bb47 88be b02e a63c 2b33 573e fb65 a8be
00000180: 3509 9ebe a14e dd3e 333c 29be 37f6 00bf
00000190: 2f48 003f 4daa 17be fab8 52be df75 5cbd
000001a0: b3e9 fbbe 6270 b73e d647 333e 30e4 003e
000001b0: 92cc eb3d b456 29be 96d1 823e c43b b8bd
000001c0: 6dc7 9cbe 2621 0ebf aef6 4c3e 2d93 0e3c
000001d0: f584 d53e cdb3 c03e c9a2 e2bd 8c1f b2be
000001e0: b87a 243f 0ec9 4fbe ac3b f6bd 50d0 11bf
000001f0: 7084 7fbe ba2e 053f 4908 ca3d f15f 4bbe
00000200: a598 97be 60c2 733e 8231 cd3e 6719 c03e
00000210: 5379 773e 3a15 fabe ecfb 55be 1ff5 013f
00000220: 6820 013e f532 293e f8e6 273e 6e11 0e3d
00000230: a234 853e 790b 66bd 64fb 3e3e 733f 8ebe
00000240: 7064 08bf bf12 8a3e 27d9 b73e 3162 e8be
00000250: 6e31 a03d fd9a 11bf 7d13 f13e 15f7 023f
00000260: 0794 9abc e432 15bf 007e 2dbf 1bf7 e3be
00000270: 924a eb3e 1647 853e a660 713d 651d 64be
00000280: bf78 f23c ce27 98bd 2585 623e ee4a 1f3e
00000290: 72d7 103f ee23 3cbf d405 b0bc 7540 333c
000002a0: a086 033e 6440 f8be aeca 04bf bbc9 8dbe
000002b0: 93cd b23e 9216 a33d b2e6 f2bd 34aa 423f
000002c0: 9d18 613f 99bb 5f3e fa4a 59bb 4c3f acbd
000002d0: c3fa 25be 64f4 89be 6045 c53e f053 6a3e
000002e0: e5b3 1dbf bf28 9abe ef31 d4be f4d9 6cbe
000002f0: f6d5 903d bb1d 8c3e bac2 29bf d402 1c3d
00000300: d706 793e 76e8 00bf 378a 233f ca60 fc3e
00000310: bc52 b7be 4c45 35bf 2f4d 08be 4e04 f03d
00000320: dc3b fb3e ac98 39bf 7688 57bf 4053 c03e
00000330: 4f03 76bf 637b 813c 0587 793d da0f 3bbd
00000340: a181 44bb 0cae 1d3f 9f44 bd3e f4df 573e
00000350: 7e92 233f 1b37 9c3e 5291 d7ba fb2a 9abd
00000360: 9ca8 9e3e 4a95 163f d046 073f 8384 553f
00000370: d972 c03e 6098 123f 40b3 5ebf b8a3 a53e
00000380: 67ca c1bd 77dc 3abf 118a cd3e cd09 01bf
00000390: 9461 3a3f 52f9 1ebf d7b4 573f 6ed6 4cbe
000003a0: 4dd6 0dbf 77a4 573e d49c 9fbe 1922 8bbe
000003b0: 7a5f 383f 90b7 0bbe 2915 413f 6780 7f3d
000003c0: 4e6b ef3e f23e df3e 880f 623f cda5 abbd
000003d0: 63f6 093f 78bc 4ebe 9090 213e 50e7 723f
000003e0: 53cd 63bd bed4 8f3e c5da b73e 9104 51bf
000003f0: c496 4bbf ffee 2abd abfc 52bf b3c3 aa3c

36 f4 [8]
0.5321968 0.35224855 -0.9777457 -0.76684606 -1.1240786 -0.89291525 1.5363568 2.1292102
00000000: 0d3e 083f ec59 b43e 8b4d 7abf 0650 44bf
00000010: cfe1 8fbf 1896 64bf 57a7 c43f fb44 0840

38 f4 [16, 8, 3, 3]
-0.47192916 -0.029075358 -0.61309105 0.06802341 -0.059071496 -0.28799823 0.1252241 -0.5695803
-0.5984379 -0.76520395 -0.9493568 1.0070174 -0.010906234 0.04848394 0.8023802 0.7404199
-0.69683623 -0.029900076 -0.037727196 0.7174569 -0.49093997 0.10266703 0.071319014 0.26466253
0.67206025 -0.9367693 -0.50685745 0.6376247 -0.007190177 0.4889221 -0.6681956 -0.22609979
0.0074085393 -0.9652689 -0.941119 -0.36073563 -1.0141762 0.31921464 -0.31514654 0.021923948
-1.03038 -0.33657885 -0.122871615 0.083262034 -0.38184464 0.19789663 -0.7034292 0.4361545
-0.6933598 -0.34230235 0.59409565 0.0653683 -0.57739896 -0.58962864 -0.26561767 0.8351839
-0.056479592 -0.059711814 -0.7048788 0.46886095 0.37933546 -0.84490377 -1.0317208 -0.22546507
-0.11341451 -0.3398738 -1.2594813 -0.8555363 0.06296121 0.9899203 -1.4506745 0.3656132
-0.5283375 3.1503053 -0.2705043 1.0419705 0.37381044 -0.8983216 1.1508068 0.06467214
-0.2158953 0.5456998 0.71073127 0.8850254 1.084676 0.7322984 0.61188686 0.681655
-0.30788812 0.03734727 -0.48234364 1.1815811 -1.6137819 0.21751887 0.61184615 0.050394252
-0.8821392 -1.0911921 -0.13359796 -0.17933753 0.38436142 0.17274725 -1.1727649 2.2282174
-0.70044047 -0.41544375 0.11260981 -0.72144604 0.19526593 0.49525326 0.45192295 -1.5834879
0.434958 -0.7667437 -0.67571735 0.31403232 -0.7894646 0.23644134 -0.40704796 0.13604853
-0.5323391 -1.8430766 -0.67040706 0.10251041 0.60005736 0.38051617 -0.616484 -1.0931962
-0.9282458 1.2843649 -0.8388326 0.39923078 -0.9966141 -1.2780324 1.1630355 0.0019302721
-0.6417797 0.24637027 -1.1430092 0.14255916 -0.0044915727 -0.27396184 0.28006804 -0.4836665
-0.28781408 0.5501844 -1.1831061 -0.3346969 -0.27383426 -0.7822201 0.12978016 0.28079596
0.3462745 -0.6696507 1.6770597 -0.026648592 -0.015694244 0.011421657 -0.717417 0.32110447
1.2286966 0.3871632 -0.13979946 -0.38376188 -1.0650119 -0.6120797 -0.9486083 1.037216
0.83643657 -0.07462992 0.15333307 0.5964952 -0.63347083 -0.236875 -1.1325357 -0.8229916
-0.1352836 -0.0036371495 1.7713104 0.010382155 -0.9597095 0.3797247 0.5960994 -0.3475898
-1.5581117 -1.1560335 1.4685743 1.1319764 -0.4744983 0.46530324 1.237969 -1.3089375
0.57717395 0.08090888 0.51842815 1.0148528 0.33855903 -0.6314627 -0.29695055 -0.039715752
0.56781286 0.6195278 -0.71510154 -1.0635375 0.5464282 0.22386359 -1.2412254 1.0013117
1.2451669 -1.903974 -2.5588026 -1.7869388 1.8241434 1.2225459 0.6205982 0.73056376
0.3273447 1.8574843 -0.21736135 0.390686 -0.15246686 0.41884962 -0.56985265 -0.3174961
0.49638343 0.115141936 0.09066923 0.14721937 0.35540178 -0.31048366 0.912718 0.01837061
0.17504966 0.021330599 -0.11361802 0.26821002 -0.22163619 0.6509706 -0.27083805 -0.678865
0.109613985 -0.31358907 -0.8965966 -0.034875266 -0.24836479 1.082066 -0.12867258 -0.06773331
1.461693 -0.70711416 0.273269 0.8318366 -0.32681918 -0.50224304 -0.7324857 -0.97355825
00000000: b3a0 f1be 722f eebc 89f3 1cbf dc4f 8b3d
00000010: f4f4 71bd 8174 93be bf3a 003e 04d0 11bf
00000020: 3a33 19bf 68e4 43bf 0c09 73bf f2e5 803f
00000030: 10b0 32bc 1997 463d ca68 4d3f 298c 3d3f
00000040: dc63 32bf 01f1 f4bc d587 1abd 41ab 373f
00000050: 7c5c fbbe 1843 d23d b40f 923d d981 873e
00000060: 240c 2c3f 1dd0 6fbf 69c1 01bf 5f3b 233f
00000070: 949b ebbb ff53 fa3e de0e 2bbf b486 67be
00000080: 55c3 f23b dd1b 77bf 2ded 70bf 57b2 b8be
00000090: 87d0 81bf 1a70 a33e e35a a1be da99 b33c
000000a0: 7ee3 83bf 1054 acbe 1da4 fbbd 4985 aa3d
000000b0: 2481 c3be 6aa5 4a3e f013 34bf a54f df3e
000000c0: 0780 31bf 4142 afbe a716 183f d1df 853d
000000d0: 6bd0 13bf e7f1 16bf 0aff 87be 9dce 553f
000000e0: 2557 67bd 6094 74bd f072 34bf 8b0e f03e
000000f0: 4238 c23e 9d4b 58bf 6d0f 84bf 51e0 66be
00000100: de45 e8bd f003 aebe af36 a1bf 6d04 5bbf
00000110: cff1 803d 6b6b 7d3f b4af b9bf a731 bb3e
00000120: 2041 07bf 9a9e 4940 8a7f 8abe 4a5f 853f
00000130: 1564 bf3e 68f8 65bf a34d 933f d472 843d
00000140: a813 5dbe fbb2 0b3f 7cf2 353f 0691 623f
00000150: aad6 8a3f e877 3b3f 9ea4 1c3f f180 2e3f
00000160: 83a3 9dbe 73f9 183d bff5 f6be 0d3e 973f
00000170: 6890 cebf 44bd 5e3e f3a1 1c3f 346a 4e3d
00000180: e0d3 61bf 2fac 8bbf e7cd 08be 42a4 37be
00000190: 05cb c43e a8e4 303e 291d 96bf 1d9b 0e40
000001a0: 1150 33bf 0bb5 d4be f99f e63d b0b0 38bf
000001b0: cbf3 473e d691 fd3e 7262 e73e bbaf cabf
000001c0: d1b2 de3e 5149 44bf d0fb 2cbf d8c8 a03e
000001d0: 5a1a 4abf ae1d 723e 9768 d0be 4e50 0b3e
000001e0: 6047 08bf efe9 ebbf cc9f 2bbf faf0 d13d
000001f0: 5c9d 193f 04d3 c23e e5d1 1dbf daed 8bbf
00000200: 84a1 6dbf 1266 a43f bcbd 56bf fa67 cc3e
00000210: 1a22 7fbf 9196 a3bf 59de 943f 2f01 fd3a
00000220: ad4b 24bf 7d48 7c3e 204e 92bf 07fb 113e
00000230: 0b2e 93bb ba44 8cbe 1465 8f3e 23a3 f7be
00000240: 5e5c 93be e3d8 0c3f 0570 97bf 645d abbe
00000250: 0134 8cbe 943f 48bf 17e5 043e 7dc4 8f3e
00000260: e44a b13e 3a6e 2bbf e4a9 d63f 264e dabc
00000270: 3791 80bc e721 3b3c a4a8 37bf ce67 a43e
00000280: ee45 9d3f 413a c63e 9727 0fbe 707c c4be
00000290: 4f52 88bf 41b1 1cbf fed7 72bf 7ec3 843f
000002a0: b520 563f 92d7 98bd 5803 1d3e e9b3 183f
000002b0: 252b 22bf 5c8f 72be eef6 90bf 94af 52bf
000002c0: c987 0abe 3e5d 6ebb 4dba e23f ea19 2a3c
000002d0: 86af 75bf 476b c23e f899 183f 4af7 b1be
000002e0: 3470 c7bf e8f8 93bf 3efa bb3f 9ae4 903f
000002f0: 71f1 f2be 3a3c ee3e c575 9e3f 448b a7bf
00000300: acc1 133f 8eb3 a53d b5b7 043f b2e6 813f
00000310: 9c57 ad3e 8aa7 21bf e709 98be fcac 22bd
00000320: 2f5c 113f 6099 1e3f e510 37bf ff21 88bf
00000330: b8e2 0b3f 7f3c 653e 79e0 9ebf fb2a 803f
00000340: a161 9f3f 6cb5 f3bf 6cc3 23c0 69ba e4bf
00000350: 887d e93f 627c 9c3f 86df 1e3f 3a06 3b3f
00000360: b999 a73e 0cc2 ed3f f993 5ebe ff07 c83e
00000370: 4620 1cbe 7573 d63e dde1 11bf d98e a2be
00000380: f825 fe3e 89cf eb3d cab0 b93d adc0 163e
00000390: 39f7 b53e b7f7 9ebe e3a7 693f f67d 963c
000003a0: 3840 333e 82bd ae3c 91b0 e8bd d352 893e
000003b0: 99f4 62be 02a6 263f 49ab 8abe 19ca 2dbf
000003c0: 4c7d e03d bf8e a0be 5b87 65bf 5ed9 0ebd
000003d0: 5753 7ebe 2481 8a3f bfc2 03be c3b7 8abd
000003e0: c218 bb3f 6f05 35bf eae9 8b3e 3ef3 543f
000003f0: d854 a7be 0093 00bf 2f84 3bbf 1d3b 79bf

39 f4 [16]
4.445492 1.1232749 0.9409587 1.1349458 3.676948 -3.0493062 -1.0964026 1.3636203
-0.09199493 -0.9746506 0.9014485 1.3786316 -1.9546546 -0.72792745 0.20375997 2.0737114
00000000: 7841 8e40 79c7 8f3f abe2 703f e745 913f
00000010: 1e53 6b40 d527 43c0 ec56 8cbf 1c8b ae3f
00000020: d667 bcbd b482 79bf 54c5 663f 0077 b03f
00000030: 1f32 fabf 7459 3abf 74a6 503e b0b7 0440

fc.0.bias f4 [444]
0.07299546 0.05578482 0.0017275619 0.07081865 0.006787748 0.058408316 0.014797133 0.032339506
0.009842347 0.003510313 -0.021982435 -0.0072769397 0.050801873 -0.011350804 0.03230232 0.042272706
0.055541568 -0.07304859 -0.011924421 0.033585016 -0.060666095 0.008485134 0.103510365 0.1574372
0.07284019 -0.039799716 0.032109343 0.029438686 0.08897341 0.083056994 0.065937586 0.059602063
0.059482906 0.08970067 0.089266196 -0.031331968 0.012607751 0.024506843 0.017562365 0.09689077
0.01193585 -0.008349121 0.014025895 0.09983627 0.018401042 0.0017626041 0.043510698 0.0557586
0.011191497 0.023064913 -0.0385442 0.049049687 0.065019846 0.11483395 0.00018389741 -0.016356204
0.120816104 0.014548443 0.052147143 0.14914654 0.066571064 0.036402892 0.108728945 -0.048775524
0.13426389 0.07313605 0.0073523456 -0.018526878 0.03860435 0.012532273 0.0072498596 0.08117631
0.02016752 0.09859561 0.050889987 0.13259965 -0.022549568 -0.043099843 0.15566625 0.10271138
0.012423661 0.02929995 0.099447474 0.07743556 0.1294137 0.11874547 0.06487453 -0.007200958
0.087036766 -0.02833592 -0.019691812 -0.065146886 0.113783576 0.093541086 -0.032232888 -0.033620387
0.10063219 0.06904282 -0.0030057018 0.07345864 -0.01456803 0.06050522 -0.013612045 0.1667906
0.044082318 -0.01725968 0.10113883 0.11975113 -0.05031644 0.10054244 0.09027768 0.0337952
0.024300614 -0.07807133 0.0027048334 -0.009124747 0.13962604 0.10425813 -0.006462903 0.069095016
-0.038523786 0.01345342 -0.0026143778 -0.04364535 0.030954547 0.11936162 0.07151243 0.073711224
-0.029079875 0.05328979 -0.043039035 -0.060506705 0.08541009 -0.031685464 0.03238644 -0.021673508
-0.06384991 0.070424825 0.038165767 0.107904285 0.04501511 0.03260404 0.0751283 0.09503342
-0.057090376 -0.0020091124 0.02278527 0.019491477 0.12000647 0.14228831 0.10584576 0.06273342
-0.06741366 -0.054346856 0.08770408 0.12783632 0.18047298 0.08008175 0.06861734 0.057832375
0.10367505 0.08790478 0.009722103 -0.023146948 0.11490523 0.01916393 -0.06175951 0.021626996
-0.0024013696 -0.028526593 -0.07753542 0.03764555 -0.024195872 0.0663233 0.12425246 0.12457119
-0.06909158 0.08673096 0.0794176 0.08443486 0.13489465 0.15291889 0.071197055 0.11547727
-0.07922978 0.080465995 0.0660987 0.11409283 0.123551264 -0.012560501 -0.06783653 0.096214406
-0.01882365 0.07288693 0.0039862115 0.11409803 0.00739734 -0.04859708 0.041239735 0.084641054
0.07123883 -0.035773057 0.08359377 0.08939452 0.03210312 0.042039547 0.010964051 0.107670225
0.07507428 0.035821244 0.1376033 0.14178365 0.040291313 0.17251009 0.085401475 0.04281406
-0.04809144 -0.019634575 -0.04891308 -0.03208543 0.11598819 0.004365566 0.08285333 0.10720344
0.07169337 0.025066325 0.04054136 0.0034000676 0.06828313 0.07000521 -0.01795674 -0.025729269
0.12080382 0.021307161 0.095165946 0.023109678 0.09277153 0.13097285 -0.05103289 0.10063737
0.08361517 -0.013993478 0.08890975 0.12404107 0.07922807 -0.068111375 0.05942294 0.00952854
0.07535322 0.013952421 0.10168215 0.08589408 0.05737758 -0.0021136845 -0.018344365 -0.019531839
00000000: a57e 953d a07e 643d 5c6f e23a 5e09 913d
00000010: c26b de3b 8f3d 6f3d ad6f 723c 6e76 043d
00000020: cc41 213c 480d 663b 8214 b4bc 6573 eebb
00000030: a015 503d b9f8 39bc 704f 043d 2526 2d3d
00000040: 8e7f 633d 809a 95bd a65e 43bc 7190 093d
00000050: 037d 78bd 3b05 0b3c 3efd d33d 3837 213e
00000060: 3d2d 953d 0705 23bd 1685 033d 6629 f13c
00000070: b137 b63d c919 aa3d 490a 873d 4b21 743d
00000080: 59a4 733d fcb4 b73d 32d1 b63d f355 00bd
00000090: be90 4e3c 93c2 c83c f3de 8f3c ab6e c63d
000000a0: 958e 433c c0ca 08bc decc 653c f576 cc3d
000000b0: c8bd 963c 2e07 e73a 4638 323d 2163 643d
000000c0: 8a5c 373c a1f2 bc3c 86e0 1dbd 53e8 483d
000000d0: 2029 853d 102e eb3d 96d4 4039 72fd 85bc
000000e0: 6f6e f73d 985c 6e3c 3e98 553d dfb9 183e
000000f0: 6956 883d 331b 153d 48ad de3d d8c8 47bd
00000100: 797c 093e 5ac8 953d f2eb f03b aec5 97bc
00000110: 981f 1e3d 2a54 4d3c 3b90 ed3b c43f a63d
00000120: 5b36 a53c 7fec c93d 0572 503d 34c8 073e
00000130: dfb9 b8bc 7689 30bd f966 1f3e 585a d23d
00000140: 9c8c 4b3c 7306 f03c 1eab cb3d 8996 9e3d
00000150: 0685 043e d330 f33d f0dc 843d 04f6 ebbb
00000160: 5540 b23d bb20 e8bc b950 a1bc bb6b 85bd
00000170: 5d07 e93d 7892 bf3d a206 04bd 88b5 09bd
00000180: 4018 ce3d 5266 8d3d 4ffb 44bb 7c71 963d
00000190: bfae 6ebc 52d4 773d 0e05 5fbc 28cb 2a3e
000001a0: a98f 343d 2c64 8dbc e021 cf3d 1540 f53d
000001b0: 9d18 4ebd 32e9 cd3d 81e3 b83d d66c 0a3d
000001c0: 1512 c73c dde3 9fbd 9343 313b f67f 15bc
000001d0: 21fa 0e3e 4985 d53d c3c6 d3bb b081 8d3d
000001e0: 1ecb 1dbd bc6b 5c3c fb55 2bbb 77c5 32bd
000001f0: 6494 fd3c dd73 f43d 1c75 923d e9f5 963d
00000200: eb38 eebc 6546 5a3d b349 30bd e1d5 77bd
00000210: 7ceb ae3d 9ec8 01bd a5a7 043d a48c b1bc
00000220: bec3 82bd e43a 903d b553 1c3d ecfc dc3d
00000230: c461 383d d08b 053d dedc 993d e2a0 c23d
00000240: 99d7 69bd 50ab 03bb 2da8 ba3c 97ac 9f3c
00000250: f4c5 f53d 07b4 113e a9c5 d83d 617a 803d
00000260: 2c10 8abd cf9a 5ebd 329e b33d 86e7 023e
00000270: e9cd 383e e701 a43d 3f87 8c3d a4e1 6c3d
00000280: 9653 d43d 6c07 b43d 7549 1f3c ab9e bdbc
00000290: 6f53 eb3d adfd 9c3c 8af7 7cbd 192b b13c
000002a0: 4c60 1dbb 9ab0 e9bc e4ca 9ebd 3832 1a3d
000002b0: 6c36 c6bc 83d4 873d 1378 fe3d 2e1f ff3d
000002c0: e37f 8dbd 00a0 b13d b2a5 a23d 2fec ac3d
000002d0: d321 0a3e c596 1c3e c3cf 913d 597f ec3d
000002e0: 3943 a2bd 5bcb a43d c15e 873d 80a9 e93d
000002f0: 7208 fd3d 8fca 4dbc e1ed 8abd 0f0c c53d
00000300: 0e34 9abc be45 953d c49e 823b 3aac e93d
00000310: 6365 f23b bb0d 47bd ffea 283d 4a58 ad3d
00000320: aae5 913d c586 12bd 3633 ab3d 7914 b73d
00000330: 907e 033d a931 2c3d 90a2 333c 3582 dc3d
00000340: 8bc0 993d 4cb9 123d e1e7 0c3e bc2f 113e
00000350: 8108 253d 7ca6 303e f8e6 ae3d cc5d 2f3d
00000360: 88fb 44bd b0d8 a0bc 1559 48bd 036c 03bd
00000370: 378b ed3d 060d 8f3b 02af a93d 7a8d db3d
00000380: f9d3 923d e557 cd3c b20e 263d abd3 5e3b
00000390: 07d8 8b3d e45e 8f3d 031a 93bc 30c6 d2bc
000003a0: fe67 f73d 5b8c ae3c 5de6 c23d 8250 bd3c
000003b0: 00ff bd3d bf1d 063e dd07 51bd f71a ce3d
000003c0: 6e3e ab3d e744 65bc 5116 b63d 3f09 fe3d
000003d0: 5442 a23d fa7d 8bbd 7865 733d 981d 1c3c
000003e0: ca52 9a3d b298 643c bb3e d03d 3ce9 af3d
000003f0: c104 6b3d be85 0abb ec46 96bc 3c01 a0bc

fc.0.weight f4 [444, 64]
0.009170396 0.028330136 0.07747099 0.08321638 -0.013840343 0.009496704 0.043763645 0.18437959
-0.028498612 -0.04498503 0.08999474 -0.040486317 0.15424041 0.085111804 -0.08733914 -0.12873268
0.056763425 0.13117789 0.1270923 -0.13493858 -0.0508697 -0.029423354 -0.14542666 -0.009628014
0.057568412 -0.14087659 -0.111439385 0.06277696 0.03531917 0.090845615 0.07764457 0.23368551
-0.08842731 0.20600678 0.17179154 -0.00825132 -0.0853668 0.23032399 0.0664643 -0.04530248
0.13676573 0.114290714 0.050809022 -0.16432059 -0.030233344 -0.10541977 -0.041853044 0.04004042
0.07131341 -0.064722516 -0.10261791 -0.16362426 0.22600958 0.16512394 -0.034974046 -0.016061353
-0.04568473 0.041110087 0.032843444 0.07920391 -0.04792964 -0.0079933265 -0.037563264 -0.00024395861
0.09346778 0.02572132 -0.08123921 0.08712456 -0.08677732 0.10006564 0.012355592 0.12563427
0.013722498 0.05238379 0.067449026 -0.10161065 -0.12640686 -0.16590472 -0.18383342 -0.11866483
0.036755282 -0.06197615 0.23557068 0.23758936 -0.057316437 -0.06000325 0.05171729 -0.019480275
-0.12378068 0.10863415 0.15405795 -0.10172935 -0.03963854 0.18454733 0.05134894 -0.026787158
0.1303447 -0.12487519 0.051345635 0.052991968 0.014933451 -0.046167295 0.16788161 -0.024009421
-0.04336756 -0.116950355 -0.06584448 -0.044985555 -0.03455383 0.14227413 0.14246221 0.16428249
0.10117523 -0.015926484 0.016205745 -0.13918094 0.12811399 0.029715063 -0.09914999 0.056113005
-0.06549807 -0.101322405 0.12878208 -0.018468987 0.120499045 0.02245848 0.07211726 0.05457789
-0.070850305 -0.035233963 0.035366613 -0.024811095 0.07180477 0.09900759 -0.063057944 -0.13585737
-0.044353697 -0.15336011 0.1095628 0.16709869 0.113966756 -0.16951552 0.13321596 0.11598389
-0.1900836 0.05460502 0.1976271 -0.026392253 -0.021526553 0.11151554 0.07753354 0.08513052
0.02626949 -0.16034302 0.06442755 0.07261358 0.09570336 0.15848857 0.092518665 0.07994908
-0.096715614 0.15922886 0.07152745 -0.16573006 0.024148548 0.06587675 0.119497925 0.22043228
-0.16679059 -0.10813375 0.028190996 0.023549678 -0.10624701 -0.09343445 -0.108233355 0.1283523
-0.034152012 -0.0028147504 0.060739808 0.16429302 -0.04841425 0.16637823 -0.051261462 -0.035165332
-0.05544764 0.06502919 -0.080734424 -0.025287075 0.18138337 0.081509344 -0.011225106 0.121049345
0.042376798 0.096089326 0.036983415 0.05625777 -0.08866288 0.024887512 0.16436173 0.12654907
0.08297918 0.17467827 0.09590053 -0.046603173 -0.09483659 -0.0914389 -0.13896185 -0.11684512
-0.1354363 0.009509516 0.23092388 0.131364 0.0013441928 -0.0052127563 0.033497345 -0.121059194
0.080187336 -0.1127902 -0.17263424 -0.15621269 0.0070220525 -0.011583601 -0.08605036 -0.058524717
0.11685462 0.008889614 0.112072065 0.1641442 -0.009449682 0.05670546 0.062199507 0.03135431
0.04600833 -0.039407052 -0.121456735 -0.07287417 -0.03302972 -0.08975393 0.007985547 -0.018972205
0.063438445 0.0150330495 -0.077759616 0.09169409 -0.058048315 -0.11002778 -0.09321662 0.08395716
-0.017051602 0.0050283307 0.13233414 0.008234901 0.020966915 0.13182636 0.097988 0.13557278
00000000: 6e3f 163c 9a14 e83c 1ca9 9e3d 596d aa3d
00000010: 9bc2 62bc 1098 1b3c 8241 333d 01ce 3c3e
00000020: ec75 e9bc 3942 38bd 2a4f b83d fbd4 25bd
00000030: 33f1 1d3e 194f ae3d ddde b2bd 80d2 03be
00000040: c480 683d 7f53 063e 7c24 023e 572d 0abe
00000050: bf5c 50bd 3f09 f1bc baea 14be d1be 1dbc
00000060: dbcc 6b3d f441 10be 553a e4bd 3591 803d
00000070: d6aa 103d 440d ba3d 1e04 9f3d 414b 6f3e
00000080: 6119 b5bd 71f3 523e 1fea 2f3e 8b30 07bc
00000090: cad4 aebd 0dda 6b3e 6f1e 883d 188f 39bd
000000a0: 510c 0c3e 4011 ea3d 1f1d 503d a843 28be
000000b0: ebab f7bc 52e6 d7bd 196e 2bbd 6c01 243d
000000c0: c40c 923d 3d8d 84bd 5729 d2bd 1e8d 27be
000000d0: 0e6f 673e 4016 293e f240 0fbd 1993 83bc
000000e0: e91f 3bbd 0d63 283d d986 063d a935 a23d
000000f0: df51 44bd 71f6 02bc f0db 19bd 24cf 7fb9
00000100: 096c bf3d 85b5 d23c be60 a6bd 5c6e b23d
00000110: 4fb8 b1bd 37ef cc3d 1c6f 4a3c 45a6 003e
00000120: 54d4 603c 6390 563d b722 8a3d 3f19 d0bd
00000130: cd70 01be ede2 29be d43e 3cbe 8c06 f3bd
00000140: b58c 163d b4da 7dbd 7139 713e a04a 733e
00000150: a4c4 6abd f8c5 75bd 82d5 533d 1995 9fbc
00000160: ba80 fdbd 957b de3d 5ec1 1d3e 7a57 d0bd
00000170: 065c 22bd faf9 3c3e 4453 523d be70 dbbc
00000180: 1579 053e 90be ffbd cd4f 523d 1b0e 593d
00000190: 6fab 743c eb19 3dbd 28e9 2b3e 68af c4bc
000001a0: 2fa2 31bd ab83 efbd 79d9 86bd c642 38bd
000001b0: 5188 0dbd 4fb0 113e 9de1 113e ab39 283e
000001c0: f634 cf3d 4278 82bc e9c1 843c 7385 0ebe
000001d0: 5030 033e 016d f33c 260f cbbd c0d6 653d
000001e0: da23 86bd 1f82 cfbd 73df 033e 464c 97bc
000001f0: 34c8 f63d d9fa b73c 37b2 933d 118d 5f3d
00000200: f719 91bd 7d51 10bd 95dc 103d a340 cbbc
00000210: 610e 933d 7ec4 ca3d 8624 81bd 321e 0bbe
00000220: 39ac 35bd 6f0a 1dbe 7662 e03d eb1b 2b3e
00000230: 6767 e93d 7a95 2dbe c469 083e f688 ed3d
00000240: 46a5 42be 83a9 5f3d c25e 4a3e 9134 d8bc
00000250: 7458 b0bc 4262 e43d e8c9 9e3d e958 ae3d
00000260: 1d33 d73c f630 24be 97f2 833d 6eb6 943d
00000270: 2000 c43d d44a 223e 6d7a bd3d 58bc a33d
00000280: d612 c6bd e40c 233e fc7c 923d 24b5 29be
00000290: 2dd3 c53c 64ea 863d 54bb f43d 00b9 613e
000002a0: 27cb 2abe 3a75 ddbd cef0 e63c 41eb c03c
000002b0: 0898 d9bd 905a bfbd 73a9 ddbd c96e 033e
000002c0: fbe2 0bbd ad77 38bb 4eca 783d 6e3c 283e
000002d0: 054e 46bd 0e5f 2a3e 8af7 51bd 8609 10bd
000002e0: 111d 63bd 062e 853d 1758 a5bd d726 cfbc
000002f0: 90bc 393e 5fee a63d 82e9 37bc b8e8 f73d
00000300: 4b93 2d3d 7bca c43d ec7b 173d 8c6e 663d
00000310: e294 b5bd e5e0 cb3c 714e 283e 1496 013e
00000320: fdf0 a93d dcde 323e 7f67 c43d f8e2 3ebd
00000330: b039 c2bd 5144 bbbd 044c 0ebe 7f4c efbd
00000340: d0af 0abe cdcd 1b3c 4f77 6c3e 4984 063e
00000350: a02f b03a c5cf aabb 8334 093d e2ed f7bd
00000360: 4239 a43d 8cfe e6bd 08c7 30be 38f6 1fbe
00000370: 3f19 e63b 25c9 3dbc 2c3b b0bd 9db7 6fbd
00000380: 7a51 ef3d bea5 113c 0a86 e53d 6b15 283e
00000390: d7d2 1abc fc43 683d e9c4 7e3d 616d 003d
000003a0: 3b73 3c3d 4a69 21bd 4fbe f8bd 0e3f 95bd
000003b0: 2c4a 07bd e9d0 b7bd d0d5 023c 996b 9bbc
000003c0: 04ec 813d 2e4d 763c 6f40 9fbd 1cca bb3d
000003d0: 12c4 6dbd 3f56 e1bd 5be8 bebd bbf1 ab3d
000003e0: cdaf 8bbc b2c4 a43b 9a82 073e aeeb 063c
000003f0: cfc2 ab3c 7dfd 063e efad c83d 97d3 0a3e

fc.3.bias f4 [222]
-0.0016225886 0.033358857 0.001796326 0.0011572631 0.011566451 0.012226063 0.013454987 0.008464606
-0.020733256 -0.044841785 -0.016819112 -0.035584733 0.028086536 -0.0047232728 -0.0067361146 -0.056230664
-0.024575654 -0.02068115 -0.033376563 0.022867076 -0.018392583 -0.036569428 -0.010181677 0.06017876
-0.0035494852 0.022265514 -0.028929133 0.021373363 -0.042608656 -0.036442503 -0.01535869 -0.023772575
-0.065862216 0.011352278 0.0030307681 -0.009083552 -0.015993552 -0.02064231 -0.010432202 -0.028533854
-0.075438604 -0.068588585 -0.070756234 -0.07086433 0.061386365 0.042889778 0.04239863 -0.05054493
0.03816571 0.022484137 -0.059718795 -0.004273373 0.022078438 -0.009538178 0.046020374 0.0007127635
-0.06479823 -0.062172905 -0.028364973 0.034422312 -0.036423452 0.032335136 -0.008604538 -0.03412755
0.013815255 -0.028001653 0.0008909227 0.011983823 -0.037838653 -0.017532311 -0.013887652 -0.052634105
0.004504486 -0.020217838 0.012673067 -0.010236512 -0.051750377 -0.037879832 -0.00038423366 0.025259832
0.02929185 0.030578664 -0.019049594 0.03082228 -0.00047470682 0.012077509 -0.006234571 0.01117427
0.019705793 -0.039858 0.05715073 -0.046702515 -0.045141187 -0.036039516 -0.023416933 -0.014639975
-0.023492474 -0.055161607 -0.0031668153 -0.034068294 0.018240301 -0.029271228 -0.017408732 0.01716235
0.07719632 -0.012635444 -0.0056760004 0.055096637 -0.036442675 -0.017818337 0.0034134532 0.011039785
0.04153095 0.0015822002 -0.019650578 0.022327555 -0.030273376 -0.05707959 -0.0073338617 -0.01250659
0.055364918 -0.042024374 -0.011102065 0.021840813 -0.0017554967 -0.011634135 -0.015816629 0.004785442
0.07209564 0.014560099 0.05904871 -0.009806507 0.048991248 0.019793764 0.013340412 -0.047468808
0.044237934 -0.023113512 -0.029259004 0.053771693 0.027432606 -0.006221064 -0.031554107 -0.05210471
0.01009582 -0.025561817 -0.018938262 -0.014942435 -0.043111384 -0.04133126 0.028512772 0.027878117
-0.05570673 -0.02497705 -0.039605793 0.05637652 0.03147773 -0.02078935 -0.016285285 0.033682834
0.03318069 0.014693219 0.0020262334 0.031952847 0.009243965 -0.043069866 -0.01970212 -0.03217214
-0.05198791 -0.011312333 0.04848749 -0.052409694 0.026069615 -0.020123627 -0.0023519471 0.047259416
0.039913736 0.016614765 -0.013498254 -0.007278492 -0.009570923 -0.023422541 0.0128943445 -0.026352732
-0.00092068565 0.006771063 -0.018891044 0.016048335 0.043789685 0.029727878 0.018323546 0.04129014
0.009783318 0.025376601 -0.016156739 0.075225696 0.034586597 -0.013350949 0.0085919015 -0.011955094
0.051258266 -0.024083903 -0.01998691 0.017686915 0.046737164 0.028664025 0.01742413 0.024135046
0.018675283 0.023925664 -0.020558918 0.056257337 -0.05032537 -0.0119112665 0.0092691565 -0.04255258
-0.05109292 -0.046722412 0.044469494 -0.0747774 -0.08625765 -0.008971846
00000000: 0aad d4ba 4ca3 083d b372 eb3a 4eaf 973a
00000010: 3681 3d3c d34f 483c 4e72 5c3c 21af 0a3c
00000020: cad8 a9bc 05ac 37bd 3cc8 89bc 4cc1 11bd
00000030: bc15 e63c afc5 9abb a0ba dcbb 2052 66bd
00000040: e252 c9bc 846b a9bc ddb5 08bd bc53 bb3c
00000050: 0bac 96bc d3c9 15bd 0cd1 26bc 017e 763d
00000060: 7b9e 68bb 2b66 b63c cafc ecbc 3117 af3c
00000070: 6a86 2ebd bc44 15bd 04a3 7bbc b4be c2bc
00000080: c5e2 86bd e8fe 393c da9f 463b 2ed3 14bc
00000090: e904 83bc 101a a9bc d4eb 2abc d4bf e9bc
000000a0: 8e7f 9abd 2c78 8cbd a5e8 90bd 5121 91bd
000000b0: 4570 7b3d 31ad 2f3d 30aa 2d3d 3308 4fbd
000000c0: a653 1c3d a730 b83c b29b 74bd a707 8cbb
000000d0: d7dd b43c 0546 1cbc dc7f 3c3d c0d8 3a3a
000000e0: efb4 84bd 04a9 7ebd a95d e8bc 69fe 0c3d
000000f0: c230 15bd d971 043d 0cfa 0cbc 54c9 0bbd
00000100: 6159 623c b963 e5bc cf8c 693a cc57 443c
00000110: b4fc 1abd ec9f 8fbc 0989 63bc dc96 57bd
00000120: 5e9a 933b e19f a5bc b2a2 4f3c 0bb7 27bc
00000130: 34f8 53bd e227 1bbd f872 c9b9 b5ed ce3c
00000140: 76f5 ef3c 1b80 fa3c e50d 9cbc 027f fc3c
00000150: 12e2 f8b9 bfe0 453c 5f4b ccbb 4914 373c
00000160: 0b6e a13c 2442 23bd e216 6a3d 234b 3fbd
00000170: f7e5 38bd 2c9e 13bd ded4 bfbc 81dc 6fbc
00000180: 4a73 c0bc 23f1 61bd 588a 4fbb 328b 0bbd
00000190: af6c 953c 37ca efbc c29c 8ebc 0e98 8c3c
000001a0: 1b19 9e3d e504 4fbc befd b9bb 03ad 613d
000001b0: ea44 15bd c3f7 91bc 3eb4 5f3b 37e0 343c
000001c0: 5c1c 2a3d d461 cf3a 40fa a0bc 47e8 b63c
000001d0: dfff f7bc 4acc 69bd e450 f0bb 71e8 4cbc
000001e0: 53c6 623d c021 2cbd 70e5 35bc 81eb b23c
000001f0: b218 e6ba 199d 3ebc e091 81bc 32cf 9c3b
00000200: e1a6 933d 7b8d 6e3c 0fdd 713d 79ab 20bc
00000210: 0cab 483d 8826 a23c be91 5a3c a76e 42bd
00000220: d632 353d 8c58 bdbc 94b0 efbc b53f 5c3d
00000230: 58ba e03c 11da cbbb e13e 01bd c06b 55bd
00000240: f068 253c 0467 d1bc 6a24 9bbc 1dd1 74bc
00000250: 9095 30bd f84a 29bd 9e93 e93c a660 e43c
00000260: bd2c 64bd ac9c ccbc af39 22bd 11eb 663d
00000270: cbee 003d 6d4e aabc b868 85bc 03f7 093d
00000280: 7ae8 073d d4bb 703c 8eca 043b fde0 023d
00000290: 0074 173c 076a 30bd 5766 a1bc efc6 03bd
000002a0: 46f1 54bd 5d57 39bc d19a 463d 8cab 56bd
000002b0: f28f d53c 4eda a4bc 2023 1abb 1793 413d
000002c0: 967c 233d b01b 883c c827 5dbc 6b80 eebb
000002d0: 5ccf 1cbc a1e0 bfbc cd42 533c afe1 d7bc
000002e0: 2b5a 71ba cbdf dd3b 64c1 9abc cc77 833c
000002f0: d05c 333d e187 f33c 431b 963c da1f 293d
00000300: 364a 203c 97e2 cf3c 235b 84bc ee0f 9a3d
00000310: adaa 0d3d f0bd 5abc 0cc5 0c3c 4cdf 43bc
00000320: 30f4 513d 9b4b c5bc 97bb a3bc 26e4 903c
00000330: 786f 3f3d d1d0 ea3c 0dbd 8e3c dcb6 c53c
00000340: e8fc 983c c1ff c33c 2d6b a8bc 186e 663d
00000350: fa21 4ebd 7927 43bc a9dd 173c 9d4b 2ebd
00000360: cf46 51bd 0060 3fbd a525 363d e524 99bd
00000370: daa7 b0bd a6fe 12bc

fc.3.weight f4 [222, 444]
0.036086835 0.018582936 -0.03538638 0.067285456 -0.07284564 0.06503574 -0.041576665 -0.044939894
-0.052062277 0.055161525 -0.009268232 0.012376658 0.031854022 0.016050791 -0.1068655 0.03581592
0.0012278085 0.012437979 0.00067707297 -0.07538439 -0.026779113 0.0847071 0.025517842 -0.050772242
-0.08240998 0.007083695 0.030786598 -0.022698572 -0.039430078 -0.07966015 -0.030110046 0.014084398
-0.03706682 0.06690966 -0.032348 0.021121593 -0.08881518 0.026120603 0.023870684 0.032751933
0.070765324 0.009877001 -0.037635192 0.021878438 -0.07102018 0.009085789 0.03434083 -0.071083635
-0.05297669 0.041640002 0.04783882 -0.009821747 -0.1063947 0.07606694 0.03556775 0.052468933
-0.035783056 -0.052975994 0.024230028 -0.09221448 -0.02310411 -0.04126181 0.016090805 -0.041960675
-0.0011704797 -0.029786075 -0.093681835 -0.03240182 0.029894287 0.06327737 -0.051514234 -0.054909773
0.064759 0.031876262 -0.047808602 -0.024686128 0.009828514 -0.049279362 -0.027382638 -0.027475478
0.048712373 0.014659121 -0.061999682 -0.02851802 -0.059296783 -0.048288114 -0.062492613 0.076461196
-0.014630842 0.036632024 -0.02828343 5.3713695e-05 0.041459132 -0.023935143 -0.029464407 0.05293742
0.0005379283 0.051727 0.009055866 -0.020913752 -0.003131361 0.04995241 -0.06164881 0.058738332
-0.027038164 0.050733864 0.00024116898 0.017262695 0.0074042343 0.012407676 -0.044663776 0.039697733
0.01997486 0.06332499 -0.033482064 -0.0024423362 -0.036716748 -0.055624023 0.045322705 0.07400024
0.024548348 -0.08562766 -0.01300808 0.086205475 0.01829704 0.039437775 -0.04976593 -0.0092113195
-0.026220236 -0.03958584 0.030374806 -0.032343462 -0.06759031 0.02334301 0.0046445504 -0.014011895
0.038726363 0.051530678 -0.023859983 -0.07229852 -0.010681787 -0.043371193 0.025126161 0.08099153
-0.009702302 -0.06666053 -0.04345975 0.08539575 0.05302469 -0.03386113 -0.019315433 0.034598056
-0.027882496 0.0011952143 0.04010995 -0.024433257 0.040041238 -0.060160384 -0.046726257 0.033419784
0.0044670873 0.07955343 -0.02612447 -0.020819834 -0.021785205 0.008550241 -0.03072125 0.06380302
0.051779553 -0.07687861 -0.07885858 0.07523545 0.060418673 0.0346087 0.025891123 -0.03792932
0.035252962 0.013118174 0.027413951 0.047116086 -0.047730494 -0.027057305 -0.012122021 -0.046496697
-0.010567341 0.002303551 -0.011781212 0.04856252 0.04501246 0.072894044 -0.06265116 -0.040812396
-0.04021278 0.010690126 0.057720374 0.009209762 -0.0144824125 0.05082341 0.04669991 -0.08432595
0.07102931 0.020992046 -0.05476402 0.014041103 0.05353335 -0.0029948694 -0.022554392 0.08665422
-0.06366046 -0.07491442 -0.018684955 -0.07306154 0.06930174 0.05471292 -0.0881828 0.0564477
0.004243908 -0.04465817 -0.07459276 -0.0115455445 0.056562442 -0.032657277 -0.09690026 -0.00057379203
-0.038068708 0.015065185 -0.07027159 -0.0005278965 0.06011526 0.036834225 0.05656225 -0.013527755
0.029541384 -0.07314917 0.036637966 -0.047775805 0.06339032 -0.054722864 0.08260048 -0.012768559
-0.06941197 -0.024519237 0.013441882 0.047708005 -0.014203877 -0.030558307 0.10335977 0.024947478
-0.032568246 0.036488153 -0.09123443 0.019552352 -0.06689684 0.044710755 0.004969457 -0.035717353
00000000: cacf 133d 3e3b 983c 4ff1 10bd f5cc 893d
00000010: 1830 95bd 7531 853d 4b4c 2abd e512 38bd
00000020: 413f 55bd 0df1 613d c8d9 17bc 77c7 4a3c
00000030: 5d79 023d f37c 833c 4ddc dabd b7b3 123d
00000040: 6bee a03a aac8 4b3c 997d 313a 2263 9abd
00000050: df5f dbbc eb7a ad3d cb0a d13c 8ef6 4fbd
00000060: 90c6 a8bd 571e e83b 2d34 fc3c 5bf2 b9bc
00000070: 6f81 21bd dc24 a3bd 58a9 f6bc 3fc2 663c
00000080: 61d3 17bd ef07 893d 567f 04bd 3107 ad3c
00000090: bce4 b5bd e0fa d53c 748c c33c e426 063d
000000a0: 69ed 903d 25d3 213c 5c27 1abd 693a b33c
000000b0: 0773 91bd 90dc 143c f8a8 0c3d 4c94 91bd
000000c0: 16fe 58bd b58e 2a3d a3f2 433d 65eb 20bc
000000d0: 77e5 d9bd fcc8 9b3d 7daf 113d aae9 563d
000000e0: 4191 12bd 5bfd 58bd 0d7e c63c f2da bcbd
000000f0: d544 bdbc 2502 29bd ddd0 833c f5de 2bbd
00000100: c86a 99ba ed01 f4bc 43dc bfbd c5b7 04bd
00000110: dde4 f43c 9197 813d 9700 53bd 12e9 60bd
00000120: 5ea0 843d af90 023d f4d2 43bd 903a cabc
00000130: c707 213c 28d9 49bd 8e51 e0bc 4114 e1bc
00000140: a086 473d cf2c 703c 61f3 7dbd 9f9e e9bc
00000150: 2fe1 72bd c2c9 45bd 41f8 7fbd b097 9c3d
00000160: 33b6 6fbc 760b 163d a7b2 e7bc a44a 6138
00000170: 0dd1 293d a213 c4bc 575f f1bc e8d4 583d
00000180: c203 0d3a b1df 533d 0e5f 143c 5153 abbc
00000190: 8537 4dbb e69a 4c3d 7683 7cbd 9b97 703d
000001a0: 247f ddbc 50ce 4f3d 4ee2 7c39 7f6a 8d3c
000001b0: 389f f23b 9149 4b3c 5df1 36bd 179a 223d
000001c0: 51a2 a33c 88b0 813d 7d24 09bd 9a0f 20bb
000001d0: 4d64 16bd 04d6 63bd 4da4 393d 708d 973d
000001e0: 9e19 c93c 8e5d afbd d81f 55bc 7f8c b03d
000001f0: ade3 953c 8189 213d 5cd7 4bbd 13eb 16bc
00000200: d2cb d6bc c324 22bd 96d4 f83c 947a 04bd
00000210: ca6c 8abd d739 bf3c 5031 983b 2692 65bc
00000220: 899f 1e3d d511 533d 0376 c3bc 3f11 94bd
00000230: a902 2fbc fea5 31bd 61d5 cd3c e3de a53d
00000240: 67f6 1ebc 5185 88bd da02 32bd f8e3 ae3d
00000250: 6b30 593d f8b1 0abd 663b 9ebc b1b6 0d3d
00000260: d569 e4bc bda8 9c3a 554a 243d 4128 c8bc
00000270: 4802 243d bc6a 76bd 0864 3fbd 2fe3 083d
00000280: a560 923b e9ec a23d fc02 d6bc 5b8e aabc
00000290: e376 b2bc 4f16 0c3c 22ab fbbc 28ab 823d
000002a0: cc16 543d 8872 9dbd 9b80 a1bd 0b15 9a3d
000002b0: 9279 773d dac1 0d3d 9f19 d43c c65b 1bbd
000002c0: 6965 103d 9ced 563c 3993 e03c ccfc 403d
000002d0: 0d81 43bd 48a7 ddbc 719b 46bc 5273 3ebd
000002e0: a422 2dbc 2cf7 163b fc05 41bc 7ee9 463d
000002f0: fc5e 383d 7949 953d 404f 80bd e62a 27bd
00000300: 28b6 24bd a325 2f3c 336c 6c3d 8be4 163c
00000310: a447 6dbc 352c 503d 6848 3f3d 15b3 acbd
00000320: d177 913d 83f7 ab3c 3d50 60bd a80c 663c
00000330: c945 5b3d 9245 44bb fdc3 b8bc c577 b13d
00000340: 6a60 82bd bb6c 99bd 3111 99bc 4aa1 95bd
00000350: 12ee 8d3d a81a 603d 2f99 b4bd b435 673d
00000360: 7b10 8b3b 7ceb 36bd 17c4 98bd 8629 3dbc
00000370: 05ae 673d a3c3 05bd a573 c6bd 886a 16ba
00000380: efed 1bbd f7d3 763c 8dea 8fbd 8962 0aba
00000390: 6b3b 763d 7cdf 163d d1ad 673d 84a3 5dbc
000003a0: c600 f23c 3bcf 95bd b111 163d 90b0 43bd
000003b0: c9d2 813d 1525 60bd 712a a93d 3833 51bc
000003c0: dd27 8ebd 91dc c8bc 573b 5c3c 7869 433d
000003d0: 61b7 68bc 6a55 fabc 49ae d33d a75e cc3c
000003e0: 4866 05bd 9a74 153d 1ed9 babd 412c a03c
000003f0: 3601 89bd a022 373d d4d6 a23b 5c4c 12bd
