inventory/ark_material.onnx (onnx, 719082 bytes, 8 tensors)

35 f4 [8, 3, 5, 5]
0	0xbde14e27	-0.110012345
1	0x3e1148dc	0.1418795
2	0x3d84c8ee	0.06483637
3	0xbeae14e7	-0.34000322
4	0x3e24198d	0.16025372
5	0x3abbd847	0.0014331423
6	0xbe885fea	-0.26635677
7	0x3d224e2c	0.03962533
8	0x3e73c3bf	0.2380514
9	0xbe55f7ea	-0.20895353
10	0xbc19a737	-0.009378246
11	0xbe5e41cf	-0.21704791
12	0xbea6c535	-0.32572332
13	0x3d92ccfc	0.07168004
14	0x3ea7e633	0.32792816
15	0x3e8f3368	0.27968907
16	0x3d6c34ef	0.05766767
17	0xbdcbcbcf	-0.09950983
18	0x3ef3e35e	0.47634405
19	0xbd65d1f6	-0.056108437
20	0xbe9e53e7	-0.30923387
21	0x3b9d6402	0.0048031816
22	0x3eb17532	0.34659725
23	0x3ee0b332	0.43886715
24	0x3f09f732	0.53892815
25	0x3e94ebfe	0.29086298
26	0xbcc400d1	-0.02392617
27	0x3e38f4eb	0.18062179
28	0xbda28c27	-0.07936888
29	0xbda3c6dc	-0.07996914
30	0xbe82c592	-0.2554136
31	0x3e41484f	0.1887524
32	0x3dafebff	0.085899346
33	0xbeaf4524	-0.34232438
34	0xbf160070	-0.5859442
35	0x3e18f6d7	0.14937912
36	0x3e2d0e60	0.16900015
37	0xbdeda3fb	-0.116035424
38	0xbe956d2b	-0.2918485
39	0xbf14170f	-0.57847685
40	0x3e068d2a	0.13139787
41	0xbe919b72	-0.28438908
42	0x3d884ec1	0.06655646
43	0xbef4dbf7	-0.4782407
44	0xbf0b9e4c	-0.54538417
45	0xbe761db0	-0.24034762
46	0x3d3230ea	0.04350368
47	0xbe8c537a	-0.27407438
48	0xbea2dcb9	-0.31809023
49	0xbe775021	-0.2415166
50	0x3e98b2f3	0.29824027
51	0x3c70c996	0.014696499
52	0xbd5310d7	-0.05152973
53	0xbd30b907	-0.043145206
54	0x3cb8c64d	0.022555495
55	0x3e639d11	0.22227885
56	0x3e32b214	0.17450744
57	0xbeb77e5a	-0.35838586
58	0x3edccf4c	0.43126905
59	0x3e8b5ff6	0.2722165
60	0xbed203fb	-0.41018662
61	0xbd2ba1cd	-0.041902352
62	0xbe847b98	-0.25875545
63	0x3ddace05	0.10683826
64	0x3e7ff491	0.24995638
65	0xbf027e60	-0.5097408
66	0x3e1f49a2	0.15555432
67	0xbeff5c70	-0.49875212
68	0x3c2e5426	0.01064018
69	0xbe106350	-0.14100385
70	0xbe9095ad	-0.28239194
71	0x3e465ba0	0.1937089
72	0xbf1bb8b8	-0.60828733
73	0xbe020936	-0.12698826
74	0xbdd25f3b	-0.1027207
75	0xbe1274e4	-0.14302403
76	0x3d33936e	0.04384177
77	0xbe8a9ebf	-0.2707424
78	0xbe2f3bfc	-0.17112726
79	0xbe6fa315	-0.23402055
80	0x3e084d57	0.13310753
81	0xbcf317e1	-0.029674472
82	0xbe019649	-0.12654985
83	0x3e2941f0	0.1652906
84	0x3bc2f307	0.0059493813
85	0xbd068062	-0.03283728
86	0x3d62f974	0.05541368
87	0xbe170ca5	-0.14750917
88	0x3cee678c	0.02910211
89	0xbe92535b	-0.2857922
90	0xbea1c713	-0.31597194
91	0x3ce21a1e	0.027600344
92	0xbd994611	-0.07484067
93	0xbda0da02	-0.07854082
94	0x3e2b5589	0.16731848
95	0xbee7b355	-0.45254007
96	0xbf148ddc	-0.5802896
97	0xbeddcfb3	-0.43322524
98	0xbe18c86c	-0.14920205
99	0xbd9e1aaa	-0.077199295
100	0xbc99352c	-0.018702112
101	0xbe0db49b	-0.13838427
102	0xbe8c9082	-0.27454
103	0x3e308c80	0.17241096
104	0xbd93fb36	-0.07225649
105	0x3db77d20	0.089594126
106	0x3e83e271	0.257587
107	0x3e286a4f	0.16446804
108	0x3ec44e69	0.38341072
109	0xbb896d31	-0.004193925
110	0xbe98ea53	-0.29866275
111	0x3e7f6d77	0.24944101
112	0xbe8690bd	-0.26282302
113	0xbea09d73	-0.31370124
114	0xbe35a6cb	-0.17739408
115	0x3e70504c	0.23468131
116	0xbe6d8385	-0.23194702
117	0xbe950db2	-0.2911201
118	0xbe2c3805	-0.16818245
119	0xbc3efca7	-0.011656917
120	0xbe7366a2	-0.2376962
121	0x3cc730ad	0.024315203
122	0xbde03743	-0.1094804
123	0xbe61a1fd	-0.2203445
124	0xbe3870f7	-0.18011843
125	0xbe8733c7	-0.2640669
126	0x3ea04a96	0.31306905
127	0x3da61a35	0.08110467
128	0x3c8e26bc	0.017352454
129	0xbe6c41b3	-0.23071937
130	0xbed62bfe	-0.41830438
131	0xbe0612fb	-0.13093178
132	0x3e8a212c	0.26978433
133	0x3d6590a9	0.05604616
134	0xbd51c7bd	-0.051215876
135	0xbe714b15	-0.23563798
136	0xbe6020eb	-0.21887557
137	0xbe1bfa06	-0.15232095
138	0x3eb97c1c	0.362275
139	0x3d0c0c8b	0.03419165
140	0x3e855393	0.26040325
141	0x3bb62727	0.0055588665
142	0x3e2ffd21	0.17186405
143	0x3e339aef	0.17539571
144	0xbe236123	-0.15955023
145	0x3e275bac	0.16343564
146	0x3e28c946	0.1648303
147	0xbe5ada23	-0.21372275
148	0xbde2a83d	-0.11067245
149	0x3ec2987c	0.3800696
150	0xbed5dc19	-0.41769484
151	0xbe18fcf9	-0.14940251
152	0xbdc30a61	-0.09523464
153	0xbe4d6c9f	-0.20060967
154	0xbeb17d21	-0.34665778
155	0xbeee6240	-0.46559334
156	0xbd60e076	-0.054901563
157	0xbeea47bc	-0.45757854
158	0xbe707f42	-0.23486045
159	0xbe729ec7	-0.23693381
160	0x3da90cb5	0.08254377
161	0xbeee74c7	-0.4657347
162	0xbdb16339	-0.08661503
163	0xbf049be1	-0.5180035
164	0xbef1a733	-0.47197875
165	0x3f308315	0.68950015
166	0xbda4efa6	-0.08053522
167	0x3cc1007f	0.023559807
168	0x3b84c03b	0.004051236
169	0x3ebdf7ca	0.3710311
170	0x3f5bcf36	0.85863054
171	0x3e8cff57	0.2753856
172	0x3c2b5e2d	0.010459465
173	0x3e48d729	0.19613327
174	0x3f119c89	0.5687948
175	0xbdc165c8	-0.09443241
176	0xbda7482f	-0.08168065
177	0xbe176854	-0.14785892
178	0xbec3dfb4	-0.3825661
179	0x3e73290d	0.23746128
180	0xbec75dda	-0.3893879
181	0xbd63fb93	-0.05565984
182	0xbeb6dcce	-0.35715336
183	0x3e8955bf	0.26823232
184	0xbe2dfc75	-0.16990836
185	0x3eff108b	0.4981731
186	0x3e430d1a	0.19047967
187	0x3ec6f83d	0.38861266
188	0x3dfcba86	0.12340264
189	0xbe99cec6	-0.30040568
190	0xbe75a8e0	-0.23990202
191	0x3d8592cd	0.06522141
192	0x3f262a86	0.64908636
193	0x3f12715a	0.5720421
194	0x3eb19dda	0.34690744
195	0x3e9933b2	0.29922253
196	0x3d85483a	0.06507917
197	0x3f11d6e7	0.5696854
198	0xbd8a4b4f	-0.06752645
199	0x3cd68c50	0.026189953
200	0xbed827cd	-0.42217866
201	0x3e71ac95	0.23600991
202	0xbeec68e5	-0.46173778
203	0x3e842ac1	0.2581387
204	0xbeae192a	-0.34003574
205	0x3df9e424	0.122017175
206	0xbe6ab128	-0.22919142
207	0xbe0a6df0	-0.135185
208	0xbc34d89f	-0.011037975
209	0x3dc4ed30	0.096155524
210	0xbd7116c6	-0.05885961
211	0x3a733874	0.00092781265
212	0xbe418562	-0.18898538
213	0xbeda23eb	-0.42605528
214	0x3e9894c9	0.29801014
215	0xbeaf3a33	-0.3422409
216	0xbd82c716	-0.06385629
217	0xbd850f43	-0.064970516
218	0xbc90d7f8	-0.017681107
219	0xbd8db77a	-0.06919761
220	0x3ddefda3	0.10888221
221	0x3e07fe08	0.13280499
222	0x3f43e52d	0.7652157
223	0x3eda73b2	0.42666394
224	0x3d2cb0ae	0.042160682
225	0xbe03f88e	-0.12887785
226	0x3d281d1e	0.041043393
227	0xbd062d76	-0.0327582
228	0x3e4a10af	0.19732927
229	0xbe05b4e1	-0.13057281
230	0xbe551b0e	-0.20811102
231	0xbe72f5a2	-0.23726514
232	0x3a69878c	0.00089084427
233	0xbdcceeb1	-0.10006464
234	0x3e2b283c	0.16714567
235	0x3da6ac89	0.08138377
236	0x3e83e9a5	0.25764194
237	0xbd6116e8	-0.054953486
238	0x3e6e7002	0.23284915
239	0x3d116f10	0.035506308
240	0xbc8c5fb9	-0.017135488
241	0xbd879735	-0.06620637
242	0x3d441ebb	0.04788087
243	0xbcd1f1a9	-0.025627928
244	0x3c51b2fd	0.012799022
245	0xbeded356	-0.43520612
246	0x3e24a127	0.160771
247	0x3e00ed99	0.12590636
248	0xbd4f224f	-0.05056983
249	0xbe6412ee	-0.22272846
250	0x3e3ff29b	0.1874489
251	0x3e11145f	0.14167927
252	0x3e06236d	0.13099451
253	0xbe72d1ab	-0.23712794
254	0xbe93cb11	-0.28865865
255	0xbdcb6fa8	-0.09933406

36 f4 [8]
0	0x3fd8f3d3	1.6949409
1	0x3feb0f10	1.8363972
2	0xbedcc1bb	-0.43116555
3	0x3fe282c6	1.7696159
4	0xbf96431c	-1.173923
5	0xbff29166	-1.8950622
6	0x3f70a542	0.94002163
7	0xbfaff06d	-1.3745247

38 f4 [16, 8, 3, 3]
0	0xbe602b27	-0.21891461
1	0xbf288640	-0.6582985
2	0x3e918f62	0.28429705
3	0xbf00d6b4	-0.5032761
4	0xbe3a43f4	-0.18189985
5	0x3f0ca08a	0.54932463
6	0x3edf58ce	0.4362244
7	0x3fa9a8e9	1.3254672
8	0xbe30eb65	-0.17277296
9	0x3e670ea3	0.22564177
10	0x3f9c2c72	1.2201064
11	0xbdc2370f	-0.09483158
12	0xbf11e794	-0.56993985
13	0xbe7944b9	-0.24342622
14	0x3e8caa0d	0.27473488
15	0xbe34a110	-0.17639565
16	0x3e836ab7	0.25667354
17	0xbec74bd1	-0.3892503
18	0x3facc14c	1.349649
19	0x3d62ae9c	0.0553423
20	0xbf22e076	-0.6362375
21	0x3e9d21be	0.30689806
22	0xbe2a9daf	-0.16661714
23	0x3f0be55e	0.5464686
24	0x3f0b971c	0.5452745
25	0x3f6fccd0	0.93671894
26	0x3f0b69e6	0.54458463
27	0x3ed3f4f9	0.41397837
28	0x3f17fdaa	0.59371436
29	0xbe05447b	-0.13014404
30	0x3f060ab6	0.52360094
31	0xbf3f206a	-0.74658835
32	0xbfe82ce1	-1.8138696
33	0xbeb1bb93	-0.3471342
34	0x3e0ebf71	0.13940217
35	0x3f81fea1	1.0155832
36	0x3f6955c0	0.9114647
37	0xbf68ee1d	-0.9098833
38	0x3f90e8ef	1.1321086
39	0xbf1620af	-0.5864362
40	0xbefabe12	-0.48973137
41	0x3f050e78	0.519752
42	0x3ea3f3ae	0.3202185
43	0xbe9842d7	-0.29738495
44	0xbcd6f911	-0.026241811
45	0xbcef2a7b	-0.029195061
46	0xbe59c9b3	-0.21268348
47	0xbf2045a4	-0.62606263
48	0x3f93eeea	1.1557286
49	0xbee7b400	-0.45254517
50	0x3f0e9de9	0.557097
51	0x3f11492d	0.5675228
52	0x3faeafa3	1.364735
53	0x3fa84b7a	1.3148034
54	0xbf1c0723	-0.6094839
55	0xbef915ec	-0.48649538
56	0x3d9d208a	0.07672222
57	0x3dae7964	0.08519247
58	0x3d916bcd	0.071006395
59	0xbfb28ec0	-1.3949814
60	0x3fa5bf11	1.2948934
61	0x3da97007	0.08273321
62	0x3e530139	0.20605935
63	0xbf496719	-0.7867294
64	0x3eb1fe9b	0.3476456
65	0xbf9fa561	-1.2472345
66	0xbe61fbe8	-0.22068751
67	0xbf2ba2e3	-0.6704542
68	0xbfb4cb73	-1.4124588
69	0xbf2d6554	-0.6773274
70	0x3f3a9172	0.7287818
71	0x3f1833d0	0.5945406
72	0x3e5fc961	0.21854164
73	0xbf1ec667	-0.6202149
74	0x3ef71597	0.4825866
75	0xbf24e967	-0.64418644
76	0xbfb111d5	-1.3833567
77	0xbf499f07	-0.7875828
78	0x3f3d0749	0.7383924
79	0x3d10fe92	0.035399027
80	0xbeeca70b	-0.46221194
81	0xbf3af204	-0.73025537
82	0xbf15c184	-0.58498406
83	0xbf5b982c	-0.8577907
84	0xbf61c934	-0.88197637
85	0x3f26cc4a	0.6515547
86	0x3f88f213	1.0698875
87	0x3f66bfb0	0.9013624
88	0x3f5f4a13	0.87222403
89	0x3eaa1100	0.33216095
90	0xbdcdf7f8	-0.10057062
91	0x3f0bf317	0.546678
92	0xbf0a3c14	-0.5399792
93	0xbf1a687b	-0.60315675
94	0xbf17c986	-0.59291875
95	0xbfb06d33	-1.3783325
96	0xbf0419fc	-0.5160215
97	0xbebd2b71	-0.36947206
98	0xbf4af9c8	-0.79287386
99	0x3ed9521c	0.42445457
100	0x3e7d59af	0.24741243
101	0x3d40f639	0.047109816
102	0x3f0e9ce6	0.5570816
103	0xbf0881f2	-0.5332328
104	0x3e96767e	0.29387277
105	0xbf098a94	-0.5372708
106	0xbf947d9c	-1.1600833
107	0xbd30e380	-0.04318571
108	0xbf148599	-0.58016354
109	0xbee46e56	-0.4461543
110	0x3e3ef6b0	0.18648791
111	0xbf0173cc	-0.50567317
112	0xbf6963c2	-0.91167843
113	0x3e77af1f	0.24187897
114	0x3eb547a8	0.35406232
115	0x3f603d35	0.87593395
116	0xbe9bc031	-0.30420068
117	0x3d8a707d	0.06759737
118	0x3f4a85ae	0.7911023
119	0xbee895fe	-0.45426935
120	0xbdc61c8d	-0.096734144
121	0x3f4e5126	0.8059257
122	0xbf474edb	-0.778547
123	0xbcf5000e	-0.029907253
124	0xbde96868	-0.11396867
125	0xbd08aa6c	-0.033365652
126	0xbf10f445	-0.56622726
127	0x3ef14d6f	0.4712939
128	0x3ee5f6e2	0.4491492
129	0x3f443d8d	0.7665642
130	0x3e30b81e	0.17257735
131	0x3f0c0acf	0.5470399
132	0x3f0bf46c	0.54669833
133	0xbf68e0d4	-0.9096806
134	0xbf106f04	-0.56419396
135	0x3e8b4fa0	0.27209187
136	0xbe83b0d0	-0.25720835
137	0x3e9364db	0.28787884
138	0xbeccb883	-0.3998452
139	0x3f282fb9	0.6569782
140	0x3e9c6764	0.3054763
141	0x3e7ffa04	0.24997717
142	0xbf8836a1	-1.0641671
143	0xbfa72a5c	-1.3059802
144	0xbf8b2bcf	-1.0872744
145	0xbec4aa11	-0.38411
146	0xbf3c9e06	-0.73678625
147	0xbf04c749	-0.51866585
148	0x3faac4b4	1.3341279
149	0xbda839f3	-0.08214178
150	0xbd506ee2	-0.050886996
151	0x3edf26ba	0.43584234
152	0x3f27076d	0.65245706
153	0x3e7bbdae	0.24584076
154	0xbe61a810	-0.22036767
155	0x3eeb77da	0.45989877
156	0xbf87f8a3	-1.0622753
157	0xbddb43db	-0.10706302
158	0x3f8c9cb9	1.0985328
159	0xbe423b26	-0.18967876
160	0x3edbdf12	0.42943627
161	0xbfabfc43	-1.3436359
162	0x3f42c07c	0.7607496
163	0xbf9105dd	-1.1329914
164	0x3effa2d4	0.49928916
165	0x3f323dde	0.6962565
166	0xbef14b5d	-0.4712781
167	0x3cd46038	0.025924787
168	0x3dba8bd6	0.09108703
169	0xbf75e728	-0.9605584
170	0xbe5b96fb	-0.21444313
171	0xbdec6648	-0.11542946
172	0x3e5730ff	0.21014784
173	0xbf62a021	-0.8852559
174	0x3eac44ba	0.33646184
175	0x3ef21be1	0.47286895
176	0x3ed82029	0.42212036
177	0xbec10c2d	-0.37704602
178	0x3f576076	0.8413156
179	0xbf39bf72	-0.7255775
180	0x3e467bc1	0.19383146
181	0x3f4c908d	0.79908067
182	0x3f5188ee	0.81849563
183	0x3d214a64	0.039377585
184	0xbf24aad7	-0.6432318
185	0xbf74530e	-0.9543923
186	0x3d6cfdd3	0.057859253
187	0xbe95c137	-0.29248974
188	0x3ca24bd9	0.019811558
189	0xbf08d16f	-0.5344457
190	0x3d8b2ee0	0.0679605
191	0xbeebbce6	-0.46042556
192	0xbf753801	-0.9578858
193	0x3f2a8099	0.66602474
194	0x3f5910d4	0.847913
195	0x3f242a76	0.6412729
196	0xbe2fd46a	-0.17170873
197	0x3cf5ee44	0.03002084
198	0x3f66357c	0.8992536
199	0x3f8af702	1.0856631
200	0xbdd06128	-0.10174781
201	0x3f10f3d7	0.5662207
202	0x3f507349	0.8142591
203	0x3d54cf06	0.051955245
204	0x3f36d18f	0.7141351
205	0x3f056329	0.5210443
206	0x3e9bad0c	0.30405462
207	0xbeadf6b9	-0.33977297
208	0x3ef65dc6	0.48118418
209	0x3db1ba7c	0.08678147
210	0xbea38cee	-0.31943458
211	0x3f8abe39	1.0839301
212	0x3ebd4826	0.36969107
213	0x3e21df49	0.15807833
214	0x3eb5e744	0.35528004
215	0xbea5cd28	-0.32383084
216	0xbf4501e0	-0.76955986
217	0x3ee4a43c	0.4465655
218	0xbf62492b	-0.88392895
219	0x3efeb4a1	0.49747184
220	0x3f4a8bcb	0.7911956
221	0xbe8abaea	-0.2709573
222	0xbd4ebcce	-0.050473027
223	0xbf312850	-0.69202137
224	0xbfaed996	-1.3660152
225	0x3ecea742	0.40361983
226	0xbf307f0b	-0.6894385
227	0x3f148f03	0.5803072
228	0xbfc61bcf	-1.5477237
229	0xbff6cd1c	-1.9281344
230	0xbf1ef438	-0.620914
231	0xbedd2b41	-0.43197063
232	0xbe31e2ad	-0.17371626
233	0x3fd3433f	1.6504897
234	0xbf763c36	-0.96185625
235	0xbf63c5dd	-0.8897379
236	0xbf542b60	-0.82878685
237	0xbe384127	-0.17993604
238	0x3b83b497	0.0040193307
239	0x3de2aca4	0.11068085
240	0xbe7a6f2d	-0.24456473
241	0xbf4500c6	-0.76954305
242	0x3f089e81	0.5336686
243	0x3f1874ce	0.5955323
244	0x3f9dd95c	1.2331958
245	0x3e8134bb	0.25235543
246	0x3f60eca2	0.87861073
247	0x3f5abf66	0.854483
248	0x3f8c845c	1.0977893
249	0xb8b891f8	-8.8009925e-05
250	0xbf2295d6	-0.6350988
251	0xbfa2241e	-1.2667272
252	0x3ec66024	0.38745224
253	0xbef84d62	-0.48496538
254	0xbe757ae8	-0.23972666
255	0xbe8c1cba	-0.27365667

39 f4 [16]
0	0xbed09c45	-0.40744224
1	0x401f4e27	2.489145
2	0xbfcdf7f2	-1.6091292
3	0x3fbcb3f7	1.4742421
4	0xc03ef6f3	-2.9838226
5	0x403a2fea	2.9091744
6	0xbde6a184	-0.112612754
7	0xbf958b82	-1.16832
8	0x402c595b	2.6929538
9	0x4072b80f	3.792484
10	0x3eac1efa	0.33617383
11	0x3fafe34a	1.3741238
12	0x3fe91069	1.8208133
13	0xc01e4fc5	-2.4736187
14	0x3f743006	0.9538578
15	0x40343884	2.8159494

fc.0.bias f4 [526]
0	0x3d634652	0.055486985
1	0x3d82ae84	0.063809425
2	0xbc26ad9e	-0.0101732295
3	0x3ce3738a	0.027765054
4	0x3dce88e1	0.10084701
5	0x3dc4f9d6	0.09617965
6	0x3df66156	0.12030284
7	0xbd232586	-0.039830707
8	0x3d34df33	0.04415817
9	0x3dbb8592	0.09156336
10	0x3c35fe1f	0.0111079505
11	0x3d87cec8	0.06631237
12	0x3d95e5c7	0.07319217
13	0xbc6ba576	-0.014382711
14	0x3dbee019	0.09320087
15	0xbca4cfd1	-0.020118626
16	0x3d0786a8	0.033087403
17	0x3bcdccfa	0.0062805386
18	0x3d3ec64c	0.04657583
19	0x3d6b4f39	0.0574486
20	0x3df16c7b	0.11788269
21	0xbc58405a	-0.013198936
22	0x3d926e58	0.07149953
23	0x3c2a7420	0.010403663
24	0x3dc2cc1d	0.09511588
25	0xbc1fdd0b	-0.009757291
26	0x3d9a0ae6	0.0752161
27	0xbcd95365	-0.026529023
28	0x3dc9f3d7	0.09860962
29	0x3d832eb9	0.06405396
30	0x3ddd216d	0.10797391
31	0xbd6afb54	-0.05736859
32	0xbc9c1a45	-0.019055495
33	0xbc631593	-0.013860124
34	0xbd1ca9da	-0.03824792
35	0x3d54dcad	0.051968265
36	0x3da653cb	0.08121451
37	0x3d546ce0	0.051861644
38	0x3d7fe57f	0.062474724
39	0xbd378b02	-0.044810303
40	0x3ca14df3	0.01969049
41	0xbb8e4068	-0.004341174
42	0x3df013c9	0.11722524
43	0x3c98deaf	0.018660871
44	0xbcf50c9b	-0.029913237
45	0x3dcd1160	0.1001308
46	0x3dadbb27	0.08482962
47	0x3db3472b	0.087538086
48	0x3d845da6	0.064631745
49	0x3d6534d1	0.055958573
50	0x3a3ff9f6	0.0007323319
51	0x3bc06daa	0.005872448
52	0x3db3a913	0.08772483
53	0xbc887d2d	-0.016661251
54	0x3de660d9	0.11248941
55	0x3dda3169	0.106539555
56	0x3d63a937	0.055581298
57	0x3cb1c42b	0.021699985
58	0x3d9dd30b	0.07706269
59	0x3dbf6c6a	0.0934685
60	0x3b31b9e9	0.0027118868
61	0x3df2b6ed	0.118512966
62	0x3d579374	0.052630857
63	0x3d183658	0.0371612
64	0xbcbc6e36	-0.023001771
65	0x3de81870	0.11332786
66	0x3dd1929a	0.1023304
67	0x3e008324	0.12550026
68	0x3d28bc6c	0.041195318
69	0x3c5ce3aa	0.013482014
70	0x3c11ed65	0.008906697
71	0x3d7fd3f3	0.06245799
72	0x3e0280f6	0.12744507
73	0x3de0d6e0	0.10978484
74	0x3d956d2b	0.07296213
75	0x3d8481d4	0.06470075
76	0x3daf9af6	0.08574478
77	0x3dbba3f9	0.09162135
78	0x3dbb9681	0.09159566
79	0x3e16365d	0.14669175
80	0x3b33b321	0.0027420002
81	0x3d4f1aa2	0.05056251
82	0xbd2b85a6	-0.041875504
83	0xbd3ad9da	-0.045617916
84	0x3c37494d	0.01118691
85	0x3d236d8b	0.03989939
86	0x3d835c7e	0.06414126
87	0xbc2b7c10	-0.0104665905
88	0x3b002a1a	0.0019556344
89	0xbd365b3b	-0.044520598
90	0x3db9da3c	0.09074828
91	0x3c689a50	0.014196947
92	0x3afe48cf	0.0019400361
93	0xbd80573f	-0.06266641
94	0x3cb59d06	0.022169601
95	0x3b591144	0.0033121863
96	0x3d532f28	0.051558644
97	0x3d37b031	0.044845764
98	0x3dd1c99f	0.10243534
99	0x3d940ec1	0.072293766
100	0x3d810a50	0.06300795
101	0x3b07de04	0.0020731697
102	0xbd9a5e94	-0.075375706
103	0xbc94f961	-0.01818532
104	0x3d69d736	0.057090007
105	0x3e1b9212	0.1519244
106	0x3e24f141	0.16107656
107	0xbc801c75	-0.01563857
108	0x3da97a6c	0.08275303
109	0x3dbeb35a	0.09311552
110	0x3ce8532b	0.02835997
111	0x3ba1c1a5	0.0049364143
112	0x3d9b0474	0.07569209
113	0x3d1730be	0.03691172
114	0x3de1a2a9	0.11017353
115	0x3d6595ae	0.05605095
116	0x3e065e2a	0.13121858
117	0x3ba7a2d8	0.005115848
118	0x3ceb44ca	0.028719325
119	0xbd6a3215	-0.05717667
120	0x3cc7aeb2	0.024375293
121	0x3d38e065	0.045135874
122	0x3c5ba3a5	0.013405715
123	0x3cfdd34c	0.030984543
124	0x3d1cbef5	0.03826805
125	0x3dc9de64	0.09856871
126	0x3dbc0d32	0.09182204
127	0x3e018bad	0.12650938
128	0xbd9eb797	-0.07749861
129	0x3d54548a	0.051838435
130	0x3a017289	0.00049380265
131	0x3d94f9a3	0.07274177
132	0xbd80f556	-0.06296794
133	0x3d5d0a2f	0.05396479
134	0xbd44ec0e	-0.04807668
135	0x3d64bab5	0.05584212
136	0x3e006ad7	0.12540756
137	0x3d2d3c4f	0.042293843
138	0x3c8a62ab	0.016892752
139	0xbc5048c1	-0.012712658
140	0x3d873804	0.06602481
141	0xbc8315a2	-0.016001526
142	0x3debf912	0.11522116
143	0xbc971a39	-0.018445121
144	0x3dd77275	0.10519878
145	0x3dd7a307	0.10529142
146	0x3d933d80	0.071894646
147	0x3dfc3d1b	0.123163424
148	0xbca5fcc4	-0.02026213
149	0x3e0e0ef4	0.13872892
150	0x3da5396c	0.08067593
151	0x3d9ec689	0.07752711
152	0x3df3717b	0.11886879
153	0xbd09e964	-0.033669844
154	0x3d9f3ba8	0.077750504
155	0xbcae5912	-0.021282706
156	0x3c6e7b5f	0.014555781
157	0xbbeb3ac0	-0.0071786344
158	0x3ba7bd49	0.005119
159	0xbc931037	-0.017952068
160	0x3e003d4f	0.12523387
161	0x3d293e48	0.04131916
162	0x3b5ebd2d	0.003398727
163	0x3d693fed	0.05694573
164	0x3cc7123d	0.024300689
165	0xbb8820bf	-0.0041542943
166	0xbbf26bd2	-0.007398107
167	0xbb66250f	-0.0035117303
168	0xbc65e98b	-0.014032732
169	0x3d551653	0.052023243
170	0x3d957a68	0.07298738
171	0x3dcfaa5d	0.10139916
172	0x3d94bcc7	0.07262569
173	0xbcc69a93	-0.024243629
174	0x3c0d6241	0.008629383
175	0xbcf50812	-0.029911075
176	0x3d41c43e	0.04730629
177	0x3dfc4c85	0.123192824
178	0x3dbc2420	0.09186578
179	0x3cc50525	0.024050305
180	0x3c4fd66c	0.0126853995
181	0x3d00d100	0.031449318
182	0x3d6266e3	0.0552739
183	0x3d308e08	0.0431042
184	0x3b274c21	0.0025527554
185	0x3d858bb5	0.065207876
186	0x3bdab2a8	0.0066741295
187	0x3d056ab5	0.032572467
188	0x3d9145af	0.07093369
189	0xbbed5ca7	-0.007243711
190	0x3ca472d7	0.020074291
191	0xbd9ad02d	-0.07559238
192	0x3c759d37	0.014991096
193	0xbce4c8c4	-0.027927764
194	0x3d977b88	0.073966086
195	0x3d8ecff1	0.069732554
196	0x3d9412ed	0.07230172
197	0x3da2b13b	0.0794396
198	0x3cd7cdf2	0.02634332
199	0xbc4165eb	-0.011804084
200	0xba988219	-0.0011635452
201	0xbd4f44f2	-0.05060286
202	0x3d839263	0.064244054
203	0xbcb53c96	-0.022123616
204	0x3d316699	0.043310735
205	0x3d166d28	0.036725193
206	0x3c63db5e	0.013907282
207	0x3d2bbf24	0.041930333
208	0x3da8bbde	0.08238958
209	0x3d62854a	0.055302896
210	0x3bcc40db	0.0062333173
211	0x3d11aad1	0.035563294
212	0x3d097e45	0.033567686
213	0x3cd66d86	0.026175272
214	0xbcd69c33	-0.026197528
215	0x3dd47278	0.10373396
216	0x3df97375	0.12180225
217	0x3dfc46ab	0.12318166
218	0x3c73a64f	0.014871194
219	0x3de36d84	0.11104873
220	0x3de96fc8	0.11398274
221	0x3dcaa192	0.09894098
222	0x3d82dea4	0.063901216
223	0xbb939299	-0.00450356
224	0x3dec6186	0.115420386
225	0xbbaf813d	-0.0053559826
226	0x3cb2def3	0.021834826
227	0xbcbfebc3	-0.02342785
228	0x3d5eb638	0.054372996
229	0x3d92a2e4	0.07159975
230	0x3c1b11ce	0.009464694
231	0x3db4b9a2	0.08824469
232	0x3dec8af4	0.11549941
233	0x3d8e3967	0.069445424
234	0x3ded7608	0.11594778
235	0x3cb3e3eb	0.021959266
236	0xbcb89c85	-0.022535572
237	0x3dd9eedf	0.10641264
238	0x3d1c5d9e	0.038175218
239	0xbcd452ca	-0.025918383
240	0xba5cdda3	-0.00084253604
241	0xbd4e4f6e	-0.05036872
242	0x3d275cf7	0.040860143
243	0x3d0b8dfd	0.034070957
244	0x3d527424	0.05138029
245	0xbd0e7418	-0.034778684
246	0x3ab63d1f	0.0013903714
247	0xbd306ec8	-0.0430744
248	0xbd5e5a17	-0.054285135
249	0x3d7bffe1	0.061523322
250	0x3dc80318	0.09766215
251	0x3dbde20c	0.09271631
252	0x3d28ce84	0.041212574
253	0xbd8cdae4	-0.068776876
254	0xbb27469b	-0.0025524262
255	0x3e0d65fb	0.13808434

fc.0.weight f4 [526, 64]
0	0x3d20deee	0.039275102
1	0x3e29f47b	0.16597168
2	0x3c511fcd	0.01276393
3	0x3e0dde91	0.13854434
4	0xbdbaf71d	-0.09129164
5	0x3c095e97	0.008384368
6	0xbdfbab15	-0.12288491
7	0xbdbbefc8	-0.09176594
8	0xbd1903be	-0.037357084
9	0x3a4d0d56	0.00078221166
10	0x3e1eaf58	0.15496576
11	0x3d69302a	0.0569307
12	0xbd8ecbe9	-0.069724865
13	0xbbcb4cf6	-0.006204243
14	0x3db38bbb	0.08766886
15	0x3cdcafbf	0.026939271
16	0x3d79b6f4	0.060965493
17	0x3e0d105e	0.13775775
18	0xbc47d5ea	-0.012196997
19	0x3dee863a	0.116466954
20	0x3e310d55	0.17290242
21	0xbde806ad	-0.11329398
22	0xbd093775	-0.033500154
23	0xbdf08bda	-0.117454246
24	0xbbe5d64f	-0.007014073
25	0x3d3030d8	0.04301533
26	0x3d10a505	0.035313625
27	0x3e3fcc3a	0.1873025
28	0xbdc3942f	-0.09549748
29	0x3d631f72	0.05544991
30	0xbe30e0fb	-0.17273323
31	0x3c80d156	0.01572482
32	0x3e1a4d02	0.15068439
33	0x3ad29696	0.0016066607
34	0x3d967fc8	0.07348591
35	0xbda2b1d2	-0.07944073
36	0x3d75df59	0.060027454
37	0xbdea1c67	-0.114311986
38	0xbcee2878	-0.029072031
39	0x3d43d532	0.04781074
40	0x3bd18cca	0.006394957
41	0xbd0423ce	-0.03226071
42	0xbd7ce2e4	-0.061739817
43	0xbd837429	-0.0641864
44	0x39d6062c	0.0004082186
45	0xbdf30b3b	-0.118673764
46	0x3e453240	0.1925745
47	0xbe00d488	-0.12581074
48	0x3cdaa320	0.026689112
49	0x3dd8411a	0.10559292
50	0xbe32f449	-0.17476
51	0x3dc0ae66	0.09408264
52	0x3dc5b794	0.096541554
53	0x3df8fbe5	0.1215742
54	0x3d2b5dc6	0.041837476
55	0x3e330360	0.17481756
56	0xbc82beff	-0.015960215
57	0xbd79cbd2	-0.060985394
58	0xbd96b97c	-0.07359597
59	0x3d94906e	0.0725411
60	0x3d296db2	0.04136438
61	0x3d1142e0	0.035464168
62	0x3d44b7de	0.048026912
63	0x3ddc3414	0.107521206
64	0x3ca19d6f	0.01972839
65	0xbc80974b	-0.015697142
66	0x3d50917a	0.050919987
67	0x3da71be7	0.08159619
68	0x3db4777e	0.08811854
69	0x3e171b5a	0.14756528
70	0xbd1f8c8f	-0.038952406
71	0xbd490a54	-0.049082115
72	0x3c9c8f5f	0.019111333
73	0x3d5ec575	0.05438753
74	0x3d95b9d2	0.07310833
75	0x3bebd3a3	0.00719686
76	0x3d851c44	0.06499532
77	0xbd30e347	-0.0431855
78	0x3e00b1da	0.12567845
79	0xbdc22c76	-0.094811365
80	0xbdc4cb07	-0.09609037
81	0xbe4a5b5c	-0.19761413
82	0xbdabdd19	-0.083917804
83	0xbd2bbbed	-0.041927267
84	0xbe4e6bbd	-0.20158286
85	0xbd48ca45	-0.049021024
86	0xbd137af4	-0.03600593
87	0xbd95152c	-0.07279429
88	0x3da53c30	0.080681205
89	0x3e191b34	0.14951783
90	0x3de51c8d	0.11187086
91	0x3d68d796	0.056846224
92	0x3dcaaa7d	0.09895799
93	0xbd4bdf3d	-0.049773443
94	0xbda37604	-0.07981494
95	0xbe11138a	-0.1416761
96	0xbd40ffa3	-0.047118794
97	0x3e60250a	0.2188913
98	0x3d5f1ad1	0.054468933
99	0xbd866d36	-0.06563799
100	0x3da4adc4	0.08040956
101	0x3e4f8ed6	0.20269331
102	0x3d6363d2	0.055515118
103	0x3e292ce1	0.16521026
104	0xbc798966	-0.015230512
105	0x3c8532e4	0.016259618
106	0x3d17886e	0.036995344
107	0xbd5c9791	-0.053855482
108	0x3cb8a241	0.022538306
109	0x3d0525eb	0.032506865
110	0x3e07a4d3	0.13246469
111	0x3e1c7367	0.15278398
112	0x3cf14794	0.029453076
113	0xbc889e01	-0.016676905
114	0x3e3f96da	0.18709889
115	0xbd88ca7b	-0.06679245
116	0xbe0c3939	-0.13693704
117	0xbdad9112	-0.084749356
118	0x3deb704c	0.11496028
119	0xbd0de06a	-0.034637846
120	0x3e0e09fb	0.13870995
121	0x3d84f8bf	0.06492757
122	0x3de5cf6b	0.112212025
123	0xbcb2dcf9	-0.021833884
124	0xbdc9c934	-0.098528296
125	0xbccbf7dc	-0.024898462
126	0xbd7c80c5	-0.06164624
127	0x3c60da30	0.013723895
128	0x3a920199	0.0011139392
129	0x3db7af28	0.08968955
130	0xbda6f242	-0.08151676
131	0x3de7606e	0.112976894
132	0x3bc0d00a	0.005884175
133	0x3cef3e5e	0.029204544
134	0x3d210cd6	0.039318882
135	0xbcc569d0	-0.024098307
136	0x3bd7a010	0.0065803602
137	0x3d52bb8e	0.051448397
138	0x3d694aed	0.05695622
139	0x3db532e9	0.08847601
140	0xbd2aa5e4	-0.041662112
141	0xbdb5f4e7	-0.08884602
142	0x3e0faf7f	0.1403179
143	0x3d893382	0.066992775
144	0x3e166635	0.14687426
145	0xbc875f45	-0.01652492
146	0xbc6a103e	-0.014286099
147	0x3d813124	0.06308201
148	0xbc324974	-0.01088177
149	0xbcdb2e88	-0.026755586
150	0x3df7143c	0.12064406
151	0xbd604440	-0.05475259
152	0xbd2f2401	-0.042758945
153	0xbd59a0a5	-0.05313172
154	0x3cb50be3	0.022100395
155	0x3d8fb1b7	0.07016318
156	0x3d8400cd	0.06445465
157	0x3de65103	0.112459205
158	0xbdb7a04d	-0.08966122
159	0x3d83ea67	0.06441193
160	0x3d998565	0.07496146
161	0xbe19b687	-0.15011035
162	0x3d117f1a	0.035521604
163	0x3ca92310	0.020646602
164	0x3d0bdac1	0.034144167
165	0x3c640899	0.0139180655
166	0x3c891ae8	0.016736463
167	0xbd8c1aa0	-0.06841016
168	0x3d4ad4df	0.049519416
169	0x3c713966	0.0147231575
170	0xbd8be992	-0.068316594
171	0x3d280a09	0.041025195
172	0xbbd1bee6	-0.0064009307
173	0xbd64e49c	-0.05588208
174	0x3d45acdd	0.04826056
175	0x3d33efb8	0.043929785
176	0xbca84af3	-0.020543551
177	0xbddabe80	-0.10680866
178	0xbcc20839	-0.023685561
179	0x3dc0241a	0.09381886
180	0x3c94c726	0.018161368
181	0x3d8dc820	0.069229364
182	0xbd0c95b7	-0.034322467
183	0x3d976a0f	0.07393276
184	0x3dce08c7	0.10060268
185	0x3c9ff16a	0.019524295
186	0x3d36179d	0.044456113
187	0x3ddfcf7e	0.10928248
188	0x3d5d3926	0.05400958
189	0xbdc894a6	-0.097939774
190	0x3b8eb09f	0.004354551
191	0x3dca809e	0.09887813
192	0xbbe28a20	-0.0069134384
193	0x3db5dac8	0.0887962
194	0xbd6f0acd	-0.05835991
195	0xbc6a2c21	-0.014292748
196	0x3d1659ef	0.03670686
197	0x3dbcbd28	0.09215766
198	0xbd9b79b7	-0.07591575
199	0x3d1c937e	0.038226597
200	0xbe27195a	-0.16318265
201	0x3d912a17	0.07088106
202	0x3d89851f	0.06714844
203	0x3e1ea7a2	0.15493634
204	0x3ccdc760	0.025119483
205	0x3d911bd0	0.07085383
206	0x3e22edf5	0.15911086
207	0x3e35aed3	0.17742471
208	0xbdb7fa5f	-0.08983301
209	0xbde580a5	-0.112061776
210	0x3b743bce	0.0037267092
211	0x3bef5679	0.0073040095
212	0xbd30a720	-0.043128133
213	0x3c1a1951	0.00940545
214	0xbe5361db	-0.20642798
215	0xbd94819b	-0.07251283
216	0x3e1e973c	0.15487379
217	0xbe4e3685	-0.20137985
218	0xbcf3b716	-0.029750388
219	0xbdf834e5	-0.12119464
220	0xbdcf28e1	-0.10115219
221	0xbcb60860	-0.02222079
222	0x3a1a610a	0.0005889094
223	0x3e1f9912	0.15585735
224	0x3e35f4cd	0.17769165
225	0xbd47749a	-0.048695184
226	0xbe3bda09	-0.18344893
227	0xbde2cd5e	-0.11074327
228	0x3d2ca924	0.042153493
229	0x3e230898	0.15921247
230	0x3ca60857	0.020267649
231	0x3d4d5d4b	0.0501378
232	0xbc8a1112	-0.016853843
233	0xbd8511cd	-0.06497536
234	0x3ae753de	0.0017648896
235	0xbdc2f9f7	-0.09520333
236	0x3cfea87b	0.031086197
237	0x3c4fac7b	0.0126754
238	0xbde7f350	-0.11325705
239	0x3d475b01	0.048670772
240	0x3dc3ad01	0.09554482
241	0x3dcb5ef1	0.09930218
242	0x3e882d31	0.26596978
243	0xbc2872e6	-0.0102813
244	0x3d2352d3	0.03987391
245	0xbd9c06ab	-0.07618459
246	0xbd6a4352	-0.057193108
247	0xbde71aa6	-0.1128438
248	0xbd8579f8	-0.06517404
249	0xbe3161f7	-0.17322527
250	0x3d024c1c	0.031810865
251	0x3d30ab4d	0.043132115
252	0x3e2c1aba	0.1680707
253	0xbc47204a	-0.012153694
254	0x3e1a7ca6	0.15086612
255	0x3e133b21	0.14378025

fc.3.bias f4 [263]
0	0xbb007fd2	-0.0019607437
1	0xbccbbb25	-0.02486951
2	0xbc6600a3	-0.014038238
3	0x3b2fcafe	0.0026823874
4	0x3c372dc5	0.011180346
5	0x39ae9f83	0.00033306712
6	0x3c5464cf	0.012963488
7	0xbc068831	-0.0082111815
8	0xbaadeb30	-0.0013268944
9	0xbd4a128b	-0.04933409
10	0xbd460c33	-0.048351478
11	0xbd369056	-0.044571243
12	0x3c13bdeb	0.009017448
13	0xbca0ba20	-0.019620001
14	0x3c0011fc	0.007816788
15	0xbcdbb4bc	-0.02681958
16	0xbbda8b1d	-0.0066694156
17	0xbcd49fc5	-0.02595509
18	0xbc984b0a	-0.018590469
19	0xbcbdb5f3	-0.02315805
20	0xbcd74775	-0.02627919
21	0xbc24bc8e	-0.010054721
22	0xbb844beb	-0.0040373704
23	0x3b794174	0.0038033398
24	0x3c76c45e	0.015061466
25	0x3cba87bb	0.0227698
26	0x3c388781	0.011262775
27	0x3c8b278d	0.016986633
28	0xbc7a58cb	-0.015279959
29	0xbc6937d7	-0.014234505
30	0x3cb7a585	0.022417793
31	0xbbf25057	-0.007394831
32	0xbbcf845a	-0.006332916
33	0xbbc6a1a8	-0.0060617514
34	0x3b13c19d	0.0022545822
35	0xbc28728c	-0.010281216
36	0xbbea3a5a	-0.0071480693
37	0xbbfd6f5c	-0.0077342223
38	0xbc415760	-0.011800617
39	0x3b9c4365	0.0047687762
40	0xbcb1c937	-0.021702392
41	0xbd35c4a8	-0.044377
42	0xbd0c30d2	-0.034226246
43	0xbd8afc09	-0.06786353
44	0x3d063249	0.0327628
45	0x3c08c60a	0.008347997
46	0xbccacab7	-0.024754865
47	0xbc57dfef	-0.0131759485
48	0xbcafb2bb	-0.02144753
49	0xbcd9981a	-0.026561785
50	0x3cb31112	0.021858726
51	0x3bee342e	0.007269404
52	0xbb3ed308	-0.0029117484
53	0xbce8525f	-0.02835959
54	0x3a759ee6	0.0009369686
55	0x3d063f31	0.032775108
56	0xbb434561	-0.0029795992
57	0x3c1abcc4	0.009444419
58	0x3affc7b8	0.0019514477
59	0x3c0bdffe	0.008537291
60	0xbcac993c	-0.021069162
61	0xbd385261	-0.045000438
62	0xbcc6f5de	-0.02428716
63	0x3cdadc69	0.026716428
64	0xbc091601	-0.008367063
65	0xbc2c040c	-0.010499012
66	0x3cb80a72	0.022465918
67	0x3c18a328	0.009316243
68	0xbd0209b2	-0.031747527
69	0xbb5094a8	-0.0031826887
70	0x3b23e30d	0.002500716
71	0xbd277afa	-0.040888764
72	0xbc897666	-0.01678009
73	0xbd378682	-0.04480601
74	0xbd61e20a	-0.05514721
75	0xbd088059	-0.033325527
76	0x3c5717ea	0.01312826
77	0xbb87c189	-0.0041429442
78	0xbb81e556	-0.0039641066
79	0xbbd4554a	-0.006479894
80	0xbd2f7252	-0.042833634
81	0xbbf207dd	-0.0073861913
82	0x3c68a36f	0.014199122
83	0xb9a30bb6	-0.00031098508
84	0x3d1274cd	0.03575592
85	0x3cbb4924	0.022862025
86	0x3c602b8e	0.013682259
87	0x3d37f8a8	0.04491487
88	0xbc1de54d	-0.009637189
89	0xbd12c65a	-0.035833694
90	0xbc34e421	-0.011040718
91	0x3bca0f90	0.006166406
92	0xbad2aa1f	-0.0016072429
93	0xbcba690f	-0.022755174
94	0x3d279866	0.040916823
95	0xbd2904f2	-0.04126448
96	0xbcb32cd1	-0.021871956
97	0xbc84e661	-0.016223134
98	0xbb2195e3	-0.002465599
99	0x3c948d22	0.018133704
100	0xbac88c49	-0.0015300597
101	0xba07bb3c	-0.00051777414
102	0xbcc9b7ff	-0.024623869
103	0xbcaee462	-0.021349136
104	0x3ced9542	0.029001836
105	0xbca913cb	-0.02063932
106	0xbbea9e8e	-0.0071600145
107	0x3ac27d5b	0.0014838384
108	0x3d067ec7	0.032835748
109	0x3b3f4bf0	0.002918955
110	0x3b32c806	0.0027279868
111	0x3b54c803	0.003246785
112	0x3b859cda	0.004077536
113	0xbb6bffe6	-0.0036010682
114	0xbcac09c8	-0.021000758
115	0x3c3cbd6d	0.011519772
116	0x3c6c953f	0.01443988
117	0xbc4b9a40	-0.012426913
118	0xbcf45442	-0.029825334
119	0x3d139ece	0.03604012
120	0xbd065ac8	-0.03280142
121	0xbd232bfb	-0.039836865
122	0xbc2e7640	-0.01064831
123	0x3ca47c8b	0.020078918
124	0x384f85f4	4.94774e-05
125	0xbc93173b	-0.017955413
126	0xbc017b3b	-0.007902916
127	0x3c8215d2	0.015879545
128	0x3c5338d5	0.012891968
129	0xbca47d97	-0.020079417
130	0xbd3386b5	-0.04382964
131	0x3c081871	0.008306609
132	0xbd02f142	-0.031968363
133	0x3d0b269c	0.033972368
134	0x3c254cdd	0.010089126
135	0xbd009b4d	-0.031398106
136	0x3c88d98e	0.0167053
137	0xbc78be88	-0.015182145
138	0x3be3dc80	0.006953776
139	0x3ca6caca	0.02036037
140	0xbc14bcdd	-0.009078232
141	0xbc7cb5b9	-0.015424185
142	0xbcee1321	-0.029061856
143	0xbc01fff6	-0.007934561
144	0xbc1d50e7	-0.009601808
145	0xbc8fb779	-0.017543541
146	0x3cf31437	0.029672725
147	0x3c803137	0.015648467
148	0x3cf0a576	0.029375773
149	0x39a434e8	0.00031319936
150	0xbc4530c9	-0.012035557
151	0xbc6a252c	-0.014291089
152	0xbd5aa3cd	-0.05337887
153	0x3c8c6c12	0.017141376
154	0x3be2f8e5	0.006926643
155	0xbc93e0ef	-0.018051593
156	0xbb2a345f	-0.0025971157
157	0x3c55c8a8	0.013048328
158	0x3d4a85e6	0.0494441
159	0xbc957d99	-0.018248366
160	0x3c3e9482	0.011632087
161	0x3c3d135e	0.011540262
162	0xbcc2cd6a	-0.02377959
163	0xbc61da74	-0.013784993
164	0x3cb6a4e4	0.022295423
165	0xb9055ff8	-0.0001271962
166	0xbd611b72	-0.054957815
167	0xbd5a4059	-0.053284023
168	0x3cff3a4e	0.031155732
169	0xbd078663	-0.033087146
170	0x3b378851	0.0028004835
171	0xbc944ed5	-0.018103996
172	0x3cd50d12	0.026007209
173	0x3c1dbdba	0.009627754
174	0xbbd509a4	-0.0065013934
175	0xbad7e641	-0.0016471819
176	0x3c041d97	0.008063695
177	0xbc9b63b7	-0.018968446
178	0xbc1dce21	-0.0096316645
179	0xbcb6e2f5	-0.022325018
180	0xbc78461a	-0.015153432
181	0xbafefeb9	-0.0019454575
182	0xbc70fd96	-0.014708897
183	0xbc3e7add	-0.011625973
184	0x3c9e1bc6	0.019300353
185	0x3ccc8200	0.024964333
186	0xbc9bdcb0	-0.01902613
187	0xbbe66467	-0.007031012
188	0xbb0a01fa	-0.0021058307
189	0xbb2e6d1d	-0.002661533
190	0x3c96fe5d	0.018431837
191	0xbbb75869	-0.005595256
192	0xb976a518	-0.0002352189
193	0x3b3fe9be	0.0029283608
194	0xbcfa6954	-0.030567802
195	0xbcb32ca8	-0.02187188
196	0x3c1c2dde	0.00953242
197	0x3c56c0bd	0.013107476
198	0xbc1d3a27	-0.009596384
199	0x3c1ec124	0.009689603
200	0xbb1aabed	-0.002360101
201	0xbb93f826	-0.0045156656
202	0xbd786850	-0.060646355
203	0xbc366781	-0.011133076
204	0x3cd62697	0.026141448
205	0x3cac842d	0.02105912
206	0x3c7f5f06	0.01558662
207	0xbc8288cd	-0.015934372
208	0x3ce3d898	0.02781324
209	0x3c922156	0.017838161
210	0x3ca0778f	0.01958826
211	0x3c76c1d7	0.015060863
212	0xbba04ad2	-0.004891732
213	0xbc908a8a	-0.017644186
214	0xbcab328e	-0.02089813
215	0xbc11c3b6	-0.008896759
216	0x3c1c6f5e	0.009548036
217	0x3be017c0	0.0068387687
218	0xbc77ffca	-0.015136668
219	0x39f4f82f	0.00046724218
220	0x3ce41358	0.027841255
221	0xbc159ea2	-0.009132059
222	0x3ca3574c	0.019939087
223	0xbc2167d6	-0.009851417
224	0x3c69d86b	0.0142727895
225	0x3ba982a1	0.005173043
226	0xbcb43256	-0.021996658
227	0xbbb6e7b1	-0.005581819
228	0x3c465f5c	0.012107696
229	0x3c8065ad	0.015673483
230	0x3cb1f61b	0.021723798
231	0xbcb0140c	-0.021493934
232	0xbc0ca119	-0.008583331
233	0x3b415620	0.0029500797
234	0x3ca7b455	0.020471731
235	0x3c26e685	0.010186796
236	0x3cb80670	0.022464007
237	0x3d070d50	0.03297168
238	0x3bc740a5	0.0060807043
239	0x3d0edb36	0.034877025
240	0xbc685a01	-0.014181615
241	0x3bec099d	0.0072032944
242	0xbc891dc0	-0.016737819
243	0xbc2541ca	-0.010086486
244	0x3c311075	0.010807146
245	0xbcfd8062	-0.030945007
246	0x3d000978	0.03125903
247	0xbd1ce8a5	-0.038307805
248	0x3b8196f1	0.003954761
249	0xbd76ebdc	-0.060283527
250	0x3c26ba1b	0.010176207
251	0xbcf9361b	-0.030421307
252	0xbc8d769d	-0.017268473
253	0x3acb8ebb	0.0015530208
254	0xbd0e50d0	-0.034745038
255	0xbcc780a4	-0.024353333

fc.3.weight f4 [263, 526]
0	0x3b86eb20	0.0041173846
1	0x3b8dac0a	0.004323487
2	0xbc0ca1c8	-0.0085834935
3	0xbd1d3e2f	-0.03838938
4	0x3d33c07c	0.04388474
5	0x3d003c56	0.03130754
6	0x3da31b1e	0.079641566
7	0xbcc1d984	-0.02366329
8	0x3c64a6cf	0.013955786
9	0xbd3107e0	-0.0432204
10	0x3d32ed09	0.043683086
11	0xbb691b87	-0.0035569386
12	0x3d133754	0.035941437
13	0xbc03aed5	-0.008037289
14	0x3cd91db8	0.026503429
15	0x3c47c585	0.012193088
16	0x3cbe9b8d	0.023267532
17	0xbcf0fbf9	-0.029417025
18	0x3d8c14a7	0.068398766
19	0xbcc84bd9	-0.02445023
20	0x3d092041	0.033478025
21	0x3b0cae60	0.002146624
22	0xbd49cff9	-0.049270604
23	0xbcc63338	-0.024194345
24	0x3db676dd	0.0890939
25	0x3b2193d2	0.0024654758
26	0xbc432dbc	-0.011912759
27	0x3d72967b	0.05922554
28	0x3c8aee5b	0.01695936
29	0x3d2c44c4	0.042057768
30	0xbd290611	-0.04126555
31	0xbd08a6ad	-0.03336208
32	0x3c939632	0.018015955
33	0x3d16dcd8	0.036831707
34	0x3cb99429	0.022653656
35	0xbcd23e5f	-0.025664506
36	0x3b901434	0.0043969397
37	0x3cdc50db	0.026894024
38	0x3d16b864	0.036796942
39	0xbbbd0c63	-0.005769299
40	0x3cb0da62	0.021588508
41	0x3cc13976	0.02358697
42	0xbd0fc284	-0.035097614
43	0xbd6c413b	-0.057679396
44	0xbd336bde	-0.043804042
45	0x3d13e46d	0.036106516
46	0xbc9e8b74	-0.019353606
47	0xbd64c4a2	-0.055851586
48	0xbd0157f0	-0.031578004
49	0xbc0d063a	-0.008607442
50	0x3bb78b4a	0.0056013213
51	0xbc799152	-0.015232401
52	0x3cc7f447	0.024408473
53	0x3d96bd14	0.073602825
54	0x3d2e1516	0.042500578
55	0x3af2b613	0.0018517397
56	0xbd96e19d	-0.07367251
57	0xbb8efb46	-0.00436345
58	0x3d7bece6	0.06150522
59	0x3c0085dd	0.0078444155
60	0xbcfac036	-0.030609231
61	0xbce93491	-0.028467448
62	0xbc19805d	-0.009368983
63	0x3d77b12e	0.060471706
64	0x3d32d43f	0.043659445
65	0x3d9cb650	0.07651961
66	0xbd38635f	-0.045016643
67	0xbd877935	-0.06614915
68	0xbd177c5b	-0.03698383
69	0x3d8dbb6c	0.069205135
70	0x3c24b274	0.010052312
71	0x3cbbbdc1	0.02291763
72	0x3ce08df3	0.027411437
73	0xbd866777	-0.06562703
74	0x3d2cd3f8	0.042194337
75	0x3c017e0d	0.007903588
76	0xbda8c3e3	-0.082404874
77	0xbdc07da9	-0.09398968
78	0xbdcadca8	-0.09905368
79	0xbc712617	-0.014718554
80	0x3b903d27	0.004401821
81	0x3bb56baa	0.005536516
82	0xbd01516d	-0.031571794
83	0x3c241a45	0.010016029
84	0xbd9255f1	-0.07145298
85	0x3ce3012b	0.027710518
86	0x3a8340d7	0.0010013831
87	0x3ce09eab	0.027419409
88	0x3b278504	0.0025561461
89	0xbc0db0a3	-0.0086480705
90	0x3bd2e576	0.0064360453
91	0x3ce482b0	0.027894348
92	0x3c0a5c26	0.008444821
93	0xba75ebeb	-0.0009381163
94	0xbbfc34dd	-0.0076967315
95	0xbd6cd6b6	-0.05782195
96	0x3c24e6f9	0.010064834
97	0x3c35ddd8	0.011100255
98	0x3d1d9067	0.03846779
99	0x3d24c7b4	0.040229514
100	0xbd31fa70	-0.043451726
101	0x3cfd5ce2	0.030928079
102	0xbc2a24eb	-0.0103847785
103	0xbbca597f	-0.0061752195
104	0x3d305723	0.04305185
105	0xbd0b2885	-0.03397419
106	0xbabb7d32	-0.0014304279
107	0xbd4a6435	-0.04941197
108	0xbd3ac286	-0.04559567
109	0xbd21fddd	-0.039548744
110	0xbc1220b9	-0.0089189345
111	0xbd9f3e9a	-0.07775612
112	0xbcded888	-0.02720286
113	0xbcfe5eb0	-0.03105101
114	0x3d05194e	0.032494836
115	0x3d480f5f	0.048842784
116	0xbb22cfde	-0.0024843137
117	0x3b23767b	0.0024942446
118	0xbd4f4c10	-0.05060965
119	0x3d7a7ff1	0.06115717
120	0x3d669a08	0.05629924
121	0xbb25915a	-0.0025263638
122	0x3b20a439	0.0024511947
123	0x3ca169e6	0.019703817
124	0xbcca2b3f	-0.024678824
125	0x3c49ca6e	0.012316329
126	0xbb1d13a6	-0.002396801
127	0xbd160e1f	-0.03663456
128	0x3cd5ba66	0.026089858
129	0x3d059f16	0.03262242
130	0x3d74a17e	0.059724323
131	0xbce98b3c	-0.028508775
132	0xbc31f5c0	-0.010861814
133	0x3c81de72	0.01585314
134	0x3cda5e44	0.026656277
135	0x3c364923	0.011125836
136	0x3d29a501	0.041417126
137	0xbdd36a27	-0.10322981
138	0xbd3315fc	-0.043722138
139	0xbd7df0b3	-0.061997127
140	0x3d1e33c6	0.038623594
141	0x3d170c46	0.03687694
142	0xbd2b6140	-0.04184079
143	0x3b3e36a2	0.0029024263
144	0xbcaf1c55	-0.021375814
145	0xbd522b46	-0.0513108
146	0xbc19930f	-0.00937344
147	0x3d7ec9ad	0.06220405
148	0xbd54ce75	-0.051954705
149	0x3d18ae79	0.037275765
150	0xbd29df75	-0.04147287
151	0xbc8de5d8	-0.017321512
152	0x3cd00bc3	0.025396233
153	0xbd26076d	-0.040534426
154	0x3d1be59c	0.03806077
155	0xbd6405e1	-0.05566967
156	0xbd9c63fb	-0.07636257
157	0xbd32f7fb	-0.043693524
158	0xbd6796ad	-0.05654018
159	0x3d3488a6	0.04407563
160	0x3ae492f0	0.001743881
161	0xbc35b852	-0.011091309
162	0x3c5bd903	0.013418439
163	0xbccf6a53	-0.025319254
164	0x3d2494af	0.04018086
165	0x3c9b9b37	0.01899491
166	0xbc82bb70	-0.015958518
167	0x3c3cdbc7	0.011527008
168	0xbd121a81	-0.035669807
169	0xbcde1bca	-0.02711286
170	0xbcd33333	-0.02578125
171	0x3ce88243	0.028382426
172	0xbd0eea5a	-0.034891464
173	0x3b2e5143	0.0026598729
174	0xbc0f73c9	-0.008755633
175	0x3d2d7271	0.042345468
176	0xbc000219	-0.007813
177	0xbd0dbb90	-0.0346027
178	0x3d2bcdfd	0.041944493
179	0xbc666e1d	-0.014064339
180	0x3d28d3a9	0.04121748
181	0xbc08135c	-0.008305397
182	0xbbbe6348	-0.005810175
183	0xbd83eef5	-0.06442062
184	0x3d5aea58	0.053446144
185	0x3c33f40f	0.010983481
186	0x3cc9b326	0.024621557
187	0x3c96a119	0.018387364
188	0x3cf776c4	0.030207999
189	0xbbc1d86b	-0.0059156916
190	0x3d31bbc3	0.043391954
191	0x3bcb56f6	0.006205435
192	0xbd0743d8	-0.033023685
193	0xbd997e45	-0.07494787
194	0xbd0e1903	-0.03469182
195	0x39b88b95	0.00035199212
196	0xbcf1ce85	-0.029517421
197	0x3a75e3cc	0.00093799527
198	0xbcc66b96	-0.024221223
199	0xbc69bf90	-0.014266863
200	0xbc054521	-0.008134157
201	0xbced78f1	-0.028988333
202	0xbc82b6da	-0.015956331
203	0x3d5feb36	0.054667674
204	0x3b323601	0.0027192833
205	0xbcf4e4cc	-0.029894255
206	0x3d4f7215	0.050645906
207	0xbc5d933d	-0.013523874
208	0x3cbcac52	0.023031387
209	0x3cbead5e	0.023276027
210	0x3be30f59	0.00692932
211	0x3cb48adc	0.02203887
212	0xbb2fc6bd	-0.0026821338
213	0xbc266a52	-0.010157185
214	0xbd8718e8	-0.06596547
215	0xbd2dbf87	-0.042418983
216	0x3b9fb60d	0.004873997
217	0x3cc5ce2f	0.024146168
218	0x3cab5ccb	0.02091827
219	0xbc4030c5	-0.011730378
220	0xbd70000c	-0.058593795
221	0x3d85feca	0.06542738
222	0xbc8ff2d7	-0.01757185
223	0xbc8f4915	-0.017490903
224	0x3d8b1a7d	0.067921616
225	0xbd68b741	-0.05681539
226	0xbd29dd6f	-0.04147094
227	0xbd1c3fc0	-0.038146734
228	0xba364b61	-0.00069539814
229	0xbcd49534	-0.025950052
230	0xbd9df8db	-0.07713481
231	0x3cf7f678	0.030268893
232	0xbd10cdb3	-0.03535242
233	0x3c1c2a98	0.0095316395
234	0xbce21ebc	-0.027602546
235	0x3cfd144c	0.030893467
236	0x3d0790a6	0.033096932
237	0xbd93192f	-0.07182538
238	0xbd520c8d	-0.0512815
239	0x3d46a779	0.048499558
240	0x3c6a7e09	0.014312276
241	0x3c803dc6	0.015654456
242	0xbc829834	-0.015941717
243	0xbd30d876	-0.043175183
244	0xbbab25e8	-0.0052230246
245	0xbca2cfe8	-0.019874528
246	0xbd5741e6	-0.05255308
247	0xbcbebe90	-0.023284227
248	0x3c1c56c5	0.009542172
249	0x3b4d6158	0.003133854
250	0xbd2eb131	-0.04264945
251	0x3d213174	0.039353803
252	0x3cbc62df	0.022996364
253	0x3cb85f0d	0.022506261
254	0x3c8b80db	0.017029217
255	0x3cfd79d6	0.030941885
